input/gru_model.pth (torch, 211996 bytes, 6 tensors)

gru.weight_ih_l0 f4 [384, 5]
0.036132343 -0.018074226 -0.03603384 -0.00093143166 0.040703155 -0.043738645 -0.069430985 0.0123294005
0.035750173 -0.010412842 0.043142196 -0.002461678 -0.042739723 0.00078534725 -0.061411466 0.08254942
-0.012144779 0.052681006 0.015101517 0.032105345 0.06035767 0.027621293 0.043544285 0.039658915
-0.009097205 -0.06834587 -0.0634934 0.041724887 -0.061342683 -0.049077183 -0.011374682 0.022434171
-0.04019342 0.014497351 0.045634013 -0.053299554 -0.042732783 0.0351877 0.08408864 0.058788486
-0.077837974 0.06047793 -0.07200366 -0.022405667 0.057856776 0.04363849 0.02191185 -0.0060084774
0.01532902 -0.0019026214 0.009613201 0.07447327 -0.011366025 0.029634738 0.00843214 0.060172603
-0.037567306 -0.07345226 0.055083163 0.05618509 0.063681945 -0.013031761 -0.0065641473 0.075120255
-0.06768867 0.037643246 0.030172618 0.00018719424 0.057388257 -0.028168391 -0.05267025 0.028259026
-0.0058220355 0.07060885 0.0062329257 -0.010546263 0.027252845 0.07708095 0.059023242 -0.020352768
0.0040905965 -0.054952938 0.062130682 0.037266273 -0.07566943 0.012656539 -0.045846477 6.412098e-05
0.0027785609 -0.07377659 0.07000357 0.045867722 0.06774858 0.07425603 -0.016612936 -0.07067651
-0.063819 0.017262174 -0.06937247 -0.014005737 -0.03128033 0.056410585 0.053803593 0.005833683
-0.04807291 -0.050480098 0.019549334 -0.020377591 0.00014262632 0.027870843 0.049110424 -0.06638961
0.042497046 0.043549087 0.016591614 0.040704407 -0.012990882 -0.019685298 0.054261934 0.01784626
-0.0188427 0.067127444 -0.054887436 -0.010367581 0.03318703 -0.05993291 -0.031015636 0.06917584
0.046345353 0.023003764 -0.072854064 0.00855234 -0.04821405 -0.047231488 0.065760136 -0.036759827
-0.02586478 0.01683715 0.0049625966 0.03727077 0.006369795 0.003823183 -0.07385252 0.0397525
-0.03739905 0.07023556 0.02027433 -0.0049152207 -0.026639892 -0.050062735 -0.01681709 0.06483095
-0.018595414 0.029324535 -0.016582947 -0.029425243 -0.056160662 -0.004060725 -0.004099222 0.038242854
0.031125462 -0.009100886 0.02130975 0.052999023 0.050665975 0.046839416 -0.009316764 0.023382034
0.056696106 -0.029085843 0.017122127 0.043293677 -0.05097036 -0.022150142 -0.06946988 -0.020363245
-0.04473877 0.031112757 -0.0037536544 -0.073553585 -0.059643503 -0.06805175 -0.050973274 -0.07002527
0.057625394 -0.0068903686 -0.012332522 0.042066686 0.016670467 0.07666521 -0.042907696 -0.056879785
-0.07159817 -0.0014773548 0.017136464 0.030939601 0.021002427 0.06292827 -0.0032486701 0.021985246
-0.0014673723 0.006758473 -0.0030316096 0.010122427 0.0014404497 0.03940183 0.044800293 -0.05383599
-0.010309243 -0.015458773 -0.028178366 -0.021314563 -0.014283041 0.05312585 0.046961688 -0.06427989
0.0404065 0.017874563 -0.027744489 -0.058292054 -0.022095848 0.032132287 0.003893159 -0.031488813
-0.011059987 -0.03636418 0.073349096 -0.048985418 0.089655034 0.007135148 0.019032197 0.078896604
-0.06881448 -0.016724639 -0.02016154 -0.013926325 0.075863265 0.06355286 0.047655914 -0.077465944
-0.0020444165 -0.011065179 -0.020566259 -0.02627503 0.02377371 -0.06747917 -0.07882803 0.09025003
-0.06650836 -0.03259945 -0.008831064 -0.07651624 0.037642356 0.048250884 -0.031761367 -0.06566894
00000000: 82ff 133d 6610 94bc 3898 13bd 522b 74ba
00000010: 5ab8 263d 4b27 33bd d531 8ebd 4101 4a3c
00000020: c66e 123d a09a 2abc dfb5 303d 1b54 21bb
00000030: d90f 2fbd c3df 4d3a 978a 7bbd ac0f a93d
00000040: e5fa 46bc 0ac8 573d 5a6c 773c e580 033d
00000050: 9b39 773d 0d46 e23c 7e5b 323d 6371 223d
00000060: 710c 15bc ebf8 8bbd d408 82bd b7e7 2a3d
00000070: 7742 7bbd 2805 49bd e05c 3abc dec7 b73c
00000080: dba1 24bd 4c86 6d3c bbea 3a3d a250 5abd
00000090: 9208 2fbd fa20 103d aa36 ac3d 32cc 703d
000000a0: 8469 9fbd b5b7 773d a876 93bd 178c b7bc
000000b0: 3afb 6c3d 46be 323d 7b80 b33c c3e2 c4bb
000000c0: 9226 7b3c 6161 f9ba b080 1d3c 7185 983d
000000d0: 9038 3abc 8dc4 f23c f526 0a3c 8c77 763d
000000e0: 2de0 19bd 236e 96bd e29e 613d 5622 663d
000000f0: ae6b 823d 2b83 55bc 0f18 d7bb a6d8 993d
00000100: 5ba0 8abd ce2f 1a3d 912c f73c 9249 4439
00000110: f30f 6b3d 66c1 e6bc c3bc 57bd 797f e73c
00000120: c6c6 bebb 5f9b 903d 923d cc3b 3cca 2cbc
00000130: 5c41 df3c 9edc 9d3d 5bc2 713d d9ba a6bc
00000140: 690a 863b 5516 61bd be7c 7e3d 85a4 183d
00000150: 93f8 9abd 5f5d 4f3c 84c9 3bbd b078 8638
00000160: 8418 363b 2e18 97bd 085e 8f3d cbdf 3b3d
00000170: c4bf 8a3d 8c13 983d da17 88bc d9be 90bd
00000180: 89b3 82bd 6769 8d3c 2713 8ebd 5278 65bc
00000190: ce1f 00bd c90e 673d 2861 5c3d 7b28 bf3b
000001a0: 1ae8 44bd 38c4 4ebd ed25 a03c e8ee a6bc
000001b0: f68d 1539 6551 e43c 0328 493d 47f7 87bd
000001c0: 6211 2e3d 8760 323d 23eb 873c aab9 263d
000001d0: b5d7 54bc 1043 a1bc c341 5e3d 5232 923c
000001e0: 025c 9abc 1d7a 893d a6d1 60bd c9dc 29bc
000001f0: 20ef 073d 367c 75bd 8114 febc 10ac 8d3d
00000200: a0d4 3d3d 6472 bc3c 8334 95bd 1d1f 0c3c
00000210: 187c 45bd ce75 41bd 40ad 863d 7991 16bd
00000220: 60e2 d3bc 10ee 893c 479d a23b 3ca9 183d
00000230: b7b9 d03b 5e8e 7a3b fd3f 97bd 84d3 223d
00000240: bf2f 19bd a9d7 8f3d 5a16 a63c dc0f a1bb
00000250: e73b dabc 950e 4dbd fec3 89bc 17c6 843d
00000260: 6955 98bc 023a f03c f6d8 87bc 350d f1bc
00000270: b908 66bd d50f 85bb c452 86bb 8aa4 1c3d
00000280: d3fa fe3c e21b 15bc c991 ae3c 8115 593d
00000290: 2087 4f3d b0da 3f3d 57a5 18bc ae8b bf3c
000002a0: 2d3a 683d 6f45 eebc b443 8c3c b654 313d
000002b0: 4cc6 50bd 3774 b5bc 3946 8ebd d2d0 a6bc
000002c0: 0040 37bd 2ee0 fe3c dfff 75bb 43a3 96bd
000002d0: bf4c 74bd b75e 8bbd 5ac9 50bd 6969 8fbd
000002e0: 9b08 6c3d 9ac8 e1bb 590e 4abc 1e4e 2c3d
000002f0: 8190 883c a602 9d3d fbbf 2fbd c7fa 68bd
00000300: 10a2 92bd cda3 c1ba c561 8c3c 0c75 fd3c
00000310: 480d ac3c 89e0 803d a4e7 54bb 671a b43c
00000320: d854 c0ba 2e76 dd3b f8ad 46bb 89d8 253c
00000330: 79cd bc3a d063 213d 8380 373d 2183 5cbd
00000340: 19e8 28bc cb46 7dbc 51d6 e6bc e19b aebc
00000350: 6a03 6abc 7e9a 593d e65a 403d 2da5 83bd
00000360: 4981 253d ad6d 923c 6948 e3bc a6c3 6ebd
00000370: 5a02 b5bc 259d 033d 5f24 7f3b 6afa 00bd
00000380: f334 35bc 9bf2 14bd 0d38 963d efa4 48bd
00000390: 0f9d b73d f6cd e93b 69e9 9b3c 8b94 a13d
000003a0: 9bee 8cbd 1c02 89bc d029 a5bc 3e2b 64bc
000003b0: 335e 9b3d 0028 823d d932 433d 77a6 9ebd
000003c0: 9efb 05bb b94a 35bc 927a a8bc bb3e d7bc
000003d0: 15c1 c23c 8532 8abd 9770 a1bd 02d5 b83d
000003e0: 8935 88bd 0087 05bd 2bb0 10bc 8cb4 9cbd
000003f0: df2e 1a3d b8a2 453d 3518 02bd 707d 86bd

gru.weight_hh_l0 f4 [384, 128]
0.025035338 -0.06647094 0.07211689 -0.0012343971 0.005318771 -0.014860624 0.05001219 0.008024374
0.048522986 0.039474104 -0.042737495 -0.047761433 -0.05593163 -0.030281307 -0.063005626 -0.0012610705
-0.0152082965 -0.0010476421 0.049288016 -0.030067895 -0.0004132885 0.005113681 0.025277538 0.040801544
-0.07253431 -0.031157471 0.0040819766 -0.076656066 0.035768665 0.047225166 9.0931164e-05 0.0755818
0.014619791 -0.008377957 -0.058482807 0.028904986 -4.495783e-05 0.020176237 0.0050835353 0.07097348
0.018041382 -0.06585351 -0.051836003 0.023986086 -0.027132012 -0.037847314 -0.014707287 -0.0013900129
-0.024115223 -0.060049657 0.00022619453 -0.05990053 -0.04663744 0.062261693 -0.043767996 0.006755342
0.020139534 0.027530279 -0.039867956 -0.061933685 -0.034958865 0.0042526564 0.005969619 0.02913821
0.011181066 0.0010173843 0.06210224 -0.076195806 0.023186123 -0.00086719776 -0.01139726 0.03932169
-0.06026949 -0.07167166 0.03569139 0.033294555 0.06659652 0.0030996571 -0.06563419 -0.020442627
-0.059180044 -0.07301815 -0.03979974 5.5775687e-05 0.07188608 0.013959784 -0.000114535855 -0.00598635
-0.048458435 -0.030137721 -0.025482925 0.0070981914 0.056234553 -0.015031349 -0.0006477638 0.016104514
0.03399843 -0.0066612754 0.04344512 0.05599043 -0.007536392 -0.06482071 -0.050959013 -0.031323794
-0.03291072 -0.006988964 -0.056534912 0.063327916 -0.06319308 -0.07389401 0.06647448 -0.0640212
0.06880927 -0.0030339756 -0.0620463 -0.00096336467 -0.03356316 -0.017989745 -0.0008025513 -0.058586735
0.0005088373 0.0011850529 -0.06706882 -0.0008166061 0.0074658245 0.00086951116 -0.008402768 0.026014943
-0.04766695 0.04842404 -0.038795054 0.07679692 -0.070150375 -0.022476992 -0.06361069 -0.041640498
0.017883038 -0.065459214 0.05685719 -0.060507715 0.027215336 -0.009231839 0.051574335 -0.028875211
0.029864538 0.052057087 5.3335592e-05 -0.05936618 0.05223324 0.00048427627 0.0050611324 -0.039536502
0.026808625 -0.001397654 -0.007906943 -0.031192414 0.03188721 0.020262126 0.059306554 0.005973585
0.043439407 0.05616965 -0.00011743067 -0.033767894 -3.4606957e-05 0.07393981 -0.056772284 -0.047150463
0.018469526 0.066081256 -0.04748371 0.00011446828 0.07450505 -0.0036188578 -0.049897563 0.06635856
-0.007064321 0.07545529 -0.032538716 0.07003478 0.009700712 -0.00972915 -0.012256425 0.063930936
0.0020247498 0.030873688 0.014733398 0.012601918 0.044430662 -0.0011904142 0.0012047372 -0.05853983
-0.049683288 -0.04759525 0.053847857 0.04601781 0.05029245 -0.06565548 0.06607872 0.07724886
-0.034908652 0.06454553 0.0069234828 -0.045463994 0.0070055625 -0.06875097 0.009123696 0.034844052
-0.05150977 -0.04222398 0.038687 -0.028320124 4.862508e-05 -0.00013955726 0.057217434 -0.013499351
0.017484376 -0.06399299 -0.031171802 -0.075171694 0.025068367 0.030446107 0.051625907 -0.071419746
0.029440444 0.07646613 -0.01607885 0.07352484 -0.016067361 0.06665957 0.05173421 0.0011206187
0.0030082925 -0.017395617 0.040082823 0.052256994 -0.001402672 0.044005938 -0.030246072 -0.061566245
-0.016741166 -0.011194501 0.07244011 0.022303607 0.045429256 -0.0164041 -0.044402897 -0.06652195
-0.047192853 0.07392039 0.0060713035 0.07313929 -0.024625212 0.0076640244 0.0763554 -0.02720291
00000000: e916 cd3c eb21 88bd 05b2 933d 7ecb a1ba
00000010: 1649 ae3b fa79 73bc 95d9 4c3d aa78 033c
00000020: 0ac0 463d 99af 213d 830d 2fbd 7ea1 43bd
00000030: 9118 65bd 8110 f8bc 1809 81bd 814a a5ba
00000040: 382c 79bc 0951 89ba 3be2 493d f250 f6bc
00000050: a5ae d8b9 aa90 a73b d712 cf3c 851f 273d
00000060: de8c 94bd f43d ffbc 1ac2 853b dbfd 9cbd
00000070: 2a82 123d 2d6f 413d 4cb2 be38 a1ca 9a3d
00000080: d987 6f3c b343 09bc ab8b 6fbd 26ca ec3c
00000090: 1a91 3cb8 a348 a53c c993 a63b 8b5a 913d
000000a0: 85cb 933c 34de 86bd fd51 54bd 787e c43c
000000b0: f443 debc c905 1bbd d5f6 70bc 1831 b6ba
000000c0: 4a8d c5bc a1f6 75bd a22e 6d39 425a 75bd
000000d0: e606 3fbd 1e06 7f3d 1246 33bd ea5b dd3b
000000e0: aafb a43c 2e87 e13c 954c 23bd 2dae 7dbd
000000f0: 0731 0fbd de59 8b3b cb9c c33b 41b3 ee3c
00000100: ca30 373c c159 853a eb5e 7e3d 8c0c 9cbd
00000110: d3f0 bd3c a854 63ba 93bb 3abc c80f 213d
00000120: 24dd 76bd 97c8 92bd 2331 123d df5f 083d
00000130: c263 883d 9e23 4b3b 386b 86bd 4c77 a7bc
00000140: c666 72bd 8a8a 95bd 0d05 23bd b0f0 6938
00000150: 0239 933d 94b7 643c f832 f0b8 2529 c4bb
00000160: 5a7c 46bd 62e3 f6bc 91c1 d0bc f297 e83b
00000170: 3456 663d 0c46 76bc b1ce 29ba 9ded 833c
00000180: f041 0b3d d446 dabb 83f3 313d 3956 653d
00000190: d7f3 f6bb b8c0 84bd 66ba 50bd 614d 00bd
000001a0: 64cd 06bd ae03 e5bb 2791 67bd 11b2 813d
000001b0: 606b 81bd be55 97bd c623 883d 8c1d 83bd
000001c0: e0eb 8c3d aad5 46bb 4324 7ebd 4f8a 7cba
000001d0: 8679 09bd 3b5f 93bc 4e62 52ba a5f8 6fbd
000001e0: 7e63 053a c753 9b3a 615b 89bd 8211 56ba
000001f0: e0a3 f43b e8ef 633a c3ab 09bc 4a1d d53c
00000200: 6b3e 43bd 4958 463d 90e7 1ebd b447 9d3d
00000210: 00ab 8fbd ab21 b8bc 5246 82bd 3a8f 2abd
00000220: 737f 923c 7b0f 86bd 16e3 683d f0d6 77bd
00000230: b2f2 de3c 2441 17bc 9c3f 533d b58b ecbc
00000240: 7aa6 f43c d039 553d a8b4 5f38 f429 73bd
00000250: 86f2 553d 76e6 fd39 dbd7 a53b 07f1 21bd
00000260: c39d db3c 7c31 b7ba 1f8c 01bc 3c87 ffbc
00000270: 2a9c 023d c2fc a53c 6eeb 723d 10be c33b
00000280: 85ed 313d 2612 663d 1c45 f6b8 3450 0abd
00000290: f026 11b8 c16d 973d 0e8a 68bd d820 41bd
000002a0: 674d 973c 9c55 873d 477e 42bd b10e f038
000002b0: 1b96 983d 5c2a 6dbb 6361 4cbd ffe6 873d
000002c0: d27b e7bb 4e88 9a3d 5147 05bd 656e 8f3d
000002d0: bcef 1e3c 0367 1fbc 2ccf 48bc 39ee 823d
000002e0: aab1 043b d1ea fc3c 5a64 713c 4678 4e3c
000002f0: edfc 353d ac07 9cba 46e8 9d3a 76c7 6fbd
00000300: b480 4bbd 3df3 42bd 928f 5c3d 2c7d 3c3d
00000310: 75ff 4d3d 6176 86bd 4854 873d a634 9e3d
00000320: 60fc 0ebd 7230 843d 62de e23b 7438 3abd
00000330: eb8e e53b 4fcd 8cbd 8e7b 153c a3b8 0e3d
00000340: e9fb 52bd 0df3 2cbd 4276 1e3d 9bff e7bc
00000350: c8f2 4b38 1e56 12b9 d45c 6a3d 622c 5dbc
00000360: 653b 8f3c c20e 83bd 025c ffbc 9ef3 99bd
00000370: 2d5c cd3c 1d6a f93c b075 533d 8444 92bd
00000380: 162d f13c 469a 9c3d cbb7 83bc 3194 963d
00000390: b39f 83bc d084 883d 40e7 533d b9e1 923a
000003a0: c626 453b 4181 8ebc e32d 243d 6e0b 563d
000003b0: ddd9 b7ba 923f 343d 9cc6 f7bc e32c 7cbd
000003c0: c524 89bc 2469 37bc 7b5b 943d 0eb6 b63c
000003d0: 0714 3a3d e461 86bc d0df 35bd a93c 88bd
000003e0: 4b4d 41bd 9363 973d c9f1 c63b 0dca 953d
000003f0: d0ba c9bc 7f22 fb3b 3860 9c3d a3d8 debc

gru.bias_ih_l0 f4 [384]
0.042992044 0.01670721 0.0543739 -0.070190296 0.055180922 -0.040644333 0.06331085 -0.031199463
0.037448153 0.04966626 0.07606083 -0.06070045 -0.061831355 0.07528558 -0.007661213 -0.0022819794
0.04869857 -0.05145198 -0.056517255 0.04746102 -0.034151647 -0.031287175 0.05193132 0.0621344
0.03237307 -0.051230397 0.042435978 -0.041542307 0.032168582 -0.042540543 -0.07019756 -0.046220556
-0.010837509 -0.0720945 0.00079517876 0.023164596 -0.008600981 0.072480194 0.008660896 0.0768117
-0.013227427 0.014561263 -0.012357312 -0.06282219 0.07383638 0.025049716 -0.07062447 0.06856018
-0.08737635 0.0042662174 0.057470832 -0.07556128 0.0790939 0.040029094 0.051766362 0.045453295
-0.006037839 -0.04453302 -0.07216805 0.07127068 -0.015383501 0.038985252 0.063136406 -0.051355656
0.015167165 0.047752216 0.015688729 0.02068255 -0.0058575375 -0.0134881325 -0.025240375 -0.0051773884
0.0006476384 0.08076808 0.07449793 -0.049370382 -0.016110186 0.061586708 -0.03450749 0.021529851
-0.0102125155 -0.042439405 0.026349153 0.0712223 -0.052103054 0.039420467 0.011857995 0.035815205
-0.019012198 0.0047364533 -0.019866765 0.01096519 0.013713635 0.039744575 -0.00097248796 -0.001871274
0.027868368 0.040319994 0.068831906 0.048056826 0.0378615 0.04351901 -0.0756069 -0.05771142
-0.022584317 0.047062606 0.009794506 -0.021198513 0.06969694 0.072731905 0.016751962 -0.03232963
0.053143743 -0.024647253 0.049053807 -0.005280309 0.0036931883 -0.06707364 0.024800876 0.05599367
-0.017507063 0.008196325 0.02505234 0.055957343 -0.031835712 -0.07505573 -0.056917578 0.03659448
-0.024404524 -0.00959076 -0.034703426 -0.051082868 0.059150774 0.01605267 -0.016964903 -0.025608841
-0.023522072 0.035724837 0.028395392 0.07577924 0.023525018 -0.044526864 -0.0605738 -0.029529134
0.08791335 -0.028001554 -0.02464545 -0.054152362 -0.0688184 0.07311657 -0.008084975 -0.051777516
-0.06235899 0.046285138 -0.07413756 0.07279368 -0.044883866 -0.040353745 0.023307469 0.033512
-0.043091 -0.02710871 0.016883232 0.03900241 -0.033769876 -0.041440576 -0.021941626 -0.06340521
0.017150952 -0.041543394 -0.08207952 0.04986615 -0.0081608305 -0.02715962 0.07868395 0.032016538
0.0647724 -0.06840983 -0.019695979 -0.07902381 0.070690274 -0.05355403 0.065871246 -0.010444431
-0.03837107 0.066148885 -0.06485596 -0.085158266 -0.06880451 -0.06536467 -0.024862466 0.06278969
0.025170265 -0.04708218 0.034268748 -0.027501762 -0.041830063 -0.02918486 0.02251877 -0.015062207
-0.07566396 0.07199203 0.07367879 0.05491178 -0.02411728 -0.056460638 0.04236634 0.09222457
0.02779445 0.059001554 -0.010837238 -0.079124354 0.03826635 0.071588695 0.016730247 0.0053937053
-0.037284557 0.066508 -0.049510714 0.045023344 0.007634729 0.0062399865 -0.040103447 0.022422966
-0.07439364 0.030735742 0.07845089 -0.009674704 -0.01890985 -0.08542943 -0.042104103 -0.062141977
-0.023317844 0.0026168032 0.07641426 0.028383344 -0.0812284 0.062069707 0.07640445 -0.05518998
-0.0035606374 -0.038041845 0.002125062 0.09165312 0.01716872 0.042726777 0.048427124 0.031155966
0.04460179 0.05814173 0.07839834 -0.030816926 0.05820568 0.0048099863 -0.052357957 -0.04619458
00000000: 6d18 303d 8fdd 883c 2bb7 5e3d eebf 8fbd
00000010: 6405 623d ac7a 26bd 1ea9 813d 0496 ffbc
00000020: 3c63 193d d96e 4b3d c8c5 9b3d 09a1 78bd
00000030: e042 7dbd 532f 9a3d ea0a fbbb 438d 15bb
00000040: 2778 473d 50bf 52bd a37e 67bd 7d66 423d
00000050: 99e2 0bbd fb26 00bd f0b5 543d a480 7e3d
00000060: a099 043d f7d6 51bd 59d1 2d3d 4428 2abd
00000070: 34c3 033d fe3e 2ebd bdc3 8fbd c451 3dbd
00000080: cf8f 31bc 48a6 93bd 8b73 503a aec3 bd3c
00000090: 21eb 0cbc 7f70 943d 6ee6 0d3c 744f 9d3d
000000a0: dab7 58bc 5d92 6e3c 5376 4abc eca8 80bd
000000b0: 8737 973d 1035 cd3c 90a3 90bd 4869 8c3d
000000c0: 5ff2 b2bd a0cb 8b3b 8966 6b3d dfbf 9abd
000000d0: fcfb a13d 8cf5 233d f708 543d 3c2d 3a3d
000000e0: 11d9 c5bb 4268 36bd d8cc 93bd 5df6 913d
000000f0: 140b 7cbc 00af 1f3d a94d 813d 4f5a 52bd
00000100: b37f 783c d497 433d a685 803c 736e a93c
00000110: 96f0 bfbb 54fd 5cbc e7c4 cebc 15a7 a9bb
00000120: 47c6 293a bc69 a53d 5f92 983d 9938 4abd
00000130: 82f9 83bc 5842 7c3d ba57 0dbd 5f5f b03c
00000140: 6552 27bc f1d4 2dbd 2eda d73c ffdc 913d
00000150: 036a 55bd 5b77 213d 0948 423c f7b2 123d
00000160: 78bf 9bbc 4034 9b3b a0bf a2bc 57a7 333c
00000170: 27af 603c 35cb 223d 90ee 7eba 8945 f5ba
00000180: 344c e43c 9426 253d bef7 8c3d 3cd7 443d
00000190: a914 1b3d fd40 323d cad7 9abd cf62 6cbd
000001a0: bf02 b9bc b8c4 403d 2379 203c 81a8 adbc
000001b0: 45bd 8e3d 77f4 943d 693b 893c 136c 04bd
000001c0: 41ad 593d 09e9 c9bc a5ec 483d 7106 adbb
000001d0: 6b09 723b e85d 89bd 352b cb3c 9e59 653d
000001e0: f96a 8fbc e149 063c 913a cd3c 8733 653d
000001f0: 2a66 02bd d2b6 99bd 6822 69bd 18e4 153d
00000200: ffeb c7bc 9022 1dbc 2e25 0ebd 453c 51bd
00000210: 1548 723d e480 833c fbf9 8abc a2c9 d1bc
00000220: 5cb1 c0bc 3554 123d 749d e83c 2532 9b3d
00000230: 8ab7 c03c cd61 36bd 3c1c 78bd 15e7 f1bc
00000240: ea0b b43d 8463 e5bc 41e5 c9bc dece 5dbd
00000250: a9f0 8cbd 24be 953d d876 04bc a914 54bd
00000260: 246c 7fbd 7c95 3d3d 6fd5 97bd da14 953d
00000270: 25d8 37bd f849 25bd 4eef be3c e143 093d
00000280: 3080 30bd 1613 debc b44e 8a3c fec0 1f3d
00000290: 4852 0abd 98bd 29bd edbe b3bc 97da 81bd
000002a0: 2780 8c3c 6829 2abd 4f19 a8bd 7340 4c3d
000002b0: 01b5 05bc da7d debc 0d25 a13d c623 033d
000002c0: 64a7 843d 741a 8cbd 7659 a1bc 3cd7 a1bd
000002d0: 10c6 903d 785b 5bbd 81e7 863d 1e1f 2bbc
000002e0: fc2a 1dbd 1179 873d 34d3 84bd 7567 aebd
000002f0: 61e9 8cbd e9dd 85bd 5fac cbbc e297 803d
00000300: df31 ce3c 3ed9 40bd 635d 0c3d 604b e1bc
00000310: 0056 2bbd 1615 efbc 4979 b83c 7ac7 76bc
00000320: b5f5 9abd 8f70 933d e8e4 963d 2deb 603d
00000330: 9a91 c5bc 4543 67bd 5488 2d3d 3ce0 bc3d
00000340: 30b1 e33c 9dab 713d ac8e 31bc f30b a2bd
00000350: 2dbd 1c3d 189d 923d df0d 893c aebd b03b
00000360: b1b7 18bd 5935 883d bfcb 4abd 666a 383d
00000370: c02c fa3b cd78 cc3b 8343 24bd 5eb0 b73c
00000380: b15b 98bd 86c9 fb3c dcaa a03d a682 1ebc
00000390: d4e8 9abc a0f5 aebd 5a75 2cbd 9688 7ebd
000003a0: 1005 bfbc ac7e 2b3b 147f 9c3d 3084 e83c
000003b0: 135b a6bd ce3c 7e3d f079 9c3d e30e 62bd
000003c0: 9559 69bb c4d1 1bbd a044 0b3b a2b4 bb3d
000003d0: 6aa5 8c3c 4602 2f3d 855b 463d cc3a ff3c
000003e0: 5eb0 363d 0626 6e3d 4f8f a03d c773 fcbc
000003f0: 1469 6e3d 179d 9d3b 4c75 56bd 8736 3dbd

gru.bias_hh_l0 f4 [384]
-3.942982e-05 -0.07416347 -0.06416402 -0.028596254 0.010924419 -0.06531461 0.04193138 0.06484939
-0.031684317 -0.038049612 0.04154302 0.05384464 -0.024397694 0.08191168 0.07323059 0.032058723
0.05559417 -0.060022138 0.0205323 0.025294706 -0.043297082 -0.027826514 -0.00011472768 0.075834945
-0.023135196 0.004741771 0.024410987 -0.05070932 0.077554524 0.05958489 0.082025714 0.0330434
-0.06392404 -0.07782242 0.06784642 -0.039606526 0.01798152 0.0798071 0.05378472 0.0036723423
0.07705143 0.076279216 -0.0489105 -0.010805412 -0.017807094 0.07932944 0.05843271 0.016592862
0.0075626406 0.057939775 -0.007339633 0.08105421 0.04669214 0.0004471748 0.04607444 0.0340845
-0.008650116 -0.028709171 -0.08935973 0.057726342 0.07165344 -0.04097631 -0.022387134 -0.005384687
0.07261633 -0.07514577 -0.059205413 0.023961684 0.08403597 -0.022554256 -0.027898384 0.06513104
-0.042880878 -0.03399803 -0.01728232 0.026213516 0.028813876 0.00927688 -0.078291655 0.058735806
-0.022821544 -0.07281911 0.036573898 -0.07719905 -0.028420141 0.020555643 0.012406394 -0.025611483
-0.051011663 -0.061034158 -0.07551253 -0.022882424 -0.0020501176 -0.07762257 0.011328671 0.02630544
0.009243761 0.036361694 0.0010162186 -0.05546292 -0.03425215 -0.028724687 -0.06263404 0.004263043
0.06493589 0.043530926 0.009466767 -0.062414024 0.024588292 -0.05434911 -0.07493544 -0.011698672
-0.031947363 0.03743606 0.0010232825 0.025686216 0.05835006 -0.07872854 0.0737099 -0.043752804
0.06343981 -0.021126255 -0.0073961257 -0.025270136 -0.02088604 -0.07579848 0.017723233 0.043295033
0.055554193 -0.021110462 -0.05593877 0.031255845 0.05856145 -0.032134026 -0.025903188 -0.027374687
0.007821792 0.07211374 -0.021583987 0.01195838 -0.04785371 0.04391058 -0.026239857 -0.02599323
-0.0007558955 0.047011945 -0.005333109 -0.031510036 0.0025316384 -0.027940135 0.0041280147 0.07410443
0.021371214 -0.026037974 0.0075155515 0.034519423 0.05349301 0.07502768 0.031104492 -0.07608127
-0.09402762 0.08190347 -0.050314926 0.062412534 -0.033887636 -0.062246807 0.07199502 0.034429595
-0.06929238 0.029078512 -0.065387286 0.010686121 -0.08469133 0.039172497 -0.055212654 -0.004972245
0.052538518 0.01767222 -0.020075731 -0.012989398 -0.047014486 0.063709244 0.027796099 -0.019562522
-0.0012587723 0.011637955 -0.08147792 -0.00042308896 0.005064762 -0.020267354 0.015304966 -0.052287918
0.06312677 -0.038256757 0.022142112 0.0871801 0.029302794 0.04381538 0.06732453 0.00639189
0.036218733 -0.026709378 -0.043872315 -0.07234682 -0.022003205 -0.009380379 0.008208334 0.07085647
-0.010877923 0.014497481 -0.01667483 0.022930795 0.08035041 -0.0871726 0.05405894 0.015541503
0.011925723 -0.056786843 0.028975636 0.036097288 0.07583751 0.05081372 0.022284072 -0.06269246
-0.07070559 -0.012299627 0.06671951 -0.079408094 0.024603015 -0.08374278 0.003283731 -0.04403485
0.07558208 -0.06472723 -0.04268206 -0.0103764115 0.079318844 -0.028887328 0.06646625 0.049963355
-0.03234219 0.0806536 -0.0052333083 -0.013476089 -0.021448078 -0.0811654 -0.018671937 0.0123258475
-0.049113497 -0.061113164 0.04568874 0.052915443 0.042344496 -0.04097146 0.010100642 0.0064792754
00000000: 7261 25b8 04e3 97bd 6d68 83bd b142 eabc
00000010: 56fc 323c abc3 85bd 3dc0 2b3d c2cf 843d
00000020: 6ac7 01bd e9d9 1bbd 0429 2a3d 328c 5c3d
00000030: acdd c7bc 50c1 a73d ebf9 953d 0250 033d
00000040: b6b6 633d c6d9 75bd 5b33 a83c d836 cf3c
00000050: 4858 31bd 6ef4 e3bc f499 f0b8 5a4f 9b3d
00000060: 0686 bdbc dc60 9b3b 8df9 c73c 93b4 4fbd
00000070: e8d4 9e3d 490f 743d 19fd a73d 8458 073d
00000080: 9bea 82bd 5c61 9fbd 10f3 8a3d 743a 22bd
00000090: fb4d 933c e871 a33d 5e4d 5c3d aeab 703b
000000a0: 24cd 9d3d 4738 9c3d 6056 48bd 2f09 31bc
000000b0: 2fe0 91bc 7977 a23d 2357 6f3d c1ed 873c
000000c0: 07d0 f73b 4252 6d3d 4e81 f0bb c0ff a53d
000000d0: 4240 3f3d c972 ea39 8db8 3c3d 309c 0b3d
000000e0: 37b9 0dbc 7f2f ebbc 3c02 b7bd 7572 6c3d
000000f0: 0abf 923d c6d6 27bd 3965 b7bc 0772 b0bb
00000100: dfb7 943d 07e6 99bd 6081 72bd 4b4b c43c
00000110: 0d1b ac3d b4c3 b8bc 278b e4bc 6c63 853d
00000120: dca3 2fbd 8541 0bbd a793 8dbc babd d63c
00000130: 140b ec3c 0efe 173c 6057 a0bd f594 703d
00000140: 3ff4 babc 2f22 95bd 83ce 153d 891a 9ebd
00000150: 5bd1 e8bc 4f64 a83c 3044 4b3c 2ccf d1bc
00000160: 9bf1 50bd f4fe 79bd 50a6 9abd ec73 bbbc
00000170: 445b 06bb 95f8 9ebd e49b 393c 827e d73c
00000180: 2573 173c 00f0 143d a332 853a 162d 63bd
00000190: fc4b 0cbd 0950 ebbc 4746 80bd ffb0 8b3b
000001a0: 1cfd 843d 7c4d 323d 801a 1b3c d9a5 7fbd
000001b0: 636d c93c 2c9d 5ebd c177 99bd c9ab 3fbc
000001c0: 3ddb 02bd 8e56 193d aa1f 863a e66b d23c
000001d0: 7900 6f3d 6e3c a1bd 37f5 963d 2436 33bd
000001e0: bbec 813d f810 adbc 335b f2bb 5103 cfbc
000001f0: 3319 abbc 3c3c 9bbd 5030 913c 2256 313d
00000200: cb8c 633d d9ef acbc 0d20 65bd 2106 003d
00000210: 22de 6f3d f89e 03bd ec32 d4bc e140 e0bc
00000220: f926 003c 5eb0 933d e7d0 b0bc 15ed 433c
00000230: 4002 44bd 95db 333d f8f4 d6bc c1ef d4bc
00000240: 4a27 46ba 998f 403d 5cc1 aebb ab10 01bd
00000250: d8e9 253b b6e2 e4bc 4c44 873b 10c4 973d
00000260: af12 af3c 974d d5bc 0445 f63b 3d64 0d3d
00000270: 7d1b 5b3d 1da8 993d d9ce fe3c 7fd0 9bbd
00000280: 8e91 c0bd 02bd a73d 0617 4ebd 49a4 7f3d
00000290: c3cd 0abd 82f6 7ebd 2072 933d 0c06 0d3d
000002a0: 2ae9 8dbd 0f36 ee3c c5e9 85bd d714 2f3c
000002b0: a672 adbd 5773 203d aa26 62bd 37ee a2bb
000002c0: a132 573d 55c5 903c dc75 a4bc 7cd1 54bc
000002d0: 4392 40bd fe79 823d a5b4 e33c 9541 a0bc
000002e0: 64fd a4ba 1fad 3e3c e5dd a6bd 0ad2 ddb9
000002f0: 4ef6 a53b b907 a6bc aec1 7a3c db2b 56bd
00000300: 9c48 813d 1eb3 1cbd 6063 b53c 7b8b b23d
00000310: 6a0c f03c c277 333d 71e1 893d 0f73 d13b
00000320: 185a 143d a0cd dabc 75b3 33bd 922a 94bd
00000330: 1140 b4bc 29b0 19bc 407c 063c 321d 913d
00000340: 5139 32bc d886 6d3c a799 88bc 5dd9 bb3c
00000350: c18e a43d 8c87 b2bd e86c 5d3d caa1 7e3c
00000360: 1c64 433c 5299 68bd 505e ed3c c0da 133d
00000370: b250 9b3d 0c22 503d 168d b63c e864 80bd
00000380: 18ce 90bd 6084 49bc 3da4 883d b6a0 a2bd
00000390: 438c c93c 5681 abbd dd33 573b e35d 34bd
000003a0: c7ca 9a3d b68f 84bd 62d3 2ebd d301 2abc
000003b0: eb71 a23d 1ea5 ecbc 751f 883d 60a6 4c3d
000003c0: 3f79 04bd b72d a53d 2c7c abbb d0ca 5cbc
000003d0: e1b3 afbc 0c3a a6bd e4f5 98bc 5af2 493c
000003e0: 3c2b 49bd cc51 7abd 1e24 3b3d ddbd 583d
000003f0: 6c71 2d3d b1d1 27bd 2a7d 253c 1a50 d43b

fc.weight f4 [4, 128]
-0.09068059 -0.04519045 0.049726773 0.065628104 0.02908481 -0.012986365 0.04326889 -0.04060248
0.03105237 -0.040075585 0.0013290584 0.035043072 0.04482246 0.028626706 -0.08484819 -0.065690055
0.027385449 -0.079021804 -0.08104798 -0.074825585 0.004084565 0.021409482 -0.0116473725 0.058121044
-0.074959174 0.056804147 -0.020060685 0.063317925 -0.043435074 0.08398542 -0.03261879 0.08354764
-0.015283029 0.08411788 0.08550163 -0.0642471 -0.0729562 0.025013061 0.060351312 0.004026127
-0.0023083503 0.008751531 -0.012394949 0.024470264 -0.027140617 -0.025801372 0.058807943 0.042966645
0.008253931 -0.013876948 0.016112354 0.023174062 0.0008657271 0.04474646 0.013827862 0.0725526
0.050752964 -0.033071544 0.08895505 -0.04577008 -0.003815572 -0.07730014 0.005720039 -0.03885431
0.044599757 -0.081244014 0.042518094 0.043215513 0.029142343 -0.037527703 0.041744974 0.0015291044
-0.023510115 0.056591474 -0.07549913 -0.057559304 0.016783733 -0.00016879025 -0.012761928 0.040020946
-0.022076646 -0.034215424 -0.061160017 -0.018889949 -0.029004313 -0.02876633 0.07811969 0.07478888
0.086768545 -0.05358992 0.070512116 0.02510024 -0.087684475 0.044987496 0.06807357 -0.06428594
0.082994334 -0.034926746 -0.025679069 -0.0295793 0.021605955 0.006666323 -0.02172692 -0.07927627
0.09579411 0.03941517 -0.048247807 -0.0012945449 0.061271258 0.010879546 -0.037465334 -0.0044771894
0.074379355 0.029831355 0.05138299 0.027759744 -0.05870137 0.0576923 -0.01544803 -0.03471498
-0.08199957 0.07421456 0.036261268 -0.074622944 -0.032498255 -0.014542275 0.022443276 0.0184981
-0.006512983 -0.0068525695 0.051226247 0.022258736 -0.086639285 -0.042463295 -0.03511312 -0.06311716
0.02794634 -0.06732646 0.07317387 0.00078101264 -0.0024365545 -0.03587049 -0.05094382 0.070106454
-0.052878775 -0.011995705 -0.084182166 0.013572542 0.011296162 0.026675459 -0.007148546 6.6714885e-05
-0.04622153 0.059770226 -0.04765107 0.08410146 -0.05839949 0.0045211376 0.06531691 0.06734192
0.09246407 0.020210726 0.05172226 -0.02303063 0.040745616 -0.027873227 0.0262947 -0.058393665
-0.03290873 0.02335162 -0.063655965 0.0041728253 0.007226738 -0.07817504 -0.033941932 0.087930076
-0.07041996 -0.079589464 -0.061352197 -0.052127093 -0.0027879034 0.022434443 0.036654916 0.005833621
-0.035132796 -0.043377135 -0.06712002 0.033051174 0.040973447 -0.035727415 -0.020344796 -0.0058543254
-0.042517975 -0.03125319 -0.025557972 -0.072033904 0.07465611 -0.057511743 -0.07706568 -0.06775518
0.026009059 -0.08247125 0.072394595 0.06420931 -0.041311696 0.08322357 0.03077646 0.014658641
-0.0075008133 -0.027600309 0.08450155 0.048855677 0.07777528 0.08634735 -0.02334437 -0.05223477
0.079178564 0.059472375 0.07074428 -0.018680044 -0.014640106 -0.031605363 0.053866338 0.02142374
-0.011211632 -0.07340356 0.06282557 0.038789738 0.00093876733 -0.07715618 -0.015877677 0.03577836
-0.0632534 -0.036060393 0.040458422 0.059305117 -0.018935611 -0.04010622 0.012231347 0.06481651
0.064389065 0.009431034 0.080872014 0.07411359 0.06259048 0.052659515 0.013186218 -0.07265028
-0.042928386 -0.008136475 0.007938135 -0.033042524 0.04199241 0.049176566 0.06425447 0.008785771
00000000: bfb6 b9bd 9f19 39bd 4dae 4b3d 0768 863d
00000010: 4443 ee3c c3c4 54bc b83a 313d c94e 26bd
00000020: 8a61 fe3c 4c26 24bd cd33 ae3a 5389 0f3d
00000030: c197 373d 8e82 ea3c e3c4 adbd 8288 86bd
00000040: 7357 e03c 2fd6 a1bd 7cfc a5bd 283e 99bd
00000050: d1d7 853b f062 af3c 9fd4 3ebc 5510 6e3d
00000060: 3284 99bd 77ab 683d 4e56 a4bc d4ac 813d
00000070: fae8 31bd 8c00 ac3d 489b 05bd 061b ab3d
00000080: ab65 7abc ff45 ac3d 7b1b af3d fc93 83bd
00000090: 0f6a 95bd 31e8 cc3c f032 773d 9aed 833b
000000a0: b147 17bb 9562 0f3c 2f14 4bbc dd75 c83c
000000b0: 0056 debc 665d d3bc 99e0 703d cbfd 2f3d
000000c0: 7f3b 073c 235c 63bc 0efe 833c 88d7 bd3c
000000d0: f6f1 623a 1048 373d 428e 623c 7596 943d
000000e0: 57e2 4f3d 0776 07bd 112e b63d 6879 3bbd
000000f0: ad0e 7abb 894f 9ebd 2a6f bb3b b225 1fbd
00000100: 3cae 363d 4363 a6bd 7427 2e3d c002 313d
00000110: ecbb ee3c a6b6 19bd c7fc 2a3d 3b6c c83a
00000120: 4998 c0bc 76cc 673d 4a9f 9abd 4ec3 6bbd
00000130: 0a7e 893c 4afd 30b9 6817 51bc 01ed 233d
00000140: 15da b4bc 7925 0cbd ed82 7abd 18bf 9abc
00000150: 749a edbc 5ea7 ebbc 37fd 9f3d ea2a 993d
00000160: b5b3 b13d 1b81 5bbd a868 903d 059f cd3c
00000170: eb93 b3bd cf44 383d 286a 8b3d 59a8 83bd
00000180: eff8 a93d 590f 0fbd e95c d2bc 4a50 f2bc
00000190: f9fe b03c 2c71 da3b a7fc b1bc 995b a2bd
000001a0: b42f c43d cd71 213d 7e9f 45bd b8ad a9ba
000001b0: 92f7 7a3d 2040 323c 4075 19bd 63b5 92bb
000001c0: 3454 983d e360 f43c f876 523d 6768 e33c
000001d0: d970 70bd c34e 6c3d bc19 7dbc 4b31 0ebd
000001e0: 64ef a7bd cefd 973d b286 143d ead3 98bd
000001f0: e41c 05bd b942 6ebc f6da b73c 5489 973c
00000200: dc6a d5bb 858b e0bb 9dd2 513d f457 b63c
00000210: f06f b1bd feed 2dbd c6d2 0fbd 9243 81bd
00000220: b9ef e43c 74e2 89bd 2fdc 953d dfbc 4c3a
00000230: 9aae 1fbb efec 12bd 78aa 50bd f993 8f3d
00000240: 6a97 58bd a289 44bc b367 acbd 5e5f 5e3c
00000250: 8a13 393c 7e86 da3c 5a3e eabb 48e9 8b38
00000260: c952 3dbd a0d1 743d c52d 43bd 633d ac3d
00000270: 4e34 6fbd 0d26 943b dfc4 853d 90ea 893d
00000280: cd5d bd3d f790 a53c b8da 533d bbaa bcbc
00000290: e0e4 263d 6556 e4bc fc67 d73c 322e 6fbd
000002a0: 4ecb 06bd e64b bf3c 0f5e 82bd 32bc 883b
000002b0: 46ce ec3b 3c1a a0bd b206 0bbd af14 b43d
000002c0: 5738 90bd cdff a2bd 714c 7bbd 3883 55bd
000002d0: 42b5 36bb 70c8 b73c 7723 163d f627 bf3b
000002e0: 68e7 0fbd 39ac 31bd 3976 89bd ab60 073d
000002f0: c6d3 273d e956 12bd 21aa a6bc a4d5 bfbb
00000300: 5427 2ebd 5803 00bd f45e d1bc 8386 93bd
00000310: 4de5 983d 6f91 6bbd 9cd4 9dbd 3ac3 8abd
00000320: f310 d53c b0e6 a8bd 9e43 943d 2c80 833d
00000330: 7436 29bd 1e71 aa3d ea1e fc3c cc2a 703c
00000340: 62c9 f5bb 0b1a e2bc 260f ad3d e41c 483d
00000350: a548 9f3d e1d6 b03d b13c bfbc 20f4 55bd
00000360: 5f28 a23d 4e99 733d 61e2 903d e406 99bc
00000370: 0edd 6fbc a074 01bd f3a2 5c3d d780 af3c
00000380: feb0 37bc 9b54 96bd b1aa 803d fde1 1e3d
00000390: 9c17 763a 0f04 9ebd e711 82bc 548c 123d
000003a0: 008b 81bd 10b4 13bd bbb7 253d ece9 723d
000003b0: db1e 9bbc 6b46 24bd fd65 483c 85be 843d
000003c0: 6ade 833d a084 1a3c 3aa0 a53d dec8 973d
000003d0: 702f 803d 81b1 573d 020b 583c acc9 94bd
000003e0: add5 2fbd da4e 05bc f40e 023c 9957 07bd
000003f0: 3c00 2c3d 5e6d 493d d997 833d 32f2 0f3c

fc.bias f4 [4]
-0.078179814 0.02979472 0.039060816 -0.01879788
00000000: bd1c a0bd 0e14 f43c 3cfe 1f3d 03fe 99bc
