input/gru_model.pth (torch, 214626 bytes, 6 tensors)

recurrent.weight_ih_l0 f4 [384, 7]
-0.00042850617 0.0019236348 -0.101522714 0.035510857 0.040199116 0.012656007 -0.05913728 -0.010178076
-0.056619216 0.017430456 -0.108216226 -0.050600428 -0.019009009 0.10931566 -0.0049681165 -0.0047545806
-0.108044714 0.09605409 -0.09664666 -0.07247178 0.017950138 -0.00011420484 -0.07482398 0.03004894
-0.096584804 -0.09787032 0.07968103 -0.10614635 -0.0037586913 -0.056109607 0.0027955163 0.004443668
-0.09089027 0.0308292 -0.08696257 0.0003850993 -0.070573255 0.09612004 -0.09683755 -0.1018298
0.100727074 0.04982842 0.03980089 0.057536025 -0.041663617 -0.0012477462 -0.110426694 0.101330966
0.058885157 0.017808143 0.09606221 -0.09691351 0.104282886 -0.110568784 0.101798825 0.074505255
-0.10990459 0.04526818 0.004100658 0.09751724 -0.103121415 0.0047880053 0.04526334 0.081138596
0.045379557 -0.010344255 0.069514014 -0.083438955 -0.0037718422 0.027346877 0.06320821 -0.041880853
0.00042755035 0.07611383 0.08980045 0.008536378 -0.048210472 -0.03713444 0.034396484 -0.095584154
0.0054824986 0.03488205 -0.059490323 0.08996902 0.08449314 0.031081399 0.0030575902 -0.063889265
-0.000501142 0.027515084 0.015487789 0.02128728 0.0009122236 0.032999024 -0.0006359449 -0.09128648
-0.09245388 0.106456645 0.05815028 -0.0002277618 0.016199742 0.04641012 0.020063687 -0.029324224
-0.03912444 -0.04171016 -0.005114046 0.10581696 0.091273785 -0.09714555 0.067615904 -0.080100074
-0.038580325 0.05915716 -0.0029173947 -0.010561252 -0.10980418 -0.00779431 0.0015254924 0.09260076
-0.07175373 -0.10506227 0.018687384 0.033726312 -0.08769646 -0.07267537 -0.088158876 -0.06394955
-0.019798303 -0.0404314 -0.004446064 -0.04277011 -0.10318341 0.038312998 -0.05040283 0.08293665
-0.08394537 -0.050106786 -0.00071097416 -0.08964424 0.033907678 0.046092305 0.10225355 -0.083539
0.060531516 -0.10558676 0.018548384 0.02622778 0.0087744845 0.04941649 0.016792975 0.042535927
0.006634805 0.0154295815 0.005629337 -0.086702295 -0.019145077 -0.050716676 0.024280237 0.108854845
0.0768511 0.08861522 0.018037973 -0.08078682 -0.06696995 0.003203979 -0.06408665 -0.075791605
-0.0038424425 0.06079888 -0.0002084279 0.045637455 0.012407327 0.030490357 -0.005526951 -0.066097245
-0.04899688 -0.056072965 0.0056166416 0.007778862 0.052542873 -0.027134798 0.1025683 0.017712729
-0.012338139 0.0954544 0.07308141 0.06188133 0.0014568047 -0.06101769 -0.02827804 -0.06859468
-0.08788282 -0.005694475 0.109646775 -0.035925027 -0.058569126 -0.07194572 0.10084982 -0.076362245
-0.0063069575 -0.067564294 0.09517681 -0.021239046 0.090909466 -0.10802313 -0.08369961 -0.030414023
-0.00067357713 -0.001370847 0.07816229 -0.0002637165 0.005912072 0.07608902 0.018490976 0.06691617
0.065089725 -0.075143486 -0.0858831 0.06025538 -0.104060896 0.049231265 -0.06461924 -0.09557844
-0.070987925 0.07803784 0.07242033 -0.104051575 -0.10133317 0.021031123 -0.001247574 -0.03894257
-0.10368895 -0.012524777 -0.06059861 0.07882641 -0.061620373 0.08553214 -0.046550423 -0.017196024
-0.005279002 -0.05542779 -0.016732527 0.032883737 0.08392297 0.037331987 -0.10978837 0.10826338
0.06573337 -0.0043109455 -0.09879234 0.09572054 -0.038544353 -0.06243205 0.067167096 0.023289472
00000000: 20a9 e0b9 7922 fc3a 24eb cfbd d573 113d
00000010: d4a7 243d 245b 4f3c ef39 72bd f2c1 26bc
00000020: 8de9 67bd 51ca 8e3c 78a0 ddbd 6542 4fbd
00000030: c8b8 9bbc e4e0 df3d 95cb a2bb 50cc 9bbb
00000040: 8c46 ddbd 02b8 c43d afee c5bd 166c 94bd
00000050: 2b0c 933c 4281 efb8 513d 99bd 3229 f63c
00000060: 41ce c5bd 3c70 c8bd cf2f a33d 4263 d9bd
00000070: 6054 76bb 30d3 65bd fb34 373b 309c 913b
00000080: ae24 babd 858d fc3c 6f19 b2bd 27e7 c939
00000090: b688 90bd 95da c43d c452 c6bd 248c d0bd
000000a0: ff49 ce3d e318 4c3d 4206 233d e5aa 6b3d
000000b0: 78a7 2abd 6a8b a3ba 6427 e2bd 9c86 cf3d
000000c0: 9031 713d 62e2 913c 44bc c43d 977a c6bd
000000d0: 4492 d53d e371 e2bd e77b d03d 3696 983d
000000e0: a815 e1bd 216b 393d d05e 863b 1eb7 c73d
000000f0: 5231 d3bd b3e4 9c3b 0d66 393d fe2b a63d
00000100: eadf 393d f37a 29bc 5d5d 8e3d 0be2 aabd
00000110: 0331 77bb 8f06 e03c 4e73 813d 428b 2bbd
00000120: d628 e039 91e1 9b3d 4ce9 b73d 2adc 0b3c
00000130: 5878 45bd 481a 18bd 54e3 0c3d a0c1 c3bd
00000140: 88a6 b33b 7be0 0e3d 20ac 73bd ad41 b83d
00000150: bd0a ad3d 6b9e fe3c da61 483b 60d8 82bd
00000160: 125f 03ba 5067 e13c 7fc0 7d3c a962 ae3c
00000170: 4a22 6f3a fc29 073d 8ab5 26ba 68f4 babd
00000180: 7658 bdbd f105 da3d fd2e 6e3d 58d3 6eb9
00000190: 52b5 843c 8a18 3e3d 9a5c a43c 5b39 f0bc
000001a0: f340 20bd 46d8 2abd ba93 a7bb 90b6 d83d
000001b0: c0ed ba3d 3ff4 c6bd 357a 8a3d 820b a4bd
000001c0: 6706 1ebd c74e 723d c331 3fbb 1a09 2dbc
000001d0: 04e1 e0bd 6967 ffbb 08f3 c73a 78a5 bd3d
000001e0: 9ff3 92bd e32a d7bd 4916 993c 9a24 0a3d
000001f0: 349a b3bd d3d6 94bd a48c b4bd fbf7 82bd
00000200: 0d30 a2bc 659b 25bd 4ab0 91bb b62f 2fbd
00000210: d351 d3bd 17ee 1c3d 3373 4ebd b1da a93d
00000220: 8deb abbd c63c 4dbd ab60 3aba 6697 b7bd
00000230: c7e2 0a3d 49cb 3c3d 4f6a d13d 7f16 abbd
00000240: e5ef 773d df3d d8bd c8f2 973c a4db d63c
00000250: dbc2 0f3c f268 4a3d 6c91 893c 273a 2e3d
00000260: c768 d93b 5bcc 7c3c 4d76 b83b f990 b1bd
00000270: 23d6 9cbc 4abc 4fbd 59e7 c63c 4aef de3d
00000280: 1c64 9d3d e57b b53d 5fc4 933c 8f73 a5bd
00000290: 8b27 89bd d9f9 513b dd3f 83bd a138 9bbd
000002a0: 7dd1 7bbb 3f08 793d 708d 5ab9 57ee 3a3d
000002b0: 1a48 4b3c eac6 f93c 6d1b b5bb fe5d 87bd
000002c0: f4b0 48bd c4ac 65bd ce0b b83b d3e5 fe3b
000002d0: 3237 573d cc49 debc 540f d23d 491a 913c
000002e0: e825 4abc 997d c33d b5ab 953d 4777 7d3d
000002f0: 41f2 be3a afed 79bd 59a7 e7bc 5e7b 8cbd
00000300: e8fb b3bd b898 babb 7d8e e03d 1f26 13bd
00000310: 2ee6 6fbd 4758 93bd 5a8a ce3d cf63 9cbd
00000320: 98aa cebb 265f 8abd 0fec c23d 82fd adbc
00000330: be2e ba3d 3b3b ddbd b36a abbd d426 f9bc
00000340: ff92 30ba fead b3ba 8d13 a03d 6e43 8ab9
00000350: 0eba c13b 8fd4 9b3d 637a 973c 580b 893d
00000360: c34d 853d d4e4 99bd 7be3 afbd 58ce 763d
00000370: e11d d5bd b9a6 493d 1857 84bd a1be c3bd
00000380: 1e62 91bd 4ed2 9f3d 1c51 943d fe18 d5bd
00000390: c487 cfbd 7649 ac3c a385 a3ba 3f82 1fbd
000003a0: df5a d4bd b934 4dbc 4036 78bd be6f a13d
000003b0: a565 7cbd 7a2b af3d a8ab 3ebd adde 8cbc
000003c0: 7afb acbb 4008 63bd a712 89bc 19b1 063d
000003d0: cedf ab3d 6de9 183d bad8 e0bd 31b9 dd3d
000003e0: 389f 863d d542 8dbb a353 cabd 2109 c43d
000003f0: afe0 1dbd c0b8 7fbd e78e 893d 90c9 be3c

recurrent.weight_hh_l0 f4 [384, 128]
0.0072534266 -0.0013210357 0.013234293 -0.0034857625 -0.016385728 -0.08584457 -0.029075218 -0.041234042
0.0914816 0.023132985 0.00061037607 0.06850039 -0.004863938 -0.07702255 0.05241324 -0.026406672
0.00079779356 0.00025325202 0.0024882217 0.07448501 0.06309952 0.047623433 -0.023546165 0.042772118
0.013638739 -0.048071235 0.08376855 0.020767117 -0.00018113945 -0.007893099 -0.07083962 0.08325992
-0.061869707 0.010899575 0.030370235 0.034893446 0.055799518 0.039276686 -0.08088123 -0.01612773
-0.04710846 0.0012713962 0.056364037 -0.08156085 -0.031296123 0.028224168 -0.05226074 -0.08594914
-0.020816822 -0.0081558805 -0.08127015 0.072861865 -0.06253758 -0.019224826 -0.089927174 -0.03168217
0.035675276 -0.027184172 -0.08592534 -0.044453558 0.017575327 -0.0039865286 0.062478032 -0.00092761504
-0.027888173 0.021307904 -0.07844842 -0.07742507 -0.041830022 0.001411752 -0.0073556253 -0.013722288
0.009529677 0.080486566 -0.07562896 0.066346616 -0.0055142837 0.049913954 0.07344499 -0.049789075
-0.07486014 -0.0140228765 -0.049828168 0.0011759828 0.056254573 -0.09058065 -0.018903095 0.0018291976
0.030523816 0.09124506 -0.0002626952 -0.014913473 0.055257216 -0.07992876 -0.0534802 -0.0786834
-0.037988186 -0.0858751 -0.08507565 -0.008678919 0.030054703 -0.038001936 -0.07628267 0.023787461
0.015910607 0.06577564 -0.048118554 -0.068425566 -0.03925099 0.07187886 -0.08024353 -0.028275875
0.015176393 -0.030797316 -0.06654553 -0.0007841217 0.0014002227 0.012858545 0.0656428 0.04732164
-0.07096612 -0.0016911883 0.08937191 0.04564198 0.042111028 -0.020765778 -0.0070991907 -0.03250596
0.027889999 0.005718532 -0.034950648 -0.0459902 0.034953363 0.08281755 -0.056745224 0.001115656
-0.0506993 0.05473342 0.07822765 0.08502881 -0.015777284 -0.036043383 0.08215241 0.0037929302
0.079736106 0.033391993 0.09304874 0.012850881 -0.0022953607 0.038995143 0.0855318 0.039224237
-0.030565241 0.0494889 -0.090416014 -0.031044183 0.04843018 0.08253591 -0.07375679 0.03843042
0.073236525 0.022796428 0.0012376487 0.07303846 -0.07070783 0.049365457 -0.08110636 0.053880017
0.07911614 -0.06912702 0.0658604 0.028090911 0.08997165 0.011391058 0.0023859441 0.055235118
-0.044809613 -8.1905804e-05 -0.07211497 -0.0022298484 -0.02387719 0.0011399004 0.0601673 0.030448262
0.011557821 -0.04385828 0.045410547 0.067863256 -0.00051260646 -0.087235875 -0.03873367 -0.04723275
-0.04555372 -0.006577338 -0.0014574052 -0.0011085437 -0.06255353 0.052534033 -0.028487824 0.011194323
8.216288e-05 -7.059864e-05 -0.032512464 0.093554884 -0.0014127974 -0.022921998 -0.025910588 0.001011376
-0.07248646 0.010806328 -0.003347604 -0.023161016 0.07491701 -0.044719968 0.015805816 0.0009525297
0.07036479 -0.016704913 0.07588463 0.03310897 0.018822156 0.05584363 0.010955455 -0.024653818
-0.07663239 0.0056538396 -0.032505043 0.00025713205 0.06768435 -0.0045898254 0.080030605 -0.010581301
-0.012902364 0.004844805 0.08633593 -0.00065265247 0.0643834 0.040504236 -0.04338747 -0.037882265
0.007257582 -0.07796979 -0.0010803909 -0.094359584 -0.0013184532 0.06472635 -0.020366032 0.049042337
-0.016587306 0.065236226 0.037819933 0.09005279 -0.017288052 -2.4303168e-05 0.04667524 -0.042910244
00000000: 27ae ed3b 9a26 adba a6d4 583c 6471 64bb
00000010: 5d3b 86bc 47cf afbd 272f eebc 07e5 28bd
00000020: b55a bb3d 6381 bd3c a501 203a ef49 8c3d
00000030: ab61 9fbb 00be 9dbd 44af 563d ce52 d8bc
00000040: 0523 513a e9c6 8439 6f11 233b 998b 983d
00000050: 523a 813d ca10 433d e3e3 c0bc d131 2f3d
00000060: 0475 5f3c 58e6 44bd d88e ab3d cd1f aa3c
00000070: 40f0 3db9 0f52 01bc 5d14 91bd 2d84 aa3d
00000080: 176b 7dbd 2294 323c 00cb f83c 6eec 0e3d
00000090: 098e 643d 97e0 203d 0fa5 a5bd 4d1e 84bc
000000a0: cdf4 40bd faa4 a63a fadd 663d 6009 a7bd
000000b0: 5d30 00bd 5f36 e73c 5c0f 56bd 1a06 b0bd
000000c0: 0a88 aabc 3ea0 05bc f770 a6bd 9a38 953d
000000d0: b413 80bd 627d 9dbc bd2b b8bd 2ac5 01bd
000000e0: 3d20 123d 57b1 debc a0f9 afbd ef14 36bd
000000f0: 22fa 8f3c 6da1 82bb f7e8 7f3d 312b 73ba
00000100: bd75 e4bc ea8d ae3c 91a9 a0bd 0991 9ebd
00000110: f555 2bbd 890a b93a 7507 f1bb 73d3 60bc
00000120: 5d22 1c3c 24d6 a43d 5be3 9abd bce0 873d
00000130: 2ab1 b4bb 9372 4c3d 546a 963d a1ef 4bbd
00000140: 4650 99bd 35c0 65bc 9f18 4cbd 6f23 9a3a
00000150: 326b 663d 5982 b9bd aada 9abc b0c1 ef3a
00000160: 150d fa3c b1de ba3d 5aba 89b9 a457 74bc
00000170: 6455 623d b1b1 a3bd 0e0e 5bbd c324 a1bd
00000180: 8099 1bbd 49df afbd 243c aebd 0632 0ebc
00000190: 4835 f63c eba7 1bbd 173a 9cbd ecdd c23c
000001a0: f656 823c 61b5 863d f617 45bd b422 8cbd
000001b0: a5c5 20bd 3935 933d b856 a4bd cfa2 e7bc
000001c0: 68a6 783c a74a fcbc 0649 88bd 848d 4dba
000001d0: ad87 b73a a6ac 523c bb6f 863d 56d4 413d
000001e0: af56 91bd ddaa ddba 9f08 b73d 16f3 3a3d
000001f0: 9d7c 2c3d fe1c aabc 54a0 e8bb f824 05bd
00000200: 9179 e43c 8662 bb3b 6928 0fbd 3860 3cbd
00000210: 422b 0f3d 3f9c a93d ae6d 68bd 343b 923a
00000220: 12aa 4fbd 2730 603d d135 a03d 9623 ae3d
00000230: 5d3f 81bc 3aa2 13bd 863f a83d cf92 783b
00000240: af4c a33d 0bc6 083d 5690 be3d 808c 523c
00000250: c36d 16bb 5fb9 1f3d 4c2b af3d 98a9 203d
00000260: f563 fabc dfb4 4a3d 082c b9bd 5f50 febc
00000270: b95e 463d 9608 a93d cd0d 97bd 3769 1d3d
00000280: 08fd 953d 93bf ba3c 9938 a23a 3095 953d
00000290: 44cf 90bd 6f33 4a3d 171b a6bd 4bb1 5c3d
000002a0: a507 a23d 7892 8dbd d1e1 863d e91e e63c
000002b0: 0e43 b83d 8fa1 3a3c 805d 1c3b 383e 623d
000002c0: 498a 37bd d8c4 abb8 03b1 93bd a622 12bb
000002d0: 199a c3bc b668 953a fd71 763d a26e f93c
000002e0: 045d 3d3c bda4 33bd 6900 3a3d e4fb 8a3d
000002f0: 7060 06ba b9a8 b2bd 32a7 1ebd 2177 41bd
00000300: 8a96 3abd b686 d7bb 6706 bfba 8e4c 91ba
00000310: 111c 80bd ed2d 573d 4c5f e9bc 6568 373c
00000320: dc4e ac38 5b0e 94b8 ca2b 05bd b499 bf3d
00000330: 9d2d b9ba eac6 bbbc 7142 d4bc 2690 843a
00000340: c873 94bd 060d 313c 7a63 5bbb 2cbc bdbc
00000350: 176e 993d 492c 37bd 337b 813c 30b3 793a
00000360: 6a1b 903d bed8 88bc 6769 9b3d 459d 073d
00000370: ec30 9a3c 4abc 643d 827e 333c cef6 c9bc
00000380: 71f1 9cbd d843 b93b 0224 05bd aecf 8639
00000390: 189e 8a3d 3f66 96bb 16e7 a33d 315d 2dbc
000003a0: 7064 53bc 2cc1 9e3b e4d0 b03d c416 2bba
000003b0: 72db 833d c5e7 253d 0fb7 31bd 6f2a 1bbd
000003c0: 03d1 ed3b a0ae 9fbd e79b 8dba 993f c1bd
000003d0: f3cf acba 408f 843d aad6 a6bc 9ee0 483d
000003e0: 1ae2 87bc 929a 853d 13e9 1a3d 996d b83d
000003f0: ac9f 8dbc a8de cbb7 892e 3f3d a7c2 2fbd

recurrent.bias_ih_l0 f4 [384]
0.0036573315 0.00026871896 0.0008509065 0.00026022876 -0.00019859917 -0.00029502012 0.0030990737 0.00017576481
0.0027199073 0.0013388861 0.0025784562 0.0029259142 0.002095607 8.312157e-05 0.00057101937 0.001600726
0.001992619 0.00021287349 0.0018470271 0.00021366574 0.00022811597 0.0002792474 0.0025159344 -0.00013695146
0.00039909256 -0.00037026877 0.00026680893 0.001443298 0.0024299696 0.00024587958 0.0015945748 0.00041108852
6.0701812e-05 0.00044371997 0.0028184387 0.00026488063 0.0031911198 0.0021635268 0.0005414226 1.9886033e-06
0.0015070066 0.00069885777 0.0019610962 0.0003106557 0.00030647492 0.00044238204 0.0018756671 0.001330925
0.0010409462 0.0012570075 0.0012872523 0.0006402578 0.0059196656 -0.00017623189 -0.00018372125 0.0014277936
0.0012109388 0.0034862566 0.0014225829 0.00041189147 0.00069832685 4.2387106e-05 0.00041542793 0.0021456133
0.0009862625 0.0015022575 0.0015517267 0.0029341523 0.00017460609 0.0005687209 0.00058304326 0.00029227228
-0.00017908697 0.0010041044 -2.5682182e-05 0.0017470475 0.0015717642 0.00076687365 0.003282767 0.003699718
0.00063761754 0.000876156 0.001268075 0.0003518459 0.005702527 0.0032871421 0.0026259548 0.0011820502
-0.0002143599 -4.92456e-05 0.0033399777 -0.00011099787 0.0035852955 3.9470608e-05 0.00082356593 0.0002721656
0.00025908102 4.183753e-05 0.00047976215 0.001290541 0.0017157422 0.0021452832 0.00020370605 0.0029177475
0.0019970145 9.784701e-05 0.0001506672 0.001252427 0.0020322914 -0.0005638671 0.0010140758 0.00027239817
0.0005597447 0.00018448931 0.00022276913 0.0006723734 0.002255513 -0.00028923684 0.0019702727 0.0014315485
8.573434e-05 0.00040994168 0.0008299134 0.0017625237 0.0003118712 -9.2614566e-05 -1.7364588e-05 0.0001584854
-0.008159 -0.009880423 -0.0062465714 0.0034500116 -0.011488935 -0.003206435 -0.00936455 0.009954181
0.006887871 -0.0016593875 -0.010242575 0.008111245 0.0034003118 -0.0018722039 0.003961331 0.002044155
0.00751874 -0.0005976179 -0.0028595333 -0.0032166468 0.009663602 -0.0044471994 0.005535175 0.000673492
-0.006974905 0.008188575 0.0046038474 0.0097195245 0.008130447 -0.0073683793 0.0011699004 -0.0037306028
0.0073624877 -0.010152911 0.006415394 -0.0064204666 -0.009358595 0.004682545 -0.0083491355 0.007079674
0.0024711436 0.0045194356 0.0001954474 0.006183002 -0.0054462194 0.0054249708 0.009984322 0.006719897
0.00415934 -0.008018983 0.004840696 -0.0027196489 -0.0019413873 -0.0077108527 0.0058189095 -0.0015367348
-0.010480495 0.0061935573 0.0027916785 0.005657162 -0.0039061033 0.0012639555 0.001078583 0.0026876736
0.008806191 0.010003664 0.0026971616 -0.008922609 0.00530408 -0.0034913688 0.00031626373 0.007301627
0.0013105195 0.005038656 -0.00015729928 -0.007890936 -0.003675139 0.010239302 -0.008248238 -0.008324783
0.0046128174 -0.006055628 -0.0068299607 0.0004423377 -0.008547016 0.009087533 -0.0106873885 -0.011021097
-0.0057995897 -0.004841714 -0.008931988 -0.005782436 0.0004404526 0.004468448 0.0008857744 -0.0045161345
0.005379215 -0.002742781 -0.0009648976 0.003223768 0.0064454284 -0.007282509 -0.0073144473 0.005376297
-0.008697369 0.008215056 -0.0047554756 0.0046711187 -0.008876943 -0.0013306125 -0.0037863941 -0.0066265175
-0.0062999357 0.0021204313 0.0033158425 0.0018884301 0.0035496242 -0.0019760756 -0.0062336903 -0.006199234
0.0070345053 0.002009202 -0.00408445 0.0077322945 0.005419583 0.008969232 0.009161702 -0.004590824
00000000: d7af 6f3b d9e2 8c39 5e0f 5f3a 506f 8839
00000010: 0f3f 50b9 eeac 9ab9 d419 4b3b 824d 3839
00000020: 7940 323b 907d af3a 51fb 283b b2c0 3f3b
00000030: 7456 093b 8e51 ae38 76b0 153a 74cf d13a
00000040: 9996 023b cb36 5f39 f217 f23a 760b 6039
00000050: 6a32 6f39 f467 9239 60e2 243b a19a 0fb9
00000060: 4c3d d139 a220 c2b9 7de2 8b39 0b2d bd3a
00000070: 2040 1f3b 66e9 8039 0d01 d13a 5e87 d739
00000080: 139a 7e38 16a3 e839 8eb5 383b addf 8a39
00000090: 1b22 513b f5c9 0d3b 41ee 0d3a f273 0536
000000a0: c086 c53a 8d33 373a bc85 003b 81df a239
000000b0: 5eae a039 83ef e739 f2d8 f53a 6f72 ae3a
000000c0: 5c70 883a 2cc2 a43a 05b9 a83a f9d6 273a
000000d0: c1f9 c13b e3ca 38b9 4ca5 40b9 ce24 bb3a
000000e0: 5db8 9e3a ae79 643b f675 ba3a 23f3 d739
000000f0: ec0f 373a cfc8 3138 cbcd d939 6b9d 0c3b
00000100: 7a45 813a 66e7 c43a 4f63 cb3a e84a 403b
00000110: 7716 3739 3716 153a 5fd7 183a 1f3c 9939
00000120: 4bc9 3bb9 279c 833a 1170 d7b7 30fd e43a
00000130: a803 ce3a 0508 493a b123 573b f876 723b
00000140: ca25 273a d5ad 653a 8935 a63a f577 b839
00000150: 43dc ba3b 186d 573b 3618 2c3b 06ef 9a3a
00000160: ccc5 60b9 0f8d 4eb8 87e3 5a3b 87c7 e8b8
00000170: 47f7 6a3b 3e8d 2538 93e4 573a 73b1 8e39
00000180: 44d5 8739 b57a 2f38 9688 fb39 5f27 a93a
00000190: c1e2 e03a e197 0c3b ed99 5539 ae37 3f3b
000001a0: 58e0 023b 3733 cd38 6bfc 1d39 7a28 a43a
000001b0: 3130 053b 7bd0 13ba bdea 843a aad0 8e39
000001c0: d5bb 123a 7973 4139 2297 6939 3742 303a
000001d0: 3bd1 133b b6a4 97b9 b11f 013b cca2 bb3a
000001e0: 46cc b338 71ed d639 8c8e 593a 7b04 e73a
000001f0: a582 a339 113a c2b8 2baa 91b7 1a2f 2639
00000200: 54ad 05bc 7fe1 21bc 0ab0 ccbb 9719 623b
00000210: 163c 3cbc 0d23 52bb c56d 19bc dc16 233c
00000220: a6b3 e13b ce7f d9ba 79d0 27bc 07e5 043c
00000230: c4d7 5e3b bd64 f5ba 0ece 813b 3bf7 053b
00000240: c35f f63b 75a9 1cba 0267 3bbb 61ce 52bb
00000250: 1654 1e3c d0b9 91bb 6a60 b53b 488d 303a
00000260: be8d e4bb 5f29 063c dfdb 963b a43e 1f3c
00000270: 9135 053c 7272 f1bb 5857 993a 217d 74bb
00000280: 0641 f13b 6558 26bc 3a38 d23b c762 d2bb
00000290: cb54 19bc 0970 993b d0ca 08bc 9cfc e73b
000002a0: e9f2 213b c617 943b 03f1 4c39 c89a ca3b
000002b0: 3376 b2bb f4c3 b13b 4895 233c 9532 dc3b
000002c0: 134b 883b 0d62 03bc b49e 9e3b 233c 32bb
000002d0: 2676 feba 52ab fcbb 8dac be3b 436c c9ba
000002e0: 62b6 2bbc 53f3 ca3b 98f4 363b b75f b93b
000002f0: 8afd 7fbb 4fab a53a 3d5f 8d3a ae23 303b
00000300: d847 103c 68e6 233c ddc2 303b 2230 12bc
00000310: d9cd ad3b 73cf 64bb 33d0 a539 7d42 ef3b
00000320: bdc5 ab3a 4f1b a53b b4f0 24b9 fc48 01bc
00000330: 9ada 70bb bfc2 273c 9e23 07bc ac64 08bc
00000340: 1e27 973b 4a6e c6bb ddcd dfbb 90e9 e739
00000350: c908 0cbc e0e3 143c 281a 2fbc d591 34bc
00000360: 7c0a bebb 3ea7 9ebb 7957 12bc 977a bdbb
00000370: 8cec e639 0f6c 923b 5033 683a 15fc 93bb
00000380: 2044 b03b 3bc0 33bb 2ff1 7cba da45 533b
00000390: 2c34 d33b 1da2 eebb 08ae efbb a62b b03b
000003a0: 697f 0ebc 7198 063c d2d3 9bbb 2f10 993b
000003b0: 9970 11bc f267 aeba 2725 78bb 4223 d9bb
000003c0: b16f cebb eff6 0a3b 9b4e 593b 3385 f73a
000003d0: d0a0 683b 0c81 01bb fc43 ccbb f222 cbbb
000003e0: b581 e63b d1ac 033b dad6 85bb 305f fd3b
000003f0: c296 b13b b0f3 123c f71a 163c 9f6e 96bb

recurrent.bias_hh_l0 f4 [384]
0.0036573315 0.00026871896 0.0008509065 0.00026022876 -0.00019859917 -0.00029502012 0.0030990737 0.00017576481
0.0027199073 0.0013388861 0.0025784562 0.0029259142 0.002095607 8.312157e-05 0.00057101937 0.001600726
0.001992619 0.00021287349 0.0018470271 0.00021366574 0.00022811597 0.0002792474 0.0025159344 -0.00013695146
0.00039909256 -0.00037026877 0.00026680893 0.001443298 0.0024299696 0.00024587958 0.0015945748 0.00041108852
6.0701812e-05 0.00044371997 0.0028184387 0.00026488063 0.0031911198 0.0021635268 0.0005414226 1.9886033e-06
0.0015070066 0.00069885777 0.0019610962 0.0003106557 0.00030647492 0.00044238204 0.0018756671 0.001330925
0.0010409462 0.0012570075 0.0012872523 0.0006402578 0.0059196656 -0.00017623189 -0.00018372125 0.0014277936
0.0012109388 0.0034862566 0.0014225829 0.00041189147 0.00069832685 4.2387106e-05 0.00041542793 0.0021456133
0.0009862625 0.0015022575 0.0015517267 0.0029341523 0.00017460609 0.0005687209 0.00058304326 0.00029227228
-0.00017908697 0.0010041044 -2.5682182e-05 0.0017470475 0.0015717642 0.00076687365 0.003282767 0.003699718
0.00063761754 0.000876156 0.001268075 0.0003518459 0.005702527 0.0032871421 0.0026259548 0.0011820502
-0.0002143599 -4.92456e-05 0.0033399777 -0.00011099787 0.0035852955 3.9470608e-05 0.00082356593 0.0002721656
0.00025908102 4.183753e-05 0.00047976215 0.001290541 0.0017157422 0.0021452832 0.00020370605 0.0029177475
0.0019970145 9.784701e-05 0.0001506672 0.001252427 0.0020322914 -0.0005638671 0.0010140758 0.00027239817
0.0005597447 0.00018448931 0.00022276913 0.0006723734 0.002255513 -0.00028923684 0.0019702727 0.0014315485
8.573434e-05 0.00040994168 0.0008299134 0.0017625237 0.0003118712 -9.2614566e-05 -1.7364588e-05 0.0001584854
-0.008159 -0.009880423 -0.0062465714 0.0034500116 -0.011488935 -0.003206435 -0.00936455 0.009954181
0.006887871 -0.0016593875 -0.010242575 0.008111245 0.0034003118 -0.0018722039 0.003961331 0.002044155
0.00751874 -0.0005976179 -0.0028595333 -0.0032166468 0.009663602 -0.0044471994 0.005535175 0.000673492
-0.006974905 0.008188575 0.0046038474 0.0097195245 0.008130447 -0.0073683793 0.0011699004 -0.0037306028
0.0073624877 -0.010152911 0.006415394 -0.0064204666 -0.009358595 0.004682545 -0.0083491355 0.007079674
0.0024711436 0.0045194356 0.0001954474 0.006183002 -0.0054462194 0.0054249708 0.009984322 0.006719897
0.00415934 -0.008018983 0.004840696 -0.0027196489 -0.0019413873 -0.0077108527 0.0058189095 -0.0015367348
-0.010480495 0.0061935573 0.0027916785 0.005657162 -0.0039061033 0.0012639555 0.001078583 0.0026876736
0.008806191 0.010003664 0.0026971616 -0.008922609 0.00530408 -0.0034913688 0.00031626373 0.007301627
0.0013105195 0.005038656 -0.00015729928 -0.007890936 -0.003675139 0.010239302 -0.008248238 -0.008324783
0.0046128174 -0.006055628 -0.0068299607 0.0004423377 -0.008547016 0.009087533 -0.0106873885 -0.011021097
-0.0057995897 -0.004841714 -0.008931988 -0.005782436 0.0004404526 0.004468448 0.0008857744 -0.0045161345
0.005379215 -0.002742781 -0.0009648976 0.003223768 0.0064454284 -0.007282509 -0.0073144473 0.005376297
-0.008697369 0.008215056 -0.0047554756 0.0046711187 -0.008876943 -0.0013306125 -0.0037863941 -0.0066265175
-0.0062999357 0.0021204313 0.0033158425 0.0018884301 0.0035496242 -0.0019760756 -0.0062336903 -0.006199234
0.0070345053 0.002009202 -0.00408445 0.0077322945 0.005419583 0.008969232 0.009161702 -0.004590824
00000000: d7af 6f3b d9e2 8c39 5e0f 5f3a 506f 8839
00000010: 0f3f 50b9 eeac 9ab9 d419 4b3b 824d 3839
00000020: 7940 323b 907d af3a 51fb 283b b2c0 3f3b
00000030: 7456 093b 8e51 ae38 76b0 153a 74cf d13a
00000040: 9996 023b cb36 5f39 f217 f23a 760b 6039
00000050: 6a32 6f39 f467 9239 60e2 243b a19a 0fb9
00000060: 4c3d d139 a220 c2b9 7de2 8b39 0b2d bd3a
00000070: 2040 1f3b 66e9 8039 0d01 d13a 5e87 d739
00000080: 139a 7e38 16a3 e839 8eb5 383b addf 8a39
00000090: 1b22 513b f5c9 0d3b 41ee 0d3a f273 0536
000000a0: c086 c53a 8d33 373a bc85 003b 81df a239
000000b0: 5eae a039 83ef e739 f2d8 f53a 6f72 ae3a
000000c0: 5c70 883a 2cc2 a43a 05b9 a83a f9d6 273a
000000d0: c1f9 c13b e3ca 38b9 4ca5 40b9 ce24 bb3a
000000e0: 5db8 9e3a ae79 643b f675 ba3a 23f3 d739
000000f0: ec0f 373a cfc8 3138 cbcd d939 6b9d 0c3b
00000100: 7a45 813a 66e7 c43a 4f63 cb3a e84a 403b
00000110: 7716 3739 3716 153a 5fd7 183a 1f3c 9939
00000120: 4bc9 3bb9 279c 833a 1170 d7b7 30fd e43a
00000130: a803 ce3a 0508 493a b123 573b f876 723b
00000140: ca25 273a d5ad 653a 8935 a63a f577 b839
00000150: 43dc ba3b 186d 573b 3618 2c3b 06ef 9a3a
00000160: ccc5 60b9 0f8d 4eb8 87e3 5a3b 87c7 e8b8
00000170: 47f7 6a3b 3e8d 2538 93e4 573a 73b1 8e39
00000180: 44d5 8739 b57a 2f38 9688 fb39 5f27 a93a
00000190: c1e2 e03a e197 0c3b ed99 5539 ae37 3f3b
000001a0: 58e0 023b 3733 cd38 6bfc 1d39 7a28 a43a
000001b0: 3130 053b 7bd0 13ba bdea 843a aad0 8e39
000001c0: d5bb 123a 7973 4139 2297 6939 3742 303a
000001d0: 3bd1 133b b6a4 97b9 b11f 013b cca2 bb3a
000001e0: 46cc b338 71ed d639 8c8e 593a 7b04 e73a
000001f0: a582 a339 113a c2b8 2baa 91b7 1a2f 2639
00000200: 54ad 05bc 7fe1 21bc 0ab0 ccbb 9719 623b
00000210: 163c 3cbc 0d23 52bb c56d 19bc dc16 233c
00000220: a6b3 e13b ce7f d9ba 79d0 27bc 07e5 043c
00000230: c4d7 5e3b bd64 f5ba 0ece 813b 3bf7 053b
00000240: c35f f63b 75a9 1cba 0267 3bbb 61ce 52bb
00000250: 1654 1e3c d0b9 91bb 6a60 b53b 488d 303a
00000260: be8d e4bb 5f29 063c dfdb 963b a43e 1f3c
00000270: 9135 053c 7272 f1bb 5857 993a 217d 74bb
00000280: 0641 f13b 6558 26bc 3a38 d23b c762 d2bb
00000290: cb54 19bc 0970 993b d0ca 08bc 9cfc e73b
000002a0: e9f2 213b c617 943b 03f1 4c39 c89a ca3b
000002b0: 3376 b2bb f4c3 b13b 4895 233c 9532 dc3b
000002c0: 134b 883b 0d62 03bc b49e 9e3b 233c 32bb
000002d0: 2676 feba 52ab fcbb 8dac be3b 436c c9ba
000002e0: 62b6 2bbc 53f3 ca3b 98f4 363b b75f b93b
000002f0: 8afd 7fbb 4fab a53a 3d5f 8d3a ae23 303b
00000300: d847 103c 68e6 233c ddc2 303b 2230 12bc
00000310: d9cd ad3b 73cf 64bb 33d0 a539 7d42 ef3b
00000320: bdc5 ab3a 4f1b a53b b4f0 24b9 fc48 01bc
00000330: 9ada 70bb bfc2 273c 9e23 07bc ac64 08bc
00000340: 1e27 973b 4a6e c6bb ddcd dfbb 90e9 e739
00000350: c908 0cbc e0e3 143c 281a 2fbc d591 34bc
00000360: 7c0a bebb 3ea7 9ebb 7957 12bc 977a bdbb
00000370: 8cec e639 0f6c 923b 5033 683a 15fc 93bb
00000380: 2044 b03b 3bc0 33bb 2ff1 7cba da45 533b
00000390: 2c34 d33b 1da2 eebb 08ae efbb a62b b03b
000003a0: 697f 0ebc 7198 063c d2d3 9bbb 2f10 993b
000003b0: 9970 11bc f267 aeba 2725 78bb 4223 d9bb
000003c0: b16f cebb eff6 0a3b 9b4e 593b 3385 f73a
000003d0: d0a0 683b 0c81 01bb fc43 ccbb f222 cbbb
000003e0: b581 e63b d1ac 033b dad6 85bb 305f fd3b
000003f0: c296 b13b b0f3 123c f71a 163c 9f6e 96bb

fc.weight f4 [4, 128]
-0.044786956 0.080528334 -0.0043765428 0.062904276 0.06529292 0.062326957 -0.091162294 -0.020705622
-0.03272931 0.02053122 -0.070003174 0.041990872 0.008400558 -0.008858572 0.05264222 0.015616601
0.084515415 0.03834835 -0.07277766 0.0013371287 -0.004264736 0.014001473 0.06827327 0.020845218
-0.06706928 0.0769553 -0.038028765 0.021798674 -0.055597804 0.06181648 -0.011019088 -0.07365597
0.060315754 0.018009072 0.044623993 0.08127735 -0.020928135 0.069208935 0.05415872 0.03905835
-0.0748036 -0.06337287 -0.045926478 0.016506668 0.065976 0.03575855 0.038912956 0.0024239323
-0.025092537 -0.07995839 -0.08449082 0.050976664 -0.0032873156 0.08472943 0.027299142 0.048497155
0.032139346 -0.013958335 0.08669281 0.05765474 -0.04706973 0.051909067 -0.034408174 -0.031977408
0.02611684 -0.066324495 -0.074547224 0.040272847 -0.02682933 0.0676949 -0.041073244 -0.049283452
-0.08707391 0.021018019 -0.027660433 0.08237173 -0.006445003 0.063987754 0.06622928 -0.079180986
0.0006490682 0.018011454 -0.0074506914 0.07449902 0.036494408 -0.03410065 0.08760451 0.009802283
0.08402875 0.078961685 0.04595543 0.08746302 0.06501297 0.030333387 -0.05327825 0.07390699
0.04748088 -0.06950945 -0.04427008 0.06993869 -0.07021454 0.005802154 -0.0006217269 0.037229415
0.019032856 -0.07655132 0.065331884 0.07627784 0.0038880452 -0.092057094 -0.029414115 -0.06685697
-0.08844906 0.032102164 -0.046346106 0.07138146 -0.056521043 -0.077992536 -0.016729914 -0.08820626
0.060249228 0.089910984 -0.05458952 0.058082763 0.03861627 -0.059455104 0.030105257 0.049018525
-0.039385006 -0.027680285 -0.013520346 0.015223684 -0.021791901 -0.09259805 0.037156492 0.0066056787
-0.051788762 0.05806718 -0.025272658 0.08001727 -0.0078557 0.08635201 -0.004193453 -0.0076399297
0.05585876 -0.041425545 0.076929174 0.08560375 -0.0134647265 -0.071755745 0.06294268 -0.028787248
-0.04885079 0.040611632 0.02814266 0.01736198 -0.01679435 -0.056436405 -0.025606474 0.004110409
-0.060017437 0.07420102 0.014991244 -0.07938714 0.07355319 0.030199872 -0.015121267 -0.05672746
-0.07498614 0.07258314 0.023836223 -0.08174862 0.021297177 0.07528888 -0.004148966 -0.009036202
-0.06874714 0.026163945 0.07474972 0.01867088 -0.005742039 -0.078231476 0.03674242 0.019328786
-0.08531683 0.08690172 0.069952495 -0.025019404 -0.03255458 0.023234386 -0.02405292 -0.084163375
0.023617405 0.048136145 -0.068497635 0.07998481 -0.08617202 -0.049314123 0.006898828 0.039135523
0.020498268 0.039657865 0.050283678 0.07405066 0.08979965 -0.027590059 -0.008576211 0.054050528
0.030374827 0.023797723 0.015291026 -0.06751371 0.043221485 -0.043243643 0.016638102 -0.079160735
0.04720266 -0.08647679 0.030301174 -0.08486449 -0.0332021 0.042700578 -0.060137134 0.06466313
0.06776691 0.06760076 -0.04129158 0.038753867 0.02513436 0.013733019 0.08179866 0.07802915
0.016721565 0.035361435 -0.04957533 0.046464436 -0.010001304 0.015940508 0.026998457 0.0832193
-0.031067858 0.08464393 -0.055856176 -0.021932833 0.0022002445 0.0738602 -0.06424935 -0.072740436
-0.085421726 0.0012323748 0.02746905 -0.036235332 0.015519752 -0.0046206303 -0.07553939 0.08532908
00000000: 8772 37bd 0aec a43d 1a69 8fbb f5d3 803d
00000010: 4bb8 853d 8d4a 7f3d 4cb3 babd d69e a9bc
00000020: 2b0f 06bd 1731 a83c d35d 8fbd 9ffe 2b3d
00000030: 7ea2 093c 8b23 11bc 5e9f 573d c6dc 7f3c
00000040: 6b16 ad3d 2913 1d3d 740c 95bd 9842 af3a
00000050: 33bf 8bbb 6f66 653c dbd2 8b3d 97c3 aa3c
00000060: 9e5b 89bd be9a 9d3d 0dc4 1bbd 2293 b23c
00000070: 86ba 63bd 4733 7d3d 6889 34bc f1d8 96bd
00000080: a70d 773d c387 933c a6c7 363d bd74 a63d
00000090: 7b71 abbc 6abd 8d3d 89d5 5d3d a6fb 1f3d
000000a0: a132 99bd a3c9 81bd 671d 3cbd fe38 873c
000000b0: 6d1e 873d 8f77 123d 3163 1f3d d6da 1e3b
000000c0: dd8e cdbc 39c1 a3bd 8609 adbd e8cc 503d
000000d0: 0170 57bb a086 ad3d 73a2 df3c f4a4 463d
000000e0: 8ca4 033d 80b1 64bc 008c b13d 6027 6c3d
000000f0: 30cc 40bd 9a9e 543d 96ef 0cbd befa 02bd
00000100: fcf2 d53c 23d5 87bd 37ac 98bd 24f5 243d
00000110: 2fc9 dbbc a0a3 8a3d 6b3c 28bd 72dd 49bd
00000120: ce53 b2bd fb2d ac3c 2298 e2bc 82b2 a83d
00000130: 9b30 d3bb 030c 833d 37a3 873d a429 a2bd
00000140: 3b26 2a3a c28c 933c ee24 f4bb f192 983d
00000150: 297b 153d 20ad 0bbd fe69 b33d c199 203c
00000160: 4417 ac3d aab6 a13d c33b 3c3d d01f b33d
00000170: 8525 853d b97d f83c 4b3a 5abd 8c5c 973d
00000180: 507b 423d f85a 8ebd 8b54 35bd 043c 8f3d
00000190: a4cc 8fbd ff1f be3b 63fb 22ba df7d 183d
000001a0: cbea 9b3c f0c6 9cbd b9cc 853d 8e37 9c3d
000001b0: 93ce 7e3b 6e88 bcbd dff5 f0bc 4fec 88bd
000001c0: c824 b5bd 8f7d 033d 6ad5 3dbd 7130 923d
000001d0: 9c82 67bd 8dba 9fbd 2c0d 89bc 7ca5 b4bd
000001e0: e5c7 763d 4023 b83d 4399 5fbd 31e8 6d3d
000001f0: 182c 1e3d 3287 73bd 4d9f f63c a6c7 483d
00000200: 2c52 21bd c4c1 e2bc 7184 5dbc c26c 793c
00000210: ee84 b2bc 0ca4 bdbd 6831 183d 7374 d83b
00000220: 7420 54bd dad7 6d3d 9b08 cfbc 18e0 a33d
00000230: 32b5 00bc 53d9 b03d 3c69 89bb 6058 fabb
00000240: 28cc 643d d5ad 29bd 0b8d 9d3d 0551 af3d
00000250: 289b 5cbc adf4 92bd 18e8 803d 3cd3 ebbc
00000260: c417 48bd 6258 263d 708b e63c b63a 8e3c
00000270: 4e94 89bc dc29 67bd abc4 d1bc 9cb0 863b
00000280: d8d4 75bd b4f6 973d d69d 753c ba95 a2bd
00000290: 0ea3 963d b965 f73c 31bf 77bc 0e5b 68bd
000002a0: 5592 99bd 78a6 943d 2f44 c33c d26b a7bd
000002b0: 6b77 ae3c 0e31 9a3d 0df4 87bb 940c 14bc
000002c0: 4dcb 8cbd c555 d63c 6216 993d acf3 983c
000002d0: b727 bcbb d337 a0bd 387f 163d 6757 9e3c
000002e0: 97ba aebd 87f9 b13d 4143 8f3d 7ef5 ccbc
000002f0: f457 05bd 0a56 be3c a10a c5bc d95d acbd
00000300: 4a79 c13c 682a 453d 7d48 8cbd 13cf a33d
00000310: f57a b0bd 9bfd 49bd 900f e23b 924c 203d
00000320: fceb a73c 4970 223d 42f6 4d3d dfa7 973d
00000330: e1e8 b73d 8c04 e2bc 3c83 0cbc 1664 5d3d
00000340: a1d4 f83c 71f3 c23c 3687 7a3c a144 8abd
00000350: 0309 313d 3f20 31bd a14c 883c 061f a2bd
00000360: 9457 413d be1a b1bd 2b3a f83c 6fcd adbd
00000370: edfe 07bd cde6 2e3d 5b52 76bd 1a6e 843d
00000380: 61c9 8a3d 4472 8a3d 5c21 29bd 60bc 1e3d
00000390: 93e6 cd3c 7500 613c 0e86 a73d bfcd 9f3d
000003a0: aafb 883c 27d7 103d 800f 4bbd 7e51 3e3d
000003b0: 82dc 23bc ab95 823c de2b dd3c e16e aa3d
000003c0: 0582 febc cc59 ad3d 72c9 64bd 7cac b3bc
000003d0: fa31 103b 0444 973d 2a95 83bd f0f8 94bd
000003e0: 96f1 aebd a387 a13a c606 e13c 806b 14bd
000003f0: 8f46 7e3c a868 97bb 65b4 9abd 03c1 ae3d

fc.bias f4 [4]
0.041554708 0.020206694 0.002378526 -0.044527434
00000000: 4535 2a3d 8288 a53c 0be1 1b3b 6662 36bd
