input/gru_model.pth (torch, 611234 bytes, 10 tensors)

recurrent.weight_ih_l0 f4 [384, 7]
00000000: 5ecb 3839 bb1c 9438 ccc2 1aba e48a f4b8
00000010: 6602 653b c3e7 5e3a a353 32b8 774b 85ba
00000020: 2270 ecba 91eb 85ba 1760 a7bb 027d f53b
00000030: ee26 f33a fa02 8fb9 397e 1bb8 b286 89b8
00000040: f9f0 67b8 686e dbb7 7177 663a 2dfa e939
00000050: 6524 d334 88ef 043a 18c9 1b3a 6fe2 2aba
00000060: c53a c7b9 bd95 f33b b565 ab3a baad e338
00000070: 4f9f e838 1419 a638 e3fd b1b9 8ef2 40b9
00000080: d576 173b 179e 423a b9d5 08b8 2721 183a
00000090: 484d 323a f2d4 33ba 0533 e5b9 72fa 063c
000000a0: 646f ab3a 22bb a138 7352 dd39 45f9 e539
000000b0: e635 1dba cca2 1839 7bea fe3b 7cfc d13a
000000c0: 4fe9 4b39 2ae0 5439 3c3a 7a37 8a2e 99b9
000000d0: 66f4 073a f263 c53b 87a4 c53a 6f8d 8439
000000e0: d596 0a3a f000 203a 7214 34ba 843a c2b9
000000f0: a7e2 ef3b 7e42 a03a 4e8e b5b7 4174 9f3a
00000100: 60b4 55bb b7ed 2cbb 12b4 6ebb e723 9fbb
00000110: c823 aa3b 075a 1cbb 961e 46b7 2c98 9a37
00000120: 7bca 1bb9 9d7c fbb8 c46d 1e3b 3764 1f3a
00000130: bfe4 9837 7b78 7439 85e7 0739 beea 2cba
00000140: c77f f6b8 9f6a 8c3b dafb 7f3a 02ed 39b8
00000150: 431f 0337 8837 8cb9 f38d 1f38 5099 ae39
00000160: b222 b837 8668 1f3a f9d6 a038 d652 ecb8
00000170: 4b21 0cb9 9b7f 1eb9 f95d d4b7 0dd2 d73a
00000180: bda6 233a 1003 10b8 0955 bf39 2f56 7239
00000190: 8d43 14ba 7070 2c39 9ed8 c33b 6848 34b9
000001a0: 86c5 da39 c0a9 a63b cf76 833b 1f44 123c
000001b0: 76f9 1f3c a1e1 1b3c 0d3d 1cbc 886b bcba
000001c0: f682 bfb7 fc27 9bb9 3eb9 0638 f771 a039
000001d0: 5a51 7f39 fc02 123a 318a dcb7 56be 99ba
000001e0: ee64 56bb ef5e 3bb9 c789 8037 87b3 bebb
000001f0: f705 263a 1363 183a 0987 ecb9 89e0 7abc
00000200: b948 4bbc abee 05bb 598e 5b3c 8e75 3fbb
00000210: bb8e 383d ed20 e039 a0e1 df39 2a12 26ba
00000220: c4e5 a3b9 4d94 d33b e57c af3a 2388 b038
00000230: eaa7 e5b7 5dc1 16b9 bab4 3338 96c7 a739
00000240: a659 bdb9 4bf9 943a fd13 8b38 d304 153a
00000250: 358c 313a 8716 34ba 26f1 d6b9 fed4 003c
00000260: 83e3 a23a b160 4035 106c 1439 9a9c 56b8
00000270: 1aa2 4b36 f3de 21b9 4271 a93a 2188 7bba
00000280: b733 3139 a7ae 28bb 9477 3eb9 dd27 8839
00000290: e434 3bbb 2dc1 8e3b ee8a 88bb 94f1 983a
000002a0: e747 1339 fa22 8138 2f0b 46b6 6574 68b9
000002b0: 3d0a 813a 30b4 6aba 9511 d538 7c3b 9438
000002c0: 33c0 75b8 db2c 1437 1f39 26b9 77c9 333a
000002d0: 4a34 4fba e8fe 7838 9525 3c39 b232 c539
000002e0: 2548 d6b9 c21f 86b9 445d 973b 0e09 543a
000002f0: 4618 ee37 a6fb 3d39 17cf a338 d283 1aba
00000300: 42ee fab8 d6be 663b 07a2 5f3a 199d 32b8
00000310: 98d3 b938 8339 1539 4ba2 3fb9 3d12 11b9
00000320: 2bae 243b 0c27 483a 8893 b937 b710 4038
00000330: 8fe0 d837 3811 d3b7 b620 7f36 ea70 35b9
00000340: 2234 7a38 2ad0 5937 54d9 d5b8 e15e 22b9
00000350: fb95 39b9 629e b8b6 37b5 fc3a 8e8d 263a
00000360: ac9a 40b8 f622 8c39 7775 8039 524a eeb9
00000370: 7e2e bf39 2580 ef3b c1e3 013a 2da2 0a3a
00000380: 8630 4d3a 34fe 763a 6efe 62ba 90ad d9b9
00000390: 1cbc 2c3c b839 aa3a 0284 9739 db23 483a
000003a0: 8680 703a 36f5 6fba be63 10b9 392d 283c
000003b0: 31de b83a b141 b839 7832 313a 1732 593a
000003c0: 8389 3fba 0dbe feb9 4da4 183c 9d93 a73a
000003d0: 7b70 f638 11fd a2bc e72d a13b dacb 9dbc
000003e0: a428 41bc acab a4bc 69d0 f8bb 7123 4d3d
000003f0: 7517 7439 6655 3839 8aaa 13ba c7ad 29b9
0.00017623368 7.0625414e-05 -0.0005903661 -0.00011660697 0.0034944057 0.0008503163 -4.25164e-05 -0.0010169585
-0.0018038789 -0.0010217299 -0.0051078903 0.0074917087 0.0018551031 -0.00027277303 -3.7072434e-05 -6.557758e-05
-5.5299115e-05 -2.6158246e-05 0.0008791602 0.0004462762 3.9328293e-07 0.00050710933 0.0005942746 -0.00065187266
-0.00038000025 0.0074336217 0.0013076576 0.000108565626 0.000110922956 7.920168e-05 -0.0003394923 -0.00018400906
0.00231116 0.000742407 -3.262397e-05 0.000580328 0.0006801677 -0.00068600394 -0.00043716296 0.008238422
0.0013079462 7.7119344e-05 0.00042213834 0.00043864004 -0.0005997106 0.00014556496 0.007779417 0.0016020681
0.00019446503 0.00020301403 1.491472e-05 -0.00029217108 0.00051862595 0.0060238773 0.001507894 0.00025282378
0.0005286758 0.00061036553 -0.00068695017 -0.0003704616 0.0073207202 0.0012226847 -2.1643147e-05 0.0012165384
-0.0032608733 -0.0026386806 -0.0036423248 -0.004856575 0.0051922537 -0.0023857371 -1.1808841e-05 1.8429091e-05
-0.00014857382 -0.00011991824 0.0024174312 0.0006080302 1.822633e-05 0.00023314536 0.00012960851 -0.00065962586
-0.000117539945 0.004285171 0.0009765007 -4.4328168e-05 7.815487e-06 -0.00026744255 3.8040755e-05 0.00033302093
2.1950666e-05 0.0006080944 7.669436e-05 -0.00011268786 -0.00013363843 -0.00015115591 -2.5316129e-05 0.0016465798
0.00062428025 -3.4335128e-05 0.00036493715 0.00023111024 -0.0005655818 0.00016445084 0.0059767505 -0.00017193111
0.00041727367 0.0050861537 0.004011966 0.008927374 0.009764066 0.009514243 -0.00953604 -0.0014375309
-2.2829958e-05 -0.00029593694 3.212061e-05 0.0003060249 0.00024349001 0.0005569903 -2.6290394e-05 -0.0011729698
-0.0032713967 -0.00017869075 1.5322947e-05 -0.005819741 0.00063332863 0.0005813103 -0.00045114037 -0.015312322
-0.012407475 -0.0020436447 0.013400638 -0.0029214355 0.045057993 0.0004274914 0.00042701978 -0.0006335104
-0.0003126097 0.006456888 0.0013388662 8.4176914e-05 -2.7377118e-05 -0.00014377148 4.284524e-05 0.00032001425
-0.00036115682 0.0011365799 6.6317596e-05 0.0005684618 0.00067729066 -0.0006869812 -0.0004099693 0.007863281
0.0012427423 7.166628e-07 0.00014154636 -5.1167422e-05 3.0343713e-06 -0.00015437212 0.001292743 -0.0009595175
0.000168993 -0.0025738867 -0.00018164358 0.00025969642 -0.002856546 0.0043565244 -0.0041669523 0.0011668676
0.00014045798 6.157714e-05 -2.951081e-06 -0.00022168604 0.000984497 -0.00089532416 0.000101599064 7.06827e-05
-5.859155e-05 8.831931e-06 -0.00015852273 0.00068583287 -0.0007904215 5.9365208e-05 0.00017943078 0.0003761254
-0.00040871013 -0.00025582133 0.0046192724 0.00080885075 2.8383114e-05 0.00018118191 7.811019e-05 -0.00058942765
-0.00011965308 0.0035208962 0.0008530919 -4.2584816e-05 8.8609e-05 0.00014231172 -0.00018275638 -0.00013835072
0.0025128226 0.0007635213 2.2122418e-05 4.5791934e-05 2.5853775e-05 -2.5161178e-05 3.8017001e-06 -0.00017303569
5.9653197e-05 1.2982675e-05 -0.00010197112 -0.00015484869 -0.00017698847 -5.5020655e-06 0.001928008 0.0006353491
-4.5920417e-05 0.0002672893 0.0002450158 -0.0004545027 0.00036464998 0.007308977 0.00049548974 0.00052884483
0.000782736 0.00094220345 -0.0008659129 -0.0004151878 0.010542896 0.0012987172 0.00028899318 0.00076347374
0.0009174425 -0.0009153666 -0.00013770067 0.010264688 0.0014104304 0.0003514416 0.00067595346 0.0008285357
-0.00073065626 -0.00048588254 0.009316516 0.0012785081 0.00011751145 -0.019896062 0.004918802 -0.019262243
-0.011789475 -0.02010139 -0.007593204 0.050082628 0.00023278392 0.00017579421 -0.0005633017 -0.00016181833

recurrent.weight_hh_l0 f4 [384, 128]
00000000: dd0d 0000 bb0d 0000 dd0d 0000 b10d 0000
00000010: b30d 0000 e00d 0000 cd0d 0080 cd0d 0080
00000020: c70d 0080 a60f 0000 b80d 0080 8710 0000
00000030: b30d 0000 b00d 0080 e10d 0080 d30d 0000
00000040: a60f 0080 3b0e 0000 bb0d 0000 040e 0080
00000050: e90d 0000 e60e 0080 b60d 0000 4b0e 0000
00000060: b10d 0000 4210 0080 160e 0000 ff0d 0080
00000070: e90d 0080 300e 0000 f70d 0080 c70d 0000
00000080: e60d 0080 490e 0080 bb0d 0000 a80f 0000
00000090: e00d 0000 0e0e 0000 ae0d 0080 c50d 0080
000000a0: b00d 0000 0a0f 0080 944a 0d32 d40d 0080
000000b0: 520f 0000 6e0e 0080 ff0d 0080 b70d 0080
000000c0: fa0d 0080 ce0d 0000 060e 0080 e60f 0000
000000d0: ae0d 0080 9b0e 0000 d30d 0080 f10d 0000
000000e0: 240e 0080 e60d 0000 c50d 0080 590e 0080
000000f0: c40d 0080 d10d 0080 b10d 0080 d60d 0080
00000100: f40d 0080 af0d 0080 7c0e 0000 0010 0000
00000110: f50d 0080 d950 aba5 e50d 0080 fd0e 0080
00000120: c30d 0000 f70d 0080 120e 0000 d10d 0000
00000130: bf0d 0080 120e 0000 ec0d 0080 e70d 0080
00000140: e60d 0000 ad0d 0080 f20d 0000 f90d 0080
00000150: 3c0e 0000 d00d 0000 dc0d 0000 f10d 0000
00000160: cd0d 0080 cc0d 0080 e70d 0080 ef0f 0000
00000170: c60d 0080 c90d 0080 d00d 0080 850e 0000
00000180: 950e 0000 bf0d 0080 da0d 0000 c60d 0080
00000190: ba0d 0000 e2e8 4627 d90d 0000 8b11 0080
000001a0: 6311 0080 360e 0080 ba0d 0080 fa0d 0080
000001b0: d80d 0000 d10d 0000 b30d 0080 ae0d 0000
000001c0: c90d 0080 cc0d 0000 d10d 0080 cc0d 0000
000001d0: e20d 0000 060e 0080 220e 0000 450f 0000
000001e0: d30d 0000 d70d 0000 ed0d 0080 ea0d 0080
000001f0: ec0d 0000 e30d 0080 ae0d 0000 e30d 0000
00000200: 0a0e 0080 df0d 0000 b30d 0000 c30d 0000
00000210: af0d 0000 b40f 0000 fb0d 0000 d10d 0080
00000220: f00d 0000 000e 0000 bc0d 0000 af0d 0000
00000230: 170e 0000 ba0d 0000 d10d 0080 c40d 0080
00000240: c20d 0080 fb0d 0080 a90e 0080 dc0d 0000
00000250: b70d 0080 370f 0080 c60d 0000 430e 0080
00000260: 020e 0080 e40d 0080 f30d 0080 c10d 0000
00000270: c00d 0080 d50d 0000 550e 0000 1a0e 0000
00000280: 4f52 7026 cf0d 0080 0d0e 0000 bd0d 0080
00000290: b10d 0000 a60f 0080 ca0d 0000 bb0d 0000
000002a0: c00d 0000 af0e 0080 020e 0080 f10d 0000
000002b0: cc0d 0080 b50d 0080 f20f 0080 b20d 0080
000002c0: b40d 0080 cfca e130 ac0d 0000 e20d 0000
000002d0: b10d 0000 da0d 0000 0b0e 0000 4237 4732
000002e0: 9c0e 0000 b10d 0000 620e 0000 d70d 0000
000002f0: c20d 0080 c410 0000 df0d 0000 fe0d 0080
00000300: 3da5 d8b4 c90d 0000 cb0d 0080 2a0e 0080
00000310: e90d 0000 3f11 0080 b90d 0080 2e0e 0000
00000320: c20d 0000 d90d 0080 e30d 0080 240e 0000
00000330: df0d 0080 ae0d 0000 d10e 0000 d90d 0000
00000340: e30d 0080 e90d 0080 5e0f 0000 c60d 0080
00000350: 730e 0080 440e 0080 390e 0080 3f0e 0080
00000360: bf0d 0080 670e 0080 b30d 0000 320e 0080
00000370: da0d 0000 eb0d 0000 f30d 0000 160e 0080
00000380: f00d 0080 e20d 0000 e00d 0000 040e 0080
00000390: 350f 0000 290e 0080 d20d 0000 3a0f 0080
000003a0: 150e 0000 eb0d 0080 0d10 0000 2d0e 0000
000003b0: 6010 0080 2f0e 0000 d00d 0000 c60d 0000
000003c0: cc0d 0080 f70d 0000 0310 0000 bc0d 0000
000003d0: df0d 0080 d20d 0080 020f 0000 9c0e 0080
000003e0: 120e 0000 030e 0000 ac0f 0000 d50d 0000
000003f0: 170e 0000 e40d 0000 0c0e 0080 b90d 0000
4.973e-42 4.926e-42 4.973e-42 4.912e-42 4.914e-42 4.977e-42 -4.951e-42 -4.951e-42
-4.942e-42 5.614e-42 -4.921e-42 5.929e-42 4.914e-42 -4.91e-42 -4.979e-42 4.959e-42
-5.614e-42 5.105e-42 4.926e-42 -5.028e-42 4.99e-42 -5.345e-42 4.919e-42 5.127e-42
4.912e-42 -5.832e-42 5.053e-42 -5.021e-42 -4.99e-42 5.09e-42 -5.01e-42 4.942e-42
-4.986e-42 -5.125e-42 4.926e-42 5.616e-42 4.977e-42 5.042e-42 -4.907e-42 -4.94e-42
4.91e-42 -5.395e-42 8.224237e-09 -4.96e-42 5.496e-42 -5.176e-42 -5.021e-42 -4.92e-42
-5.014e-42 4.952e-42 -5.03e-42 5.703e-42 -4.907e-42 5.24e-42 -4.959e-42 5.001e-42
-5.073e-42 4.986e-42 -4.94e-42 -5.147e-42 -4.938e-42 -4.956e-42 -4.912e-42 -4.963e-42
-5.005e-42 -4.909e-42 5.196e-42 5.74e-42 -5.007e-42 -2.9718556e-16 -4.984e-42 -5.377e-42
4.937e-42 -5.01e-42 5.047e-42 4.956e-42 -4.931e-42 5.047e-42 -4.994e-42 -4.987e-42
4.986e-42 -4.906e-42 5.003e-42 -5.012e-42 5.106e-42 4.955e-42 4.972e-42 5.001e-42
-4.951e-42 -4.95e-42 -4.987e-42 5.716e-42 -4.941e-42 -4.945e-42 -4.955e-42 5.209e-42
5.231e-42 -4.931e-42 4.969e-42 -4.941e-42 4.924e-42 2.7604266e-15 4.968e-42 -6.293e-42
-6.237e-42 -5.098e-42 -4.924e-42 -5.014e-42 4.966e-42 4.956e-42 -4.914e-42 4.907e-42
-4.945e-42 4.95e-42 -4.956e-42 4.95e-42 4.98e-42 -5.03e-42 5.07e-42 5.478e-42
4.959e-42 4.965e-42 -4.996e-42 -4.991e-42 4.994e-42 -4.982e-42 4.907e-42 4.982e-42
-5.036e-42 4.976e-42 4.914e-42 4.937e-42 4.909e-42 5.633e-42 5.015e-42 -4.956e-42
5e-42 5.022e-42 4.927e-42 4.909e-42 5.054e-42 4.924e-42 -4.956e-42 -4.938e-42
-4.935e-42 -5.015e-42 -5.259e-42 4.972e-42 -4.92e-42 -5.458e-42 4.941e-42 -5.116e-42
-5.025e-42 -4.983e-42 -5.004e-42 4.934e-42 -4.933e-42 4.962e-42 5.141e-42 5.059e-42
8.3378276e-16 -4.954e-42 5.04e-42 -4.928e-42 4.912e-42 -5.614e-42 4.947e-42 4.926e-42
4.933e-42 -5.267e-42 -5.025e-42 5.001e-42 -4.95e-42 -4.917e-42 -5.72e-42 -4.913e-42
-4.916e-42 1.6428546e-09 4.905e-42 4.98e-42 4.912e-42 4.969e-42 5.038e-42 1.1595889e-08
5.241e-42 4.912e-42 5.16e-42 4.965e-42 -4.935e-42 6.014e-42 4.976e-42 -5.02e-42
-4.0353362e-07 4.945e-42 -4.948e-42 -5.081e-42 4.99e-42 -6.187e-42 -4.923e-42 5.087e-42
4.935e-42 -4.968e-42 -4.982e-42 5.073e-42 -4.976e-42 4.907e-42 5.315e-42 4.968e-42
-4.982e-42 -4.99e-42 5.513e-42 -4.941e-42 -5.183e-42 -5.118e-42 -5.102e-42 -5.11e-42
-4.931e-42 -5.167e-42 4.914e-42 -5.092e-42 4.969e-42 4.993e-42 5.004e-42 -5.053e-42
-5e-42 4.98e-42 4.977e-42 -5.028e-42 5.455e-42 -5.08e-42 4.958e-42 -5.462e-42
5.052e-42 -4.993e-42 5.758e-42 5.085e-42 -5.874e-42 5.088e-42 4.955e-42 4.941e-42
-4.95e-42 5.01e-42 5.744e-42 4.927e-42 -4.976e-42 -4.958e-42 5.384e-42 -5.241e-42
5.047e-42 5.026e-42 5.622e-42 4.962e-42 5.054e-42 4.983e-42 -5.039e-42 4.923e-42

recurrent.bias_ih_l0 f4 [384]
00000000: 2ed4 18ba 8096 80bb e11b 9037 a508 a8b8
00000010: df67 afb9 eaf0 56b9 43ac 5739 26d9 0a39
00000020: 84b7 c5b9 78a4 aebb 4825 5038 f636 29ba
00000030: 220d a136 6ccc 6a38 8e85 7c39 de09 4f3c
00000040: 8514 20b7 0fdd a3ba ac6d 9d3b 9f18 ccb8
00000050: af84 8837 3dab a9b9 b0e4 edb8 338d 37bb
00000060: 687d 8cb9 86f8 20b8 a6c3 c8b8 c488 17ba
00000070: d13e 1fb8 9974 88b8 b568 9038 6094 9239
00000080: 45c5 5137 dfab 8838 2298 2ab9 4ffe 673a
00000090: 93f9 01ba bc2e 0dba 1288 0cba 1d03 8638
000000a0: ebc7 d838 02f1 11ba 445c 7e38 f3be 9c39
000000b0: f7e4 2eb9 fb12 2539 56bf eeb8 4128 2ab9
000000c0: 1bcc 2c3c 83b3 ffb9 c545 19ba 035d 80b7
000000d0: fee9 3f38 3906 afb8 f1d6 3bb9 3b7f 3233
000000e0: 3620 603a 9e88 2a39 c93e d5b9 38eb 9f36
000000f0: 7d0a a1b9 8000 1939 f5c7 c63b d341 b63a
00000100: 762e 163c e6f2 26ba b155 42b6 718f 6ebb
00000110: 2fb1 60bb ba12 20bb 5665 c1b7 2a5a 3537
00000120: 6872 9cb9 2cb0 6438 007a c9b9 bb46 afb8
00000130: f53d e036 c49e 8735 d334 8838 a3fc 493a
00000140: 4eba 203c 6c42 5c39 3d78 21ba 92e7 bd38
00000150: 31e8 4637 6aae 6e38 3e2b 99bb 2d67 ac38
00000160: 2cc3 4736 1dce 3ab9 445a 5fb8 1146 f937
00000170: 4fc2 1fb9 bd90 a5b7 80a4 1b39 18c5 cebb
00000180: e507 47b6 cf3b 90b8 62ab 9e37 c39f d8b8
00000190: eb04 a836 9b9d ae39 d1c9 0039 e3da 22ba
000001a0: 1428 e737 31f3 d239 d6bc 5938 1f3d 9cb9
000001b0: f3f1 15ba fe51 a437 82ae 6d38 58cf 13ba
000001c0: e7b2 2bbb 3ceb 2cb8 b44b 3739 3943 4ab8
000001d0: bce9 4939 009c 2839 a249 0a39 836a 5139
000001e0: f4d3 4639 bc1d 6b39 4035 c8b7 58f7 98bb
000001f0: cd33 573b 321c c4b7 a212 863b 5a35 2eb8
00000200: 8c1f 953b e52f 8cbe d4a6 293b 3968 0f3c
00000210: 7ceb 993b b0ec 113c 8ebf 173c 1a31 e03b
00000220: 6e97 023c 20f1 e6be 8f63 b23b 74d1 b23b
00000230: a39c 8e3a d9bb ab3b 1bfa 803a 95a5 d8bd
00000240: 0d95 b13a 6597 eabd 63f0 64be 7793 f73b
00000250: 8053 5a3a 413e 083c 764b 45ba be55 c4be
00000260: 8362 11ba 39bc 5aba 93d5 c03b f3ca 953b
00000270: f4a0 d33b dcbc c2b8 8482 ad3b 9ed9 2c3b
00000280: 8701 163c cbb9 073c f52d 143c 9b29 72be
00000290: 20d3 993b 4f6e 973b 2cfc 963b 39ef af3b
000002a0: 21a4 113c e07a 963b 7314 893b 3725 093b
000002b0: 2917 143c 7ba1 153c 1b16 153c 121f 143c
000002c0: 0b41 a0bd 114f ea3b f11e ca3b 04f6 d03b
000002d0: 17d8 ab3b 65d4 dc3b 2bd7 b93b 07b1 c23b
000002e0: 0e6d 31be fa85 093c 22b4 fe3b ca59 b639
000002f0: 4c3a ac3b 7d3c d63b a2bb 53bd f5ea 13be
00000300: 939b 57be 8a3d 9d3b 4996 153c 7733 f4bd
00000310: 3e2f f9be b98d 3bbe 3719 ee3b a52d 3a3a
00000320: 6a35 ad3b 9ada 8c3b e45c 013c 25f9 c23b
00000330: 37a0 133a aa6a 3bb8 3cbf 943b cc6d 28be
00000340: d2d9 e1bd 2f0d f83b 1046 bf3b 0645 d73b
00000350: 18be 613b 21be 883b 63e4 7dbe 8aa2 d63b
00000360: ea71 f239 e19e c23b a862 143c b1ab a83b
00000370: 85fd 123c 8826 cc3b 440d 0c3c 7fc4 e7be
00000380: 9059 0a3b 4ad7 173c 1c86 463a 7560 163c
00000390: 00e6 a73b 33dd 623b 9f45 fc3b e025 9b3b
000003a0: 917f d63a 0e1a 9a3b 53a5 093c d1ab 0a3c
000003b0: 2dcc 983b 69c1 003a 4efa 843b d113 973b
000003c0: 2280 2dbe 2dd5 153c cbd0 023c fa07 cf3b
000003d0: a7c9 db3b 47dc 583a db73 0c3c 3a2b 143c
000003e0: 11e6 103c 1c91 ca3a 21e8 c83b ba26 afbe
000003f0: ee86 bbbe a8bc a03b fe1a 2abe 97ae 603b
-0.0005829957 -0.003924191 1.717912e-05 -8.0124744e-05 -0.0003345599 -0.00020498378 0.0002056817 0.000132416
-0.00037711498 -0.005329665 4.9625785e-05 -0.0006455028 4.7997028e-06 5.598033e-05 0.00024082346 0.01263663
-9.541521e-06 -0.0012501794 0.0048043337 -9.732064e-05 1.6274249e-05 -0.00032361774 -0.00011343637 -0.0028007745
-0.00026796316 -3.8378428e-05 -9.5731855e-05 -0.00057805725 -3.7967056e-05 -6.506703e-05 6.885958e-05 0.00027957838
1.2503301e-05 6.516999e-05 -0.00016269137 0.00088498456 -0.0004958149 -0.0005385687 -0.0005360852 6.390198e-05
0.0001033692 -0.0005567224 6.0644248e-05 0.00029896907 -0.00016679229 0.00015742697 -0.000113843635 -0.00016227459
0.010546709 -0.00048771137 -0.0005846883 -1.5302101e-05 4.575587e-05 -8.345809e-05 -0.00017913782 4.155957e-08
0.00085497217 0.00016263357 -0.00040673304 4.7659523e-06 -0.00030716127 0.00014591403 0.006066317 0.0013905115
0.009166351 -0.0006368592 -2.8958132e-06 -0.0036401416 -0.0034285297 -0.0024425224 -2.3054581e-05 1.0809434e-05
-0.00029839878 5.452351e-05 -0.00038428605 -8.357825e-05 6.682933e-06 1.0104491e-06 6.4948246e-05 0.00077051873
0.0098100435 0.00021005579 -0.00061595795 9.0553556e-05 1.1855781e-05 5.6906058e-05 -0.0046743443 8.220817e-05
2.9766916e-06 -0.00017815125 -5.325141e-05 2.971574e-05 -0.00015235807 -1.9736932e-05 0.00014843233 -0.0063101165
-2.9657906e-06 -6.877595e-05 1.8914874e-05 -0.000103294406 5.0073627e-06 0.0003330529 0.00012282214 -0.0006212426
2.7556009e-05 0.00040235513 5.19127e-05 -0.00029800177 -0.0005719952 1.9588504e-05 5.6667726e-05 -0.00056385016
-0.0026199163 -4.1227075e-05 0.00017480442 -4.822316e-05 0.00019255927 0.00016079843 0.00013188136 0.00019971472
0.0001896171 0.00022422423 -2.3866654e-05 -0.0046681575 0.0032837272 -2.337815e-05 0.0040915767 -4.153452e-05
0.00455088 -0.2738029 0.002588679 0.008752876 0.0046972614 0.008906528 0.009261979 0.006841791
0.007970674 -0.4510584 0.005443997 0.0054570977 0.0010880422 0.005240899 0.0009840162 -0.10578457
0.0013548449 -0.114546575 -0.22357325 0.007555421 0.00083284825 0.008315624 -0.0007526198 -0.38346666
-0.00055459904 -0.00083440874 0.005884835 0.0045713126 0.006458396 -9.285819e-05 0.0052950997 0.0026374827
0.009155638 0.008284043 0.00904416 -0.23648684 0.0046943575 0.004621304 0.004607698 0.0053690937
0.008889229 0.0045922846 0.004183346 0.0020926723 0.009038725 0.009132738 0.009099509 0.009040611
-0.07824906 0.0071505387 0.0061682393 0.0063769836 0.005244266 0.0067391866 0.005671402 0.0059415135
-0.17326757 0.008393759 0.0077729383 0.00034780643 0.005255973 0.0065379725 -0.051692612 -0.14445098
-0.2105544 0.004798596 0.009130069 -0.11923879 -0.48668855 -0.18315782 0.0072661894 0.00071021385
0.0052859085 0.0042985203 0.007895682 0.0059501105 0.0005631479 -4.4683613e-05 0.0045393985 -0.16448134
-0.11027874 0.007569931 0.0058372095 0.0065695075 0.003444558 0.0041730558 -0.24794154 0.006550138
0.0004624271 0.00593935 0.009056725 0.0051474203 0.008971577 0.006230179 0.008548085 -0.45267102
0.0021110512 0.0092676375 0.00075730844 0.009178271 0.0051238537 0.0034616708 0.007698729 0.0047347397
0.0016364922 0.004702813 0.008401233 0.008463816 0.0046630115 0.0004911633 0.004058159 0.0046105166
-0.1694341 0.009145063 0.00798435 0.0063180896 0.0067073884 0.000827257 0.008572544 0.009043509
0.008843915 0.0015454623 0.0061311875 -0.34209234 -0.3662638 0.004905302 -0.16611859 0.003428375

recurrent.bias_hh_l0 f4 [384]
00000000: 2ed4 18ba 8096 80bb e11b 9037 a508 a8b8
00000010: df67 afb9 eaf0 56b9 43ac 5739 26d9 0a39
00000020: 84b7 c5b9 78a4 aebb 4825 5038 f636 29ba
00000030: 220d a136 6ccc 6a38 8e85 7c39 de09 4f3c
00000040: 8514 20b7 0fdd a3ba ac6d 9d3b 9f18 ccb8
00000050: af84 8837 3dab a9b9 b0e4 edb8 338d 37bb
00000060: 687d 8cb9 86f8 20b8 a6c3 c8b8 c488 17ba
00000070: d13e 1fb8 9974 88b8 b568 9038 6094 9239
00000080: 45c5 5137 dfab 8838 2298 2ab9 4ffe 673a
00000090: 93f9 01ba bc2e 0dba 1288 0cba 1d03 8638
000000a0: ebc7 d838 02f1 11ba 445c 7e38 f3be 9c39
000000b0: f7e4 2eb9 fb12 2539 56bf eeb8 4128 2ab9
000000c0: 1bcc 2c3c 83b3 ffb9 c545 19ba 035d 80b7
000000d0: fee9 3f38 3906 afb8 f1d6 3bb9 3b7f 3233
000000e0: 3620 603a 9e88 2a39 c93e d5b9 38eb 9f36
000000f0: 7d0a a1b9 8000 1939 f5c7 c63b d341 b63a
00000100: 762e 163c e6f2 26ba b155 42b6 718f 6ebb
00000110: 2fb1 60bb ba12 20bb 5665 c1b7 2a5a 3537
00000120: 6872 9cb9 2cb0 6438 007a c9b9 bb46 afb8
00000130: f53d e036 c49e 8735 d334 8838 a3fc 493a
00000140: 4eba 203c 6c42 5c39 3d78 21ba 92e7 bd38
00000150: 31e8 4637 6aae 6e38 3e2b 99bb 2d67 ac38
00000160: 2cc3 4736 1dce 3ab9 445a 5fb8 1146 f937
00000170: 4fc2 1fb9 bd90 a5b7 80a4 1b39 18c5 cebb
00000180: e507 47b6 cf3b 90b8 62ab 9e37 c39f d8b8
00000190: eb04 a836 9b9d ae39 d1c9 0039 e3da 22ba
000001a0: 1428 e737 31f3 d239 d6bc 5938 1f3d 9cb9
000001b0: f3f1 15ba fe51 a437 82ae 6d38 58cf 13ba
000001c0: e7b2 2bbb 3ceb 2cb8 b44b 3739 3943 4ab8
000001d0: bce9 4939 009c 2839 a249 0a39 836a 5139
000001e0: f4d3 4639 bc1d 6b39 4035 c8b7 58f7 98bb
000001f0: cd33 573b 321c c4b7 a212 863b 5a35 2eb8
00000200: 8c1f 953b e52f 8cbe d4a6 293b 3968 0f3c
00000210: 7ceb 993b b0ec 113c 8ebf 173c 1a31 e03b
00000220: 6e97 023c 20f1 e6be 8f63 b23b 74d1 b23b
00000230: a39c 8e3a d9bb ab3b 1bfa 803a 95a5 d8bd
00000240: 0d95 b13a 6597 eabd 63f0 64be 7793 f73b
00000250: 8053 5a3a 413e 083c 764b 45ba be55 c4be
00000260: 8362 11ba 39bc 5aba 93d5 c03b f3ca 953b
00000270: f4a0 d33b dcbc c2b8 8482 ad3b 9ed9 2c3b
00000280: 8701 163c cbb9 073c f52d 143c 9b29 72be
00000290: 20d3 993b 4f6e 973b 2cfc 963b 39ef af3b
000002a0: 21a4 113c e07a 963b 7314 893b 3725 093b
000002b0: 2917 143c 7ba1 153c 1b16 153c 121f 143c
000002c0: 0b41 a0bd 114f ea3b f11e ca3b 04f6 d03b
000002d0: 17d8 ab3b 65d4 dc3b 2bd7 b93b 07b1 c23b
000002e0: 0e6d 31be fa85 093c 22b4 fe3b ca59 b639
000002f0: 4c3a ac3b 7d3c d63b a2bb 53bd f5ea 13be
00000300: 939b 57be 8a3d 9d3b 4996 153c 7733 f4bd
00000310: 3e2f f9be b98d 3bbe 3719 ee3b a52d 3a3a
00000320: 6a35 ad3b 9ada 8c3b e45c 013c 25f9 c23b
00000330: 37a0 133a aa6a 3bb8 3cbf 943b cc6d 28be
00000340: d2d9 e1bd 2f0d f83b 1046 bf3b 0645 d73b
00000350: 18be 613b 21be 883b 63e4 7dbe 8aa2 d63b
00000360: ea71 f239 e19e c23b a862 143c b1ab a83b
00000370: 85fd 123c 8826 cc3b 440d 0c3c 7fc4 e7be
00000380: 9059 0a3b 4ad7 173c 1c86 463a 7560 163c
00000390: 00e6 a73b 33dd 623b 9f45 fc3b e025 9b3b
000003a0: 917f d63a 0e1a 9a3b 53a5 093c d1ab 0a3c
000003b0: 2dcc 983b 69c1 003a 4efa 843b d113 973b
000003c0: 2280 2dbe 2dd5 153c cbd0 023c fa07 cf3b
000003d0: a7c9 db3b 47dc 583a db73 0c3c 3a2b 143c
000003e0: 11e6 103c 1c91 ca3a 21e8 c83b ba26 afbe
000003f0: ee86 bbbe a8bc a03b fe1a 2abe 97ae 603b
-0.0005829957 -0.003924191 1.717912e-05 -8.0124744e-05 -0.0003345599 -0.00020498378 0.0002056817 0.000132416
-0.00037711498 -0.005329665 4.9625785e-05 -0.0006455028 4.7997028e-06 5.598033e-05 0.00024082346 0.01263663
-9.541521e-06 -0.0012501794 0.0048043337 -9.732064e-05 1.6274249e-05 -0.00032361774 -0.00011343637 -0.0028007745
-0.00026796316 -3.8378428e-05 -9.5731855e-05 -0.00057805725 -3.7967056e-05 -6.506703e-05 6.885958e-05 0.00027957838
1.2503301e-05 6.516999e-05 -0.00016269137 0.00088498456 -0.0004958149 -0.0005385687 -0.0005360852 6.390198e-05
0.0001033692 -0.0005567224 6.0644248e-05 0.00029896907 -0.00016679229 0.00015742697 -0.000113843635 -0.00016227459
0.010546709 -0.00048771137 -0.0005846883 -1.5302101e-05 4.575587e-05 -8.345809e-05 -0.00017913782 4.155957e-08
0.00085497217 0.00016263357 -0.00040673304 4.7659523e-06 -0.00030716127 0.00014591403 0.006066317 0.0013905115
0.009166351 -0.0006368592 -2.8958132e-06 -0.0036401416 -0.0034285297 -0.0024425224 -2.3054581e-05 1.0809434e-05
-0.00029839878 5.452351e-05 -0.00038428605 -8.357825e-05 6.682933e-06 1.0104491e-06 6.4948246e-05 0.00077051873
0.0098100435 0.00021005579 -0.00061595795 9.0553556e-05 1.1855781e-05 5.6906058e-05 -0.0046743443 8.220817e-05
2.9766916e-06 -0.00017815125 -5.325141e-05 2.971574e-05 -0.00015235807 -1.9736932e-05 0.00014843233 -0.0063101165
-2.9657906e-06 -6.877595e-05 1.8914874e-05 -0.000103294406 5.0073627e-06 0.0003330529 0.00012282214 -0.0006212426
2.7556009e-05 0.00040235513 5.19127e-05 -0.00029800177 -0.0005719952 1.9588504e-05 5.6667726e-05 -0.00056385016
-0.0026199163 -4.1227075e-05 0.00017480442 -4.822316e-05 0.00019255927 0.00016079843 0.00013188136 0.00019971472
0.0001896171 0.00022422423 -2.3866654e-05 -0.0046681575 0.0032837272 -2.337815e-05 0.0040915767 -4.153452e-05
0.00455088 -0.2738029 0.002588679 0.008752876 0.0046972614 0.008906528 0.009261979 0.006841791
0.007970674 -0.4510584 0.005443997 0.0054570977 0.0010880422 0.005240899 0.0009840162 -0.10578457
0.0013548449 -0.114546575 -0.22357325 0.007555421 0.00083284825 0.008315624 -0.0007526198 -0.38346666
-0.00055459904 -0.00083440874 0.005884835 0.0045713126 0.006458396 -9.285819e-05 0.0052950997 0.0026374827
0.009155638 0.008284043 0.00904416 -0.23648684 0.0046943575 0.004621304 0.004607698 0.0053690937
0.008889229 0.0045922846 0.004183346 0.0020926723 0.009038725 0.009132738 0.009099509 0.009040611
-0.07824906 0.0071505387 0.0061682393 0.0063769836 0.005244266 0.0067391866 0.005671402 0.0059415135
-0.17326757 0.008393759 0.0077729383 0.00034780643 0.005255973 0.0065379725 -0.051692612 -0.14445098
-0.2105544 0.004798596 0.009130069 -0.11923879 -0.48668855 -0.18315782 0.0072661894 0.00071021385
0.0052859085 0.0042985203 0.007895682 0.0059501105 0.0005631479 -4.4683613e-05 0.0045393985 -0.16448134
-0.11027874 0.007569931 0.0058372095 0.0065695075 0.003444558 0.0041730558 -0.24794154 0.006550138
0.0004624271 0.00593935 0.009056725 0.0051474203 0.008971577 0.006230179 0.008548085 -0.45267102
0.0021110512 0.0092676375 0.00075730844 0.009178271 0.0051238537 0.0034616708 0.007698729 0.0047347397
0.0016364922 0.004702813 0.008401233 0.008463816 0.0046630115 0.0004911633 0.004058159 0.0046105166
-0.1694341 0.009145063 0.00798435 0.0063180896 0.0067073884 0.000827257 0.008572544 0.009043509
0.008843915 0.0015454623 0.0061311875 -0.34209234 -0.3662638 0.004905302 -0.16611859 0.003428375

recurrent.weight_ih_l1 f4 [384, 128]
00000000: 447e f0ae cd6e 51af ee23 b12e 1ddc 27ae
00000010: a032 342e b3d6 092f 3ffb 42af 7495 a2ae
00000020: c80b 3dae 4ba9 682f 2eb2 8dae ff59 bc2e
00000030: db4b 002d 171d c3aa ea99 43af d678 672f
00000040: 7d1d 882d e9b6 bb2f 9963 81b0 1a8c 0e2f
00000050: c7ae 172e d1ed da2d f3df f22e 1aa7 5eaf
00000060: c4cd 4faf 4ee8 9a2e 96ab f92e b5e8 f02e
00000070: d317 6c2e 6fe3 762e cce7 8f2e b1ff 822f
00000080: 4ec6 bd2d ef54 17ae 1b53 5a2d 0fde a52d
00000090: efa0 f4ae 18bc f2ae 41a4 f2ae 3a68 40ae
000000a0: 8674 df2d 91c8 f1ae a5db 152e 06d5 322f
000000b0: 2b3b 832a 4052 1eae 8c06 d72e 5637 fd2e
000000c0: 4c50 b6af a3b7 84ae 9b77 c1ae fc18 04ae
000000d0: b42f 30ae ed07 ffad 0cd5 fdae bccc 41ae
000000e0: 2005 062f 72a8 b42d b8fd 33ae 1548 282e
000000f0: a847 fdae c3c2 e82c b742 952c 028c b8af
00000100: 071a c9af 9d76 ea2e aa28 bfae f365 95ae
00000110: 930c abaf ac98 aa2f cbd0 b22e 8be4 32ab
00000120: 840b fe2e c283 21ae 70a7 8bae eacd f6ae
00000130: 1387 d92c 1a7f af2d 8f97 e32d fd0f 8e2f
00000140: 2e39 d42f a82c 122f 12e7 c1ae 4c81 452e
00000150: b385 8cae a8ab 1d2e 4b20 30b0 eab4 8629
00000160: 9fd4 a3ad b5e2 0d2f 963b 85ae 3ed1 302f
00000170: c4a6 c3ad b2bc edae 8a50 b82d 19ed d52f
00000180: c4fc 7a2d 705c 0caf ca00 10ad 17f4 5e2d
00000190: f892 c02b abef 062f 31ed cd2e b697 e8ae
000001a0: 02e3 03ae 143c 7baf 4d0e 112e 56f0 e02d
000001b0: 2fda f02e ea9c 5b2e 8f06 822f 2477 f1ae
000001c0: df4c e3ae aa3d 612e e510 91ac 2352 572e
000001d0: ca58 89ae 4ea3 e62e 0478 842d d054 b7ad
000001e0: cb92 11af fa98 baae 7998 1fae c4e0 e5ad
000001f0: f268 8b2e 8f52 392d c5ae 1430 d99e 6bae
00000200: 50ab 382c 8a7c 692d 6572 bdac 8205 18ac
00000210: 0d0d 832c dd72 fbab 9888 0aab 795c 492b
00000220: bf38 c8ab b7bf b82d 1d09 4b2c ea0e ceab
00000230: b17b 6a2c d701 37ab bfff 672c 2b99 a9ac
00000240: 6022 ba2c 4664 5e2c 09c1 07ae c99b c4ac
00000250: 8154 f72a b8fa ff2b e2ec 4e2b 4328 80ad
00000260: f3d2 352c b73c 6bab 9ce0 01ac 761f 3cac
00000270: f04a cb2b d8dd baab 71cc 52ac c9a1 98ac
00000280: ea71 47ac ca04 76ac 05ca 34ac 931a efac
00000290: 5ff5 2d2c 31cf 362c c577 362c c751 932c
000002a0: 6996 2fac 8732 3a2c 2122 852b 0bd1 90ab
000002b0: a09a 3e2c 7771 3d2c ea6b 83ab d630 6cab
000002c0: 98be 432c 20b1 fdaa 6a8b 5f2b 7654 17ab
000002d0: cbad 9aab 7440 0f2c 20e9 132c fcdd 9dab
000002e0: 8c61 5cac 6c8c 24ac 3fc8 a6ab 70e5 32ac
000002f0: c9a2 192c d3f6 16ac 1a97 e7ac d059 67ac
00000300: 93ce d22d 6bf2 22ac 77b6 1fac a510 df2d
00000310: 06da 38ae 497e 0ead aeff 25ab 4f79 e72a
00000320: eb81 18ac e0fd d6ac df50 91ab 6bdb 0b2c
00000330: f1f5 9cab 9a03 02ab 9583 4b2b 1129 9dab
00000340: f04d e22b 3338 5a2c 6d47 9e2b 8d9e 2fac
00000350: 5f92 a32c c74f 182c 5cc3 d32b 5fbd cfaa
00000360: f81b c8ab 8b79 97ac 1089 2dac 58d9 d1ab
00000370: e5cf ca2b 883d da2b c2eb 29ac cc8e a02d
00000380: f6b2 8a2b 3ea9 392c 9754 f9a8 b030 47ac
00000390: 6df1 ceac d097 5d2c a816 422c 0766 342c
000003a0: 1064 962b 7475 bb2c f782 6a2c 4cac 0e2c
000003b0: 3afc 3bac 19a0 c8ab 096b f8ac 44bc 3a2c
000003c0: a41a 3dac cb72 352b df34 28ac 9dff cd2b
000003d0: 22cd 1cac e2f2 7d2c b88d 9faa 6a53 09ad
000003e0: d00f b32c d947 62ac 4e22 02ac b461 e92c
000003f0: 990d d4ad c538 a62c dad6 452c 4925 962b
-1.0936366e-10 -1.9047804e-10 8.0554105e-11 -3.8166904e-11 4.0972226e-11 1.2536354e-10 -1.7733458e-10 -7.393455e-11
-4.298409e-11 2.1160422e-10 -6.443589e-11 8.565237e-11 7.292801e-12 -3.4659144e-13 -1.7789828e-10 2.1052257e-10
1.5474505e-11 3.4145067e-10 -9.414293e-10 1.2964599e-10 3.448866e-11 2.4889342e-11 1.1044667e-10 -2.0250149e-10
-1.8899643e-10 7.044375e-11 1.1353689e-10 1.09552735e-10 5.3681348e-11 5.6135926e-11 6.5440625e-11 2.3828542e-10
2.1574877e-11 -3.440886e-11 1.2410318e-11 1.8856942e-11 -1.1124423e-10 -1.1038298e-10 -1.1034063e-10 -4.3748317e-11
2.5403912e-11 -1.0995039e-10 3.407376e-11 1.6264687e-10 2.331133e-13 -3.5998093e-11 9.778231e-11 1.15149376e-10
-3.3162662e-10 -6.0352855e-11 -8.79787e-11 -3.0035516e-11 -4.0060136e-11 -2.8993663e-11 -1.1542953e-10 -4.406496e-11
1.218905e-10 2.0538436e-11 -4.0925235e-11 3.82628e-11 -1.1517837e-10 6.6154595e-12 4.2422415e-12 -3.3568887e-10
-3.658018e-10 1.0662158e-10 -8.692898e-11 -6.7938453e-11 -3.1113653e-10 3.10313e-10 8.131592e-11 -6.355547e-13
1.1552628e-10 -3.6724186e-11 -6.350731e-11 -1.12233625e-10 6.182507e-12 1.9951641e-11 2.5874218e-11 2.584101e-10
3.8603204e-10 1.3294488e-10 -8.81767e-11 4.4907453e-11 -6.390213e-11 3.585013e-11 -6.407432e-10 5.982179e-14
-1.8625377e-11 1.2904418e-10 -6.0587244e-11 1.6081445e-10 -2.2242992e-11 -1.0811031e-10 2.0954145e-11 3.8912942e-10
1.426698e-11 -1.2765766e-10 -8.1856275e-12 1.2673438e-11 1.3683213e-12 1.2272376e-10 9.3644544e-11 -1.0577088e-10
-2.9987575e-11 -2.2849661e-10 3.2981885e-11 2.5572582e-11 1.09526936e-10 4.9934203e-11 2.3651522e-10 -1.0980575e-10
-1.033642e-10 5.1213846e-11 -4.1230235e-12 4.8958292e-11 -6.245811e-11 1.0488198e-10 1.505996e-11 -2.0842356e-11
-1.3239825e-10 -8.485475e-11 -3.6287837e-11 -2.6134102e-11 6.33963e-11 1.0534364e-11 5.409045e-10 -5.35739e-11
2.624307e-12 1.327217e-11 -5.3844034e-12 -2.1603557e-12 3.724693e-12 -1.7866504e-12 -4.921701e-13 7.1537877e-13
-1.4226605e-12 2.1003517e-11 2.8853094e-12 -1.464132e-12 3.3322063e-12 -6.5017214e-13 3.2969042e-12 -4.820274e-12
5.2902543e-12 3.160376e-12 -3.0866896e-11 -5.5879507e-12 4.393465e-13 1.8188428e-12 7.3514643e-13 -1.4569795e-11
2.5838747e-12 -8.357303e-13 -1.8456686e-12 -2.6733871e-12 1.4444817e-12 -1.3277669e-12 -2.9956283e-12 -4.3380616e-12
-2.8342836e-12 -3.496136e-12 -2.5691682e-12 -6.795739e-12 2.4720987e-12 2.597877e-12 2.593024e-12 4.1870704e-12
-2.495249e-12 2.6460238e-12 9.459691e-13 -1.0289836e-12 2.7086458e-12 2.69215e-12 -9.338062e-13 -8.3911816e-13
2.7816967e-12 -4.5064733e-13 7.941899e-13 -5.376319e-13 -1.0990595e-12 2.03573e-12 2.1019367e-12 -1.1217134e-12
-3.131803e-12 -2.3383752e-12 -1.1850589e-12 -2.5422685e-12 2.1832972e-12 -2.1453297e-12 -6.5821905e-12 -3.287693e-12
2.3965973e-11 -2.3156154e-12 -2.2696547e-12 2.5359556e-11 -4.20304e-11 -8.099806e-12 -5.89746e-13 4.1118018e-13
-2.1672618e-12 -6.1104316e-12 -1.0325316e-12 1.987489e-12 -1.1152729e-12 -4.6190276e-13 7.2302694e-13 -1.1166919e-12
1.6079898e-12 3.101086e-12 1.12464e-12 -2.495701e-12 4.648989e-12 2.1644784e-12 1.5046675e-12 -3.690199e-13
-1.4218618e-12 -4.305172e-12 -2.4660864e-12 -1.4910668e-12 1.4410666e-12 1.550691e-12 -2.4147216e-12 1.8253309e-11
9.855161e-13 2.638403e-12 -2.7681238e-14 -2.8306628e-12 -5.881676e-12 3.1490262e-12 2.7581635e-12 2.5636175e-12
1.0685914e-12 5.3278996e-12 3.33261e-12 2.0275058e-12 -2.6714312e-12 -1.4255291e-12 -7.0604672e-12 2.6536698e-12
-2.6873304e-12 6.4463425e-13 -2.3903585e-12 1.4637073e-12 -2.2282805e-12 3.608829e-12 -2.834241e-13 -7.80607e-12
5.0892415e-12 -3.2156415e-12 -1.8493154e-12 6.6331055e-12 -2.4107648e-11 4.7243064e-12 2.811465e-12 1.066849e-12

recurrent.weight_hh_l1 f4 [384, 128]
00000000: ce0e 0000 c50d 0080 5c0e 0000 bc0d 0080
00000010: cf0d 0080 de0d 0080 e10d 0000 e80d 0000
00000020: 4e11 0080 c70e 0080 bd0d 0080 b80d 0080
00000030: 290e 0000 d90d 0000 b50e 0080 c30d 0000
00000040: cd0d 0080 680e 0000 cb0d 0080 e60d 0000
00000050: 580e 0000 de0d 0000 b40e 0000 d50d 0000
00000060: da0f 0000 b60d 0080 d10d 0080 ca0d 0000
00000070: cb0d 0080 cf0d 0080 b50d 0080 400e 0000
00000080: c110 0000 750e 0000 290e 0000 b50d 0000
00000090: c10d 0000 c010 0080 8f0e 0080 090f 0080
000000a0: d00d 0080 bf0d 0080 f50d 0000 200e 0000
000000b0: 360e 0000 b20d 0080 b80d 0080 2716 a72c
000000c0: b90d 0080 bf0d 0080 010e 0000 370e 0000
000000d0: dd0d 0000 e80d 0080 b60d 0000 c30d 0080
000000e0: 5011 0000 2210 0000 b20d 0000 510e 0080
000000f0: bd0d 0080 bffb b035 b50d 0080 e00d 0080
00000100: bb0d 0080 f30d 0080 ad0d 0000 cc0d 0080
00000110: da0d 0080 b60f 0000 390e 0080 ff0d 0000
00000120: e90d 0000 cb10 0000 030e 0000 060e 0000
00000130: cc0d 0080 ff0d 0080 fe0d 0000 c60d 0080
00000140: 050e 0080 c10d 0000 d80d 0000 ef0d 0000
00000150: 4b0f 0080 da0f 0000 180e 0080 b80d 0080
00000160: d20d 0080 e20d 0000 6d0f 0000 480e 0000
00000170: 410e 0000 f60d 0000 e90d 0000 c00f 0000
00000180: 350f 0080 d30d 0080 c90d 0080 eb10 0080
00000190: 170e 0080 cb0d 0000 de0d 0000 cd0d 0000
000001a0: 860e 0000 e50d 0000 d60d 0000 c90d 0000
000001b0: ac0d 0080 550e 0080 c30d 0000 be0d 0000
000001c0: f60d 0000 f20d 0080 ba0d 0000 580e 0080
000001d0: 8e0e 0080 d70e 0080 080f 0080 ae0d 0080
000001e0: d00d 0000 cf0d 0080 c30d 0080 100e 0000
000001f0: 240f 0000 390e 0080 2f0f 0080 bc0d 0000
00000200: d20d 0080 c00d 0080 000e 0000 9c0e 0080
00000210: c80e 0000 d70e 0080 e00d 0000 b50d 0000
00000220: c30d 0000 ba0d 0080 290e 0080 e00d 0000
00000230: f30d 0000 7d0f 0080 de0d 0080 d90d 0080
00000240: b00d 0080 450e 0080 fd0d 0080 8e0e 0000
00000250: c70d 0080 cf0d 0000 0e0e 0000 db0d 0080
00000260: b60d 0000 090e 0000 330f 0000 5210 0000
00000270: 640e 0080 ca0d 0080 cf0d 0080 d90d 0000
00000280: db0d 0000 660e 0080 c80d 0000 0110 0080
00000290: 4188 dba4 b70d 0080 b20d 0080 8e0f 0000
000002a0: b00d 0000 f086 b024 d30d 0000 b40d 0000
000002b0: c60d 0000 bf0d 0080 000f 0000 100e 0000
000002c0: c60d 0080 d00d 0000 f00d 0080 ca0d 0000
000002d0: ae0d 0080 b00d 0000 e20d 0000 bf0d 0080
000002e0: 780e 0080 300e 0080 e70d 0080 da0d 0000
000002f0: dd0d 0000 e00d 0000 db0d 0080 060e 0000
00000300: 4011 0080 d30d 0000 db0d 0080 eb0d 0080
00000310: ae0d 0000 dc0d 0000 c50d 0080 d30d 0080
00000320: f30d 0080 b60d 0080 cf0d 0080 b90d 0080
00000330: ce0d 0000 d90d 0080 d00d 0000 a70e 0000
00000340: b20d 0080 170e 0080 c00d 0000 f10d 0000
00000350: ca0d 0000 b00d 0000 990e 0000 ce0d 0080
00000360: d60d 0080 b20d 0000 e30d 0080 bd0d 0080
00000370: 4ffa 3bb1 b70d 0000 8610 0000 230e 0080
00000380: a610 0000 460f 0000 c10d 0000 240e 0080
00000390: ba0d 0000 cf10 0000 0b0e 0080 bf0d 0000
000003a0: cb0d 0000 690e 0080 be0d 0000 3611 0080
000003b0: 090e 0080 cf0d 0080 cd0d 0000 ee0d 0080
000003c0: 660e 0080 ed0d 0000 120e 0080 2310 0000
000003d0: ca0d 0080 550e 0000 fb0d 0000 060e 0000
000003e0: de0d 0000 b00d 0080 d30d 0000 e70f 0000
000003f0: d90d 0080 f20d 0000 f70d 0080 f910 0000
5.311e-42 -4.94e-42 5.151e-42 -4.927e-42 -4.954e-42 -4.975e-42 4.979e-42 4.989e-42
-6.208e-42 -5.301e-42 -4.928e-42 -4.921e-42 5.08e-42 4.968e-42 -5.276e-42 4.937e-42
-4.951e-42 5.168e-42 -4.948e-42 4.986e-42 5.146e-42 4.975e-42 5.274e-42 4.962e-42
5.686e-42 -4.919e-42 -4.956e-42 4.947e-42 -4.948e-42 -4.954e-42 -4.917e-42 5.112e-42
6.01e-42 5.186e-42 5.08e-42 4.917e-42 4.934e-42 -6.009e-42 -5.223e-42 -5.394e-42
-4.955e-42 -4.931e-42 5.007e-42 5.067e-42 5.098e-42 -4.913e-42 -4.921e-42 4.748885e-12
-4.923e-42 -4.931e-42 5.024e-42 5.1e-42 4.973e-42 -4.989e-42 4.919e-42 -4.937e-42
6.21e-42 5.787e-42 4.913e-42 -5.136e-42 -4.928e-42 1.318629e-06 -4.917e-42 -4.977e-42
-4.926e-42 -5.004e-42 4.906e-42 -4.95e-42 -4.969e-42 5.636e-42 -5.102e-42 5.021e-42
4.99e-42 6.024e-42 5.026e-42 5.03e-42 -4.95e-42 -5.021e-42 5.02e-42 -4.941e-42
-5.029e-42 4.934e-42 4.966e-42 4.998e-42 -5.486e-42 5.686e-42 -5.056e-42 -4.921e-42
-4.958e-42 4.98e-42 5.534e-42 5.123e-42 5.113e-42 5.008e-42 4.99e-42 5.65e-42
-5.455e-42 -4.959e-42 -4.945e-42 -6.069e-42 -5.054e-42 4.948e-42 4.975e-42 4.951e-42
5.21e-42 4.984e-42 4.963e-42 4.945e-42 -4.905e-42 -5.141e-42 4.937e-42 4.93e-42
5.008e-42 -5.003e-42 4.924e-42 -5.146e-42 -5.221e-42 -5.324e-42 -5.392e-42 -4.907e-42
4.955e-42 -4.954e-42 -4.937e-42 5.045e-42 5.431e-42 -5.102e-42 -5.447e-42 4.927e-42
-4.958e-42 -4.933e-42 5.022e-42 -5.241e-42 5.303e-42 -5.324e-42 4.977e-42 4.917e-42
4.937e-42 -4.924e-42 -5.08e-42 4.977e-42 5.004e-42 -5.556e-42 -4.975e-42 -4.968e-42
-4.91e-42 -5.119e-42 -5.018e-42 5.221e-42 -4.942e-42 4.954e-42 5.042e-42 -4.97e-42
4.919e-42 5.035e-42 5.452e-42 5.855e-42 -5.162e-42 -4.947e-42 -4.954e-42 4.968e-42
4.97e-42 -5.165e-42 4.944e-42 -5.741e-42 -9.5206933e-17 -4.92e-42 -4.913e-42 5.58e-42
4.91e-42 7.6556426e-17 4.959e-42 4.916e-42 4.941e-42 -4.931e-42 5.381e-42 5.045e-42
-4.941e-42 4.955e-42 -5e-42 4.947e-42 -4.907e-42 4.91e-42 4.98e-42 -4.931e-42
-5.19e-42 -5.09e-42 -4.987e-42 4.969e-42 4.973e-42 4.977e-42 -4.97e-42 5.03e-42
-6.188e-42 4.959e-42 -4.97e-42 -4.993e-42 4.907e-42 4.972e-42 -4.94e-42 -4.959e-42
-5.004e-42 -4.919e-42 -4.954e-42 -4.923e-42 4.952e-42 -4.968e-42 4.955e-42 5.256e-42
-4.913e-42 -5.054e-42 4.933e-42 5.001e-42 4.947e-42 4.91e-42 5.237e-42 -4.952e-42
-4.963e-42 4.913e-42 -4.982e-42 -4.928e-42 -2.7354365e-09 4.92e-42 5.927e-42 -5.071e-42
5.972e-42 5.479e-42 4.934e-42 -5.073e-42 4.924e-42 6.03e-42 -5.038e-42 4.931e-42
4.948e-42 -5.17e-42 4.93e-42 -6.174e-42 -5.035e-42 -4.954e-42 4.951e-42 -4.997e-42
-5.165e-42 4.996e-42 -5.047e-42 5.789e-42 -4.947e-42 5.141e-42 5.015e-42 5.03e-42
4.975e-42 -4.91e-42 4.959e-42 5.705e-42 -4.968e-42 5.003e-42 -5.01e-42 6.089e-42

recurrent.bias_ih_l1 f4 [384]
00000000: 2aa7 9cae 5096 29ae a5f1 8e32 4661 e5ba
00000010: 7cdc b42e 76f1 eeba 5a31 2b35 9442 7e31
00000020: 8154 cc36 9bc8 54b1 7050 7f32 4ce0 0530
00000030: 61a8 b4b9 b4f4 5639 f56c 9c33 e088 8432
00000040: 02fd d72f 3038 c9b9 7d66 0f30 16db 58b3
00000050: 237d 6435 0870 eab6 dc5f 00b7 c1a1 dab1
00000060: 14e9 13bb 5e52 4cb1 6edd 8abb e2f9 4a35
00000070: 3200 1237 c216 9939 29a0 7c32 9d2b 7cb1
00000080: 657a 5b35 c0bd a1b0 b636 5438 406a 4f33
00000090: 432e 5038 074a 9836 d23b b5af 490e b3af
000000a0: 2718 8fb4 02f6 47b3 7ac2 adb0 3cd2 2ab3
000000b0: de09 fcba 2962 0339 94e3 4034 e579 d131
000000c0: 80c2 d630 5216 1d31 1383 6338 cba3 d434
000000d0: 153c caad 2eee 5a32 0bc5 3ab7 9482 3433
000000e0: 733e b236 c65c 9ebb 2f83 94b8 21f9 3933
000000f0: 7d79 da3a abc8 d335 9f3b d139 ae3e 96b3
00000100: da12 dc34 31a9 0db6 d552 a236 37ce a52f
00000110: f3d8 23b5 8898 e7b2 081e ddb3 dc68 8132
00000120: a053 3e36 c4f8 3032 d7c6 48b4 bd63 e2b3
00000130: c309 5339 0d9e d4b0 eb1e 6fb0 c181 51bb
00000140: eb8c c834 f412 0333 78d6 9132 48f9 20b7
00000150: bcc8 be34 d87b 6ab3 e535 5b30 5c53 0f35
00000160: 9e41 972f a93d 29ba 64a6 18b2 442d c7b6
00000170: b110 6737 7234 80b0 f0fe b038 1729 d333
00000180: e9e0 1baf 2272 94b3 9eeb cfb6 55a2 1136
00000190: c573 6e36 0c45 3335 d6e6 7eb0 8413 5eba
000001a0: 61c9 0cb3 10ba c631 2ac1 2cb1 22f4 6bb1
000001b0: 2698 58b4 338d 4bb2 250d bfba 5b8f abae
000001c0: 5b79 8fb0 3dc8 6735 ad4f d638 0151 b8b3
000001d0: 8b2b d12f 91cb 14b9 c008 9cb1 334d c336
000001e0: 04cd fab8 316f 472f 4fcb 3032 0bed 8b31
000001f0: 9091 5633 e008 f1ba 7cf1 7435 9e1a 4332
00000200: d5ed 0731 d16b a4af 64db db36 7bb1 a1be
00000210: d8b6 8fad c973 edbe 5bb6 2db6 b93f a334
00000220: 179c 1cb8 1449 db32 5065 2d35 c7a9 ccb0
00000230: 9a11 6b3b e682 33bc 1999 c4b5 c6f2 40b3
00000240: 0061 e531 688b 993b 49f9 7931 645a a735
00000250: b2a7 28b6 4b90 e238 a95f f438 f2ce 4534
00000260: b4c4 3cbf f3de 0b35 e8cd 0fbf 1d83 5e37
00000270: 94c0 8fb7 2658 313a 9069 0234 0c45 4433
00000280: 2347 e535 0c51 2532 5c07 cdba ffb4 dcb4
00000290: 9d32 eeb8 889d 2ab7 4144 1432 113d 2c32
000002a0: 610e 3436 e620 ba35 a7fd 4d32 1b1a 3935
000002b0: d1b7 bfbe cb89 ff3a 59f6 35b5 ff3d ab34
000002c0: 39cf 0734 57cb 9cb2 4974 2c3a e671 8cb7
000002d0: f503 caaf baf0 5e35 569c c6b7 3a31 3eb4
000002e0: 3a36 8338 37c6 1ebf e289 b4b9 9a31 e833
000002f0: 7322 34bf a56d eeb6 2990 14b9 7f23 c335
00000300: 2793 09b6 73f0 60bd fe6c 53b8 8eda 9fb4
00000310: ced8 73b4 65cf 1b35 a45a da35 03ca 49b3
00000320: b097 00b6 efda eeb2 9981 d835 8de7 5d35
00000330: 77c8 9ab9 d26d 3e32 456e 0032 daf2 98be
00000340: 88e5 e1b5 6436 8034 93fb 9eb3 0919 5bb7
00000350: 040c d9b5 732b b935 bf42 a134 ddae 25b6
00000360: cbb9 b433 a510 88be 81d4 2b35 12e9 81b7
00000370: 0acf 8a37 5e78 0b32 85c1 c2b9 eae9 d235
00000380: ccf4 e334 2c7c d735 86f1 bb38 8666 b238
00000390: b776 86b7 8f59 bb38 3835 7932 a2fc 8bbe
000003a0: 85ff f1b7 81c5 b534 42c6 9732 d4b3 c832
000003b0: d61f 8735 57e7 6034 7733 8ebe a105 82b0
000003c0: 3d41 7832 357e 8737 ad56 c7b9 3449 ee36
000003d0: b756 7f30 a5f6 b73b 7842 0633 73ee 2cb8
000003e0: 2b84 32bf 0168 bc31 ba6c 40b4 dd67 1036
000003f0: f403 fd34 3c3e 8abe 0a0c 64b6 cb6e d3b3
-7.123753e-11 -3.8559655e-11 1.6640863e-08 -0.0017500303 8.224618e-11 -0.001822992 6.377428e-07 3.699971e-09
6.0895113e-06 -3.0964091e-09 1.4861243e-08 4.8703863e-10 -0.00034457727 0.0002049979 7.284135e-08 1.5429066e-08
3.9288045e-10 -0.0003837957 5.216874e-10 -5.0490677e-08 8.5118717e-07 -6.9867856e-06 -7.6517135e-06 -6.3630243e-09
-0.0022569345 -2.9732727e-09 -0.0042378223 7.561449e-07 8.702324e-06 0.0002919939 1.4704747e-08 -3.6695618e-09
8.1761965e-07 -1.1768222e-09 5.0595692e-05 4.8292577e-08 4.963415e-05 4.538571e-06 -3.2966213e-10 -3.257006e-10
-2.66534e-07 -4.655704e-08 -1.264268e-09 -3.9772416e-08 -0.0019229015 0.00012529701 1.7964186e-07 6.0965584e-09
1.562583e-09 2.2859195e-09 5.424309e-05 3.9607252e-07 -2.2991423e-11 1.2743426e-08 -1.1132342e-05 4.2028276e-08
5.3120834e-06 -0.004832837 -7.081625e-05 4.330025e-08 0.0016668286 1.5779127e-06 0.00039908008 -6.996321e-08
4.099191e-07 -2.110912e-06 4.837619e-06 3.015985e-10 -6.1037935e-07 -2.6961303e-08 -1.0296577e-07 1.5065261e-08
2.8360882e-06 1.0301111e-08 -1.8698789e-07 -1.05420874e-07 0.00020126165 -1.5469951e-09 -8.699163e-10 -0.0031968208
3.7355434e-07 3.0518052e-08 1.697775e-08 -9.5947835e-06 3.553631e-07 -5.4595006e-08 7.9748325e-10 5.3392955e-07
2.7513364e-10 -0.00064560265 -8.885397e-09 -5.9359318e-06 1.3772559e-05 -9.328132e-10 8.43982e-05 9.8329274e-08
-1.4177072e-10 -6.912548e-08 -6.19651e-06 2.1701173e-06 3.553215e-06 6.678317e-07 -9.27327e-10 -0.0008471536
-3.2779443e-08 5.7837113e-09 -2.5139095e-09 -3.4335774e-09 -2.0171919e-07 -1.184826e-08 -0.0014576061 -7.801645e-11
-1.0439111e-09 8.634559e-07 0.00010219156 -8.582902e-08 3.8047818e-10 -0.00014190214 -4.5411923e-09 5.82044e-06
-0.00011959116 1.8138448e-10 1.0290775e-08 4.072381e-09 4.9958146e-08 -0.0018389486 9.124849e-07 1.1356546e-08
1.9780277e-09 -2.9908034e-10 6.552249e-06 -0.3158072 -1.6338417e-11 -0.463774 -2.5885154e-06 3.040748e-07
-3.733867e-05 2.5528188e-08 6.459495e-07 -1.4891207e-09 0.0035868646 -0.010956502 -1.4647695e-06 -4.4924285e-08
6.675805e-09 0.004685808 3.6375971e-09 1.2468777e-06 -2.5131562e-06 0.000108033964 0.00011652645 1.8422341e-07
-0.73737645 5.210597e-07 -0.56173563 1.3262758e-05 -1.7136605e-05 0.00067651493 1.2145597e-07 4.5697604e-08
1.7082533e-06 9.622692e-09 -0.0015642452 -4.1109885e-07 -0.00011358152 -1.0169468e-05 8.630253e-09 1.0025603e-08
2.683046e-06 1.3867655e-06 1.1990244e-08 6.895586e-07 -0.37444928 0.0019496022 -6.778624e-07 3.189634e-07
1.2648242e-07 -1.8253258e-08 0.0006578607 -1.6742339e-05 -3.6746398e-10 8.305175e-07 -2.3676239e-05 -1.7713037e-07
6.256667e-05 -0.620212 -0.00034435006 1.0812364e-07 -0.70365065 -7.105717e-06 -0.00014168084 1.4538963e-06
-2.0500245e-06 -0.05491681 -5.0407827e-05 -2.9775077e-07 -2.2710012e-07 5.80438e-07 1.6268646e-06 -4.6982688e-08
-1.916178e-06 -2.7806406e-08 1.6130972e-06 8.2665866e-07 -0.00029522527 1.1084426e-08 7.475653e-09 -0.2987278
-1.6830609e-06 2.3881432e-07 -7.4032094e-08 -1.3059246e-05 -1.6171257e-06 1.379622e-06 3.003715e-07 -2.46887e-06
8.415699e-08 -0.265752 6.40117e-07 -1.548653e-05 1.6547292e-05 8.118233e-09 -0.00037146747 1.5714297e-06
4.2460158e-07 1.6054887e-06 8.961842e-05 8.506798e-05 -1.6029326e-05 8.9335364e-05 1.4505808e-08 -0.2734118
-2.8848424e-05 3.385758e-07 1.766887e-08 2.336484e-08 1.0067549e-06 2.0945787e-07 -0.2777364 -9.460345e-10
1.4450333e-08 1.6152024e-05 -0.00038020816 7.1014747e-06 9.289169e-10 0.005614119 3.125976e-08 -4.123007e-05
-0.6973292 5.483344e-09 -1.7920948e-07 2.1518129e-06 4.7127799e-07 -0.27000606 -3.3981655e-06 -9.845606e-08
