input/gru_model.pth (torch, 611234 bytes, 10 tensors)

recurrent.weight_ih_l0 f4 [384, 7]
00000000: 9ad1 26bd 43e7 05bd 24e9 ccbd ef5e 81bd
00000010: 2080 81bb cdbc 0bba 0549 d73d 1dac c13d
00000020: dd17 d6bb 1b17 7f3d 8746 d5bd 988a 8c3d
00000030: 77b2 50bd 7474 a13a 2d3e 9d39 5b11 1abd
00000040: 149d 263c 5611 8d3d 7890 17bd 6299 ebba
00000050: 63f9 7fbd 6fc8 d03d 9b59 e9b9 01a3 603d
00000060: 1454 adbd d7c0 6dbb 9d8b 1a3d 6b3a c2bd
00000070: aecd 443c 5bcc 94bd 979d 2bbd ef12 8b3d
00000080: 6e54 3bbd 8b51 d7bd 8b99 7abc fc90 7f3d
00000090: 015d 0cbd 0001 dcbc f327 7ebb 2495 d2bb
000000a0: c9ec 45ba a2c4 fe3c c72c b7bd a2ca 21bd
000000b0: 753c a5bc 9e38 9aba b0f5 333d dd96 83bc
000000c0: 4e4e f3bc 57e9 37bd 76b6 cabd 6a07 a7bd
000000d0: b2db e53d e48f b2bd d9be 4b3d 87a2 d0bd
000000e0: 4f33 d63d 12e1 dc3c b45f 1cbd d36e 42bc
000000f0: 5354 543c 4418 0d3d 8bb1 34b9 6365 af3c
00000100: 6466 c13d b515 5a3c b5e3 68bd ccf8 043d
00000110: 2b42 0e3b 1517 73bd 10d7 8ebd c33b 40bb
00000120: 08cc cc3d 4b48 b9b9 c400 71bd f79f ddbc
00000130: 8cc2 fdbc c6a6 a4bd 6e14 babd fae6 cdbd
00000140: bf06 d1b9 300b 4abd f6a1 123d c25e 0c3c
00000150: af64 25bd 586c d63d f124 633d 9f6e 2ebd
00000160: dacb 4d3d 922d 9dbc cf95 4cba 3dda ad3a
00000170: 223f d8bd 1e7c c0bd 4b51 62bd 20e4 a3bc
00000180: 96a5 a13c 81dc fbbc b160 09ba 016a a53d
00000190: 670e 81bd 0601 00bd b43b 98bd d414 c7bd
000001a0: 01dc f4bc 7621 8cbd bd74 abbd 8d1f 173d
000001b0: ff84 603a eee3 3dbb bfaf 04bd 8299 c23d
000001c0: c1b2 143d a3a6 bdbd 1621 0ebd ba3e c53d
000001d0: 4a23 ea3c 6021 4dbb 7a96 d3bd bf05 383d
000001e0: 035b e63d e507 913d 6b6b bebd 26c8 b53c
000001f0: fb20 b73d dd44 64bd dccf 953d ff82 b63d
00000200: 9533 debd 43b6 ae3d 4bbe 10bd 2fa1 933d
00000210: dfbf c13c 0ca5 d5bd 1385 96bd 8255 b73d
00000220: 3c74 933d 68b6 a0bc 2556 20bd e418 bb3d
00000230: 22c9 3d3d d08c cfbd fe39 dbbd 7d88 b43d
00000240: 9c2e abbd fa75 adbc aebf 02bd 4683 fbbc
00000250: 0ac1 ba39 898a 6ebd 996c 59bd 851c 8abc
00000260: 2558 053d 5675 afbd 3543 cb3d e120 6fbd
00000270: 17ca 043d 14b8 dcbd f98c 3d3d e49f e93b
00000280: e11f 94bc fd4f a03d 14c7 d83d 5f77 1f3a
00000290: 01fe 87ba aed8 7fbd 11cb b03d 703d 823d
000002a0: 1086 04bb 9a7c 34bd 88ab a33c c0eb 493d
000002b0: db63 c63d df62 3f3b 5ed2 e13d e631 aa3d
000002c0: 842c cabd 5383 87bd 0a5a 9cbd 2738 3f3d
000002d0: e901 82bd 24f3 01bd 10dc d7bd a153 13bd
000002e0: fe1b 26bd cfcf 7c3d 3a15 e83d e308 57bd
000002f0: c20a d4bd ef5e 9b3d be50 d13b e8ca e13c
00000300: c7f5 8bbd 36bf 5c3d 9a60 ad3c 9b4a c1bc
00000310: f981 273d f955 8c3d 8ee2 9dbc 85a2 d0bd
00000320: 4275 683d b3e5 65bd f073 833d 2893 c43d
00000330: 01e7 923c 2638 95bd c001 3cbd 8109 bcbd
00000340: 0332 e8ba c0a7 08bc 727d 99bd c51d 273c
00000350: de73 813d 62f1 bd3d b4cc 5cbd bf27 4cbb
00000360: 3e0a 693d 6951 40bc 785e 78bd 9010 a53c
00000370: b0fc 7ebc e9d0 903d 78b7 b33d d3a0 633c
00000380: 9ded 47bb 0f22 203c fad2 963d 624d bdbd
00000390: 5c25 4e3c 09cc b8bc 32cc 54bd 10f9 563d
000003a0: 439b 15bc c6d7 c23d 43a2 d63d c9e0 a0bc
000003b0: 5dab d73d 4a5e 9a3a 6e98 453b db64 53bc
000003c0: f3cf 3cbd 75e4 f0bc 9fcb d239 4318 e9bd
000003d0: 7ae7 8b39 616a ac3d 9ceb 173d 121a 33bb
000003e0: 1035 1abd 7b07 fcbb c9ac 73bb 0834 29bc
000003f0: be81 d3bc c1b4 8abc 2ded 12bd c1b4 193d
-0.040727235 -0.03269125 -0.100054055 -0.06316935 -0.0039520413 -0.00053305627 0.10511974 0.09456656
-0.0065336064 0.062277894 -0.10413843 0.06862372 -0.050951447 0.0012318031 0.00029991698 -0.037614208
0.010169286 0.06888072 -0.03700301 -0.0017974789 -0.062493693 0.1019448 -0.00044507984 0.054842953
-0.08463302 -0.0036278272 0.0377308 -0.094837986 0.0120119285 -0.0726554 -0.041898336 0.06790721
-0.045734815 -0.105136 -0.015295397 0.062394127 -0.034268383 -0.026855946 -0.0038781136 -0.0064264704
-0.00075502374 0.031099621 -0.089440875 -0.039499886 -0.02017043 -0.0011766141 0.043935478 -0.016063148
-0.029700425 -0.044900265 -0.09898083 -0.08155711 0.11223544 -0.08718851 0.049742553 -0.1018725
0.10459005 0.02696279 -0.038177207 -0.011867243 0.012959558 0.03444697 -0.00017232278 0.02141065
0.094433576 0.013310839 -0.056857783 0.032463834 0.002170692 -0.059348185 -0.06974614 -0.0029332496
0.099998534 -0.00035339812 -0.05883862 -0.027053816 -0.030976556 -0.08039622 -0.09085928 -0.10053821
-0.00039868613 -0.049327075 0.03579899 0.008567514 -0.040379222 0.10469884 0.055455152 -0.042585965
0.050243236 -0.019186769 -0.00078043056 0.0013263893 -0.10558917 -0.093986735 -0.05525331 -0.02000624
0.019732278 -0.030744793 -0.00052405434 0.08076859 -0.06301575 -0.031250976 -0.074332625 -0.097207695
-0.029890062 -0.0684232 -0.083718754 0.036895324 0.000856474 -0.0028974968 -0.032394167 0.095019355
0.036303286 -0.09260299 -0.034699522 0.09631105 0.02858128 -0.003130041 -0.103314355 0.044927355
0.11247828 0.07081584 -0.09297832 0.022190165 0.089418374 -0.055729736 0.07315037 0.08911704
-0.10849682 0.085308574 -0.035337728 0.07208478 0.023651062 -0.10431871 -0.07349601 0.08951856
0.07199904 -0.019618228 -0.039144654 0.09135607 0.046334393 -0.1013428 -0.107044205 0.088150956
-0.083584994 -0.02117442 -0.03192108 -0.030702244 0.0003562051 -0.058237586 -0.053082082 -0.016859302
0.032554764 -0.08567302 0.09924928 -0.058380965 0.03241929 -0.107772976 0.04627702 0.007129656
-0.018081607 0.078277566 0.10584846 0.00060831563 -0.0010375382 -0.0624625 0.08632482 0.063593745
-0.002022151 -0.04406414 0.019979253 0.049297094 0.09687015 0.002920322 0.110264525 0.083102986
-0.09871772 -0.06616845 -0.07634361 0.04668441 -0.063480206 -0.031726018 -0.105400205 -0.035968427
-0.04055404 0.06172162 0.11332174 -0.05249871 -0.103536144 0.075864665 0.006387799 0.027562574
-0.06833988 0.05389329 0.021164227 -0.023595145 0.040895436 0.068523355 -0.019273069 -0.10187248
0.05675245 -0.05612726 0.06418598 0.0959838 0.017932417 -0.072861 -0.045900106 -0.091815
-0.00177151 -0.008340776 -0.0749463 0.010199969 0.06320928 0.09274556 -0.053906158 -0.003115162
0.056894533 -0.01173816 -0.060636967 0.0201495 -0.015563175 0.070710965 0.08775228 0.013893324
-0.0030506619 0.009773745 0.07364459 -0.09243275 0.012582149 -0.022558229 -0.05195255 0.05248362
-0.009131256 0.09513812 0.10480168 -0.019638436 0.10530732 0.0011777368 0.003015067 -0.012902464
-0.046096753 -0.029405812 0.0004020603 -0.11381581 0.0002668461 0.08418728 0.03708993 -0.0027328772
-0.03764826 -0.0076913214 -0.0037181845 -0.010327347 -0.025818702 -0.016931893 -0.03587072 0.037525896

recurrent.weight_hh_l0 f4 [384, 128]
00000000: 7400 b73c 4bf1 323a 5484 753d 40f1 a5ba
00000010: 90a4 ce3c a8e9 973c 341d f83c 0813 05bd
00000020: 83be b13d bfeb 68bd eefe 89bd 0ffa 54b9
00000030: 808e 8aba adc1 c4bc 2789 e5bc f943 533d
00000040: b71b 203d 09fc 7aba f863 953d 0bfe e7bc
00000050: 77ae f6bc 3faa 573d 2243 80bd f93d 08bd
00000060: 886f 6ebd e75c 68ba 8c5e ab3d 26de 223d
00000070: 9ace 3f3d 1f31 99ba 3a9c 9cbb 3926 b23d
00000080: 74f6 72bc 02ed 4d3d d458 80bc 2f81 b7bd
00000090: d998 493d d09a 4e3a 0f39 5abd 6117 7b3d
000000a0: 9014 4cbd e065 b1bc d6eb 46bc 6119 1cbd
000000b0: 32db c23c 9810 0e3d 291d 353d 4b14 c33a
000000c0: 525b c53d eeaf 483d 866d 213d 7cb1 02bd
000000d0: 9a24 993d a946 26bd 86b7 c2bd d464 a6ba
000000e0: e15c 9dbd d42d a83a 4e42 be3c a178 d53c
000000f0: 56ce 743d 6efd c93c 4ff2 c63d 275c 303c
00000100: c85f 843b 15ef c6bd 18d0 b63c 4158 aabd
00000110: 9907 ecbc 3331 1e3d a09e cdbc 4dc5 c73d
00000120: d106 b83d 7691 afbc 54a4 8fbb 35d2 adba
00000130: 87f2 b0bd 2129 733d b001 9fbd 2091 d2bb
00000140: fcfd 6abc 1067 0fbd 1edb 803d 200d d3bc
00000150: c3d5 55bd 945d 64bd fa2e fcbb 6d2e 493b
00000160: 7f33 863d 6774 a5bd c1cf 2cbc 8147 943c
00000170: 9ffe 2cbd 4061 84bd 8b18 bdbd e706 85bd
00000180: efc0 a4bc 0683 95bd c30d 38bd 1e51 a7bc
00000190: 5cf3 9fbd 661c 9ebd a42e cbbd 2658 57bd
000001a0: 6eb0 963d 0cda b43d 53de 48bd 8af5 b03d
000001b0: 5af7 8bbd 8108 833d 832e b5bb 870c dbbc
000001c0: 4dd6 27bd 2360 ad3d 2d54 7ebd a0e9 77bd
000001d0: 00e3 663a d5da 1e3c 931c aa3d 6cb4 233d
000001e0: 0517 973d 5e73 a83d 4cfd b73d 57fb 63bc
000001f0: bfff 8c3d 96c9 98bd d6c4 45bc 568f bbbb
00000200: d4a9 c43d 1878 7f3d abc3 9c3d fc5d 903c
00000210: 7076 85bd 8d2f 72bd c66b 9dbd e485 b8bd
00000220: 8f52 663b 83d5 8e3d 0b53 79bd f57d 4abd
00000230: 7d25 303c 3095 56bd a48c 9fbd 69ac 723d
00000240: 3136 e23c 2a88 7e3d a65f 79bd 616f bdbd
00000250: 4ebf 853d 361d 403d 2b05 203c d9e6 8abd
00000260: 26f2 6439 48d3 ab3d 389f ae3b 3f32 763d
00000270: 5b3a 73bd 3885 3e3d 4792 9ebc 6749 94bd
00000280: 4e0b 6d3c 57fc f53c 9443 073c 51f3 01bd
00000290: 140b 8f3d 3544 0ebd d655 a63d 37b9 5cbd
000002a0: 82b5 733d bef8 a8bc 9d72 be3d 39e1 843d
000002b0: 4248 9c3c b229 a63c 81c9 843d ddbe 943d
000002c0: 96f1 063d de20 96bb 1eda 33bd 0512 6c3d
000002d0: d084 98ba e3bb 933d a0a3 e73c 9647 b637
000002e0: a5e8 963d 7545 903d 3a62 2abd 5e84 9e3c
000002f0: 172a 21ba 7e52 933c 8356 a3bd 197d 3c3d
00000300: 0cc1 c3bc 63d7 c73d 657c c23d 50d7 a83d
00000310: 77ef 0dbd a819 77bd 668b c6bd e624 ccbd
00000320: d79a 503a 21c3 94bd 6920 e53c 6b0b d33c
00000330: 8c0f 623d 2e06 bcbc ae8d 4d3b 78f9 b53d
00000340: 25ff 333d e13f 833d fdcf bd3b 1cba 4e39
00000350: 536f 9dbd 1ad8 2a3d cb53 c3bd a493 ad3d
00000360: ce26 7abd 0eee 81bc 93fe 7cbd 4aa5 373d
00000370: 89bb 333c 28e9 ccbd e565 5039 1474 39bd
00000380: 21eb 84bd de79 9ebb ecbd a7bd 4b28 e5b9
00000390: 41c9 683d db14 e139 be8f 64bd aae5 c2bd
000003a0: 9ef0 85bd cd98 01ba 7402 adbd cd3f 09b9
000003b0: 5f26 943d fb26 3cbc a8a1 253c b7e7 1fbd
000003c0: 111c 8e3c cb00 1f3d b4a2 de3b 6172 6fbd
000003d0: c0e9 c73d 2e77 643d 039b 26bc a1ea b33d
000003e0: 78cc b6bc b3f0 b23d b3e7 93bc 6152 cabc
000003f0: 01c2 583b 71d2 aa3a 7543 bd3b 0d47 97ba
0.022339083 0.00068261166 0.05994065 -0.0012660399 0.025224954 0.018544033 0.030287363 -0.032488853
0.08678915 -0.05686545 -0.06738077 -0.0002031105 -0.0010571033 -0.024018133 -0.0280195 0.051578496
0.03908893 -0.00095742993 0.07294458 -0.02831938 -0.030112488 0.052652594 -0.062628046 -0.033262227
-0.058211833 -0.0008863941 0.08367643 0.03976264 0.04682789 -0.0011687613 -0.004779366 0.08698697
-0.014829267 0.050274856 -0.015667357 -0.08960187 0.049218033 0.0007881345 -0.05327707 0.061301593
-0.049824297 -0.021655023 -0.012141189 -0.03811014 0.023786161 0.034683794 0.044217262 0.0014883367
0.096365586 0.048995905 0.03941109 -0.031907544 0.07477684 -0.04059473 -0.095076606 -0.0012694844
-0.07683731 0.0012831041 0.023224976 0.026058497 0.05976709 0.024656978 0.097141854 0.010764158
0.0040397383 -0.0971357 0.022316024 -0.08317614 -0.028812217 0.03862114 -0.025100052 0.09754429
0.08985675 -0.021431666 -0.004383603 -0.0013261499 -0.086400084 0.059365395 -0.07763994 -0.0064259917
-0.014342781 -0.035010397 0.06291793 -0.025763094 -0.052205812 -0.055753306 -0.0076960297 0.0030697838
0.06552791 -0.080788426 -0.010547579 0.018100502 -0.042235013 -0.064638615 -0.09233197 -0.06495457
-0.02011153 -0.07300381 -0.044935 -0.020424422 -0.07810089 -0.0772026 -0.09921005 -0.0525743
0.0735787 0.08830652 -0.04904015 0.08640583 -0.06834288 0.06398106 -0.0055292263 -0.026739372
-0.040975858 0.08465602 -0.062091995 -0.060525537 0.00088076293 0.009695728 0.08306231 0.039966986
0.073774375 0.082251295 0.089838594 -0.013914905 0.06884717 -0.074603245 -0.012070855 -0.005723874
0.09602705 0.06237039 0.07654508 0.01762294 -0.06516731 -0.05912738 -0.07686572 -0.090099126
0.0035144424 0.06974318 -0.06087021 -0.04943653 0.010751125 -0.05238837 -0.07790497 0.059246454
0.027613731 0.062141575 -0.060882233 -0.092497595 0.06530629 0.046902858 0.009766857 -0.06782312
0.00021833982 0.08389908 0.005329039 0.060106512 -0.059381824 0.046513766 -0.01935686 -0.07240563
0.014468027 0.030027552 0.008255858 -0.031726185 0.06984535 -0.034733016 0.08121841 -0.053887572
0.05949927 -0.020626422 0.092992045 0.0648827 0.019077424 0.020283554 0.06483746 0.07262967
0.032945238 -0.004581555 -0.043909185 0.057634372 -0.0011636261 0.07213571 0.028276265 2.1729425e-05
0.07368592 0.07044498 -0.041597582 0.019350227 -0.00061479345 0.017983671 -0.07975485 0.04601774
-0.023895763 0.09757879 0.094963826 0.082441926 -0.0346522 -0.060327202 -0.09694557 -0.09967975
0.0007957643 -0.072637804 0.027969556 0.02576228 0.055190608 -0.022952165 0.0031364965 0.08885473
0.043944497 0.06408668 0.0057926164 0.00019715022 -0.07687249 0.041709997 -0.095374666 0.08475426
-0.061072163 -0.015860584 -0.06176622 0.044835366 0.010970005 -0.100054085 0.00019874384 -0.045276716
-0.0649016 -0.004836305 -0.081905216 -0.00043708304 0.056832556 0.00042930883 -0.055801146 -0.09516461
-0.06540035 -0.00049437286 -0.084477335 -0.00013089106 0.07233881 -0.011483903 0.010109343 -0.03903934
0.017347367 0.038819116 0.006794298 -0.05845869 0.09761381 0.05577772 -0.010168794 0.08784986
-0.022314295 0.08737316 -0.018054819 -0.024697484 0.003307462 0.0013032687 0.005775864 -0.001154156

recurrent.bias_ih_l0 f4 [384]
00000000: 8162 c7b9 bd2d 023a 28b7 893a 6794 063b
00000010: da0a 853a bdf6 173a 69ff b439 0cc4 923a
00000020: f477 8238 39db 2839 9758 9339 0214 f0b8
00000030: e31b d539 82db 6b39 2f03 3e39 fb9a 753a
00000040: 7800 3437 b01f fc38 7785 f0b8 8931 0eba
00000050: 1f4a 37b9 8993 7eb9 2207 9b3a 93c1 813a
00000060: c4c4 503a d3bd 8538 373e 0a3a 35b0 373a
00000070: e63b 6339 0643 7b39 0600 8b38 b23c e839
00000080: 70d0 4139 738d 7bb7 40cb 3b38 d2a2 343b
00000090: 8763 9b3a 91bb d637 2f4f a639 0bde 2eb8
000000a0: 41d5 8b3b f330 9c3a 6730 9b3a 150c 313b
000000b0: a3fe bd39 51e4 ce3a f92f 123b 64e3 113a
000000c0: da2d 1a3a defe c938 02a2 9db9 da96 0a3a
000000d0: 45e9 c83a e385 d73a 73b3 953a 77d8 d83a
000000e0: ecbe 8d3a e7f6 673a 449f 863a 0a70 163a
000000f0: 227d b33a 5947 273a 1ae3 a73a 01a3 0a39
00000100: 927b d339 2738 65b8 bdf4 8db8 63a7 b73a
00000110: c940 0b3a 2204 d539 e259 1ab9 1931 d23a
00000120: b032 4e3a f85c 9f39 a908 15b8 7629 903a
00000130: 0e9c 8f38 7c41 3f3b 4a2d c4b8 58d3 cf39
00000140: 8f3a 6f39 99b6 b439 0d25 e4b8 f63c ff3a
00000150: 6d7b 84b9 97b7 9d3a 24ef 2ab9 9130 193b
00000160: f431 043a 2726 723a c884 12ba 8ac9 3d39
00000170: 70ab 0e39 1ffb c53a 0bf1 2239 3bed e43a
00000180: 4cbb b039 e1ef 4539 58c4 ef3a 1590 bf3a
00000190: 060a 09ba 7839 f538 bc16 213b b5e6 543b
000001a0: cff2 7739 5f19 933a 80d8 cb39 7afe 0a3b
000001b0: 1f5b 7c3a 8193 bc39 7125 ad39 bcb4 3d3b
000001c0: 8c25 823b a5ad cf39 a453 3539 290d 5739
000001d0: f402 79b7 b84f e139 b8dc 203a 7e1c 273a
000001e0: c662 4c3b ff11 4339 fe4b 263a 73ff 01b9
000001f0: 78cf 1c39 a69c 713b 1fa7 723a af12 863b
00000200: bf74 cdbb 43d6 893b c920 f6bb 0e05 f6bb
00000210: 06e6 ad3b 0132 a6bb eb6c 36bb 36ba d3bb
00000220: 6c8d f3bb 6d77 9cbb c4e5 eebb 424a 2abb
00000230: a742 87bb c186 c8ba 0b6d 3e3b 8d53 79bb
00000240: a8fe cb3b aafc 8f3b c379 603b 38b1 bf3b
00000250: d88e 7e3b 3e61 633b d448 e43b c591 d6bb
00000260: 8877 cc38 193e 4dbb d633 fdbb c4c6 823b
00000270: c83e a7bb 58e9 ffbb c8df ac3b b457 40ba
00000280: 1ff4 e9bb a72c 103b 2ef2 c93b 0002 d6bb
00000290: 9bf6 eebb 63e0 d1bb aecd 8ebb 789c c13b
000002a0: 0c64 60bb 6d1e 693a 0657 e53b 7577 c7bb
000002b0: ddaa 90ba e7dd fdbb 5b00 fdbb e389 87ba
000002c0: 1d04 03bc 3416 57bb f024 8c3b 827f 30ba
000002d0: 7dce d83b 905e 40bb ea6c e53b 50ae 4cbb
000002e0: 7114 f5bb d219 323b 01fb 9f3b c474 f4bb
000002f0: f2aa 2abb d24e bb3b 4831 803a 4b69 debb
00000300: 3768 efbb 2ccd e3bb 86a6 80bb 985a 443b
00000310: b7ab 1a3b 7cdd 3f3b b6bd d1ba e1d5 f9bb
00000320: 4023 14bb b854 4d3b 05e2 acbb 6a9f f0bb
00000330: 2603 84bb 75a0 f13b 5942 b03a 1603 f0bb
00000340: dc4f 993b c2ad b33b 8675 ce3b 725d d83b
00000350: b328 a3bb 8824 9abb 65f5 b03b 29b9 81bb
00000360: 8721 db3b d468 d8bb 7609 c93b 2888 b6bb
00000370: e5c8 0cba 3ad8 e3bb 5fb7 90bb 7578 edbb
00000380: 4b05 a3bb e9fc b83b 3c6d b9bb 79af fabb
00000390: bac4 e0bb 8c27 edbb 5914 e43b cd60 f2bb
000003a0: f092 823b dcc5 573b 68f3 8c3b a6fb 9bbb
000003b0: 83c6 b33b bb10 e2bb a346 a5bb 5f3a 9fbb
000003c0: b264 ebbb 7b6f 983a aec5 d9bb 32c3 903b
000003d0: f23c 9fbb 27cb d1ba 7803 c1bb a33f f7bb
000003e0: da7d a63b c4ac ebbb c1dd c0bb 8b7b ea39
000003f0: ce48 dabb 5289 f3bb 65d3 f5bb ec1e f4bb
-0.0003802963 0.0004965922 0.0010506855 0.0020535232 0.0010150329 0.000579696 0.0003452257 0.0011197343
6.221226e-05 0.00016103395 0.0002810403 -0.000114478185 0.00040647303 0.0002249312 0.00018120998 0.0009369102
1.0728945e-05 0.00012022199 -0.000114689516 -0.00054242514 -0.00017479852 -0.00024278289 0.0011827687 0.0009899609
0.00079638907 6.377292e-05 0.0005273553 0.0007007153 0.00021670721 0.00023962194 6.628041e-05 0.0004429571
0.00018483563 -1.49937e-05 4.4773566e-05 0.0027562869 0.0011855223 2.559813e-05 0.00031720984 -4.1691626e-05
0.004267365 0.0011916443 0.0011839987 0.0027015258 0.00036238608 0.0015784596 0.0022306426 0.0005565195
0.0005881466 9.6318996e-05 -0.0003006608 0.0005286761 0.0015328309 0.00164431 0.0011421278 0.0016544004
0.0010814345 0.0008848742 0.0010270854 0.0005738741 0.0013693909 0.0006381176 0.001280877 0.00013221429
0.00040337123 -5.465015e-05 -6.76899e-05 0.0014011677 0.0005312083 0.00040629605 -0.00014720068 0.0016036361
0.00078658294 0.0003039611 -3.5532434e-05 0.0010998684 6.847839e-05 0.002918332 -9.354444e-05 0.0003963958
0.00022814631 0.0003446832 -0.000108787885 0.0019473124 -0.0002526896 0.0012032863 -0.0001630155 0.0023374895
0.0005042844 0.00092372525 -0.0005589244 0.00018099524 0.00013606041 0.0015104747 0.0001553932 0.001746572
0.00033708883 0.00018876746 0.0018292768 0.0014615083 -0.0005227629 0.00011693215 0.00245802 0.0032486145
0.00023646209 0.0011222771 0.00038880482 0.0021208809 0.0009626615 0.00035968053 0.00033025027 0.0028946837
0.003971761 0.00039611492 0.00017292664 0.000205089 -1.4842244e-05 0.0004297474 0.0006136405 0.000637479
0.0031186803 0.00018603353 0.0006343721 -0.00012397561 0.00014954607 0.0036867051 0.00092564704 0.0040915827
-0.0062700207 0.00420645 -0.0075112325 -0.007507927 0.005306962 -0.005071879 -0.0027835916 -0.006461407
-0.0074326303 -0.004774979 -0.007290574 -0.0025984203 -0.0041278186 -0.0015298949 0.0029056694 -0.0038044185
0.0062254258 0.0043941336 0.0034252263 0.0058499835 0.0038842466 0.0034695412 0.0069666896 -0.006548139
9.7497425e-05 -0.003131753 -0.0077271266 0.00399098 -0.0051039197 -0.007809799 0.0052757002 -0.00073372875
-0.007139697 0.002199927 0.0061629033 -0.006531 -0.0072925813 -0.006404923 -0.004358015 0.005908545
-0.003423932 0.00088927784 0.0069988994 -0.0060872384 -0.0011037249 -0.0077474 -0.0077209896 -0.0010340776
-0.007996586 -0.003281963 0.004276864 -0.00067328673 0.006616412 -0.0029353239 0.007001509 -0.0031231828
-0.0074792434 0.0027176035 0.004882217 -0.0074602086 -0.0026041833 0.005716183 0.0009780312 -0.0067874542
-0.0073061245 -0.0069519486 -0.003926101 0.0029961225 0.0023600885 0.0029276302 -0.0016001973 -0.0076243733
-0.0022604018 0.0031331014 -0.005275967 -0.0073432224 -0.0040286956 0.0073738643 0.0013447508 -0.0073245866
0.0046787094 0.00548336 0.006300631 0.0066029364 -0.004979217 -0.004704062 0.005400347 -0.0039588404
0.0066873464 -0.0066042934 0.006135161 -0.0055704303 -0.0005370512 -0.0069532664 -0.004416391 -0.0072470256
-0.004974996 0.0056453836 -0.0056587737 -0.0076503125 -0.006859389 -0.0072373804 0.0069604334 -0.0073967935
0.0039848015 0.003292433 0.004301477 -0.0047602234 0.005486311 -0.006898967 -0.005043821 -0.0048592533
-0.0071836347 0.0011629903 -0.0066458797 0.0044178003 -0.00485956 -0.0016005979 -0.005890306 -0.007545428
0.0050809206 -0.007192226 -0.00588581 0.00044724005 -0.006661511 -0.0074321413 -0.007502007 -0.0074499752

recurrent.bias_hh_l0 f4 [384]
00000000: 8162 c7b9 bd2d 023a 28b7 893a 6794 063b
00000010: da0a 853a bdf6 173a 69ff b439 0cc4 923a
00000020: f477 8238 39db 2839 9758 9339 0214 f0b8
00000030: e31b d539 82db 6b39 2f03 3e39 fb9a 753a
00000040: 7800 3437 b01f fc38 7785 f0b8 8931 0eba
00000050: 1f4a 37b9 8993 7eb9 2207 9b3a 93c1 813a
00000060: c4c4 503a d3bd 8538 373e 0a3a 35b0 373a
00000070: e63b 6339 0643 7b39 0600 8b38 b23c e839
00000080: 70d0 4139 738d 7bb7 40cb 3b38 d2a2 343b
00000090: 8763 9b3a 91bb d637 2f4f a639 0bde 2eb8
000000a0: 41d5 8b3b f330 9c3a 6730 9b3a 150c 313b
000000b0: a3fe bd39 51e4 ce3a f92f 123b 64e3 113a
000000c0: da2d 1a3a defe c938 02a2 9db9 da96 0a3a
000000d0: 45e9 c83a e385 d73a 73b3 953a 77d8 d83a
000000e0: ecbe 8d3a e7f6 673a 449f 863a 0a70 163a
000000f0: 227d b33a 5947 273a 1ae3 a73a 01a3 0a39
00000100: 927b d339 2738 65b8 bdf4 8db8 63a7 b73a
00000110: c940 0b3a 2204 d539 e259 1ab9 1931 d23a
00000120: b032 4e3a f85c 9f39 a908 15b8 7629 903a
00000130: 0e9c 8f38 7c41 3f3b 4a2d c4b8 58d3 cf39
00000140: 8f3a 6f39 99b6 b439 0d25 e4b8 f63c ff3a
00000150: 6d7b 84b9 97b7 9d3a 24ef 2ab9 9130 193b
00000160: f431 043a 2726 723a c884 12ba 8ac9 3d39
00000170: 70ab 0e39 1ffb c53a 0bf1 2239 3bed e43a
00000180: 4cbb b039 e1ef 4539 58c4 ef3a 1590 bf3a
00000190: 060a 09ba 7839 f538 bc16 213b b5e6 543b
000001a0: cff2 7739 5f19 933a 80d8 cb39 7afe 0a3b
000001b0: 1f5b 7c3a 8193 bc39 7125 ad39 bcb4 3d3b
000001c0: 8c25 823b a5ad cf39 a453 3539 290d 5739
000001d0: f402 79b7 b84f e139 b8dc 203a 7e1c 273a
000001e0: c662 4c3b ff11 4339 fe4b 263a 73ff 01b9
000001f0: 78cf 1c39 a69c 713b 1fa7 723a af12 863b
00000200: bf74 cdbb 43d6 893b c920 f6bb 0e05 f6bb
00000210: 06e6 ad3b 0132 a6bb eb6c 36bb 36ba d3bb
00000220: 6c8d f3bb 6d77 9cbb c4e5 eebb 424a 2abb
00000230: a742 87bb c186 c8ba 0b6d 3e3b 8d53 79bb
00000240: a8fe cb3b aafc 8f3b c379 603b 38b1 bf3b
00000250: d88e 7e3b 3e61 633b d448 e43b c591 d6bb
00000260: 8877 cc38 193e 4dbb d633 fdbb c4c6 823b
00000270: c83e a7bb 58e9 ffbb c8df ac3b b457 40ba
00000280: 1ff4 e9bb a72c 103b 2ef2 c93b 0002 d6bb
00000290: 9bf6 eebb 63e0 d1bb aecd 8ebb 789c c13b
000002a0: 0c64 60bb 6d1e 693a 0657 e53b 7577 c7bb
000002b0: ddaa 90ba e7dd fdbb 5b00 fdbb e389 87ba
000002c0: 1d04 03bc 3416 57bb f024 8c3b 827f 30ba
000002d0: 7dce d83b 905e 40bb ea6c e53b 50ae 4cbb
000002e0: 7114 f5bb d219 323b 01fb 9f3b c474 f4bb
000002f0: f2aa 2abb d24e bb3b 4831 803a 4b69 debb
00000300: 3768 efbb 2ccd e3bb 86a6 80bb 985a 443b
00000310: b7ab 1a3b 7cdd 3f3b b6bd d1ba e1d5 f9bb
00000320: 4023 14bb b854 4d3b 05e2 acbb 6a9f f0bb
00000330: 2603 84bb 75a0 f13b 5942 b03a 1603 f0bb
00000340: dc4f 993b c2ad b33b 8675 ce3b 725d d83b
00000350: b328 a3bb 8824 9abb 65f5 b03b 29b9 81bb
00000360: 8721 db3b d468 d8bb 7609 c93b 2888 b6bb
00000370: e5c8 0cba 3ad8 e3bb 5fb7 90bb 7578 edbb
00000380: 4b05 a3bb e9fc b83b 3c6d b9bb 79af fabb
00000390: bac4 e0bb 8c27 edbb 5914 e43b cd60 f2bb
000003a0: f092 823b dcc5 573b 68f3 8c3b a6fb 9bbb
000003b0: 83c6 b33b bb10 e2bb a346 a5bb 5f3a 9fbb
000003c0: b264 ebbb 7b6f 983a aec5 d9bb 32c3 903b
000003d0: f23c 9fbb 27cb d1ba 7803 c1bb a33f f7bb
000003e0: da7d a63b c4ac ebbb c1dd c0bb 8b7b ea39
000003f0: ce48 dabb 5289 f3bb 65d3 f5bb ec1e f4bb
-0.0003802963 0.0004965922 0.0010506855 0.0020535232 0.0010150329 0.000579696 0.0003452257 0.0011197343
6.221226e-05 0.00016103395 0.0002810403 -0.000114478185 0.00040647303 0.0002249312 0.00018120998 0.0009369102
1.0728945e-05 0.00012022199 -0.000114689516 -0.00054242514 -0.00017479852 -0.00024278289 0.0011827687 0.0009899609
0.00079638907 6.377292e-05 0.0005273553 0.0007007153 0.00021670721 0.00023962194 6.628041e-05 0.0004429571
0.00018483563 -1.49937e-05 4.4773566e-05 0.0027562869 0.0011855223 2.559813e-05 0.00031720984 -4.1691626e-05
0.004267365 0.0011916443 0.0011839987 0.0027015258 0.00036238608 0.0015784596 0.0022306426 0.0005565195
0.0005881466 9.6318996e-05 -0.0003006608 0.0005286761 0.0015328309 0.00164431 0.0011421278 0.0016544004
0.0010814345 0.0008848742 0.0010270854 0.0005738741 0.0013693909 0.0006381176 0.001280877 0.00013221429
0.00040337123 -5.465015e-05 -6.76899e-05 0.0014011677 0.0005312083 0.00040629605 -0.00014720068 0.0016036361
0.00078658294 0.0003039611 -3.5532434e-05 0.0010998684 6.847839e-05 0.002918332 -9.354444e-05 0.0003963958
0.00022814631 0.0003446832 -0.000108787885 0.0019473124 -0.0002526896 0.0012032863 -0.0001630155 0.0023374895
0.0005042844 0.00092372525 -0.0005589244 0.00018099524 0.00013606041 0.0015104747 0.0001553932 0.001746572
0.00033708883 0.00018876746 0.0018292768 0.0014615083 -0.0005227629 0.00011693215 0.00245802 0.0032486145
0.00023646209 0.0011222771 0.00038880482 0.0021208809 0.0009626615 0.00035968053 0.00033025027 0.0028946837
0.003971761 0.00039611492 0.00017292664 0.000205089 -1.4842244e-05 0.0004297474 0.0006136405 0.000637479
0.0031186803 0.00018603353 0.0006343721 -0.00012397561 0.00014954607 0.0036867051 0.00092564704 0.0040915827
-0.0062700207 0.00420645 -0.0075112325 -0.007507927 0.005306962 -0.005071879 -0.0027835916 -0.006461407
-0.0074326303 -0.004774979 -0.007290574 -0.0025984203 -0.0041278186 -0.0015298949 0.0029056694 -0.0038044185
0.0062254258 0.0043941336 0.0034252263 0.0058499835 0.0038842466 0.0034695412 0.0069666896 -0.006548139
9.7497425e-05 -0.003131753 -0.0077271266 0.00399098 -0.0051039197 -0.007809799 0.0052757002 -0.00073372875
-0.007139697 0.002199927 0.0061629033 -0.006531 -0.0072925813 -0.006404923 -0.004358015 0.005908545
-0.003423932 0.00088927784 0.0069988994 -0.0060872384 -0.0011037249 -0.0077474 -0.0077209896 -0.0010340776
-0.007996586 -0.003281963 0.004276864 -0.00067328673 0.006616412 -0.0029353239 0.007001509 -0.0031231828
-0.0074792434 0.0027176035 0.004882217 -0.0074602086 -0.0026041833 0.005716183 0.0009780312 -0.0067874542
-0.0073061245 -0.0069519486 -0.003926101 0.0029961225 0.0023600885 0.0029276302 -0.0016001973 -0.0076243733
-0.0022604018 0.0031331014 -0.005275967 -0.0073432224 -0.0040286956 0.0073738643 0.0013447508 -0.0073245866
0.0046787094 0.00548336 0.006300631 0.0066029364 -0.004979217 -0.004704062 0.005400347 -0.0039588404
0.0066873464 -0.0066042934 0.006135161 -0.0055704303 -0.0005370512 -0.0069532664 -0.004416391 -0.0072470256
-0.004974996 0.0056453836 -0.0056587737 -0.0076503125 -0.006859389 -0.0072373804 0.0069604334 -0.0073967935
0.0039848015 0.003292433 0.004301477 -0.0047602234 0.005486311 -0.006898967 -0.005043821 -0.0048592533
-0.0071836347 0.0011629903 -0.0066458797 0.0044178003 -0.00485956 -0.0016005979 -0.005890306 -0.007545428
0.0050809206 -0.007192226 -0.00588581 0.00044724005 -0.006661511 -0.0074321413 -0.007502007 -0.0074499752

recurrent.weight_ih_l1 f4 [384, 128]
00000000: c302 6abd fed4 8cbc 0308 d6bc 29c8 6f3d
00000010: 6271 17bd 31e9 76bc 8a45 62bc 4e4d 41b9
00000020: fb09 93bd a1e0 aabb 5ff1 ccbd 48ee c2bc
00000030: e66b 8ebd 41c0 f63c f8ac f3bc 7852 b13d
00000040: 1c23 4ebc c54a b3bd 7928 b23c 6329 96bd
00000050: aaae bbbd 63b8 723d 3384 b4bd fc57 d1bc
00000060: 3978 993c 0529 abba 58d8 44bc 5a1b 333d
00000070: 42ec 9abd abfa ba3d ab7c 9c3d 25e4 8dbc
00000080: a7b8 753d faa6 3dbc bf22 66bd a8e3 8cbd
00000090: b649 b2bd 07c8 593d 6942 3f3d c0f6 273d
000000a0: e53f 403a 3893 a63b 946b cb3d bd19 293c
000000b0: a6f6 583d 04e7 3e3d 4605 03bd 4c3e b73d
000000c0: a66a 35bd c259 be3c 0570 713d 3f46 bebd
000000d0: c306 9d3d a3c0 7aba b469 4f3d c890 953d
000000e0: 379c 833c 8dd3 eebc 8c46 cd3d a457 403d
000000f0: 6201 9c3d e27b c03c 460d babd 45d8 1cba
00000100: ee04 2ebc 68e4 a83c 457c 1bbd 5c0a 5f3c
00000110: 8a31 3bbd 7c67 7dbd 8cc3 8dbd 8616 b63d
00000120: e01f e1bc 350c 1e3b 6734 87bc a5d8 863d
00000130: 354c 73bd 85be 633d 0936 b3bb 760e 14ba
00000140: 38e3 8ebd 6a41 0e3d 60eb 563b a532 9b3d
00000150: 4a36 77bd ee05 c1bd 073e 86bd cbfa 8ebd
00000160: 4be6 c2bd 62dc a7bd 1b2f ecbc 5436 48bd
00000170: 5b96 943d 24a4 9cbd 7e8b 44bd dbf5 b83c
00000180: 0e4c 31bc 7851 41bd e111 843c 45be e7bb
00000190: 9527 7cbd d239 09bd 3a11 0fbd 95d1 103c
000001a0: ca4f 46bd 4f26 4cbc 5a9b 82bd c8ba 2dbd
000001b0: 05c4 6bbc 5e80 d93c f7f9 03bd aff3 04bd
000001c0: 005c b0bd 10b7 e5bc 3cae bbbd ff8a c1bd
000001d0: 66c2 5639 54a3 c03c c5bb 123a a0f1 393d
000001e0: f6bc b8bd 8c49 a0bd 5f03 f8bc 9e10 a9bd
000001f0: c5c8 9cbc 4235 d0bb e59d eabc d09e 243d
00000200: 56c8 313c ccf8 a9bd 3d69 c6bd 15a1 0c3c
00000210: 8a91 72bd f557 aebb 81d2 bc3d bac7 91bd
00000220: 0902 2fbd d8d0 683d 42c9 b9bd 083d 2e3c
00000230: ad0d 963d ac45 90bd 921a 1ebd f08b 863d
00000240: 2937 073c 3453 9bb9 fac8 b63d fa04 c6bd
00000250: 8d18 1a3d 52ba 08bd 0ea9 f23c 3cec ad3d
00000260: 3f82 c53d 7408 ad3d dd51 dd3c 275c 883d
00000270: dcdf b0bb a7dc acbd edc5 b5bd 8761 b43c
00000280: 478a ec3a 5bbc c53d 64a6 f3bc 7f31 a6bd
00000290: 624d 8b3d 4aec 2eb9 cac5 ae3a eda0 d13c
000002a0: 57cd 76bd 09ba 28bd 6236 ab3d 08c0 353d
000002b0: a07c f6bc 6379 f03b 7e26 833d 61b5 6eba
000002c0: 97bf 76bd 15d8 843d 4489 6c3d 9bd1 8fbd
000002d0: 9820 f6bc 9748 c3bd edc0 993a 1d98 d33c
000002e0: 16f8 b73c 1da7 cb3d aa44 ba3d 5e1d e6bc
000002f0: dfac ba3d 89ba 95bd 1532 ad3c cbb4 af3c
00000300: 59b3 b4bd 9636 d9ba 647b 96bd 78bf b73a
00000310: 238f 1dbb c6c2 66bd 7395 273a 7a89 2c3b
00000320: 9284 41bd 4a6c 03bc 6df9 18bd 26bf c53d
00000330: c13c 973d 9b2c 54bd 3837 c8b9 e620 b73d
00000340: 1c09 b3bd 6b10 693d 79b3 91bc 9e21 cd3d
00000350: 6551 783d 2d5b 4d3d 58e4 b23d 3e5b 8eb8
00000360: 471f 3bbc 17fa 3b3d 45bb 4cba f014 76bb
00000370: afbc 02bc ed2b dabc 3a97 2b3d 7552 a03d
00000380: 93ff 943c 37a0 a23d 785e c63d cfeb 263d
00000390: 1c29 283c c810 af3d eb79 97bd 9180 4a3c
000003a0: d6d6 9fbd 2a85 9b3a d3da 7cbd f11c b9bd
000003b0: 8ef8 f539 6c3e fe3c 260e a0bd 2924 9e3c
000003c0: 9dc3 f13c bbbc bcbd 2dea 9d3d 2bdc d93b
000003d0: c8aa 693d 27d9 1b3a 5fc3 7cbd c758 56bd
000003e0: b3a4 66bd b5b2 76bd 6f0d 833d 082d 953d
000003f0: 299e 873d 3de8 3e3d 74b5 a13d 38dd 93bd
-0.05713154 -0.017191406 -0.026126867 0.058540497 -0.036973365 -0.015070246 -0.013810525 -0.00018434713
-0.07179638 -0.005214766 -0.100069754 -0.023795262 -0.06954174 0.03012097 -0.029745564 0.08658308
-0.012581613 -0.087544955 0.021747814 -0.07332113 -0.09164174 0.059257876 -0.088142775 -0.02555465
0.018734084 -0.001305849 -0.012014471 0.043727256 -0.07564594 0.09129842 0.07640966 -0.017320702
0.05999055 -0.011575455 -0.05618548 -0.068793595 -0.087054655 0.053169277 0.046694193 0.041006804
0.000733374 0.005083468 0.09932628 0.010321078 0.052969597 0.046607032 -0.03198745 0.08947429
-0.04429116 0.02323616 0.05894472 -0.09290742 0.07667305 -0.0009565448 0.050637916 0.073030055
0.0160657 -0.02915361 0.100232214 0.04695858 0.07617451 0.023496572 -0.09084563 -0.00059831544
-0.0106212925 0.020616725 -0.03796031 0.01361331 -0.04570154 -0.06186627 -0.06922063 0.08891015
-0.02748102 0.0024116163 -0.01650448 0.065842904 -0.05939885 0.055601615 -0.005469088 -0.0005647907
-0.06976932 0.034730352 0.0032794103 0.07578019 -0.06035451 -0.09424959 -0.065547995 -0.06981429
-0.09516581 -0.081963316 -0.028831055 -0.048879936 0.072552405 -0.07648495 -0.047984593 0.02257817
-0.0108213555 -0.047196835 0.016121807 -0.0070722424 -0.061561186 -0.033502407 -0.034928538 0.008839031
-0.048415937 -0.012460305 -0.06377287 -0.042414457 -0.014389996 0.026550468 -0.032220807 -0.032458957
-0.086112976 -0.028041393 -0.09164092 -0.094503395 0.0002048105 0.02351538 0.0005597438 0.045396447
-0.090204164 -0.07826528 -0.030275045 -0.082551226 -0.019138703 -0.006354005 -0.028639743 0.040190518
0.0108509865 -0.08299407 -0.09688041 0.008583327 -0.059220828 -0.005320544 0.09219838 -0.07118173
-0.04272655 0.056839794 -0.0907159 0.010634668 0.07326827 -0.07044539 -0.03859956 0.0656966
0.008252897 -0.00029625895 0.08925052 -0.09668918 0.03762107 -0.033380814 0.029621627 0.08492324
0.09643983 0.08448878 0.027016575 0.06658202 -0.00539778 -0.084405236 -0.08875642 0.02201916
0.0018046581 0.096550666 -0.029742427 -0.081149094 0.06801869 -0.00016681958 0.0013334092 0.02558943
-0.06025442 -0.041193042 0.08359982 0.04437259 -0.030088723 0.007338689 0.06403826 -0.0009106007
-0.060241308 0.06486527 0.057748094 -0.07022401 -0.030044839 -0.0953533 0.001173047 0.02582937
0.022457164 0.09943984 0.09095128 -0.028090175 0.09115004 -0.073109694 0.021142045 0.021448513
-0.0882327 -0.0016572054 -0.07347754 0.0014018854 -0.0024041615 -0.056338094 0.0006392814 0.002632706
-0.04724557 -0.008021424 -0.037347246 0.09655599 0.07384635 -0.05180035 -0.00038188114 0.08941822
-0.08741972 0.056900423 -0.017785775 0.100161776 0.0606245 0.05013578 0.08734959 -6.788083e-05
-0.011421031 0.0458928 -0.0007809888 -0.00375491 -0.007979556 -0.026632274 0.041892268 0.078282274
0.018188274 0.07940715 0.09685987 0.04075223 0.0102637075 0.08548123 -0.07396301 0.012359754
-0.078046486 0.0011865248 -0.061732125 -0.09038723 0.0004691523 0.031035624 -0.078151986 0.019304352
0.029512221 -0.09215685 0.07710681 0.0066485605 0.057047635 0.0005945139 -0.061709758 -0.05233076
-0.056309413 -0.060229022 0.06399047 0.0728398 0.066219635 0.0466082 0.078959376 -0.072199285

recurrent.weight_hh_l1 f4 [384, 128]
00000000: a548 6f3a 89a0 c839 4460 c1bd 7b2c 5e3d
00000010: c703 aabd e48f 873d 6405 7b3d 1781 b23d
00000020: 6148 5dbd 6cf1 45bd d988 51bd a427 adbd
00000030: 4c4c da3c 7b0c 733d 9326 8c3d d827 cabb
00000040: 0ec8 283d e300 c23d 949b 173d 1a88 2ebd
00000050: cec4 c03d 926d b63d a776 dbbc f85f 1c3d
00000060: 8ebf 653c c97a 41bd b6fc 27bb fe6f 1cbd
00000070: c1bf 9f3c fe25 0f3d f7fa 733d c983 4f3d
00000080: 7f36 96bc 52cf 9a3d 7f1e 46bd beb0 72bc
00000090: 23a2 71bc 2d43 25bd 6d35 8eba a5b4 fd38
000000a0: befd c33d e359 673d bf14 9ebc f2d0 2c3d
000000b0: bf46 933a 9f5b 1bbd 30ba 4a3a d93e 293d
000000c0: e8dc b83c 26b6 c3bd c171 a33d 2755 1fbd
000000d0: 7707 2ebd 7e7b a6bd 8c1b ddbc a122 bf3c
000000e0: 1927 c4bd 93fd 8c3d 3e99 8539 e5b2 003c
000000f0: 9dc1 97bd e233 053c 0df3 50bd 6ae3 48bb
00000100: 82ad 86bd ada8 e7bc cef8 08bc 36fc 8bbb
00000110: 5ac3 3dbd 117e 143d aaf4 8eba c520 813d
00000120: 5413 28bd b986 d5bc 2a42 5c39 3cc8 a13d
00000130: 9288 0b3d e13b f4bc 1673 b1bc 48f3 71bc
00000140: f09a 8f3d c894 c8b9 b125 1c3d 7737 303d
00000150: 0ae4 1fbc a647 aabc 8030 b2bd 597f f73b
00000160: 9d33 44bd 7a58 bb3c afb7 503d 114d d3bc
00000170: bde2 9cbd 79b1 bc3b ddbd 743d 1ef9 23bc
00000180: c824 c6bc d123 b2bc 80bf 5bbd 76b8 b63d
00000190: e7d8 f1bb 2962 e53b 055c c43d f69c 783a
000001a0: 9e63 5cbd b4a4 43bd 5b53 c13d ea33 c0bd
000001b0: b72b 52bd 909d a0bc d411 60ba bc6b be3d
000001c0: 39c0 9abc 66f9 58b9 f4ab 863d 982e b6bc
000001d0: 48a6 ffba e231 2039 20ad ab3c 643b ccbd
000001e0: 66ba dcbb c8b5 1938 104d cabd 278d b4bd
000001f0: be44 cb39 2ddd 2abc d6b7 983c a138 6bbd
00000200: 7a5d 6a3d 729a 90bc f783 4637 ab4b 9e3a
00000210: d210 cbbd 4f8b 703a 1742 10bd 6113 9b3d
00000220: 4c5b 28bd 597d 11b7 84f5 ad3d f455 c5bd
00000230: 9cd8 f23c ea77 c3bd f6c7 7a3d 9709 893c
00000240: d20c 783c ddbf 79bd fdeb 78bd a093 cbbd
00000250: 0918 41bd c641 e93b d2b7 183d 8ee2 a43a
00000260: db3e 4bbc d4c3 a13d 7f4c 8a3d 788a 9cbd
00000270: d2e4 2b3b 32dd 8cbc 4d66 663d 845a 18bd
00000280: 0777 82bc 837f 83bd 2dc8 5aba 9845 983a
00000290: 5a6e 09bd dae7 943d ff68 8f3b b02b 5bbd
000002a0: 4734 9d3c 57e8 33bd 87fa 4c3c 35b5 a6bd
000002b0: d071 b23d 8cdb f83a 6e59 35bd 56b5 133c
000002c0: 46d8 913d 1ee7 44bd e270 a7bd add7 98b9
000002d0: 503b bfbd b022 cf3c 1d2a b2bd 962f 083d
000002e0: 1457 91bd 7118 a7bc ffcf a53d 66dd fc3b
000002f0: bff8 bd3d 3b3b 3f3d c228 bb3c e194 313d
00000300: cfa7 d13c d8e0 ea3b 0d49 64bd f918 953d
00000310: 2839 92bd ad22 6bbd ee1c 983d 5879 49bc
00000320: 5936 813d 35ce 56bd eeef a33d 4e9e 8bbb
00000330: 0d8f 14bd 48e6 8bbd 6a79 95bd 30d5 7dbc
00000340: 8caa 763d 4093 a83a 23fa 82bd 8e4d b2bc
00000350: f6f0 b2bc b687 bd3d 4370 983d 041b b03d
00000360: 39fe 0d3d 84f1 623c 499f 6bbd 13bd 9fbd
00000370: 2bc3 8b3d 1894 66b9 1066 593d e575 8b3d
00000380: 6c05 c13d 576b 97bd bae5 f23c 7239 05bc
00000390: 6a73 c7bc a712 aa3d 9e4f 393d 7f64 46bd
000003a0: 2fac 67bd 7d77 b93d a44b 843d 6d4e 99bd
000003b0: d9a1 8b3d 2b20 cc3d 3627 793a 0eca 0b3d
000003c0: feac b9bc 3cd6 4cbc 3f7f c13d 3b44 8e3c
000003d0: 638a 0d3c 417b 9d3d 57f7 8b3d 4eaa a93d
000003e0: 05a8 a4bd 1531 76bc 026a aabd a749 cdbd
000003f0: 6918 e0bc cfe1 95bd 7925 66bd cee4 4b3d
0.00091279513 0.0003826658 -0.09442189 0.05424164 -0.08301502 0.06619242 0.061284438 0.08716028
-0.054024104 -0.04832594 -0.0511559 -0.084548265 0.02664771 0.059338074 0.06843295 -0.0061693005
0.041206412 0.094728254 0.037013605 -0.042610265 0.094125375 0.08907618 -0.026789976 0.03817746
0.014022721 -0.047236238 -0.0025632805 -0.03819274 0.019500615 0.03494834 0.05956551 0.05066279
-0.018336533 0.075590745 -0.048368927 -0.014812646 -0.014748129 -0.040347267 -0.0010849662 0.00012097628
0.09569882 0.056482207 -0.019297002 0.042191453 0.0011236294 -0.037929174 0.00077334326 0.0413197
0.022566274 -0.095562264 0.07980681 -0.038899567 -0.042487588 -0.08129023 -0.026990674 0.023331942
-0.0957777 0.06884303 0.0002548191 0.007855152 -0.07409976 0.008130046 -0.05101304 -0.0030653127
-0.06576063 -0.028278673 -0.008360101 -0.0042720092 -0.04632888 0.03625304 -0.0010906656 0.063050784
-0.041034058 -0.026065217 0.00021005483 0.0789952 0.03406579 -0.029813709 -0.021661323 -0.014767475
0.07011974 -0.00038257823 0.038121883 0.043021645 -0.009758959 -0.020786118 -0.08700657 0.007553023
-0.047900785 0.022869337 0.050956424 -0.025793584 -0.076604344 0.005758461 0.05975138 -0.010008125
-0.02418746 -0.021745594 -0.053649426 0.08921902 -0.007380593 0.007000227 0.09587864 0.0009483838
-0.05380594 -0.047764495 0.09439727 -0.09384902 -0.05131122 -0.019606382 -0.00085475785 0.092978925
-0.018890487 -0.00020692273 0.06575766 -0.022239015 -0.0019504512 0.00015277372 0.020956576 -0.09972265
-0.0067360876 3.664734e-05 -0.0987798 -0.08815985 0.00038770394 -0.010428709 0.018642347 -0.057427052
0.057218052 -0.01765177 1.1832445e-05 0.0012076994 -0.099153176 0.0009176032 -0.03521928 0.075720556
-0.041102692 -8.671858e-06 0.08494094 -0.09635535 0.029644303 -0.09544356 0.061225854 0.016728206
0.015139775 -0.06097399 -0.06077193 -0.099402666 -0.047142062 0.0071184365 0.03728468 0.0012579726
-0.012405123 0.078986794 0.06752872 -0.07643598 0.0026228917 -0.017195318 0.056249905 -0.037195697
-0.015925897 -0.06420805 -0.00083458686 0.001161742 -0.033552505 0.07270785 0.00437653 -0.05350846
0.019189967 -0.04392275 0.012510902 -0.08140031 0.08713114 0.0018986329 -0.04427474 0.009015402
0.07121329 -0.048071973 -0.081758276 -0.0002915239 -0.09337485 0.025285095 -0.08699439 0.033248506
-0.07096687 -0.020397397 0.08096313 0.0077168224 0.0927596 0.046687346 0.022846583 0.043354873
0.025592713 0.0071679167 -0.05573373 0.07280154 -0.07139808 -0.057406116 0.07427393 -0.012296997
0.06309194 -0.052442748 0.08004747 -0.0042608147 -0.036269236 -0.06831032 -0.072985485 -0.015492722
0.06022124 0.0012861267 -0.06395366 -0.021765497 -0.021843415 0.092544004 0.07443287 0.08598903
0.034666274 0.013851527 -0.057524953 -0.07799735 0.06824335 -0.00021989678 0.05307585 0.06809596
0.09424862 -0.0739352 0.029650558 -0.008131372 -0.024347026 0.08304339 0.045241944 -0.048435684
-0.05656069 0.09055994 0.0645974 -0.07485662 0.06817979 0.09967073 0.0009504439 0.03412824
-0.022665497 -0.012502249 0.094480984 0.01736652 0.008638951 0.076895244 0.06834286 0.08284436
-0.0803986 -0.0150263505 -0.08321001 -0.10023814 -0.02735539 -0.0731846 -0.05618808 0.049778752

recurrent.bias_ih_l1 f4 [384]
00000000: 695b 593a 0784 3e3b 234b 8f3b 1e8c b83b
00000010: 3dd7 573a 15e6 b73b a374 853b 57eb 663b
00000020: d79a 1a3a a9bb da3a e519 03b9 eed8 433b
00000030: a35a ef3a d4df 083b 3799 583a 535d 713b
00000040: 4746 8c3b 91b0 123b 8538 78b8 5a91 b73b
00000050: b90c 223b 2a38 b63b 3a08 5f3a 89b4 433b
00000060: 4ff3 a83a 82e4 5f38 bb48 6639 4758 9939
00000070: 2ba1 f2b8 bf16 6a3b 0aa2 65b9 e0aa 903b
00000080: b63b d239 4522 053b 3229 933b 3087 a639
00000090: f421 173a 2f93 8b3a 3971 b03a b1b7 283b
000000a0: fa6b 703b e2b1 463a 7bc7 2c3b b2a9 383b
000000b0: 2e68 4cb9 1e5a 403b dbcc f23a d07f b53b
000000c0: 61bb d3b8 1332 713b 3711 6a3a 196a f039
000000d0: aae5 943b 002b f13a 92ad 803a c790 9c3b
000000e0: c468 243b 6d6b 6f39 4763 a93b 4a12 603a
000000f0: 9700 fe38 dd75 403a 22d3 b7b7 c9df a13b
00000100: c5b5 d23a f9ca be3b f842 5039 07e6 a13b
00000110: 420f c03a e611 853b b256 873b 868d 9b3b
00000120: b6e0 093b f8bc 6a3b 0945 583b 2e88 9b3b
00000130: 5b12 b83a 1bbd aa3b edb5 aa3b 4bdf 813b
00000140: 93c9 803a dc8b 373b 4cc5 143b 880e 8f3a
00000150: 92b6 3c3b 3202 3f3b 1ec7 95b8 7748 193a
00000160: a5ab 7c3b e9c8 3d3b ee9d f337 78fe 513b
00000170: 3ae5 553b bc14 a13b 32a1 3cb9 2ff9 3cb8
00000180: ad17 b43b ff60 363b 5cb2 8039 52e3 9eb7
00000190: 46e6 ae3b ca3a 4d3b a619 beb8 783d d738
000001a0: a1d8 f239 5bfb fa3a cdce 783b fffd 593b
000001b0: 118a 243b fa8d 2d3a 2d81 083b 19d2 0a3b
000001c0: 67bd 0a39 23b7 7a3b eef2 e93a c24b a339
000001d0: 7fc6 b73b 4035 9f3b 5b2d 2b3a eba9 be3b
000001e0: 63b4 a23b 0e05 623b e76c 8e3b 2eee af3b
000001f0: 1414 ac3b d7d8 8e3a 211a 9d3b 38c0 5f3b
00000200: 6c22 ca3b 8d18 63bb cb81 e2bb 3de4 eabb
00000210: 7295 3ebb c1b0 ffbb d6d5 f2bb f69a bfba
00000220: 07d9 033b 32c4 023b 867d b73b 0c0f a9bb
00000230: 8a13 c9bb efe6 c3ba f9ee 873b 658d f5bb
00000240: a479 a13b ffdc 9c3a 97b5 1fbb b471 9e3b
00000250: 0179 873b c13e b1bb dd5c c73b 2e88 29bb
00000260: 1175 11bb d12e e5bb 7cf0 d6bb addb 993b
00000270: 05c8 6e3b 7917 cb3b 7e36 0bbb c411 d13b
00000280: 73c5 be39 2659 8b3b ff65 e3bb 1eb2 debb
00000290: 003d aebb 5582 efbb 8e7b 81bb 7c68 f3bb
000002a0: 8a72 f9bb 2a70 1abb aed7 f1ba d825 f0bb
000002b0: 4c10 4138 6342 34bb e6b0 e7bb a627 f0bb
000002c0: 460f 713b 72df 2a3b 4bf5 553b a476 0dba
000002d0: 0c42 2b3b a6cb adbb c11f d63b 7ac1 c73b
000002e0: 8b90 8cbb b484 193b 7a73 d2bb 7eec 67ba
000002f0: 3d14 d7b9 432d b2bb b431 c4bb fd10 85bb
00000300: acc9 78bb 8a0d f6bb 9af5 40b9 0eb4 993b
00000310: d5b6 a0bb a6c3 a8bb 6188 f5bb d689 f5bb
00000320: 2cc6 debb fcc1 b7bb 8c07 68bb 9378 d73b
00000330: 2808 7dbb 4841 e3bb 5d8c fcbb b4f1 453a
00000340: dc43 f5bb 8b06 3bbb 5f2e 34bb 68f7 b23b
00000350: e69a d2bb 2445 e5bb 4dde 43bb c13a ad3b
00000360: acc1 64bb 7ad7 e23b 506a bfbb 2d25 f0bb
00000370: 76dd 393b 65d7 16bb d216 a7bb 7b2c e1bb
00000380: f93c ddbb 6f78 ccbb 237c 813b 0253 12bb
00000390: c9dc f0bb d01b 5c3b 2aa1 7abb ae7f e8bb
000003a0: 697b f6bb 7b23 38bb 8273 e7bb 90dc bd3b
000003b0: 027a e2bb b863 d93b 7957 f3bb f0f9 0eba
000003c0: 79fd acbb bee1 c43b f22e b8bb 8f33 b63b
000003d0: b6ed 19bb 6b6c 943b 1725 693b 357e 86bb
000003e0: cfa8 f6bb f89a 5a3b b480 0cba 4ccc ecbb
000003f0: 1fc7 c9bb 6eb8 f3bb 56c4 e03b 63f3 d2ba
0.0008291514 0.0029070394 0.0043729707 0.0056319376 0.0008233672 0.0056121447 0.004072742 0.0035235488
0.0005897707 0.0016688007 -0.0001250278 0.002988394 0.0018261265 0.0020885365 0.0008262577 0.0036829307
0.0042808386 0.0022383074 -5.9180446e-05 0.005602044 0.0024726822 0.0055608945 0.0008508001 0.0029862246
0.0012889894 5.3380158e-05 0.00021961603 0.00029248206 -0.00011569479 0.0035719124 -0.00021899506 0.004414901
0.0004009881 0.0020314616 0.004490995 0.0003176271 0.0005765252 0.0010648723 0.0013461477 0.0025744254
0.0036685453 0.0007579607 0.0026364017 0.0028177318 -0.00019493766 0.002935059 0.0018524186 0.005538918
-0.00010096166 0.0036803528 0.0008928957 0.00045855416 0.0045439797 0.0018399656 0.0009817353 0.004778001
0.002508686 0.00022832835 0.0051693055 0.0008547647 0.00012111774 0.0007341782 -2.1913616e-05 0.0049400073
0.00160759 0.005822536 0.00019861374 0.0049407515 0.0014652985 0.0040609716 0.004130208 0.0047470955
0.002103848 0.00358182 0.0033000133 0.0047464585 0.0014043556 0.0052105314 0.0052096755 0.003963386
0.0009825699 0.0028006947 0.0022700606 0.0010914365 0.0028795344 0.0029145596 -7.141962e-05 0.0005847285
0.0038554457 0.0028958863 2.90414e-05 0.0032042544 0.003263785 0.004915802 -0.00017989127 -4.5054763e-05
0.0054959864 0.002782881 0.0002454695 -1.8940922e-05 0.0053375093 0.0031315559 -9.0646834e-05 0.00010263448
0.00046319238 0.0019148396 0.003796506 0.0033262966 0.0025106708 0.00066205824 0.0020828948 0.0021182357
0.00013231263 0.003825613 0.0017848888 0.00031146227 0.0056083794 0.004858643 0.0006529891 0.0058185956
0.0049653514 0.0034487876 0.0043464783 0.0053689694 0.005251417 0.0010898364 0.0047943746 0.003414167
0.006168654 -0.0034652085 -0.006912445 -0.0071683214 -0.0029080776 -0.007803053 -0.007410745 -0.0014618326
0.0020118372 0.0019953367 0.0055996804 -0.0051592644 -0.0061363624 -0.0014946143 0.004148361 -0.007493662
0.004927831 0.0011967717 -0.002436971 0.004835332 0.004134298 -0.005409092 0.006084068 -0.0025868523
-0.002219502 -0.0069941063 -0.0065594297 0.004695377 0.003643514 0.0061978665 -0.0021242197 0.0063802917
0.00036386735 0.0042525707 -0.006939649 -0.0067961356 -0.0053173304 -0.007309238 -0.0039514964 -0.007428227
-0.007612531 -0.002356539 -0.0018451118 -0.00732873 4.6029963e-05 -0.002750539 -0.0070706485 -0.007328945
0.0036782785 0.0026073125 0.0032647427 -0.0005396402 0.0026131896 -0.005303818 0.006534547 0.0060960623
-0.004289692 0.0023425044 -0.0064224573 -0.0008847191 -0.00041023074 -0.0054375245 -0.0059873704 -0.004060863
-0.0037962003 -0.007508938 -0.0001840204 0.0046906536 -0.004904608 -0.0051502762 -0.0074930643 -0.007493238
-0.0067985263 -0.0056078415 -0.003540489 0.006575653 -0.0038609598 -0.0069352724 -0.0077071623 0.000755097
-0.007484896 -0.0028537835 -0.002749346 0.005461622 -0.0064271567 -0.0069967676 -0.002988714 0.005286545
-0.0034905476 0.0069226595 -0.005841531 -0.0073286504 0.002836076 -0.0023016569 -0.005099156 -0.0068717576
-0.0067516533 -0.0062399427 0.003951566 -0.0022327309 -0.0073505384 0.0033585913 -0.0038243034 -0.0070952987
-0.007522036 -0.002809732 -0.00706333 0.0057941154 -0.006911517 0.006634202 -0.007426199 -0.00054541137
-0.0052792397 0.006008356 -0.0056208307 0.0055603455 -0.0023487634 0.004529526 0.0035575086 -0.0041044005
-0.007527448 0.0033356529 -0.00053597544 -0.0072265025 -0.0061577703 -0.007437757 0.0068593426 -0.0016094263
