input/gru_model.pth (torch, 611234 bytes, 10 tensors)

recurrent.weight_ih_l0 f4 [384, 7]
0	0x3d692892	0.056923456
1	0x3d812a4b	0.06306895
2	0xbd082193	-0.033235144
3	0x3c7f2304	0.015572313
4	0xbdbe9aed	-0.093068935
5	0xbd233f09	-0.039855037
6	0x3900b0a7	0.0001227284
7	0x3dce32ac	0.10068259
8	0xbd8087bf	-0.062758915
9	0xbd380d03	-0.044934284
10	0x3d963971	0.07335175
11	0xbda9b0f7	-0.082857065
12	0x3df8e9af	0.121539466
13	0xbdf8ebd3	-0.12154355
14	0x3d7a122b	0.061052483
15	0x3df0079c	0.117202014
16	0xbde57ec7	-0.112058215
17	0xbd282b3d	-0.04105686
18	0x3d151d5d	0.036404956
19	0xb9e2a134	-0.00043226185
20	0xbc9f999f	-0.019482432
21	0xbda1a2af	-0.078923576
22	0x3d0514bc	0.032490477
23	0x3bfb4742	0.0076684067
24	0x3ce00c5f	0.027349649
25	0xbd42adee	-0.047529154
26	0xbd786480	-0.06064272
27	0xbda00381	-0.07813168
28	0x3d789cd3	0.060696434
29	0xbd36b3bd	-0.044605006
30	0x3d5949ea	0.053049006
31	0xbb7b0566	-0.0038302778
32	0x3d01cf6f	0.031691965
33	0xbdc971ca	-0.09836157
34	0x3b921098	0.0044575445
35	0xbd571f22	-0.052519925
36	0xbd1289e6	-0.03577604
37	0x3d51e3be	0.051242582
38	0xbc07fb5b	-0.008299674
39	0x3c3ded73	0.011592257
40	0x3d25700c	0.04039006
41	0xbd7b5f83	-0.061370384
42	0xbde13f58	-0.1099841
43	0xbd94dc80	-0.072686195
44	0x3d9cbb0a	0.07652862
45	0x3d5c6e06	0.053815864
46	0xbdf81f48	-0.121153414
47	0xbc1e348c	-0.009656083
48	0x3cefd15f	0.02927464
49	0x3d6e7757	0.05821928
50	0xbd006201	-0.031343464
51	0xbd8dde8b	-0.06927212
52	0x3c27dcc0	0.010245502
53	0xbd4afd0f	-0.04955774
54	0x3db96849	0.09053094
55	0x3df805b0	0.1211046
56	0xbcd91e5d	-0.026503736
57	0xbd93fae3	-0.07225587
58	0xbd64ca45	-0.05585696
59	0xbd936865	-0.07197646
60	0xbd4644af	-0.048405346
61	0x3dbcad53	0.092127465
62	0x3de0c1d1	0.109744675
63	0xbd7e50a2	-0.062088616
64	0x3d659eec	0.056059763
65	0x3cd604b9	0.026125299
66	0x3d51d2a4	0.051226273
67	0xbd29f527	-0.04149356
68	0x3defa18f	0.11700737
69	0x3de439b1	0.11143816
70	0xbd391792	-0.045188494
71	0x3c81c56b	0.015841207
72	0x3d1fc3e1	0.039005164
73	0xbc7ae2f8	-0.015312903
74	0xba79480f	-0.0009509334
75	0x3a5a57a1	0.0008329098
76	0x3deeba10	0.11656582
77	0xbda75d65	-0.081721105
78	0x3d896b73	0.067099474
79	0xbd5e4633	-0.054266166
80	0x3d36032f	0.04443663
81	0x3dc83ac8	0.09776837
82	0xbd58d08d	-0.052933265
83	0x3d9d5aaa	0.076833084
84	0x3d7d0fd1	0.06178266
85	0xbcead414	-0.02866558
86	0xbbdd58f5	-0.0067549893
87	0xbd4ed7e3	-0.050498854
88	0x3d4df73e	0.050284617
89	0x3cac2588	0.02101399
90	0xbca183ca	-0.019716162
91	0x3d16f000	0.036849976
92	0x3bf51b00	0.0074800253
93	0x3bb360ee	0.0054742014
94	0x3cc5195d	0.024059946
95	0x3d9e66cb	0.0773445
96	0x3d8c8a8f	0.068623655
97	0xbd53e175	-0.051728684
98	0x3db88b34	0.09010926
99	0xbd37f5db	-0.0449122
100	0xbd85e05d	-0.065369345
101	0x3ddae18b	0.1068755
102	0xbd882aef	-0.06648814
103	0x3d6ce569	0.05783597
104	0xbc9e61e1	-0.019333782
105	0xbd5f5795	-0.054526884
106	0xbdb93df6	-0.09045021
107	0xbbfbbc64	-0.00768237
108	0xbdf4d85a	-0.11955328
109	0xbd7ce00b	-0.0617371
110	0x3df198b6	0.117967054
111	0x3d8dd687	0.069256835
112	0x3c81e73d	0.015857333
113	0xbdbd21b7	-0.09234946
114	0x3de61703	0.11234858
115	0xbde4aec4	-0.111661464
116	0x3d91b347	0.071142726
117	0xbdba1807	-0.09086614
118	0x3dbdb6b9	0.09263367
119	0xbcb99967	-0.022656156
120	0x3d8a9772	0.06767167
121	0xbde8d029	-0.113678284
122	0x3d689879	0.056786034
123	0x3c9d4a1c	0.019200377
124	0xbdaf14f7	-0.085489206
125	0xbddcf98f	-0.10789787
126	0xbd149ea8	-0.03628412
127	0x3d547d5c	0.051877365
128	0x3bfcba4a	0.007712637
129	0xbdc7f89e	-0.09764217
130	0x3cb1b778	0.02169393
131	0x3d4bbd1c	0.049740896
132	0x3db23c47	0.08702903
133	0xbd6169d5	-0.05503257
134	0xbd291ec8	-0.04128912
135	0xbde1318c	-0.109957784
136	0xbd88c21c	-0.066776484
137	0x3de15cf0	0.110040545
138	0x3d964627	0.07337599
139	0x3daf7e8d	0.085690595
140	0x3c545009	0.012958535
141	0x3dd5243f	0.10407304
142	0x3b58a19d	0.0033055313
143	0x3d952377	0.07282155
144	0x3df3c765	0.11903266
145	0x3d8507ca	0.06495626
146	0x3ac30968	0.0014880123
147	0x3df8f76f	0.12156569
148	0x3d609e4c	0.054838464
149	0xbc388518	-0.011262201
150	0xbd5f720c	-0.054552123
151	0xbde563e0	-0.1120069
152	0xbd39d901	-0.045372967
153	0x3dea2aa1	0.11433912
154	0x3bc32b20	0.0059560686
155	0xbc280a55	-0.01025637
156	0x3d2e37ff	0.04253387
157	0x3b91c4e2	0.004448519
158	0xbd1365ce	-0.03598576
159	0x3d383139	0.044968817
160	0xbdf89fd7	-0.12139862
161	0x3dcd1a57	0.100147896
162	0xbc8c6272	-0.017136786
163	0x3c96fc84	0.018430956
164	0x3daae439	0.08344311
165	0x3dc3e548	0.09565216
166	0x3db468e0	0.08809066
167	0xbb8900cf	-0.0041810046
168	0x3cee9926	0.029125761
169	0x3c8f6fe8	0.017509416
170	0x3de7822f	0.113041274
171	0xbcff765e	-0.031184372
172	0x3ddfb43a	0.10923047
173	0x3d70d557	0.058797207
174	0xbdda30f6	-0.1065387
175	0xbd0afa44	-0.03393008
176	0x3cb62526	0.02223451
177	0xbdac3a61	-0.084095724
178	0x3dedfba0	0.11620259
179	0xbcc825dc	-0.024432115
180	0xbdcf3e3f	-0.101192944
181	0xbd47f560	-0.048817992
182	0x3c560ee2	0.013065072
183	0x3d3e4c99	0.046459768
184	0x3db5de23	0.0888026
185	0x3c2d4f2c	0.010577958
186	0x3de99fdb	0.11407443
187	0x3d8820f8	0.06646913
188	0x3caca804	0.02107621
189	0x3dee57b4	0.11637822
190	0xbc59d72f	-0.013295933
191	0x3c8d07c7	0.017215623
192	0x3d8f0d9f	0.0698502
193	0xbd7a38d6	-0.06108936
194	0x3c3ed267	0.0116468435
195	0xbd6a2f3c	-0.057173952
196	0x3d9ac725	0.07557515
197	0x3c93e951	0.01805559
198	0x3da43396	0.08017652
199	0x3ca55bb7	0.020185335
200	0xbdd3d0dc	-0.10342571
201	0x3db23a0f	0.0870248
202	0xbd5ce3c6	-0.05392816
203	0x3cfc0a98	0.03076677
204	0xbb681d77	-0.0035417953
205	0xbdbab82e	-0.09117161
206	0x3ddfb303	0.10922816
207	0x3d452382	0.048129566
208	0x3d06e2e7	0.032931235
209	0x3d89fe65	0.06737975
210	0xbd814d71	-0.06313599
211	0xbc9fec68	-0.019521907
212	0x3dd802bc	0.105473965
213	0xbcedb960	-0.029019058
214	0x3dfb9e86	0.12286095
215	0xbde249ca	-0.110492304
216	0xbd8ae6db	-0.067823134
217	0xbd5ae049	-0.05343655
218	0xbc2b1da3	-0.010444078
219	0x3d9c9eef	0.07647502
220	0x3d8bdfa2	0.06829764
221	0x3d55c4e3	0.05218972
222	0x3ca4b643	0.02010644
223	0x3db2aa7e	0.08723925
224	0xbd52ab40	-0.051432848
225	0xbcc21dc3	-0.023695832
226	0x3d595e00	0.05306816
227	0x3de0e8bd	0.10981891
228	0xbdd00e82	-0.10159017
229	0xbd8a1704	-0.06742671
230	0x3d38c2d1	0.045107666
231	0x3d3dc099	0.046326254
232	0x3d3a87bd	0.045539606
233	0xbdcf95b3	-0.10135975
234	0x3da1635e	0.07880281
235	0x3c696dc3	0.014247361
236	0x3df0378a	0.11729343
237	0x3db376ff	0.08762931
238	0xbabfa07a	-0.0014619969
239	0x3d734a8f	0.059397276
240	0x3dce9daa	0.10088666
241	0x3ab8ca37	0.0014098351
242	0xbd808888	-0.06276041
243	0x3d2e708d	0.042587806
244	0x3df6a4ee	0.120431766
245	0x3d701b3a	0.058619715
246	0x3d416b66	0.047221564
247	0xbdcfcb06	-0.101461455
248	0xbd19c676	-0.037542783
249	0x3cf1ec21	0.02953154
250	0xbddad28d	-0.106846906
251	0xbd097fa4	-0.033568993
252	0x3d02cfa9	0.03193632
253	0xbd0df185	-0.03465416
254	0x3d0e40e5	0.034729857
255	0x3db38af5	0.08766738

recurrent.weight_hh_l0 f4 [384, 128]
0	0xbd954329	-0.072882004
1	0xbd959ddd	-0.07305501
2	0xbd5965eb	-0.053075712
3	0xbcb1ab8c	-0.021688245
4	0x3da791ba	0.08182092
5	0xbce0de70	-0.027449816
6	0xbd6f7c2b	-0.058468025
7	0x3d512e4e	0.05106955
8	0xbd4f7add	-0.05065428
9	0x3c603357	0.013684115
10	0xbd903894	-0.070420414
11	0x3d425f76	0.04745432
12	0x3d48fc12	0.049068518
13	0xbd1c3df1	-0.03814501
14	0x3c6be87b	0.014398689
15	0xbd8070d0	-0.06271517
16	0x3d3becc7	0.045880105
17	0x3c7afbad	0.015318793
18	0x3d5c4740	0.053778887
19	0xbb354914	-0.0027661966
20	0x3ccb7152	0.024834309
21	0x3d90aa42	0.07063724
22	0xbdd91454	-0.105995804
23	0xbd3cf09a	-0.046127893
24	0xbdd7b0e2	-0.105317846
25	0xbd4fb8b5	-0.05071326
26	0x3cb429bb	0.021992555
27	0xbd86b990	-0.06578362
28	0x3bb79488	0.005602423
29	0xbdd0de64	-0.10198668
30	0xbd5e42af	-0.054262813
31	0xbd65cad6	-0.056101643
32	0xbd9fc947	-0.078020625
33	0xbda6db65	-0.08147315
34	0xbd146ae5	-0.036234755
35	0xbc1ef444	-0.009701792
36	0x3d85fa42	0.065418735
37	0x3ca5b3f8	0.020227417
38	0x3ccd5d80	0.025068998
39	0x3dbbc9a3	0.091693185
40	0x3db7ff41	0.08984233
41	0xbcc1459c	-0.023592763
42	0x3d1d0f92	0.038344927
43	0xbc9a789b	-0.018856337
44	0x3d9a1aea	0.07524665
45	0xbdc845ef	-0.09778964
46	0x3cb76750	0.02238813
47	0xbcaed160	-0.021340072
48	0x3d79cee0	0.060988307
49	0xbd3c7bac	-0.04601638
50	0xbd867666	-0.065655515
51	0xbdd56f65	-0.104216374
52	0x3d9f511a	0.07779141
53	0x3da4e0eb	0.08050712
54	0xbdae2922	-0.08503939
55	0x3d8d2b8c	0.068930715
56	0xbd956a5c	-0.07295677
57	0x3d28bd15	0.041195948
58	0xbdc50787	-0.09620576
59	0xbd89ade2	-0.06722619
60	0xbcee651b	-0.029100945
61	0xbd90f093	-0.07077136
62	0x3bbcc380	0.00576061
63	0x3d31c3b8	0.043399543
64	0x3cc2db52	0.02378622
65	0x3b9a880d	0.0047159255
66	0xbd8b6a60	-0.06807399
67	0xbd5bb2fe	-0.053637497
68	0xbc0b8f3c	-0.008518036
69	0x3d3c3bf4	0.045955613
70	0xbc7c06b1	-0.015382455
71	0x3dd91b4a	0.10600908
72	0x3cca1067	0.024666024
73	0x3d486fde	0.04893481
74	0xbcb92793	-0.022601878
75	0x3d35b823	0.04436506
76	0x3c885ae5	0.016644904
77	0x3da0f8b5	0.07859937
78	0x3dd91afe	0.106008515
79	0x3d778b9a	0.06043587
80	0xbb4c58c4	-0.0031180838
81	0x3dae628e	0.085148916
82	0x3bd18ea8	0.00639518
83	0x3dc065e8	0.09394437
84	0x3c70d61b	0.014699484
85	0x3c05d846	0.008169239
86	0x3d9409fc	0.07228467
87	0xbd05dd29	-0.032681618
88	0x3d08a832	0.03336353
89	0xbda92169	-0.082583256
90	0x3d6899ae	0.056787185
91	0x3db62710	0.08894169
92	0xbd398cf4	-0.04530044
93	0x3d434412	0.04767234
94	0xbdb70972	-0.089373484
95	0x3d56caea	0.052439608
96	0x3d4cd606	0.050008796
97	0x3d7fa810	0.062416136
98	0x3c8b2b81	0.016988518
99	0xbd26b7d6	-0.040702663
100	0xbba78d5c	-0.005113287
101	0xbdbae99e	-0.0912659
102	0x3dd94b25	0.10610036
103	0xbdb0c4e8	-0.08631307
104	0xbd976ad0	-0.0739342
105	0xbc90781b	-0.017635396
106	0x3dc23278	0.094822824
107	0xbd4c3979	-0.049859498
108	0x3d7623a6	0.06009259
109	0xbda20411	-0.07910932
110	0x3d9bdd14	0.07610527
111	0x3d763940	0.06011319
112	0xbd9cc4bb	-0.07654711
113	0x3d943eae	0.07238518
114	0x3c7dae3a	0.015483433
115	0xbdbff167	-0.09372216
116	0x3d9b1433	0.07572212
117	0x3d9177b9	0.071029134
118	0x3d2de4e8	0.04245463
119	0xbd029905	-0.031884212
120	0x3c9d6877	0.019214852
121	0xbd3d8823	-0.04627241
122	0x3ca23b11	0.019803556
123	0xbd02186f	-0.031761583
124	0x3dd2a590	0.10285485
125	0x3d3596b0	0.04433316
126	0x3d21e05e	0.039520614
127	0x3dd34e31	0.10317648
128	0x3d0d5903	0.034508716
129	0x3d8bb5b4	0.068217665
130	0x3d68b729	0.0568153
131	0xbd5df4ae	-0.054188423
132	0xbcc0fdee	-0.023558583
133	0xbd884031	-0.066528685
134	0x3dd5a7da	0.10432406
135	0x3d13b40b	0.036060374
136	0xbdc402c8	-0.09570843
137	0x3cdeaaea	0.027181108
138	0x3dc5199e	0.09624027
139	0x3caffdbd	0.021483297
140	0xbd64982a	-0.055809177
141	0x3cf419e1	0.029797496
142	0x3da84e9d	0.08218119
143	0xbd0e0d2a	-0.034680523
144	0xbd3d58b7	-0.046227183
145	0xbc49a4b0	-0.012307331
146	0xbba2ef04	-0.0049723405
147	0x3d8742a6	0.06604509
148	0xbcae9523	-0.021311348
149	0x3dbc9a40	0.09209108
150	0x3d8393b7	0.06424659
151	0xbdab9600	-0.083782196
152	0xbdbbf431	-0.09177435
153	0x3d87a6f6	0.06623642
154	0xbcf0a34e	-0.029374745
155	0xbd2552c9	-0.040362153
156	0xbdbbb1e2	-0.09164788
157	0xbbf38c8b	-0.0074325255
158	0xbc547a2b	-0.01296858
159	0x3d037ea8	0.03210321
160	0xbdca4259	-0.09875936
161	0x3c129784	0.008947257
162	0xbd8cd4f6	-0.068765566
163	0x3c4c6fda	0.012477839
164	0x3d7dcfcd	0.061965752
165	0x3ce3432f	0.027741997
166	0xbd84b8a9	-0.06480534
167	0xbc39fff0	-0.011352524
168	0x3d5cc0cb	0.0538948
169	0x3c847b99	0.016172217
170	0x3d863471	0.06552971
171	0x3cd52919	0.026020573
172	0x3da8557e	0.08219431
173	0x3a87b31d	0.0010353063
174	0x3d82ef5a	0.06393309
175	0x3dc0f51f	0.09421753
176	0x3ca07d1a	0.019590903
177	0x3dae4a8d	0.08510313
178	0x3b1f430f	0.0024301445
179	0xba55f907	-0.0008162413
180	0x3d881719	0.066450305
181	0xbd560877	-0.052254166
182	0x3d605df9	0.05477712
183	0x3d543519	0.05180845
184	0x3c51993c	0.012792882
185	0x3caaad13	0.020834481
186	0x3c1c958d	0.00955714
187	0x3d3c97e5	0.046043295
188	0x3d051d2f	0.032498535
189	0xbda3c32d	-0.07996211
190	0x3dbba7ce	0.091628656
191	0x3dc51182	0.0962248
192	0x3d179282	0.037004955
193	0xbcd456fa	-0.02592038
194	0xbc67e36e	-0.014153345
195	0x3d9697ab	0.07353147
196	0x3c53961c	0.012914207
197	0x3d8b776f	0.068098895
198	0xbdc88f09	-0.09792907
199	0xbcc1b069	-0.02364369
200	0xbd935a3f	-0.071949475
201	0x3dab8114	0.08374229
202	0x3cfe251b	0.031023553
203	0xbca4f0e6	-0.0201344
204	0x3db00a0f	0.085956685
205	0xbdc7bc23	-0.09752681
206	0xbdceed87	-0.101038985
207	0xbdd74788	-0.105116904
208	0x3c821d52	0.015883122
209	0xbdb9ef35	-0.09078828
210	0x3dbed3f0	0.093177676
211	0x3c640ab5	0.013918568
212	0x3daa4c3e	0.08315323
213	0xbb0765ad	-0.0020659969
214	0xbd817d62	-0.06322743
215	0xbd9320a3	-0.07183959
216	0x3d2efb07	0.042719867
217	0xbd5739fe	-0.05254554
218	0x3d876a8b	0.06612118
219	0xbda6357c	-0.0811567
220	0x3db5dbc1	0.08879805
221	0xbcc22987	-0.023701442
222	0x3baa82e6	0.0052035926
223	0xbce09961	-0.027416887
224	0x3da08c3f	0.0783925
225	0xbda3c0ae	-0.07995735
226	0xbdab8007	-0.08374029
227	0xbd2aed74	-0.04173036
228	0xbd8eb62e	-0.06968342
229	0xbdb40bd2	-0.08791317
230	0x3da4a3ff	0.08039092
231	0xbc2af274	-0.010433782
232	0xbd8e2bed	-0.06941972
233	0xbd42fbe3	-0.0476035
234	0x3d8a5d4e	0.06756078
235	0x3d9bdd5e	0.07610582
236	0xbdb29b3e	-0.08721016
237	0xbdb81a95	-0.08989445
238	0x3daf74b2	0.0856718
239	0xbd9bb1a2	-0.0760224
240	0x3d9942d1	0.07483447
241	0xbd9db462	-0.07700421
242	0x3d3e51b7	0.046464648
243	0xbd2dab94	-0.042399958
244	0xbcc37748	-0.023860589
245	0xbc3f2106	-0.011665588
246	0xbdd711aa	-0.10501416
247	0xbd22f49d	-0.039784063
248	0x3d5108ad	0.051033664
249	0xbcd17af1	-0.025571318
250	0x3cfd6515	0.030931989
251	0xbd09b145	-0.033616323
252	0xbdc8ad1e	-0.097986445
253	0x3ca61a98	0.020276353
254	0xbda67e0b	-0.081295095
255	0x3d1d47e5	0.038398642

recurrent.bias_ih_l0 f4 [384]
0	0x3ac2cbbc	0.0014861743
1	0xb9d0ba4e	-0.0003981166
2	0xb982bb2b	-0.00024934983
3	0x3a049995	0.0005058286
4	0x3ab4b4dd	0.0013786812
5	0x3ad4b15f	0.0016227177
6	0x39a29ddf	0.0003101667
7	0x3ad9c664	0.0016614911
8	0x3ae694d3	0.001759196
9	0xb7563541	-1.2767793e-05
10	0xb7d67627	-2.5565807e-05
11	0x3aceffe6	0.0015792816
12	0xbb00c3bf	-0.0019647924
13	0x3ad66760	0.0016357712
14	0xba0f05ba	-0.00054558704
15	0x39753525	0.00023384819
16	0x39b6fbeb	0.0003490144
17	0x3ae40ba8	0.0017398493
18	0xbad0a2bc	-0.0015917639
19	0x3af6bcaf	0.0018824543
20	0x3afa9ee3	0.0019120838
21	0x3aea7897	0.0017888722
22	0xbaee5a4f	-0.0018184873
23	0xb884a4ea	-6.324968e-05
24	0xb9e1031b	-0.00042917658
25	0xbae43002	-0.0017409327
26	0xb96ed1fa	-0.00022775671
27	0xbad94f64	-0.0016579446
28	0x39c53616	0.00037615065
29	0xba1cd1b7	-0.00059821777
30	0x39c39348	0.0003730303
31	0x39b77d4d	0.00034997836
32	0x3ade6bde	0.0016969403
33	0xbac8b6b5	-0.001531324
34	0x3b02f6e3	0.0019983582
35	0xbad63ef5	-0.0016345667
36	0x3adc3b56	0.0016802351
37	0xba55d47c	-0.0008156968
38	0x3acf3bd5	0.0015810678
39	0x3a0d8ff0	0.00054001715
40	0xbadadabd	-0.0016697269
41	0x3aee9c20	0.0018204488
42	0x3ade9284	0.0016980921
43	0xbafa7248	-0.0019107545
44	0xbade930c	-0.0016981079
45	0xba00866b	-0.00049028423
46	0x3aff472e	0.0019476169
47	0x3ad97471	0.0016590488
48	0x397e3881	0.00024244377
49	0x38e559de	0.0001093631
50	0x3ad5fea5	0.00163265
51	0x3a78a8a3	0.0009485578
52	0xbade678d	-0.0016968116
53	0xb9d25abe	-0.0004012193
54	0xbab23d24	-0.0013598544
55	0xbaea0ebb	-0.0017857173
56	0xb96072b7	-0.0002140504
57	0xbb01797b	-0.0019756246
58	0xbaee37e1	-0.0018174612
59	0xbaa88d65	-0.0012859522
60	0xb99313f2	-0.00028052885
61	0xb9e4b9bb	-0.0004362593
62	0xbadc8d21	-0.0016826728
63	0x3aee592b	0.0018184533
64	0x3a25bd62	0.0006322471
65	0x393ed6de	0.00018199856
66	0x3b015a40	0.001973763
67	0x3af4d36c	0.0018678731
68	0x3ae85340	0.0017725006
69	0xbaf8590b	-0.0018947435
70	0xb902e00a	-0.00012481227
71	0xb8082835	-3.2462372e-05
72	0x3901c65a	0.0001237629
73	0xbaf31307	-0.0018545099
74	0xbae02969	-0.0017102185
75	0x39d58c15	0.00040730895
76	0x3a437715	0.0007456404
77	0x39eda711	0.00045328637
78	0x3add3a38	0.0016878312
79	0x3ad922a1	0.0016566106
80	0xba7fe2ff	-0.0009761303
81	0x39b7039b	0.00034907166
82	0xbb01ea8d	-0.001982364
83	0x39d13f48	0.00039910735
84	0x38a582ab	7.892152e-05
85	0xbad4d3a9	-0.0016237396
86	0x3a6e4ce6	0.0009090438
87	0x3aeadd4a	0.0017918732
88	0xba06d1b8	-0.0005142945
89	0xbada0708	-0.0016634176
90	0xbae9f70f	-0.0017850118
91	0x3ae5f2f0	0.0017543714
92	0x39d9ecfb	0.0004156603
93	0x3ad2bd97	0.0016078231
94	0xbabda4c3	-0.0014468658
95	0xba0511cf	-0.0005076201
96	0x3af4a51e	0.0018664931
97	0xb9e8655f	-0.00044326016
98	0x39e51cd5	0.00043699765
99	0xbad13c6f	-0.0015963445
100	0x3ad13809	0.0015962134
101	0xb924df96	-0.00015723551
102	0xb8ae782d	-8.319351e-05
103	0xb9c2fe58	-0.00037192064
104	0xba31f68a	-0.00067887513
105	0x3aaf2e22	0.0013365189
106	0xb9d60599	-0.0004082143
107	0x3a037334	0.000501442
108	0xbacac736	-0.0015470746
109	0x39daf410	0.0004176204
110	0x3b01691d	0.001974649
111	0xb8a2d4fb	-7.764433e-05
112	0x394185bd	0.00018455736
113	0x3ab707a0	0.0013964064
114	0x3afa386c	0.0019090301
115	0x3ad1b086	0.0015998043
116	0x3aeffaf7	0.0018309046
117	0x3ae1a338	0.0017214781
118	0x3acf6780	0.0015823692
119	0x3a041bc5	0.00050395384
120	0x3afc7ebe	0.0019263846
121	0xba696e42	-0.00089046743
122	0x3ae4588a	0.0017421406
123	0x3afb7365	0.001918417
124	0x3a264168	0.0006342144
125	0x3ada7971	0.0016668272
126	0xbaa370ba	-0.0012469508
127	0xba6f6424	-0.00091320486
128	0xba6c752c	-0.00090201455
129	0xbb0184de	-0.0019763033
130	0x3aed467f	0.0018102675
131	0x3ab8c0d4	0.0014095553
132	0x3af6e914	0.0018837773
133	0xbb01f7f5	-0.0019831632
134	0xba9628a8	-0.0011456208
135	0xba363144	-0.000695009
136	0x3ae8c5eb	0.001775918
137	0xbaea40cc	-0.0017872094
138	0xbae8bb0f	-0.0017755943
139	0xbaf6455a	-0.0018788979
140	0xba43d382	-0.0007470177
141	0x3ad30c39	0.0016101665
142	0xbaf9919e	-0.001904059
143	0xba83c5b9	-0.0010053433
144	0x3af5f346	0.0018764518
145	0x3aea3532	0.0017868637
146	0x3ae7a66f	0.0017673502
147	0xbb02fcad	-0.0019987032
148	0x3b00e097	0.0019665116
149	0xbb02d6eb	-0.0019964527
150	0x394ae97d	0.00019351202
151	0xbb031e2b	-0.0020006995
152	0xb892260c	-6.968909e-05
153	0xbafd375a	-0.0019318864
154	0x3af1e604	0.0018455391
155	0x3af96232	0.0019026457
156	0x3afbc01a	0.0019207031
157	0xbb0233a8	-0.0019867215
158	0xbb02f8d5	-0.0019984741
159	0x3ae04018	0.0017108945
160	0xbb01c853	-0.001980324
161	0x3a9a1157	0.0011754435
162	0xbaffd7a9	-0.0019519228
163	0x3afd1afe	0.0019310412
164	0xb9ef95f9	-0.0004569737
165	0xba74f23d	-0.00093439576
166	0xbafd07ac	-0.0019304655
167	0x3ad3e74f	0.0016166958
168	0xbb00563b	-0.0019582647
169	0xbaba7418	-0.0014225272
170	0xba89bb7e	-0.0010508148
171	0x3aff4590	0.0019475687
172	0x3ac8a1ad	0.0015306972
173	0xbae3c6b3	-0.0017377943
174	0xb9252cfc	-0.00015752384
175	0x3a987738	0.001163221
176	0xbacb02c4	-0.0015488495
177	0xbaf5be1c	-0.0018748674
178	0x3aa6499e	0.0012686735
179	0xbaeb7ecd	-0.0017966867
180	0xb8028a73	-3.1123356e-05
181	0xbab94ee6	-0.0014137893
182	0x3ad21dfd	0.0016030666
183	0x3afe6e6a	0.0019411568
184	0x3afe2907	0.0019390889
185	0xbb03687b	-0.002005129
186	0x398b5bf9	0.0002658067
187	0xbaff37c3	-0.0019471574
188	0x3aefa120	0.0018282272
189	0xbb002fd6	-0.0019559762
190	0xb97ddcbf	-0.00024210195
191	0x3af29497	0.0018507418
192	0x3a2d7e9a	0.00066182914
193	0x3afe04ae	0.0019380057
194	0x3ae9e870	0.0017845761
195	0xbb019ed2	-0.0019778502
196	0xbac9edc9	-0.0015405949
197	0x3acbab6b	0.0015538757
198	0xbafe80cb	-0.0019417045
199	0xba9bdac0	-0.0011890754
200	0x3a47e3a3	0.0007625168
201	0xbae3a534	-0.001736796
202	0x3ae64aea	0.0017569934
203	0xb9252ba4	-0.00015751884
204	0x3afa5a3c	0.0019100378
205	0xb9401da7	-0.00018321593
206	0x3a48a411	0.00076538423
207	0xbb016c91	-0.0019748549
208	0x39c938e6	0.000383801
209	0xbae055e2	-0.0017115439
210	0xbaf71164	-0.0018849787
211	0xbafdab64	-0.0019353447
212	0xbad83198	-0.0016494272
213	0xba707a2c	-0.00091734785
214	0xbafc2576	-0.0019237238
215	0xb9d9a769	-0.00041514196
216	0x3aff0430	0.0019456204
217	0x3ac8558b	0.0015284283
218	0xbb0179ea	-0.0019756504
219	0x3af5841c	0.0018731388
220	0xbae100a1	-0.0017166325
221	0x3a5cf556	0.0008428892
222	0xbafb1140	-0.0019154921
223	0xbad6638d	-0.0016356573
224	0x3a6f6638	0.0009132358
225	0xba099ad7	-0.0005249208
226	0xb9a43618	-0.0003132082
227	0xbb0319d9	-0.002000442
228	0xbafce9f1	-0.0019295794
229	0xba1188e2	-0.0005551708
230	0xbaf3df44	-0.0018605967
231	0xba3269b6	-0.0006805913
232	0x3b00214d	0.0019551099
233	0xbacde74b	-0.001570919
234	0xbad5b1cc	-0.0016303598
235	0x3b0261cb	0.0019894715
236	0xbb028a4f	-0.0019918864
237	0x3ae4c4cf	0.0017453673
238	0xbb030b7e	-0.0019995864
239	0x3af7f16f	0.0018916557
240	0xbb036390	-0.0020048358
241	0x3aea19b2	0.0017860441
242	0xbae94bd3	-0.0017799087
243	0x3b01f397	0.0019829029
244	0xbb017e2f	-0.001975905
245	0x3aed594a	0.0018108275
246	0x3b006f87	0.0019597725
247	0xbb021d47	-0.0019853876
248	0xbb014ea1	-0.0019730704
249	0x3af9f994	0.0019071572
250	0xb9a4737c	-0.0003136656
251	0xbae5f9ee	-0.0017545798
252	0x3afe12cc	0.0019384264
253	0x3ac41ebb	0.0014962772
254	0x3b00dec3	0.0019664026
255	0x3b01094f	0.0019689386

recurrent.bias_hh_l0 f4 [384]
0	0x3ac2cbbc	0.0014861743
1	0xb9d0ba4e	-0.0003981166
2	0xb982bb2b	-0.00024934983
3	0x3a049995	0.0005058286
4	0x3ab4b4dd	0.0013786812
5	0x3ad4b15f	0.0016227177
6	0x39a29ddf	0.0003101667
7	0x3ad9c664	0.0016614911
8	0x3ae694d3	0.001759196
9	0xb7563541	-1.2767793e-05
10	0xb7d67627	-2.5565807e-05
11	0x3aceffe6	0.0015792816
12	0xbb00c3bf	-0.0019647924
13	0x3ad66760	0.0016357712
14	0xba0f05ba	-0.00054558704
15	0x39753525	0.00023384819
16	0x39b6fbeb	0.0003490144
17	0x3ae40ba8	0.0017398493
18	0xbad0a2bc	-0.0015917639
19	0x3af6bcaf	0.0018824543
20	0x3afa9ee3	0.0019120838
21	0x3aea7897	0.0017888722
22	0xbaee5a4f	-0.0018184873
23	0xb884a4ea	-6.324968e-05
24	0xb9e1031b	-0.00042917658
25	0xbae43002	-0.0017409327
26	0xb96ed1fa	-0.00022775671
27	0xbad94f64	-0.0016579446
28	0x39c53616	0.00037615065
29	0xba1cd1b7	-0.00059821777
30	0x39c39348	0.0003730303
31	0x39b77d4d	0.00034997836
32	0x3ade6bde	0.0016969403
33	0xbac8b6b5	-0.001531324
34	0x3b02f6e3	0.0019983582
35	0xbad63ef5	-0.0016345667
36	0x3adc3b56	0.0016802351
37	0xba55d47c	-0.0008156968
38	0x3acf3bd5	0.0015810678
39	0x3a0d8ff0	0.00054001715
40	0xbadadabd	-0.0016697269
41	0x3aee9c20	0.0018204488
42	0x3ade9284	0.0016980921
43	0xbafa7248	-0.0019107545
44	0xbade930c	-0.0016981079
45	0xba00866b	-0.00049028423
46	0x3aff472e	0.0019476169
47	0x3ad97471	0.0016590488
48	0x397e3881	0.00024244377
49	0x38e559de	0.0001093631
50	0x3ad5fea5	0.00163265
51	0x3a78a8a3	0.0009485578
52	0xbade678d	-0.0016968116
53	0xb9d25abe	-0.0004012193
54	0xbab23d24	-0.0013598544
55	0xbaea0ebb	-0.0017857173
56	0xb96072b7	-0.0002140504
57	0xbb01797b	-0.0019756246
58	0xbaee37e1	-0.0018174612
59	0xbaa88d65	-0.0012859522
60	0xb99313f2	-0.00028052885
61	0xb9e4b9bb	-0.0004362593
62	0xbadc8d21	-0.0016826728
63	0x3aee592b	0.0018184533
64	0x3a25bd62	0.0006322471
65	0x393ed6de	0.00018199856
66	0x3b015a40	0.001973763
67	0x3af4d36c	0.0018678731
68	0x3ae85340	0.0017725006
69	0xbaf8590b	-0.0018947435
70	0xb902e00a	-0.00012481227
71	0xb8082835	-3.2462372e-05
72	0x3901c65a	0.0001237629
73	0xbaf31307	-0.0018545099
74	0xbae02969	-0.0017102185
75	0x39d58c15	0.00040730895
76	0x3a437715	0.0007456404
77	0x39eda711	0.00045328637
78	0x3add3a38	0.0016878312
79	0x3ad922a1	0.0016566106
80	0xba7fe2ff	-0.0009761303
81	0x39b7039b	0.00034907166
82	0xbb01ea8d	-0.001982364
83	0x39d13f48	0.00039910735
84	0x38a582ab	7.892152e-05
85	0xbad4d3a9	-0.0016237396
86	0x3a6e4ce6	0.0009090438
87	0x3aeadd4a	0.0017918732
88	0xba06d1b8	-0.0005142945
89	0xbada0708	-0.0016634176
90	0xbae9f70f	-0.0017850118
91	0x3ae5f2f0	0.0017543714
92	0x39d9ecfb	0.0004156603
93	0x3ad2bd97	0.0016078231
94	0xbabda4c3	-0.0014468658
95	0xba0511cf	-0.0005076201
96	0x3af4a51e	0.0018664931
97	0xb9e8655f	-0.00044326016
98	0x39e51cd5	0.00043699765
99	0xbad13c6f	-0.0015963445
100	0x3ad13809	0.0015962134
101	0xb924df96	-0.00015723551
102	0xb8ae782d	-8.319351e-05
103	0xb9c2fe58	-0.00037192064
104	0xba31f68a	-0.00067887513
105	0x3aaf2e22	0.0013365189
106	0xb9d60599	-0.0004082143
107	0x3a037334	0.000501442
108	0xbacac736	-0.0015470746
109	0x39daf410	0.0004176204
110	0x3b01691d	0.001974649
111	0xb8a2d4fb	-7.764433e-05
112	0x394185bd	0.00018455736
113	0x3ab707a0	0.0013964064
114	0x3afa386c	0.0019090301
115	0x3ad1b086	0.0015998043
116	0x3aeffaf7	0.0018309046
117	0x3ae1a338	0.0017214781
118	0x3acf6780	0.0015823692
119	0x3a041bc5	0.00050395384
120	0x3afc7ebe	0.0019263846
121	0xba696e42	-0.00089046743
122	0x3ae4588a	0.0017421406
123	0x3afb7365	0.001918417
124	0x3a264168	0.0006342144
125	0x3ada7971	0.0016668272
126	0xbaa370ba	-0.0012469508
127	0xba6f6424	-0.00091320486
128	0xba6c752c	-0.00090201455
129	0xbb0184de	-0.0019763033
130	0x3aed467f	0.0018102675
131	0x3ab8c0d4	0.0014095553
132	0x3af6e914	0.0018837773
133	0xbb01f7f5	-0.0019831632
134	0xba9628a8	-0.0011456208
135	0xba363144	-0.000695009
136	0x3ae8c5eb	0.001775918
137	0xbaea40cc	-0.0017872094
138	0xbae8bb0f	-0.0017755943
139	0xbaf6455a	-0.0018788979
140	0xba43d382	-0.0007470177
141	0x3ad30c39	0.0016101665
142	0xbaf9919e	-0.001904059
143	0xba83c5b9	-0.0010053433
144	0x3af5f346	0.0018764518
145	0x3aea3532	0.0017868637
146	0x3ae7a66f	0.0017673502
147	0xbb02fcad	-0.0019987032
148	0x3b00e097	0.0019665116
149	0xbb02d6eb	-0.0019964527
150	0x394ae97d	0.00019351202
151	0xbb031e2b	-0.0020006995
152	0xb892260c	-6.968909e-05
153	0xbafd375a	-0.0019318864
154	0x3af1e604	0.0018455391
155	0x3af96232	0.0019026457
156	0x3afbc01a	0.0019207031
157	0xbb0233a8	-0.0019867215
158	0xbb02f8d5	-0.0019984741
159	0x3ae04018	0.0017108945
160	0xbb01c853	-0.001980324
161	0x3a9a1157	0.0011754435
162	0xbaffd7a9	-0.0019519228
163	0x3afd1afe	0.0019310412
164	0xb9ef95f9	-0.0004569737
165	0xba74f23d	-0.00093439576
166	0xbafd07ac	-0.0019304655
167	0x3ad3e74f	0.0016166958
168	0xbb00563b	-0.0019582647
169	0xbaba7418	-0.0014225272
170	0xba89bb7e	-0.0010508148
171	0x3aff4590	0.0019475687
172	0x3ac8a1ad	0.0015306972
173	0xbae3c6b3	-0.0017377943
174	0xb9252cfc	-0.00015752384
175	0x3a987738	0.001163221
176	0xbacb02c4	-0.0015488495
177	0xbaf5be1c	-0.0018748674
178	0x3aa6499e	0.0012686735
179	0xbaeb7ecd	-0.0017966867
180	0xb8028a73	-3.1123356e-05
181	0xbab94ee6	-0.0014137893
182	0x3ad21dfd	0.0016030666
183	0x3afe6e6a	0.0019411568
184	0x3afe2907	0.0019390889
185	0xbb03687b	-0.002005129
186	0x398b5bf9	0.0002658067
187	0xbaff37c3	-0.0019471574
188	0x3aefa120	0.0018282272
189	0xbb002fd6	-0.0019559762
190	0xb97ddcbf	-0.00024210195
191	0x3af29497	0.0018507418
192	0x3a2d7e9a	0.00066182914
193	0x3afe04ae	0.0019380057
194	0x3ae9e870	0.0017845761
195	0xbb019ed2	-0.0019778502
196	0xbac9edc9	-0.0015405949
197	0x3acbab6b	0.0015538757
198	0xbafe80cb	-0.0019417045
199	0xba9bdac0	-0.0011890754
200	0x3a47e3a3	0.0007625168
201	0xbae3a534	-0.001736796
202	0x3ae64aea	0.0017569934
203	0xb9252ba4	-0.00015751884
204	0x3afa5a3c	0.0019100378
205	0xb9401da7	-0.00018321593
206	0x3a48a411	0.00076538423
207	0xbb016c91	-0.0019748549
208	0x39c938e6	0.000383801
209	0xbae055e2	-0.0017115439
210	0xbaf71164	-0.0018849787
211	0xbafdab64	-0.0019353447
212	0xbad83198	-0.0016494272
213	0xba707a2c	-0.00091734785
214	0xbafc2576	-0.0019237238
215	0xb9d9a769	-0.00041514196
216	0x3aff0430	0.0019456204
217	0x3ac8558b	0.0015284283
218	0xbb0179ea	-0.0019756504
219	0x3af5841c	0.0018731388
220	0xbae100a1	-0.0017166325
221	0x3a5cf556	0.0008428892
222	0xbafb1140	-0.0019154921
223	0xbad6638d	-0.0016356573
224	0x3a6f6638	0.0009132358
225	0xba099ad7	-0.0005249208
226	0xb9a43618	-0.0003132082
227	0xbb0319d9	-0.002000442
228	0xbafce9f1	-0.0019295794
229	0xba1188e2	-0.0005551708
230	0xbaf3df44	-0.0018605967
231	0xba3269b6	-0.0006805913
232	0x3b00214d	0.0019551099
233	0xbacde74b	-0.001570919
234	0xbad5b1cc	-0.0016303598
235	0x3b0261cb	0.0019894715
236	0xbb028a4f	-0.0019918864
237	0x3ae4c4cf	0.0017453673
238	0xbb030b7e	-0.0019995864
239	0x3af7f16f	0.0018916557
240	0xbb036390	-0.0020048358
241	0x3aea19b2	0.0017860441
242	0xbae94bd3	-0.0017799087
243	0x3b01f397	0.0019829029
244	0xbb017e2f	-0.001975905
245	0x3aed594a	0.0018108275
246	0x3b006f87	0.0019597725
247	0xbb021d47	-0.0019853876
248	0xbb014ea1	-0.0019730704
249	0x3af9f994	0.0019071572
250	0xb9a4737c	-0.0003136656
251	0xbae5f9ee	-0.0017545798
252	0x3afe12cc	0.0019384264
253	0x3ac41ebb	0.0014962772
254	0x3b00dec3	0.0019664026
255	0x3b01094f	0.0019689386

recurrent.weight_ih_l1 f4 [384, 128]
0	0x3d3097db	0.04311357
1	0x3da2e153	0.079531334
2	0x3dcf9d59	0.101374336
3	0x3c586fa9	0.013210216
4	0x3c1c51c6	0.009540981
5	0xbc814d39	-0.015783893
6	0xbdbd8363	-0.09253576
7	0xbc6632fc	-0.014050242
8	0xbdbaf9df	-0.091296904
9	0xbd6e122b	-0.058122795
10	0x3d828ee7	0.06374913
11	0xbcee599e	-0.029095467
12	0xbd91f934	-0.0712761
13	0x3d0ef1ab	0.03489844
14	0x3d041079	0.032242272
15	0xbc5048fb	-0.012712712
16	0x3db7fce4	0.08983782
17	0x3da7f014	0.08200088
18	0xbc986ccc	-0.018606566
19	0xbc776c73	-0.01510154
20	0xbd6f7901	-0.058465008
21	0xbd6af222	-0.057359822
22	0x3d09eeb0	0.033674896
23	0x3db4e0fa	0.088319734
24	0xbdb679c8	-0.08909947
25	0xbbf9c4b8	-0.0076223277
26	0xbd2e07c9	-0.042487893
27	0x3b9e198f	0.004824824
28	0x3d87d98f	0.06633293
29	0x3cd9b59e	0.02657586
30	0x3d41719b	0.047227483
31	0xbdb10ad9	-0.08644647
32	0xbb9533da	-0.0045533003
33	0x3d0641d5	0.032777626
34	0xbd461fc0	-0.048370123
35	0x3d213aaf	0.039362606
36	0x3db7c40d	0.089729406
37	0x3d0b5058	0.03401217
38	0xbc450706	-0.0120256
39	0xbcaaae8a	-0.02083518
40	0xbdd5e52f	-0.10444104
41	0x3db60a0f	0.08888637
42	0x3d4cc385	0.04999115
43	0x3dc8b9fd	0.098010994
44	0xbd45a2d9	-0.048251007
45	0xbdd6a899	-0.10481376
46	0xbd4cec9a	-0.05003033
47	0x3da61e5d	0.0811126
48	0x3aab7d4f	0.001308361
49	0x3c6f88a0	0.014619976
50	0x39c38570	0.00037292717
51	0xbcfe208d	-0.03102138
52	0xbc2e1012	-0.010623949
53	0x3c9ce6ce	0.019153025
54	0xbd6208a7	-0.055184033
55	0xbdbc5739	-0.09196324
56	0x3d46ab45	0.04850318
57	0xbd10ab59	-0.03531966
58	0x3dbfd2c1	0.0936637
59	0xbdba9612	-0.09110655
60	0xbdd3f299	-0.10349006
61	0xbdc6f48e	-0.09714614
62	0x3c8ff294	0.017571725
63	0xbcf750f5	-0.03018997
64	0x3dab3b61	0.08360935
65	0x3d232af4	0.039835885
66	0x3da7799d	0.08177493
67	0x3dbed192	0.09317316
68	0xbc918e4e	-0.017768051
69	0xbc9f4f13	-0.019446885
70	0xbdbe0635	-0.09278528
71	0x3dd6e4e0	0.10492873
72	0x3cae67f8	0.02128981
73	0xbd03c970	-0.032174528
74	0x3d12b70b	0.035819095
75	0x3db05391	0.08609689
76	0xbd5e5a94	-0.0542856
77	0xbd9c5247	-0.07632881
78	0x3db663fb	0.089057885
79	0x3d853bb5	0.06505529
80	0xbbd76cf8	-0.0065742694
81	0xbd7f85e6	-0.062383555
82	0x3db73ffb	0.0894775
83	0xb99f29fe	-0.0003035813
84	0x3d5ad0e1	0.05342186
85	0x3d599936	0.05312463
86	0xbda303d0	-0.079597116
87	0xbdd1e815	-0.10249344
88	0x3c893893	0.01675061
89	0x3cc9b8df	0.024624286
90	0xbcdb38f9	-0.026760565
91	0x3cfcc741	0.03085673
92	0x3dd2223e	0.102604374
93	0x3ca57533	0.020197487
94	0x3cd3756b	0.025812825
95	0xbdaf7780	-0.08567715
96	0x3d80f3e6	0.0629652
97	0xbdc4d7d1	-0.09611476
98	0x3ca98610	0.020693809
99	0x3d9c8883	0.07643225
100	0x3d95aea2	0.07308699
101	0xbd30f8b5	-0.043205936
102	0xbd09467d	-0.03351449
103	0xbdd6fe89	-0.104977675
104	0xbbab75e2	-0.0052325586
105	0xbcf80259	-0.030274557
106	0xbc81c20a	-0.015839595
107	0xbd02b3c9	-0.031909738
108	0xbda1917d	-0.07889078
109	0x3da94fc6	0.08267169
110	0x3da72154	0.08160654
111	0x3a7c498c	0.00096239964
112	0xbb324695	-0.0027202715
113	0xbd1c31a9	-0.038133297
114	0x3d1ef83c	0.038810953
115	0x3cb7985b	0.022411516
116	0xbda160d4	-0.078797966
117	0x3dc9bd3d	0.098505475
118	0xbd3d67d6	-0.046241604
119	0xbd70473c	-0.058661684
120	0x3a95a96c	0.001141829
121	0xbc84b2c6	-0.016198527
122	0xbbaf8661	-0.0053565954
123	0x3dc31969	0.09526331
124	0x3cd42a0b	0.025898954
125	0x3a82a14a	0.0009966281
126	0xbda0aa6a	-0.07845004
127	0xbcc804a4	-0.024416275
128	0xbcb2d6b6	-0.021830898
129	0xbd84e884	-0.06489661
130	0xbd6be3e5	-0.057590384
131	0xbd55a56f	-0.052159723
132	0x3da62fab	0.08114561
133	0xbd55491d	-0.05207168
134	0x3dd15dd9	0.10222978
135	0xbb854f7e	-0.004068314
136	0xbd2a2b6d	-0.04154532
137	0x3db8a8f9	0.09016604
138	0x3d8125ca	0.06306036
139	0x3dc120ac	0.0943006
140	0x3cf05471	0.02933714
141	0xbd8868dc	-0.06660625
142	0xbd9493d5	-0.07254759
143	0xbd578b11	-0.05262286
144	0x3d2cf77c	0.042228207
145	0xbd903ac9	-0.070424624
146	0xbd7b716d	-0.061387468
147	0xbdb56689	-0.08857448
148	0xbd3e7484	-0.046497837
149	0xbd9b130b	-0.075719915
150	0xbd3f51a2	-0.04670871
151	0x3b4c739c	0.0031196838
152	0xbd5aee9f	-0.053450223
153	0xbc5bdb2d	-0.013418955
154	0x3dbc9271	0.09207619
155	0x3bf0f5b8	0.0073535107
156	0xbda89935	-0.08232347
157	0x3d42eb31	0.047587577
158	0xbd91092a	-0.07081826
159	0xbd757e38	-0.059934825
160	0xbd95ca75	-0.07314006
161	0x3d09b970	0.033624113
162	0x3d9e2591	0.07722009
163	0x3d445561	0.047932986
164	0x3d8118c6	0.06303553
165	0x3cf8f3b0	0.030389637
166	0x3dc5a83c	0.09651229
167	0xbdaba9ac	-0.08381972
168	0xbda3af0d	-0.07992373
169	0xbdbe1eea	-0.0928324
170	0x3b46a539	0.0030310883
171	0x3d834776	0.064101145
172	0xbdac2f61	-0.08407474
173	0x3da59aaf	0.08086144
174	0x3dcbaf98	0.09945601
175	0x3d757993	0.059930395
176	0xbdbe1d08	-0.09282881
177	0x3dc83c1d	0.09777091
178	0x3dc4ad15	0.09603325
179	0x3d7bc101	0.06146336
180	0x3c059243	0.008152547
181	0xbbe89164	-0.00709741
182	0x3c8f55f2	0.017497037
183	0x3cb409a3	0.021977251
184	0xbc81453f	-0.01578009
185	0xbdd5b8ae	-0.104356155
186	0xbd955a1b	-0.07292577
187	0xbdbb29bd	-0.0913882
188	0xbced85f3	-0.028994536
189	0x3dce4ec5	0.10073618
190	0xbdd5538e	-0.104163274
191	0xbd6526a4	-0.055945054
192	0x3d48e22a	0.04904381
193	0xbd8fde85	-0.07024864
194	0x3d034a06	0.032053016
195	0xbd8f5218	-0.0699808
196	0x3d08d5a8	0.033406883
197	0xbd7332a7	-0.059374478
198	0x3ca17394	0.019708432
199	0xbd4b716e	-0.04966872
200	0xbc2640d0	-0.010147288
201	0xbd82f656	-0.06394641
202	0x3d888779	0.06666464
203	0x3cd47f8b	0.025939723
204	0xbd7d0368	-0.061770827
205	0xbdb8d4fd	-0.09024999
206	0xbc9cacc2	-0.019125346
207	0x3c3bd2f6	0.011463871
208	0xbbfeb23e	-0.007772713
209	0xbd65c561	-0.05609644
210	0xbba25a29	-0.0049545956
211	0x3c6c86e8	0.014436461
212	0xbd0ee238	-0.034883708
213	0x3d31aad8	0.04337582
214	0x3cb6d3e0	0.022317827
215	0x3c9b24f7	0.018938525
216	0xbc006524	-0.007836614
217	0xbdab4849	-0.08363397
218	0x3bd1d909	0.0064040464
219	0xbdd1070e	-0.10206424
220	0x3d07cf3c	0.03315662
221	0xbdd89b4e	-0.10576497
222	0x3cbdaec1	0.023154618
223	0x3db6e668	0.08930665
224	0x3dba6906	0.09102063
225	0x3da90203	0.08252337
226	0xbd71ff91	-0.059081618
227	0x3c7c5acf	0.01540251
228	0xbd8fdb28	-0.070242226
229	0x3d2b2cd7	0.04179081
230	0xbd054e99	-0.03254566
231	0xbd662bc2	-0.056194074
232	0xbdaa6a53	-0.08321061
233	0x3ccf202a	0.025283892
234	0xbca78f56	-0.02045409
235	0xbd0cf1fd	-0.034410466
236	0x3dcd175b	0.1001422
237	0xbdb6553c	-0.08902976
238	0x3d975474	0.07389155
239	0xbd91dde7	-0.07122403
240	0xbd18a62e	-0.037267856
241	0x3d92a681	0.07160664
242	0x3a938abb	0.0011256555
243	0xbd12053d	-0.035649527
244	0x3c30b88a	0.010786185
245	0x3da10b00	0.07863426
246	0x3dc898c6	0.09794764
247	0xbdb8e5eb	-0.09028228
248	0x3dcd8820	0.100357294
249	0x3d9effb5	0.07763616
250	0xbd5b3a8d	-0.053522635
251	0x3dd2af50	0.102873445
252	0xbdd7dce5	-0.10540179
253	0x3ced10ed	0.028938735
254	0xbcdcb44e	-0.026941445
255	0xbd60b883	-0.054863464

recurrent.weight_hh_l1 f4 [384, 128]
0	0xbd537e63	-0.051634204
1	0x3c9e38cb	0.01931419
2	0xbc3e45ea	-0.0116133485
3	0x3d9836d7	0.07432335
4	0x3d56c3bf	0.05243277
5	0xbdce07f5	-0.100601114
6	0x3dced99f	0.10100102
7	0xbd6fc3b7	-0.058536258
8	0x3d6abd09	0.057309184
9	0x3c10ad62	0.0088304
10	0x3d20c3ac	0.039249107
11	0xbb66b049	-0.003520029
12	0x3da41f69	0.080138035
13	0x3d8f13eb	0.06986221
14	0x3cf26656	0.029589813
15	0xba172dc9	-0.00057670154
16	0xbc8b6675	-0.017016629
17	0x3c6a6bb1	0.014307902
18	0x3cdc9456	0.0269262
19	0xbd79e5b0	-0.061010063
20	0x3daa1014	0.08303848
21	0xbd46e1ef	-0.04855531
22	0x3d3bdf37	0.04586717
23	0x3d8a0a5a	0.06740256
24	0x3c29295b	0.010324801
25	0xbd954436	-0.07288401
26	0x3cbd5636	0.023112398
27	0xbd23c567	-0.03998318
28	0x3d80f634	0.062969595
29	0xbd3f91cc	-0.046769902
30	0x3db4a522	0.08820559
31	0x3d8b3813	0.06797805
32	0xbd6ab504	-0.057301536
33	0xbd835074	-0.064118296
34	0xbdd1c8c0	-0.10243368
35	0xbda63e23	-0.081173204
36	0xbb0049b6	-0.0019575185
37	0xbc26121b	-0.010136153
38	0xbcada650	-0.021197468
39	0x3c96608e	0.018356588
40	0xbd51653b	-0.05112193
41	0x3d126014	0.03573616
42	0xbcdc2621	-0.02687365
43	0xbc695464	-0.014241312
44	0xbd6a93fc	-0.057270035
45	0x3cfc0007	0.030761732
46	0x3dc909f8	0.098163545
47	0xbdbb9ecf	-0.0916115
48	0xbd8cdf35	-0.06878511
49	0xbdb3f64f	-0.08787214
50	0xbcd0562e	-0.025431719
51	0xbd97f31d	-0.07419417
52	0x3d14c2e0	0.03631866
53	0x3dd0b8fd	0.10191534
54	0xbcb98efa	-0.022651184
55	0x3dbb8763	0.09156682
56	0xbc984901	-0.018589498
57	0x3d60d83a	0.05489371
58	0xbd06314a	-0.03276185
59	0x3db53207	0.088474326
60	0xbd6e6b0f	-0.058207568
61	0x3cbea20e	0.023270633
62	0x3d4c8cd5	0.049938995
63	0xbaefae8d	-0.0018286273
64	0x3d7a373b	0.061087828
65	0x3d70fcfc	0.058835015
66	0x3d1a0203	0.037599575
67	0xbdad27f8	-0.08454889
68	0xbdca20d3	-0.09869542
69	0x3cc47776	0.023982745
70	0xbce82f5e	-0.028342899
71	0xbd0aff4c	-0.033934876
72	0xbb9a134f	-0.004702009
73	0x3c853fe7	0.016265823
74	0xbb87665c	-0.0041320752
75	0x3d9ce00b	0.0765992
76	0x3ca594a0	0.020212471
77	0x3d92b95c	0.07164261
78	0xbd3e9a9c	-0.046534166
79	0x3caa0b25	0.020757267
80	0xbdc343da	-0.09534426
81	0xbdc8d836	-0.09806864
82	0x3d0edb16	0.034876905
83	0x3d248173	0.040162515
84	0xbaf62488	-0.0018779198
85	0x3d14c0c6	0.036316656
86	0xbd8402d3	-0.06445851
87	0xbb92087a	-0.004456577
88	0xbdbe16e7	-0.09281712
89	0xbd67a511	-0.056553904
90	0x3d96c81c	0.073623866
91	0x3ccf46a5	0.02530224
92	0xbd93b7dd	-0.072128035
93	0x3b619fcc	0.0034427522
94	0x3da94994	0.08265987
95	0x3b8fed46	0.004392299
96	0x3d9c6a36	0.07637446
97	0x3cf7cdcc	0.030249499
98	0xbd3a3ebc	-0.045469984
99	0xbab0538a	-0.0013452631
100	0xbd437486	-0.047718547
101	0xbda22e9d	-0.07919047
102	0x3ce1239a	0.027482796
103	0x3c638a6d	0.013887984
104	0xbce4682e	-0.027881708
105	0x3d99a668	0.075024426
106	0xbd763395	-0.060107786
107	0x3d4adde6	0.049528025
108	0x3d8648d4	0.065568596
109	0xbd9c1366	-0.076208875
110	0x3d4bb357	0.04973158
111	0xbd7d347a	-0.061817624
112	0xbd541f5d	-0.051787723
113	0x3da081dd	0.078372695
114	0xbd94743a	-0.07248731
115	0xbc24c263	-0.010056111
116	0xbda9e617	-0.08295839
117	0xbdae7ccc	-0.08519897
118	0x3d91bc42	0.071159855
119	0xbdd91a33	-0.106007
120	0x3d3ecfa7	0.04658475
121	0xbdcb2b83	-0.099204086
122	0x3d33facf	0.04394036
123	0x3ce50db7	0.027960641
124	0xbbadce20	-0.005304113
125	0x3dc60a8e	0.09669982
126	0xbca278cb	-0.01983299
127	0x3d0d25d6	0.03445991
128	0xbd60ee33	-0.054914664
129	0x3d533e4a	0.051573075
130	0x3c953965	0.018215844
131	0x3cd32b5f	0.025777517
132	0x3d7b6929	0.061379585
133	0xbd8a7c8a	-0.06762035
134	0xbdbb53c7	-0.09146839
135	0x3d8d30b1	0.06894053
136	0xbd579ebc	-0.052641615
137	0x3dabd604	0.083904296
138	0x3d7582d3	0.059939217
139	0xbdd92742	-0.10603191
140	0x3d9e8d39	0.0774178
141	0x3d96bc55	0.0736014
142	0xbd894d81	-0.06704236
143	0x3d7da37b	0.061923485
144	0x3dcb85f4	0.09937659
145	0x3d5a2081	0.053253654
146	0xbd887616	-0.06663148
147	0xbd5dd8b9	-0.05416176
148	0xbd9e4a28	-0.07728988
149	0x3ba65be7	0.0050768736
150	0xbca785f4	-0.020449616
151	0xbda3b8cd	-0.07994232
152	0x3b1bf7d0	0.002379883
153	0x3b9c81b3	0.0047762035
154	0xba94003f	-0.0011291577
155	0xbd4503a4	-0.048099175
156	0x3d20d6e3	0.039267432
157	0xbd96fec2	-0.0737281
158	0x3cdd213c	0.026993386
159	0xbc600100	-0.013672113
160	0x3d9d59f6	0.07683174
161	0xbdd16e27	-0.10226088
162	0x3db55db0	0.0885576
163	0x3c1e0483	0.00964463
164	0xbc4284a7	-0.011872447
165	0x3d593d03	0.0530367
166	0xbd0b5f9e	-0.034026735
167	0x3dc8f4e8	0.09812337
168	0x3d727175	0.059190232
169	0x3dcbfd71	0.099604495
170	0x3d276d7d	0.0408759
171	0xbdc2a9fd	-0.09505079
172	0xbd5e2866	-0.054237746
173	0x3d973cd2	0.073846474
174	0x3db7002d	0.089355804
175	0xbcfe70d9	-0.03105967
176	0x3db94ea5	0.090482034
177	0xbd941091	-0.07229722
178	0x3cbdeee9	0.02318521
179	0x3d76aa7e	0.060221188
180	0xbdae8d22	-0.08523013
181	0x3d3cf813	0.04613502
182	0xbd39630d	-0.045260478
183	0xbdb18a0a	-0.08668907
184	0xbca5fc48	-0.020261899
185	0xbdc4a2e9	-0.09601385
186	0xbc9ad320	-0.0188995
187	0x3d55d91e	0.052209012
188	0x3cacea69	0.02110787
189	0xbdc63af0	-0.0967921
190	0xbd9f7e6b	-0.07787784
191	0xbc90c97d	-0.017674202
192	0xbd635bb6	-0.055507384
193	0xbdcd2305	-0.10016445
194	0xbd9d07ce	-0.07667504
195	0xbc7d3ad3	-0.015455919
196	0xbd25e8d5	-0.04050525
197	0xbdb4ff9a	-0.08837815
198	0x3d18726c	0.037218496
199	0x3c98d9d3	0.018658554
200	0xbb84be5d	-0.0040510134
201	0xbdce385e	-0.10069345
202	0xbdadfa93	-0.08495059
203	0x3d705c75	0.058681924
204	0x3c08aa0d	0.0083413245
205	0x3dc3df29	0.09564049
206	0x3d21d8e8	0.0395135
207	0x3db7d688	0.089764655
208	0xbd0574a0	-0.032581925
209	0xbd6259cb	-0.055261414
210	0x3cb0d91d	0.021587903
211	0xbdbe43a9	-0.09290249
212	0xbcfe8fcc	-0.031074427
213	0x3d8f63a2	0.07001425
214	0x3daa6f5a	0.0832202
215	0xbcbd6660	-0.023120105
216	0xbc276fc2	-0.010219516
217	0xbc7f2749	-0.015573331
218	0x3cedea26	0.029042315
219	0xbb51b0ea	-0.0031996318
220	0x3d7e3691	0.062063757
221	0x3d0ac36d	0.03387778
222	0xbdaea438	-0.08527416
223	0xbdb95289	-0.090489455
224	0xb9894b28	-0.00026186672
225	0xbdcfc89b	-0.10145684
226	0xbdc6bd0a	-0.09704025
227	0x3db69bf2	0.08916463
228	0x3dab4eca	0.08364637
229	0x3c2bd891	0.010488645
230	0x3d53ed34	0.051739886
231	0x3c5abd8f	0.013350858
232	0x3cd48205	0.025940904
233	0xbc67bde6	-0.014144396
234	0xbdd4e475	-0.10395137
235	0xbd9fbba6	-0.07799463
236	0xbdc3d5d7	-0.09562271
237	0x3d3e026e	0.046389036
238	0x3ccafe16	0.02477936
239	0x3d34345d	0.04399525
240	0x3cdda90b	0.027058145
241	0x3cc440d5	0.023956696
242	0x3d05aa82	0.032633312
243	0x3da6a86e	0.08137594
244	0x3dac1d51	0.08404029
245	0xbd26b652	-0.040701218
246	0xbd8c2296	-0.06842534
247	0xbc15ce3e	-0.00914341
248	0xbd8e5950	-0.06950629
249	0xbdd4810b	-0.103761755
250	0xbd925076	-0.07144253
251	0xbd5aeba4	-0.05344738
252	0x3dcfa5db	0.10139056
253	0x3d7bbe98	0.06146106
254	0xbdc1c73f	-0.09461831
255	0xbd848618	-0.06470889

recurrent.bias_ih_l1 f4 [384]
0	0xb80f0cc4	-3.4105746e-05
1	0xbadb0112	-0.0016708693
2	0xbafe1da1	-0.0019387492
3	0xb94dc6d6	-0.00019624396
4	0xbae1c953	-0.0017226137
5	0xb860dda1	-5.361217e-05
6	0xbad6e98a	-0.0016396504
7	0xba88be39	-0.0010432667
8	0x39e6a915	0.00043994994
9	0x3a11a3f1	0.000555574
10	0x3a24ff1f	0.00062941195
11	0xb75b633e	-1.3076524e-05
12	0xbaf20b2f	-0.0018466468
13	0xb99806e6	-0.0002899684
14	0xba420bec	-0.0007402289
15	0xbafe1ca3	-0.0019387197
16	0xbafe1479	-0.0019384763
17	0x3898e05f	7.289717e-05
18	0x3990a35c	0.00027587533
19	0xb90970de	-0.00013107384
20	0x39442f21	0.00018709573
21	0x38aae35e	8.148582e-05
22	0x3a772159	0.00094272714
23	0xbac460c4	-0.0014982452
24	0xba9783f8	-0.0011559715
25	0xb9a0fd33	-0.00030706226
26	0x3a09988b	0.0005248866
27	0xbad57d4a	-0.0016287949
28	0xb993dbb1	-0.00028201708
29	0x3afb7673	0.0019185081
30	0x37fea480	3.035576e-05
31	0xb6a6b2ff	-4.9680234e-06
32	0x3a4d1895	0.00078237924
33	0x3af06a9c	0.0018342319
34	0x3adac493	0.0016690664
35	0xbaf8d02c	-0.0018982938
36	0xb9f90509	-0.00047496732
37	0xbabf07d1	-0.0014574473
38	0xba0c604b	-0.0005354925
39	0x3b000e04	0.0019539604
40	0xbae42035	-0.0017404618
41	0x3b0114a7	0.0019696148
42	0x3ab191fb	0.0013547534
43	0x3ac4ae42	0.0015005546
44	0xbaf9688a	-0.0019028347
45	0x3aeae6fc	0.0017921622
46	0x398fd0b0	0.0002743057
47	0xb8231c32	-3.8888487e-05
48	0xba8d2ed5	-0.0010771403
49	0xb9a938f9	-0.0003227664
50	0x3ac9e7e7	0.0015404195
51	0xbae63649	-0.0017563786
52	0xbacbc7f8	-0.0015547266
53	0x3affa499	0.001950401
54	0xb95afa49	-0.00020883339
55	0x3ac8bc69	0.001531494
56	0xbac26c44	-0.0014833291
57	0x39997c73	0.00029275156
58	0x3ae1f142	0.0017238038
59	0x38e75b81	0.00011031982
60	0x39cd43b5	0.00039151093
61	0xb9aeb960	-0.0003332598
62	0xbac7d847	-0.0015246951
63	0x3aff1f51	0.0019464289
64	0xbafb3356	-0.001916508
65	0xbaf9d52b	-0.0019060721
66	0xbad1a93d	-0.0015995872
67	0xb880460e	-6.116564e-05
68	0xb769d51b	-1.39375e-05
69	0xb9cc12af	-0.00038923832
70	0x3adadd6e	0.0016698071
71	0x3afd78b4	0.001933834
72	0xbade1fad	-0.0016946696
73	0x3aa38fd6	0.001247878
74	0x39c8e407	0.00038316866
75	0x3905eec7	0.0001277282
76	0xbaf122e4	-0.0018397239
77	0xbaccf390	-0.0015636552
78	0xb8f94eae	-0.000118879005
79	0x39586a32	0.00020638926
80	0xbafcd40f	-0.0019289273
81	0xb6e79764	-6.9019607e-06
82	0x3aec8048	0.0018043602
83	0xba905102	-0.001101047
84	0xb9f1ac21	-0.00046095348
85	0x3afa34d2	0.0019089228
86	0x3ae1ecc6	0.0017236702
87	0xb8f5d7a0	-0.00011722674
88	0x3ae3ac07	0.0017369994
89	0x3b005b2c	0.0019585593
90	0x3992417b	0.00027896077
91	0x391a78e9	0.00014731627
92	0x3ad73263	0.0016418215
93	0x3ab93b3e	0.0014132035
94	0xba18066c	-0.0005799297
95	0xbaaab65b	-0.0013024317
96	0xba02d62d	-0.0004991021
97	0x38bc6af8	8.984463e-05
98	0x3ae1b50f	0.0017220097
99	0x3aef72f2	0.0018268509
100	0x3ade4f41	0.0016960875
101	0xb93e393f	-0.00018141138
102	0x3afff5fe	0.0019528267
103	0x39a224f5	0.00030926583
104	0x37b9c81d	2.2146904e-05
105	0xbac8fb6b	-0.0015333717
106	0x3b00c8eb	0.0019651006
107	0xb97fad1c	-0.00024383183
108	0xbae2547a	-0.0017267608
109	0xbad3b2c4	-0.0016151299
110	0x3af76ad9	0.0018876448
111	0x3aee5d41	0.0018185751
112	0xbad5ae49	-0.0016302551
113	0x3aff3ddc	0.0019473392
114	0xbae61bd1	-0.0017555897
115	0xbab5e5ea	-0.0013877724
116	0x392718ca	0.00015935596
117	0x3ade0b63	0.0016940649
118	0x39f47b2c	0.00046631077
119	0x3afdf999	0.0019376754
120	0x39d647e6	0.0004087083
121	0xbaf4b031	-0.0018668232
122	0x3a592547	0.0008283448
123	0x39efe1ba	0.00045753812
124	0xbadac6ca	-0.0016691324
125	0x3a9760e2	0.0011549259
126	0xba052d1c	-0.0005080269
127	0x389d2dc5	7.4948686e-05
128	0xbb0161f6	-0.0019742227
129	0xba60203f	-0.0008549727
130	0x3a6453fb	0.0008710024
131	0x3aefc7bf	0.0018293782
132	0xbb001394	-0.001954292
133	0xba840aad	-0.0010073982
134	0x3ad39829	0.001614337
135	0x3ad6769e	0.0016362255
136	0xbb030564	-0.0019992227
137	0x3a7fe4fb	0.0009761599
138	0x3ae06834	0.0017120899
139	0x3aff2bb6	0.0019467983
140	0x3af09534	0.0018355013
141	0xbb020ce7	-0.0019844116
142	0x3b025a72	0.0019890335
143	0x3aa54c74	0.0012611286
144	0xb81fbe1b	-3.8085604e-05
145	0xbb0295ab	-0.0019925635
146	0x3af725e2	0.0018855894
147	0xbaf767d8	-0.0018875552
148	0x3ade273f	0.0016948952
149	0x3b00db2f	0.0019661894
150	0x39378783	0.00017502722
151	0xb9009ea2	-0.00012266127
152	0xb9c8b3fc	-0.00038281071
153	0xba408bd2	-0.00073450536
154	0xbaeca6bf	-0.0018055065
155	0x3afb798a	0.0019186002
156	0x3aef9e60	0.0018281452
157	0x3af02192	0.0018320552
158	0xbb0315f6	-0.0020002103
159	0x3a48df14	0.0007662636
160	0xbb00384b	-0.0019564803
161	0xbaf4d8d2	-0.001868034
162	0xbafb2968	-0.001916212
163	0x3927748f	0.00015969783
164	0xbaf1e896	-0.0018456157
165	0x3af94e97	0.0019020614
166	0xb9b6c8f9	-0.0003486348
167	0x3ad46098	0.0016203104
168	0xb92243ce	-0.00015474783
169	0xbafecf6b	-0.0019440477
170	0xbab73714	-0.0013978207
171	0x3a524e07	0.0008022491
172	0xbaf1fa23	-0.0018461387
173	0x3b020756	0.0019840798
174	0xbaec0d39	-0.0018009312
175	0xb94e7da5	-0.00019692497
176	0x3b0139f1	0.0019718374
177	0xba0a0b84	-0.0005265998
178	0x3aacb2ae	0.0013175809
179	0xbb02b6a0	-0.0019945279
180	0x3af41fbb	0.0018625179
181	0xbb01b91d	-0.0019794174
182	0xb9cce0f9	-0.0003907753
183	0x3afa26ff	0.0019085108
184	0xbb026135	-0.0019894366
185	0xb8b8f366	-8.81914e-05
186	0x3ae06828	0.0017120885
187	0x3af13748	0.0018403316
188	0xbaf595eb	-0.0018736696
189	0x3ac8cec7	0.0015320414
190	0xb98cf6b0	-0.00026886677
191	0xbb0061a8	-0.0019589458
192	0xbb025737	-0.001988841
193	0x3b001d5f	0.0019548757
194	0x3a8f35a3	0.0010926019
195	0x3ae73a17	0.0017641213
196	0x3af247bd	0.0018484514
197	0x3af9171e	0.0019004082
198	0x3a7d819b	0.0009670497
199	0x3a8c720e	0.0010715143
200	0x3ac5ff5e	0.0015106013
201	0x3b006c65	0.0019595858
202	0x3afef807	0.001945258
203	0x3af98888	0.0019037882
204	0x39f2baac	0.00046296918
205	0xb9aaacb8	-0.00032553612
206	0xbac1d5bb	-0.0014788428
207	0xbb011ddb	-0.0019701633
208	0xbaeb59db	-0.0017955856
209	0xba9d43c1	-0.0011998342
210	0x3805c036	3.188868e-05
211	0x3a9a2c88	0.0011762539
212	0xba629caf	-0.00086445635
213	0xbb02547f	-0.001988679
214	0xbb01e487	-0.001982005
215	0xb92d07fe	-0.00016501543
216	0x3b00f3cd	0.0019676567
217	0x3ab61f59	0.001389484
218	0xb9fead49	-0.00048575763
219	0xbb027f3a	-0.0019912259
220	0xbb019d00	-0.0019777417
221	0xbafb4351	-0.0019169842
222	0xbb0273e2	-0.0019905497
223	0xbb026cda	-0.0019901306
224	0x3ae04dc3	0.0017113019
225	0xbb02ed0c	-0.0019977717
226	0x3aff9225	0.001949851
227	0xbb021827	-0.0019850822
228	0xbafa0e2c	-0.001907771
229	0xbaff3d83	-0.0019473288
230	0xbb03567b	-0.002004056
231	0x3ac1f921	0.0014798978
232	0xbaf5b40e	-0.0018745677
233	0x3b01b845	0.001979367
234	0x3ae2b4c6	0.0017296306
235	0xbb033079	-0.0020017906
236	0x3b00bd35	0.0019644026
237	0x3b00b172	0.0019637016
238	0xbadc3064	-0.001679909
239	0x3af5fdaf	0.001876762
240	0x3a4ba397	0.0007768212
241	0xbad5b875	-0.0016305583
242	0x3ac77618	0.001521769
243	0x3b01b585	0.0019792032
244	0x3af0ef1a	0.0018381805
245	0xbaa20060	-0.0012359731
246	0x3b013ab1	0.001971882
247	0xbaedb724	-0.0018136245
248	0xb9fdf96e	-0.0004844176
249	0xbabb1a02	-0.0014274719
250	0xbb00a868	-0.0019631628
251	0xbb02f8d3	-0.0019984737
252	0x3ae1bd25	0.0017222507
253	0xbaefb257	-0.0018287402
254	0x3af0b5da	0.0018364743
255	0xb9f86e0b	-0.00047384234
