input/gru_model.pth (torch, 215132 bytes, 6 tensors)

recurrent.weight_ih_l0 f4 [384, 7]
-4.3088112e-05 0.000632911 -0.0023801604 -0.0019529106 0.000527837 -0.0021783665 -0.0004176682 0.009472626
0.00047825143 0.00015026721 0.0048065595 0.022971915 0.015501113 0.004050632 -2.0759173e-05 -4.216925e-06
7.992086e-06 1.2726967e-05 2.266726e-05 -6.915398e-05 -2.8906019e-05 -4.5517563e-06 -1.3131896e-05 6.6563566e-06
4.6802825e-07 -2.792639e-06 -1.9634028e-05 -1.2357867e-05 -1.5983336e-05 -2.7086655e-05 3.7541377e-06 1.3070941e-05
-5.149581e-05 -2.3231703e-05 -2.87115e-05 -1.1892639e-05 -7.05164e-07 4.177091e-07 1.2091565e-05 -5.5097218e-05
5.0932827e-06 -2.6833717e-05 0.0055896244 0.007682248 -0.0008460834 -0.0015673643 -0.006342062 0.003368543
0.00094019587 6.418372e-08 6.6332355e-08 -2.6728085e-08 2.2489477e-08 6.944917e-08 2.2846578e-07 4.926649e-08
-1.0289921e-05 -1.7255858e-05 6.0405264e-06 -1.7766659e-05 -3.3713924e-05 1.5421962e-05 -3.6004553e-06 0.0024780298
0.00273295 0.0001875071 -0.0001935147 -0.001412689 -0.0010835299 0.0016365149 -1.2106635e-05 -3.6759457e-07
1.3563573e-06 6.538506e-06 -4.8071357e-05 1.8164554e-05 -1.861852e-05 -1.21667335e-05 -7.293379e-07 1.0983794e-06
6.0022767e-06 -4.6983096e-05 1.688754e-05 -1.881043e-05 -0.0009489371 -0.006076346 0.0057727834 0.0016219678
-0.006704995 -0.009602815 0.001450017 -4.953553e-10 2.0073458e-08 9.6932125e-09 1.9048478e-08 3.588245e-08
-1.2090127e-08 5.36226e-09 -6.2335644e-08 -2.4439608e-08 4.0649585e-08 5.44941e-08 -1.864521e-07 4.6952938e-08
-7.5759424e-08 -0.00049049093 -6.262001e-05 -6.3294385e-05 0.0008521162 0.00060254056 -0.003104163 8.103678e-05
-0.00460093 -0.0037647695 0.005404859 0.0004458495 -0.006756234 -0.0007395641 0.002814083 -7.809707e-06
-6.736991e-06 2.6064904e-06 3.941633e-07 -3.405646e-05 -4.3378272e-06 -9.393978e-06 5.2839226e-08 6.226985e-09
2.1342213e-08 -4.297361e-08 3.373313e-08 6.5996e-08 8.192872e-08 1.9292266e-08 3.4904602e-08 6.295791e-08
6.97663e-08 8.478529e-08 -2.6879807e-08 4.4899316e-08 -0.0011958254 -0.0009765432 -0.000895239 -0.0013092883
0.0015566332 -0.007217636 -0.0023831958 -1.5138232e-05 -2.6108668e-05 8.484633e-07 1.1407259e-05 -5.6476074e-05
-3.0970023e-06 -3.0861836e-05 -0.004603361 0.004165192 -0.00051401416 0.0047564954 -0.0144302035 -0.01008275
-0.00094364665 -1.2608145e-05 -1.92694e-06 -7.0582223e-07 3.5549645e-06 -5.696454e-05 9.7770935e-06 -2.5669577e-05
-6.777558e-09 2.4446756e-10 1.560819e-08 6.802317e-09 7.391545e-08 1.8523812e-08 2.0422167e-08 -0.0029903788
-0.00014258816 -0.0037464185 -0.0033557448 0.010442586 -0.0023899744 -0.0016078748 -0.0010748663 -0.00027373526
-0.0010619637 -0.0014718662 -0.007100904 0.0037557352 -0.0017276196 -4.4297735e-08 -2.819799e-07 1.2045216e-06
-3.03685e-07 4.543056e-06 2.3578048e-06 1.912372e-06 -1.7170472e-05 -2.0879603e-05 1.5375622e-06 1.3500687e-05
-4.508533e-05 -2.4185385e-05 -3.0474775e-05 2.4541073e-06 3.1485054e-06 3.2757962e-06 3.223002e-06 -1.7545667e-06
-1.5133561e-05 2.6882858e-06 -0.00053434935 -0.0016861088 -0.0011149194 -0.002355521 0.006353801 -0.0063481326
-0.0018862903 -0.0014745202 -5.5726778e-06 -0.0030068092 -0.0022225431 -0.0009581017 0.0028855999 -0.00080013653
-5.6692493e-06 1.1666975e-06 3.4091381e-06 -3.0466845e-07 3.92257e-05 3.4222394e-06 1.7651589e-06 -1.391414e-05
-2.5331992e-05 1.6757126e-06 5.527943e-06 -5.7998026e-05 1.07971355e-05 -2.2032005e-05 -6.3642597e-07 -1.1451821e-06
1.13039775e-07 1.16848355e-07 -2.2323075e-06 -1.0161921e-07 -1.4688583e-06 -1.8718056e-05 8.275783e-06 -3.9481332e-05
2.627263e-05 -9.335425e-05 2.6463622e-05 -5.1854613e-06 -5.54993e-08 -1.4400834e-07 9.991235e-07 -1.5571567e-07
00000000: 82b9 34b8 f0e9 253a 77fc 1bbb cef8 ffba
00000010: 8b5e 0a3a edc2 0ebb 7afa dab9 1333 1b3c
00000020: d2bd fa39 0c91 1d39 5880 9d3b 992f bc3c
00000030: 61f8 7d3c 2abb 843b fc23 aeb7 1c7f 8db6
00000040: bf15 0637 e885 5537 9225 be37 c306 91b8
00000050: 347b f2b7 4abb 98b6 1051 5cb7 ab59 df36
00000060: 5045 fb34 2c69 3bb6 c1b3 a4b7 a254 4fb7
00000070: f413 86b7 2638 e3b7 98ef 7b36 444b 5b37
00000080: 34fd 57b8 b4e1 c2b7 7ad9 f0b7 7f86 47b7
00000090: 804a 3db5 8041 e034 e0dc 4a37 3018 67b8
000000a0: f7e6 aa36 f818 e1b7 2b29 b73b 5ebb fb3b
000000b0: b2cb 5dba 0570 cdba 12d1 cfbb c6c2 5c3b
000000c0: 7a77 763a 60d5 8933 9972 8e33 ae97 e5b2
000000d0: e22e c132 1624 9533 3250 7534 1499 5333
000000e0: e0a2 2cb7 acc0 90b7 baaf ca36 9c09 95b7
000000f0: 0d68 0db8 695e 8137 5a9f 71b6 7166 223b
00000100: 4b1b 333b 8e9d 4439 35ea 4ab9 fa29 b9ba
00000110: 3b05 8eba 5480 d63a 9a1d 4bb7 d059 c5b4
00000120: 150c b635 5765 db36 3aa0 49b8 1560 9837
00000130: f82e 9cb7 b91f 4cb7 b8c7 43b5 076c 9335
00000140: 2a67 c936 b70f 45b8 b7a9 8d37 17cb 9db7
00000150: 17c2 78ba 161c c7bb 9e29 bd3b 3598 d43a
00000160: 93b5 dbbb 2055 1dbc 7f0e be3a 8829 08b0
00000170: 006e ac32 3387 2632 0ca0 a332 2c1d 1a33
00000180: f1b4 4fb2 f03e b831 62dd 85b3 44ef d1b2
00000190: b196 2e33 e60c 6a33 9033 48b4 4da9 4933
000001a0: 2fb1 a2b3 4a94 00ba dd52 83b8 eabc 84b8
000001b0: 8d60 5f3a d0f3 1d3a 376f 4bbb 4af2 a938
000001c0: 66c3 96bb 5aba 76bb 3e1b b13b e8c0 e939
000001d0: 6663 ddbb 4edf 41ba 7a6c 383b 7006 03b7
000001e0: 500e e2b6 2aeb 2e36 649d d334 d8d7 0eb8
000001f0: a78d 91b6 d49a 1db7 58f1 6233 24f5 d531
00000200: 0654 b732 fc91 38b3 f8e1 1033 afb9 8d33
00000210: caf0 af33 24b8 a532 04ea 1533 7a33 8733
00000220: 6ed2 9533 3513 b633 52e5 e6b2 52d7 4033
00000230: 3ebd 9cba b4fe 7fba 79ae 6aba 6d9c abba
00000240: f107 cc3a eb81 ecbb 642f 1cbb 36fa 7db7
00000250: f003 dbb7 f4c1 6335 ce61 3f37 b9e0 6cb8
00000260: 18d6 4fb6 a571 01b8 cad7 96bb 2a7c 883b
00000270: e8be 06ba 60dc 9b3b a96c 6cbc 1e32 25bc
00000280: 0e5f 77ba 9287 53b7 9450 01b6 bc77 3db5
00000290: d391 6e36 36ed 6eb8 4c08 2437 ff54 d7b7
000002a0: 08e0 e8b1 c065 862f c612 8632 d0b9 e931
000002b0: 73bb 9e33 4b1e 9f32 d26c af32 3bfa 43bb
000002c0: b883 15b9 7986 75bb 0eec 5bbb 6117 2b3c
000002d0: 1ea1 1cbb 53bf d2ba 87e2 8cba 2084 8fb9
000002e0: 9731 8bba a2eb c0ba b3ae e8bb c822 763b
000002f0: 4b71 e2ba e041 3eb3 0663 97b4 0cab a135
00000300: 260a a3b4 8e70 9836 c73a 1e36 4d56 0036
00000310: 4f09 90b7 9b26 afb7 3c5e ce35 0281 6237
00000320: 011a 3db8 b8e1 cab7 15a4 ffb7 3eb1 2436
00000330: e94a 5336 c0d5 5b36 c14a 5836 747e ebb5
00000340: 26e6 7db7 6668 3436 9413 0cba 6c00 ddba
00000350: 7d22 92ba 165f 1abb 8c33 d03b ff03 d0bb
00000360: 663d f7ba b044 c1ba f0fc bab6 e30d 45bb
00000370: 16a8 11bb 1e29 7bba 551c 3d3b 41c0 51ba
00000380: 7b3a beb6 6c97 9c35 8cc8 6436 5091 a3b4
00000390: 4686 2438 a0a9 6536 66ea ec35 c770 69b7
000003a0: 0a80 d4b7 0ce9 e035 ab7c b936 e842 73b8
000003b0: 5825 3537 5fd1 b8b7 dcd6 2ab5 28b4 99b5
000003c0: 46c0 f233 10ee fa33 c0ce 15b6 c039 dab3
000003d0: 9625 c5b5 b804 9db7 38d8 0a37 c298 25b8
000003e0: 0b64 dc37 2ec7 c3b8 32fe dd37 c6fe adb6
000003f0: 205e 6eb3 b6a0 1ab4 9f19 8635 cc32 27b4

recurrent.weight_hh_l0 f4 [384, 128]
-4.55296e-40 -5.51424e-40 7.41081e-40 1.020927e-39 -1.03308e-39 1.365794e-39 -1.098919e-39 6.5622e-40
9.47506e-40 3.49125e-40 3.3895e-41 -5.295138e-12 1.74162e-40 4.200667e-06 1.04268e-39 3.07385e-40
5.42098e-40 1.69715e-40 -8.65459e-40 1.39858e-39 9.78426e-40 -1.160164e-39 5.26685e-40 1.397868e-39
-1.240292e-39 1.19412e-40 6.04076e-40 -3.38786e-40 4.3302e-41 1.047517e-39 5.86682e-40 8.79124e-40
-5.0479e-40 -1.309502e-39 -8.83486e-40 4.2243e-40 1.23611e-39 1.96768e-40 2.15883e-40 -5.7326e-41
1.128283e-39 5.36832e-40 4.47824e-40 8.92175e-40 6.86139e-40 -5.94903e-40 -9.1796e-41 -9.84889e-40
9.68977e-40 4.71243e-40 -6.91482e-40 7.90713e-40 1.094394e-39 6.46373e-40 -7.5511e-40 -4.99776e-40
-1.119104e-39 -7.45374e-40 5.316e-40 1.299979e-39 -1.217986e-39 -9.82488e-40 1.022721e-39 7.71881e-40
1.089491e-39 7.36766e-40 5.40897e-40 -1.94324e-40 1.128966e-39 -2.3397e-40 1.069956e-39 -2.61377e-40
2.94602e-40 -9.35735e-40 -8.80856e-40 2.582222e-12 5.29582e-40 -9.25797e-40 -6.27654e-40 -6.47899e-40
-9.805215e-13 7.72889e-40 -5.40806e-40 3.08244e-40 7.02835e-40 1.046874e-39 9.2219e-40 5.51684e-40
5.3507e-41 1.24089e-40 -1.360076e-39 1.072149e-39 1.129235e-39 -4.2222612e-10 -8.76903e-40 5.76683e-40
-4.176406e-15 4.84881e-40 6.93e-40 -1.247074e-39 -7.37988e-40 3.5111e-40 -5.1413e-40 -5.33717e-40
1.79418e-40 -6.80895e-40 9.39924e-40 1.05569e-39 -9.60407e-40 2.282e-40 -1.333896e-39 3.05808e-40
8.48736e-40 -6.7004e-41 7.58468e-40 -5.02454e-40 -1.19843e-40 -5.63768e-40 4.65108e-40 -3.81824e-40
7.23591e-40 -1.337441e-39 -2.66736e-40 -1.208603e-39 -3.87777e-40 1.081315e-39 2.30535e-40 8.28628e-40
2.85725e-40 3.86013e-40 2.31591e-40 2.15042e-40 -4.68331e-07 -8.8413e-40 6.74257e-40 -2.48386e-40
-1.316161e-39 5.2958e-41 1.34577e-40 -4.65632e-40 -7.01538e-40 -5.5717e-40 6.59883e-40 1.90294e-40
5.2913e-41 -5.14087e-40 -1.7972e-41 -4.22065e-40 1.0538101e-12 -9.69544e-40 -2.3291366e-05 -7.35034e-40
-7.58877e-40 -1.94511e-40 -1.66871e-40 2.2840632e-09 1.360095e-39 7.70746e-40 9.04276e-40 6.173e-42
-1.329471e-39 1.98778e-40 -8.85916e-40 -1.01448946e-13 2.77488e-40 -8.34292e-40 -7.81417e-40 -5.65941e-40
-4.12076e-40 -5.6852e-40 9.44593e-40 -4.39814e-40 1.137718e-39 -1.028375e-39 -1.98558e-40 6.82166e-40
-1.26438e-39 1.277823e-39 -8.92312e-40 4.58667e-40 -3.7014e-41 7.21545e-40 -3.4458e-40 -3.3058e-41
-1.2992e-39 9.92628e-40 8.47427e-40 -1.47761e-40 1.135196e-39 -1.20052e-39 3.7507e-40 1.193288e-39
-1.060685e-39 -2.68422e-40 9.32913e-40 3.61723e-40 -8.3402e-41 -2.75338e-40 8.20767e-40 3.37789e-40
1.40945e-40 1.034451e-39 3.64801e-40 1.21004e-40 -5.21862e-40 -4.1673e-41 -4.58557e-40 9.55139e-40
1.336701e-39 -4.41359e-40 -8.24904e-40 3.83188e-40 -1.083232e-39 4.61827e-40 1.103654e-39 1.070804e-39
-8.99341e-40 -7.28091e-40 -2.64847e-40 -7.64218e-40 5.064e-40 -5.45681e-40 -2.43366e-40 -3.79814e-40
-5.29982e-40 1.23334e-40 -4.84932e-40 3.9812778e-11 9.61065e-40 -1.193953e-39 -9.2623e-41 4.1132618e-14
-1.147645e-39 1.6061964e-11 9.79236e-40 -8.3726e-40 8.23596e-40 -1.17533e-39 5.893e-41 9.74853e-40
1.082458e-39 -7.67444e-40 2.4777173e-11 4.60596e-40 -1.305071e-39 -1.79775e-40 1.031227e-39 -7.4085e-41
1.46391e-40 6.85811e-40 2.93725e-40 1.47694e-40 9.103e-42 -1.4136e-41 -8.47402e-40 -1.003949e-39
00000000: 2ef5 0480 2501 0680 d511 0800 ee1d 0b00
00000010: cf3f 0b80 47df 0e00 57f7 0b80 4625 0700
00000020: 4351 0a00 38cd 0300 7c5e 0000 5d4e baac
00000030: 7ee5 0100 74f3 8c36 915a 0b00 dd58 0300
00000040: 26e7 0500 19d9 0100 8c6c 0980 ac3a 0f00
00000050: 74a7 0a00 11a2 0c80 2fbc 0500 b038 0f00
00000060: 6e81 0d80 df4c 0100 eb93 0600 66b0 0380
00000070: b578 0000 0d68 0b00 6e63 0600 a492 0900
00000080: 267f 0580 5c42 0e80 cd9e 0980 9099 0400
00000090: c675 0d00 8224 0200 cb59 0200 cd9f 0080
000000a0: 3249 0c00 78d8 0500 5ae0 0400 05b7 0900
000000b0: ad78 0700 597a 0680 e4ff 0080 78b9 0a80
000000c0: 1d8d 0a00 a221 0500 9287 0780 309c 0800
000000d0: baea 0b00 d309 0700 f138 0880 2c71 0580
000000e0: 9b2f 0c80 cd1d 0880 e2c9 0500 d027 0e00
000000f0: 4043 0d80 c7b2 0a80 ee22 0b00 b167 0800
00000100: 0fdd 0b00 ce05 0800 cde3 0500 b21d 0280
00000110: 194b 0c00 378c 0280 9aa6 0b00 9dd8 0280
00000120: 3b35 0300 7330 0a80 7897 0980 2db5 352c
00000130: 42c4 0500 bf14 0a80 a5d5 0680 140e 0780
00000140: 03ff 89ab 806a 0800 8ce3 0580 425b 0300
00000150: 38a7 0700 4266 0b00 b10a 0a00 df01 0600
00000160: 2895 0000 e959 0100 57cf 0e80 b7ac 0b00
00000170: d94b 0c00 0b1f e8af 738c 0980 8f47 0600
00000180: 8c78 96a7 a747 0500 cd8b 0700 5694 0d80
00000190: 3609 0880 c0d2 0300 2f99 0580 c9cf 0580
000001a0: 25f4 0100 0f6a 0780 203c 0a00 d67e 0b00
000001b0: 3975 0a80 217c 0200 5c86 0e80 7854 0300
000001c0: ee3d 0900 c8ba 0080 4d42 0800 a378 0580
000001d0: 134e 0180 8e23 0680 8810 0500 5f28 0480
000001e0: 14e1 0700 3e90 0e80 8de7 0280 1829 0d80
000001f0: f738 0480 44c6 0b00 a382 0200 e105 0900
00000200: 7c1c 0300 0c34 0400 9585 0200 7357 0200
00000210: ec6e fbb4 98a0 0980 8e57 0700 66b4 0280
00000220: ec54 0e80 a093 0000 2577 0100 fe11 0580
00000230: 9aa3 0780 2a11 0680 7c2f 0700 7612 0200
00000240: 8093 0000 1199 0580 1932 0080 8c98 0480
00000250: 834f 942b b28e 0a80 d461 c3b7 fa00 0880
00000260: 7143 0880 381e 0280 2bd1 0180 aaf5 1c31
00000270: 64cf 0e00 8764 0800 c1d8 0900 3511 0000
00000280: 067a 0e80 1d2a 0200 93a5 0980 5671 e4a9
00000290: 8605 0300 ab15 0980 4682 0880 9d29 0680
000002a0: b37c 0480 cd30 0680 2449 0a00 06ca 0480
000002b0: 7f63 0c00 b132 0b80 8029 0280 9a6d 0700
000002c0: 94c4 0d80 0dea 0d00 67b7 0980 94fe 0400
000002d0: 2e67 0080 60db 0700 8dc0 0380 275c 0080
000002e0: a425 0e80 0bcf 0a00 483a 0900 e69b 0180
000002f0: 775c 0c00 9012 0d80 8b15 0400 67fe 0c00
00000300: c28c 0b80 40ec 0280 9528 0a00 56f0 0300
00000310: 7ee8 0080 88ff 0280 f7ef 0800 9ead 0300
00000320: e688 0100 a143 0b00 ebf8 0300 4f51 0100
00000330: bdae 0580 2b74 0080 45fe 0480 8a66 0a00
00000340: 2e8e 0e00 54ce 0480 7ffb 0880 2c2c 0400
00000350: 9ccb 0b80 6307 0500 8a04 0c00 f7a8 0b00
00000360: ffca 0980 9fed 0780 49e2 0280 5452 0880
00000370: a383 0500 23f1 0580 68a6 0280 c422 0480
00000380: 60c5 0580 ce57 0100 cb47 0580 3419 2f2e
00000390: 0f77 0a00 4100 0d80 3202 0180 ae3e 3929
000003a0: 2b7f 0c80 5448 8d2d b6a9 0a00 f11d 0980
000003b0: daf7 0800 58cc 0c80 46a4 0000 7e9d 0a00
000003c0: 74c9 0b00 525b 0880 3cf1 d92d f403 0500
000003d0: 0236 0e80 24f5 0180 a43a 0b00 85ce 0080
000003e0: 1498 0100 c377 0700 c932 0300 b69b 0100
000003f0: 6019 0000 6827 0080 363a 0980 9aee 0a80

recurrent.bias_ih_l0 f4 [384]
-0.001327307 0.0047868825 4.470293e-06 -3.4093332e-06 -7.810004e-06 -5.142603e-06 0.0046395967 2.0187052e-09
-8.564057e-07 0.0016162003 -1.5223458e-05 -1.5525291e-05 -0.0019426971 -1.3325176e-08 -6.161775e-08 -0.0006373286
-0.0014176563 -1.31599545e-05 4.6896105e-08 6.4759476e-08 -0.0054513197 -7.2761773e-06 0.0042809388 -1.574687e-05
4.3205016e-08 -0.0049175136 -0.0015492628 3.173414e-06 -6.8870286e-06 1.661839e-06 -0.0025942684 -0.0031653722
1.3506153e-05 -1.1592094e-05 -5.6765913e-07 -1.0608622e-05 2.7217563e-06 -6.107851e-06 5.883104e-07 0.0022740557
-1.1948593e-08 -6.7817896e-06 -1.587914e-05 -1.0678333e-07 -2.7679514e-10 -1.1821872e-05 6.9415323e-06 2.8961365e-06
7.1428786e-07 -7.507751e-06 -2.210926e-05 6.819736e-06 -1.5862413e-05 1.3381952e-05 -9.174382e-06 -2.2443514e-06
-0.0017301441 2.4550409e-05 3.661893e-06 -0.0015067245 -0.00029011714 -2.3673955e-07 -0.0045071016 -1.4789434e-08
-5.375e-06 -3.241429e-06 -1.2217863e-06 -0.0017735516 1.0103777e-05 -0.0021554958 -6.6683974e-06 -1.542258e-05
1.6511821e-06 3.855847e-06 -4.785526e-06 -2.9467917e-06 -2.1561479e-07 -2.0245464e-08 -3.671615e-06 -0.0045198584
0.000976282 -8.273302e-09 -9.408782e-06 -5.5808323e-06 -7.3435663e-06 -4.9079968e-06 -4.57583e-06 -0.00089526724
6.861833e-06 -0.0019905656 0.0006293986 -0.0010297757 -1.5255725e-05 -1.9170673e-06 4.7844205e-06 -4.0513887e-06
-1.4893686e-05 -5.0665955e-07 4.2423594e-08 -2.8961527e-08 3.9235758e-08 5.2389514e-06 -0.0022115193 8.500707e-06
0.0007640891 -2.817542e-07 -8.779037e-06 6.3050743e-07 -0.00045482436 4.7360749e-07 -0.00041065444 -0.003415655
-5.5947886e-08 -0.0014608537 -0.0002401625 -2.1363242e-08 -3.5833946e-06 -0.0017822782 -1.0516229e-05 3.7296395e-06
0.0005711827 -0.0007404382 -3.1991124e-07 9.9753215e-06 -0.0014960325 -1.0254089e-05 7.844029e-06 -0.003302665
-0.1917931 -0.086412944 9.858021e-05 0.00039135604 0.00013388677 0.00015625893 -0.081779 6.128836e-07
9.472062e-05 -0.10258864 0.0001677173 0.00017849279 -0.4728756 1.7763178e-07 9.795687e-07 -0.016752642
-0.4766096 0.00018076027 5.7696457e-07 1.3851115e-07 -0.5580445 0.0001730623 -0.16342969 0.00026339557
6.099871e-08 -0.48466152 -0.40658376 3.6475754e-05 0.000154654 0.00012503157 -0.053604856 -0.05683744
7.782711e-05 0.0002205875 1.8515411e-05 -7.0509855e-06 2.9208124e-05 0.00017532465 -7.56276e-07 -0.0673019
2.1408651e-07 3.391737e-05 0.00019169149 -5.4939296e-06 -9.4680965e-09 3.3892706e-05 -1.1568082e-05 0.00013051814
4.508893e-06 0.00046255795 5.9014164e-06 9.744362e-05 0.00018228625 0.0001489954 0.00014775129 2.9065917e-05
-0.12992537 0.00013788333 4.9770726e-05 -0.3453436 -0.013282351 1.3081747e-05 -0.46824342 5.4979927e-07
0.00014820218 0.00015491241 4.6953104e-05 -0.11494264 4.403579e-05 -0.23179026 0.00012751498 0.00018305548
1.0124086e-05 6.606533e-05 0.00014225957 0.00038922197 -7.2512635e-06 1.6891083e-07 0.00028597927 -0.18272428
-0.023117114 1.07835945e-07 0.00011399854 8.6752945e-05 0.00013260098 0.00013376596 0.00014435753 -0.20827597
5.2738083e-05 -0.089940235 -0.014429332 -0.14758359 0.00016789585 7.519131e-05 -0.00029278436 0.0001369627
0.0002558346 1.6169959e-05 1.94617e-07 1.4438078e-07 5.857478e-07 7.257273e-05 -0.047868714 0.00012017688
-0.0104901185 1.8359391e-06 0.00020292746 -3.950703e-07 -0.008816824 8.039529e-07 -0.063217744 -0.45930496
8.9589985e-06 -0.3748891 -0.01273441 9.9010805e-08 -8.316848e-05 -0.42399308 0.00017383319 -1.5724348e-05
-0.11515193 -0.01846797 6.4025753e-06 7.844369e-05 -0.12599535 0.00020568463 6.1130355e-05 -0.12406503
00000000: 08f9 adba 48db 9c3b 86ff 9536 e6cb 64b6
00000010: b607 03b7 a08e acb6 c207 983b 70b9 0a31
00000020: c0e3 65b5 afd6 d33a 4168 7fb7 4f3c 82b7
00000030: 19a2 feba beec 64b2 b752 84b3 6612 27ba
00000040: a7d0 b9ba 93c9 5cb7 d06a 4933 e611 8b33
00000050: fca0 b2bb e325 f4b6 1e47 8c3b 2518 84b7
00000060: 6b90 3933 1823 a1bb a210 cbba d6f6 5436
00000070: 2017 e7b6 5a0c df35 9a04 2abb 2272 4fbb
00000080: 7c98 6237 aa7b 42b7 3d61 18b5 affb 31b7
00000090: 6ba7 3636 0af2 ccb6 62ec 1d35 5308 153b
000000a0: 7846 4db2 218f e3b6 3234 85b7 c250 e5b3
000000b0: 742b 98af 8e56 46b7 4feb e836 3f5b 4236
000000c0: 7dbd 3f35 17eb fbb6 4677 b9b7 16d5 e436
000000d0: 4610 85b7 0c83 6037 aceb 19b7 aa9d 16b6
000000e0: 01c6 e2ba 9af1 cd37 d8be 7536 497d c5ba
000000f0: dd1a 98b9 7932 7eb4 4fb0 93bb 9e14 7eb2
00000100: e65a b4b6 5487 59b6 42fc a3b5 8476 e8ba
00000110: 6483 2937 3843 0dbb 19c1 dfb6 bd5f 81b7
00000120: 2f9e dd35 7961 8136 5b93 a0b6 7fc1 45b6
00000130: be83 67b4 3fe8 adb2 de65 76b6 521b 94bb
00000140: 2ded 7f3a 5e22 0eb2 69da 1db7 fc42 bbb6
00000150: c168 f6b6 5faf a4b6 158a 99b6 5eb0 6aba
00000160: b23e e636 2674 02bb 3afe 243a 8af9 86ba
00000170: d7f2 7fb7 f7a6 00b6 dc89 a036 2af1 87b6
00000180: e5df 79b7 6101 08b5 3c35 3633 12c7 f8b2
00000190: 2c84 2833 40ca af36 23ef 10bb 429e 0e37
000001a0: 274d 483a 0144 97b4 ad49 13b7 2440 2935
000001b0: 7e75 eeb9 1e44 fe34 1b4d d7b9 2fd9 5fbb
000001c0: 5a4b 70b3 1e7a bfba 21d4 7bb9 4482 b7b2
000001d0: 407a 70b6 559b e9ba dc6e 30b7 b84a 7a36
000001e0: 6cbb 153a f719 42ba 44c0 abb4 ae5b 2737
000001f0: 8516 c4ba fa08 2cb7 d999 0337 8671 58bb
00000200: 6965 44be 45f9 b0bd d9bc ce38 eb2e cd39
00000210: f563 0c39 70d9 2339 c07b a7bd 0a85 2435
00000220: bfa4 c638 fe19 d2bd 45dd 2f39 cb29 3b39
00000230: c01c f2be 0dbb 3e34 b979 8335 d63c 89bc
00000240: 2c06 f4be 778a 3d39 b4e0 1a35 a8b9 1434
00000250: 01dc 0ebf 0f78 3539 1d5a 27be 5b18 8a39
00000260: 65fe 8233 8e25 f8be bf2b d0be 8bfd 1838
00000270: 9e2a 2239 e81a 0339 c490 5bbd 60ce 68bd
00000280: 1d37 a338 824d 6739 8b51 9b37 8197 ecb6
00000290: f803 f537 5ad7 3739 e402 4bb5 94d5 89bd
000002a0: a7df 6534 8042 0e38 cb00 4939 7f58 b8b6
000002b0: 21a9 22b2 0428 0e38 8914 42b7 b2db 0839
000002c0: 194b 9736 7a83 f239 c804 c636 a55a cc38
000002d0: 1824 3f39 a63b 1c39 afed 1a39 95d2 f337
000002e0: 280b 05be c694 1039 e9c0 5038 e0d0 b0be
000002f0: 389e 59bc ad79 5b37 9abd efbe eb95 1335
00000300: b866 1b39 fc6f 2239 83ef 4438 0c67 ebbd
00000310: 12b3 3838 6d5a 6dbe 8bb5 0539 95f2 3f39
00000320: 9eda 2937 8e8c 8a38 832b 1539 7d10 cc39
00000330: e14f f3b6 db5d 3534 7def 9539 131c 3bbe
00000340: 1a60 bdbc 7093 e733 8012 ef38 22ef b538
00000350: ce0a 0b39 8743 0c39 ae5e 1739 4c46 55be
00000360: 1633 5d38 9632 b8bd 0169 6cbc 2720 17be
00000370: 330d 3039 07b0 9d38 da80 99b9 a59d 0f39
00000380: 8a21 8639 b9a4 8737 eaf7 5034 1607 1b34
00000390: 483c 1d35 3032 9838 fc11 44bd 7907 fc38
000003a0: bfde 2bbc 636a f635 edc8 5439 0c1a d4b4
000003b0: 7174 10bc 39cf 5735 4e78 81bd 052a ebbe
000003c0: 9b4e 1637 77f1 bfbe fda3 50bc c49f d433
000003d0: bd6a aeb8 9f15 d9be fe46 3639 c8e7 83b7
000003e0: c6d4 ebbd 244a 97bc b4d5 d636 2382 a438
000003f0: ed04 01be 0cad 5739 1c33 8038 ce15 febd

recurrent.bias_hh_l0 f4 [384]
-0.001327307 0.0047868825 4.470293e-06 -3.4093332e-06 -7.810004e-06 -5.142603e-06 0.0046395967 2.0187052e-09
-8.564057e-07 0.0016162003 -1.5223458e-05 -1.5525291e-05 -0.0019426971 -1.3325176e-08 -6.161775e-08 -0.0006373286
-0.0014176563 -1.31599545e-05 4.6896105e-08 6.4759476e-08 -0.0054513197 -7.2761773e-06 0.0042809388 -1.574687e-05
4.3205016e-08 -0.0049175136 -0.0015492628 3.173414e-06 -6.8870286e-06 1.661839e-06 -0.0025942684 -0.0031653722
1.3506153e-05 -1.1592094e-05 -5.6765913e-07 -1.0608622e-05 2.7217563e-06 -6.107851e-06 5.883104e-07 0.0022740557
-1.1948593e-08 -6.7817896e-06 -1.587914e-05 -1.0678333e-07 -2.7679514e-10 -1.1821872e-05 6.9415323e-06 2.8961365e-06
7.1428786e-07 -7.507751e-06 -2.210926e-05 6.819736e-06 -1.5862413e-05 1.3381952e-05 -9.174382e-06 -2.2443514e-06
-0.0017301441 2.4550409e-05 3.661893e-06 -0.0015067245 -0.00029011714 -2.3673955e-07 -0.0045071016 -1.4789434e-08
-5.375e-06 -3.241429e-06 -1.2217863e-06 -0.0017735516 1.0103777e-05 -0.0021554958 -6.6683974e-06 -1.542258e-05
1.6511821e-06 3.855847e-06 -4.785526e-06 -2.9467917e-06 -2.1561479e-07 -2.0245464e-08 -3.671615e-06 -0.0045198584
0.000976282 -8.273302e-09 -9.408782e-06 -5.5808323e-06 -7.3435663e-06 -4.9079968e-06 -4.57583e-06 -0.00089526724
6.861833e-06 -0.0019905656 0.0006293986 -0.0010297757 -1.5255725e-05 -1.9170673e-06 4.7844205e-06 -4.0513887e-06
-1.4893686e-05 -5.0665955e-07 4.2423594e-08 -2.8961527e-08 3.9235758e-08 5.2389514e-06 -0.0022115193 8.500707e-06
0.0007640891 -2.817542e-07 -8.779037e-06 6.3050743e-07 -0.00045482436 4.7360749e-07 -0.00041065444 -0.003415655
-5.5947886e-08 -0.0014608537 -0.0002401625 -2.1363242e-08 -3.5833946e-06 -0.0017822782 -1.0516229e-05 3.7296395e-06
0.0005711827 -0.0007404382 -3.1991124e-07 9.9753215e-06 -0.0014960325 -1.0254089e-05 7.844029e-06 -0.003302665
-0.1917931 -0.086412944 9.858021e-05 0.00039135604 0.00013388677 0.00015625893 -0.081779 6.128836e-07
9.472062e-05 -0.10258864 0.0001677173 0.00017849279 -0.4728756 1.7763178e-07 9.795687e-07 -0.016752642
-0.4766096 0.00018076027 5.7696457e-07 1.3851115e-07 -0.5580445 0.0001730623 -0.16342969 0.00026339557
6.099871e-08 -0.48466152 -0.40658376 3.6475754e-05 0.000154654 0.00012503157 -0.053604856 -0.05683744
7.782711e-05 0.0002205875 1.8515411e-05 -7.0509855e-06 2.9208124e-05 0.00017532465 -7.56276e-07 -0.0673019
2.1408651e-07 3.391737e-05 0.00019169149 -5.4939296e-06 -9.4680965e-09 3.3892706e-05 -1.1568082e-05 0.00013051814
4.508893e-06 0.00046255795 5.9014164e-06 9.744362e-05 0.00018228625 0.0001489954 0.00014775129 2.9065917e-05
-0.12992537 0.00013788333 4.9770726e-05 -0.3453436 -0.013282351 1.3081747e-05 -0.46824342 5.4979927e-07
0.00014820218 0.00015491241 4.6953104e-05 -0.11494264 4.403579e-05 -0.23179026 0.00012751498 0.00018305548
1.0124086e-05 6.606533e-05 0.00014225957 0.00038922197 -7.2512635e-06 1.6891083e-07 0.00028597927 -0.18272428
-0.023117114 1.07835945e-07 0.00011399854 8.6752945e-05 0.00013260098 0.00013376596 0.00014435753 -0.20827597
5.2738083e-05 -0.089940235 -0.014429332 -0.14758359 0.00016789585 7.519131e-05 -0.00029278436 0.0001369627
0.0002558346 1.6169959e-05 1.94617e-07 1.4438078e-07 5.857478e-07 7.257273e-05 -0.047868714 0.00012017688
-0.0104901185 1.8359391e-06 0.00020292746 -3.950703e-07 -0.008816824 8.039529e-07 -0.063217744 -0.45930496
8.9589985e-06 -0.3748891 -0.01273441 9.9010805e-08 -8.316848e-05 -0.42399308 0.00017383319 -1.5724348e-05
-0.11515193 -0.01846797 6.4025753e-06 7.844369e-05 -0.12599535 0.00020568463 6.1130355e-05 -0.12406503
00000000: 08f9 adba 48db 9c3b 86ff 9536 e6cb 64b6
00000010: b607 03b7 a08e acb6 c207 983b 70b9 0a31
00000020: c0e3 65b5 afd6 d33a 4168 7fb7 4f3c 82b7
00000030: 19a2 feba beec 64b2 b752 84b3 6612 27ba
00000040: a7d0 b9ba 93c9 5cb7 d06a 4933 e611 8b33
00000050: fca0 b2bb e325 f4b6 1e47 8c3b 2518 84b7
00000060: 6b90 3933 1823 a1bb a210 cbba d6f6 5436
00000070: 2017 e7b6 5a0c df35 9a04 2abb 2272 4fbb
00000080: 7c98 6237 aa7b 42b7 3d61 18b5 affb 31b7
00000090: 6ba7 3636 0af2 ccb6 62ec 1d35 5308 153b
000000a0: 7846 4db2 218f e3b6 3234 85b7 c250 e5b3
000000b0: 742b 98af 8e56 46b7 4feb e836 3f5b 4236
000000c0: 7dbd 3f35 17eb fbb6 4677 b9b7 16d5 e436
000000d0: 4610 85b7 0c83 6037 aceb 19b7 aa9d 16b6
000000e0: 01c6 e2ba 9af1 cd37 d8be 7536 497d c5ba
000000f0: dd1a 98b9 7932 7eb4 4fb0 93bb 9e14 7eb2
00000100: e65a b4b6 5487 59b6 42fc a3b5 8476 e8ba
00000110: 6483 2937 3843 0dbb 19c1 dfb6 bd5f 81b7
00000120: 2f9e dd35 7961 8136 5b93 a0b6 7fc1 45b6
00000130: be83 67b4 3fe8 adb2 de65 76b6 521b 94bb
00000140: 2ded 7f3a 5e22 0eb2 69da 1db7 fc42 bbb6
00000150: c168 f6b6 5faf a4b6 158a 99b6 5eb0 6aba
00000160: b23e e636 2674 02bb 3afe 243a 8af9 86ba
00000170: d7f2 7fb7 f7a6 00b6 dc89 a036 2af1 87b6
00000180: e5df 79b7 6101 08b5 3c35 3633 12c7 f8b2
00000190: 2c84 2833 40ca af36 23ef 10bb 429e 0e37
000001a0: 274d 483a 0144 97b4 ad49 13b7 2440 2935
000001b0: 7e75 eeb9 1e44 fe34 1b4d d7b9 2fd9 5fbb
000001c0: 5a4b 70b3 1e7a bfba 21d4 7bb9 4482 b7b2
000001d0: 407a 70b6 559b e9ba dc6e 30b7 b84a 7a36
000001e0: 6cbb 153a f719 42ba 44c0 abb4 ae5b 2737
000001f0: 8516 c4ba fa08 2cb7 d999 0337 8671 58bb
00000200: 6965 44be 45f9 b0bd d9bc ce38 eb2e cd39
00000210: f563 0c39 70d9 2339 c07b a7bd 0a85 2435
00000220: bfa4 c638 fe19 d2bd 45dd 2f39 cb29 3b39
00000230: c01c f2be 0dbb 3e34 b979 8335 d63c 89bc
00000240: 2c06 f4be 778a 3d39 b4e0 1a35 a8b9 1434
00000250: 01dc 0ebf 0f78 3539 1d5a 27be 5b18 8a39
00000260: 65fe 8233 8e25 f8be bf2b d0be 8bfd 1838
00000270: 9e2a 2239 e81a 0339 c490 5bbd 60ce 68bd
00000280: 1d37 a338 824d 6739 8b51 9b37 8197 ecb6
00000290: f803 f537 5ad7 3739 e402 4bb5 94d5 89bd
000002a0: a7df 6534 8042 0e38 cb00 4939 7f58 b8b6
000002b0: 21a9 22b2 0428 0e38 8914 42b7 b2db 0839
000002c0: 194b 9736 7a83 f239 c804 c636 a55a cc38
000002d0: 1824 3f39 a63b 1c39 afed 1a39 95d2 f337
000002e0: 280b 05be c694 1039 e9c0 5038 e0d0 b0be
000002f0: 389e 59bc ad79 5b37 9abd efbe eb95 1335
00000300: b866 1b39 fc6f 2239 83ef 4438 0c67 ebbd
00000310: 12b3 3838 6d5a 6dbe 8bb5 0539 95f2 3f39
00000320: 9eda 2937 8e8c 8a38 832b 1539 7d10 cc39
00000330: e14f f3b6 db5d 3534 7def 9539 131c 3bbe
00000340: 1a60 bdbc 7093 e733 8012 ef38 22ef b538
00000350: ce0a 0b39 8743 0c39 ae5e 1739 4c46 55be
00000360: 1633 5d38 9632 b8bd 0169 6cbc 2720 17be
00000370: 330d 3039 07b0 9d38 da80 99b9 a59d 0f39
00000380: 8a21 8639 b9a4 8737 eaf7 5034 1607 1b34
00000390: 483c 1d35 3032 9838 fc11 44bd 7907 fc38
000003a0: bfde 2bbc 636a f635 edc8 5439 0c1a d4b4
000003b0: 7174 10bc 39cf 5735 4e78 81bd 052a ebbe
000003c0: 9b4e 1637 77f1 bfbe fda3 50bc c49f d433
000003d0: bd6a aeb8 9f15 d9be fe46 3639 c8e7 83b7
000003e0: c6d4 ebbd 244a 97bc b4d5 d636 2382 a438
000003f0: ed04 01be 0cad 5739 1c33 8038 ce15 febd

fc.weight f4 [4, 128]
-0.15638898 0.0005540627 0.002877408 -0.00069199596 -0.0023297484 -0.0022993856 -0.17584309 -6.7600768e-06
0.002431224 -0.30711877 -0.0020045298 0.001939988 0.035827298 3.7328406e-05 -0.00014405242 0.07033935
0.66452897 -0.0009984209 2.905239e-05 -0.000112775306 -0.40378377 0.002281616 -0.5586781 0.0016618615
-9.482421e-06 -0.013573201 -1.1707902 0.00017888626 0.002240933 -0.00022193743 0.57310766 0.17823322
-0.00025116288 0.0020046192 0.00026237857 0.003134242 0.00015576449 0.0021629557 0.00023843719 0.29762176
2.5453444e-06 0.003087971 0.001715203 5.80378e-05 1.2933177e-05 -0.0030713868 0.002986841 0.0015017989
-0.00011199835 0.0012510254 0.0027839076 0.00027276517 -0.00196371 -0.00027185646 0.0024234587 0.0002511305
0.3724009 -1.4140809e-05 0.00021121421 -0.9818325 0.06013765 -0.00025540494 0.35856295 -1.0788809e-05
0.00064276136 0.0020750847 -0.00037759508 0.99776506 0.00025834102 -0.0419503 -0.001540561 -0.0018921823
-9.2542905e-08 0.0004311518 0.0023452786 0.0006939544 -0.0002592701 4.086928e-05 0.0006470332 -0.41005635
0.9693705 -7.505288e-05 0.00061123446 -0.00062041613 0.0016729663 0.00059050333 -0.002162433 0.22401924
-4.9026887e-05 0.38424492 0.09213453 -0.40382946 0.0020082286 -0.00046521457 -0.0036184436 -0.000624748
0.0011798688 -0.00023121663 0.00011514631 2.2805561e-05 1.9288695e-05 -0.00027322918 0.16593263 -0.00032984043
-0.07682942 -1.7712315e-05 0.0015462739 -0.00024137663 0.051637042 0.00013494486 -0.20019811 -0.8992979
-0.00015677759 -0.9606093 -0.057947535 -8.570248e-06 -0.0032980768 -1.1238135 0.0019835043 0.003032654
-0.11886814 0.0916962 -0.0002317861 5.1770447e-05 0.2917273 -0.0021389758 -8.403513e-06 -0.3215549
0.28300846 -0.4224286 0.00018716109 -0.0005136394 0.00013800876 0.00015965261 0.30997613 -4.442245e-05
4.764057e-05 0.33770573 -0.00011551572 0.00011894354 0.982211 0.00010839902 -1.26859595e-05 -0.07965929
0.3894149 -5.1818897e-05 -1.8846997e-05 -1.1974884e-05 1.6089212 -0.00010500792 0.23183435 7.6490964e-05
-3.394592e-05 -1.0483339 0.30087155 0.00026655375 -0.0001759529 -0.00037497346 -0.41983342 0.30982977
0.0006353856 8.9169625e-06 8.243315e-05 0.0001676618 0.00024899558 -0.0001358375 -0.00012509384 0.17367637
6.358291e-05 4.397049e-05 0.000111478555 6.006303e-09 -3.51966e-05 -1.2804914e-05 0.00020982474 -0.000382121
0.00014390827 0.00054837554 0.00034105926 0.00042405105 -0.00015825657 -0.0005812269 -0.00012878815 -5.84386e-05
-0.3659043 -0.0007672819 0.00030585815 0.21270819 -0.15140393 -0.00012550013 0.59660256 -2.7376333e-05
0.00015398339 -0.00022389682 -0.00014804275 -1.3247873 -0.00055991934 0.8067176 0.0002421476 -0.00011571417
-0.00017856075 0.00048524424 -0.00013717437 0.0004947257 -7.594677e-05 9.843279e-05 0.0004812884 0.3841523
-0.86887974 -0.0001550578 -1.7564169e-05 -2.6470545e-05 -0.00025988015 0.00013497293 0.00021949716 0.2378566
0.0004346224 -0.12853608 0.11058061 0.38340783 0.00011627392 -0.00018805824 -0.00018798762 -0.00020964442
9.233983e-05 -5.755804e-05 -8.9084597e-07 -4.1913685e-05 -3.4396795e-05 -0.0003575614 -0.12756483 -0.00046000758
0.0955498 9.571399e-05 0.00011487646 0.000111072695 -0.1333048 -0.00011817127 0.29428962 -0.055259686
0.00012384786 0.16397093 0.14721793 -0.00011934771 -9.756438e-05 0.16297805 0.00016378815 0.00015512833
0.13634136 -0.18263982 -7.724674e-05 0.00049520936 -0.2553682 3.0316834e-05 0.00045529645 0.016496774
00000000: 6f24 20be 853e 113a e592 3c3b 1067 35ba
00000010: b1ae 18bb 4ab1 16bb 3610 34be 9ed4 e2b6
00000020: 2c55 1f3b ac3e 9dbe 6e5e 03bb 3247 fe3a
00000030: a5bf 123d 1291 1c38 c70c 17b9 140e 903d
00000040: 921e 2a3f 72dd 82ba 88b5 f337 c881 ecb8
00000050: bfbc cebe 2a87 153b 8705 0fbf d2d2 d93a
00000060: b016 1fb7 2262 5ebc 74dc 95bf 6a93 3b39
00000070: 9edc 123b e0b7 68b9 2fb7 123f c582 363e
00000080: 83ae 83b9 ee5f 033b db8f 8939 db67 4d3b
00000090: b654 2339 60c0 0d3b ff04 7a39 e161 983e
000000a0: afd0 2a36 8e5f 4a3b aad0 e03a 9d6d 7338
000000b0: 92fb 5837 5249 49bb e0be 433b 02d8 c43a
000000c0: a8e0 eab8 72f9 a33a 3872 363b ec01 8f39
000000d0: 96b1 00bb f587 8eb9 e4d2 1e3b 2aaa 8339
000000e0: 55ab be3e 503e 6db7 6279 5d39 6059 7bbf
000000f0: e652 763d dfe7 85b9 9095 b73e 9501 35b7
00000100: fc7e 283a 25fe 073b f4f7 c5b9 886d 7f3f
00000110: f271 8739 14d4 2bbd a6ec c9ba 1a03 f8ba
00000120: 00bc c6b3 370c e239 3fb3 193b 7eea 353a
00000130: a5ee 87b9 0e6b 2b38 aa9d 293a e8f2 d1be
00000140: aa28 783f b565 9db8 403b 203a 6ca3 22ba
00000150: 6f47 db3a 02cc 1a3a 9bb7 0dbb 4d65 653e
00000160: 38a2 4db8 c0bb c43e 07b1 bc3d bcc2 cebe
00000170: 7c9c 033b 0be8 f3b9 6923 6dbb 21c6 23ba
00000180: d4a5 9a3a be72 72b9 b47a f138 924e bf37
00000190: 28ce a137 3340 8fb9 3eea 293e 6fee acb9
000001a0: be58 9dbd e894 94b7 58ac ca3a 0c1a 7db9
000001b0: 5d81 533d fc7f 0d39 bc00 4dbe 6338 66bf
000001c0: aa64 24b9 7eea 75bf 655a 6dbd efc8 0fb7
000001d0: 8c24 58bb 1fd9 8fbf aefd 013b 7ebf 463b
000001e0: 2471 f3bd 38cb bb3d 9c0b 73b9 1824 5938
000001f0: 485d 953e 0f2e 0cbb d0fc 0cb7 d8a2 a4be
00000200: 7ce6 903e 9048 d8be ac40 4439 c2a5 06ba
00000210: 72b6 1039 6c68 2739 31b5 9e3e 3e52 3ab8
00000220: acd1 4738 c4e7 ac3e 0841 f2b8 5471 f938
00000230: 2e72 7b3f 4854 e338 c8d5 54b7 6924 a3bd
00000240: 6461 c73e 1e58 59b8 9e19 9eb7 bce7 48b7
00000250: 21f1 cd3f b337 dcb8 fc65 6d3e c669 a038
00000260: 2761 0eb8 ce2f 86bf d60b 9a3e 3dc0 8b39
00000270: ff7f 38b9 1698 c4b9 68f4 d6be 02a2 9e3e
00000280: 0190 263a 109a 1537 f6df ac38 5fce 2f39
00000290: 9f8b 8239 9a6f 0eb9 9f2b 03b9 38d8 313e
000002a0: d157 8538 f46c 3838 98c9 e938 0060 ce31
000002b0: 10a0 13b8 b0d4 56b7 6604 5c39 6a57 c8b9
000002c0: 15e6 1639 dcc0 0f3a 33d0 b239 2b53 de39
000002d0: adf1 25b9 7a5d 18ba 4e0b 07b9 f81b 75b8
000002e0: cf57 bbbe 6b23 49ba 965b a039 2dd0 593e
000002f0: a209 1bbe af98 03b9 f2ba 183f 3aa6 e5b7
00000300: 9a76 2139 d8c5 6ab9 ec3b 1bb9 a192 a9bf
00000310: 8dc7 12ba 0b85 4e3f 00e9 7d39 92ab f2b8
00000320: 093c 3bb9 6168 fe39 77d6 0fb9 7bb0 013a
00000330: 9d45 9fb8 b46d ce38 7055 fc39 9caf c43e
00000340: e76e 5ebf 0397 22b9 c456 93b7 100d deb7
00000350: 8640 88b9 8587 0d39 d228 6639 ae90 733e
00000360: 08de e339 f69e 03be 1678 e23d 084e c43e
00000370: 16d8 f338 8031 45b9 8b1e 45b9 ffd3 5bb9
00000380: 92a6 c138 7a6a 71b8 7822 6fb5 7acc 2fb8
00000390: 4745 10b8 1477 bbb9 5ba0 02be 2c2d f1b9
000003a0: 9daf c33d 0fba c838 d4e9 f038 b3ef e838
000003b0: 0e81 08be b8d2 f7b8 21ad 963e fb57 62bd
000003c0: 28dd 0139 ffe7 273e 4cc0 163e 504a fab8
000003d0: 7a9b ccb8 b8e3 263e 8cbe 2b39 f2a9 2239
000003e0: 129d 0b3e ef05 3bbe 87ff a1b8 f0d0 013a
000003f0: 9fbf 82be e850 fe37 dbb4 ee39 3e24 873c

fc.bias f4 [4]
0.038728885 0.027886096 -0.06612605 -0.0017835775
00000000: 2ea2 1e3d 6271 e43c 186d 87bd eec6 e9ba
