input/gru_model.pth (torch, 611234 bytes, 10 tensors)

recurrent.weight_ih_l0 f4 [384, 7]
00000000: ad20 18bb 9d03 69bb d207 b7bb 271c aabb
00000010: 5786 f039 89f4 cf3a 02ed a1bb 8050 073b
00000020: 5f17 413a e03a 743a c87e 593c f9aa 05bc
00000030: c169 a83c 7a8d 813c 4fb1 7eb9 5f29 9db9
00000040: f4f7 1eb9 5c3d 2cb9 7f22 203a 8f6c 00ba
00000050: f4f3 9db9 616c 25bb 3c0e 65bb 429b bebb
00000060: 1e13 aebb c261 4e39 5720 9a3a 9bb6 a5bb
00000070: a87d 11bb e031 9abb beca 9dbb 026b 6cbb
00000080: 336e a2ba 9ed8 4c3b e4e8 a9bb d02a fd3b
00000090: 20b0 b53b 49b4 a83b 75a9 02bc 9c8d 4dbb
000000a0: 6fe7 94bc 01a6 5f3c 2b76 9a3c 6c02 043e
000000b0: dd08 073e 1e7e 883d 8b4a a5bc b76d 62bb
000000c0: e5f7 0b3e 1626 923d e87f bc3d 48c2 f63d
000000d0: 4065 003e d6ca e7bb 3453 7ebd 1e54 2dbe
000000e0: 3931 25bb b9d5 67ba 170e a83b a141 683b
000000f0: 781a f5ba b763 afbc 5f89 3f3c 4815 eb3c
00000100: d387 ae3c 2543 a53c 4c10 8a3a 49c2 e33b
00000110: b37a f43c 5ec2 4f3d e12f a93c 0522 883c
00000120: 9899 643c 7c7c 653c d219 28bc 43ee 07b9
00000130: 41e0 ab3c 378f 69bb 1401 7bbb ffb9 b7bb
00000140: 881b 8ebb f7d1 9c3a d896 9fb9 0649 a0bb
00000150: 36f5 06bb ec31 95bb bdd2 9bbb 0c46 77bb
00000160: fb0a 88ba 28ee 283b 5971 a5bb aa6c 66bb
00000170: 23e3 a2bb b69b e4ba 59c6 93ba 9354 acbb
00000180: d034 3cbc 7fb5 87bb 2eac 1bbb ed19 67bb
00000190: d7b4 b9bb ed7c aabb 89b4 7839 5647 ae3a
000001a0: 60bb a2bb a6e2 023b 5674 2bb8 1515 ab3b
000001b0: 3225 533b bc96 943b 7033 ac39 63bc 973a
000001c0: cc9a 04ba 4dfc 02ba 1b57 f9b9 1395 f5b9
000001d0: e227 b339 bea9 aab9 9219 32ba b868 b2bb
000001e0: cbe7 d0bb 7e5f 93bb 717e 0bbb b3ba ba39
000001f0: 1d54 8c3c b16f 81bb 969b 26bb 848e 03bb
00000200: 116c 06bb 7c60 9eba 0a2c 093b 4d76 61bb
00000210: ec49 b3ba f8a4 3dbb 93db 9dbb 113f c3ba
00000220: 0ca8 7cba 6c5a dbbb 929f 13bc 1e7e 85bb
00000230: 5333 05bb 417e 9bbb b1dd 0bbb 5e5e e3ba
00000240: 2ec7 b9bb dd4f f2ba adeb 81bb f309 11bc
00000250: 7c8a 3c3c dd00 b93b bad4 ad3b de18 3a3d
00000260: 877c a4bc c980 8b3c 3230 38bb 1276 57bb
00000270: 0adf cbbb 5144 c0bb 4bc8 b3b9 b895 84ba
00000280: dee7 a3bb 78d2 3dbb 4a0e 6bbb 3d2d c5bb
00000290: eca2 a9bb 9fe4 c138 4cd0 3c3a a468 abbb
000002a0: ef66 5cbb 8139 51bb 5082 6fbb 736f 40bb
000002b0: a519 863b 847d e03a 905d 5cbb 0023 5bbb
000002c0: 4bb6 92bb 863f bfba fb3a 2aba 07e2 bebb
000002d0: cfc1 23bc 18c3 68bb f151 6bb9 aa55 3ab9
000002e0: cd0d 68b9 f7e5 62b9 cdd0 2a39 a708 7eb9
000002f0: e67f 86b9 f546 a93c 58bb 873c a6b8 643c
00000300: 5998 663c d8a9 2fbc 45b2 7939 007f ab3c
00000310: b8be 4fbb 6b8f 72bb be65 c5bb 84b5 a2bb
00000320: 1725 6439 9f8c 8f39 5619 acbb 88f4 83bc
00000330: ede2 ce3b ee01 713c f7fd c93c d910 a33b
00000340: 365f b63c 69e1 2e3d 4d41 5abb eb9a 71bb
00000350: 6f0e edba 82e8 93ba a769 9dbb 6523 19bc
00000360: 8a4c 33bb 5a68 39bb d137 25bb bb12 16bb
00000370: e471 e6ba a91e 9ab9 b27f fbbb a35f f5ba
00000380: de89 193c df51 323b a90a 8339 a3e9 bd3b
00000390: c723 2bbd 28c5 86bb a357 003c 6f91 63bb
000003a0: 041c 64bb 9c1b 8ebb 266b 5ebb 2605 523b
000003b0: 8e1e 6f3a 8fb6 7bbb f0b0 5fbb b526 5abb
000003c0: f153 7fbb 1128 4abb 2a47 7c3b e98b c73a
000003d0: 1c7d 69bb d694 6abb 46ea 74bb 4c9c aabb
000003e0: dddf 83bb 2e6e f63a e305 34b9 423d 93bb
000003f0: 6a6d edbb aa5e e93a 4f40 f539 8365 27ba
-0.0023212836 -0.0035555132 -0.005585649 -0.0051913443 0.00045876458 0.0015865724 -0.0049415836 0.0020647347
0.0007365848 0.00093166344 0.013274856 -0.008158439 0.02055824 0.015814532 -0.0002428938 -0.00029976197
-0.00015160424 -0.00016426056 0.0006108656 -0.0004898989 -0.00030127133 -0.00252416 -0.0034951111 -0.005816848
-0.0053123375 0.00019682109 0.0011758906 -0.0050571687 -0.002220014 -0.0047056526 -0.0048154285 -0.0036074524
-0.0012392461 0.0031257044 -0.0051852334 0.007726051 0.0055446774 0.005148445 -0.007974972 -0.0031364923
-0.018176762 0.013650418 0.018855175 0.12891549 0.13186975 0.0666468 -0.020177146 -0.0034550258
0.13668783 0.071361706 0.09204084 0.12048775 0.12538624 -0.0070737405 -0.062091067 -0.1692662
-0.002520634 -0.0008843798 0.0051286328 0.0035439509 -0.0018699905 -0.021409852 0.011690467 0.028696671
0.021305 0.020173619 0.0010533421 0.006950651 0.029843664 0.050722472 0.020652713 0.016617784
0.013952635 0.01400673 -0.010260062 -0.00012963363 0.020980956 -0.0035638341 -0.0038300203 -0.0056068893
-0.004336778 0.001196443 -0.0003043923 -0.0048915176 -0.0020592934 -0.0045530703 -0.0047553466 -0.003773096
-0.0010379249 0.0025776718 -0.0050489125 -0.0035159984 -0.0049709245 -0.0017441425 -0.0011274322 -0.0052591055
-0.011487201 -0.004141509 -0.002375375 -0.0035263256 -0.0056673097 -0.0052028806 0.00023718378 0.0013296406
-0.0049661845 0.0019971519 -4.0877923e-05 0.005221019 0.0032218215 0.0045345705 0.0003284472 0.0011576529
-0.0005058467 -0.0004996702 -0.0004755788 -0.0004684111 0.00034171256 -0.00032551395 -0.00067939714 -0.0054446124
-0.006375288 -0.0044974675 -0.0021285082 0.00035615786 0.017129952 -0.003950082 -0.0025422326 -0.002007396
-0.002051119 -0.0012083198 0.002093079 -0.0034402788 -0.0013678647 -0.002893744 -0.004817435 -0.0014896115
-0.0009638078 -0.0066941287 -0.0090102125 -0.004073872 -0.002032478 -0.0047452752 -0.0021341855 -0.0017346849
-0.005669496 -0.0018486936 -0.0039648623 -0.00885247 0.011507627 0.005645855 0.0053049 0.04543387
-0.02007891 0.017029183 -0.0028104899 -0.0032876772 -0.0062216567 -0.005867519 -0.0003429077 -0.001011542
-0.005002006 -0.002896456 -0.0035866671 -0.0060173557 -0.0051768925 9.245541e-05 0.00072026695 -0.00523098
-0.003363069 -0.0031925144 -0.0036546178 -0.0029363304 0.0040924125 0.001712725 -0.0033625104 -0.003343761
-0.0044772974 -0.0014591075 -0.0006493774 -0.0058252844 -0.009994938 -0.0035516676 -0.00022441872 -0.00017770255
-0.00022130385 -0.00021638708 0.00016290248 -0.00024226551 -0.00025653763 0.020663718 0.016568825 0.013960039
0.014074408 -0.010721646 0.00023812901 0.020934582 -0.003169937 -0.0037011753 -0.0060240915 -0.004965486
0.00021757591 0.00027379856 -0.0052520437 -0.016107813 0.0063136728 0.014709933 0.024657233 0.0049763736
0.022262197 0.042695437 -0.0033303082 -0.003686602 -0.0018085967 -0.0011284503 -0.0048038545 -0.009346818
-0.0027358853 -0.0028290958 -0.002521027 -0.0022899348 -0.001758155 -0.00029396013 -0.0076751346 -0.0018720519
0.009371249 0.0027209444 0.0002499421 0.005795674 -0.041782167 -0.0041128583 0.007833394 -0.0034724136
-0.0034806738 -0.0043367874 -0.0033938377 0.0032046526 0.00091216795 -0.0038408374 -0.0034132563 -0.0033287231
-0.0038959945 -0.0030846635 0.0038494566 0.0015224192 -0.003562755 -0.003579428 -0.0037371083 -0.0052066203
-0.0040244893 0.0018801147 -0.0001716833 -0.0044933865 -0.007245709 0.0017804701 0.00046777955 -0.0006385671

recurrent.weight_hh_l0 f4 [384, 128]
00000000: aaf4 27ba c73e 94bb 4e3c e539 b492 223a
00000010: 4d9d 203a a4a1 943b 53c9 2e3b 4904 1a3b
00000020: 3ec6 8d3b fccb ba3b c904 dfbb e0d7 ecb9
00000030: aadb 353a c998 cfba 9818 283a c43a daba
00000040: 94e4 0fb8 b30a f8ba 3ec7 3c3a 8766 baba
00000050: 2096 9aba 9cbe 6a3b bcd0 3a3a 524c 11ba
00000060: 993b 1939 f05b b5ba 4e14 97b6 bd18 dfbb
00000070: bf5b 06ba 45ef c53b cc9a a93a 7e90 74ba
00000080: 012c 953b 7e0d 94b9 c885 52b9 36fd d9b9
00000090: de3d 1d3b b209 bbbb b7a1 b639 da1f e1b9
000000a0: caf6 db39 d317 df3b bacd 32b9 1ff8 b939
000000b0: 901c 033b a684 9c3a ea3b 76ba 36e9 41bb
000000c0: 4937 f1ba ef6a 16bb 311a 75ba e2c2 8cbb
000000d0: 417c 4ebb a187 0bb9 5fcc 1838 542f ddbb
000000e0: 51fd debb 72bb 2139 c8fa 36bb 8846 b03b
000000f0: dfdb 893a 6f3c afbb faf5 383a 470d 26ba
00000100: 84a1 333a b7c4 9ebb 2765 2bba 1dd7 19bb
00000110: b5b5 013b 7560 b539 48ef 5e38 6709 0739
00000120: 476d 6eb9 3a75 a7bb e73b 43ba 39ce 85bb
00000130: bf86 bbb9 3f43 213a 70c8 b5ba e437 523a
00000140: d5af ba3a 55b4 e838 f3fe c8b9 078d 213a
00000150: 5707 df3b 789a b8ba d941 a43b af50 be3a
00000160: 66ca ae3a 2379 a7ba 4c3c 6739 ebb9 45b9
00000170: 3f10 df3b d5fb aabb ca5e 8538 ac69 8bba
00000180: 36ba 1d3b 4111 dfbb 113c 15ba f3fe d23b
00000190: b75f 653a 6830 49ba 7f0b 9dba e70a bdbb
000001a0: 4e7e cabb 57ae a2ba c0e6 993b cb29 dfbb
000001b0: cbd7 863a 73ae 5cba ef33 ff39 1e13 df3b
000001c0: 75cf 16bb d1bf bbb8 0065 a93b 1775 1dba
000001d0: ac17 dfbb 24f5 c839 d2b8 f339 3a66 293a
000001e0: fcc4 afb9 59a1 8eba bb91 51ba 00be 8fba
000001f0: 25e2 a5ba 60ea b6b9 e17b c3ba a2f8 de3b
00000200: d478 6aba 2a52 7c3b b437 373a 8461 1d3a
00000210: 2367 333b 81f4 28bb b4d1 5ebc 3cb3 89ba
00000220: b874 73bb 6fc3 62bb 0fe3 a33b f9b3 c539
00000230: fec2 2a3b 644b 4abb efc5 4f3a bef5 443b
00000240: 8a77 083a d0a8 a83b 0ea0 293b f7f5 58bb
00000250: 7cff 61bb 3e38 9abb 6645 a7b7 a573 a5b9
00000260: 08f0 a0ba ce5e 52bb 5f51 b4b9 c812 a43b
00000270: df17 f0b8 0ae5 03bc 3e0e 4c3b e546 47bb
00000280: 13cd 023b ab31 803a 0ee1 903a 3438 2b3a
00000290: 3af5 94bb d516 ec3b 010a e839 ecf4 7abb
000002a0: 2d60 59bc 1aea a3bb 70d1 e4ba d3ba 243a
000002b0: e73c 19bc 8590 663a eebe 113b 6121 3fbb
000002c0: f0fd 2abb 9432 50bb d1b2 3bbb 9cbb a83b
000002d0: 1676 0bbb 3a34 4738 5a32 a9ba 146f 563b
000002e0: 81e1 a33b 496f a9ba 770f 3ebb 2bbd c73a
000002f0: db7c 5d3b a353 3b3b acda ccbb 79f2 27ba
00000300: 1785 233b 3885 cb3b 8e13 24bb 1ece e8ba
00000310: de2c 04bc de2b c139 adc9 9ab9 b8a6 24bb
00000320: 83e1 b8b9 5b48 d23b 7ff6 96ba 9cdd a33b
00000330: ff59 13ba 9db9 2dbc 8da6 4cbb c6ac 333b
00000340: 291f 583b 6e6c b7ba cf5b 20ba eb01 f339
00000350: cfed a3bb ad6b 4fbb e97e 113b 36c9 563b
00000360: cbfa 603b 04d1 60bb b304 c8b8 ef5b 77bb
00000370: 4d2b a4bb d5dc 673b 8421 9639 f687 3dbb
00000380: e6cc d1ba abdd a33b 6d42 40ba 5cad 84bb
00000390: 2b0d fd3a 30dd 3cbb 3ea8 46bb eebf 643b
000003a0: 5f35 f23b 9868 62bb 7594 afbb 320f a43b
000003b0: cd33 5b3b fbcd 33bb 03b2 283a 81fd a3bb
000003c0: c75d 34bb 5296 e937 521d 7abb d691 6337
000003d0: ff2d a43b ecbe 093b ffb7 233a 0653 1dba
000003e0: 38a0 1bba c41b 60bb 2221 30bb 40fd 64bb
000003f0: b68d 48bb 766d 03bb f27e 5cbb 33be a3bb
-0.0006407002 -0.004524085 0.00043723214 0.000620167 0.0006126955 0.0045358706 0.0026670292 0.002350109
0.004326611 0.0057005864 -0.0068059904 -0.00045174267 0.00069373345 -0.001583838 0.0006412356 -0.0016649594
-3.4306737e-05 -0.0018924087 0.000720132 -0.0014221229 -0.0011794008 0.0035819178 0.0007126441 -0.00055426836
0.00014613419 -0.0013836604 -4.5025145e-06 -0.006808369 -0.00051253656 0.006040486 0.001293981 -0.00093293923
0.004552365 -0.00028238812 -0.00020076998 -0.00041578122 0.0023993175 -0.005707943 0.00034834232 -0.00042939076
0.00041954807 0.00680826 -0.00017052042 0.00035470814 0.0020006038 0.0011941388 -0.0009393083 -0.0029588467
-0.0018403317 -0.002295192 -0.0009349911 -0.004295693 -0.0031507167 -0.00013306599 3.642996e-05 -0.0067500267
-0.0068051 0.00015423985 -0.0027920473 0.0053795017 0.0010517797 -0.0053477804 0.00070556963 -0.0006334376
0.0006852376 -0.0048452276 -0.0006538205 -0.0023474165 0.0019792144 0.00034594876 5.3151773e-05 0.00012878106
-0.00022738158 -0.00511041 -0.0007447586 -0.0040834215 -0.00035767813 0.0006151683 -0.0013868939 0.00080191926
0.0014243076 0.000110962115 -0.00038336925 0.00061626773 0.006806295 -0.0014084121 0.0050127325 0.0014519895
0.0013335466 -0.001277719 0.00022052339 -0.00018856644 0.0068073566 -0.005218009 6.35959e-05 -0.0010636351
0.002406729 -0.0068074767 -0.00056928495 0.0064390837 0.00087499194 -0.00076747546 -0.0011981576 -0.005769122
-0.0061796075 -0.0012411576 0.004696697 -0.006810402 0.00102877 -0.0008418329 0.00048676084 0.006807699
-0.0023011838 -8.9525834e-05 0.005169511 -0.00060065225 -0.006808242 0.00038329617 0.00046486274 0.00064620713
-0.00033525366 -0.0010881826 -0.0007994433 -0.0010966659 -0.0012655897 -0.00034888368 -0.0014914238 0.0068045417
-0.00089443964 0.0038501122 0.00069891964 0.00060036057 0.0027374707 -0.0025780501 -0.013599802 -0.0010505687
-0.0037148427 -0.003460135 0.0050014327 0.00037708858 0.0026056166 -0.003086769 0.0007925918 0.00300537
0.0005205801 0.005147077 0.0025882754 -0.003310559 -0.0034484556 -0.0047064116 -1.9940268e-05 -0.00031557414
-0.0012278566 -0.0032099965 -0.00034392902 0.0050071217 -0.00011448538 -0.008050213 0.0031136419 -0.0030407247
0.001995866 0.0009780427 0.00110534 0.0006531507 -0.004545835 0.00720487 0.00044257942 -0.0038292957
-0.013267559 -0.0050022723 -0.0017457437 0.00062839425 -0.009352899 0.0008795339 0.0022239047 -0.0029164182
-0.00260913 -0.0031768428 -0.0028640518 0.005149318 -0.0021280102 4.7493937e-05 -0.0012908683 0.0032720016
0.0050012474 -0.0012926842 -0.0029000917 0.0015238872 0.0033796343 0.0028583787 -0.0062516537 -0.00064066757
0.0024951154 0.0062109493 -0.002503607 -0.0017761623 -0.008067338 0.00036844512 -0.0002952343 -0.0025123786
-0.00035263234 0.006417317 -0.0011517553 0.005000783 -0.00056210154 -0.010603336 -0.0031227202 0.0027416213
0.0032977557 -0.0013994107 -0.0006117196 0.0004635 -0.005002714 -0.0031649873 0.0022200888 0.003277374
0.0034329172 -0.003430427 -9.5376185e-05 -0.0037744006 -0.0050100447 0.003537943 0.000286352 -0.002892015
-0.0016006499 0.00500079 -0.0007334117 -0.0040489864 0.0019306293 -0.0028818361 -0.0030312683 0.0034904438
0.0073916162 -0.0034547206 -0.0053582736 0.0050066942 0.0033447624 -0.0027436006 0.0006435217 -0.0050045853
-0.0027521716 2.7845763e-05 -0.003816445 1.3564209e-05 0.005010366 0.002101834 0.0006245374 -0.0006001446
-0.0005936655 -0.0034196237 -0.0026875217 -0.0034940988 -0.0030602044 -0.0020054257 -0.0033645001 -0.0049970387

recurrent.bias_ih_l0 f4 [384]
00000000: b661 f5bb 7cf2 4a3c d03f 28ba d1df ffbb
00000010: f4bc f8bb b16d 143c ed48 1d3e 11fa 473e
00000020: 54c5 a03b b9c3 233d 3eb2 1a3d c278 14bc
00000030: 8164 f1bb 1db7 e0bb 13c5 f7bb 04fe 2f3b
00000040: 5512 6fba 4000 d8bb a66a 88bb 9bf9 d6bb
00000050: c991 dfbb f65d ae3c 4959 06bc 7d1a 09bc
00000060: 1b0f eebb 0eb2 c6bb 449f abb9 2083 1a3d
00000070: 8238 0fbc 8451 033d 14e1 b2bb c940 9cbb
00000080: 1491 463c 750f 04bc 7f71 f9bb 932c 10bc
00000090: 6f6a 173c 9900 f63c c3ab 273e 07db 04bc
000000a0: 32fc a43d 86bd 1a3d 23f3 b9bb f975 10ba
000000b0: cac9 103e 6047 c6bb 4f93 e5bb 6eec 50bb
000000c0: e997 94bc 8001 b1bb 3166 90bb 6256 443c
000000d0: 8f11 2eba 5ecc 1eb9 c721 e9bb 9014 3d3d
000000e0: 80c3 1a3d 1d48 ebbb 95b2 71bb ce1b eb3c
000000f0: cddd e8bb f96f e93c b48a 583e 56c2 fdbb
00000100: 2d4d 8dbb 3ae5 373e cab7 87bb df93 91bb
00000110: 4bbc 253e 1809 80b9 83cb b6b9 453d 493d
00000120: b3fd 03b9 e4ff 883c 0963 e9bb caf1 593c
00000130: 6381 ceb9 fa27 773d c5c5 b8bb e69b 8cbb
00000140: dce4 cdbb 51ce e0bb af6b fcb9 372f 03bc
00000150: cdb8 1a3d 411b bebb c457 5d3c ec97 cebb
00000160: 66a0 dabb 25c7 dfbb 7b16 59b9 0179 debb
00000170: ebac 1a3d 6dc9 da3d 8fa9 a6b8 2898 93bb
00000180: 86ee 8c3d f9ad 1a3d 5bf0 4aba 0b47 003d
00000190: 0842 e0bb 0e5a f0bb 6a30 a4bb 952e 533d
000001a0: 8786 2d3d d847 dfbb 0f79 c83c 16a6 1a3d
000001b0: c708 e9bb 7fc4 88bb 491f 22ba 26b5 1a3d
000001c0: 2718 9abb 18a6 a538 8a5d 463d 523a 0cbc
000001d0: 9da8 1a3d 50dc 9ebb 0500 abb9 5d2f 08bc
000001e0: 0391 d2b9 1862 e5bb 3e54 8abb 538f e6bb
000001f0: 001b aabb 01c8 a5bb e0fe d7bb a3ae 1a3d
00000200: 22b5 323c de61 b7bc f21f ec38 ce61 3e3c
00000210: 5973 fe3b ead7 0dbc a4aa 6dbe 0f7c 9cbe
00000220: eb01 8fbc e1b4 08bd 1836 63bd a2b2 5f3c
00000230: 2edf ff3b 3c8f 323c 5161 363c 909a 6bbd
00000240: 35d4 0a39 f5ca 083b f2da 183c 3ea4 223c
00000250: baf8 033c 395f 06bd d53d 583c 835a 4b3c
00000260: f4bc 483c b9a1 253c 6fdf 97b4 1fd3 62bd
00000270: 198d 533c ed97 2cbd 81ef 243c e1e3 203c
00000280: 049b 81bc 00d6 543c 91f7 4d3c 1651 5f3c
00000290: 2903 b8bc 22a2 c43c 1c70 84be 6007 f43b
000002a0: 9c06 2dbe 3942 63bd 7480 2f3c 2a5a 1639
000002b0: ab15 4cbe 45b1 273c a513 a23d 548f 983b
000002c0: b2f9 eb3d f10c 0d3c 0cbf 1c3c d0b6 bbbc
000002d0: 29d5 653d 6317 bf38 a2aa 483c db88 fabc
000002e0: 2745 63bd c1c7 473c 74b0 b83b 8488 e0bc
000002f0: 776c f93b 22a0 10bc 78c7 b8be 4529 3e3c
00000300: 6abb 1c3c 3197 a1be 97b3 173c 307f c83b
00000310: 5ea8 c1be 35b6 f738 7951 fd37 0caa 0fbe
00000320: fa69 9638 48bb 14bd 4c42 2a3c 2d81 ccbc
00000330: 7044 0239 2616 2abe 2c08 253c 9337 1c3c
00000340: ba2d 213c e4d8 423c 7e7a 0939 69fc 453c
00000350: f226 63bd bef3 243c 5fad 4dbc 9b8c 243c
00000360: f9e4 153c 412a 083c a1ef 2a39 b298 243c
00000370: b513 63bd e0f7 0dbe 45f2 59b5 4e89 1e3c
00000380: ae51 88bd 072d 63bd 1783 4839 6cb6 50bd
00000390: 2f06 103c 9192 f33b c014 223c 516f 5bbd
000003a0: 7009 4abd e093 0a3c ecbb 0fbd 25ff 62bd
000003b0: 37fc f63b 797d 193c ca3c 8e39 9f22 63bd
000003c0: d569 f33b cb30 16b8 3f82 21bd 9046 593c
000003d0: 8d14 63bd ec06 233c 1b35 5c39 b684 603c
000003e0: a569 fa38 1d4b fc3b 1319 1a3c c1a9 033c
000003f0: 41d4 223c 3ced 263c a608 1e3c e744 63bd
-0.0074884547 0.012386914 -0.00064182 -0.0078086634 -0.0075908843 0.009059356 0.1535985 0.19528987
0.004906336 0.039981578 0.03776764 -0.009061994 -0.0073667173 -0.0068577663 -0.007561335 0.0026854286
-0.0009119858 -0.0065918267 -0.004163104 -0.006560517 -0.006822799 0.021285038 -0.008199998 -0.008368132
-0.0072649843 -0.0060637062 -0.00032734324 0.037722707 -0.0087415 0.03206016 -0.0054589603 -0.004768465
0.01211955 -0.008060326 -0.0076124067 -0.00879969 0.009241684 0.030029582 0.16374116 -0.008108861
0.08055915 0.0377784 -0.005674736 -0.00055107434 0.14139476 -0.006050989 -0.007006086 -0.0031879204
-0.018138843 -0.00540179 -0.0044067134 0.011983486 -0.00066401897 -0.00015144187 -0.0071146223 0.046162188
0.0377841 -0.0071802274 -0.0036880125 0.028699782 -0.007106519 0.028495776 0.21146661 -0.007744114
-0.0043121786 0.17958537 -0.0041417824 -0.0044426764 0.1618511 -0.00024420838 -0.00034865373 0.049130697
-0.00012587644 0.01672358 -0.0071224016 0.013302276 -0.00039387782 0.06034086 -0.0056388103 -0.0042910455
-0.0062833857 -0.0068605323 -0.00048145416 -0.008006862 0.037773896 -0.0058015888 0.0135096945 -0.0063047316
-0.006671953 -0.00682916 -0.00020703107 -0.006789327 0.037762564 0.1068295 -7.9470796e-05 -0.0045042224
0.06881432 0.03776357 -0.0007741504 0.03131775 -0.006843809 -0.007334954 -0.005010654 0.051558096
0.042364623 -0.0068139844 0.024471788 0.03775605 -0.007111642 -0.004173815 -0.00061844714 0.037770413
-0.004702586 7.8987505e-05 0.04842905 -0.0085588265 0.03775846 -0.0048480406 -0.00032615676 -0.008312074
-0.00040162363 -0.007000219 -0.004221468 -0.0070361285 -0.005191207 -0.0050592427 -0.0065916628 0.037764203
0.010907443 -0.022385534 0.00011259307 0.011619998 0.0077652154 -0.008657435 -0.23209625 -0.305634
-0.01745697 -0.033375625 -0.05547151 0.013653429 0.0078085875 0.010898408 0.0111316005 -0.05752045
0.00013239759 0.0020872925 0.009329544 0.009926854 0.0080549065 -0.032805655 0.013198336 0.012411716
0.012252081 0.0101093585 -2.828851e-07 -0.055377122 0.012912058 -0.042137075 0.010066868 0.009819956
-0.015820988 0.012990475 0.012571231 0.013630172 -0.022462444 0.024003092 -0.25866783 0.007447168
-0.16897053 -0.055483077 0.010711778 0.00014338703 -0.1993014 0.010235135 0.07913903 0.004655758
0.11522235 0.0086090425 0.0095670335 -0.02291432 0.05611149 9.111946e-05 0.012247713 -0.030582836
-0.05548587 0.012193621 0.005636269 -0.027408846 0.007611807 -0.008827241 -0.36089683 0.011606519
0.009566167 -0.31560662 0.009259126 0.0061186776 -0.37823766 0.000118118165 3.0197889e-05 -0.14029711
7.172297e-05 -0.036311418 0.010391783 -0.02496394 0.00012423261 -0.16610011 0.010072749 0.009534734
0.009837562 0.011892531 0.0001311097 0.012084105 -0.055457063 0.010067878 -0.012553542 0.010043289
0.00914883 0.008310855 0.00016301732 0.010046171 -0.055438716 -0.13864088 -8.119135e-07 0.009676291
-0.06656204 -0.055462863 0.00019122321 -0.05095522 0.008790537 0.0074332436 0.0098926425 -0.053572956
-0.049325407 0.008458108 -0.035091326 -0.055419106 0.0075373906 0.009368294 0.00027129642 -0.05545294
0.0074283876 -3.580823e-05 -0.039430853 0.013261452 -0.05543952 0.009950381 0.00021000618 0.013703516
0.00011940607 0.007699384 0.009405392 0.008036078 0.009938301 0.010188397 0.009645617 -0.055485632

recurrent.bias_hh_l0 f4 [384]
00000000: b661 f5bb 7cf2 4a3c d03f 28ba d1df ffbb
00000010: f4bc f8bb b16d 143c ed48 1d3e 11fa 473e
00000020: 54c5 a03b b9c3 233d 3eb2 1a3d c278 14bc
00000030: 8164 f1bb 1db7 e0bb 13c5 f7bb 04fe 2f3b
00000040: 5512 6fba 4000 d8bb a66a 88bb 9bf9 d6bb
00000050: c991 dfbb f65d ae3c 4959 06bc 7d1a 09bc
00000060: 1b0f eebb 0eb2 c6bb 449f abb9 2083 1a3d
00000070: 8238 0fbc 8451 033d 14e1 b2bb c940 9cbb
00000080: 1491 463c 750f 04bc 7f71 f9bb 932c 10bc
00000090: 6f6a 173c 9900 f63c c3ab 273e 07db 04bc
000000a0: 32fc a43d 86bd 1a3d 23f3 b9bb f975 10ba
000000b0: cac9 103e 6047 c6bb 4f93 e5bb 6eec 50bb
000000c0: e997 94bc 8001 b1bb 3166 90bb 6256 443c
000000d0: 8f11 2eba 5ecc 1eb9 c721 e9bb 9014 3d3d
000000e0: 80c3 1a3d 1d48 ebbb 95b2 71bb ce1b eb3c
000000f0: cddd e8bb f96f e93c b48a 583e 56c2 fdbb
00000100: 2d4d 8dbb 3ae5 373e cab7 87bb df93 91bb
00000110: 4bbc 253e 1809 80b9 83cb b6b9 453d 493d
00000120: b3fd 03b9 e4ff 883c 0963 e9bb caf1 593c
00000130: 6381 ceb9 fa27 773d c5c5 b8bb e69b 8cbb
00000140: dce4 cdbb 51ce e0bb af6b fcb9 372f 03bc
00000150: cdb8 1a3d 411b bebb c457 5d3c ec97 cebb
00000160: 66a0 dabb 25c7 dfbb 7b16 59b9 0179 debb
00000170: ebac 1a3d 6dc9 da3d 8fa9 a6b8 2898 93bb
00000180: 86ee 8c3d f9ad 1a3d 5bf0 4aba 0b47 003d
00000190: 0842 e0bb 0e5a f0bb 6a30 a4bb 952e 533d
000001a0: 8786 2d3d d847 dfbb 0f79 c83c 16a6 1a3d
000001b0: c708 e9bb 7fc4 88bb 491f 22ba 26b5 1a3d
000001c0: 2718 9abb 18a6 a538 8a5d 463d 523a 0cbc
000001d0: 9da8 1a3d 50dc 9ebb 0500 abb9 5d2f 08bc
000001e0: 0391 d2b9 1862 e5bb 3e54 8abb 538f e6bb
000001f0: 001b aabb 01c8 a5bb e0fe d7bb a3ae 1a3d
00000200: 22b5 323c de61 b7bc f21f ec38 ce61 3e3c
00000210: 5973 fe3b ead7 0dbc a4aa 6dbe 0f7c 9cbe
00000220: eb01 8fbc e1b4 08bd 1836 63bd a2b2 5f3c
00000230: 2edf ff3b 3c8f 323c 5161 363c 909a 6bbd
00000240: 35d4 0a39 f5ca 083b f2da 183c 3ea4 223c
00000250: baf8 033c 395f 06bd d53d 583c 835a 4b3c
00000260: f4bc 483c b9a1 253c 6fdf 97b4 1fd3 62bd
00000270: 198d 533c ed97 2cbd 81ef 243c e1e3 203c
00000280: 049b 81bc 00d6 543c 91f7 4d3c 1651 5f3c
00000290: 2903 b8bc 22a2 c43c 1c70 84be 6007 f43b
000002a0: 9c06 2dbe 3942 63bd 7480 2f3c 2a5a 1639
000002b0: ab15 4cbe 45b1 273c a513 a23d 548f 983b
000002c0: b2f9 eb3d f10c 0d3c 0cbf 1c3c d0b6 bbbc
000002d0: 29d5 653d 6317 bf38 a2aa 483c db88 fabc
000002e0: 2745 63bd c1c7 473c 74b0 b83b 8488 e0bc
000002f0: 776c f93b 22a0 10bc 78c7 b8be 4529 3e3c
00000300: 6abb 1c3c 3197 a1be 97b3 173c 307f c83b
00000310: 5ea8 c1be 35b6 f738 7951 fd37 0caa 0fbe
00000320: fa69 9638 48bb 14bd 4c42 2a3c 2d81 ccbc
00000330: 7044 0239 2616 2abe 2c08 253c 9337 1c3c
00000340: ba2d 213c e4d8 423c 7e7a 0939 69fc 453c
00000350: f226 63bd bef3 243c 5fad 4dbc 9b8c 243c
00000360: f9e4 153c 412a 083c a1ef 2a39 b298 243c
00000370: b513 63bd e0f7 0dbe 45f2 59b5 4e89 1e3c
00000380: ae51 88bd 072d 63bd 1783 4839 6cb6 50bd
00000390: 2f06 103c 9192 f33b c014 223c 516f 5bbd
000003a0: 7009 4abd e093 0a3c ecbb 0fbd 25ff 62bd
000003b0: 37fc f63b 797d 193c ca3c 8e39 9f22 63bd
000003c0: d569 f33b cb30 16b8 3f82 21bd 9046 593c
000003d0: 8d14 63bd ec06 233c 1b35 5c39 b684 603c
000003e0: a569 fa38 1d4b fc3b 1319 1a3c c1a9 033c
000003f0: 41d4 223c 3ced 263c a608 1e3c e744 63bd
-0.0074884547 0.012386914 -0.00064182 -0.0078086634 -0.0075908843 0.009059356 0.1535985 0.19528987
0.004906336 0.039981578 0.03776764 -0.009061994 -0.0073667173 -0.0068577663 -0.007561335 0.0026854286
-0.0009119858 -0.0065918267 -0.004163104 -0.006560517 -0.006822799 0.021285038 -0.008199998 -0.008368132
-0.0072649843 -0.0060637062 -0.00032734324 0.037722707 -0.0087415 0.03206016 -0.0054589603 -0.004768465
0.01211955 -0.008060326 -0.0076124067 -0.00879969 0.009241684 0.030029582 0.16374116 -0.008108861
0.08055915 0.0377784 -0.005674736 -0.00055107434 0.14139476 -0.006050989 -0.007006086 -0.0031879204
-0.018138843 -0.00540179 -0.0044067134 0.011983486 -0.00066401897 -0.00015144187 -0.0071146223 0.046162188
0.0377841 -0.0071802274 -0.0036880125 0.028699782 -0.007106519 0.028495776 0.21146661 -0.007744114
-0.0043121786 0.17958537 -0.0041417824 -0.0044426764 0.1618511 -0.00024420838 -0.00034865373 0.049130697
-0.00012587644 0.01672358 -0.0071224016 0.013302276 -0.00039387782 0.06034086 -0.0056388103 -0.0042910455
-0.0062833857 -0.0068605323 -0.00048145416 -0.008006862 0.037773896 -0.0058015888 0.0135096945 -0.0063047316
-0.006671953 -0.00682916 -0.00020703107 -0.006789327 0.037762564 0.1068295 -7.9470796e-05 -0.0045042224
0.06881432 0.03776357 -0.0007741504 0.03131775 -0.006843809 -0.007334954 -0.005010654 0.051558096
0.042364623 -0.0068139844 0.024471788 0.03775605 -0.007111642 -0.004173815 -0.00061844714 0.037770413
-0.004702586 7.8987505e-05 0.04842905 -0.0085588265 0.03775846 -0.0048480406 -0.00032615676 -0.008312074
-0.00040162363 -0.007000219 -0.004221468 -0.0070361285 -0.005191207 -0.0050592427 -0.0065916628 0.037764203
0.010907443 -0.022385534 0.00011259307 0.011619998 0.0077652154 -0.008657435 -0.23209625 -0.305634
-0.01745697 -0.033375625 -0.05547151 0.013653429 0.0078085875 0.010898408 0.0111316005 -0.05752045
0.00013239759 0.0020872925 0.009329544 0.009926854 0.0080549065 -0.032805655 0.013198336 0.012411716
0.012252081 0.0101093585 -2.828851e-07 -0.055377122 0.012912058 -0.042137075 0.010066868 0.009819956
-0.015820988 0.012990475 0.012571231 0.013630172 -0.022462444 0.024003092 -0.25866783 0.007447168
-0.16897053 -0.055483077 0.010711778 0.00014338703 -0.1993014 0.010235135 0.07913903 0.004655758
0.11522235 0.0086090425 0.0095670335 -0.02291432 0.05611149 9.111946e-05 0.012247713 -0.030582836
-0.05548587 0.012193621 0.005636269 -0.027408846 0.007611807 -0.008827241 -0.36089683 0.011606519
0.009566167 -0.31560662 0.009259126 0.0061186776 -0.37823766 0.000118118165 3.0197889e-05 -0.14029711
7.172297e-05 -0.036311418 0.010391783 -0.02496394 0.00012423261 -0.16610011 0.010072749 0.009534734
0.009837562 0.011892531 0.0001311097 0.012084105 -0.055457063 0.010067878 -0.012553542 0.010043289
0.00914883 0.008310855 0.00016301732 0.010046171 -0.055438716 -0.13864088 -8.119135e-07 0.009676291
-0.06656204 -0.055462863 0.00019122321 -0.05095522 0.008790537 0.0074332436 0.0098926425 -0.053572956
-0.049325407 0.008458108 -0.035091326 -0.055419106 0.0075373906 0.009368294 0.00027129642 -0.05545294
0.0074283876 -3.580823e-05 -0.039430853 0.013261452 -0.05543952 0.009950381 0.00021000618 0.013703516
0.00011940607 0.007699384 0.009405392 0.008036078 0.009938301 0.010188397 0.009645617 -0.055485632

recurrent.weight_ih_l1 f4 [384, 128]
00000000: 835e febb 859f 36bc d2ba 0139 b2b7 e03b
00000010: 83e0 323c 38f6 413c 424d bf3b 8cbb 4f3d
00000020: 6806 543c 1031 8b3c 5096 6d39 8f8c 1fbb
00000030: 0244 343c 85cc 78bc 1077 fa3b 5eb3 00bc
00000040: 9ec0 9e3a e0ad 523b 36c0 143c fe6a 79bc
00000050: 2936 63bc 7428 fdbb 1885 923b ea3c b9bb
00000060: b31d 1ebb ba82 69bc 35ee a5b9 e0d3 3839
00000070: 102c 9bbb 40d0 263c 199a 533c 5198 3fbc
00000080: d3b2 963c a42e 613a 2f4c e03a f7c6 87ba
00000090: e5bb 80bc 1a8d 96bc 7388 4bbc dfc0 4ebc
000000a0: 4feb 19bd e3ba 4eb9 05a9 abbb a6e0 c8b8
000000b0: a5c2 113c 4c94 1c3c fbb1 34b9 7f49 89bc
000000c0: b457 aa3b 3a82 86bc 8fbb 2ebc 47ae 8d3a
000000d0: bba6 45bc 076b 6e39 bed3 80bb 02cb 98bc
000000e0: 0a1e 5239 01cf 2ebb 7266 83bc c6fe a23c
000000f0: 2c01 573c 3577 0fbc dc1f ad3d cd12 e2bb
00000100: 4774 123c c372 44bd ecde 0cbc fa39 75bc
00000110: 3847 673d 2784 8239 35a4 ddb9 0d93 1e3c
00000120: 6474 36b9 17a9 06bc 8021 07bc 1f7b 593b
00000130: c017 26b9 e6d6 2a3d f2cc 5dbc c492 233c
00000140: f165 6e3c 276c 53bb a0b1 89b8 6206 cc3b
00000150: 0282 3cb9 4ebd 63bc 215b ab3c 9c56 6f3c
00000160: 3ccb 6d3c d80f 67bc b769 8fb9 5777 ecbb
00000170: 0fc4 47b9 c12c 1bbd 84e5 4839 5c75 3dbc
00000180: 3c85 143d 2f60 5139 1904 d4b9 7396 a63a
00000190: 0922 2e3c d044 3ebc bddc 48bc 7caf 1cbc
000001a0: 453f d2bb 7689 69bc d662 dfba 17a0 2939
000001b0: 1249 563c 24dc 22bc 0252 9039 294e 4cb9
000001c0: c0ba 85bc 5d87 91b9 6f9b 103b 5e37 68bb
000001d0: d46c 5739 2209 e23b b599 acb8 7a7e ac3a
000001e0: 2d39 e3b8 2233 5bbc f27d 1dbc 52d9 5cbc
000001f0: 25f8 4ebc ba76 dabb 7301 75bc cfb9 5bb9
00000200: c831 773a d2b2 413b 2456 adb8 d952 65ba
00000210: e9ab c1ba e922 83bb 8963 d93c c6a8 483c
00000220: 26b4 3abb 60c4 93bb 87fd be3b 0463 1a3a
00000230: 387e c3ba 43f2 093b 6d6f 7cba 4212 8bba
00000240: 3cc7 3eba 3a6c 253a f856 8dba c7f3 153b
00000250: b787 1c3b 324c 3b3b f1d9 58ba 726a 4c3a
00000260: df53 95b8 4447 063b ba79 a839 3901 bf3b
00000270: af11 3e3a 2dec 84bb a62f e3ba dc98 b73a
00000280: 6b24 69ba 85bb 9839 7d5c 2339 cb70 033a
00000290: 1ea1 423b 881a ad3b 77ad 803c ebd4 093b
000002a0: ee7d 27bb 181f bfbb 70b2 c339 062d a8b8
000002b0: e6d2 09bc f8c3 b1ba fbc1 e138 15e2 d03a
000002c0: 4a55 2e3a db5e 0f3b 902d ac3a c82f 143a
000002d0: 6ee6 2b3b fd1a 65b9 aa32 9b38 ecaf 903b
000002e0: 58f0 be3b 9250 c1b8 625c d23a b6f4 30ba
000002f0: 4ce5 11bb 916d 713b 1878 debb fbea 653a
00000300: 8ba6 84ba a9ac 01bd d313 853a 9149 1a3b
00000310: 4392 92bc 9c70 c7b8 a8a7 be39 e618 87bc
00000320: 9dd5 feb6 87dd 673b 2658 843a f7f9 9ab9
00000330: d039 8238 7504 23bc 89fe f43a 2273 98ba
00000340: 3f3b 16bb 771e c9b7 bbd2 cb38 c911 59ba
00000350: 5233 bfbb 5fee 023b 8147 9eba 6204 12bb
00000360: 440b 1fbb 0fb6 1e3b 4a03 3139 5cfc e639
00000370: d32b bfbb 2c4b 43bb af47 8037 173f c63a
00000380: f9d5 0dbc 6810 bf3b da7e 9339 8d18 a9bb
00000390: 6c6d b7ba 8718 de3a e1f6 d33a f138 223a
000003a0: 9a40 5b3b 18ec 1f3b 4fa1 8639 191b bf3b
000003b0: 2e0e 10bb e9ac a03a 731c 5ab9 a135 bfbb
000003c0: 4044 2d3b 4fd9 4239 4324 e5b6 a51c 2d3a
000003d0: e90d bf3b 5ecc 29ba 7807 7738 42f6 32ba
000003e0: a5b2 e237 cf49 163b 8485 963a 44be 193b
000003f0: 3e69 de3a 67da 1d3a 4c47 1d3b 7121 bfbb
-0.0077627315 -0.011146431 0.00012371995 0.0068578357 0.010917786 0.011838488 0.0058380673 0.050715968
0.0129409805 0.016991168 0.00022658077 -0.0024345254 0.011002542 -0.01518548 0.007643588 -0.0078552645
0.0012111848 0.0032147095 0.00907903 -0.015223263 -0.013867893 -0.0077257697 0.0044714324 -0.0056530135
-0.0024126589 -0.014252359 -0.0003164873 0.00017626537 -0.0047354773 0.010181487 0.012915158 -0.01169403
0.018395817 0.0008590019 0.0017112548 -0.0010358979 -0.015714595 -0.01837783 -0.012422669 -0.012619226
-0.037577923 -0.00019715312 -0.0052386546 -9.578587e-05 0.0088965045 0.009556841 -0.0001723244 -0.016758678
0.0051984433 -0.016419519 -0.010664835 0.0010809385 -0.012063677 0.0002273732 -0.0039314916 -0.01865149
0.00020038351 -0.0026673677 -0.01604006 0.019896876 0.013122838 -0.0087564485 0.08453342 -0.006899214
0.0089388555 -0.047961008 -0.008598071 -0.014967436 0.056464404 0.00024893993 -0.0004227475 0.009678614
-0.00017400231 -0.008219025 -0.008247733 0.0033184958 -0.00015839841 0.04170885 -0.013537632 0.009983722
0.014550672 -0.0032260509 -6.565754e-05 0.006226347 -0.00017977509 -0.013900114 0.020917477 0.014608052
0.014513787 -0.014102899 -0.0002735385 -0.007216375 -0.00019051156 -0.037884478 0.00019158988 -0.011563625
0.036259875 0.00019967624 -0.00040438844 0.0012709632 0.010628232 -0.011613086 -0.012259659 -0.009563323
-0.0064162337 -0.014253965 -0.0017043005 0.00016176734 0.013078945 -0.009940181 0.0002752692 -0.00019484073
-0.0163244 -0.0002775741 0.0022065302 -0.0035433392 0.0002054454 0.0068980614 -8.230229e-05 0.0013160252
-0.00010834853 -0.01337889 -0.009612547 -0.013479548 -0.012632404 -0.0066669853 -0.014953959 -0.00020954687
0.000942972 0.0029556048 -8.265328e-05 -0.0008748002 -0.0014775965 -0.0040019643 0.02653672 0.01224727
-0.0028488724 -0.0045094937 0.0058285627 0.0005889388 -0.0014914935 0.002104894 -0.0009629641 -0.00106103
-0.0007277613 0.00063103775 -0.0010783365 0.0022880898 0.0023884603 0.0028579351 -0.0008272222 0.0007797844
-7.120496e-05 0.0020489255 0.0003213415 0.005829003 0.000725056 -0.0040564747 -0.0017332926 0.0014007348
-0.00088936713 0.00029131412 0.00015579346 0.0005014061 0.0029698084 0.005282704 0.015707714 0.002103145
-0.0025557238 -0.005832564 0.00037326245 -8.0192505e-05 -0.0084120985 -0.0013562432 0.00010764968 0.0015936518
0.00066502823 0.0021876607 0.0013136137 0.0005652872 0.0026229876 -0.00021849196 7.400413e-05 0.004415503
0.005826991 -9.2179645e-05 0.0016049261 -0.0006750332 -0.0022261916 0.0036838988 -0.0067892186 0.00087706716
-0.0010120434 -0.031658802 0.0010153003 0.0023542384 -0.017892009 -9.5100346e-05 0.00036364538 -0.016491365
-7.5946577e-06 0.0035379843 0.0010097071 -0.00029559407 6.2096515e-05 -0.009949793 0.001869158 -0.0011630992
-0.0022923497 -2.3975253e-05 9.719046e-05 -0.0008280543 -0.0058349753 0.0019978506 -0.0012075753 -0.0022280444
-0.002426819 0.0024217402 0.0001688126 0.0004405704 -0.0058340817 -0.0029799445 1.529217e-05 0.0015125003
-0.008656972 0.005830813 0.00028132537 -0.0051603974 -0.0013994402 0.0016944566 0.0016171598 0.00061882945
0.0033455254 0.0024402197 0.00025678656 0.0058320877 -0.0021981108 0.0012258562 -0.00020800698 -0.0058352505
0.0026438385 0.00018582235 -6.8289532e-06 0.00066036946 0.0058305156 -0.00064772915 5.8896345e-05 -0.00068268564
2.7024487e-05 0.0022932177 0.0011483883 0.0023459354 0.001696862 0.0006021619 0.0023998795 -0.005832844

recurrent.weight_hh_l1 f4 [384, 128]
00000000: b06d 653d 190d b3bc 7af8 8f3d d5e3 a93a
00000010: 7517 46bb 48a6 68b9 dc50 0c39 7d10 de39
00000020: 34d9 c83b 6c30 4bbd c0bc 79b9 033e 5bbc
00000030: 49ba 4e3b 24ea 71bb 8c74 34bb 80af 2a3b
00000040: 1461 9a3b e1fc 42bc c6f2 8838 7615 1d3d
00000050: 1bb7 5f3b 8e2c 98ba 15a8 7e3d 94d5 9837
00000060: e2e5 4a39 f396 813b b9be 983b 33d3 3639
00000070: 27d5 87bb 030f cab9 c4ff 8abb de86 743b
00000080: 170b 75bb d1c1 593a 49aa 813b db92 6bbd
00000090: b9ca 38b9 06b8 763d 5b02 6a3b 87bb 193a
000000a0: d287 53b9 c342 07bc 8055 6ebd f4df 1b39
000000b0: cf0f f5bb f99c f03a ac84 093b 8853 11b9
000000c0: 787d b839 dc2c 913b 4ec5 65bb 2af0 5ebb
000000d0: d1c8 043a 3e59 9bb8 bdc0 f3b8 f533 95bb
000000e0: 6550 8e3b 549b 713b 0623 62bd 22a6 a4bb
000000f0: fa97 87bb b7b3 863b 9034 8f3b 7c89 bfba
00000100: 9710 aa3b b7f8 67b9 a149 e038 6df7 953b
00000110: a5cd a636 12a8 de3c 8dd2 123d c034 1a3c
00000120: 582d 453b 1c65 8e3b 1b9a 8d39 6b90 dcba
00000130: ce91 783b a4b3 af3b 0ab5 d439 622d 403b
00000140: a5c5 e5b8 36ba ba37 edd3 723b ac4d c83a
00000150: c64e 6ebd aeff 85bb 8465 8c3b e195 b4ba
00000160: e0d6 1b3a 8e6f 7c3b 291e 95b7 8d9b 8bbb
00000170: 489d b838 695d afba 4dfa 5abb 93ae 59bb
00000180: 5e8d c53a e0a7 7b3b 1edd cdbc f119 acba
00000190: 2cd3 723b 9421 c8bb ff5a 523b e396 803b
000001a0: 07ba 57b9 67e2 26b9 f055 59ba 6bdd 1b3c
000001b0: 2733 06bb 72ab 1d39 5143 ab3b 0ef6 8cba
000001c0: a12a cab7 03b5 983b 6e80 5839 5f91 773b
000001d0: 9404 7abb 171f a039 9b28 823b c68b 013b
000001e0: 22f6 04b9 c6f7 863b e9af 4ab9 4868 3039
000001f0: 708e ff3a f624 c037 f67f 9d3a 7720 5bbb
00000200: 4906 dcbc 9580 b1bb bd2c a6bc 7f2c 58ba
00000210: e8df ce39 ccf8 af39 bd43 96b8 6543 2ab9
00000220: 3abc a3ba 4f15 73bc 1994 cf38 26ac 1d3d
00000230: e950 1bbb 26a9 6037 9e00 e33a b84a beba
00000240: 6a7b 13ba b68c 1dbd 145a 13b9 9064 d5bc
00000250: d209 92ba ea85 403a f189 adbc 74d5 31b9
00000260: 5b3f f438 0021 6cba 51f1 30ba 89fa 66b8
00000270: 7e4e 2c3a be63 3139 a287 e63a 6ed7 a637
00000280: 6eff 4d3a 4da9 b8b9 4d05 5fba bd92 13bc
00000290: 9932 7e39 f70c 7c3c 19a9 51ba fc53 e9b9
000002a0: dbaf 6d39 6be6 dcba 30f8 14bc b450 84b8
000002b0: b8e1 4d3b cdb6 3c3a 2e50 2ebb f6b3 8339
000002c0: 0560 adb9 daed 0fb9 2ae3 f739 3511 6f39
000002d0: fd3e e4b9 ce6d 2c39 c778 3638 42d5 5937
000002e0: 07d7 66ba 0103 afba bea2 bf3c ae1c 093b
000002f0: a8e7 b839 652f a2bb 2df2 99b8 1dfa 5b3a
00000300: cc7a 1dbb 304d f5b8 11a2 1a39 eeb2 e5b9
00000310: 0500 6439 86d2 cc3b 3dba cdbc baef 85bb
00000320: 62d1 9b36 a2c2 1fb9 63e3 ad38 878e 853a
00000330: df8b 2ab9 dd51 01bb d8d5 cab8 4897 b3b9
00000340: c515 c738 e0b7 2239 37f5 56ba 4f7b 61ba
00000350: 6601 17bc 1ad5 303a de6c 89ba 4fb7 7d3a
00000360: a997 82b9 fa71 4138 6dd2 6a39 75b8 893a
00000370: 9424 2e3b 01ac 033b d9b4 db3a 7e47 543a
00000380: 191a 283d c3da 98ba 10cd 903c adba 563a
00000390: 7973 7cb9 e406 133b 8510 d6ba f092 dcb9
000003a0: 63a3 c838 2fe7 8139 fe39 8439 030e 89bb
000003b0: c138 15ba b3f5 5eb8 294e f4ba 27d7 1dba
000003c0: b741 3339 094f e7ba c8b6 69b9 45b7 afb9
000003d0: 96aa 903b 9c00 9db9 34e2 23ba 0fdf 9b3a
000003e0: c9ef 5c39 7f2e 0bba f558 1838 75cc 5ab9
000003f0: 566f 36bb b2b8 18b9 5e10 b939 d6b6 b638
0.05601281 -0.021856831 0.07029815 0.0012961576 -0.0030226384 -0.00022187189 0.00013381563 0.00042355424
0.0061294083 -0.049606726 -0.00023816805 -0.013381484 0.003154414 -0.003691324 -0.0027535288 0.0026044548
0.0047112796 -0.011901111 6.5302054e-05 0.038350545 0.003413624 -0.0011609958 0.062172014 1.8219267e-05
0.00019349859 0.003954762 0.004661408 0.0001743555 -0.004145283 -0.00038539627 -0.0042419154 0.0037311832
-0.0037390643 0.0008306774 0.003957067 -0.0575131 -0.00017623127 0.060234092 0.003570697 0.00058644306
-0.00020173125 -0.008255663 -0.058187008 0.00014865381 -0.007478691 0.0018357328 0.002098362 -0.00013859395
0.00035188696 0.0044303965 -0.003506023 -0.003401766 0.00050653244 -7.4075986e-05 -0.00011623043 -0.004553313
0.00434308 0.0036866264 -0.055209182 -0.0050246874 -0.00413799 0.004110779 0.0043702796 -0.0014613117
0.005189966 -0.0002212253 0.00010694867 0.0045766146 4.9711257e-06 0.027179752 0.035845328 0.009411991
0.0030086841 0.0043455493 0.00027008433 -0.0016827708 0.0037928703 0.005361991 0.00040570676 0.0029323925
-0.00010956385 2.2259639e-05 0.0037052587 0.0015281937 -0.058180593 -0.0040893173 0.0042845625 -0.0013777578
0.00059447996 0.003851864 -1.7776229e-05 -0.0042604865 8.8030996e-05 -0.0013379279 -0.003341335 -0.0033215627
0.0015072038 0.0038399622 -0.025129851 -0.001313029 0.0037052138 -0.0061075184 0.0032097695 0.003924237
-0.00020573298 -0.00015915335 -0.0008290699 0.009513239 -0.0020477267 0.00015036555 0.0052265306 -0.0010754482
-2.4100127e-05 0.00466025 0.00020647209 0.0037775857 -0.0038149701 0.00030540742 0.0039721257 0.001976715
-0.00012680193 0.0041188924 -0.00019329753 0.00016823516 0.0019497406 2.2905395e-05 0.0012016285 -0.0033436099
-0.026858466 -0.0054169395 -0.020285005 -0.00082463765 0.00039458205 0.0003356397 -7.1651746e-05 -0.0001623757
-0.0012492009 -0.014836623 9.8981145e-05 0.03849425 -0.002369935 1.3390823e-05 0.001731891 -0.0014518118
-0.0005625995 -0.03846427 -0.00014052569 -0.026048928 -0.0011141843 0.00073441735 -0.02118394 -0.00016959553
0.000116466275 -0.0009007603 -0.0006749826 -5.5069602e-05 0.00065729755 0.00016917192 0.0017588029 1.988906e-05
0.00078581914 -0.00035221354 -0.0008507565 -0.009007153 0.00024242177 0.01538395 -0.0007997915 -0.00044503796
0.00022667593 -0.0016853338 -0.009092376 -6.3092826e-05 0.0031415056 0.00071988703 -0.0026598084 0.00025120348
-0.00033068671 -0.0001372615 0.00047280762 0.00022799226 -0.0004353448 0.00016444104 4.3504664e-05 1.2983861e-05
-0.0008805845 -0.0013352336 0.023393031 0.0020921635 0.00035267812 -0.0049494975 -7.340717e-05 0.0008391457
-0.0024029491 -0.00011696888 0.00014746959 -0.00043811597 0.00021743782 0.0062506823 -0.02511322 -0.0040874155
4.6437353e-06 -0.00015235928 8.291637e-05 0.0010189571 -0.0001626457 -0.0019732632 -9.671942e-05 -0.00034254254
9.493114e-05 0.00015518023 -0.0008199992 -0.0008601443 -0.009216642 0.0006745622 -0.0010484715 0.0009678499
-0.00024908528 4.6120935e-05 0.00022394369 0.0010507243 0.0026572095 0.0020091536 0.0016762271 0.00080978114
0.041040514 -0.0011661876 0.017675906 0.0008191269 -0.0002407561 0.0022434527 -0.0016331828 -0.00042071147
9.567176e-05 0.00024777043 0.0002522021 -0.0041825785 -0.0005692356 -5.315775e-05 -0.0018639016 -0.0006021135
0.00017095251 -0.0017647456 -0.00022288703 -0.00033515148 0.0044148667 -0.00029945828 -0.00062516634 0.0011892038
0.00021070162 -0.00053093577 3.632247e-05 -0.00020866266 -0.0027837357 -0.00014564654 0.00035298144 8.712492e-05

recurrent.bias_ih_l1 f4 [384]
00000000: 032b fe3c 011b 2e3c a8c6 273d 8f37 29b8
00000010: 7a08 d2b8 7ff6 d3b4 0cc8 3d34 99ec 0736
00000020: 79c1 06ba 4482 293b 21d1 ca35 8521 0d3c
00000030: 0044 89bb 9a62 db38 9308 0537 b09a 0bb9
00000040: eb4c b337 86dc c0b9 18c1 c133 c9b2 cf3b
00000050: 0c53 edb9 4a6d 34b7 f0e6 9c3c 89e3 d8b5
00000060: d8d1 74b6 6978 8eb9 ee6a a3b8 f98d 9c35
00000070: 9b39 00b9 dd64 ff35 fc82 5bba 2e21 1c39
00000080: d25b 1bb9 88a9 9cb7 2b4b bbb9 f4b4 2ebb
00000090: 1ea5 f3b5 d7b3 333c 0d4e 47b9 49f1 0c37
000000a0: b9a3 afb5 3c7a 9539 d66d 13bb 1d39 1135
000000b0: bf1b 1aba 10ff b0b9 de68 87b8 2343 e7b5
000000c0: 948d a1b6 810e 2b37 ccfc 6c39 e0bb ea38
000000d0: fc72 2bb6 e01a e9b4 2312 2735 c5d0 4538
000000e0: 7c9b a13a b3c0 24ba d4e4 733c d922 b9b9
000000f0: 173f 29b8 6ca6 07b9 cfc9 6038 329a dfb7
00000100: d20f 8bba 03b8 96b5 53da 06b5 d39a 0539
00000110: 0c02 6635 e5b3 8ebb 6c21 873b ccf3 89b7
00000120: 1960 5a38 6d52 8f38 c3fd 0bb6 2c43 8eb8
00000130: e9e6 8038 5382 2d3a dbee f4b6 d415 deb9
00000140: 365a b434 ce9b d7b5 da02 11ba aefe 68b8
00000150: 6b5c 0fbb 5e7f fdb8 c833 03b7 3750 4cb7
00000160: 4c3b b036 aa58 bc38 52ce 9c35 4b15 a138
00000170: d1f2 1139 afbf 3fb8 fde5 d9b8 7080 aeb9
00000180: 153e 143a 3cce 30b9 5eb0 3cbb 0d7b 40b8
00000190: 967f afb6 cb61 a7b9 8a0b fdb8 9e97 85b8
000001a0: 1816 74b4 f825 e8b5 684a 3eb7 5aa1 afba
000001b0: 1396 1fbb baec 2a35 0f2a 05ba 9d43 d836
000001c0: f2ba 7834 537e 4db9 9416 acb5 580c 5fb8
000001d0: 7413 b2bb 47b2 1ab6 5b9f c6b8 2f57 11ba
000001e0: fcc2 9035 4c3a f237 c6af ee35 ea78 9cb5
000001f0: 4c7a f6b7 ab78 72b5 e373 8db7 57b6 3539
00000200: 223a 53be 6967 0fbe a64d 52be 0d0b 82b8
00000210: 3d0a 40b8 2fcc 2eb7 ddfe c1b4 7458 43b7
00000220: c523 41bb b27f 21be be9c 05b6 a5eb 13be
00000230: 2e56 d8bd ff84 36b8 d4e9 0339 5d63 a6b9
00000240: 5f02 7cb9 e0da 23be 7e69 43b5 ffaa 25be
00000250: f84b 89ba 5ce4 84b8 fd77 34be 4e84 02b7
00000260: 91f2 52b7 3e94 82ba 96d6 55b9 ad2e bcb5
00000270: f6b3 82b9 b3eb 3cb7 b32b 65ba 864d 87b8
00000280: cc13 82b9 c34b 89b8 bdef 28ba 4544 38be
00000290: a11d 18b7 f705 3ebe 2fb9 8fb9 89c2 3ab7
000002a0: 4266 b8b6 70c1 d9bd 2ba4 3bbe 6243 75b5
000002b0: 99b4 54ba 2262 dcba 75d9 3939 cdad 31b7
000002c0: 946d 5eb7 d500 c7b8 4672 57b9 c3fb adb8
000002d0: 12b1 97b7 eca4 7db6 5193 1fb5 c55f b335
000002e0: cabe 1b3a 4db4 a8ba 28e8 1ebe b577 89ba
000002f0: 9c8d 90b8 39c9 3039 1886 c636 4097 e7b8
00000300: 0074 75ba 11f6 17b7 4f24 a3b6 d152 6db9
00000310: 7b85 14b7 1dd9 85bd cdc9 18be 2e92 a33a
00000320: 5f77 3236 547b 87b8 4ac4 30b7 c786 ffb8
00000330: 8cf3 8eb8 6094 f738 d623 9ab7 7e0c d2ba
00000340: c723 7733 ebf4 09b7 8a2d 0ebb 0477 2bb9
00000350: 1f79 3bbe 4b6f 49b9 2e4a 9eba cd3e 44b7
00000360: e80d c4b7 75fe f7b7 07bc 4cb7 4ba0 dbba
00000370: 1640 afba 316f 3038 772f cdb9 37d7 c7b9
00000380: 0b12 22be 505c 11ba bcff cbbd 0acb c8b8
00000390: 88a1 92b8 c061 a3ba 8b2e c5b9 4d2a 90b8
000003a0: 9e73 92b5 7ef5 1fb7 8197 07b8 e46c 11bb
000003b0: 376c babd f02b a1b5 8979 7cba 124b e3b9
000003c0: 8e0b e7b4 1880 eab9 735a a9b6 e5eb 9ab8
000003d0: f1ee 01be a31a 3bb7 496b 51b9 c9b9 eeba
000003e0: 0550 8db7 c74a 89b9 8976 fab5 5780 9cb6
000003f0: b501 a938 9ee8 dfb6 41d1 c2b9 f22c 82b8
0.031026369 0.010626555 0.040960938 -4.0344483e-05 -0.00010015159 -3.9481162e-07 1.7674773e-07 2.0254286e-06
-0.0005140524 0.0025864998 1.5111037e-06 0.008613949 -0.0041890144 0.000104611 7.929414e-06 -0.00013313699
2.137428e-05 -0.00036785397 9.0223864e-08 0.0063384515 -0.00045266037 -1.0754282e-05 0.019153088 -1.6159476e-06
-3.6480978e-06 -0.00027174063 -7.792363e-05 1.1664225e-06 -0.00012228491 1.9028336e-06 -0.0008373705 0.0001488968
-0.00014816158 -1.8675593e-05 -0.00035723424 -0.002665815 -1.8152966e-06 0.01096817 -0.00019007195 8.400829e-06
-1.3086166e-06 0.00028510566 -0.0022495887 5.409982e-07 -0.0005878768 -0.00033759372 -6.456835e-05 -1.723038e-06
-4.8146558e-06 1.0195771e-05 0.00022600888 0.00011192984 -2.5547915e-06 -4.3419186e-07 6.223874e-07 4.7162892e-05
0.0012329663 -0.0006284818 0.0148861 -0.00035311913 -4.0351497e-05 -0.000129366 5.359371e-05 -2.6655474e-05
-0.0010609573 -1.1229425e-06 -5.0236594e-07 0.00012741545 8.5684655e-07 -0.004354941 0.0041238572 -1.64452e-05
5.2064748e-05 6.834124e-05 -2.0860323e-06 -6.7835994e-05 6.146526e-05 0.0006618846 -7.299573e-06 -0.00042359403
3.359325e-07 -1.6064093e-06 -0.0005531736 -5.55503e-05 -0.0021875154 -0.00012087704 -7.820265e-06 -1.2178024e-05
5.252112e-06 8.9810535e-05 1.1682953e-06 7.6810444e-05 0.00013918734 -4.5716468e-05 -0.00010390205 -0.0003328356
0.0005655003 -0.00016861496 -0.0028791646 -4.5890967e-05 -5.2302594e-06 -0.00031925584 -0.000120661294 -6.370175e-05
-2.2732308e-07 -1.7296397e-06 -1.1342207e-05 -0.0013399527 -0.0024350926 6.367442e-07 -0.00050798146 6.445173e-06
2.316481e-07 -0.00019597383 -1.282157e-06 -5.317884e-05 -0.005434448 -2.305156e-06 -9.471058e-05 -0.00055443024
1.0785584e-06 2.8875795e-05 1.7783539e-06 -1.1658096e-06 -2.9382434e-05 -9.032762e-07 -1.6862474e-05 0.00017329432
-0.20627645 -0.14004292 -0.20537433 -6.2009414e-05 -4.5785902e-05 -1.0418748e-05 -3.613449e-07 -1.16435e-05
-0.0029470783 -0.15771368 -1.990978e-06 -0.1444536 -0.105633125 -4.3516044e-05 0.00012580241 -0.0003173602
-0.00024033476 -0.16001463 -7.279667e-07 -0.16178511 -0.0010474911 -6.336786e-05 -0.17623897 -7.779408e-06
-1.2573452e-05 -0.0009962393 -0.00020393202 -1.4020676e-06 -0.00024929614 -1.1260551e-05 -0.00087421684 -6.4517415e-05
-0.00024810282 -6.546781e-05 -0.0006444415 -0.17994793 -9.0668045e-06 -0.18556963 -0.00027413058 -1.1131758e-05
-5.4955317e-06 -0.106325984 -0.18324344 -9.136767e-07 -0.00081140694 -0.0016813914 0.00017723984 -1.0590488e-05
-1.3257744e-05 -9.4892144e-05 -0.00020546568 -8.296177e-05 -1.8083058e-05 -3.7795935e-06 -5.944649e-07 1.3364412e-06
0.00059412105 -0.0012871117 -0.15518248 -0.0010487946 -6.892832e-05 0.00016859629 5.9164704e-06 -0.00011043111
-0.00093632936 -9.057593e-06 -4.8620054e-06 -0.00022632933 -8.852566e-06 -0.06535552 -0.14920731 0.0012479478
2.659355e-06 -6.460273e-05 -1.053612e-05 -0.00012184452 -6.816452e-05 0.00011805515 -1.8374918e-05 -0.0016025451
5.754171e-08 -8.222861e-06 -0.0021694624 -0.00016352168 -0.18307923 -0.00019210314 -0.0012076551 -1.1697132e-05
-2.3371496e-05 -2.9563185e-05 -1.2203126e-05 -0.0016756145 -0.001337054 4.2065225e-05 -0.0003913601 -0.00038116585
-0.15827195 -0.00055450667 -0.09960887 -9.574562e-05 -6.99191e-05 -0.0012465045 -0.00037609445 -6.874334e-05
-1.0911497e-06 -9.534297e-06 -3.2327607e-05 -0.0022190148 -0.091026716 -1.2008222e-06 -0.0009631147 -0.00043352746
-4.303551e-07 -0.00044727395 -5.047122e-06 -7.387231e-05 -0.12688805 -1.115227e-05 -0.0001997176 -0.0018213327
-1.6845772e-05 -0.0002618639 -1.866095e-06 -4.664103e-06 8.058866e-05 -6.672998e-06 -0.0003715847 -6.207255e-05
