input/gru_model.pth (torch, 215132 bytes, 6 tensors)

recurrent.weight_ih_l0 f4 [384, 7]
0	0x3c7eaa26	0.015543496
1	0xbdb23986	-0.08702378
2	0x3c6ea549	0.014565774
3	0xbc813b1b	-0.015775254
4	0xbd069aae	-0.032862358
5	0x3bf77745	0.00755206
6	0x3d354a5e	0.044260375
7	0x3dd47d2f	0.103754394
8	0x3b8250a0	0.0039768964
9	0xbd84cee8	-0.06484777
10	0x3cbc29de	0.022969183
11	0xbcaefadf	-0.021359859
12	0xbc8db662	-0.017298881
13	0xbd3f85c7	-0.04675844
14	0xbd0e3ccf	-0.03472596
15	0x3ca5235f	0.020158468
16	0x3c9f7a1e	0.01946741
17	0xbd54a813	-0.0519181
18	0x3d920652	0.07130112
19	0x3dadae49	0.08480508
20	0xbdbdbcce	-0.09264527
21	0x3d266833	0.040626716
22	0xbd5b720c	-0.05357556
23	0x3d939bca	0.07207449
24	0xbd26f802	-0.040763862
25	0xbda2e867	-0.079544835
26	0xbd339579	-0.04384372
27	0x3bc19035	0.0059070834
28	0x3da66477	0.08124631
29	0x3b517a27	0.0031963678
30	0x3c92035e	0.017823871
31	0xbcb09f42	-0.021560315
32	0xbb18b342	-0.0023300205
33	0xbcd1c29c	-0.025605492
34	0xbd1cf017	-0.038314905
35	0xbaba0f43	-0.0014195222
36	0x3d5d7dad	0.054074932
37	0x3d8c6934	0.068560034
38	0x3d26a616	0.040685736
39	0xbdb5703f	-0.088593
40	0xbcd2eea5	-0.02574856
41	0xbc387645	-0.011258666
42	0xbc405696	-0.011739394
43	0x3c35dba6	0.011099732
44	0x3a848eec	0.0010113395
45	0xbd6e4038	-0.058166713
46	0x3bee401a	0.007270825
47	0xbd34af5a	-0.04411254
48	0xbc843315	-0.016137639
49	0x3d1f42c7	0.038882043
50	0x3781c690	1.5470461e-05
51	0xbcdd30de	-0.02700084
52	0xbd30c175	-0.043153245
53	0xbafd7a9b	-0.0019338907
54	0x3d8da6f5	0.0691661
55	0x3dcb4b68	0.09926492
56	0x3cada52d	0.021196926
57	0x3dc96800	0.098342896
58	0xbd6a1b2a	-0.057154812
59	0xbd7ee22f	-0.062227424
60	0xbcbc4d4d	-0.022986079
61	0xbdcf53ba	-0.101233914
62	0x3d06a673	0.032873582
63	0x3b071048	0.002060907
64	0xbc313d33	-0.010817814
65	0x3c5382db	0.012909616
66	0xbda1e834	-0.07905617
67	0x3dc83dbf	0.09777402
68	0x3bf0173a	0.0073269876
69	0xbd405402	-0.046955116
70	0xbd8ecea0	-0.06973004
71	0xbd3e26a0	-0.046423554
72	0xbdad9042	-0.084747806
73	0x3daa1d4e	0.08306371
74	0x3d67647f	0.056492325
75	0xbde661ab	-0.112490974
76	0x3ad34a03	0.001612008
77	0x3cf7fd37	0.03027211
78	0xbc2f0464	-0.010682199
79	0xbdb93589	-0.09043414
80	0x3d98dc82	0.074639335
81	0xbc7d8f91	-0.015476123
82	0x3d786916	0.060647093
83	0xbab43308	-0.0013748119
84	0x3cf038c0	0.029323936
85	0xbdbd0651	-0.092297204
86	0x3ab79d37	0.0014008646
87	0xbd30fb81	-0.043208603
88	0xbdae7c6f	-0.085198276
89	0xbdc83a4f	-0.097767465
90	0xbd1eb9a7	-0.03875127
91	0xbc58bbdc	-0.013228383
92	0x3d8fd020	0.070221186
93	0xbdc55aa5	-0.0963643
94	0xbc9b960d	-0.018992448
95	0x3cd919a9	0.026501494
96	0xbdb55a7b	-0.088551484
97	0x3dcf8075	0.10131923
98	0xbdba53c1	-0.09098006
99	0x3d5af88e	0.053459696
100	0xbca4aa4a	-0.020100731
101	0xbd4f7788	-0.050651103
102	0xbdb71a6b	-0.08940586
103	0xbc76288a	-0.015024314
104	0x3bf75f95	0.007549236
105	0xbde2393f	-0.11046075
106	0xbbd59cbf	-0.0065189297
107	0x3b8bc4dd	0.0042654113
108	0xbddf9f2f	-0.10919034
109	0x3d99fa06	0.07518391
110	0x3dbe9a08	0.09306723
111	0x3d54eceb	0.051983755
112	0xbbc19f92	-0.005908915
113	0x3de4670a	0.11152466
114	0x3db75ce9	0.08953268
115	0xbdcf8955	-0.10133616
116	0xbc512b86	-0.012766724
117	0xbc642512	-0.013924854
118	0xbd2e954c	-0.04262285
119	0xbc95af62	-0.018272106
120	0xbbe8a555	-0.0070997872
121	0x3d57abdd	0.052654136
122	0xbd477f9c	-0.048705682
123	0xbc5f8fbd	-0.01364511
124	0x3d8552b5	0.06509916
125	0xbd54b361	-0.05192888
126	0xbd80c886	-0.06288247
127	0x3da1ad07	0.078943305
128	0xbc8f3f9c	-0.017486386
129	0x3de085bc	0.10963008
130	0x3d9f6de3	0.07784631
131	0x3d79164b	0.060812276
132	0xbdc25c12	-0.09490217
133	0x3d29669d	0.041357625
134	0x3d82e0f8	0.06390566
135	0xbdc44368	-0.09583169
136	0xbcfa4ba4	-0.030553646
137	0x3d98de1e	0.074642405
138	0x3dc4affe	0.0960388
139	0xbd162763	-0.036658656
140	0x3d9c6817	0.07637041
141	0xbd13a8e1	-0.036049727
142	0x3cbbd4e1	0.022928657
143	0x3de29d2a	0.11065133
144	0xbd50a53c	-0.05093883
145	0xbdaa28aa	-0.08308537
146	0xbc16e2ca	-0.009209344
147	0xbd8efdaa	-0.06981976
148	0x3d2662cd	0.040621568
149	0x3d0ae52c	0.03390996
150	0xbbca5ac8	-0.0061753727
151	0x3c9cb7d2	0.019130621
152	0x3d894850	0.06703246
153	0xbdc787b0	-0.09742677
154	0xbdc230cf	-0.09481966
155	0xbbc2e2f0	-0.005947463
156	0x3d898fb4	0.06716862
157	0xbd23b309	-0.039965663
158	0x3dd2374e	0.10264455
159	0x3de49b08	0.11162382
160	0x3a859625	0.0010191841
161	0xbd1ccb30	-0.038279712
162	0x3c8f54c6	0.017496478
163	0x3dc919f8	0.09819406
164	0xbd6e7de3	-0.058225524
165	0xbc9e0f8d	-0.019294525
166	0x3c9fef99	0.019523429
167	0x3d7a090d	0.061043788
168	0x3c633227	0.013866938
169	0x3ae09f0d	0.0017137245
170	0xbd3cc9bf	-0.046090838
171	0x3c8792e5	0.016549537
172	0xbceaa8cb	-0.02864494
173	0xbdb73fd2	-0.0894772
174	0x3d8a241d	0.06745169
175	0xbdc1a428	-0.094551384
176	0xbc557cec	-0.013030272
177	0xbd73011b	-0.059327226
178	0x3cc331aa	0.023827393
179	0x3ce122b4	0.027482368
180	0x3c705f56	0.014671167
181	0x3c9f3658	0.019435093
182	0xbda37500	-0.079813
183	0x3b455a0c	0.0030113487
184	0x3d33b3e2	0.04387272
185	0xbc5573d8	-0.013028108
186	0xbdbe6ad4	-0.092977196
187	0x3da4108d	0.08010969
188	0x387d2ea4	6.0363338e-05
189	0xbd8fa792	-0.070143834
190	0x3d77a6b7	0.060461726
191	0xbdcc72e7	-0.099828534
192	0x3d615d86	0.05502083
193	0xbd85f133	-0.06540146
194	0xbce3a805	-0.027790079
195	0x3cf20383	0.02954269
196	0xbc01953e	-0.007909117
197	0x3bf75e69	0.0075490964
198	0xbdb9b52b	-0.09067758
199	0xbce963a9	-0.028489904
200	0xbd8af929	-0.06785805
201	0x3c52cec5	0.0128666805
202	0x3db7fe71	0.08984078
203	0x3dd309c8	0.103046
204	0x3db39d7b	0.087702714
205	0xbcd44c7b	-0.025915375
206	0x3cca75ad	0.024714315
207	0xbd428561	-0.04749048
208	0x3c901513	0.017588174
209	0x3d887d1e	0.06664489
210	0xbd7b333a	-0.06132815
211	0x3c37b3cf	0.011212303
212	0x3dae37f7	0.08506768
213	0x3dd70210	0.1049844
214	0xbd0c9489	-0.03432134
215	0xbdb28f56	-0.087187454
216	0xbd30940c	-0.04310994
217	0x3d6439dc	0.05571924
218	0xbd633830	-0.055473506
219	0xbd2c0684	-0.0419984
220	0xbd8c4d97	-0.068507366
221	0xbc01cff0	-0.007923111
222	0x3da9d476	0.08292477
223	0x3dcc145b	0.0996482
224	0xbd6e44f8	-0.058171242
225	0x3b749721	0.0037321525
226	0x3d5985fa	0.053106286
227	0x3d01b230	0.031664073
228	0x3c248572	0.0100415815
229	0xbdcc1258	-0.09964436
230	0x3d729e59	0.059233043
231	0xbd2dcdb8	-0.042432517
232	0xbdbff01b	-0.09371968
233	0xbcadd33d	-0.02121889
234	0x3dda4553	0.10657754
235	0xbdb36e96	-0.08761327
236	0xbdb786c3	-0.08961251
237	0xbde3e609	-0.1112786
238	0x3de5eb9c	0.112265795
239	0xbd2a96a5	-0.041647572
240	0xbdd96296	-0.10614507
241	0x3d9936ce	0.07481156
242	0xbdbace66	-0.09121399
243	0xbdd16069	-0.10223467
244	0x3d57cffb	0.05268858
245	0xbda88da5	-0.082301416
246	0x3de3fa11	0.11131681
247	0xbd824bae	-0.06362091
248	0xbbf4bc99	-0.0074687717
249	0xbd4eb01a	-0.050460912
250	0x3d5f89de	0.05457484
251	0x3b4dfa7c	0.0031429818
252	0x3de7dc59	0.11321325
253	0xba136ae8	-0.0005623535
254	0x3d82ed64	0.06392935
255	0xbdc2dccc	-0.0951477

recurrent.weight_hh_l0 f4 [384, 128]
0	0xbd9c3813	-0.07627883
1	0x3d899667	0.0671814
2	0x3d6df4b5	0.0580947
3	0xbd840632	-0.06446494
4	0xbaa5a644	-0.0012638052
5	0x3d53c9f6	0.051706277
6	0xbd086f2b	-0.033309143
7	0x3a9465f6	0.0011321891
8	0xbd1808b3	-0.03711767
9	0x3b89f922	0.004210607
10	0xbdb18f68	-0.08669931
11	0x3caed3cd	0.021341229
12	0xbd5c8c36	-0.053844653
13	0xba914b38	-0.0011085039
14	0x3d053e70	0.03253025
15	0x3ccbf757	0.024898214
16	0xbdc52265	-0.09625701
17	0xbd41cd82	-0.04731513
18	0xbd1add72	-0.037808843
19	0x3d206b1e	0.039164655
20	0x395ffe3c	0.00021361647
21	0xbb0553d1	-0.0020344148
22	0x3d5e4932	0.054269023
23	0x39d04840	0.00039726682
24	0xbda04c98	-0.07827109
25	0x3da8998d	0.082324125
26	0xbdb08689	-0.086194105
27	0x3d9afd8f	0.07567894
28	0x3b6e214f	0.0036335771
29	0xbda31d6c	-0.07964596
30	0xbc8f85a2	-0.017519776
31	0x3d8c215c	0.068423
32	0xbc6a28c0	-0.014291942
33	0xbd33d3ca	-0.04390315
34	0x3d8caea6	0.06869249
35	0x3dac1106	0.084016845
36	0x3d4910d9	0.049088333
37	0x3a6a6484	0.00089413696
38	0x3daeb2ba	0.08530183
39	0xbcd39dff	-0.025832174
40	0xbab40bd0	-0.001373643
41	0xbd4133a7	-0.0471684
42	0x3d32ae0d	0.04362302
43	0x3ceb2060	0.028701961
44	0x3d8824b7	0.06647628
45	0x3dbcc92a	0.092180565
46	0x3d03ea47	0.032205846
47	0x3cfde1df	0.030991493
48	0x3dbecfca	0.09316976
49	0xbca8b7c7	-0.020595444
50	0xbd356677	-0.04428717
51	0x3c91eb4e	0.017812397
52	0xbdb2e730	-0.08735502
53	0xbc999ade	-0.018750604
54	0x3d0ff652	0.03514702
55	0xbba43f9a	-0.0050124647
56	0xbb9fd080	-0.00487715
57	0x3d276133	0.04086418
58	0xbdabfe92	-0.08398165
59	0xbda4b602	-0.08042528
60	0x3d89c62c	0.067272514
61	0x3ccd989f	0.02509719
62	0xbcfe5b57	-0.031049414
63	0x3c08c8ce	0.008348657
64	0x3d735814	0.05941017
65	0xbd662ea1	-0.056196813
66	0x3c89343c	0.01674854
67	0x3d0dd22e	0.03462427
68	0x3c58d9a0	0.01323548
69	0xbcdc2803	-0.026874548
70	0x3d2adbf8	0.041713685
71	0x3da19f7b	0.078917466
72	0xbd0457da	-0.032310344
73	0xb9710a0a	-0.00022987291
74	0x3dc1beab	0.09460195
75	0x3c69706e	0.014247997
76	0xbc71e75c	-0.014764633
77	0xbdbd37ed	-0.092391826
78	0x3daa5911	0.08317769
79	0xbd3cfa50	-0.046137154
80	0x3cad2196	0.02113418
81	0x3d0a9a09	0.033838306
82	0xbd86085e	-0.06544565
83	0xbd302869	-0.043007288
84	0xbdbf03b1	-0.09326876
85	0x3d009340	0.03139043
86	0xbca3c7e9	-0.019992786
87	0x3d9dd2d9	0.077062316
88	0xb8840168	-6.2945124e-05
89	0xb9469122	-0.00018936818
90	0x3d33c3b2	0.0438878
91	0xbd4ee1d6	-0.050508343
92	0xbd90b13e	-0.07065056
93	0xb9e3dd28	-0.00043461588
94	0x3db75059	0.08950872
95	0xbd2c18bc	-0.042015776
96	0x3d91f9b7	0.071277075
97	0x3c88a81f	0.016681729
98	0xbda1bcb5	-0.07897321
99	0x3c7d6796	0.015466591
100	0xbd45e9c9	-0.048318658
101	0x3d61bbd6	0.055110775
102	0xbd510617	-0.0510312
103	0xb8609acd	-5.354993e-05
104	0xbdb4a2b4	-0.08820096
105	0x3d429369	0.047503863
106	0x3d65dae7	0.056116965
107	0xbd49bf48	-0.049254686
108	0xbdba585c	-0.090988845
109	0x3d9c87c9	0.076430865
110	0xbc323cdf	-0.010878771
111	0x3da9e24e	0.08295117
112	0x3d904695	0.070447125
113	0x3dbb9979	0.09160132
114	0x3cbdcbd5	0.023168484
115	0x3c94884a	0.018131394
116	0x3d5be7c0	0.05368781
117	0xbc8d33fb	-0.0172367
118	0xbcc7e2ff	-0.024400232
119	0x3d1c27db	0.038123947
120	0xbc5f059a	-0.013612175
121	0xbca50107	-0.020142091
122	0xbdb73674	-0.08945933
123	0xbaad5c94	-0.0013226443
124	0x3d36de77	0.044645753
125	0x3d5b9dc3	0.05361725
126	0xbc723c77	-0.014784924
127	0x3cf8cf3f	0.03037226
128	0xbcb4265d	-0.02199095
129	0xbdc0c13e	-0.09411858
130	0xbdc01ea1	-0.09380842
131	0x3daaa9a5	0.083331384
132	0x3d8f00f6	0.06982605
133	0xbc15883b	-0.009126718
134	0x3c9d2e44	0.0191871
135	0x3dac4b60	0.08412814
136	0x3ceda90b	0.02901127
137	0xbc21d79a	-0.009878064
138	0xbd681c51	-0.05666763
139	0x3c2ddccb	0.010611723
140	0x3d8b01f8	0.06787485
141	0xbd5689dd	-0.05237757
142	0xbd3b48e9	-0.04572383
143	0x3d474787	0.0486522
144	0xbd1458d4	-0.036217526
145	0xbda9865d	-0.08277581
146	0x38e42555	0.00010878841
147	0x3d8719f4	0.06596747
148	0xbd3161bf	-0.04330611
149	0xbd94c660	-0.072643995
150	0x3dc8feee	0.09814249
151	0xbd9cb460	-0.07651591
152	0x3d421b25	0.04738917
153	0x3c8174b1	0.015802713
154	0x3d864d9c	0.065577716
155	0x3bf9a8fb	0.007619021
156	0xbd854fea	-0.06509383
157	0xbcf7fe89	-0.030272739
158	0xbc2a97cd	-0.010412169
159	0xba31c0ac	-0.00067807245
160	0x3d816762	0.06318547
161	0xbd939bda	-0.07207461
162	0xbdc478cb	-0.09593352
163	0xbdb08721	-0.08619524
164	0xbd963a24	-0.07335308
165	0xba766cc7	-0.00094003644
166	0xb9cc94a8	-0.0003902067
167	0xbd04318e	-0.03227382
168	0xbd8cdcd2	-0.06878056
169	0xbd6a1392	-0.05714757
170	0x3d303bfc	0.043025956
171	0x3d992081	0.07476903
172	0x3d40f4c2	0.04710842
173	0x3d0b64e5	0.034031767
174	0x3c9c4662	0.01907653
175	0xbcf6f720	-0.030147135
176	0x3cded774	0.027202345
177	0xbd877cc0	-0.06615591
178	0x3d172fdc	0.036910877
179	0x3d850255	0.064945854
180	0x3b44f08f	0.003005061
181	0x3ce6ce3a	0.028174508
182	0x3d916e9c	0.07101175
183	0x3c2ad60a	0.010427007
184	0xbd876765	-0.06611518
185	0x3d56191f	0.05227005
186	0x3d383c1a	0.044979192
187	0x3a127da9	0.0005588183
188	0xbc242267	-0.010017968
189	0x3d7dde87	0.061979797
190	0xbd9e7db3	-0.07738819
191	0x3d027dfc	0.03185843
192	0xbd769eea	-0.060210146
193	0x3d08dcaa	0.033413567
194	0xbc4b2038	-0.012397818
195	0x3dc94520	0.09827638
196	0x3d849a99	0.064748
197	0xbd770364	-0.060305968
198	0xbcec91f8	-0.028878197
199	0xbc6c6967	-0.014429427
200	0x3a2238e8	0.0006188289
201	0x3daa9eed	0.08331094
202	0xbd1c7f0d	-0.038207103
203	0xbd417b20	-0.04723656
204	0x3db6dd38	0.08928913
205	0xbc15755c	-0.009122219
206	0x3d0909e3	0.033456694
207	0x3ba52cb2	0.0050407285
208	0xbbac2705	-0.005253675
209	0xbbb159a1	-0.005412296
210	0x3d228399	0.039676283
211	0xbc62333c	-0.013806161
212	0xbdad2db2	-0.08455981
213	0x3d0872d5	0.033312637
214	0x3ce82317	0.028337045
215	0x38dc8048	0.00010514312
216	0xbcb68f6f	-0.022285191
217	0x3d892713	0.06696906
218	0xb8bb9776	-8.945067e-05
219	0x3db87926	0.09007482
220	0x3dc018f1	0.09379757
221	0xbc849752	-0.016185436
222	0xbd8fb2da	-0.07016535
223	0xbaabb438	-0.0013099974
224	0xbd95a457	-0.07306736
225	0x3ae06687	0.0017120399
226	0x3d07d83d	0.033165205
227	0x3cda769f	0.026667891
228	0x3d917a77	0.071034364
229	0xbdc1d7ef	-0.09465014
230	0xb99cf5f3	-0.00029937885
231	0xbda8b166	-0.08236961
232	0x3dad96bb	0.08476015
233	0xbb661482	-0.0035107438
234	0x3d35e857	0.04441103
235	0x3c79065f	0.015199273
236	0xbd7e0cd2	-0.062023945
237	0x3d20d6db	0.039267402
238	0x3d726d59	0.059186313
239	0xbdc39ac1	-0.09551001
240	0x3d1fafa8	0.03898588
241	0x3d6dd570	0.058064878
242	0xbd179cb3	-0.037014674
243	0x3d9acd52	0.07558693
244	0x3ccc34e4	0.024927564
245	0x3c2e004a	0.010620186
246	0x3db183ad	0.08667693
247	0xbdb56e88	-0.08858973
248	0x3d9aac63	0.075524114
249	0x3d9f3e1c	0.07775518
250	0xb85e8deb	-5.3061096e-05
251	0xbdc54c77	-0.09633725
252	0xbd12ef4c	-0.035872743
253	0xbd60b6b8	-0.054861754
254	0x3d81226a	0.06305392
255	0xbd907abd	-0.070546605

recurrent.bias_ih_l0 f4 [384]
0	0x3979405f	0.0002377047
1	0xb90387da	-0.00012543742
2	0x3a9276d2	0.0011174327
3	0x3af7f7c2	0.0018918442
4	0x39d559dc	0.00040693476
5	0xb6906740	-4.3035543e-06
6	0x3a6cd4ab	0.00090343755
7	0x388cacfc	6.707941e-05
8	0x3b0c1792	0.0021376354
9	0x39bd8cfb	0.00036153928
10	0x3a05101c	0.0005075948
11	0x3a93dd9e	0.0011281257
12	0x3a83fca7	0.0010069803
13	0x39cafa08	0.0003871473
14	0x3985d512	0.00025526487
15	0x397aedcc	0.00023930444
16	0x3b6b92c9	0.0035945645
17	0x3a4fff62	0.00079344783
18	0x39d5be87	0.0004076848
19	0x3a8c934d	0.0010725051
20	0x3ae71d1d	0.0017632578
21	0x3b2084f6	0.0024493313
22	0x3a3ea8a5	0.0007273055
23	0x3b4b305e	0.003100417
24	0x3a9f36e8	0.0012147101
25	0xb6d13620	-6.2349864e-06
26	0x3a250a58	0.0006295792
27	0xb9c83001	-0.00038182738
28	0x3b074b30	0.002064418
29	0x3a1cf41a	0.00059873017
30	0x3a274645	0.00063810154
31	0x388a50f1	6.595429e-05
32	0x3ab9e053	0.0014181234
33	0x3ac1bb22	0.0014780501
34	0x3aa73c26	0.0012759014
35	0x3a532350	0.0008054273
36	0x3afefdec	0.0019454337
37	0x3a9bd3a6	0.0011888638
38	0x3b0acc0a	0.0021178746
39	0x3b194e31	0.0023392553
40	0x3a0ad52c	0.00052960473
41	0x398876bc	0.00026028405
42	0x3b4b21aa	0.0030995407
43	0x3b0481ac	0.0020218892
44	0x3b0551cd	0.0020342947
45	0x3ae70cd2	0.0017627722
46	0x3acf584c	0.0015819161
47	0x3abc7c72	0.0014380349
48	0x3a6b76e7	0.00089822564
49	0xb7819c18	-1.5450685e-05
50	0x3979ce5c	0.00023823365
51	0x3a83b55e	0.0010048558
52	0x3a5a53f3	0.00083285494
53	0xb952d31c	-0.00020105805
54	0x395a8f70	0.00020843535
55	0x3b218372	0.0024644998
56	0xba138459	-0.00056273263
57	0x3a9ba1fc	0.0011873837
58	0x3ac1a0df	0.0014772675
59	0x3a402cbe	0.0007330886
60	0x3a73ac5c	0.0009295398
61	0xb8b13db6	-8.451512e-05
62	0x3a5967d3	0.0008293364
63	0x3abfd390	0.0014635194
64	0x3aadd855	0.0013263325
65	0x3b297fae	0.0025863457
66	0x3988d442	0.00026098086
67	0x3b8a3732	0.0042180056
68	0x3adf897a	0.0017054521
69	0x3abfd976	0.0014636952
70	0x3b2b8f79	0.0026178046
71	0xba8a8242	-0.0010567384
72	0x3ab96494	0.0014144354
73	0x3a2925cf	0.00064524723
74	0x3b49c06c	0.0030784858
75	0x3b5127cf	0.0031914597
76	0xba4f7176	-0.00079133303
77	0x3b78ca26	0.0037962287
78	0x3acb34ac	0.0015503368
79	0x3aa0ddff	0.0012273191
80	0x3ac0f61d	0.0014721785
81	0x39b339c4	0.0003418458
82	0x393eab47	0.00018183618
83	0x399c9347	0.0002986437
84	0x3b07f11f	0.0020743085
85	0x3ad7a009	0.0016450892
86	0x3b6b6ae8	0.0035921875
87	0x3ab93b8a	0.0014132124
88	0x388b3590	6.638013e-05
89	0x3b1bd8be	0.0023780311
90	0x3a1c73a1	0.0005968158
91	0x3b308902	0.0026937132
92	0x3ba0839d	0.004898502
93	0x3b8dac05	0.004323485
94	0x3ac716db	0.0015189307
95	0x39b6ad7b	0.00034842998
96	0x3a463a29	0.0007561767
97	0x39c366d7	0.0003726992
98	0x3a6fc85b	0.0009146982
99	0x39dc8694	0.00042061938
100	0x3aa7687c	0.0012772228
101	0xb8b08422	-8.416946e-05
102	0x3ac42752	0.0014965332
103	0x3a37f4be	0.00070173654
104	0x3adc5861	0.0016811007
105	0xb96496dd	-0.00021799975
106	0xba128ccd	-0.0005590439
107	0x3afcb4f2	0.001928
108	0x3aa6177b	0.0012671793
109	0x3ae4dce5	0.0017460851
110	0x39100142	0.00013733379
111	0x3a0d0c75	0.00053805794
112	0x3b27d4af	0.0025608947
113	0x3aed40dd	0.0018100996
114	0x3b0c08d4	0.0021367567
115	0x3a537cc6	0.0008067604
116	0xb9181c9a	-0.00014506505
117	0x3ad9cfbd	0.0016617697
118	0x3b452654	0.003008266
119	0xb9dedb3c	-0.00042506482
120	0x3b2bc205	0.0026208174
121	0x3ad184b6	0.0015984986
122	0x3b176ede	0.0023106853
123	0x38c7df30	9.530631e-05
124	0x3a58b5f3	0.00082668586
125	0x3b65bc6b	0.0035054933
126	0x3b445949	0.0029960445
127	0x3b4fa0da	0.0031681568
128	0x3b056e47	0.002035992
129	0xbb069568	-0.002053583
130	0xbba7aba0	-0.005116895
131	0xbc071cf1	-0.008246646
132	0x3b7f9cec	0.0039003445
133	0xbbf2e7e2	-0.0074128965
134	0x3be635d9	0.007025462
135	0x3be6c299	0.007042241
136	0x3bb994d2	0.0056634927
137	0xbbc08a26	-0.0058758436
138	0x3bcbca3b	0.006219176
139	0x3b6bbb58	0.003596982
140	0x3c03c2c2	0.008042039
141	0xbc000870	-0.007814512
142	0xbc02a42b	-0.007973711
143	0xbb4ef7ec	-0.0031580878
144	0xbc0d9ead	-0.008643788
145	0x3bd430cc	0.0064755436
146	0x3b39bd08	0.0028341431
147	0x3c03f741	0.008054555
148	0x3bdb8a83	0.0066998615
149	0x3c09b181	0.008404137
150	0xbbefca26	-0.007317799
151	0xbbc61a5d	-0.006045623
152	0xbc01c6a8	-0.0079208985
153	0x3b9489a8	0.0045330115
154	0xbb92b439	-0.0044770506
155	0xbb35f27e	-0.0027762945
156	0x3aafd3e3	0.0013414588
157	0x3bf6a84e	0.0075273877
158	0x3811a037	3.4719906e-05
159	0x3b29246b	0.002580906
160	0x3bb2b52e	0.005453727
161	0xbc0bf8af	-0.0085431775
162	0x3bf4ce41	0.0074708764
163	0xbb93df7a	-0.0045127245
164	0xbc0a8846	-0.008455342
165	0x3c0e40de	0.008682458
166	0xbbd6eb19	-0.0065587875
167	0x3af9f129	0.0019069064
168	0xbbd8ba86	-0.006614032
169	0xbbfba954	-0.0076800976
170	0x3c03a0ce	0.008033944
171	0x3c08322c	0.008312743
172	0x3b967f6a	0.0045928257
173	0x3bd1527d	0.006388007
174	0xbbee6592	-0.0072752917
175	0x3b63be95	0.0034751047
176	0x3bdac75a	0.0066765966
177	0xbb9dd550	-0.0048166886
178	0xbb6b2674	-0.0035881074
179	0xbb8c332c	-0.004278561
180	0xbb4801ca	-0.0030518644
181	0xbb3e9c00	-0.0029084682
182	0xbb75d192	-0.0037508947
183	0xbab78b06	-0.0014003224
184	0x3c0a87fc	0.008455273
185	0xbbe57813	-0.0070028394
186	0xbc00f8e7	-0.007871843
187	0x39ccabab	0.00039037815
188	0xbc09560f	-0.008382334
189	0xbbf78545	-0.0075537288
190	0x3bd4f93b	0.006499437
191	0xbbe95755	-0.0071210065
192	0xbc114d3e	-0.008868514
193	0xbc01a251	-0.007912234
194	0x3be599df	0.0070068683
195	0x3c03195e	0.0080016535
196	0xbb0fb566	-0.002192819
197	0x3bf1b9ab	0.0073768697
198	0xbb1a18f0	-0.00235134
199	0x3b91a89e	0.0044451496
200	0x3bc02059	0.005863231
201	0xbaf04a67	-0.001833272
202	0x3a22d996	0.00062122324
203	0xbc010c27	-0.0078764325
204	0x3bf303bf	0.007416218
205	0xbbce3924	-0.006293433
206	0xbbe47c1c	-0.006972803
207	0x3bd4f466	0.006498861
208	0x3c0c86be	0.008577047
209	0x3bc9d5f7	0.00615954
210	0x3be0cd89	0.006860439
211	0x3bf0018c	0.007324403
212	0xbc1b215e	-0.009468405
213	0x3bfecbd0	0.007775761
214	0xbbcd9372	-0.0062736804
215	0x3b098474	0.002098349
216	0x3bf429c6	0.007451269
217	0xbbc4c056	-0.0060043735
218	0xbbf55eeb	-0.0074881217
219	0xbbfabe47	-0.0076520774
220	0xbbf6ef00	-0.0075358152
221	0xbb9fd266	-0.0048773764
222	0xbc09b4b5	-0.0084049
223	0x3bec89da	0.0072185816
224	0x3b6c8265	0.0036088463
225	0x3bdefa83	0.0068047657
226	0x3bd2b8f8	0.0064307414
227	0xbbc524f0	-0.006016366
228	0x3c0c99c3	0.0085815815
229	0xbbce3473	-0.0062928735
230	0xbc0a5d40	-0.008445084
231	0x3bbeb3dc	0.0058197808
232	0xbb4fae22	-0.0031689485
233	0xba40f8f3	-0.0007361315
234	0x3be9fb4f	0.007140554
235	0xbc164f86	-0.009174233
236	0xbc14c77d	-0.009080765
237	0xbbd9ebde	-0.006650432
238	0xbba6ba94	-0.00508816
239	0x3bcec78c	0.006310409
240	0xbc141450	-0.009038046
241	0xbbc8d018	-0.0061283223
242	0x3c0af23f	0.0084806075
243	0x3a09b423	0.0005252978
244	0x3c00e37c	0.0078667365
245	0xbbd66161	-0.00654237
246	0xbbd747a3	-0.006569819
247	0x3bea3314	0.0071472023
248	0xbbb2b50c	-0.0054537114
249	0x3c018321	0.007904799
250	0x3b8f16cc	0.0043667313
251	0xbb44fab6	-0.0030056662
252	0xbaee4890	-0.0018179584
253	0x3c0c1690	0.008550301
254	0xbbe7d337	-0.0070747393
255	0x3c098e26	0.008395707

recurrent.bias_hh_l0 f4 [384]
0	0x3979405f	0.0002377047
1	0xb90387da	-0.00012543742
2	0x3a9276d2	0.0011174327
3	0x3af7f7c2	0.0018918442
4	0x39d559dc	0.00040693476
5	0xb6906740	-4.3035543e-06
6	0x3a6cd4ab	0.00090343755
7	0x388cacfc	6.707941e-05
8	0x3b0c1792	0.0021376354
9	0x39bd8cfb	0.00036153928
10	0x3a05101c	0.0005075948
11	0x3a93dd9e	0.0011281257
12	0x3a83fca7	0.0010069803
13	0x39cafa08	0.0003871473
14	0x3985d512	0.00025526487
15	0x397aedcc	0.00023930444
16	0x3b6b92c9	0.0035945645
17	0x3a4fff62	0.00079344783
18	0x39d5be87	0.0004076848
19	0x3a8c934d	0.0010725051
20	0x3ae71d1d	0.0017632578
21	0x3b2084f6	0.0024493313
22	0x3a3ea8a5	0.0007273055
23	0x3b4b305e	0.003100417
24	0x3a9f36e8	0.0012147101
25	0xb6d13620	-6.2349864e-06
26	0x3a250a58	0.0006295792
27	0xb9c83001	-0.00038182738
28	0x3b074b30	0.002064418
29	0x3a1cf41a	0.00059873017
30	0x3a274645	0.00063810154
31	0x388a50f1	6.595429e-05
32	0x3ab9e053	0.0014181234
33	0x3ac1bb22	0.0014780501
34	0x3aa73c26	0.0012759014
35	0x3a532350	0.0008054273
36	0x3afefdec	0.0019454337
37	0x3a9bd3a6	0.0011888638
38	0x3b0acc0a	0.0021178746
39	0x3b194e31	0.0023392553
40	0x3a0ad52c	0.00052960473
41	0x398876bc	0.00026028405
42	0x3b4b21aa	0.0030995407
43	0x3b0481ac	0.0020218892
44	0x3b0551cd	0.0020342947
45	0x3ae70cd2	0.0017627722
46	0x3acf584c	0.0015819161
47	0x3abc7c72	0.0014380349
48	0x3a6b76e7	0.00089822564
49	0xb7819c18	-1.5450685e-05
50	0x3979ce5c	0.00023823365
51	0x3a83b55e	0.0010048558
52	0x3a5a53f3	0.00083285494
53	0xb952d31c	-0.00020105805
54	0x395a8f70	0.00020843535
55	0x3b218372	0.0024644998
56	0xba138459	-0.00056273263
57	0x3a9ba1fc	0.0011873837
58	0x3ac1a0df	0.0014772675
59	0x3a402cbe	0.0007330886
60	0x3a73ac5c	0.0009295398
61	0xb8b13db6	-8.451512e-05
62	0x3a5967d3	0.0008293364
63	0x3abfd390	0.0014635194
64	0x3aadd855	0.0013263325
65	0x3b297fae	0.0025863457
66	0x3988d442	0.00026098086
67	0x3b8a3732	0.0042180056
68	0x3adf897a	0.0017054521
69	0x3abfd976	0.0014636952
70	0x3b2b8f79	0.0026178046
71	0xba8a8242	-0.0010567384
72	0x3ab96494	0.0014144354
73	0x3a2925cf	0.00064524723
74	0x3b49c06c	0.0030784858
75	0x3b5127cf	0.0031914597
76	0xba4f7176	-0.00079133303
77	0x3b78ca26	0.0037962287
78	0x3acb34ac	0.0015503368
79	0x3aa0ddff	0.0012273191
80	0x3ac0f61d	0.0014721785
81	0x39b339c4	0.0003418458
82	0x393eab47	0.00018183618
83	0x399c9347	0.0002986437
84	0x3b07f11f	0.0020743085
85	0x3ad7a009	0.0016450892
86	0x3b6b6ae8	0.0035921875
87	0x3ab93b8a	0.0014132124
88	0x388b3590	6.638013e-05
89	0x3b1bd8be	0.0023780311
90	0x3a1c73a1	0.0005968158
91	0x3b308902	0.0026937132
92	0x3ba0839d	0.004898502
93	0x3b8dac05	0.004323485
94	0x3ac716db	0.0015189307
95	0x39b6ad7b	0.00034842998
96	0x3a463a29	0.0007561767
97	0x39c366d7	0.0003726992
98	0x3a6fc85b	0.0009146982
99	0x39dc8694	0.00042061938
100	0x3aa7687c	0.0012772228
101	0xb8b08422	-8.416946e-05
102	0x3ac42752	0.0014965332
103	0x3a37f4be	0.00070173654
104	0x3adc5861	0.0016811007
105	0xb96496dd	-0.00021799975
106	0xba128ccd	-0.0005590439
107	0x3afcb4f2	0.001928
108	0x3aa6177b	0.0012671793
109	0x3ae4dce5	0.0017460851
110	0x39100142	0.00013733379
111	0x3a0d0c75	0.00053805794
112	0x3b27d4af	0.0025608947
113	0x3aed40dd	0.0018100996
114	0x3b0c08d4	0.0021367567
115	0x3a537cc6	0.0008067604
116	0xb9181c9a	-0.00014506505
117	0x3ad9cfbd	0.0016617697
118	0x3b452654	0.003008266
119	0xb9dedb3c	-0.00042506482
120	0x3b2bc205	0.0026208174
121	0x3ad184b6	0.0015984986
122	0x3b176ede	0.0023106853
123	0x38c7df30	9.530631e-05
124	0x3a58b5f3	0.00082668586
125	0x3b65bc6b	0.0035054933
126	0x3b445949	0.0029960445
127	0x3b4fa0da	0.0031681568
128	0x3b056e47	0.002035992
129	0xbb069568	-0.002053583
130	0xbba7aba0	-0.005116895
131	0xbc071cf1	-0.008246646
132	0x3b7f9cec	0.0039003445
133	0xbbf2e7e2	-0.0074128965
134	0x3be635d9	0.007025462
135	0x3be6c299	0.007042241
136	0x3bb994d2	0.0056634927
137	0xbbc08a26	-0.0058758436
138	0x3bcbca3b	0.006219176
139	0x3b6bbb58	0.003596982
140	0x3c03c2c2	0.008042039
141	0xbc000870	-0.007814512
142	0xbc02a42b	-0.007973711
143	0xbb4ef7ec	-0.0031580878
144	0xbc0d9ead	-0.008643788
145	0x3bd430cc	0.0064755436
146	0x3b39bd08	0.0028341431
147	0x3c03f741	0.008054555
148	0x3bdb8a83	0.0066998615
149	0x3c09b181	0.008404137
150	0xbbefca26	-0.007317799
151	0xbbc61a5d	-0.006045623
152	0xbc01c6a8	-0.0079208985
153	0x3b9489a8	0.0045330115
154	0xbb92b439	-0.0044770506
155	0xbb35f27e	-0.0027762945
156	0x3aafd3e3	0.0013414588
157	0x3bf6a84e	0.0075273877
158	0x3811a037	3.4719906e-05
159	0x3b29246b	0.002580906
160	0x3bb2b52e	0.005453727
161	0xbc0bf8af	-0.0085431775
162	0x3bf4ce41	0.0074708764
163	0xbb93df7a	-0.0045127245
164	0xbc0a8846	-0.008455342
165	0x3c0e40de	0.008682458
166	0xbbd6eb19	-0.0065587875
167	0x3af9f129	0.0019069064
168	0xbbd8ba86	-0.006614032
169	0xbbfba954	-0.0076800976
170	0x3c03a0ce	0.008033944
171	0x3c08322c	0.008312743
172	0x3b967f6a	0.0045928257
173	0x3bd1527d	0.006388007
174	0xbbee6592	-0.0072752917
175	0x3b63be95	0.0034751047
176	0x3bdac75a	0.0066765966
177	0xbb9dd550	-0.0048166886
178	0xbb6b2674	-0.0035881074
179	0xbb8c332c	-0.004278561
180	0xbb4801ca	-0.0030518644
181	0xbb3e9c00	-0.0029084682
182	0xbb75d192	-0.0037508947
183	0xbab78b06	-0.0014003224
184	0x3c0a87fc	0.008455273
185	0xbbe57813	-0.0070028394
186	0xbc00f8e7	-0.007871843
187	0x39ccabab	0.00039037815
188	0xbc09560f	-0.008382334
189	0xbbf78545	-0.0075537288
190	0x3bd4f93b	0.006499437
191	0xbbe95755	-0.0071210065
192	0xbc114d3e	-0.008868514
193	0xbc01a251	-0.007912234
194	0x3be599df	0.0070068683
195	0x3c03195e	0.0080016535
196	0xbb0fb566	-0.002192819
197	0x3bf1b9ab	0.0073768697
198	0xbb1a18f0	-0.00235134
199	0x3b91a89e	0.0044451496
200	0x3bc02059	0.005863231
201	0xbaf04a67	-0.001833272
202	0x3a22d996	0.00062122324
203	0xbc010c27	-0.0078764325
204	0x3bf303bf	0.007416218
205	0xbbce3924	-0.006293433
206	0xbbe47c1c	-0.006972803
207	0x3bd4f466	0.006498861
208	0x3c0c86be	0.008577047
209	0x3bc9d5f7	0.00615954
210	0x3be0cd89	0.006860439
211	0x3bf0018c	0.007324403
212	0xbc1b215e	-0.009468405
213	0x3bfecbd0	0.007775761
214	0xbbcd9372	-0.0062736804
215	0x3b098474	0.002098349
216	0x3bf429c6	0.007451269
217	0xbbc4c056	-0.0060043735
218	0xbbf55eeb	-0.0074881217
219	0xbbfabe47	-0.0076520774
220	0xbbf6ef00	-0.0075358152
221	0xbb9fd266	-0.0048773764
222	0xbc09b4b5	-0.0084049
223	0x3bec89da	0.0072185816
224	0x3b6c8265	0.0036088463
225	0x3bdefa83	0.0068047657
226	0x3bd2b8f8	0.0064307414
227	0xbbc524f0	-0.006016366
228	0x3c0c99c3	0.0085815815
229	0xbbce3473	-0.0062928735
230	0xbc0a5d40	-0.008445084
231	0x3bbeb3dc	0.0058197808
232	0xbb4fae22	-0.0031689485
233	0xba40f8f3	-0.0007361315
234	0x3be9fb4f	0.007140554
235	0xbc164f86	-0.009174233
236	0xbc14c77d	-0.009080765
237	0xbbd9ebde	-0.006650432
238	0xbba6ba94	-0.00508816
239	0x3bcec78c	0.006310409
240	0xbc141450	-0.009038046
241	0xbbc8d018	-0.0061283223
242	0x3c0af23f	0.0084806075
243	0x3a09b423	0.0005252978
244	0x3c00e37c	0.0078667365
245	0xbbd66161	-0.00654237
246	0xbbd747a3	-0.006569819
247	0x3bea3314	0.0071472023
248	0xbbb2b50c	-0.0054537114
249	0x3c018321	0.007904799
250	0x3b8f16cc	0.0043667313
251	0xbb44fab6	-0.0030056662
252	0xbaee4890	-0.0018179584
253	0x3c0c1690	0.008550301
254	0xbbe7d337	-0.0070747393
255	0x3c098e26	0.008395707

fc.weight f4 [4, 128]
0	0x3d9f102d	0.07766757
1	0x3db30418	0.08741015
2	0xbd214d32	-0.03938026
3	0x3d1ac7cd	0.0377882
4	0x3da3c51a	0.079965785
5	0xbca7d9d9	-0.02048962
6	0xbd95cb24	-0.073141366
7	0xbd1d0849	-0.03833798
8	0xbd048bd9	-0.03235993
9	0x3c939c7a	0.01801895
10	0x3c02aeb9	0.007976227
11	0xbd7ca10d	-0.061677027
12	0x3c3bbb6f	0.011458262
13	0x3d000e16	0.031263433
14	0xbd3dbcc6	-0.046322607
15	0x3b85fa27	0.0040886584
16	0xbd95b9e9	-0.0731085
17	0x3d702e90	0.058638155
18	0x3da54be1	0.080711134
19	0x3d4d0cec	0.05006115
20	0xbd34af75	-0.04411264
21	0xbda19008	-0.078888
22	0xbd7309f7	-0.059335675
23	0xbdb1456b	-0.086558186
24	0xbbc5b5b9	-0.006033626
25	0x3d8010f6	0.06253235
26	0xbd992414	-0.074775845
27	0xbd8e47a6	-0.069472596
28	0xbca51271	-0.020150395
29	0x3d86189b	0.06547662
30	0x3dbefc98	0.09325522
31	0x3d594c3c	0.05305122
32	0xbcc845e9	-0.024447398
33	0xbd269056	-0.040664993
34	0x3ce0aa62	0.027424995
35	0x3b78e638	0.0037979018
36	0x3d6c5d65	0.057706255
37	0xbc9644ba	-0.018343318
38	0xbd6ea8e3	-0.05826653
39	0x3d7037bc	0.058646902
40	0x3d9c6d48	0.07638031
41	0x3dba0f24	0.09084919
42	0xbd3451f5	-0.044023473
43	0xbd2b55ad	-0.041829754
44	0x3da74828	0.081680596
45	0x3cb62998	0.02223663
46	0x3c3388f1	0.010957942
47	0x3c3fc555	0.0117047625
48	0xbd69f0ec	-0.057114527
49	0xbc94f97a	-0.018185366
50	0x3ceba802	0.028766636
51	0xbda87ea6	-0.08227281
52	0xbd82e2dd	-0.06390927
53	0x3da617f2	0.08110036
54	0x3cdf558d	0.027262473
55	0xbd461928	-0.048363835
56	0xbbd503cc	-0.0065006968
57	0xbda6ca65	-0.081440724
58	0x3aa67281	0.001269892
59	0xbd793126	-0.060837887
60	0x3c1b8929	0.009493151
61	0x3cf7fe5d	0.030272657
62	0xbda1161e	-0.07865547
63	0x3d85ca44	0.0653272
64	0x3ce0eba4	0.027456112
65	0x3dc3646b	0.095406376
66	0x3d494b95	0.049144346
67	0x3d1c739f	0.038196202
68	0x3cdeab66	0.027181339
69	0xbd47dadd	-0.04879271
70	0xbc26aa32	-0.010172414
71	0x3ccf457f	0.025301693
72	0x3aa1e732	0.0012352227
73	0x3d16ad43	0.03678633
74	0xbd082e38	-0.033247203
75	0xbc979368	-0.018502906
76	0xbd791143	-0.060807478
77	0x3d91bcff	0.07116126
78	0xbda495ec	-0.08036408
79	0x3be2fd18	0.006927144
80	0x3d93669c	0.071973056
81	0x3d03374e	0.032035165
82	0xbd909283	-0.07059195
83	0xbd5ab2c0	-0.053393126
84	0xbdb11f89	-0.08648593
85	0xbd1e495c	-0.03864418
86	0x3da133e8	0.078712285
87	0x3d952658	0.07282704
88	0x3d81c942	0.06337215
89	0x3d87b98e	0.066271886
90	0xbced7cb4	-0.028990127
91	0xbda053f7	-0.07828515
92	0xbda4dd08	-0.08049971
93	0xbd948ef1	-0.072538264
94	0x3d8bbc30	0.06823003
95	0xbcee8459	-0.029115843
96	0x3a76207e	0.0009388997
97	0x3d39eae0	0.04539001
98	0xbbb27a1e	-0.0054466864
99	0xbd9639d7	-0.07335251
100	0xbc86317c	-0.016381018
101	0x3ab9d96b	0.0014179175
102	0xbd62d812	-0.055381842
103	0x3d15952b	0.03651921
104	0x3c91fe87	0.017821563
105	0xbd33bd03	-0.043881427
106	0x3c5c3bfa	0.013442034
107	0xbc90b1b2	-0.017662857
108	0xbcb3fe6a	-0.0219719
109	0x3cce328d	0.025170589
110	0xbd8e548f	-0.06949722
111	0xbc125410	-0.008931175
112	0x3d349988	0.04409173
113	0xbd2015b2	-0.03908319
114	0xbc9f4a23	-0.01944453
115	0x3d479b73	0.048732232
116	0x3a8d0070	0.0010757577
117	0xbd860ffa	-0.06546016
118	0x3d1ee57c	0.038793072
119	0x3b7d4c74	0.0038650306
120	0x3d8e876c	0.069594234
121	0xbd76d0d0	-0.060257733
122	0xbd395e90	-0.045256197
123	0x3c5675e0	0.013089627
124	0x3b099197	0.002099132
125	0x3db2d7f4	0.08732596
126	0x3d87d314	0.06632057
127	0x3d44e22b	0.048067253
128	0x3cfa47ec	0.030551873
129	0x3d2b4b0e	0.041819625
130	0x3bdb76f7	0.0066975313
131	0xbc461c5a	-0.0120917205
132	0x3cdfabce	0.027303603
133	0x3d5bdccb	0.05367736
134	0x3d723584	0.059133068
135	0xbd9c720e	-0.07638942
136	0x3d18b497	0.0372816
137	0xbd70dbfd	-0.058803547
138	0xbd96fd8b	-0.07372578
139	0xbcd4775c	-0.025935821
140	0xbd02a373	-0.03189416
141	0x3c9ea318	0.019364879
142	0x3da4f070	0.08053672
143	0xbd416720	-0.04721749
144	0x3d11d3a0	0.035602212
145	0xbd69277a	-0.056922413
146	0xbcecbeef	-0.028899638
147	0x3cd7db71	0.026349755
148	0x3af3caf2	0.0018599911
149	0x3d880845	0.06642202
150	0x3d79d07e	0.06098985
151	0xbd8615c6	-0.06547122
152	0xbd3158f6	-0.04329773
153	0xbd3d107a	-0.04615829
154	0x3d045fee	0.03231805
155	0xbdb7f676	-0.089825556
156	0xbd3f2b8c	-0.04667239
157	0xbc29002c	-0.010314982
158	0xbc9fa07b	-0.019485703
159	0x3c9fe498	0.019518182
160	0xbd256be6	-0.040386103
161	0xbd795a66	-0.060877226
162	0x3c0d5cca	0.00862808
163	0x3da60e06	0.081081435
164	0x3da65980	0.081225395
165	0xb9c7476c	-0.0003800945
166	0xbd67a2ee	-0.056551866
167	0x3dbf21aa	0.09332593
168	0x3cbc7bb8	0.023008212
169	0x3c32b11e	0.010906486
170	0x3d167e17	0.036741342
171	0x3d1e5554	0.038655594
172	0xbca4c30f	-0.020112542
173	0x3ce69b34	0.028150178
174	0x3c9abd33	0.018889045
175	0xbda2eba3	-0.079551004
176	0xbd41d14a	-0.047318734
177	0x3d235b98	0.039882272
178	0xbd2dad7a	-0.04240177
179	0xbbc35797	-0.0059613693
180	0x3cefb5d7	0.029261513
181	0xbc962dd1	-0.018332394
182	0xbd6d5b16	-0.057948194
183	0xbd11fb5c	-0.035640106
184	0x3d9f7078	0.077851236
185	0x3c733ceb	0.014846067
186	0xbdb03f10	-0.08605778
187	0xbdb98a04	-0.090595275
188	0xbda7d1e9	-0.08194334
189	0xbd8bb92b	-0.06822427
190	0x3d2fd8ce	0.04293137
191	0xbda66d21	-0.081262834
192	0x3cf3bc42	0.029752854
193	0x3d258a34	0.040415004
194	0xbce45628	-0.027873114
195	0x3d715e35	0.058927733
196	0x3d3069d7	0.043069687
197	0x3d847a7c	0.064686745
198	0xbdab10b7	-0.083527975
199	0x3d811802	0.06303407
200	0xbcf8f0be	-0.030388232
201	0xbd028d08	-0.03187278
202	0x3c96d90e	0.018414047
203	0xbd5bcf6b	-0.053664606
204	0x3d167474	0.036732152
205	0xbd92306c	-0.07138142
206	0xbcf9b6f6	-0.03048275
207	0x3d5d8ce7	0.054089453
208	0xbc895cd0	-0.01676789
209	0x3cdf6af8	0.027272686
210	0x3d9693ce	0.0735241
211	0xbd7d436b	-0.061831873
212	0xbd391d02	-0.04519368
213	0xbd61a05b	-0.055084568
214	0x3d5c2d46	0.053754114
215	0xbd32a0e6	-0.043610476
216	0xbd821169	-0.06350977
217	0x3d8481d0	0.06470072
218	0x3d8d42c4	0.068975
219	0x3da92982	0.0825987
220	0x3c583a08	0.0131974295
221	0xbd923e98	-0.07140845
222	0xbc55b38e	-0.013043297
223	0xbca5fb94	-0.020261563
224	0xbbe9a159	-0.00712983
225	0xbcbc5d6b	-0.022993764
226	0x3d8ebdaa	0.06969769
227	0xbd277d69	-0.040891085
228	0xbcfc8944	-0.030827172
229	0xbcb89fbf	-0.02253711
230	0xbba190cf	-0.0049305926
231	0x3ca71690	0.0203965
232	0x3d9abbaa	0.07555325
233	0xbc07b233	-0.008282232
234	0xbd9cf550	-0.07663977
235	0xbce6e9ec	-0.028187715
236	0x3dbb5308	0.09146696
237	0xbd1b95ee	-0.03798478
238	0xbda31258	-0.07962483
239	0x3d5d139b	0.053973775
240	0x3b969bbf	0.004596203
241	0x3a38a07c	0.0007042957
242	0xbd60ffad	-0.05493133
243	0x3d52b89d	0.051445592
244	0xbc12b74b	-0.008954833
245	0xbd8e7d8e	-0.069575414
246	0xbd8ba82c	-0.068191856
247	0x3d903857	0.07041996
248	0x3d45626e	0.048189573
249	0xbd7970ad	-0.06089847
250	0x3d55ae97	0.052168455
251	0xbc457c5d	-0.012053576
252	0xbbf72f6f	-0.0075434963
253	0xbd6ab1a3	-0.057298314
254	0xbd1f7304	-0.038928047
255	0x3d6a0f42	0.057143457

fc.bias f4 [4]
0	0x3d8c5a7e	0.068531975
1	0x3c550b8c	0.013003241
2	0xbc1d6571	-0.009606705
3	0xbd8ea0c6	-0.06964259
