input/gru_model.pth (torch, 215132 bytes, 6 tensors)

recurrent.weight_ih_l0 f4 [384, 7]
0	0xb4b01c56	-3.2803172e-07
1	0x35c2ec48	1.4522893e-06
2	0xb5e0bee3	-1.6744856e-06
3	0xb5b286f1	-1.3301307e-06
4	0xb611530e	-2.1655028e-06
5	0x364afdfa	3.024818e-06
6	0xb5887108	-1.0165686e-06
7	0xb59478fc	-1.106207e-06
8	0xb7031abe	-7.814435e-06
9	0x3783b2e4	1.569972e-05
10	0x373e52e8	1.1344186e-05
11	0x37d17358	2.4968453e-05
12	0xb858ea05	-5.171636e-05
13	0x36f6e310	7.357805e-06
14	0xb3218550	-3.760698e-08
15	0x3551c1cd	7.8140584e-07
16	0xb5ac0338	-1.2815935e-06
17	0xb5a16927	-1.2026038e-06
18	0xb43787ea	-1.7092648e-07
19	0x360aba77	2.067214e-06
20	0xb536b876	-6.806871e-07
21	0x3b8891ac	0.004167756
22	0x3b168f97	0.002297377
23	0x3b7264cb	0.0036986347
24	0x3b6644fd	0.0035136335
25	0xbb0ee14e	-0.0021801773
26	0xbb8411f8	-0.0040304624
27	0xba2ac1e6	-0.00065138785
28	0x3538739c	6.8713575e-07
29	0x364e692d	3.0757612e-06
30	0x34b3aab0	3.346554e-07
31	0x360751c4	2.0164161e-06
32	0xb5984e92	-1.134775e-06
33	0xb7bc86e4	-2.247416e-05
34	0xb5850f87	-9.913791e-07
35	0xb476c5f9	-2.2982557e-07
36	0x35210cef	5.9995995e-07
37	0x3425ab62	1.5429171e-07
38	0xb4a7c812	-3.1251744e-07
39	0xb524b1ba	-6.1353387e-07
40	0x358e0ca3	1.0583502e-06
41	0xb4fc4841	-4.699123e-07
42	0xb2d93bc0	-2.5289296e-08
43	0x35671055	8.607797e-07
44	0xb5aec570	-1.3021472e-06
45	0xb5a7baec	-1.2496871e-06
46	0xb64d5069	-3.0594185e-06
47	0x3607a896	2.0214698e-06
48	0xb5128970	-5.4589236e-07
49	0xb47a4734	-2.3308968e-07
50	0x3606b4ff	2.007291e-06
51	0xb633f743	-2.6817004e-06
52	0xb620778a	-2.3911439e-06
53	0xb69d5d32	-4.689814e-06
54	0x369f975a	4.756189e-06
55	0xb5c190e6	-1.4421792e-06
56	0x335260f9	4.898263e-08
57	0x32f07c47	2.7996192e-08
58	0xb492f631	-2.7373747e-07
59	0xb46d1bfa	-2.2082523e-07
60	0xb50fc18b	-5.3553293e-07
61	0x34475a5c	1.8566192e-07
62	0xb33da2ff	-4.4153236e-08
63	0x39e2996c	0.00043220387
64	0xbb9ad279	-0.0047247973
65	0x390e04ed	0.0001354401
66	0x3b96b10c	0.0045987424
67	0xbb97a5e1	-0.0046279286
68	0xbb5f6694	-0.003408824
69	0xbb03aa55	-0.002009054
70	0x36123562	2.1786768e-06
71	0xb6222025	-2.4158592e-06
72	0xb6de201e	-6.6198545e-06
73	0xb538aefe	-6.879999e-07
74	0xb5240e2c	-6.1115384e-07
75	0xb6d800f3	-6.437412e-06
76	0xb6c1454b	-5.759915e-06
77	0x39412aa8	0.00018421805
78	0x39edffa0	0.00045394618
79	0xb846fa06	-4.743973e-05
80	0xb9dc494c	-0.0004201628
81	0xba4ef074	-0.00078941067
82	0x3a9f07f1	0.0012133104
83	0x39eedc4c	0.0004555903
84	0x38817c71	6.174378e-05
85	0xb97be470	-0.00024022325
86	0xb886d6cd	-6.429628e-05
87	0x389d5cc1	7.50362e-05
88	0x391e284f	0.0001508307
89	0xba6be2da	-0.0008998342
90	0xb7b13293	-2.1123595e-05
91	0x389b5dc4	7.408441e-05
92	0x37754285	1.4618626e-05
93	0x387c87a6	6.0207814e-05
94	0x37fe1a68	3.0291456e-05
95	0x396e05d0	0.00022699614
96	0xb5fdd2e0	-1.8911342e-06
97	0x38562a8f	5.106121e-05
98	0x3aee5b37	0.0018185143
99	0xbad02f63	-0.0015883263
100	0xb9afcd72	-0.0003353167
101	0xbb6dc3c5	-0.0036280018
102	0xbb0dedc6	-0.0021656617
103	0xbb059ad6	-0.002038648
104	0xbbaa1bde	-0.0051913103
105	0xb8a2e0c5	-7.7666286e-05
106	0xb89aebb2	-7.387194e-05
107	0xb987f2f9	-0.00025930235
108	0xb926ca1e	-0.00015906288
109	0x38777eb0	5.9007376e-05
110	0xb94796f6	-0.00019034356
111	0xb96ed05d	-0.0002277507
112	0x371cc9c4	9.345302e-06
113	0xbacb3d62	-0.0015505964
114	0xba971fa4	-0.0011529815
115	0xbb254411	-0.0025217573
116	0xbc1db4df	-0.009625643
117	0x3b3dceed	0.0028962449
118	0x3aacfdbe	0.001319818
119	0x329c7352	1.8213232e-08
120	0x33af07dd	8.150503e-08
121	0xb444cf1c	-1.8329268e-07
122	0xb4375dfb	-1.7077393e-07
123	0x33a0f9e0	7.4960326e-08
124	0x340a4370	1.2876785e-07
125	0xb3a30553	-7.5912475e-08
126	0xbae7fa5d	-0.0017698515
127	0x3b039616	0.0020078472
128	0xbac7f8b8	-0.0015256619
129	0x3a919397	0.0011106607
130	0xba1bfb05	-0.00059501856
131	0xbbbdad69	-0.0057884944
132	0xbb1a4397	-0.0023538822
133	0x384f2ff6	4.9397313e-05
134	0x39069c71	0.00012837515
135	0xb82f8439	-4.1846393e-05
136	0xb8f30c40	-0.00011589425
137	0xb9adbc5d	-0.00033137473
138	0x392fc59f	0.0001676292
139	0xb89818f9	-7.252576e-05
140	0x3546b86e	7.402913e-07
141	0x362e6612	2.5987433e-06
142	0xb63d6d54	-2.8226832e-06
143	0xb64ae702	-3.023481e-06
144	0xb6598bc6	-3.2416879e-06
145	0x36dc2ffb	6.5620966e-06
146	0xb580dc36	-9.600833e-07
147	0xbabdf48e	-0.0014492439
148	0xbbc3b302	-0.005972267
149	0x3b1f0470	0.002426412
150	0x3b080414	0.0020754384
151	0x3c0008fe	0.007814644
152	0xbb56bb0e	-0.0032765302
153	0xbb9f319b	-0.0048582084
154	0x3847f94d	4.7677477e-05
155	0xb7b01edf	-2.099521e-05
156	0xb7af8f00	-2.0928215e-05
157	0xb746ddc6	-1.1853355e-05
158	0xb95a5102	-0.00020820278
159	0xb8ae880a	-8.322306e-05
160	0x37380b7c	1.0969929e-05
161	0xb2f5a750	-2.8597839e-08
162	0x3508365f	5.074307e-07
163	0xb55d2ac3	-8.239114e-07
164	0xb56946f9	-8.690254e-07
165	0xb6037364	-1.9587687e-06
166	0x35a12fb3	1.2009317e-06
167	0xb4b02651	-3.2810433e-07
168	0xb4c2995d	-3.6246902e-07
169	0xb509b8fc	-5.1305665e-07
170	0x35503b0d	7.757197e-07
171	0x349353c2	2.7441826e-07
172	0x36248d21	2.4520052e-06
173	0x34a6e2dc	3.108497e-07
174	0x353118f6	6.597396e-07
175	0xb3e08214	-1.0454474e-07
176	0x3508f9fb	5.102772e-07
177	0xb5279515	-6.242929e-07
178	0xb5062720	-4.9975824e-07
179	0xb1395990	-2.6971954e-09
180	0x359f258d	1.1857352e-06
181	0xb4a81138	-3.1304967e-07
182	0xba57ef61	-0.00082372694
183	0x39b96fc2	0.00035369216
184	0x3ac6c031	0.0015163479
185	0x3adc9c12	0.001683118
186	0xb985bd4f	-0.00025508783
187	0xbb1a323e	-0.0023528482
188	0x395cabde	0.0002104486
189	0x309998a9	1.1175604e-09
190	0xb002e6e0	-4.762182e-10
191	0x308c4648	1.0206316e-09
192	0x30a588fc	1.2044263e-09
193	0x317c37b5	3.6702492e-09
194	0xb1722bd4	-3.5240548e-09
195	0x30720fe5	8.8061675e-10
196	0x3401b63f	1.2080362e-07
197	0xb29b363a	-1.8069034e-08
198	0x332782f1	3.9001808e-08
199	0xb3f480cd	-1.1385564e-07
200	0x353e760e	7.095231e-07
201	0xb55a264c	-8.126706e-07
202	0x338e7b30	6.634798e-08
203	0xb52a0e69	-6.3350905e-07
204	0x368e35bc	4.2381853e-06
205	0xb5366ef6	-6.7961753e-07
206	0xb64a433a	-3.0139477e-06
207	0xb745b9c4	-1.1785367e-05
208	0x35e03244	1.670393e-06
209	0xb5f44924	-1.8200703e-06
210	0x36516363	3.1201278e-06
211	0xb6d4438b	-6.3259554e-06
212	0x37554204	1.271116e-05
213	0x3750c318	1.244319e-05
214	0x37ce72c6	2.461056e-05
215	0xb88039e8	-6.1143015e-05
216	0x36c43300	5.8471924e-06
217	0xb5afd5dc	-1.3100757e-06
218	0x348ed4c8	2.660438e-07
219	0x36c54967	5.8796027e-06
220	0x36315156	2.64224e-06
221	0x347ce430	2.3552343e-07
222	0xb6b8af52	-5.5040373e-06
223	0x35d3327d	1.5735419e-06
224	0x3180f36e	3.752965e-09
225	0x32fefc69	2.9684275e-08
226	0xb339e08d	-4.3277897e-08
227	0xb35d4e6e	-5.1526904e-08
228	0xb3c493d0	-9.153848e-08
229	0x33905e79	6.722707e-08
230	0xb2b42488	-2.097137e-08
231	0x3809f114	3.2887867e-05
232	0xb9948d94	-0.00028334244
233	0xb8889564	-6.5128115e-05
234	0x38bb836a	8.9413326e-05
235	0x395348de	0.00020149673
236	0xba7f25b0	-0.0009733094
237	0xb7cd2c99	-2.4458672e-05
238	0xbb152148	-0.0022755433
239	0xbabcb523	-0.0014397245
240	0x3ad8b14b	0.001653233
241	0x39674360	0.00022054976
242	0xbacde9b5	-0.0015709909
243	0x3b4f7963	0.0031658045
244	0xb9ea0588	-0.0004463608
245	0xb4055078	-1.2415865e-07
246	0x35967328	1.1209386e-06
247	0xb63397d6	-2.6761459e-06
248	0xb6320027	-2.6524156e-06
249	0x34f5dbc4	4.5794707e-07
250	0x3653660b	3.1500847e-06
251	0xb5d08e6e	-1.553866e-06
252	0x38809176	6.13061e-05
253	0xb91af7c6	-0.00014778887
254	0xb70282a6	-7.779023e-06
255	0x3903d60b	0.00012572871

recurrent.weight_hh_l0 f4 [384, 128]
0	0x000b9c0b	1.066168e-39
1	0x8008b7ac	-8.00573e-40
2	0x000a7430	9.60035e-40
3	0x000a186d	9.27117e-40
4	0x000bde5b	1.089957e-39
5	0x0005751a	5.01186e-40
6	0x00065e75	5.84898e-40
7	0x0001d9f6	1.70025e-40
8	0x80069577	-6.04631e-40
9	0x0008ed6b	8.19853e-40
10	0x000357dd	3.07026e-40
11	0x0003c656	3.46656e-40
12	0x0008cc3c	8.0795e-40
13	0x24d6e599	9.319666e-17
14	0x0004446b	3.91886e-40
15	0x000adff8	9.987e-40
16	0x80013e99	-1.14291e-40
17	0x8000a9ca	-6.0909e-41
18	0x000a0be9	9.22628e-40
19	0xa5014203	-1.1211332e-16
20	0x000e668d	1.322485e-39
21	0x8008124e	-7.4125e-40
22	0x800655a2	-5.81732e-40
23	0x80016d27	-1.30992e-40
24	0x00027ef3	2.29212e-40
25	0x000b0bac	1.014378e-39
26	0x800c2245	-1.11432e-39
27	0x000c0cd4	1.106628e-39
28	0x8003d33d	-3.51285e-40
29	0x8007c97d	-7.15129e-40
30	0x00000fa1	5.607e-42
31	0x0007100b	6.48604e-40
32	0x8003aef0	-3.38262e-40
33	0x800cdcd9	-1.181251e-39
34	0x00009923	5.4935e-41
35	0x000d4c04	1.221131e-39
36	0x800c81a6	-1.148535e-39
37	0x80005166	-2.92e-41
38	0x8000ff37	-9.1554e-41
39	0x0008c6e1	8.06028e-40
40	0x00037e47	3.20806e-40
41	0x80038bc2	-3.25642e-40
42	0x0000547f	3.0311e-41
43	0x8003c05d	-3.44513e-40
44	0x000745b3	6.67852e-40
45	0x800d91df	-1.24619e-39
46	0x00070e50	6.47983e-40
47	0x8003339f	-2.94025e-40
48	0x00073cad	6.64615e-40
49	0x800c7e17	-1.147258e-39
50	0x800b571d	-1.041441e-39
51	0x0000d620	7.6814e-41
52	0x0005d666	5.36089e-40
53	0x00085b68	7.67474e-40
54	0x2e250f2e	3.753014e-11
55	0x800a830a	-9.65363e-40
56	0xb1414be8	-2.8128344e-09
57	0x3067b0a2	8.428832e-10
58	0x0008ae36	7.97179e-40
59	0x0001ff0c	1.83329e-40
60	0x800cd6a2	-1.179022e-39
61	0x0007722d	6.83807e-40
62	0x800dbc0e	-1.261323e-39
63	0xb286c988	-1.5691299e-08
64	0x37a916bf	2.0156962e-05
65	0x8004f176	-4.53962e-40
66	0x8000e840	-8.3316e-41
67	0x000b89ce	1.059625e-39
68	0x000279c1	2.27348e-40
69	0x0002c273	2.53426e-40
70	0x0006a9ba	6.119e-40
71	0x8000ec1c	-8.47e-41
72	0x00058211	5.05837e-40
73	0x00088cdb	7.85213e-40
74	0x000be7e4	1.093377e-39
75	0x0002f73b	2.7236e-40
76	0x00047051	4.07634e-40
77	0x8002d927	-2.6157e-40
78	0x0002daaa	2.62113e-40
79	0x80047cc3	-4.12098e-40
80	0x8002eff8	-2.69756e-40
81	0x0001a441	1.50759e-40
82	0x8007b619	-7.08173e-40
83	0x0003ed8c	3.60722e-40
84	0x0003a20c	3.33638e-40
85	0x000b8966	1.05948e-39
86	0x800ad811	-9.95865e-40
87	0x8002881a	-2.32495e-40
88	0x0006af6e	6.13945e-40
89	0x800bd50b	-1.086616e-39
90	0x0001a9c7	1.5274e-40
91	0x000600c3	5.51286e-40
92	0x8002461e	-2.08824e-40
93	0x8003fd46	-3.66364e-40
94	0x80078b32	-6.92782e-40
95	0x0003e02b	3.55923e-40
96	0x80039307	-3.2825e-40
97	0x8008a02f	-7.92147e-40
98	0x0007aa4c	7.0394e-40
99	0x000680c5	5.97207e-40
100	0x0005b471	5.23908e-40
101	0x000371d2	3.16338e-40
102	0x80099b13	-8.8215e-40
103	0x80017b90	-1.36161e-40
104	0x8002629f	-2.1905e-40
105	0x800358b1	-3.07323e-40
106	0x000afab6	1.008293e-39
107	0x0008dd7c	8.14138e-40
108	0x8008513a	-7.63823e-40
109	0x8006a9d1	-6.11932e-40
110	0x800184f0	-1.39524e-40
111	0x800dc6e1	-1.265206e-39
112	0xa6adf89e	-1.2071674e-15
113	0x800cc835	-1.173847e-39
114	0x0004a887	4.27798e-40
115	0x8003c874	-3.47416e-40
116	0x000aca7c	9.90993e-40
117	0x800e6a55	-1.323842e-39
118	0x000d00c2	1.194133e-39
119	0x0000423e	2.3763e-41
120	0x00019e9f	1.48738e-40
121	0x0008fa02	8.2437e-40
122	0x80026112	-2.18493e-40
123	0x8005533c	-4.89036e-40
124	0x8009f7a9	-9.15363e-40
125	0x00091c34	8.36637e-40
126	0x00079369	6.95729e-40
127	0x0004d921	4.45233e-40
128	0x8009a087	-8.84106e-40
129	0x000ada82	9.96741e-40
130	0x000d8586	1.24176e-39
131	0x80024db5	-2.11547e-40
132	0x0004936e	4.2023e-40
133	0x000a9679	9.72334e-40
134	0x00023402	2.02328e-40
135	0x80011ac5	-1.01439e-40
136	0x80094825	-8.524e-40
137	0x80029550	-2.37234e-40
138	0x80006e16	-3.9491e-41
139	0x000e7817	1.328777e-39
140	0x8008fe4f	-8.25913e-40
141	0x000162ab	1.27231e-40
142	0x000bbf2d	1.078771e-39
143	0x0006e7b3	6.34131e-40
144	0x800d3bcc	-1.215313e-39
145	0x0002ae6c	2.46242e-40
146	0x800acfeb	-9.92942e-40
147	0x000038cd	2.0376e-41
148	0x00052294	4.71582e-40
149	0x000718ab	6.51698e-40
150	0x0008516a	7.6389e-40
151	0x80001ead	-1.1004e-41
152	0x800a76f4	-9.61027e-40
153	0x8009a5c8	-8.8599e-40
154	0x00036e7e	3.15144e-40
155	0x00039ee7	3.3251e-40
156	0x8002f62c	-2.71981e-40
157	0x0003fb01	3.6555e-40
158	0x000aa6f5	9.78248e-40
159	0x000dd1e1	1.269152e-39
160	0x800912b7	-8.33233e-40
161	0x0001f98c	1.81356e-40
162	0x8003f1f5	-3.62304e-40
163	0x80011b87	-1.0171e-40
164	0x000487be	4.16037e-40
165	0x00025204	2.13093e-40
166	0x800620fe	-5.62848e-40
167	0x8007f332	-7.3009e-40
168	0x8003ff27	-3.67038e-40
169	0x000aca36	9.90895e-40
170	0x8003af85	-3.38471e-40
171	0x800a5120	-9.47457e-40
172	0x000c723f	1.14301e-39
173	0x000038df	2.0402e-41
174	0x0009b7cb	8.92452e-40
175	0x000160be	1.2654e-40
176	0x00049d52	4.23778e-40
177	0x000c9850	1.156665e-39
178	0x000629bf	5.65989e-40
179	0x0001f546	1.79823e-40
180	0x800a20f1	-9.30172e-40
181	0x000b2dcd	1.02662e-39
182	0x0009e221	9.07639e-40
183	0x80059891	-5.13908e-40
184	0x8006dd25	-6.30345e-40
185	0x8005dca2	-5.38326e-40
186	0x00042006	3.7883e-40
187	0x000459d7	3.9957e-40
188	0x80074916	-6.69067e-40
189	0x8004c69e	-4.38592e-40
190	0x000e4e1d	1.313719e-39
191	0x800a1a92	-9.27887e-40
192	0x00063b00	5.72178e-40
193	0x00043beb	3.88837e-40
194	0x0005dcf1	5.38436e-40
195	0x8004a23f	-4.25545e-40
196	0x800503ed	-4.60586e-40
197	0xa5f77201	-4.2924922e-16
198	0x8003ff36	-3.67059e-40
199	0x00008dae	5.0825e-41
200	0x000dd9dc	1.272015e-39
201	0x0009ea01	9.10464e-40
202	0x00034c83	3.02954e-40
203	0x8001030d	-9.293e-41
204	0x0008692e	7.72415e-40
205	0x0009b69d	8.92029e-40
206	0x80052c23	-4.75011e-40
207	0xb4f5cf8e	-4.5785822e-07
208	0x000a411d	9.41713e-40
209	0x000deb74	1.278326e-39
210	0x80013d45	-1.13815e-40
211	0x0001216b	1.03824e-40
212	0xb28206ff	-1.5137173e-08
213	0x000a29a8	9.33298e-40
214	0x0007b8d0	7.09147e-40
215	0x800b0c0b	-1.01451e-39
216	0x80095ecc	-8.60526e-40
217	0x8007807b	-6.88939e-40
218	0x000df54e	1.28186e-39
219	0x8004de92	-4.47185e-40
220	0x0000b6f0	6.5626e-41
221	0x800bc0c2	-1.079339e-39
222	0x80044631	-3.92522e-40
223	0x000bd955	1.088155e-39
224	0x80024610	-2.08805e-40
225	0x0003c883	3.47437e-40
226	0x8007f67f	-7.31275e-40
227	0x8007337b	-6.61316e-40
228	0x800d19b3	-1.20308e-39
229	0xa483ddb5	-5.718778e-17
230	0x800a5a15	-9.5067e-40
231	0x8000e64f	-8.2619e-41
232	0x800cac74	-1.16389e-39
233	0x0001a06b	1.49383e-40
234	0x8006ec32	-6.35744e-40
235	0x800855b1	-7.65424e-40
236	0x800c17c6	-1.110554e-39
237	0x0003af41	3.38376e-40
238	0x800c6b17	-1.140443e-39
239	0x000a12a2	9.25039e-40
240	0x0001db56	1.70518e-40
241	0x00099b1e	8.82165e-40
242	0x00092f5d	8.4351e-40
243	0x8005474f	-4.84758e-40
244	0x8009d0a7	-9.0137e-40
245	0x8000c390	-7.0155e-41
246	0x80074b79	-6.69923e-40
247	0x800187ac	-1.40505e-40
248	0x0009ebfc	9.11175e-40
249	0x00048e91	4.18485e-40
250	0x0005498b	4.8556e-40
251	0x000742ee	6.66858e-40
252	0xa974d78b	-5.4365837e-14
253	0x80022fb2	-2.00781e-40
254	0x8005f07a	-5.45444e-40
255	0x80073572	-6.62021e-40

recurrent.bias_ih_l0 f4 [384]
0	0xb5ca2586	-1.5061094e-06
1	0x371bba04	9.28203e-06
2	0xb5abc1a8	-1.2796854e-06
3	0x3ba9828c	0.005173033
4	0xb6b0f0e0	-5.2732503e-06
5	0x3533ef6b	6.7031095e-07
6	0xb53b8605	-6.985795e-07
7	0xb624424c	-2.4476494e-06
8	0x338967ba	6.3984274e-08
9	0xba2a8426	-0.0006504677
10	0xb64df055	-3.0687272e-06
11	0xb8be90ba	-9.0868634e-05
12	0xb9059c59	-0.00012742112
13	0x38106c7f	3.443332e-05
14	0xbba5eedc	-0.0050638746
15	0xb9beb7ba	-0.0003637651
16	0xbaab8e76	-0.0013088721
17	0xb441fdc8	-1.8066851e-07
18	0xb858ad6c	-5.1659925e-05
19	0xb8026188	-3.108525e-05
20	0xb536ebb0	-6.8143254e-07
21	0xbb0b1298	-0.00212208
22	0x386e8774	5.6869772e-05
23	0xb4b8e150	-3.4436607e-07
24	0xb481b367	-2.4158655e-07
25	0xb518374c	-5.670488e-07
26	0x390d3ccd	0.00013469458
27	0x30838fb7	9.572351e-10
28	0xb428b8c5	-1.5713438e-07
29	0xb4b59250	-3.3820334e-07
30	0x3703f1b9	7.864489e-06
31	0x365b213f	3.2652895e-06
32	0xb2c25aa2	-2.2625787e-08
33	0xb918b9ab	-0.00014565016
34	0xbaa447fd	-0.0012533661
35	0xb642fe0b	-2.9056125e-06
36	0xb81fa7c7	-3.806481e-05
37	0xb91aba66	-0.00014756023
38	0x37790330	1.4842299e-05
39	0xb7b7b3e2	-2.1899064e-05
40	0x3714337b	8.833474e-06
41	0xb672b322	-3.616508e-06
42	0x3a81297b	0.0009854281
43	0x36188898	2.2729273e-06
44	0xbb2713da	-0.002549401
45	0xbb8bd7be	-0.004267662
46	0xba8f033c	-0.0010910998
47	0xbace8aea	-0.0015757952
48	0xba96d54e	-0.0011507662
49	0xb570c79a	-8.9697426e-07
50	0xb4b58606	-3.3811392e-07
51	0xbaf4ec3f	-0.001868613
52	0xb2d6aa68	-2.499037e-08
53	0x3741e484	1.1556902e-05
54	0x34ee4412	4.4380482e-07
55	0xb5caecec	-1.5119126e-06
56	0xb9c06881	-0.00036698955
57	0x36ec9829	7.051062e-06
58	0xb578bb49	-9.2659735e-07
59	0xbbf58e0b	-0.0074937395
60	0xb3cb9e78	-9.4817494e-08
61	0x3561872c	8.401573e-07
62	0xb59343d8	-1.0972099e-06
63	0xb618056d	-2.2652923e-06
64	0x35c35bc8	1.4555344e-06
65	0x36a4182b	4.8903944e-06
66	0xb2925feb	-1.7040255e-08
67	0xb611f4cd	-2.1749177e-06
68	0xbb16ac94	-0.0022991048
69	0xb75c8fdc	-1.3146517e-05
70	0xb30731fa	-3.147759e-08
71	0x38d7a85b	0.000102833576
72	0xb8feb49c	-0.00012145305
73	0xb635eb9e	-2.710825e-06
74	0xbb380740	-0.0028080493
75	0xb4701d17	-2.2362325e-07
76	0xbb3442f2	-0.0027505723
77	0x37005b9e	7.650726e-06
78	0xb5334f2d	-6.679791e-07
79	0xbba04a07	-0.0048916372
80	0xb4683d21	-2.1628922e-07
81	0xba1b10ea	-0.0005915301
82	0x38099196	3.2798933e-05
83	0xb9cfa8af	-0.00039607796
84	0xbbbdd064	-0.0057926644
85	0xb90ed918	-0.00013623049
86	0x34b65470	3.3961578e-07
87	0xb5a076df	-1.1955525e-06
88	0xb90065ee	-0.00012245003
89	0xb6934c02	-4.38979e-06
90	0xb5f44ae3	-1.8201212e-06
91	0xb39954c1	-7.140034e-08
92	0xb4418283	-1.8022006e-07
93	0xb52753e6	-6.2334436e-07
94	0xb547f6fe	-7.44927e-07
95	0x3564cefe	8.523783e-07
96	0x367828d6	3.697865e-06
97	0xba8af37a	-0.0010601126
98	0xbba09aa5	-0.0049012476
99	0xb58626c9	-9.995066e-07
100	0xb93999f5	-0.00017700328
101	0x361ddfc3	2.352507e-06
102	0xb70504de	-7.928551e-06
103	0xb68ff8e7	-4.290708e-06
104	0x35b7c17e	1.3690876e-06
105	0xb55acebe	-8.151218e-07
106	0xb43d4af1	-1.762926e-07
107	0xb5ff287b	-1.9010762e-06
108	0xb3583a20	-5.0344283e-08
109	0xb9ca996a	-0.00038642745
110	0x35c158cd	1.4405465e-06
111	0xba0483e1	-0.0005055052
112	0xb9b1b7f2	-0.0003389712
113	0xb4b1bc06	-3.3105624e-07
114	0xb80d478c	-3.3683653e-05
115	0xb7fa3d5b	-2.9830893e-05
116	0x339bc31c	7.25324e-08
117	0xb3b86466	-8.58643e-08
118	0xb448c767	-1.8698994e-07
119	0x36734cb9	3.625448e-06
120	0xbb8eca45	-0.0043576085
121	0x3530db62	6.5884353e-07
122	0xb47dd013	-2.3638158e-07
123	0xb61fa2fa	-2.3787711e-06
124	0xbbdaed1f	-0.006681099
125	0xb9bcf732	-0.0003604233
126	0xb563d944	-8.4880253e-07
127	0x36334a2a	2.6716248e-06
128	0xb6a00989	-4.7694816e-06
129	0xb7bb12c6	-2.230088e-05
130	0xb5b7c9b2	-1.3693264e-06
131	0xbe024bce	-0.1272423
132	0x398d5749	0.00026958648
133	0xb6764d15	-3.6701724e-06
134	0xb65d0a99	-3.2937735e-06
135	0xb6bb6fc0	-5.5860437e-06
136	0xb612fc23	-2.1902458e-06
137	0xbdb452cd	-0.088048555
138	0x37cbbad1	2.4286479e-05
139	0xbd474b35	-0.048655707
140	0xb80cdb6b	-3.358295e-05
141	0x391c81fc	0.00014925742
142	0xbf07649b	-0.52887887
143	0xb93707f2	-0.000174552
144	0xbe3e8041	-0.18603612
145	0xb46a1464	-2.1800366e-07
146	0xbe0f2ec9	-0.13982691
147	0xba177bbc	-0.0005778631
148	0xb7010250	-7.689538e-06
149	0xbf07866f	-0.52939504
150	0xb9d83878	-0.00041240803
151	0xb610dde2	-2.1586825e-06
152	0xb677c872	-3.6922543e-06
153	0xb5cd9328	-1.5316518e-06
154	0xbde41908	-0.11137587
155	0xb25c9983	-1.284059e-08
156	0xb5d8f35a	-1.6164079e-06
157	0xb705eb4c	-7.982202e-06
158	0xb7dbb580	-2.6191352e-05
159	0xb86329c8	-5.415993e-05
160	0xb340305d	-4.474747e-08
161	0xb72e887c	-1.0402986e-05
162	0xbe20c18a	-0.1569883
163	0xb638af47	-2.7520161e-06
164	0x391884ce	0.00014545323
165	0xbdf09eff	-0.11749076
166	0xba38df32	-0.00070523017
167	0x34421f00	1.8078936e-07
168	0x37b77073	2.1867663e-05
169	0xb6e0ad83	-6.6959196e-06
170	0xbe026f6c	-0.12737817
171	0xb794f0ea	-1.775516e-05
172	0xbdf13ae0	-0.11778808
173	0xbf03d4ed	-0.51496774
174	0xbcb7f54f	-0.02245584
175	0xbddce8d4	-0.10786596
176	0xbd8a0703	-0.06739619
177	0xb68e569a	-4.2420115e-06
178	0xb4c09fad	-3.5878966e-07
179	0xbcba4af3	-0.022740817
180	0xb2ea82d0	-2.7300672e-08
181	0xb85a4eab	-5.2048515e-05
182	0xb6e7b7db	-6.90574e-06
183	0xb608fe4a	-2.0413595e-06
184	0x391ff27a	0.00015253751
185	0xb6e163e8	-6.717153e-06
186	0xb588d2f7	-1.0194188e-06
187	0xbd80d1ed	-0.0629004
188	0xb4176bfc	-1.4102255e-07
189	0xb72f6fa1	-1.04568035e-05
190	0xb77fc4af	-1.5244978e-05
191	0xb71c8fb5	-9.331784e-06
192	0xb786dd38	-1.6077058e-05
193	0x37e5ded2	2.7402686e-05
194	0xb3b5d1cc	-8.466631e-08
195	0xb6d1146f	-6.231064e-06
196	0xbdae8abe	-0.08522557
197	0x39001632	0.000122153
198	0xb3015e05	-3.0120663e-08
199	0xb9b73f9e	-0.00034951878
200	0xbc681618	-0.014165424
201	0x36e31571	6.7676233e-06
202	0xbe84e017	-0.25952217
203	0xb4876380	-2.5218105e-07
204	0xbf00af60	-0.502676
205	0xb83a1e20	-4.437391e-05
206	0xb653ef37	-3.1580691e-06
207	0xbddea136	-0.10870592
208	0xb482686d	-2.4290367e-07
209	0xbd94b9e1	-0.07262016
210	0xb9183618	-0.00014516001
211	0xb714008e	-8.821617e-06
212	0xbf03383a	-0.5125767
213	0xb996d926	-0.00028772018
214	0x35ce5f17	1.5375871e-06
215	0xb615295c	-2.2226805e-06
216	0xb984abdc	-0.00025305047
217	0xb73a4d94	-1.11045265e-05
218	0xb5ad1690	-1.2896071e-06
219	0xb545a3c0	-7.3626506e-07
220	0xb5f067f3	-1.7911647e-06
221	0xb6b4401a	-5.3718804e-06
222	0xb538cc3e	-6.8842553e-07
223	0xb7290c64	-1.007607e-05
224	0x37b331f9	2.1361733e-05
225	0xbc129e07	-0.0089488095
226	0xbefa40ca	-0.48877555
227	0xb742671c	-1.1587308e-05
228	0xb983b3fe	-0.00025120372
229	0xb72b7ee6	-1.022194e-05
230	0x38161446	3.5781668e-05
231	0xb6ada916	-5.175486e-06
232	0xb70e269c	-8.472849e-06
233	0xb536dabc	-6.8118584e-07
234	0xb61bfbf6	-2.324346e-06
235	0xb5e34b7e	-1.6934789e-06
236	0x36d45eb8	6.329119e-06
237	0x3909b718	0.00013133546
238	0xb79e5f3e	-1.8879418e-05
239	0xbd57d82d	-0.052696396
240	0x388c777e	6.6979774e-05
241	0xb4bdfbda	-3.538724e-07
242	0xb7b011a8	-2.0989057e-05
243	0xb7aed8e6	-2.0843418e-05
244	0xb613cef9	-2.202518e-06
245	0xb6067155	-2.0033524e-06
246	0xb40b9c24	-1.3002187e-07
247	0xb82f64a0	-4.1816966e-05
248	0xbf0aa9ae	-0.5416516
249	0xb6d80afc	-6.4385804e-06
250	0xb75ea049	-1.326955e-05
251	0x35daeca9	1.6311143e-06
252	0xbef38237	-0.47560284
253	0xb9711ca9	-0.00022994228
254	0xb66d5f5e	-3.5371263e-06
255	0xb7ae590a	-2.0783878e-05

recurrent.bias_hh_l0 f4 [384]
0	0xb5ca2586	-1.5061094e-06
1	0x371bba04	9.28203e-06
2	0xb5abc1a8	-1.2796854e-06
3	0x3ba9828c	0.005173033
4	0xb6b0f0e0	-5.2732503e-06
5	0x3533ef6b	6.7031095e-07
6	0xb53b8605	-6.985795e-07
7	0xb624424c	-2.4476494e-06
8	0x338967ba	6.3984274e-08
9	0xba2a8426	-0.0006504677
10	0xb64df055	-3.0687272e-06
11	0xb8be90ba	-9.0868634e-05
12	0xb9059c59	-0.00012742112
13	0x38106c7f	3.443332e-05
14	0xbba5eedc	-0.0050638746
15	0xb9beb7ba	-0.0003637651
16	0xbaab8e76	-0.0013088721
17	0xb441fdc8	-1.8066851e-07
18	0xb858ad6c	-5.1659925e-05
19	0xb8026188	-3.108525e-05
20	0xb536ebb0	-6.8143254e-07
21	0xbb0b1298	-0.00212208
22	0x386e8774	5.6869772e-05
23	0xb4b8e150	-3.4436607e-07
24	0xb481b367	-2.4158655e-07
25	0xb518374c	-5.670488e-07
26	0x390d3ccd	0.00013469458
27	0x30838fb7	9.572351e-10
28	0xb428b8c5	-1.5713438e-07
29	0xb4b59250	-3.3820334e-07
30	0x3703f1b9	7.864489e-06
31	0x365b213f	3.2652895e-06
32	0xb2c25aa2	-2.2625787e-08
33	0xb918b9ab	-0.00014565016
34	0xbaa447fd	-0.0012533661
35	0xb642fe0b	-2.9056125e-06
36	0xb81fa7c7	-3.806481e-05
37	0xb91aba66	-0.00014756023
38	0x37790330	1.4842299e-05
39	0xb7b7b3e2	-2.1899064e-05
40	0x3714337b	8.833474e-06
41	0xb672b322	-3.616508e-06
42	0x3a81297b	0.0009854281
43	0x36188898	2.2729273e-06
44	0xbb2713da	-0.002549401
45	0xbb8bd7be	-0.004267662
46	0xba8f033c	-0.0010910998
47	0xbace8aea	-0.0015757952
48	0xba96d54e	-0.0011507662
49	0xb570c79a	-8.9697426e-07
50	0xb4b58606	-3.3811392e-07
51	0xbaf4ec3f	-0.001868613
52	0xb2d6aa68	-2.499037e-08
53	0x3741e484	1.1556902e-05
54	0x34ee4412	4.4380482e-07
55	0xb5caecec	-1.5119126e-06
56	0xb9c06881	-0.00036698955
57	0x36ec9829	7.051062e-06
58	0xb578bb49	-9.2659735e-07
59	0xbbf58e0b	-0.0074937395
60	0xb3cb9e78	-9.4817494e-08
61	0x3561872c	8.401573e-07
62	0xb59343d8	-1.0972099e-06
63	0xb618056d	-2.2652923e-06
64	0x35c35bc8	1.4555344e-06
65	0x36a4182b	4.8903944e-06
66	0xb2925feb	-1.7040255e-08
67	0xb611f4cd	-2.1749177e-06
68	0xbb16ac94	-0.0022991048
69	0xb75c8fdc	-1.3146517e-05
70	0xb30731fa	-3.147759e-08
71	0x38d7a85b	0.000102833576
72	0xb8feb49c	-0.00012145305
73	0xb635eb9e	-2.710825e-06
74	0xbb380740	-0.0028080493
75	0xb4701d17	-2.2362325e-07
76	0xbb3442f2	-0.0027505723
77	0x37005b9e	7.650726e-06
78	0xb5334f2d	-6.679791e-07
79	0xbba04a07	-0.0048916372
80	0xb4683d21	-2.1628922e-07
81	0xba1b10ea	-0.0005915301
82	0x38099196	3.2798933e-05
83	0xb9cfa8af	-0.00039607796
84	0xbbbdd064	-0.0057926644
85	0xb90ed918	-0.00013623049
86	0x34b65470	3.3961578e-07
87	0xb5a076df	-1.1955525e-06
88	0xb90065ee	-0.00012245003
89	0xb6934c02	-4.38979e-06
90	0xb5f44ae3	-1.8201212e-06
91	0xb39954c1	-7.140034e-08
92	0xb4418283	-1.8022006e-07
93	0xb52753e6	-6.2334436e-07
94	0xb547f6fe	-7.44927e-07
95	0x3564cefe	8.523783e-07
96	0x367828d6	3.697865e-06
97	0xba8af37a	-0.0010601126
98	0xbba09aa5	-0.0049012476
99	0xb58626c9	-9.995066e-07
100	0xb93999f5	-0.00017700328
101	0x361ddfc3	2.352507e-06
102	0xb70504de	-7.928551e-06
103	0xb68ff8e7	-4.290708e-06
104	0x35b7c17e	1.3690876e-06
105	0xb55acebe	-8.151218e-07
106	0xb43d4af1	-1.762926e-07
107	0xb5ff287b	-1.9010762e-06
108	0xb3583a20	-5.0344283e-08
109	0xb9ca996a	-0.00038642745
110	0x35c158cd	1.4405465e-06
111	0xba0483e1	-0.0005055052
112	0xb9b1b7f2	-0.0003389712
113	0xb4b1bc06	-3.3105624e-07
114	0xb80d478c	-3.3683653e-05
115	0xb7fa3d5b	-2.9830893e-05
116	0x339bc31c	7.25324e-08
117	0xb3b86466	-8.58643e-08
118	0xb448c767	-1.8698994e-07
119	0x36734cb9	3.625448e-06
120	0xbb8eca45	-0.0043576085
121	0x3530db62	6.5884353e-07
122	0xb47dd013	-2.3638158e-07
123	0xb61fa2fa	-2.3787711e-06
124	0xbbdaed1f	-0.006681099
125	0xb9bcf732	-0.0003604233
126	0xb563d944	-8.4880253e-07
127	0x36334a2a	2.6716248e-06
128	0xb6a00989	-4.7694816e-06
129	0xb7bb12c6	-2.230088e-05
130	0xb5b7c9b2	-1.3693264e-06
131	0xbe024bce	-0.1272423
132	0x398d5749	0.00026958648
133	0xb6764d15	-3.6701724e-06
134	0xb65d0a99	-3.2937735e-06
135	0xb6bb6fc0	-5.5860437e-06
136	0xb612fc23	-2.1902458e-06
137	0xbdb452cd	-0.088048555
138	0x37cbbad1	2.4286479e-05
139	0xbd474b35	-0.048655707
140	0xb80cdb6b	-3.358295e-05
141	0x391c81fc	0.00014925742
142	0xbf07649b	-0.52887887
143	0xb93707f2	-0.000174552
144	0xbe3e8041	-0.18603612
145	0xb46a1464	-2.1800366e-07
146	0xbe0f2ec9	-0.13982691
147	0xba177bbc	-0.0005778631
148	0xb7010250	-7.689538e-06
149	0xbf07866f	-0.52939504
150	0xb9d83878	-0.00041240803
151	0xb610dde2	-2.1586825e-06
152	0xb677c872	-3.6922543e-06
153	0xb5cd9328	-1.5316518e-06
154	0xbde41908	-0.11137587
155	0xb25c9983	-1.284059e-08
156	0xb5d8f35a	-1.6164079e-06
157	0xb705eb4c	-7.982202e-06
158	0xb7dbb580	-2.6191352e-05
159	0xb86329c8	-5.415993e-05
160	0xb340305d	-4.474747e-08
161	0xb72e887c	-1.0402986e-05
162	0xbe20c18a	-0.1569883
163	0xb638af47	-2.7520161e-06
164	0x391884ce	0.00014545323
165	0xbdf09eff	-0.11749076
166	0xba38df32	-0.00070523017
167	0x34421f00	1.8078936e-07
168	0x37b77073	2.1867663e-05
169	0xb6e0ad83	-6.6959196e-06
170	0xbe026f6c	-0.12737817
171	0xb794f0ea	-1.775516e-05
172	0xbdf13ae0	-0.11778808
173	0xbf03d4ed	-0.51496774
174	0xbcb7f54f	-0.02245584
175	0xbddce8d4	-0.10786596
176	0xbd8a0703	-0.06739619
177	0xb68e569a	-4.2420115e-06
178	0xb4c09fad	-3.5878966e-07
179	0xbcba4af3	-0.022740817
180	0xb2ea82d0	-2.7300672e-08
181	0xb85a4eab	-5.2048515e-05
182	0xb6e7b7db	-6.90574e-06
183	0xb608fe4a	-2.0413595e-06
184	0x391ff27a	0.00015253751
185	0xb6e163e8	-6.717153e-06
186	0xb588d2f7	-1.0194188e-06
187	0xbd80d1ed	-0.0629004
188	0xb4176bfc	-1.4102255e-07
189	0xb72f6fa1	-1.04568035e-05
190	0xb77fc4af	-1.5244978e-05
191	0xb71c8fb5	-9.331784e-06
192	0xb786dd38	-1.6077058e-05
193	0x37e5ded2	2.7402686e-05
194	0xb3b5d1cc	-8.466631e-08
195	0xb6d1146f	-6.231064e-06
196	0xbdae8abe	-0.08522557
197	0x39001632	0.000122153
198	0xb3015e05	-3.0120663e-08
199	0xb9b73f9e	-0.00034951878
200	0xbc681618	-0.014165424
201	0x36e31571	6.7676233e-06
202	0xbe84e017	-0.25952217
203	0xb4876380	-2.5218105e-07
204	0xbf00af60	-0.502676
205	0xb83a1e20	-4.437391e-05
206	0xb653ef37	-3.1580691e-06
207	0xbddea136	-0.10870592
208	0xb482686d	-2.4290367e-07
209	0xbd94b9e1	-0.07262016
210	0xb9183618	-0.00014516001
211	0xb714008e	-8.821617e-06
212	0xbf03383a	-0.5125767
213	0xb996d926	-0.00028772018
214	0x35ce5f17	1.5375871e-06
215	0xb615295c	-2.2226805e-06
216	0xb984abdc	-0.00025305047
217	0xb73a4d94	-1.11045265e-05
218	0xb5ad1690	-1.2896071e-06
219	0xb545a3c0	-7.3626506e-07
220	0xb5f067f3	-1.7911647e-06
221	0xb6b4401a	-5.3718804e-06
222	0xb538cc3e	-6.8842553e-07
223	0xb7290c64	-1.007607e-05
224	0x37b331f9	2.1361733e-05
225	0xbc129e07	-0.0089488095
226	0xbefa40ca	-0.48877555
227	0xb742671c	-1.1587308e-05
228	0xb983b3fe	-0.00025120372
229	0xb72b7ee6	-1.022194e-05
230	0x38161446	3.5781668e-05
231	0xb6ada916	-5.175486e-06
232	0xb70e269c	-8.472849e-06
233	0xb536dabc	-6.8118584e-07
234	0xb61bfbf6	-2.324346e-06
235	0xb5e34b7e	-1.6934789e-06
236	0x36d45eb8	6.329119e-06
237	0x3909b718	0.00013133546
238	0xb79e5f3e	-1.8879418e-05
239	0xbd57d82d	-0.052696396
240	0x388c777e	6.6979774e-05
241	0xb4bdfbda	-3.538724e-07
242	0xb7b011a8	-2.0989057e-05
243	0xb7aed8e6	-2.0843418e-05
244	0xb613cef9	-2.202518e-06
245	0xb6067155	-2.0033524e-06
246	0xb40b9c24	-1.3002187e-07
247	0xb82f64a0	-4.1816966e-05
248	0xbf0aa9ae	-0.5416516
249	0xb6d80afc	-6.4385804e-06
250	0xb75ea049	-1.326955e-05
251	0x35daeca9	1.6311143e-06
252	0xbef38237	-0.47560284
253	0xb9711ca9	-0.00022994228
254	0xb66d5f5e	-3.5371263e-06
255	0xb7ae590a	-2.0783878e-05

fc.weight f4 [4, 128]
0	0x3a527850	0.0008028792
1	0x3a37c81a	0.00070107135
2	0xba2eb84f	-0.00066650374
3	0xbe4f64ca	-0.20253292
4	0xbb52af59	-0.0032147972
5	0xb88e8882	-6.796514e-05
6	0xba3b6eee	-0.00071500137
7	0x3a6fc508	0.00091464864
8	0x39981a71	0.000290114
9	0xbe5199c4	-0.20468813
10	0x3a86d9aa	0.0010288258
11	0x3e8c64ce	0.27420658
12	0xbb6abe94	-0.003581916
13	0xbb4d2f4b	-0.0031308706
14	0xbfc7d807	-1.5612801
15	0xb9ef4465	-0.0004563659
16	0xbebaee8e	-0.36510128
17	0x39d0eafc	0.0003984793
18	0x3eb20518	0.3476951
19	0x3b918836	0.0044412864
20	0x3a2ae6b5	0.00065193634
21	0x3eb6b974	0.35688365
22	0xbb39f97c	-0.0028377464
23	0xba1862f4	-0.0005813085
24	0xba12562c	-0.00055822986
25	0x39a28a8c	0.00031002273
26	0x3e1fcae1	0.15604736
27	0xb98963b2	-0.00026204955
28	0xb9daf8d8	-0.00041765603
29	0x3a39b45a	0.00070840644
30	0x3a2d01b9	0.0006599683
31	0xba0e6ef0	-0.0005433401
32	0xb90c9cca	-0.00013409849
33	0x3b692e1a	0.0035580457
34	0xbe7e502e	-0.24835274
35	0x3a617c10	0.00086015556
36	0x3b8a0df4	0.004213089
37	0x3df63726	0.120222375
38	0x3b855f37	0.0040701884
39	0xbb5076ea	-0.003180916
40	0xba2b937b	-0.00065451086
41	0xb9998a0e	-0.00029285293
42	0xbf911b88	-1.1336527
43	0xbaa0c73a	-0.0012266405
44	0x3e853fa2	0.2602511
45	0xbe760a4a	-0.24027362
46	0x3d3d0d02	0.046154983
47	0x3ef91188	0.48646188
48	0xbe9aec7f	-0.30258557
49	0xba00f0b1	-0.00049186783
50	0xb9b6463c	-0.00034766074
51	0xbd478a13	-0.048715662
52	0x39920d07	0.00027856996
53	0x3aad646d	0.0013228782
54	0x3a1680e8	0.00057412544
55	0xb9edd442	-0.00045362307
56	0xbadb552c	-0.0016733757
57	0x3a692eeb	0.0008895236
58	0x399182a1	0.0002775388
59	0x3f6bef86	0.9216236
60	0xb93ef444	-0.00018210808
61	0x3a22379f	0.0006188098
62	0xba264474	-0.0006342598
63	0x3a132446	0.000561301
64	0xbac6d0b1	-0.0015168396
65	0xb9a8cdc3	-0.00032196761
66	0xb9ab9a14	-0.0003273046
67	0x3a3110f7	0.0006754542
68	0xbe530fac	-0.20611447
69	0x3b74a1e9	0.0037327951
70	0xb96e790c	-0.00022742542
71	0xbb8143d7	-0.0039448547
72	0x3dd7ea2d	0.10542712
73	0x393946a6	0.00017669293
74	0xbeeffa0e	-0.46870464
75	0xb9d8fe08	-0.00041387998
76	0x3e905ab9	0.28194216
77	0xbab92ed8	-0.001412834
78	0x39c8f6dd	0.000383309
79	0xbf09e960	-0.53871727
80	0xb9d8561f	-0.00041262896
81	0x3e71d5b3	0.23616676
82	0xbb02d962	-0.0019965996
83	0xbadcc4f5	-0.0016843366
84	0x3e905595	0.28190294
85	0xbb86052b	-0.0040899715
86	0xb9417e7a	-0.0001845303
87	0x39c678a6	0.00037855393
88	0xbb8e4f0e	-0.00434292
89	0x3abf4fd3	0.0014595933
90	0x3a4468b7	0.00074924104
91	0x3940e06b	0.00018394149
92	0xb884c18b	-6.330301e-05
93	0x39bff2e8	0.00036611338
94	0x39de5bd1	0.00042411548
95	0xb6445950	-2.9258263e-06
96	0xb9819271	-0.00024713905
97	0x3c093c0c	0.008376133
98	0x3f50d461	0.81574064
99	0x37ab888e	2.0448377e-05
100	0x3b80fe66	0.0039365767
101	0xb95f5032	-0.00021296812
102	0x393225d8	0.000169895
103	0x3a85d252	0.0010209775
104	0xb923ed0e	-0.00015633201
105	0xb9946059	-0.00028300544
106	0xba112d0c	-0.00055380235
107	0x3a30956d	0.00067361334
108	0xb945e9a5	-0.00018874423
109	0x3b597968	0.0033183936
110	0x39c5b8ca	0.00037712447
111	0x3e541b82	0.20713618
112	0xbb428353	-0.0029680326
113	0x39d9448c	0.00041440537
114	0x3b51d080	0.0032015145
115	0x3b4e5a73	0.0031487017
116	0xb977febb	-0.0002365065
117	0xba00f2d1	-0.0004918995
118	0x39d24242	0.00040103687
119	0xba385124	-0.0007031134
120	0x3fc7e5cc	1.5617003
121	0x39a3d4a1	0.00031248204
122	0x37a29bcd	1.9384455e-05
123	0x38bd84db	9.0369685e-05
124	0xbf38b602	-0.7215272
125	0xbaa7e6b3	-0.0012809843
126	0x39e61fd2	0.00043892727
127	0x3aa53fbe	0.0012607498
128	0xb99c03ef	-0.0002975757
129	0xbab37dfc	-0.0013694162
130	0x37f873e1	2.9617864e-05
131	0x3ede394d	0.43403092
132	0xbb510bd5	-0.0031897922
133	0x3a90c18b	0.0011044008
134	0x38e55900	0.000109361485
135	0xb988504d	-0.0002599977
136	0xb8e33f9d	-0.000108360524
137	0xbeef42fb	-0.4673079
138	0x3aad7b6f	0.0013235639
139	0xbe652222	-0.22376302
140	0xbb01c60b	-0.001980188
141	0x3b7b0a0e	0.0038305554
142	0x3e85b542	0.2611485
143	0x3b7581d9	0.0037461428
144	0x3ec9b216	0.3939368
145	0x396e4108	0.00022721675
146	0xbeb0bef6	-0.34520692
147	0xbb8155e4	-0.0039470065
148	0xba2dea84	-0.0006634372
149	0xbfbf966d	-1.4967781
150	0x3b3886e6	0.0028156578
151	0x38ad76d5	8.271417e-05
152	0x3a347971	0.0006884551
153	0xb9892e12	-0.00026165
154	0xbdd3579b	-0.10319444
155	0xb99558a9	-0.00028485552
156	0xb9e1b24a	-0.0004304818
157	0xba41cc2c	-0.00073927897
158	0xba9e92ec	-0.001209823
159	0x3abd71e7	0.0014453501
160	0xb9932fd3	-0.00028073657
161	0x3af94ab6	0.0019019458
162	0x3e660264	0.2246185
163	0x3874d777	5.83748e-05
164	0x3ac6159c	0.0015112641
165	0x3effd445	0.49966636
166	0xbb692e5e	-0.0035580616
167	0xb9c52e01	-0.00037609044
168	0x3a34b4ef	0.0006893416
169	0x391862ac	0.00014532608
170	0x3f3179ce	0.69326484
171	0x3aa0dd5b	0.0012273
172	0xbe807b0a	-0.2509387
173	0xbf69e9e1	-0.91372496
174	0xbe4f11f9	-0.202217
175	0xbe4b8d4d	-0.1987812
176	0x3d940bcc	0.072288126
177	0x39c58a25	0.00037677694
178	0x37d15db7	2.495838e-05
179	0x3e229119	0.15875663
180	0x395aee75	0.00020878932
181	0xba8772be	-0.0010333878
182	0xb9abee00	-0.00032792985
183	0xb79b7c75	-1.8535395e-05
184	0xbb8d2bdc	-0.004308207
185	0xbaa6909d	-0.0012707893
186	0xb956746f	-0.00020452005
187	0xbf958e3d	-1.1684033
188	0xb990e850	-0.00027638907
189	0xb984ce6e	-0.00025330804
190	0x3a323dca	0.00067993684
191	0xba277ed1	-0.00063894416
192	0x3a4b629a	0.0007758528
193	0x3a8ea5ee	0.0010883191
194	0xb99e8786	-0.0003023708
195	0xba227d2c	-0.00061984616
196	0x3e11e6fd	0.14248271
197	0x3a801176	0.0009770829
198	0xb9a044c0	-0.000305688
199	0x3b8757d8	0.004130345
200	0xbd82cbac	-0.063865036
201	0xba7ad0e1	-0.00095678685
202	0x3f0611ca	0.52370894
203	0xb9628c36	-0.00021605272
204	0xbfb2ac20	-1.3958778
205	0x3a810c88	0.0009845654
206	0xb9ee6ed7	-0.0004547748
207	0x3f2faaa5	0.6861976
208	0xb9644133	-0.00021768063
209	0xbf07a6d9	-0.52988964
210	0x3ae6d50a	0.0017611098
211	0xbb671740	-0.003526166
212	0x3f548874	0.8302071
213	0x3b856ded	0.004071942
214	0x3a89223a	0.0010462471
215	0xb9bfd457	-0.00036588564
216	0x3b8f57d5	0.004374484
217	0xba9536a5	-0.0011384083
218	0x370e5d6b	8.48561e-06
219	0xb91a5f09	-0.00014721988
220	0x3755b856	1.2738708e-05
221	0xb92fad80	-0.00016753934
222	0x38549c44	5.0690272e-05
223	0x3ad7e1de	0.0016470512
224	0x3a82e9bb	0.000998787
225	0x3daddf35	0.08489839
226	0x3ea76ec2	0.3270169
227	0xb94e7dda	-0.00019692574
228	0xbb8acd89	-0.0042359275
229	0x3acfa0af	0.0015840734
230	0x39e8e51c	0.00044421188
231	0x397668cd	0.0002349943
232	0xbb01f623	-0.0019830547
233	0x39deb22f	0.00042475897
234	0x38672f08	5.5118493e-05
235	0xb9c46d39	-0.0003746541
236	0x3973694e	0.00023213515
237	0x3b4bd4eb	0.003110225
238	0xba2dfa75	-0.0006636747
239	0xbe275cdc	-0.16344017
240	0xbb484bd0	-0.0030562766
241	0x3929263e	0.00016131342
242	0x3a57fac7	0.0008238968
243	0x3a48b4af	0.00076563185
244	0x394313a5	0.00018603967
245	0x37ff22c4	3.0414558e-05
246	0x39c70788	0.0003796185
247	0x3a405a15	0.0007337642
248	0xbe926f7a	-0.28600675
249	0xb9d5e9c4	-0.00040800695
250	0xb9d1aba9	-0.00039991483
251	0xb9b27e92	-0.00034045108
252	0xbe835ea6	-0.2565815
253	0x3b800c35	0.003907705
254	0xb9b36654	-0.0003421778
255	0xba8acd82	-0.001058981

fc.bias f4 [4]
0	0x3d6b2719	0.057410333
1	0xbcb58648	-0.022158757
2	0xbc08881e	-0.008333234
3	0xbcdf8ba2	-0.027288262
