input/lstm_model.pth (torch, 813481 bytes, 10 tensors)

recurrent.weight_ih_l0 f4 [512, 7]
00000000: e0d8 b43d 1e30 a7bd 8972 cabc fc60 61bd
00000010: 1cc6 c2bc 593f 7ebd 6179 d63d a2e3 1b3d
00000020: 55b8 183c b6bc 6e3d 80e5 a0bd 6341 1dbd
00000030: e5f9 5dbd 7c09 4fbd c73e 733d c82e 99bd
00000040: 1688 63bc 3476 8fbd 6e5f 27bd 1668 94bb
00000050: 4400 b53b 4112 c53d 18ec 4639 d36b 43bd
00000060: a756 bdbd 5f52 28bd da56 8dbd 100c d73d
00000070: 97c3 0a3c 13b4 2e3d e533 32bb 0cfa 07bc
00000080: d81b c8bc e885 90bd 4da5 46bb b71f da3b
00000090: 8be4 4ebd e23b d4bc b2eb 4e3d a91c 9cbc
000000a0: cf30 b2bd 1662 8c3d d6c5 afbd 4ee2 9c3c
000000b0: 5fdc 78bd b096 51bb 0076 ee3c da09 ec3c
000000c0: a426 483c f362 32bc ce4d cf3c b1ea ffbc
000000d0: b631 b8bd 9e8f 9fbd d738 243d 6b9b dcba
000000e0: b802 ac3c c7f5 d9bd dd72 d83d 5a9e 7fbd
000000f0: befa 7fbd d60f b5bd c4e1 663c e547 c53c
00000100: ea19 933d 5bc3 d83c 2c22 cfbc 82b5 24bd
00000110: 578a a0bd 5ed8 cfbc d974 2cbd efbf bbbc
00000120: fdf8 bbbc 0a14 813d 5273 113d c635 cabd
00000130: 51d9 4ebd fdd7 8f3b 3320 4fbd b019 bb3d
00000140: a7c4 833d ebda 6fbd 7ae8 8abd 8dcb c93d
00000150: 4c50 8dbc 4f21 96bc 06c9 4e3d 47b2 a53d
00000160: c247 583c 0ae5 ae3c e8e2 9a3d d838 27bd
00000170: 872a 663d 04e4 683d 6b7c c63d bf69 e0bc
00000180: d9cf 1ebd b35d 4b3d 1a56 9a3d 96ec 7fbd
00000190: cdd4 83bd 4277 64bd ad96 1ebd c076 96bd
000001a0: 477e 01bd 60fd 12bc 162e b7bc 18d6 7e3d
000001b0: fb32 593c 3284 b33d 8a81 47bd 4351 88bd
000001c0: a2ec 773d 4397 cb3d 6a22 91bc 1d37 52bd
000001d0: 0808 933d 9ce9 cfbd 880d 023d 448e afbc
000001e0: ff43 8f3d 32ad 493d fa80 a0bd 54f7 9abd
000001f0: 12f0 9dbd 6f47 9f3c 0b2a 52bc 3671 b4bd
00000200: 1651 8b3d a77c 933d 649e 07bd b8df 413d
00000210: c191 edbc 4d91 623b 10c5 b93d 853e 403d
00000220: e827 2b3d a36a 95bd 3070 b93d 1d40 b53d
00000230: 6747 b93d c74f 783d 254f 13bd 3a3d 24bd
00000240: 8e01 103d 5693 743c c063 523c 8c80 82bd
00000250: ae6a 90bd 151f 0dbd 546a 753b 5cde d8bd
00000260: 7359 af3c 4c5e c4bd bf3e 533d 04fa ffbc
00000270: 5fd2 2b3d 1846 06bd 184f b83d 1bf0 b9bd
00000280: 5d06 aabd 8e59 50bd 9fd3 48bd db9b 293d
00000290: e543 ce3c aa8b 873c 7cd2 8bbd f5a7 39bc
000002a0: c72c 923a 59d3 243c 6629 b53d 678b c93c
000002b0: 2fbc d43d beb3 793d c506 5a3d c66b 983c
000002c0: f8a7 c1bc 4d9c bebc f2bd a9bd fff1 a83d
000002d0: a188 943d 23e1 b63b 5213 b6bd ff13 b5bd
000002e0: 0ee4 c9bc bd34 063d eab3 90bd 5ae1 8eb9
000002f0: d589 84bc bdf7 d1bd d2fd 2b3d 46a0 9abd
00000300: a049 98bd 4b65 91bd 02c0 953d 0877 22bd
00000310: 2039 b23d 7722 cbbd 00cf 8d3d 3683 39bd
00000320: 9a2b d6bd 7782 acbc 17bf 4abc bbd5 b0bc
00000330: 0e1f ec3c 217a ea3c 25ff a33d 83cb 04bd
00000340: 070f be3c 900c b2bd ffec d8bd 3ef3 b93d
00000350: 4e53 a33d 9bbb 4cbc e8f9 513d a180 a4bd
00000360: abbf 0cbd 7f20 033d f59c c33d 5897 0fba
00000370: 6f64 353d a694 84bd d108 9abd 8bf0 96bc
00000380: fc83 e9bc 1565 b9bb 6057 1b3d 9bcd b6bd
00000390: 62f4 6b3c d9c0 3f3d 04db 98bc 28b2 55bd
000003a0: a97a babc c44e 083d bac7 d33c 9001 1e3d
000003b0: 85e6 42bc 7e53 4e3d 3920 f53a 1d6e ea3c
000003c0: d9c7 bbbc 2a34 9f3c de14 cabd d685 debc
000003d0: 9e4c d13c 8b2e c1bb 9c43 85bd 547a e0bc
000003e0: 56a2 89bd 5cfc 24bd b468 f1bc 9303 69bd
000003f0: 643f 78bd c13d 78bb 18fc bcbd e43c a9bd
0.08830428 -0.081634745 -0.024712818 -0.055024132 -0.023776107 -0.06207213 0.1047237 0.038058884
0.009321292 0.058285438 -0.07856274 -0.038392436 -0.054193396 -0.050546154 0.05938604 -0.07479626
-0.013887426 -0.07004967 -0.040862493 -0.0045290096 0.0055237133 0.09622622 0.00018970703 -0.04771025
-0.09245043 -0.04109418 -0.06901331 0.105003476 0.008469484 0.0426522 -0.0027191576 -0.008299362
-0.02442734 -0.070567906 -0.003031093 0.0066566127 -0.050510924 -0.02590746 0.050517745 -0.019056635
-0.08700716 0.06854646 -0.08582656 0.01915088 -0.060757037 -0.0031980686 0.029109001 0.028813291
0.012216244 -0.010887849 0.025305655 -0.03123984 -0.089938566 -0.07791065 0.04009327 -0.0016830986
0.02099739 -0.106425814 0.105687834 -0.062406875 -0.062494986 -0.08840911 0.014091913 0.024082134
0.07182677 0.02646034 -0.02528485 -0.04021216 -0.07838886 -0.025371727 -0.042103622 -0.02291867
-0.022945875 0.0630265 0.03551037 -0.09873538 -0.050500218 0.0043897615 -0.050567817 0.09135759
0.06433993 -0.058558386 -0.06782623 0.09853277 -0.017250203 -0.01832643 0.05048468 0.08090644
0.013200702 0.021349449 0.0756281 -0.040825695 0.0561929 0.056858078 0.096916996 -0.027394174
-0.038772438 0.049649905 0.07535954 -0.062481485 -0.06437073 -0.055777796 -0.038717914 -0.073468685
-0.031614568 -0.008971542 -0.022360843 0.062215894 0.013256784 0.08765449 -0.048707522 -0.066561244
0.060528405 0.0994096 -0.017716605 -0.05132209 0.07179266 -0.10151979 0.031751186 -0.021430142
0.06995391 0.049237438 -0.078371 -0.07566705 -0.077118054 0.019443242 -0.012827407 -0.08810656
0.06802575 0.0720151 -0.033110037 0.047332495 -0.029000165 0.003457147 0.0907079 0.046934623
0.041786104 -0.0729573 0.09054601 0.08850119 0.09046822 0.060622957 -0.03596415 -0.040097453
0.035157733 0.014927706 0.012841165 -0.063721746 -0.070515975 -0.03445347 0.003744741 -0.10589287
0.021404957 -0.09588298 0.05157351 -0.031247146 0.041948672 -0.03278169 0.08999461 -0.090789996
-0.08301995 -0.050866656 -0.049029943 0.0414084 0.025178859 0.01654609 -0.06827256 -0.011331548
0.0011152261 0.010060155 0.08845787 0.024602605 0.10387456 0.06096243 0.053229112 0.018606078
-0.023639664 -0.02326789 -0.08288182 0.08249282 0.072526224 0.0055810376 -0.08890404 -0.088417046
-0.024644878 0.03276514 -0.07065566 -0.0002725225 -0.016179005 -0.102523305 0.04199011 -0.07550101
-0.07435918 -0.07099398 0.07312013 -0.0396643 0.08702302 -0.09918683 0.06924248 -0.045291148
-0.10457535 -0.021058304 -0.012374661 -0.02158629 0.028823402 0.028622689 0.08007649 -0.032420646
0.023200525 -0.08693802 -0.105920784 0.09079598 0.079748735 -0.0124959005 0.05126372 -0.080323465
-0.034362476 0.032013413 0.095514216 -0.0005477569 0.044285234 -0.06473665 -0.07521213 -0.018425247
-0.028505318 -0.005657802 0.037925124 -0.08925935 0.014401527 0.046814773 -0.018659122 -0.052171856
-0.022763567 0.03327824 0.025852073 0.03857571 -0.01189578 0.050372593 0.001870162 0.02861696
-0.022922443 0.019434053 -0.09867261 -0.027163427 0.02554923 -0.005895441 -0.06507036 -0.02740208
-0.06720416 -0.04027973 -0.029468872 -0.056888174 -0.06060733 -0.0037878605 -0.092277706 -0.08263567

recurrent.weight_hh_l0 f4 [512, 128]
00000000: c937 b4bd fa7b 83bd 3970 81bd 35c9 b7bc
00000010: 7680 a5bd b6cc ba3b 2e79 4f3d 2fc8 bf3c
00000020: 3c46 21bd e8e0 35bc 9d2a 9ebc 499b a4bd
00000030: 6881 7dbc 81bd ad3c f6e8 c13d ba78 5f3d
00000040: 30e5 0c3d dc0e 043d 7d2b fd3c 36b3 b2bd
00000050: b792 91bd b279 0c3c a31a b33d a397 4bbd
00000060: 8ab2 b5bd 6fd9 c1bd 0c16 903d 8c71 ba3d
00000070: 865d 593d a746 9bbb a4c8 92bd be1b a03d
00000080: 5176 c93c 70e2 eebc 44f5 b7bc 1976 373c
00000090: 6f79 85bd 65c3 373d cbc3 9abc 2de4 6b3d
000000a0: 92f9 68bd 9f22 62bd 24bf 483d 38e8 8dbd
000000b0: cd4e a8bc 2b49 c23d 1638 ef3b 777a 623c
000000c0: 336f b9bd a71e 14bd b491 f63c 7c71 af3d
000000d0: a4d2 b73d 0930 10bd 7e61 883d 6c6f c2bd
000000e0: ea06 35bb d868 823d 1d58 153d 71a0 863d
000000f0: bb15 74bd 287b 19bd d2d1 8ebd 0884 54bd
00000100: 56b6 463d ec12 823c 5b72 b23d f3ba 953c
00000110: d608 23bd a883 bf3d e321 9cbd 0e4d cbbc
00000120: 44db ba3c 7f1e aa3d 3396 b7bd 0250 8dbd
00000130: 32f3 ad3b 2cf0 503d 144c b3bd f8d4 2fbd
00000140: fc6a c1bd e69c 583b 6262 99bd 97bc 7c3d
00000150: 6c4d 58bd 8045 913d 9b58 a63d 4dfd 943d
00000160: 75d0 83bc 094f c13b ca7d 933d 5de4 26bd
00000170: a19d 9c3c a294 233d 5e25 aebd ec4d 793c
00000180: 5253 25bd e160 0c3d 6094 e03c cc3c a73d
00000190: 22b9 bb3c 6dc7 0b3d 42d7 abbd 2416 243b
000001a0: a2b2 883d ce08 1abd d630 7ebd 754a 61bd
000001b0: 14e8 2a3d c805 b7bd f034 aabd d827 bbbd
000001c0: a44b 9fbd 99fe 053d d183 193d 8800 47bd
000001d0: b669 c83c de33 99bd 3d05 463d 388c edbc
000001e0: 4d3f 853c 86e8 8f3c e52e b5bd 2aaf 333d
000001f0: 7cf6 193c e67c 923c 14ad 9d3d bda6 66bc
00000200: 89ce 013d 434f a33c 9416 84bd b95b 68bd
00000210: 2fb4 e3bc 7cf8 7a3d 62ea 6bbc 5b91 b33d
00000220: ba55 c63c 9f24 8cbd b5e6 bebb 460e b53d
00000230: a2a1 5ebd 3afc 063d 9d6f b73d 253a 9c3c
00000240: 514b 29bd 0adc 90bc 6123 c4bd 557a c2bc
00000250: 44f4 ab3d ea53 eebc 5a16 a3bd af0c b6bd
00000260: 737c b1bd ca32 ac3d d415 973d 128e a8bb
00000270: 0468 bebc 9f41 0a3d 589f 263c b0aa 3abd
00000280: 706c 78bc 0385 e0bb 491d c3bd 8011 8abd
00000290: 49d0 38bc 369f cebc 209a 7c3d 7601 f63c
000002a0: 165a 6b3c 29c7 a7bc 17f9 b1bd 5d59 90bd
000002b0: d3aa 92bc 1791 a23a b4a3 c1bd eaf1 ab3c
000002c0: 3687 9c3a f848 ac3d 40bb 103d caf4 9e3d
000002d0: f264 c93b 6126 14bc 652e a73d 0720 b23d
000002e0: 926c bdbd 10b5 86bd e7a5 bbbd fdc1 133c
000002f0: 7f44 c5bb 678d 3dbd 9612 b53c 7065 0bbd
00000300: 507e 4abd b80e 3a3d 0432 45bd ed84 09bc
00000310: d649 acb9 7eea bfbd a6c7 d53c 4992 ad3d
00000320: 60b9 95bd 4912 6bbb c6a0 5f3d 0a52 acbd
00000330: cd6f a03d 88a5 b83d e6af 103d 570d bbbc
00000340: 029f 193d 14f9 9c3c 7ad5 36bd 173a b3bd
00000350: 775e 963d 6315 76bd 3530 05bd 3861 b7bc
00000360: f159 8ebd a7e3 8e3c 791f 91bc ed60 86bd
00000370: 2cb4 113d 07cc dc38 dd8e c63c 31ba 9cbb
00000380: d04c c33b 23ab 0ebd 1668 853c 4391 94bc
00000390: 67b1 973d fad1 9dbb 2110 4dbd 739d 783b
000003a0: c622 0c3c f7f6 843d 91fb 8a3c 2155 8ebd
000003b0: 6b45 b33d 675e beba a054 893c 8505 2fbd
000003c0: 3215 97bd ad89 533d cd8c b0bd b231 313d
000003d0: 8497 6abd b609 b83d 3744 27bd cab8 503d
000003e0: 85ea 873d 7ad1 9bbc 250f 8f3d 2313 033d
000003f0: 467e 47bc d43b 21bd 34f2 05bd 1821 a43d
-0.08799703 -0.06420131 -0.06320233 -0.02243481 -0.080811426 0.005700673 0.050652675 0.023410885
-0.03937362 -0.011100985 -0.019307429 -0.08037431 -0.015472747 0.021208527 0.09468262 0.054558493
0.034398258 0.032240734 0.030904526 -0.08725588 -0.07108062 0.008573936 0.08745315 -0.04970516
-0.08871944 -0.094653 0.07035455 0.091036886 0.053067707 -0.004738647 -0.071671754 0.078177914
0.02459255 -0.029160708 -0.022455819 0.01119759 -0.06517302 0.044864077 -0.01889219 0.057590652
-0.056878634 -0.0552088 0.04901041 -0.06929058 -0.020545388 0.09486612 0.007300387 0.013823143
-0.09054413 -0.036162045 0.030098774 0.08566567 0.089757234 -0.03520206 0.0665922 -0.09493908
-0.002762253 0.063676536 0.036460984 0.065735705 -0.059591036 -0.037470967 -0.06973614 -0.051883727
0.048513733 0.015878163 0.08713218 0.01827762 -0.03980335 0.09351283 -0.07623651 -0.024817016
0.022809632 0.08306598 -0.08964195 -0.06900026 0.005308532 0.051010296 -0.08754745 -0.042927712
-0.09444234 0.0033052503 -0.07489468 0.06170329 -0.05280821 0.07093334 0.08122369 0.07274876
-0.016090611 0.0058993143 0.07201727 -0.040745128 0.019118132 0.03993667 -0.08503221 0.015216332
-0.040362664 0.03427208 0.0274145 0.08165893 0.022915427 0.034125734 -0.083906665 0.002503761
0.066746965 -0.037606053 -0.062058292 -0.05500265 0.041725233 -0.089366496 -0.08310878 -0.09138459
-0.07778099 0.032713506 0.037479226 -0.04858449 0.02446447 -0.07480596 0.04834484 -0.028997526
0.016265536 0.01756693 -0.08846835 0.04386822 0.009397145 0.017881822 0.07699028 -0.014077839
0.031691108 0.019935256 -0.06449619 -0.0567281 -0.02779588 0.06127213 -0.014399143 0.08767959
0.0242108 -0.068429224 -0.0058258423 0.08840613 -0.054353364 0.032955386 0.089568354 0.019070694
-0.041331593 -0.017683048 -0.095770605 -0.023739973 0.08396199 -0.029092748 -0.079632476 -0.08889138
-0.08666315 0.08408125 0.0737721 -0.005143889 -0.023242958 0.033753987 0.010169826 -0.045572937
-0.015162572 -0.0068517937 -0.0952707 -0.06741619 -0.011280128 -0.025222402 0.061670423 0.030029994
0.01436474 -0.02048071 -0.08690088 -0.07048295 -0.017903721 0.0012402859 -0.09455052 0.020989377
0.0011942151 0.08412355 0.035334826 0.077615336 0.006146067 -0.009042353 0.08163146 0.08697515
-0.09249224 -0.06577504 -0.09162503 0.009018418 -0.0060201283 -0.04627743 0.022103589 -0.034032285
-0.049436867 0.045424193 -0.0481434 -0.008393508 -0.00032861409 -0.09370898 0.026096176 0.08475167
-0.07310748 -0.0035869053 0.054596685 -0.08414085 0.07833824 0.090159476 0.035324 -0.02283351
0.037505157 0.019161738 -0.04463718 -0.08751314 0.073422365 -0.06007899 -0.032516677 -0.022385225
-0.06950749 0.017442537 -0.017715203 -0.06561456 0.035572216 0.000105284205 0.024238044 -0.004782938
0.0059600845 -0.034831177 0.016284984 -0.018135672 0.07406884 -0.004816291 -0.05006421 0.0037935644
0.0085532125 0.06492417 0.01696566 -0.06949831 0.08753475 -0.0014523984 0.016763985 -0.042729873
-0.073770896 0.05164497 -0.086206056 0.043260284 -0.057273403 0.08986227 -0.04083654 0.05095748
0.06636528 -0.019020785 0.069853105 0.032000672 -0.012176102 -0.039363697 -0.032701686 0.08014125

recurrent.bias_ih_l0 f4 [512]
00000000: e09b 82ba 660a 833a db13 833a 85f7 823a
00000010: 7b25 833a 33b3 81ba 5122 82ba dac4 81ba
00000020: 709f 67ba 7275 82ba 9a05 7a3a 1c97 81ba
00000030: 5767 82ba b19a 81ba 2dd9 7bba cd21 823a
00000040: 850f 833a 221d 833a ee79 82ba c625 833a
00000050: 0623 833a c217 793a c51e 833a 355a 823a
00000060: f19c 663a 4b1a 833a 3f98 82ba 3877 6d3a
00000070: 35d2 81ba 3a14 833a 8f04 46ba 221f 833a
00000080: 136f 82ba 787e 81ba c422 833a c812 833a
00000090: f2aa 82ba 63ae 82ba deb9 82ba 1f89 82ba
000000a0: ece7 80ba 2bff 823a 25a5 82ba ea23 833a
000000b0: c3ef 823a 2d5c 81ba db6c 81ba 33e8 b6b9
000000c0: c815 833a 663e 77ba 6e94 9db8 1367 7bba
000000d0: b970 82ba 480b 833a 87a7 bab9 a885 823a
000000e0: da68 7e3a 9322 833a 81dd 81ba 9d13 833a
000000f0: de25 833a ba20 833a 400a 833a 1274 82ba
00000100: 1220 833a cf81 81ba 7625 833a 66be 82ba
00000110: 5409 833a 899e 81ba 0404 82ba 01cc 82ba
00000120: b5d0 80ba 87bf 7bba 8916 81ba 3f56 81ba
00000130: 0724 833a cf8a 2bb9 9045 81ba 73ad 82ba
00000140: 2519 833a 1564 82ba c196 77ba d814 81ba
00000150: 6a1d 833a f7ef 82ba 974e 76ba 5524 833a
00000160: c7bf 7eba e98b 82ba 4d2c 81ba 1689 82ba
00000170: b51e 833a d81f 833a c17c 81ba 63d6 80ba
00000180: 8d24 833a c3af 80ba 7b1b 833a ad8a 82ba
00000190: 6cad 82ba 198a 82ba 3631 743a 8493 81ba
000001a0: 9a22 833a 9106 833a 4490 82ba cb23 833a
000001b0: 77b2 703a cca2 82ba f421 833a 37c6 82ba
000001c0: e295 82ba 4d22 833a 7a4a 33ba d522 833a
000001d0: 5792 79ba e724 833a 481f 833a de7c 82ba
000001e0: 5b1f 833a 0421 833a 1c1f 833a d231 82ba
000001f0: de02 833a b50a 82ba 771b 833a 1b69 82ba
00000200: b679 81ba 21f5 823a d194 823a 5447 823a
00000210: a0fd 823a 3dd9 81ba 1aec 81ba 83e9 823a
00000220: 845d 82ba 8051 78ba 7486 81ba 480d 82ba
00000230: e05c 82ba 19cb 823a ab3f 7f3a 0464 803a
00000240: 361d 833a e81c 833a d49e 82ba 8224 833a
00000250: 6af2 823a 8d3b 82ba 7bf9 823a 360a 833a
00000260: 2432 82ba 6907 833a a186 82ba 3add fdb9
00000270: ba1b 833a aa0e 833a 0121 7aba 311d 833a
00000280: 4665 82ba 2210 80ba e11c 833a c220 833a
00000290: f295 82ba 783d 81ba ed17 83ba 4930 82ba
000002a0: aecf 7fba 74e5 823a 3a53 82ba 6efa 823a
000002b0: b478 9eb9 0fb1 82ba 0ba1 1dba 2248 68ba
000002c0: fa5e 773a 6606 833a f673 7cba 60b2 81ba
000002d0: 5666 81ba 7c1e 833a 4907 833a 3c23 833a
000002e0: 8713 833a 821c 833a 8655 823a faff 823a
000002f0: 9eaa 82ba 4c12 833a b71b 833a 6e1b 82ba
00000300: 681e 833a 65ee 7dba e125 833a da86 82ba
00000310: 2e10 83ba 593f 82ba 3208 833a e8c2 82ba
00000320: fa07 5fb9 5af4 803a 12cf 63ba 3cf0 733a
00000330: 411b 833a 0e13 833a 9099 82ba 9e4d 82ba
00000340: d31c 833a 598a 82ba 4809 833a 6024 81ba
00000350: 1816 833a 16ce 82ba d90c 5fba e022 833a
00000360: aa38 72ba 285f 82ba 68c6 69ba 5ada 82ba
00000370: 9814 81ba 0216 833a 11ea 52ba 9b6b 82ba
00000380: 291b 833a e52f 81ba cde7 823a b59f 82ba
00000390: 3953 0cb9 4ac3 823a dd4c 81ba 2d6f 82ba
000003a0: 7716 833a 4208 833a c47f 82ba ff17 833a
000003b0: a79e 823a b283 82ba 9b1e 833a 4427 82ba
000003c0: a04e 82ba ef1f 833a 8893 81ba b222 833a
000003d0: e212 80ba 6496 823a 4a1f 833a 0c4a 82ba
000003e0: ab0e 833a 04f8 823a 8914 833a 4fcf 81ba
000003f0: b3d7 c8b9 b659 81ba 0d10 833a b57a 81ba
-0.0009964667 0.0009997606 0.0010000424 0.000999198 0.0010005677 -0.0009895324 -0.000992844 -0.0009900585
-0.0008835709 -0.0009953214 0.0009537578 -0.0009886953 -0.000994901 -0.000988802 -0.0009607252 0.0009928286
0.0009999132 0.0010003189 -0.0009954551 0.0010005764 0.0010004945 0.00095021364 0.0010003677 0.0009945097
0.000879719 0.0010002343 -0.0009963586 0.00090585975 -0.0009904566 0.0010000535 -0.000755378 0.0010003785
-0.0009951316 -0.000987961 0.0010004868 0.0010000104 -0.0009969159 -0.0009970184 -0.0009973606 -0.0009959078
-0.0009834743 0.0009994259 -0.000996743 0.001000521 0.0009989667 -0.000986939 -0.000987436 -0.00034886747
0.0010000998 -0.00094316003 -7.5139906e-05 -0.00095902494 -0.0009951807 0.0009997869 -0.00035601502 0.0009958046
0.0009704955 0.0010004811 -0.0009907932 0.0010000352 0.0010005792 0.001000426 0.0009997562 -0.0009952805
0.0010004065 -0.0009880605 0.0010005671 -0.0009974956 0.0009997287 -0.0009889166 -0.000991941 -0.0009979011
-0.0009827825 -0.000960343 -0.0009848635 -0.0009867622 0.0010005244 -0.00016359541 -0.000986265 -0.0009969905
0.0010002 -0.000994804 -0.00094447663 -0.0009848131 0.0010003273 -0.0009989728 -0.0009395866 0.0010005335
-0.0009717908 -0.0009959909 -0.0009855122 -0.0009959068 0.0010003658 0.0010003997 -0.0009879099 -0.0009829517
0.00100054 -0.0009818006 0.0010002697 -0.0009959541 -0.0009969897 -0.0009959369 0.00093151943 -0.0009885882
0.0010004819 0.0009996464 -0.0009961207 0.0010005174 0.0009181867 -0.000996673 0.0010004626 -0.0009977286
-0.0009962881 0.0010004729 -0.0006839406 0.0010004888 -0.00095204025 0.0010005505 0.0010003829 -0.0009955426
0.0010003851 0.0010004346 0.0010003778 -0.000993306 0.0009995361 -0.0009921404 0.0010002692 -0.0009949537
-0.0009878192 0.0009991267 0.0009962564 0.000993947 0.0009993799 -0.0009906661 -0.0009912283 0.0009987805
-0.0009946083 -0.00094725937 -0.0009881989 -0.0009922171 -0.0009945892 0.0009978741 0.00097369653 0.0009795432
0.0010003212 0.0010003122 -0.0009965547 0.0010005387 0.0009990458 -0.000993596 0.0009992564 0.000999755
-0.0009933156 0.0009996715 -0.0009958335 -0.00048420747 0.001000277 0.0009998877 -0.0009541661 0.0010003207
-0.0009948395 -0.0009770433 0.0010003113 0.001000427 -0.00099629 -0.0009860238 -0.0010001637 -0.0009932603
-0.0009758425 0.0009986595 -0.0009943016 0.0009992847 -0.0003022604 -0.000997098 -0.0006013072 -0.0008860846
0.0009436455 0.0009996414 -0.00096303166 -0.0009895079 -0.0009872417 0.0010003592 0.0009996678 0.0010005007
0.0010000326 0.0010003003 0.0009943701 0.00099945 -0.0009969061 0.000999996 0.0010002767 -0.0009926388
0.0010003569 -0.00096867076 0.0010005796 -0.0009958402 -0.0009999329 -0.0009937092 0.0009996949 -0.00099763
-0.00021269909 0.0009838447 -0.00086902187 0.0009305512 0.0010002629 0.0010000186 -0.0009963978 -0.0009941345
0.0010003097 -0.0009959444 0.0009997273 -0.000985276 0.0010001091 -0.0009979631 -0.00085086894 0.00100049
-0.0009240011 -0.0009946572 -0.00089178095 -0.0009983287 -0.0009848056 0.0010001066 -0.0008045743 -0.0009950282
0.0010002601 -0.0009856193 0.0009987295 -0.0009965809 -0.00013382443 0.0009976414 -0.0009864826 -0.0009951346
0.0010001202 0.0009996968 -0.000995629 0.0010001658 0.0009965495 -0.0009957461 0.0010003628 -0.0009929915
-0.0009941645 0.0010004024 -0.0009885887 0.0010004847 -0.0009771253 0.0009963033 0.0010003832 -0.000994028
0.0009998878 0.0009992127 0.0010000627 -0.0009903702 -0.0003830768 -0.0009868655 0.000999929 -0.0009878488

recurrent.bias_hh_l0 f4 [512]
00000000: e09b 82ba 660a 833a db13 833a 85f7 823a
00000010: 7b25 833a 33b3 81ba 5122 82ba dac4 81ba
00000020: 709f 67ba 7275 82ba 9a05 7a3a 1c97 81ba
00000030: 5767 82ba b19a 81ba 2dd9 7bba cd21 823a
00000040: 850f 833a 221d 833a ee79 82ba c625 833a
00000050: 0623 833a c217 793a c51e 833a 355a 823a
00000060: f19c 663a 4b1a 833a 3f98 82ba 3877 6d3a
00000070: 35d2 81ba 3a14 833a 8f04 46ba 221f 833a
00000080: 136f 82ba 787e 81ba c422 833a c812 833a
00000090: f2aa 82ba 63ae 82ba deb9 82ba 1f89 82ba
000000a0: ece7 80ba 2bff 823a 25a5 82ba ea23 833a
000000b0: c3ef 823a 2d5c 81ba db6c 81ba 33e8 b6b9
000000c0: c815 833a 663e 77ba 6e94 9db8 1367 7bba
000000d0: b970 82ba 480b 833a 87a7 bab9 a885 823a
000000e0: da68 7e3a 9322 833a 81dd 81ba 9d13 833a
000000f0: de25 833a ba20 833a 400a 833a 1274 82ba
00000100: 1220 833a cf81 81ba 7625 833a 66be 82ba
00000110: 5409 833a 899e 81ba 0404 82ba 01cc 82ba
00000120: b5d0 80ba 87bf 7bba 8916 81ba 3f56 81ba
00000130: 0724 833a cf8a 2bb9 9045 81ba 73ad 82ba
00000140: 2519 833a 1564 82ba c196 77ba d814 81ba
00000150: 6a1d 833a f7ef 82ba 974e 76ba 5524 833a
00000160: c7bf 7eba e98b 82ba 4d2c 81ba 1689 82ba
00000170: b51e 833a d81f 833a c17c 81ba 63d6 80ba
00000180: 8d24 833a c3af 80ba 7b1b 833a ad8a 82ba
00000190: 6cad 82ba 198a 82ba 3631 743a 8493 81ba
000001a0: 9a22 833a 9106 833a 4490 82ba cb23 833a
000001b0: 77b2 703a cca2 82ba f421 833a 37c6 82ba
000001c0: e295 82ba 4d22 833a 7a4a 33ba d522 833a
000001d0: 5792 79ba e724 833a 481f 833a de7c 82ba
000001e0: 5b1f 833a 0421 833a 1c1f 833a d231 82ba
000001f0: de02 833a b50a 82ba 771b 833a 1b69 82ba
00000200: b679 81ba 21f5 823a d194 823a 5447 823a
00000210: a0fd 823a 3dd9 81ba 1aec 81ba 83e9 823a
00000220: 845d 82ba 8051 78ba 7486 81ba 480d 82ba
00000230: e05c 82ba 19cb 823a ab3f 7f3a 0464 803a
00000240: 361d 833a e81c 833a d49e 82ba 8224 833a
00000250: 6af2 823a 8d3b 82ba 7bf9 823a 360a 833a
00000260: 2432 82ba 6907 833a a186 82ba 3add fdb9
00000270: ba1b 833a aa0e 833a 0121 7aba 311d 833a
00000280: 4665 82ba 2210 80ba e11c 833a c220 833a
00000290: f295 82ba 783d 81ba ed17 83ba 4930 82ba
000002a0: aecf 7fba 74e5 823a 3a53 82ba 6efa 823a
000002b0: b478 9eb9 0fb1 82ba 0ba1 1dba 2248 68ba
000002c0: fa5e 773a 6606 833a f673 7cba 60b2 81ba
000002d0: 5666 81ba 7c1e 833a 4907 833a 3c23 833a
000002e0: 8713 833a 821c 833a 8655 823a faff 823a
000002f0: 9eaa 82ba 4c12 833a b71b 833a 6e1b 82ba
00000300: 681e 833a 65ee 7dba e125 833a da86 82ba
00000310: 2e10 83ba 593f 82ba 3208 833a e8c2 82ba
00000320: fa07 5fb9 5af4 803a 12cf 63ba 3cf0 733a
00000330: 411b 833a 0e13 833a 9099 82ba 9e4d 82ba
00000340: d31c 833a 598a 82ba 4809 833a 6024 81ba
00000350: 1816 833a 16ce 82ba d90c 5fba e022 833a
00000360: aa38 72ba 285f 82ba 68c6 69ba 5ada 82ba
00000370: 9814 81ba 0216 833a 11ea 52ba 9b6b 82ba
00000380: 291b 833a e52f 81ba cde7 823a b59f 82ba
00000390: 3953 0cb9 4ac3 823a dd4c 81ba 2d6f 82ba
000003a0: 7716 833a 4208 833a c47f 82ba ff17 833a
000003b0: a79e 823a b283 82ba 9b1e 833a 4427 82ba
000003c0: a04e 82ba ef1f 833a 8893 81ba b222 833a
000003d0: e212 80ba 6496 823a 4a1f 833a 0c4a 82ba
000003e0: ab0e 833a 04f8 823a 8914 833a 4fcf 81ba
000003f0: b3d7 c8b9 b659 81ba 0d10 833a b57a 81ba
-0.0009964667 0.0009997606 0.0010000424 0.000999198 0.0010005677 -0.0009895324 -0.000992844 -0.0009900585
-0.0008835709 -0.0009953214 0.0009537578 -0.0009886953 -0.000994901 -0.000988802 -0.0009607252 0.0009928286
0.0009999132 0.0010003189 -0.0009954551 0.0010005764 0.0010004945 0.00095021364 0.0010003677 0.0009945097
0.000879719 0.0010002343 -0.0009963586 0.00090585975 -0.0009904566 0.0010000535 -0.000755378 0.0010003785
-0.0009951316 -0.000987961 0.0010004868 0.0010000104 -0.0009969159 -0.0009970184 -0.0009973606 -0.0009959078
-0.0009834743 0.0009994259 -0.000996743 0.001000521 0.0009989667 -0.000986939 -0.000987436 -0.00034886747
0.0010000998 -0.00094316003 -7.5139906e-05 -0.00095902494 -0.0009951807 0.0009997869 -0.00035601502 0.0009958046
0.0009704955 0.0010004811 -0.0009907932 0.0010000352 0.0010005792 0.001000426 0.0009997562 -0.0009952805
0.0010004065 -0.0009880605 0.0010005671 -0.0009974956 0.0009997287 -0.0009889166 -0.000991941 -0.0009979011
-0.0009827825 -0.000960343 -0.0009848635 -0.0009867622 0.0010005244 -0.00016359541 -0.000986265 -0.0009969905
0.0010002 -0.000994804 -0.00094447663 -0.0009848131 0.0010003273 -0.0009989728 -0.0009395866 0.0010005335
-0.0009717908 -0.0009959909 -0.0009855122 -0.0009959068 0.0010003658 0.0010003997 -0.0009879099 -0.0009829517
0.00100054 -0.0009818006 0.0010002697 -0.0009959541 -0.0009969897 -0.0009959369 0.00093151943 -0.0009885882
0.0010004819 0.0009996464 -0.0009961207 0.0010005174 0.0009181867 -0.000996673 0.0010004626 -0.0009977286
-0.0009962881 0.0010004729 -0.0006839406 0.0010004888 -0.00095204025 0.0010005505 0.0010003829 -0.0009955426
0.0010003851 0.0010004346 0.0010003778 -0.000993306 0.0009995361 -0.0009921404 0.0010002692 -0.0009949537
-0.0009878192 0.0009991267 0.0009962564 0.000993947 0.0009993799 -0.0009906661 -0.0009912283 0.0009987805
-0.0009946083 -0.00094725937 -0.0009881989 -0.0009922171 -0.0009945892 0.0009978741 0.00097369653 0.0009795432
0.0010003212 0.0010003122 -0.0009965547 0.0010005387 0.0009990458 -0.000993596 0.0009992564 0.000999755
-0.0009933156 0.0009996715 -0.0009958335 -0.00048420747 0.001000277 0.0009998877 -0.0009541661 0.0010003207
-0.0009948395 -0.0009770433 0.0010003113 0.001000427 -0.00099629 -0.0009860238 -0.0010001637 -0.0009932603
-0.0009758425 0.0009986595 -0.0009943016 0.0009992847 -0.0003022604 -0.000997098 -0.0006013072 -0.0008860846
0.0009436455 0.0009996414 -0.00096303166 -0.0009895079 -0.0009872417 0.0010003592 0.0009996678 0.0010005007
0.0010000326 0.0010003003 0.0009943701 0.00099945 -0.0009969061 0.000999996 0.0010002767 -0.0009926388
0.0010003569 -0.00096867076 0.0010005796 -0.0009958402 -0.0009999329 -0.0009937092 0.0009996949 -0.00099763
-0.00021269909 0.0009838447 -0.00086902187 0.0009305512 0.0010002629 0.0010000186 -0.0009963978 -0.0009941345
0.0010003097 -0.0009959444 0.0009997273 -0.000985276 0.0010001091 -0.0009979631 -0.00085086894 0.00100049
-0.0009240011 -0.0009946572 -0.00089178095 -0.0009983287 -0.0009848056 0.0010001066 -0.0008045743 -0.0009950282
0.0010002601 -0.0009856193 0.0009987295 -0.0009965809 -0.00013382443 0.0009976414 -0.0009864826 -0.0009951346
0.0010001202 0.0009996968 -0.000995629 0.0010001658 0.0009965495 -0.0009957461 0.0010003628 -0.0009929915
-0.0009941645 0.0010004024 -0.0009885887 0.0010004847 -0.0009771253 0.0009963033 0.0010003832 -0.000994028
0.0009998878 0.0009992127 0.0010000627 -0.0009903702 -0.0003830768 -0.0009868655 0.000999929 -0.0009878488

recurrent.weight_ih_l1 f4 [512, 128]
00000000: c9aa ab3c d751 873d dce4 24bd c058 32bd
00000010: a7c1 653d 69cd 9dbd 771c 823d de9b 94bc
00000020: 3da9 99bd 7d40 01bc 5eb0 923d 8bc2 84bd
00000030: bd20 82bd 3091 bdbd 9d9d afbd 1520 c13c
00000040: fdb6 8abd edc6 7bbd 8465 003d 066c 5dbd
00000050: 4d4c a0bc 94cb 973c 49a8 b13a 4c24 abbd
00000060: 5c4d 16bd b14e d8bc 3afd a2bc 9b6e 9f3d
00000070: 378d c1bd a920 593d fe0e 093d d820 40bd
00000080: 3c51 b1bc 8fbe 893d 314f 433d 0d4d be3d
00000090: 1c36 1b3d e152 2ebd c8fd 643b 7791 633d
000000a0: 0df8 33bd c953 8d3d 4cd2 9cbd 3753 86bd
000000b0: e4e4 b9bd 3188 5e3d 60f6 89bd bfc6 d2bc
000000c0: 527e 94bb 1532 843c 8a38 0e3d 0ce6 a7bc
000000d0: ec1c 173d c077 40bd 3072 9dbd 0b35 25bd
000000e0: 0143 dcbb 3190 bebd 6bce 16bd 4660 a03d
000000f0: 35f2 0c3d eb0d 2e3d d2d4 69bd c80c a23d
00000100: e350 97bd 7547 b0bd 9e08 97bc 0855 49bc
00000110: 8ed7 82bd 0740 833c 06a8 e2bb bc19 94bd
00000120: a0dc 44bd 4404 a1b9 0d8c b4bd 85e0 9bbd
00000130: 051e 8d3d 2097 48bd 2d06 64bc ba8c a03d
00000140: b883 653d 4293 413d 49da 813d 79b6 a2bc
00000150: b713 88bb ffc8 803d c79f 183d dd72 d2bc
00000160: 9589 f7bc 4f9c 37bd 900d 373c ac1d 603d
00000170: 728b 813d 632e 383d 6e8a 2fbc 3907 b7bd
00000180: de63 07bb 3621 793d ed66 b9bd dbc2 5abc
00000190: 2110 60bc ea48 dabc dd3d 363d 76a5 b43c
000001a0: edd3 b23c 30fe 3fbd c226 81bd f457 2abc
000001b0: ccbe 343d 2df5 3ebc 6ae6 203d eac9 a7bc
000001c0: cb5c 80bd 6b92 b53d 6b0d b7bd 7aa2 89bd
000001d0: efed bebd 00dd afbd 4cf3 82bd 9c64 c23d
000001e0: a3b9 c8bc 3bc1 983d e387 63bb c400 493d
000001f0: 9691 923d 38a6 b13d f8e2 b43d 2a25 a13c
00000200: 2134 2e3d 81b4 02bd 9ae5 16bd 43c1 983c
00000210: ce9a 7bbb e1eb 6bbd a63e b4bd fea4 ab3b
00000220: 20f0 bfbc 399c babc a3fd 78bd 7274 bbbc
00000230: b51b 8a3d 5997 643d 21e4 ad3c 5b5e ca3c
00000240: 2616 a03d 956a a43d 5852 023d dbde c33d
00000250: 3142 f33c 20d4 8b3c a2c3 a0bd bbd7 d83c
00000260: 5967 cabc d6fb 9a3d e0f6 9fbd e516 4bbd
00000270: 5cb7 a5bd b443 92bd 48c3 92bd 4e99 1a3c
00000280: 1e56 a3bd 9e17 a9bd 3f96 cebb b015 62bd
00000290: 41b0 15bd cace 49bd 780c 92bd cc2a 1b3d
000002a0: 5bb8 a9bd 9585 8a3d fdd0 45bd 8e68 f53c
000002b0: bcd2 8d3d d2ba 91bd 8588 96bd 54d7 4dbb
000002c0: eb2b 413d 1605 353d fe23 b73a a67b c73c
000002d0: dcec 62bd 5415 573d afe4 483d 91f5 72bc
000002e0: 704e 54bd 5581 74bc aa77 90bd c5b4 2f3d
000002f0: 1392 2fbd e021 08bd 0ce8 613d 380b c03c
00000300: ad82 473d ae14 73bd 75b2 1dbb 65f9 a9ba
00000310: 49bf 9bbb d672 4abd 01a0 723b 8bd5 973d
00000320: 4ea3 8d3c bf09 473d e0d4 83bd 5746 b9bd
00000330: f4ed c03c 8747 793d 4b08 7dbd 7aaa ba3d
00000340: f7c8 7abc 0474 9d3c aa10 693d a336 efbc
00000350: 3000 a1bc 783f 43bd 0aa1 babd 4c2c 8d3c
00000360: a515 17bc 5f55 7a3c de10 75bd 70ef 15bc
00000370: b10a 313c c428 22bd 6261 8bbd 50a5 7cba
00000380: f3f7 383d f9ad 36bd 8615 913c f009 383c
00000390: 5128 92bc 1213 3f3d a0d0 b1bd 0852 c0bd
000003a0: d8c9 653d 9e18 bebd 3bf6 823d 5df8 413c
000003b0: 272d 8e3c 97d6 f3bc 35bd 4cbd 82fd ebbb
000003c0: 27ec 07bd ef01 883d 8e3b 8bbc 340b 4ebd
000003d0: 41dc e5bc 61d4 a4bd 1a83 313d fc67 c7bc
000003e0: aaa6 a63b df8c 873d 1535 c9bc 1361 573c
000003f0: 40fb 523d 0940 273d 324e bd3c 749a adbd
0.02095546 0.066074066 -0.04025732 -0.04354167 0.056092884 -0.077051945 0.063530855 -0.01814073
-0.07502983 -0.00788891 0.071625456 -0.064824186 -0.063539006 -0.09256208 -0.08574984 0.023574868
-0.067731835 -0.061469007 0.031346813 -0.054058097 -0.019567633 0.01852969 0.0013554181 -0.083565325
-0.03669487 -0.02640471 -0.019896138 0.07784768 -0.09450763 0.053009663 0.033461563 -0.046906322
-0.02164518 0.06725799 0.047682945 0.0929204 0.0378934 -0.04255951 0.0034941304 0.055558648
-0.04393773 0.069007464 -0.076572984 -0.06558841 -0.090768605 0.0543291 -0.067364454 -0.025729535
-0.00453166 0.016137162 0.03472189 -0.020495437 0.036892816 -0.046989202 -0.07687795 -0.04033379
-0.0067218547 -0.09304846 -0.03681795 0.07830863 0.034410674 0.042493742 -0.057087727 0.07912594
-0.07388475 -0.08607379 -0.018436726 -0.012288339 -0.0638877 0.016021742 -0.0069170026 -0.07231471
-0.048061967 -0.0003071149 -0.08815775 -0.07611183 0.068904914 -0.04897225 -0.013917488 0.078393415
0.05603382 0.047259577 0.06340463 -0.0198624 -0.004152741 0.06288337 0.03726175 -0.025689537
-0.030216971 -0.044826802 0.011172667 0.054715797 0.06325425 0.044966113 -0.010714157 -0.089369245
-0.002065889 0.060822688 -0.09052835 -0.013352121 -0.01367572 -0.026646096 0.04449259 0.022051554
0.02182957 -0.04687327 -0.063062206 -0.010396946 0.04412727 -0.011655134 0.03928224 -0.020482022
-0.06267699 0.08865818 -0.08938106 -0.06720443 -0.09322726 -0.08587074 -0.063940614 0.09491846
-0.024502581 0.07458731 -0.0034718446 0.049072996 0.071566746 0.08674282 0.08832353 0.019671042
0.042530183 -0.031910423 -0.03684006 0.018646842 -0.0038391831 -0.057598 -0.08801012 0.0052381745
-0.02342993 -0.02277957 -0.06078876 -0.022882674 0.06743566 0.0558084 0.021226944 0.024703195
0.078167245 0.080281414 0.03181681 0.09563991 0.029694648 0.017068923 -0.07849814 0.026470056
-0.024707483 0.07567565 -0.078107595 -0.04958238 -0.08091614 -0.071418196 -0.07166153 0.009435965
-0.0797541 -0.08256458 -0.006304532 -0.055196464 -0.036545042 -0.049269475 -0.071312845 0.03788261
-0.08287116 0.0676376 -0.04829501 0.029957082 0.0692496 -0.07115711 -0.07350258 -0.0031408863
0.047161024 0.044194303 0.0013972518 0.024350952 -0.055401668 0.052510574 0.049046215 -0.014829055
-0.051832616 -0.014923413 -0.07054074 0.042897005 -0.042863917 -0.03323543 0.055152938 0.02344285
0.048708607 -0.059345894 -0.0024062668 -0.0012968002 -0.0047530276 -0.049425922 0.003702164 0.07413777
0.017289784 0.04859328 -0.06437087 -0.090466194 0.023550965 0.06085923 -0.061775487 0.09114547
-0.015306703 0.01922036 0.056900658 -0.029200858 -0.01965341 -0.04766795 -0.09112747 0.017233036
-0.009221469 0.015279143 -0.05983054 -0.009151325 0.010805772 -0.03958966 -0.06805684 -0.00096376706
0.045158338 -0.044599507 0.017710458 0.011232838 -0.01784149 0.046649046 -0.0868237 -0.09390646
0.056100696 -0.09282039 0.06394621 0.011839 0.017355515 -0.02976541 -0.04998513 -0.0072018513
-0.033184197 0.06640994 -0.016996171 -0.050303653 -0.028059127 -0.080483206 0.04333792 -0.024341576
0.005085786 0.06618666 -0.024561444 0.013145703 0.051509142 0.040832553 0.023108575 -0.08476725

recurrent.weight_hh_l1 f4 [512, 128]
00000000: ddc5 90bd e0c5 9fbc 2315 853b 1f1f b3bd
00000010: 1462 20bd 48f0 55bd 22d5 05bd b246 c2bd
00000020: 1e87 c23d fa82 513d 8f06 38bd 349e 6c3d
00000030: 6122 723b a218 a1bd fdb6 1b3d 7f6c e9bc
00000040: a02d 42bd d694 813c 261e b13d efbb d6bb
00000050: 44c1 66bd 85c2 823d b41a 2dbd 3a7b b93d
00000060: e12d c13d 6d30 bf3c ae8d a5bd d15d 6a3c
00000070: f026 6e3d 7169 5b3d 9c72 543d 4d0a 293a
00000080: cd9d b0bd 4b24 c1bd afb9 2e3c c843 6fbb
00000090: a415 dcbc 99b3 903d a6a7 8fbd ace8 1f3d
000000a0: 2a3d 4cbc 91ca 7abd d01f 943d 08c7 313d
000000b0: ca7e b73d 433d 86bd c99e ea3c c629 d0bc
000000c0: 8842 593d d4ed 703d a2d9 3a3d 9b01 2fbd
000000d0: b81f 91bd ba21 433d b5c0 dd3c fb1f a33d
000000e0: ed61 a3bd c4fc 7dbc 0879 2a3d f32b 773d
000000f0: 451e 63bd a37a aebd 33ef 6fbd 1824 babd
00000100: b121 9cbd 5b59 8cbd 9926 87bc c5d3 b1bd
00000110: 64f4 bbbc b4f0 743c 2693 a93d 673b 3dbd
00000120: 9e57 8f3d 25e9 9c3d cd03 9c3d 04fd 7d3c
00000130: f56c fe3c 72f9 333d 06fc f53c f357 4cbc
00000140: 5202 c13a 06dc f1bb 0b63 c0bd 0cc3 623d
00000150: 9e6d 49bd 8c15 a23d c383 b8bd ae3a a2bd
00000160: 37af 3fbd 0db1 3c3c 1f0a 873d e3a2 ba3d
00000170: 3ad3 9bbd 3d0e 3b3d ab8f 48bd 9585 bc3d
00000180: e7cc 2b3d 2f50 6ebd 99eb 063d aa33 953d
00000190: d373 34bd 8c0c b53d c982 523b 17e9 81bd
000001a0: 4a68 86bd 7213 9a3c dec3 91bd 5b32 bbbd
000001b0: 6724 ae3d eeef 903d 15b6 c63c 57ea 2fbd
000001c0: 8ab1 203c 9de6 f6bc b75a b03d adf3 c3bc
000001d0: c841 ac3c 93d0 38bd fed1 05bc c565 21bd
000001e0: 0ed2 47bd acf3 b83d 6b16 623d 8df5 9bbd
000001f0: c336 a1bd dd46 aa3d f8fa b33d 4e35 23bd
00000200: 41d1 233d 99c1 98bd fd94 a43c 22ee dc3c
00000210: ed66 0bbd 2164 6a3b 9033 65bc c55f 75bd
00000220: 9db3 46bd acea 813d b7cd 5b3d 9cdd 12bd
00000230: dacd ae3d b0cd 9c3d 5ab8 bebc d54b 98bd
00000240: dbaf aebb ee7c c3bd 2ee7 8fbd 1d6f b1bc
00000250: d514 bb3d 12d0 4f3c 3230 ce3c 646c ad3d
00000260: 2576 ac3d be6c 693d 84e6 25bd 1862 1c3d
00000270: 3fc4 52bd f08a 293d 262b 95bd 49c2 ccbc
00000280: 4095 4dbd 93f2 413d 5008 98bd 8ca2 253d
00000290: 7dde 643d 2ef1 16bd dde9 55bd 6c7a 833d
000002a0: 63bb 913d 98e9 5b3d 5454 513d 9d0e 943d
000002b0: f76c 73bd e5cf f0bc fa51 973d f040 49bd
000002c0: fa32 7b3c f217 95bd 85cd acbd fc1d d7bc
000002d0: 86bb 80bc 1136 53bd db33 0b3c 3e5c 83bd
000002e0: cc49 143d e259 073c 3e1c 053c 5b7d 6bbc
000002f0: 6640 13bd 5308 093d 2745 2fbd 9576 8cbd
00000300: aec7 ae3c bb88 57bd cffa b03d 59cc 61bd
00000310: 6968 273d a9f7 0abb bb2f 21bd f3d5 da3c
00000320: 5e24 4fbc 9bab a63d c526 2a3d d1d3 81bc
00000330: db40 9b3d 9c5b 89bd 3014 25bd 13db c23d
00000340: 3867 fe3c 970d 8b3c dbf6 2e3d 2225 e2bb
00000350: 4f06 c0bd 74db 8bbd 69df 123d 8b35 b6bd
00000360: 0bc9 553c e051 b13d cac1 7d3c fef9 fa3c
00000370: 6ab2 893d 1cea 923c 545e 06bd fd47 4e3d
00000380: f3e8 813d a3b2 1abd d78f a43d 0889 82bd
00000390: 2985 493c 6fc3 b33d ea01 fb3b 3e55 ba3d
000003a0: 195f 29bd b245 a53d 2292 363d 8697 493d
000003b0: eda9 54bd 38b6 8c3d f135 893c 66c0 093d
000003c0: dc73 93bd 32c8 6dbd 29fa 343c 8f28 393d
000003d0: c324 733d d002 16bd 57a4 b93d f8b9 fdbc
000003e0: 8578 3b3c 5205 9cbc f0f8 933d 9712 32bd
000003f0: 00a2 a63d 861f 39bd 3afb 853d b1ec 423d
-0.070689894 -0.019503534 0.0040613576 -0.0874617 -0.039156035 -0.052231103 -0.032673962 -0.0948614
0.09498428 0.0511503 -0.04492813 0.05776806 0.003694676 -0.078660265 0.038016308 -0.028494118
-0.047406793 0.01581804 0.086483285 -0.006553165 -0.056336656 0.06384758 -0.042261794 0.09056707
0.09432579 0.02333852 -0.08083664 0.014304594 0.058142602 0.053567354 0.051867113 0.00064483733
-0.08623848 -0.094307505 0.010664388 -0.0036508907 -0.026865788 0.070655055 -0.07014398 0.039040253
-0.0124657545 -0.06122834 0.0723263 0.0434027 0.0895973 -0.065546535 0.028640168 -0.025410544
0.053041965 0.05882056 0.045617707 -0.04272614 -0.07086128 0.047639586 0.027069429 0.07965084
-0.07977662 -0.015502159 0.04161933 0.060344648 -0.05544879 -0.08519485 -0.058577728 -0.090889156
-0.076236136 -0.06852981 -0.016497897 -0.0868297 -0.022943683 0.014949966 0.082800195 -0.04619923
0.069991335 0.07661656 0.076179124 0.015502218 0.031057814 0.04393906 0.0300274 -0.012472141
0.0014725423 -0.007380965 -0.09393891 0.055361792 -0.049176805 0.07914266 -0.090095066 -0.079213485
-0.046797957 0.011516822 0.06593727 0.091130994 -0.07608648 0.045667876 -0.048965137 0.09205166
0.041943457 -0.058181938 0.032939527 0.07285245 -0.04405577 0.08840284 0.003212141 -0.063432865
-0.0656286 0.0188081 -0.07117437 -0.09140464 0.08503037 0.07077013 0.024256745 -0.042948093
0.009807954 -0.030139262 0.086110525 -0.023919905 0.02102746 -0.045120787 -0.008167742 -0.039403696
-0.048784308 0.09030852 0.05519716 -0.076151945 -0.07871773 0.08314297 0.08788103 -0.039845757
0.039994482 -0.07458801 0.020090574 0.02696902 -0.034033705 0.0035765248 -0.013989344 -0.059905786
-0.048511136 0.06343588 0.05366298 -0.035855874 0.08535357 0.07656419 -0.023281265 -0.07436339
-0.005331022 -0.09545313 -0.07026516 -0.021659428 0.09134833 0.012683885 0.025169466 0.084679395
0.08420972 0.05698847 -0.04050304 0.038179487 -0.051456686 0.041392267 -0.072836205 -0.024994986
-0.050191164 0.047350477 -0.074234605 0.04043822 0.055876244 -0.0368511 -0.052224983 0.064198345
0.07115819 0.05368957 0.051105812 0.0722935 -0.05943009 -0.029396007 0.07388683 -0.049134195
0.015331978 -0.07279958 -0.08437637 -0.026259415 -0.015714418 -0.051565234 0.00849625 -0.06414078
0.03620319 0.008261176 0.008124409 -0.014373149 -0.035950087 0.033455204 -0.04279056 -0.06858555
0.02133545 -0.05262063 0.08641588 -0.05512652 0.040871058 -0.0021204746 -0.03935216 0.026713347
-0.012642948 0.081382 0.04154088 -0.015848072 0.075807296 -0.06706926 -0.040302455 0.09514441
0.031055078 0.016974254 0.04271589 -0.006901399 -0.09376203 -0.06828967 0.03585759 -0.08896931
0.013048421 0.086581945 0.015488097 0.030636784 0.06723483 0.017933898 -0.032804802 0.050361622
0.0634326 -0.037768018 0.08035248 -0.06373793 0.012299814 0.087775104 0.0076601403 0.0909829
-0.041350458 0.08069934 0.044572957 0.04921677 -0.051919866 0.06870693 0.016749354 0.03363075
-0.07199833 -0.05805225 0.011045971 0.045204695 0.05936123 -0.036623776 0.090645485 -0.030972466
0.011442308 -0.019045506 0.072252154 -0.04347476 0.08136368 -0.04519608 0.06542058 0.047589008

recurrent.bias_ih_l1 f4 [512]
00000000: e919 55b9 d126 833a 7664 7aba f276 82ba
00000010: eb3d 81ba d422 833a 9418 833a 13f6 813a
00000020: 29a2 81ba d171 80ba 78cb 823a 8a34 5fba
00000030: ab7a 82ba 7a3b 82ba 7e25 833a ec92 80ba
00000040: d96e 7eba 1ea6 823a 9007 833a c9b1 80ba
00000050: 3074 80ba 618c 6c3a f7cf 8fb9 551f 833a
00000060: e822 833a 426a 80ba eb2d 9fb9 4a7a 82ba
00000070: 072a 7fba d427 833a a909 81ba 66f0 7aba
00000080: 95d7 823a 55ff 81ba da00 82ba 7f41 82ba
00000090: ec48 82ba 7fb5 783a 691d 833a 2720 833a
000000a0: 5e32 7e3a f36d 733a 6976 82ba a5cd 82ba
000000b0: f930 73ba 924f 82ba 064e 813a 65b3 78ba
000000c0: 9c22 833a 2220 833a 3a27 833a 11a4 82ba
000000d0: da12 7cba 7607 833a c762 82ba 12e9 823a
000000e0: 0b1f 833a 336b 823a 8e23 833a a71e 833a
000000f0: 7dc8 82ba e0c7 823a d653 73ba 7e7f 82ba
00000100: f826 833a 70a9 82ba 589e 82ba 0c23 833a
00000110: d8ad 82ba a11b 79ba 639e 81ba a90e 833a
00000120: 7765 82ba 19da 813a 2f15 833a 1f23 833a
00000130: 8787 5e3a 2126 833a 3af0 81ba 5f58 82ba
00000140: c863 82ba 6381 82ba 05e1 823a 74df 81ba
00000150: 671f 82ba 53f1 73ba 2b51 60ba 137a 82ba
00000160: da08 833a bfed 823a 7874 82ba 56d7 80ba
00000170: 7b61 43ba 6225 82ba b526 833a 77f3 96b9
00000180: 4255 82ba a611 833a c511 833a 1910 7fba
00000190: 026a 81ba de0b 833a 53e6 80ba 2000 783a
000001a0: 4e1b 82ba cd02 813a 9826 79ba a9c3 823a
000001b0: 2403 833a 0627 833a 7325 833a 788c 7e3a
000001c0: 320a 833a 4e01 17ba 76b3 7eba db57 823a
000001d0: be9b 81ba 370c 80ba dfaa 82ba 9222 833a
000001e0: b51f 833a df27 833a a91c 833a f0f0 823a
000001f0: d9f2 6cb9 cecc 81ba 80a2 82ba e621 833a
00000200: 90d2 063a 8aef 823a dfc7 81ba 6842 82ba
00000210: 0476 7eba 7918 833a a215 833a eb96 823a
00000220: 7095 80ba 2ae6 81ba a254 823a 2a1f 71ba
00000230: f351 81ba 06d8 81ba 941f 833a 317d 6a3a
00000240: e9cc 80ba c472 99b9 49eb 7eba 37a4 7cba
00000250: 2ab1 81ba 08b0 813a 9da8 82ba 911f 833a
00000260: 5321 833a df70 82ba 868d 683a a77c 82ba
00000270: df5d 7cba 7426 833a c1c6 81ba 16d1 24b9
00000280: 5c1f 833a 1576 82ba f777 82ba 5279 82ba
00000290: 5906 82ba 0a43 37ba af10 833a c613 833a
000002a0: 7469 823a 15cf 7a3a 4b47 82ba 299f 82ba
000002b0: 4b48 813a c24b 82ba 8ba1 23ba 61e0 f4b8
000002c0: e11c 833a d91f 833a 4024 833a 9839 82ba
000002d0: d2e8 56ba 2ba0 7d3a 1d4d 81ba aecb 823a
000002e0: 6e1a 833a a20c 813a 146c 7cb9 dd1b 833a
000002f0: 3db4 82ba f6aa 823a 6320 45ba 7f72 82ba
00000300: 5624 833a 3271 82ba ea23 82ba 9023 833a
00000310: 55a3 82ba 7851 6cba b13f 82ba 76a8 803a
00000320: 4036 82ba be10 833a 2a22 833a 9e1e 833a
00000330: 83e1 15b9 3b25 833a ab33 82ba 31b8 82ba
00000340: a33a 823a 0474 82ba 1a9b 803a f09a 81ba
00000350: 2a70 81ba 4e46 9bb9 0c1b 48ba 41f4 81ba
00000360: ba9f 823a 670f 833a 8410 82ba 7113 82ba
00000370: e4bd 3eba e94d 82ba 1f27 833a 95ce 823a
00000380: 9334 82ba 16eb 823a dfc4 823a 8375 68ba
00000390: a0fb 81ba 14f5 823a dec9 82ba da08 723a
000003a0: 7fec 81ba b8a7 7e3a 8a08 833a 0c0e 833a
000003b0: 0e18 833a fd25 833a df24 833a fe12 75ba
000003c0: 01f2 823a a74c 5eba 5cb9 7dba 09e7 823a
000003d0: 3a26 81ba 60ec 7bba a64f 82ba 5426 833a
000003e0: cd0a 833a 7822 833a c2f9 823a 8176 813a
000003f0: b98d 33ba a37d 80ba a023 82ba 281f 833a
-0.00020322915 0.0010006075 -0.0009551713 -0.0009953661 -0.0009860372 0.0010004886 0.0010001832 0.0009915255
-0.0009890246 -0.0009799545 0.0009978851 -0.0008514604 -0.0009954771 -0.0009935938 0.001000568 -0.0009809411
-0.00097058486 0.000996772 0.0009996761 -0.0009818609 -0.0009800252 0.00090236036 -0.0002743003 0.0010003845
0.001000491 -0.0009797292 -0.00030361055 -0.0009954658 -0.00097337406 0.0010006377 -0.0009844798 -0.00095725653
0.0009982461 -0.0009918014 -0.0009918467 -0.0009937732 -0.0009939945 0.0009487494 0.0010003272 0.0010004089
0.00096968364 0.0009286098 -0.0009953502 -0.00099795 -0.0009277012 -0.0009941927 0.0009865172 -0.0009487181
0.0010004821 0.0010004083 0.0010006197 -0.0009967108 -0.0009615846 0.000999673 -0.0009947651 0.0009987673
0.0010003758 0.0009950161 0.0010005103 0.0010003642 -0.0009977963 0.000997778 -0.0009282207 -0.0009956209
0.001000612 -0.0009968709 -0.0009965403 0.0010004952 -0.0009970022 -0.0009502713 -0.0009889122 0.0009998876
-0.0009948452 0.0009906917 0.001000082 0.0010004974 0.0008488823 0.001000587 -0.0009913512 -0.000994455
-0.000994795 -0.0009956773 0.0009985274 -0.0009908513 -0.0009927572 -0.00093056745 -0.0008557017 -0.0009954594
0.0009997145 0.0009989067 -0.0009952923 -0.00098298 -0.00074531854 -0.0009929354 0.0010006042 -0.00028791625
-0.0009943622 0.0009999766 0.0009999803 -0.0009729877 -0.0009873512 0.0009998044 -0.0009834267 0.0009460468
-0.000992635 0.0009842754 -0.0009504347 0.0009976524 0.0009995443 0.0010006137 0.0010005668 0.00097102625
0.0009997545 -0.0005760387 -0.0009716073 0.0009944396 -0.0009888334 -0.0009769265 -0.0009969136 0.001000481
0.0010003956 0.0010006389 0.0010003048 0.0009990018 -0.00022597182 -0.0009902955 -0.0009966642 0.0010004609
0.00051430706 0.0009989601 -0.0009901485 -0.0009938003 -0.0009706917 0.00100018 0.0010000954 0.000996319
-0.0009810161 -0.0009910513 0.0009943435 -0.0009198064 -0.0009866342 -0.0009906299 0.0010003918 0.00089450466
-0.0009826693 -0.0002926794 -0.0009724391 -0.0009637507 -0.0009894718 0.000989438 -0.0009968464 0.0010003914
0.0010004438 -0.0009951851 0.00088711863 -0.0009955362 -0.0009627025 0.0010005967 -0.0009901152 -0.0001571815
0.0010003853 -0.0009953404 -0.0009953965 -0.0009954369 -0.0009920105 -0.00069908856 0.0009999479 0.00100004
0.000994964 0.0009567601 -0.000993946 -0.0009965646 0.0009863464 -0.000994079 -0.00062420283 -0.000116766205
0.0010003113 0.0010003998 0.001000531 -0.0009935377 -0.0008198145 0.0009675051 -0.00098649 0.0009978914
0.0010002383 0.0009845684 -0.00024072855 0.0010002811 -0.0009971928 0.0009969163 -0.00075197796 -0.0009952335
0.0010005336 -0.0009951948 -0.0009928916 0.0010005105 -0.000996689 -0.00090148253 -0.0009937194 0.000981583
-0.0009934381 0.0009999496 0.0010004689 0.0010003631 -0.00014293757 0.0010005602 -0.0009933611 -0.0009973106
0.0009935688 -0.0009952788 0.0009811849 -0.0009888094 -0.0009875346 -0.00029616285 -0.0007633425 -0.0009914712
0.0009965815 0.0009999097 -0.0009923135 -0.0009924007 -0.0007276221 -0.0009941432 0.0010006166 0.0009979779
-0.0009933881 0.0009988274 0.0009976885 -0.0008867608 -0.0009916909 0.0009991252 -0.0009978374 0.00092328864
-0.00099124 0.0009714323 0.0009997052 0.0009998693 0.0010001676 0.0010005828 0.0010005495 -0.00093488384
0.0009990336 -0.000848005 -0.0009678805 0.0009987067 -0.0009853311 -0.0009610113 -0.000994195 0.001000593
0.0009997726 0.0010004779 0.0009992647 0.0009877236 -0.00068494264 -0.0009803068 -0.000992883 0.0010003792
