input/lstm_model.pth (torch, 814754 bytes, 10 tensors)

recurrent.weight_ih_l0 f4 [512, 7]
0	0x3c2dde25	0.010612045
1	0xbd642bf8	-0.055705994
2	0x3cffe058	0.031234905
3	0xbc513e5e	-0.012771217
4	0xbda0d08b	-0.078522764
5	0x3d997735	0.0749344
6	0x3d06c9f3	0.032907438
7	0xbd95c69c	-0.07313272
8	0xbb6d3cba	-0.0036199526
9	0xbd2766c8	-0.040869504
10	0xbbada006	-0.0052986173
11	0xbc5c9464	-0.013463113
12	0xbdbdad8d	-0.09261618
13	0xbbc5bd61	-0.0060345386
14	0xbd1e2cb0	-0.038616836
15	0xbd019dbf	-0.03164458
16	0xbd94b2b6	-0.07260649
17	0xbdae7942	-0.08519222
18	0xbd98f2fd	-0.07468221
19	0x3d93cc35	0.07216684
20	0x3d9f72d2	0.07785572
21	0x3c6a2bfb	0.014292712
22	0x3d365115	0.04451092
23	0xbd04ad35	-0.032391746
24	0x3c0462c1	0.008080185
25	0xbd984975	-0.07435886
26	0x3d7c13fe	0.061542504
27	0x3d8c40f7	0.068483286
28	0x3d593ff4	0.053039506
29	0x3cad2c2e	0.02113923
30	0xbd65ed4a	-0.0561345
31	0xbcb1b24e	-0.021691468
32	0xbda891a2	-0.08230902
33	0xbd9d71cf	-0.07687723
34	0xbda7a3c2	-0.08185531
35	0x3dbd54f1	0.09244717
36	0x3bbb1351	0.00570909
37	0xbda5b535	-0.08091203
38	0x3d9fbdfa	0.07799907
39	0xbdc5f5ed	-0.09666047
40	0xbd54f740	-0.05199361
41	0x3ce0beab	0.027434668
42	0xbdb45ceb	-0.08806785
43	0xbd9645b1	-0.07337511
44	0x3bf566e9	0.0074890745
45	0xbd8a86c1	-0.067639835
46	0xbbffe898	-0.0078097098
47	0xbd062c07	-0.03275683
48	0x3ceaa79c	0.028644376
49	0x3ce4639a	0.027879525
50	0x3dcbd958	0.099535644
51	0x3da20ca2	0.07912566
52	0x3da620c3	0.081117176
53	0x3d34afb5	0.04411288
54	0xbdc709ec	-0.09718689
55	0xbcd21856	-0.02564637
56	0xbc8b2000	-0.016983032
57	0x3cd63df7	0.026152594
58	0x3dadd5fd	0.08488081
59	0x3c85ede4	0.016348787
60	0xbc3f8bcc	-0.011691045
61	0x3903d5d8	0.00012572797
62	0xbcb9a1d9	-0.022660183
63	0x3c4c1fb9	0.012458735
64	0xbd5a8e52	-0.053358383
65	0x3db01899	0.08598442
66	0xbd8dc833	-0.069229506
67	0xbd9f152a	-0.077677086
68	0xbdaec065	-0.0853279
69	0x3d6a91e8	0.057268053
70	0x3d6f5d8b	0.05843882
71	0xbda85f6a	-0.08221324
72	0x3d53710f	0.051621493
73	0xbcd6153c	-0.026133172
74	0xbd92692b	-0.071489654
75	0x3ccd52e4	0.02506394
76	0x3d9f9c96	0.07793538
77	0x3b621542	0.0034497534
78	0x3d874023	0.0660403
79	0xbccea75b	-0.025226286
80	0xbcb908c0	-0.02258718
81	0x3d07a29c	0.03311406
82	0x3cad1dcd	0.021132374
83	0x3dc5aeb6	0.09652464
84	0x3d917c05	0.07103733
85	0xbd4eba80	-0.05047083
86	0xbd86c348	-0.06580216
87	0x3d2f5cdc	0.042813167
88	0x3d3d4e95	0.04621752
89	0xbdcb02bf	-0.09912633
90	0x3d9298f8	0.07158083
91	0xbd879b57	-0.066214256
92	0x3db762d6	0.08954398
93	0xbdb514fa	-0.088418916
94	0xbd203a11	-0.039117876
95	0x3d7f1e6e	0.06228488
96	0x3d90637e	0.07050227
97	0xbced5c7c	-0.028974764
98	0x3cad1fe4	0.02113337
99	0xbd9ef23f	-0.077610485
100	0x3d3a5e55	0.04550012
101	0xbd6adbbf	-0.057338472
102	0xbd199232	-0.03749294
103	0xbd4e08ae	-0.050301246
104	0x3cf1b62d	0.029505813
105	0xbdafaeda	-0.08578272
106	0xbc27c1c0	-0.010239065
107	0xbd93b6a9	-0.07212574
108	0xbcd9077c	-0.026492827
109	0x3dd5cb4d	0.10439167
110	0x3d32fd69	0.043698702
111	0x3d0fd88a	0.035118617
112	0xbd5705ce	-0.05249577
113	0x3cc8fb12	0.024533782
114	0xbc27a429	-0.01023201
115	0x3d91db4a	0.07121904
116	0x3d807459	0.062721916
117	0x3d1e2eca	0.03861884
118	0x3cfc9064	0.03083057
119	0x3d6473cb	0.05577449
120	0x3d2c2d7e	0.042035572
121	0xbdb3e4d8	-0.08783883
122	0x3d844191	0.06457818
123	0xbd1f88ca	-0.03894881
124	0x3d99c895	0.07508961
125	0x3db27a81	0.08714772
126	0xbd14e4a1	-0.03635085
127	0x3db5a2ec	0.088689655
128	0xbce872e2	-0.028375093
129	0xbc87045f	-0.016481576
130	0xbc403a24	-0.011732612
131	0xbbeffa7d	-0.0073235617
132	0x3c8016d4	0.015635885
133	0xbca9a9b8	-0.020710811
134	0xbd64af49	-0.055831227
135	0x3bf95a82	0.0076096663
136	0x3db4713e	0.08810662
137	0xbba4da33	-0.005030894
138	0x3d53bc5f	0.051693317
139	0xbd5d248a	-0.053989924
140	0x3d681153	0.056657147
141	0xbd94e66f	-0.07270514
142	0xbd840fe4	-0.064483434
143	0xbc8caca5	-0.017172167
144	0xbdbb5d6e	-0.0914868
145	0x3db04f94	0.08608928
146	0xbd4ca597	-0.049962606
147	0x3cb72914	0.022358455
148	0xbc311bce	-0.010809852
149	0x3d9142d3	0.07092824
150	0x3bede8f0	0.0072604343
151	0xbc9020b9	-0.017593728
152	0x3d8039c5	0.06261019
153	0xbc938288	-0.018006578
154	0xbbff2d22	-0.0077873627
155	0x3da4392b	0.080187164
156	0xbd9cf1c0	-0.07663298
157	0x3d2fdcc5	0.04293515
158	0xbd8de727	-0.069288544
159	0x3c2c198b	0.010504137
160	0x3d614cf6	0.055005036
161	0xbcd5d7ba	-0.026103843
162	0xbd7d04a8	-0.06177202
163	0x3d5ef61d	0.05443393
164	0x3dbff83e	0.0937352
165	0xbbaa35d2	-0.005194404
166	0x3db63f37	0.08898776
167	0xbca59306	-0.020211708
168	0xbd4f1ba9	-0.05056349
169	0xbd813b4a	-0.063101366
170	0x3dc38b89	0.095480986
171	0x3dc0ed89	0.09420306
172	0x3c3cb0a4	0.011516724
173	0xbd8bb3de	-0.06821416
174	0xbd068e90	-0.032850802
175	0x3ade3eb8	0.0016955948
176	0x3d9dff72	0.07714738
177	0xbd7d1882	-0.06179095
178	0xbd949ea4	-0.07256821
179	0xbd7eee19	-0.062238786
180	0xbce19ef7	-0.02754162
181	0x3dba907b	0.09109589
182	0xbc230229	-0.0099492455
183	0xbd1beca2	-0.038067468
184	0x3d8a5a62	0.067555204
185	0xbd46d945	-0.048547048
186	0xbd9153df	-0.07096075
187	0xbce8a5d3	-0.028399384
188	0xbdc80e99	-0.09768409
189	0xbd657b6a	-0.0560259
190	0x3cf7edaa	0.030264694
191	0xb9a2672a	-0.0003097591
192	0x3c5d5638	0.013509326
193	0x3b495028	0.0030717943
194	0xbd611ad8	-0.05495724
195	0x3dbf969a	0.09354897
196	0xbd8297b0	-0.06376588
197	0xbd41cdab	-0.04731528
198	0xbaabc8ae	-0.0013106072
199	0xbce9553b	-0.028483024
200	0xbcbe8867	-0.023258401
201	0x3d52d82c	0.05147569
202	0xbd912570	-0.07087219
203	0x3afd16ef	0.0019309203
204	0xbd86f908	-0.06590468
205	0x3d98c317	0.074590854
206	0x3c6b8b65	0.014376496
207	0x3d0bde8b	0.03414778
208	0xbc7ace1a	-0.0153079275
209	0xbd27d7c1	-0.040977243
210	0x3d29a4ca	0.04141692
211	0x3d935a05	0.07194904
212	0xbd8764cd	-0.06611023
213	0x3cd6a54a	0.026201863
214	0xbd52f862	-0.051506408
215	0xbdab4755	-0.08363215
216	0x3daa851f	0.08326172
217	0x3db2c4c6	0.08728938
218	0xbc4ccfb0	-0.012500688
219	0xbdaea2e0	-0.0852716
220	0xbd3e8e65	-0.046522517
221	0x3b94ddba	0.0045430334
222	0x3d8d2894	0.06892505
223	0x3d75e632	0.060033984
224	0xbd9032f8	-0.070409715
225	0xbc837d6c	-0.016051017
226	0x3d9a0a73	0.07521524
227	0xbb5b3fc2	-0.003345475
228	0xbd3c3461	-0.04594839
229	0xbbcc127e	-0.0062277904
230	0xbcb1ee14	-0.02171997
231	0x3b9d9036	0.004808451
232	0x3da24503	0.07923319
233	0xbd1d9cb7	-0.038479533
234	0xbc29b951	-0.010359124
235	0x3bdb1158	0.006685417
236	0x3d28d49b	0.04121838
237	0x3c94d169	0.01816626
238	0x3c3abe23	0.011397871
239	0xbd07475b	-0.033027034
240	0x3d64bc26	0.055843495
241	0x3d6b7637	0.057485785
242	0x3d99d084	0.07510474
243	0xbdbcfcb0	-0.09227884
244	0x3d4aa592	0.049474306
245	0x3ba34280	0.0049822927
246	0xbd73cfa8	-0.05952421
247	0x3b89defb	0.0042074895
248	0xbd89eedf	-0.06735014
249	0xbcfbcccc	-0.030737303
250	0x3d928e2c	0.071560234
251	0xbcb2657d	-0.021776909
252	0x3d8d6028	0.06903106
253	0x3c465258	0.012104593
254	0x3d74e46f	0.059788164
255	0xbc9a6a82	-0.018849615

recurrent.weight_hh_l0 f4 [512, 128]
0	0x3d1e2ea0	0.038618684
1	0x3d688f6e	0.05677741
2	0x3d84a0c3	0.06475975
3	0x3af55950	0.0018718634
4	0xbd2c6d11	-0.0420962
5	0x3d65f04e	0.056137376
6	0x3d69ebb8	0.057109565
7	0xbd9290c1	-0.07156516
8	0x3d064b99	0.03278694
9	0x3ce7dc21	0.028303208
10	0x3d46e129	0.048554573
11	0x3d6c8cec	0.05775158
12	0x3d85c5b4	0.065318495
13	0xb9c59170	-0.00037683127
14	0xba78e588	-0.0009494652
15	0xbd5f6fa7	-0.05454984
16	0x3d634038	0.055481166
17	0x3ab80cb2	0.001404187
18	0xbd4e7c8a	-0.05041174
19	0x3c6770fa	0.014126057
20	0xbd87e4de	-0.0663545
21	0xbae8fd2a	-0.0017775644
22	0xbd7c94f4	-0.06166549
23	0x3d0e9f80	0.03482008
24	0xbadc78d4	-0.0016820678
25	0xbcc987a8	-0.024600819
26	0xbcfbc38c	-0.030732892
27	0xbd82f7fb	-0.06394955
28	0x3d4c6a42	0.049906023
29	0x3d08c187	0.033387687
30	0xbd59a145	-0.053132314
31	0x3c901a84	0.017590769
32	0xbd83724a	-0.06418283
33	0x3da31a09	0.0796395
34	0xbd0b5eac	-0.034025833
35	0xbd0d2e1e	-0.03446781
36	0xba85d8ce	-0.0010211708
37	0xbab7322d	-0.0013976746
38	0xbd590351	-0.05298168
39	0xbcae782f	-0.021297542
40	0x3d052d3d	0.032513846
41	0x3c32000b	0.010864268
42	0x3da89c07	0.08232885
43	0xbd5651eb	-0.052324217
44	0xba894c15	-0.0010474945
45	0xbca1db97	-0.019758029
46	0x3d63ebfa	0.055644967
47	0xbd69d1e1	-0.05708492
48	0x3a3cf250	0.0007207738
49	0xbcc88e2c	-0.024481855
50	0x3d279183	0.040910255
51	0xb912fffb	-0.00014019005
52	0xbd90913c	-0.07058951
53	0x3ce0c39d	0.027437026
54	0xba9a6aa4	-0.0011781049
55	0xbcae8af7	-0.021306498
56	0xbc817e74	-0.015807368
57	0x3c6c0351	0.014405088
58	0x3d760b28	0.060069233
59	0x3c5e0938	0.013552003
60	0xb94b3072	-0.00019377636
61	0xbc296290	-0.010338441
62	0x3c992d0b	0.018698236
63	0x3d32f733	0.04369278
64	0x3d12c815	0.035835344
65	0xbd07b10d	-0.033127833
66	0x3d48b7d0	0.049003422
67	0x3cb53cb1	0.022123666
68	0xbd8681b0	-0.06567705
69	0x3d53d851	0.051719967
70	0x3d307c90	0.043087542
71	0x3d4646c6	0.04840734
72	0x3bd5d4ad	0.006525597
73	0x3d887546	0.06662993
74	0x3b9cf98d	0.004790491
75	0x3d716d3c	0.058942065
76	0x3d73e19d	0.059541333
77	0x3d309454	0.043110207
78	0x38e4ec40	0.00010915892
79	0xbd68897d	-0.056771744
80	0x3d3fac67	0.046795275
81	0xbc86e2ae	-0.016465511
82	0x3d9c842f	0.076423995
83	0x3cfe255a	0.03102367
84	0xbd8a45cc	-0.06751594
85	0x3ab8b193	0.0014091007
86	0x3c574470	0.013138875
87	0x3da19b20	0.07890916
88	0xbd2594b4	-0.040425017
89	0xbc7e5b92	-0.015524762
90	0x3da34c40	0.07973528
91	0xbcf35f9d	-0.029708678
92	0xbcdd1d2c	-0.02699145
93	0xbd5eff92	-0.05444295
94	0x3d368737	0.044562545
95	0x3d886f1c	0.066618174
96	0x3cb35dc5	0.021895299
97	0xbd847bad	-0.06468902
98	0x3c74471d	0.014909533
99	0xbda2ccd2	-0.079492226
100	0xb9c32082	-0.0003721752
101	0x3d607075	0.054794747
102	0x3d16259f	0.036656972
103	0x39f71064	0.00047123723
104	0xbd31a1ff	-0.043367382
105	0x3d4d3cc6	0.050106786
106	0x3d022830	0.031776607
107	0x3d975c4c	0.07390651
108	0xbd6f7016	-0.058456503
109	0xbca7e6af	-0.02049574
110	0xbda40062	-0.080078855
111	0xbd89e317	-0.06732767
112	0xbd54835a	-0.05188308
113	0x3d1e027e	0.038576595
114	0x3b8d773f	0.0043171938
115	0x3d81e7fa	0.06343074
116	0x3c64f00c	0.013973247
117	0x3d527954	0.05138524
118	0xbd8f0905	-0.06984142
119	0xb91e2cc9	-0.00015084738
120	0x3caf89f0	0.021428078
121	0xbbb4e278	-0.0055201612
122	0xbd0455a0	-0.03230822
123	0x3cf64b73	0.030065274
124	0x3d7509a7	0.05982366
125	0xba20b92a	-0.0006131107
126	0x3d458f15	0.048232157
127	0x3d1eee9c	0.038801774
128	0xbd0831bf	-0.033250567
129	0xb721e928	-9.650634e-06
130	0x3d2d2a23	0.042276513
131	0xbc4aaa73	-0.01236974
132	0xbd1eadf8	-0.03874013
133	0xbd82f883	-0.06395056
134	0x3da5948c	0.08084974
135	0xbd91a72f	-0.07111966
136	0x3d3c203f	0.04592919
137	0xbcb3d5b9	-0.021952497
138	0xbd5058d2	-0.050865956
139	0x3d94e75a	0.07270689
140	0x3d0dfe07	0.034666087
141	0xbb77c86f	-0.0037808677
142	0x3d9c6386	0.0763617
143	0x3c99034d	0.018678332
144	0xbd0c0cb6	-0.03419181
145	0x3d66317f	0.056199547
146	0xbc8add3d	-0.016951198
147	0x3da979e4	0.08275202
148	0x3d08708f	0.03331047
149	0x3d7668cd	0.06015854
150	0xbd0cbf0e	-0.03436189
151	0x3d96d966	0.07365684
152	0x3d685a4a	0.05672673
153	0x3d2aa26c	0.041658804
154	0x38d37fa6	0.000100850404
155	0x3d5d4533	0.05402107
156	0xbd85ae2b	-0.065273605
157	0xbd1d4d96	-0.03840407
158	0x3d1189ec	0.035531923
159	0x3c97c5be	0.018526908
160	0xbd3a54cd	-0.04549103
161	0xbcd6de84	-0.02622915
162	0x3daa7d22	0.083246484
163	0xbca18cf1	-0.019720526
164	0x3c8b6828	0.017017439
165	0xbd8050b3	-0.06265392
166	0xbc89ebe8	-0.016836122
167	0x3a2d4848	0.0006610197
168	0xbca94db7	-0.02066694
169	0xbc22f815	-0.009946843
170	0x3d99d878	0.07511991
171	0x3d6ae20d	0.057344485
172	0xb94c8b8c	-0.00019506941
173	0x3d93f167	0.07223778
174	0x3d00413d	0.031312216
175	0x3d698b23	0.057017457
176	0x3c6c4d8b	0.014422785
177	0xbac62944	-0.0015118499
178	0x3ccfa641	0.02534783
179	0x3d2f7490	0.042835772
180	0x3d74ad76	0.059735738
181	0xbd661808	-0.05617526
182	0xbd9f0ff4	-0.07766715
183	0x3d2b1031	0.04176349
184	0x3d42ea15	0.04758652
185	0xbab5bc8a	-0.0013865393
186	0x3d7fc908	0.062447578
187	0x3d9c5375	0.07633106
188	0x3d91e1fb	0.071231805
189	0x3b52e116	0.0032177619
190	0x3bdaef27	0.006681341
191	0x3bdd6ee1	0.0067576026
192	0xbd3ceedd	-0.046126235
193	0xbd3f19ef	-0.04665559
194	0xbb5c8bee	-0.003365274
195	0x3d717ee0	0.058958888
196	0xba936adc	-0.0011247057
197	0xbdabb8bc	-0.08384845
198	0x3d81f32a	0.06345208
199	0x3d3a1369	0.045428667
200	0xbb4fa9ac	-0.0031686826
201	0x3da173c0	0.07883406
202	0x39be5ad7	0.00036307305
203	0xbd06573d	-0.03279804
204	0xbd1b11b6	-0.037858687
205	0x3c0c57c2	0.008565845
206	0x3bbc96df	0.00575529
207	0x3bde4197	0.0067827213
208	0x3d6f0b98	0.058360666
209	0x3d38a129	0.04507557
210	0x3d502761	0.050818805
211	0xbd5c3533	-0.053761672
212	0x3bb28601	0.0054481034
213	0x3d426d0f	0.047467288
214	0xbd4f928a	-0.05067686
215	0x3d1eb943	0.038750898
216	0x3cc88058	0.024475262
217	0x3b2290aa	0.0024805465
218	0x3dab9e00	0.083797455
219	0xbd815115	-0.06314293
220	0xbd6edb20	-0.058314443
221	0x3d6c7663	0.05773009
222	0xbd59fe89	-0.05322126
223	0x3c3a70b1	0.011379407
224	0xbd9d3eb8	-0.07677978
225	0xbd8d7bb8	-0.06908363
226	0xbd438bc4	-0.047740713
227	0xb80c6efc	-3.3481963e-05
228	0x3d8242ec	0.063604206
229	0x3c570696	0.013124129
230	0x3d40b752	0.047049828
231	0xba178fec	-0.0005781639
232	0x3d4cedd9	0.050031517
233	0x3c96e6e2	0.01842064
234	0xbd8e4f80	-0.06948757
235	0x3d23e8b6	0.040016852
236	0xbd12fcda	-0.03588567
237	0x3ab1c63a	0.0013563104
238	0x3cde0e2c	0.027106367
239	0x3683a180	3.9229053e-06
240	0x3a21a61d	0.00061664154
241	0xbd46d99a	-0.048547365
242	0x3bebe55c	0.0071989726
243	0x3bfe9419	0.0077691195
244	0x3bbf0808	0.005829815
245	0xbd28006a	-0.04101602
246	0xbd90933b	-0.07059332
247	0xbc48ce2d	-0.012256187
248	0xbcb87f75	-0.022521714
249	0x3daabb7c	0.08336541
250	0xbc3409d1	-0.010988669
251	0xbd581e4c	-0.05276327
252	0xbc90ef3b	-0.017692199
253	0xbcb9662e	-0.02263173
254	0x3c853a2f	0.016263096
255	0x3da7453f	0.081675045

recurrent.bias_ih_l0 f4 [512]
0	0x3c18cabc	0.009325679
1	0x3be2bd53	0.006919542
2	0xba415b56	-0.0007375976
3	0x3b86c2b9	0.004112568
4	0xbbd56ebc	-0.0065134447
5	0xbbf576fe	-0.0074909916
6	0x3c32819e	0.010895161
7	0x3c3b6007	0.011436469
8	0xbb2493a0	-0.0025112405
9	0x3b9d4fb6	0.004800762
10	0x3c38298d	0.011240375
11	0x3c3b12dc	0.011418071
12	0x3b8204ec	0.003967872
13	0x3c1fd3bb	0.00975507
14	0x3bfe8db3	0.0077683567
15	0x3c218bb0	0.009859964
16	0xbbee38d6	-0.007269959
17	0xbb1382eb	-0.0022508453
18	0x3c241cfd	0.010016677
19	0x3b768155	0.003761371
20	0xbb2dfa65	-0.0026546952
21	0x3c43b1c9	0.011944243
22	0x3b9aac13	0.00472022
23	0x3b251f5d	0.0025195696
24	0x3c2477a8	0.010038294
25	0xbb85a3a2	-0.0040783444
26	0xbc2bd03c	-0.010486659
27	0x3bb486ee	0.005509249
28	0x3a6389a4	0.0008679873
29	0xbb4621b5	-0.0030232493
30	0x3c1b93a1	0.009495647
31	0xba63d024	-0.0008690378
32	0xbbc2bcfb	-0.0059429384
33	0x3c3a3bd1	0.0113668
34	0x3b5a72cc	0.0033332584
35	0x3c2a7f66	0.010406351
36	0x3c24c83e	0.010057507
37	0x3c4c0993	0.012453455
38	0xbb854447	-0.004066977
39	0xbbe36f03	-0.006940724
40	0xbad44f66	-0.0016197979
41	0x3c3c1952	0.011480646
42	0x3c2040e4	0.009781096
43	0xbbcbad41	-0.006215722
44	0xbc0366df	-0.008020132
45	0x3b5a9a08	0.003335597
46	0x3c430ec0	0.011905372
47	0x3c1ac204	0.009445671
48	0x3b27a90d	0.002558294
49	0x3959de90	0.00020777644
50	0x3c2d66aa	0.010583559
51	0xbc1534d1	-0.009106831
52	0xbbc14a6f	-0.0058987658
53	0x3c1970ab	0.009365241
54	0x3c47260f	0.01215507
55	0x3c34fa17	0.011045954
56	0xba78eecb	-0.0009496032
57	0x3c2fd571	0.010732041
58	0xba50de8d	-0.0007967733
59	0x3bf7c5e6	0.007561433
60	0x3c0e2e27	0.008677996
61	0xbc04d3cc	-0.008107137
62	0x3bd97998	0.0066368096
63	0xbaf84b4e	-0.0018943341
64	0xbb9c49be	-0.004769533
65	0x3b5d8f3f	0.0033807305
66	0x3c11cea5	0.008899366
67	0x3c2cd0ea	0.010547856
68	0xbbf080ff	-0.0073395963
69	0xbbacbf93	-0.005271861
70	0x3a70fe23	0.0009193143
71	0x3b19b89a	0.0023455978
72	0x39b0aef0	0.00033699675
73	0xbc1a1244	-0.009403769
74	0x3c420790	0.011842623
75	0x3c4aa5dd	0.012368646
76	0x3ae27315	0.0017276729
77	0xbbee30e3	-0.0072690113
78	0x3c09c334	0.008408356
79	0x3c292250	0.010323122
80	0xbc0a268e	-0.008432044
81	0x3c05f5ba	0.008176262
82	0x3c3acf05	0.011401896
83	0x3c2c39da	0.01051184
84	0x3babe764	0.00524609
85	0xbbea1a40	-0.0071442425
86	0xbc140a02	-0.009035589
87	0x391c816e	0.00014925536
88	0x3c47c058	0.012191854
89	0x3c30b13d	0.010784444
90	0x3c43060e	0.011903299
91	0x3c1c012d	0.009521765
92	0xbb85bb07	-0.0040811333
93	0x3c240ee4	0.010013316
94	0x3bb7ebd9	0.005612832
95	0xba332e36	-0.0006835194
96	0x3b4b5f8d	0.0031032295
97	0xbb16950e	-0.0022977027
98	0xbbc4d169	-0.006006409
99	0x3c2fa0fd	0.010719535
100	0x3c05b86c	0.008161645
101	0xbbbef7e9	-0.005827893
102	0x3bcdd055	0.0062809386
103	0x3c20b778	0.009809367
104	0xbc158216	-0.009125253
105	0x3c4a47ad	0.01234619
106	0xbbffed53	-0.0078102737
107	0x38c894ec	9.564482e-05
108	0x3c22429a	0.009903574
109	0x3b1b7321	0.0023719745
110	0xbc10299e	-0.008798985
111	0x3c374c2b	0.011187593
112	0x3c393a4d	0.011305404
113	0x3ba21d11	0.0049473126
114	0x3c247405	0.010037427
115	0xb9ac4544	-0.00032858003
116	0x3be284c0	0.0069127977
117	0x3c136fe1	0.008998842
118	0x39840e82	0.0002518781
119	0x3bedd053	0.0072575
120	0x3bc348b2	0.0059595937
121	0xba6ab912	-0.0008953969
122	0x3b341e5d	0.0027483918
123	0x3b00734d	0.0019599975
124	0x3bea86d4	0.007157186
125	0xbbf1af1d	-0.0073756115
126	0x3c24cbae	0.010058327
127	0x3c329347	0.0108993715
128	0x00000000	0.0
129	0x00000000	0.0
130	0x00000000	0.0
131	0x00000000	0.0
132	0x00000000	0.0
133	0x00000000	0.0
134	0x00000000	0.0
135	0x00000000	0.0
136	0x00000000	0.0
137	0x00000000	0.0
138	0x00000000	0.0
139	0x00000000	0.0
140	0x00000000	0.0
141	0x00000000	0.0
142	0x00000000	0.0
143	0x00000000	0.0
144	0x00000000	0.0
145	0x00000000	0.0
146	0x00000000	0.0
147	0x00000000	0.0
148	0x00000000	0.0
149	0x00000000	0.0
150	0x00000000	0.0
151	0x00000000	0.0
152	0x00000000	0.0
153	0x00000000	0.0
154	0x00000000	0.0
155	0x00000000	0.0
156	0x00000000	0.0
157	0x00000000	0.0
158	0x00000000	0.0
159	0x00000000	0.0
160	0x00000000	0.0
161	0x00000000	0.0
162	0x00000000	0.0
163	0x00000000	0.0
164	0x00000000	0.0
165	0x00000000	0.0
166	0x00000000	0.0
167	0x00000000	0.0
168	0x00000000	0.0
169	0x00000000	0.0
170	0x00000000	0.0
171	0x00000000	0.0
172	0x00000000	0.0
173	0x00000000	0.0
174	0x00000000	0.0
175	0x00000000	0.0
176	0x00000000	0.0
177	0x00000000	0.0
178	0x00000000	0.0
179	0x00000000	0.0
180	0x00000000	0.0
181	0x00000000	0.0
182	0x00000000	0.0
183	0x00000000	0.0
184	0x00000000	0.0
185	0x00000000	0.0
186	0x00000000	0.0
187	0x00000000	0.0
188	0x00000000	0.0
189	0x00000000	0.0
190	0x00000000	0.0
191	0x00000000	0.0
192	0x00000000	0.0
193	0x00000000	0.0
194	0x00000000	0.0
195	0x00000000	0.0
196	0x00000000	0.0
197	0x00000000	0.0
198	0x00000000	0.0
199	0x00000000	0.0
200	0x00000000	0.0
201	0x00000000	0.0
202	0x00000000	0.0
203	0x00000000	0.0
204	0x00000000	0.0
205	0x00000000	0.0
206	0x00000000	0.0
207	0x00000000	0.0
208	0x00000000	0.0
209	0x00000000	0.0
210	0x00000000	0.0
211	0x00000000	0.0
212	0x00000000	0.0
213	0x00000000	0.0
214	0x00000000	0.0
215	0x00000000	0.0
216	0x00000000	0.0
217	0x00000000	0.0
218	0x00000000	0.0
219	0x00000000	0.0
220	0x00000000	0.0
221	0x00000000	0.0
222	0x00000000	0.0
223	0x00000000	0.0
224	0x00000000	0.0
225	0x00000000	0.0
226	0x00000000	0.0
227	0x00000000	0.0
228	0x00000000	0.0
229	0x00000000	0.0
230	0x00000000	0.0
231	0x00000000	0.0
232	0x00000000	0.0
233	0x00000000	0.0
234	0x00000000	0.0
235	0x00000000	0.0
236	0x00000000	0.0
237	0x00000000	0.0
238	0x00000000	0.0
239	0x00000000	0.0
240	0x00000000	0.0
241	0x00000000	0.0
242	0x00000000	0.0
243	0x00000000	0.0
244	0x00000000	0.0
245	0x00000000	0.0
246	0x00000000	0.0
247	0x00000000	0.0
248	0x00000000	0.0
249	0x00000000	0.0
250	0x00000000	0.0
251	0x00000000	0.0
252	0x00000000	0.0
253	0x00000000	0.0
254	0x00000000	0.0
255	0x00000000	0.0

recurrent.bias_hh_l0 f4 [512]
0	0x3c18cabc	0.009325679
1	0x3be2bd53	0.006919542
2	0xba415b56	-0.0007375976
3	0x3b86c2b9	0.004112568
4	0xbbd56ebc	-0.0065134447
5	0xbbf576fe	-0.0074909916
6	0x3c32819e	0.010895161
7	0x3c3b6007	0.011436469
8	0xbb2493a0	-0.0025112405
9	0x3b9d4fb6	0.004800762
10	0x3c38298d	0.011240375
11	0x3c3b12dc	0.011418071
12	0x3b8204ec	0.003967872
13	0x3c1fd3bb	0.00975507
14	0x3bfe8db3	0.0077683567
15	0x3c218bb0	0.009859964
16	0xbbee38d6	-0.007269959
17	0xbb1382eb	-0.0022508453
18	0x3c241cfd	0.010016677
19	0x3b768155	0.003761371
20	0xbb2dfa65	-0.0026546952
21	0x3c43b1c9	0.011944243
22	0x3b9aac13	0.00472022
23	0x3b251f5d	0.0025195696
24	0x3c2477a8	0.010038294
25	0xbb85a3a2	-0.0040783444
26	0xbc2bd03c	-0.010486659
27	0x3bb486ee	0.005509249
28	0x3a6389a4	0.0008679873
29	0xbb4621b5	-0.0030232493
30	0x3c1b93a1	0.009495647
31	0xba63d024	-0.0008690378
32	0xbbc2bcfb	-0.0059429384
33	0x3c3a3bd1	0.0113668
34	0x3b5a72cc	0.0033332584
35	0x3c2a7f66	0.010406351
36	0x3c24c83e	0.010057507
37	0x3c4c0993	0.012453455
38	0xbb854447	-0.004066977
39	0xbbe36f03	-0.006940724
40	0xbad44f66	-0.0016197979
41	0x3c3c1952	0.011480646
42	0x3c2040e4	0.009781096
43	0xbbcbad41	-0.006215722
44	0xbc0366df	-0.008020132
45	0x3b5a9a08	0.003335597
46	0x3c430ec0	0.011905372
47	0x3c1ac204	0.009445671
48	0x3b27a90d	0.002558294
49	0x3959de90	0.00020777644
50	0x3c2d66aa	0.010583559
51	0xbc1534d1	-0.009106831
52	0xbbc14a6f	-0.0058987658
53	0x3c1970ab	0.009365241
54	0x3c47260f	0.01215507
55	0x3c34fa17	0.011045954
56	0xba78eecb	-0.0009496032
57	0x3c2fd571	0.010732041
58	0xba50de8d	-0.0007967733
59	0x3bf7c5e6	0.007561433
60	0x3c0e2e27	0.008677996
61	0xbc04d3cc	-0.008107137
62	0x3bd97998	0.0066368096
63	0xbaf84b4e	-0.0018943341
64	0xbb9c49be	-0.004769533
65	0x3b5d8f3f	0.0033807305
66	0x3c11cea5	0.008899366
67	0x3c2cd0ea	0.010547856
68	0xbbf080ff	-0.0073395963
69	0xbbacbf93	-0.005271861
70	0x3a70fe23	0.0009193143
71	0x3b19b89a	0.0023455978
72	0x39b0aef0	0.00033699675
73	0xbc1a1244	-0.009403769
74	0x3c420790	0.011842623
75	0x3c4aa5dd	0.012368646
76	0x3ae27315	0.0017276729
77	0xbbee30e3	-0.0072690113
78	0x3c09c334	0.008408356
79	0x3c292250	0.010323122
80	0xbc0a268e	-0.008432044
81	0x3c05f5ba	0.008176262
82	0x3c3acf05	0.011401896
83	0x3c2c39da	0.01051184
84	0x3babe764	0.00524609
85	0xbbea1a40	-0.0071442425
86	0xbc140a02	-0.009035589
87	0x391c816e	0.00014925536
88	0x3c47c058	0.012191854
89	0x3c30b13d	0.010784444
90	0x3c43060e	0.011903299
91	0x3c1c012d	0.009521765
92	0xbb85bb07	-0.0040811333
93	0x3c240ee4	0.010013316
94	0x3bb7ebd9	0.005612832
95	0xba332e36	-0.0006835194
96	0x3b4b5f8d	0.0031032295
97	0xbb16950e	-0.0022977027
98	0xbbc4d169	-0.006006409
99	0x3c2fa0fd	0.010719535
100	0x3c05b86c	0.008161645
101	0xbbbef7e9	-0.005827893
102	0x3bcdd055	0.0062809386
103	0x3c20b778	0.009809367
104	0xbc158216	-0.009125253
105	0x3c4a47ad	0.01234619
106	0xbbffed53	-0.0078102737
107	0x38c894ec	9.564482e-05
108	0x3c22429a	0.009903574
109	0x3b1b7321	0.0023719745
110	0xbc10299e	-0.008798985
111	0x3c374c2b	0.011187593
112	0x3c393a4d	0.011305404
113	0x3ba21d11	0.0049473126
114	0x3c247405	0.010037427
115	0xb9ac4544	-0.00032858003
116	0x3be284c0	0.0069127977
117	0x3c136fe1	0.008998842
118	0x39840e82	0.0002518781
119	0x3bedd053	0.0072575
120	0x3bc348b2	0.0059595937
121	0xba6ab912	-0.0008953969
122	0x3b341e5d	0.0027483918
123	0x3b00734d	0.0019599975
124	0x3bea86d4	0.007157186
125	0xbbf1af1d	-0.0073756115
126	0x3c24cbae	0.010058327
127	0x3c329347	0.0108993715
128	0x00000000	0.0
129	0x00000000	0.0
130	0x00000000	0.0
131	0x00000000	0.0
132	0x00000000	0.0
133	0x00000000	0.0
134	0x00000000	0.0
135	0x00000000	0.0
136	0x00000000	0.0
137	0x00000000	0.0
138	0x00000000	0.0
139	0x00000000	0.0
140	0x00000000	0.0
141	0x00000000	0.0
142	0x00000000	0.0
143	0x00000000	0.0
144	0x00000000	0.0
145	0x00000000	0.0
146	0x00000000	0.0
147	0x00000000	0.0
148	0x00000000	0.0
149	0x00000000	0.0
150	0x00000000	0.0
151	0x00000000	0.0
152	0x00000000	0.0
153	0x00000000	0.0
154	0x00000000	0.0
155	0x00000000	0.0
156	0x00000000	0.0
157	0x00000000	0.0
158	0x00000000	0.0
159	0x00000000	0.0
160	0x00000000	0.0
161	0x00000000	0.0
162	0x00000000	0.0
163	0x00000000	0.0
164	0x00000000	0.0
165	0x00000000	0.0
166	0x00000000	0.0
167	0x00000000	0.0
168	0x00000000	0.0
169	0x00000000	0.0
170	0x00000000	0.0
171	0x00000000	0.0
172	0x00000000	0.0
173	0x00000000	0.0
174	0x00000000	0.0
175	0x00000000	0.0
176	0x00000000	0.0
177	0x00000000	0.0
178	0x00000000	0.0
179	0x00000000	0.0
180	0x00000000	0.0
181	0x00000000	0.0
182	0x00000000	0.0
183	0x00000000	0.0
184	0x00000000	0.0
185	0x00000000	0.0
186	0x00000000	0.0
187	0x00000000	0.0
188	0x00000000	0.0
189	0x00000000	0.0
190	0x00000000	0.0
191	0x00000000	0.0
192	0x00000000	0.0
193	0x00000000	0.0
194	0x00000000	0.0
195	0x00000000	0.0
196	0x00000000	0.0
197	0x00000000	0.0
198	0x00000000	0.0
199	0x00000000	0.0
200	0x00000000	0.0
201	0x00000000	0.0
202	0x00000000	0.0
203	0x00000000	0.0
204	0x00000000	0.0
205	0x00000000	0.0
206	0x00000000	0.0
207	0x00000000	0.0
208	0x00000000	0.0
209	0x00000000	0.0
210	0x00000000	0.0
211	0x00000000	0.0
212	0x00000000	0.0
213	0x00000000	0.0
214	0x00000000	0.0
215	0x00000000	0.0
216	0x00000000	0.0
217	0x00000000	0.0
218	0x00000000	0.0
219	0x00000000	0.0
220	0x00000000	0.0
221	0x00000000	0.0
222	0x00000000	0.0
223	0x00000000	0.0
224	0x00000000	0.0
225	0x00000000	0.0
226	0x00000000	0.0
227	0x00000000	0.0
228	0x00000000	0.0
229	0x00000000	0.0
230	0x00000000	0.0
231	0x00000000	0.0
232	0x00000000	0.0
233	0x00000000	0.0
234	0x00000000	0.0
235	0x00000000	0.0
236	0x00000000	0.0
237	0x00000000	0.0
238	0x00000000	0.0
239	0x00000000	0.0
240	0x00000000	0.0
241	0x00000000	0.0
242	0x00000000	0.0
243	0x00000000	0.0
244	0x00000000	0.0
245	0x00000000	0.0
246	0x00000000	0.0
247	0x00000000	0.0
248	0x00000000	0.0
249	0x00000000	0.0
250	0x00000000	0.0
251	0x00000000	0.0
252	0x00000000	0.0
253	0x00000000	0.0
254	0x00000000	0.0
255	0x00000000	0.0

recurrent.weight_ih_l1 f4 [512, 128]
0	0x3d6c0066	0.057617567
1	0x3c3c1e65	0.011481856
2	0x3c81b4e1	0.01583332
3	0x3d285e3a	0.041105486
4	0x3d78c295	0.060732443
5	0xbd034863	-0.032051455
6	0x3c99ee99	0.01879053
7	0xbd512d8e	-0.051068835
8	0x3ccf1433	0.025278186
9	0x3d27e4e2	0.040989764
10	0xbcc3ef9e	-0.02391797
11	0x3d3c6fdb	0.04600511
12	0x3b501420	0.0031750277
13	0xbd4f83cb	-0.050662797
14	0x3d823023	0.063568376
15	0xbd852b06	-0.06502347
16	0xbd4dca87	-0.050241973
17	0xbd9409f2	-0.072284594
18	0x3da5da02	0.08098222
19	0xbd79f35f	-0.061023112
20	0xbd7b2e4d	-0.061323453
21	0xbd877b0d	-0.06615267
22	0xbd264196	-0.04058989
23	0x3d66621a	0.0562459
24	0x3da943e4	0.08264902
25	0xbda9ca1e	-0.08290504
26	0x3d83c9d0	0.06434977
27	0xbd84f97b	-0.06492897
28	0x3ce0861c	0.027407698
29	0x3bb14d1b	0.005410803
30	0x3d099e62	0.03359831
31	0x3a94ded1	0.0011357908
32	0x3b2ccc9c	0.0026367074
33	0xbd7018ff	-0.058617588
34	0xba76fc76	-0.0009421775
35	0x3d9f1acf	0.07768785
36	0xbd216a33	-0.03940792
37	0xbd6bdc85	-0.05758335
38	0xbc3e71cc	-0.011623811
39	0x3d0b8103	0.034058582
40	0xbd9b78f9	-0.07591433
41	0x3d6ed7db	0.058311325
42	0xbd9299cd	-0.071582414
43	0x3d1651ca	0.036699094
44	0x3d77de41	0.060514692
45	0x3cccb12f	0.024986831
46	0x3d79416c	0.060853407
47	0xbc3ad641	-0.011403621
48	0x3d91c273	0.07117166
49	0x3ca76fca	0.020439047
50	0x3d19d121	0.037552956
51	0x3d2c0daa	0.04200522
52	0x3a810d40	0.0009845868
53	0xbd208482	-0.03918887
54	0xbda29625	-0.07938794
55	0x3d5cf7f2	0.053947397
56	0xbb20e021	-0.0024547654
57	0xbd90963d	-0.07059906
58	0x3c86ec9f	0.016470252
59	0xbc4c019a	-0.012451554
60	0x3cb428a9	0.021992045
61	0x3d93a314	0.07208839
62	0x3d1df93e	0.038567774
63	0x3d0a9979	0.03383777
64	0x3c5c3ae4	0.013441775
65	0x3cdb38ac	0.026760422
66	0x3d82474d	0.06361256
67	0xbbd9019e	-0.0066225072
68	0x3b596e63	0.0033177368
69	0x3d7086fa	0.058722474
70	0x3c70bacd	0.014692974
71	0xbd927367	-0.071509175
72	0xbd80bac4	-0.06285623
73	0xbcd6f46f	-0.026239602
74	0x3dabfd04	0.08397868
75	0xbc5ec551	-0.013596849
76	0xbcbf9ef9	-0.023391234
77	0x3d908847	0.07057243
78	0x3c75f7d9	0.015012705
79	0x3bc00c8e	0.0058608716
80	0x3ba38f99	0.0049914834
81	0x3da60b95	0.08107678
82	0xbb1da4ea	-0.0024054595
83	0xbd1e8f83	-0.038711082
84	0x3d2e196e	0.04250472
85	0x3c5ff6ea	0.013669709
86	0x3d7647f3	0.06012721
87	0xbd032819	-0.032020662
88	0xbd11043c	-0.03540443
89	0x3ce28201	0.027649881
90	0x3d8c85de	0.06861471
91	0x3d8a8a64	0.06764677
92	0x3d69b462	0.057056792
93	0x3d53f8c2	0.051750906
94	0x3d2e2bf9	0.042522404
95	0xbd0f146a	-0.034931578
96	0x3d15bf08	0.036559135
97	0xbd9c2f3d	-0.076261975
98	0xbced39c5	-0.02895821
99	0x3da17f8c	0.07885656
100	0xbda07731	-0.07835234
101	0xbd15debb	-0.036589365
102	0xbd8afdbd	-0.06786678
103	0xbbbc0932	-0.005738401
104	0xbd3580a5	-0.044312138
105	0xbd8c9be9	-0.06865675
106	0x3bff8861	0.00779824
107	0x3d8ede04	0.0697594
108	0x3d7ac4f2	0.061222978
109	0xbd5055ce	-0.05086308
110	0xbd7cf67d	-0.061758507
111	0xbd1b5e5a	-0.037931778
112	0xbd56fb29	-0.05248562
113	0x3d8c8436	0.06861155
114	0x3dab8e9f	0.08376812
115	0xbd9225fc	-0.07136151
116	0x3a677469	0.0008829297
117	0xbda398c6	-0.079881236
118	0xbc3d0f4e	-0.011539293
119	0x3cccb08e	0.024986532
120	0xbd9e947d	-0.07743166
121	0xbc7a7345	-0.015286271
122	0x3d28147f	0.04103517
123	0x3becb773	0.0072240173
124	0xbd26d513	-0.040730547
125	0xbbcde34c	-0.0062831994
126	0xbda6de09	-0.081478186
127	0x3daba763	0.08381536
128	0x3d86c51c	0.065805644
129	0x3d78e61b	0.06076632
130	0xbd896942	-0.067095295
131	0x3d96b856	0.07359378
132	0x3d8fa8b0	0.070145965
133	0xbd40589c	-0.046959504
134	0xbc12b8a3	-0.008955154
135	0xbd43ecd1	-0.047833268
136	0xbd905e4e	-0.07049237
137	0xbcebb67d	-0.02877354
138	0x3d52e97e	0.051492207
139	0x3cb4882d	0.02203759
140	0x3c1ee939	0.009699159
141	0xbd09b64d	-0.03362112
142	0x3d883b37	0.06651919
143	0x3d3aeba9	0.0456349
144	0x3c97935a	0.01850288
145	0x3d7964f2	0.060887285
146	0xbd45a9b1	-0.048257533
147	0x3d5647a1	0.052314404
148	0x3d299b89	0.041408096
149	0xbd0a1e4e	-0.033720307
150	0xba16560c	-0.0005734868
151	0xb953caec	-0.00020198122
152	0xbc5c4d56	-0.013446173
153	0x3da608d4	0.081071526
154	0x3ca3adaa	0.01998027
155	0x3c703d9d	0.014663127
156	0x3d0427de	0.032264583
157	0xbd3f3f58	-0.04669127
158	0xbdaa123f	-0.083042614
159	0x3d9190e2	0.07107712
160	0xbcca650a	-0.024706382
161	0x3a1c7623	0.00059685315
162	0x3d984e2b	0.07436784
163	0xbd263019	-0.040573213
164	0xbc1e925d	-0.00967845
165	0x3bb4cec4	0.0055178124
166	0xbbc1c42e	-0.005913279
167	0xbd199b92	-0.03750188
168	0xbcba5089	-0.02274348
169	0xbca357fa	-0.019939411
170	0xbd6d9d12	-0.058011122
171	0xbcf0a006	-0.02937318
172	0x3cb35693	0.021891868
173	0xbcf048d7	-0.029331608
174	0x3d936f5f	0.07198977
175	0x3d269aea	0.04067508
176	0xbda5761f	-0.080791704
177	0xbd681554	-0.056660965
178	0x3cc2b6a4	0.02376873
179	0xbd501ffd	-0.050811756
180	0xbd56442c	-0.052311108
181	0xbaa3b0f3	-0.0012488648
182	0x3d90e52f	0.07074963
183	0xbd2f3ffb	-0.042785626
184	0x3d9c13af	0.07620942
185	0x3c348553	0.011018115
186	0x3d4590e1	0.04823387
187	0x3d98a860	0.0745399
188	0xbb0ff3b5	-0.002196533
189	0x3c8cca75	0.017186383
190	0xbd778b3b	-0.060435515
191	0x3b247731	0.0025095458
192	0xbbcc476f	-0.0062341015
193	0xbcb1c063	-0.021698182
194	0x3d741240	0.059587717
195	0xbd3598f4	-0.04433532
196	0xbd388005	-0.045043964
197	0x3d045f89	0.032317672
198	0xbd8b91b9	-0.06814904
199	0xbd2e61f5	-0.042573888
200	0x3d9d0720	0.076673746
201	0xbd1a9d8d	-0.03774791
202	0xbcfe7974	-0.031063773
203	0xba890e5f	-0.0010456553
204	0xbd987451	-0.074440606
205	0x3cc1a7cc	0.023639582
206	0xbce849a7	-0.028355433
207	0x3cf21dee	0.029555287
208	0xbd4a9d5d	-0.04946648
209	0xbbc6eba9	-0.0060705733
210	0xbd2481fc	-0.040163025
211	0xbb55bca3	-0.0032613657
212	0xbc3c0708	-0.011476286
213	0x3d8167ac	0.06318602
214	0xbd4e0c10	-0.050304472
215	0xbd4ee45a	-0.05051074
216	0xbce82024	-0.028335638
217	0x3bdfa94a	0.0068256008
218	0x3ba2caaa	0.004968007
219	0xbd6c5f11	-0.05770785
220	0x3b5d6104	0.003377975
221	0x3c46605b	0.012107934
222	0x3d4eee84	0.050520435
223	0x3d3b3286	0.04570248
224	0x3d0a07a4	0.033698693
225	0xbbd30b4e	-0.0064405566
226	0x3bc7577b	0.0060834265
227	0x3da78ad6	0.08180778
228	0x3d1aa39c	0.037753686
229	0xbd819fbc	-0.06329295
230	0x3d02d56a	0.03194181
231	0xbd9220d6	-0.07135169
232	0xbca93e58	-0.02065961
233	0xbb6872d4	-0.0035468834
234	0xb98cdb5a	-0.0002686631
235	0xbcb8daa8	-0.0225652
236	0x3d357f95	0.044311125
237	0xbd901e8e	-0.07037078
238	0x3c2a539e	0.010395912
239	0x3c3202c6	0.010864919
240	0xbd857c07	-0.06517797
241	0xbc5586d1	-0.013032631
242	0x3d4e67ea	0.05039207
243	0x3d33b7b3	0.04387636
244	0xbd02ff36	-0.03198167
245	0x3d1641ee	0.03668397
246	0x3d90d103	0.07071116
247	0xbda22ccf	-0.07918703
248	0x3d24e05b	0.040253025
249	0xbd7d8ac0	-0.0618999
250	0x3d8f1be9	0.06987745
251	0x3b7cd82b	0.0038580995
252	0x3d46604a	0.048431672
253	0x3b7eb579	0.003886549
254	0x3b13f7ff	0.0022578237
255	0x3cb02cf2	0.021505807

recurrent.weight_hh_l1 f4 [512, 128]
0	0x3c8d9d43	0.017286902
1	0xbd880210	-0.066410184
2	0x3a19ceee	0.0005867322
3	0xbd8877b9	-0.0666346
4	0xbcfaef8c	-0.030631803
5	0xbd333a6e	-0.043756895
6	0x3b84c956	0.0040523214
7	0x3d160e79	0.036634896
8	0x3d720170	0.059083402
9	0xbda784af	-0.08179604
10	0x3c1dc9f8	0.009630673
11	0xb9658d48	-0.00021891773
12	0xbb655704	-0.0034994492
13	0x3ba7708a	0.0051098512
14	0xbd1fe2f4	-0.0390348
15	0x3d89d14e	0.06729375
16	0x3bba3810	0.0056829527
17	0xbda24f59	-0.079252906
18	0x3d29f7e0	0.041496158
19	0x3a74a501	0.0009332449
20	0x3d039ac8	0.032130033
21	0x3ae2c873	0.001730217
22	0x3d8562b8	0.0651297
23	0x3aa2d620	0.0012423433
24	0x3cf7d5ef	0.030253379
25	0x3d7aef71	0.061263505
26	0xbd275895	-0.040855963
27	0xbd8f39c9	-0.069934435
28	0xbd63c335	-0.055606086
29	0x3ca79fe2	0.02046198
30	0xbcab7deb	-0.020934066
31	0x3bf2467e	0.007393657
32	0x3cb448b3	0.022007322
33	0xbd95cab8	-0.07314056
34	0xb9d760b6	-0.0004108005
35	0x3a966d38	0.0011476642
36	0x3ab609c4	0.0013888408
37	0xbd906174	-0.07049838
38	0x3d9a4ba8	0.075339615
39	0x3a658178	0.0008754949
40	0xbbf2a8b9	-0.007405367
41	0x3da697f4	0.081344515
42	0x3a03a1b5	0.00050213496
43	0xbd2a842a	-0.041629948
44	0xbcd4b4cd	-0.025965119
45	0xbcdc8878	-0.026920542
46	0xbd852c2a	-0.06502564
47	0xb91e3fb1	-0.00015091781
48	0x3d1e5eb9	0.038664553
49	0x3d9da083	0.07696631
50	0x3d08be7b	0.03338478
51	0x3cd79722	0.026317183
52	0xbd242ee0	-0.040083766
53	0xbcf4c6df	-0.029879985
54	0x3c9baf02	0.019004349
55	0x3cf80539	0.030275928
56	0x3ceb8309	0.028749006
57	0x39986c9b	0.00029072617
58	0xbca93a31	-0.02065763
59	0x3cd4e8e7	0.025989963
60	0x3c4924f6	0.012276879
61	0x3d70cc90	0.058788836
62	0x3d37cf54	0.044875458
63	0x3d0f7750	0.035025895
64	0xbd060b7f	-0.032725807
65	0x3d97ba99	0.074086376
66	0xbd9f26ce	-0.07771073
67	0x3d05d8ca	0.03267745
68	0x3d669c9d	0.0563017
69	0xbd02132f	-0.031756576
70	0x3ceffb37	0.029294593
71	0x382b57e9	4.085145e-05
72	0xbc5fc681	-0.013658167
73	0xbda43d99	-0.08019561
74	0x3ce95053	0.028480684
75	0xbcd34995	-0.025791923
76	0xbd42776d	-0.047477175
77	0x3d375f67	0.044768717
78	0x3d0e0225	0.034670014
79	0xb8311cc4	-4.222688e-05
80	0x3d7552cc	0.059893414
81	0xbd8bff01	-0.068357475
82	0x3b9d0733	0.004792118
83	0xbd29d89f	-0.04146635
84	0xbc26b4d4	-0.010174949
85	0x3da55f78	0.0807485
86	0xbd49c0d7	-0.049256172
87	0x39a1505e	0.0003076819
88	0xbaa31352	-0.0012441671
89	0xbce6f5ea	-0.028193433
90	0x3a304965	0.0006724804
91	0x3c9f5c2d	0.019453133
92	0x3d531a62	0.051538832
93	0xbd22f54f	-0.039784726
94	0x3a817acd	0.0009878516
95	0xba9d25b0	-0.0011989381
96	0xbd9deec9	-0.0771156
97	0x3d9105a1	0.07081152
98	0x3d914b37	0.07094424
99	0xbda76790	-0.0817405
100	0xbd8787d3	-0.06617703
101	0x3da605c4	0.081065685
102	0x3d85e44e	0.06537686
103	0xbce3873b	-0.027774444
104	0x3d90feb1	0.070798285
105	0xbd2c5a6f	-0.04207843
106	0x3d830e33	0.06399193
107	0xbd81a36b	-0.06329998
108	0x3d84d678	0.06486219
109	0x3cc1853d	0.023623103
110	0xbd4391b1	-0.047746364
111	0x3b7d8fbd	0.003869041
112	0x3d9980cb	0.074952684
113	0x3d31bdee	0.04339402
114	0xbc863077	-0.016380532
115	0x3cd26545	0.025683055
116	0x3d1ebd31	0.038754646
117	0xbc5c9790	-0.01346387
118	0xbd86d4a7	-0.06583529
119	0xbbe6767c	-0.0070331674
120	0xbb1cc897	-0.0023923272
121	0xbc16afaa	-0.009197155
122	0xbd549443	-0.051899206
123	0xbda4e9c2	-0.08052398
124	0xbd8a4314	-0.067510754
125	0x3c579d5d	0.013160077
126	0xbc0b3e78	-0.00849878
127	0x39a75510	0.000319161
128	0x3cb2e173	0.021836018
129	0xbc192e3a	-0.0093494
130	0x3ab973d8	0.0014148904
131	0xbba45591	-0.005015083
132	0x3d7abcb2	0.06121511
133	0x391fc037	0.00015235027
134	0x3cee8315	0.02911524
135	0xbd69e18c	-0.057099864
136	0xbcb44608	-0.02200605
137	0xbaea12e0	-0.0017858408
138	0xbb1eb1b8	-0.0024214815
139	0xbcf24ed7	-0.02957861
140	0xbaa9536f	-0.0012918542
141	0xbd0a3b22	-0.0337478
142	0x3c869b1c	0.016431384
143	0xbd2f94c8	-0.0428665
144	0x3da9c03a	0.082886174
145	0x3c9cc826	0.019138407
146	0xbd6986c0	-0.057013273
147	0x3da1917a	0.078890756
148	0xbd955a04	-0.0729256
149	0x3a25737d	0.00063114596
150	0xbd0d7cb1	-0.034542743
151	0xbd81392a	-0.06309731
152	0x3a045e9e	0.00050494995
153	0xbd4ff24f	-0.050768193
154	0xbdab23de	-0.083564505
155	0x3c37dc23	0.011221918
156	0x3d43f5c9	0.04784182
157	0xbd37bac2	-0.04485584
158	0xbc9eb410	-0.01937297
159	0xbd6ef873	-0.05834241
160	0x3adbbb40	0.0016764179
161	0x3d1fa300	0.03897381
162	0xbd966353	-0.07343163
163	0x3cac139d	0.021005446
164	0xbab8fe5e	-0.0014113893
165	0x3abaeee2	0.0014261866
166	0x3bd29bb2	0.0064272517
167	0xbd9a12ad	-0.075230934
168	0xbd5f6205	-0.054536838
169	0xbcbf5543	-0.023356086
170	0xbd926afb	-0.07149311
171	0xbd720139	-0.059083197
172	0xbd7391d3	-0.05946524
173	0x3c5a3c46	0.013320034
174	0x3cc940a1	0.02456695
175	0xba3804ba	-0.0007019747
176	0x3d8dcf3a	0.06924291
177	0x39d00a6f	0.00039680625
178	0xbd8bf141	-0.06833125
179	0xbd37cd65	-0.044873614
180	0xbbd76338	-0.006573107
181	0xb9a09ef6	-0.00030636013
182	0xbd820491	-0.06348527
183	0x3c9f535e	0.019448932
184	0x3d984cbc	0.07436511
185	0xbd37e9c4	-0.04490067
186	0xbcee57a0	-0.029094517
187	0x3d277898	0.04088649
188	0xbd97a821	-0.07405115
189	0xbcabc27a	-0.020966757
190	0xbd74c7b2	-0.059760757
191	0xbd727d27	-0.059201386
192	0x3d97049d	0.07373927
193	0x3b10fe6b	0.0022124301
194	0x3d547aff	0.05187511
195	0x3c5c7072	0.013454543
196	0xbbe1c152	-0.0068895007
197	0xbab9172d	-0.0014121287
198	0xbcf58481	-0.02997041
199	0xbd892a6e	-0.06697546
200	0x3c03fe8b	0.008056293
201	0xbd72c2c8	-0.05926779
202	0xbd91b5a9	-0.07114727
203	0xbc97a47e	-0.018511053
204	0x39848ac9	0.00025280405
205	0x3cec4687	0.028842224
206	0xba842cdb	-0.0010084169
207	0x3c5ab146	0.013347929
208	0x3da98f26	0.082792565
209	0xbd8cc6ec	-0.06873879
210	0x3d00b260	0.03142011
211	0xbd966715	-0.0734388
212	0xbda48c3a	-0.080345586
213	0xbd9402d2	-0.072271004
214	0x3cffaac4	0.031209357
215	0xbc1d7826	-0.009611165
216	0xbc8f31d7	-0.01747982
217	0x3d111dfa	0.03542898
218	0xbcf59baa	-0.029981453
219	0xbcbbee07	-0.022940649
220	0xbd1ba574	-0.037999585
221	0xbcf3353d	-0.029688472
222	0x3d2237a7	0.039603855
223	0xbbdc15e0	-0.006716475
224	0x3aa6e483	0.0012732897
225	0xbc4cbe5f	-0.01249656
226	0xbc33a8e8	-0.010965563
227	0x3d02a92f	0.031899627
228	0x3d43795b	0.047723155
229	0xba936a51	-0.0011246895
230	0x3da477b4	0.08030644
231	0xbd9188a8	-0.07106143
232	0xba9935a9	-0.0011688966
233	0x3d2ca824	0.04215254
234	0x3d186b1c	0.037211522
235	0xbd7187de	-0.058967464
236	0x3a0009a2	0.0004884248
237	0x3d8aa3b6	0.06769507
238	0xbd18d76d	-0.03731482
239	0x3cfc80a0	0.030823052
240	0x3d824f80	0.0636282
241	0x3d7b9a69	0.061426554
242	0x3d9290e6	0.071565434
243	0x381f5097	3.798361e-05
244	0x3d4bc808	0.04975131
245	0xbccd5277	-0.025063736
246	0x3b0b1be6	0.0021226346
247	0x3d09bd73	0.03362794
248	0x3c84d49d	0.016214663
249	0x3c506bd1	0.012721018
250	0x3dabe60f	0.083934896
251	0xbd0021bb	-0.031282168
252	0x3ab27d2d	0.0013617628
253	0xbc9a825f	-0.018860994
254	0xbd465886	-0.048424266
255	0x3d901040	0.070343494

recurrent.bias_ih_l1 f4 [512]
0	0x3c33887c	0.010957833
1	0x3bd7c75b	0.0065850443
2	0x3c34954c	0.011021923
3	0xbc06155f	-0.008183806
4	0x3c06f85b	0.0082379235
5	0x3b87d59d	0.0041453377
6	0xb8aed6c4	-8.33697e-05
7	0x3b2a0100	0.0025940537
8	0xbc2b3bf9	-0.01045131
9	0x3bf19f95	0.00737376
10	0x3c1ece02	0.009692671
11	0x3b4d18a0	0.0031295195
12	0x3c249d65	0.010047291
13	0x3c228b94	0.009920973
14	0x3b6096f0	0.0034269653
15	0xbba86854	-0.00513939
16	0xbbc44e76	-0.0059907986
17	0x3be4195b	0.0069610304
18	0x3a058c9e	0.0005094501
19	0x3c19868b	0.009370456
20	0x3bb68a4a	0.0055706846
21	0x3b0486f3	0.0020222038
22	0x3c355ba4	0.011069212
23	0xbab267d5	-0.0013611267
24	0xbc109b31	-0.008826063
25	0x3b851210	0.004060991
26	0xbaa5431f	-0.0012608505
27	0x3c09b272	0.008404361
28	0x3a8a2358	0.0010539098
29	0xbc138a8b	-0.009005199
30	0x3c294df7	0.01033353
31	0x3beea2f6	0.00728261
32	0x3c15d7dc	0.009145703
33	0x3bb494f1	0.0055109193
34	0x395c8255	0.00021029387
35	0x3c405dfb	0.011741157
36	0x3c3cf74c	0.01153357
37	0x3a052dc9	0.000508037
38	0x3c2cc464	0.01054487
39	0x3c0fdfb5	0.008781363
40	0x3b55fe28	0.003265271
41	0x3c2fbb6d	0.010725838
42	0x3c2ade4e	0.010428978
43	0xbbd9073f	-0.0066231783
44	0xbae01ac1	-0.0017097817
45	0x3ba5181e	0.0050382754
46	0xbbdad3d2	-0.006678083
47	0x3bf1e344	0.0073818285
48	0x3ba733f5	0.0051026293
49	0xbb73ff66	-0.0037231087
50	0xbc09eb6f	-0.008417948
51	0xba805597	-0.0009791133
52	0x3b618a5e	0.0034414749
53	0x3c0520a2	0.008125456
54	0x3c13e6a9	0.009027162
55	0x3c484d20	0.012225419
56	0xbc0d4d80	-0.0086244345
57	0x3c2c5375	0.010517945
58	0xbb8e0443	-0.004334004
59	0x3b885fd8	0.004161816
60	0xbbbe24ad	-0.005802712
61	0x3b31cf70	0.00271317
62	0x3a2c8ddc	0.0006582418
63	0x3c02e7f9	0.007989877
64	0xbbfbf82b	-0.007689496
65	0x3bc1b6be	0.005911677
66	0x3bba6a36	0.005688931
67	0xbb8cc931	-0.004296445
68	0x3c3c46c6	0.011491483
69	0xb9992ba8	-0.0002921496
70	0x3be1cdf9	0.006891009
71	0x3bba5b0d	0.0056871236
72	0x3c29cbc8	0.010363527
73	0x3c2f4281	0.010697008
74	0x3b4ea281	0.0031529965
75	0x3b3b8fe5	0.0028619703
76	0x3bcc6ba5	0.006238418
77	0x3c337630	0.010953471
78	0x3c1b6661	0.009484858
79	0x3b36c5ac	0.0027888818
80	0x3bd4164e	0.0064723855
81	0x3b18ddb4	0.0023325505
82	0xbba1e6b6	-0.004940833
83	0x3b37a1a7	0.0028019936
84	0x3c256cde	0.010096757
85	0xbb9abbf3	-0.0047221123
86	0x3b458d3e	0.0030144001
87	0x3c330762	0.010927053
88	0x3c3300b4	0.010925461
89	0xbb304f58	-0.0026902761
90	0x3c3ea972	0.011637079
91	0xbb23d94a	-0.002500134
92	0x3bf6278e	0.0075120395
93	0xbc1d6a59	-0.009607875
94	0x3a3aaac0	0.00071207806
95	0xbb832d1e	-0.004003181
96	0xbbb57cf4	-0.005538577
97	0x3b0f53f6	0.0021870113
98	0x3c2bd0fe	0.010486839
99	0x3c009383	0.00784767
100	0xbbbef91a	-0.005828035
101	0x3c06995b	0.008215274
102	0x3c3dc48b	0.011582504
103	0xbb1e010b	-0.0024109508
104	0xbc00e91e	-0.0078680795
105	0xbb57543b	-0.0032856602
106	0x3b1e5d54	0.0024164515
107	0x3adebaa2	0.0016992877
108	0x3b7a4a9c	0.0038191443
109	0x3ba42097	0.005008768
110	0x37cd5220	2.4476147e-05
111	0x3b7c4c58	0.0038497653
112	0xbaf14c33	-0.001840955
113	0x3ad5b822	0.0016305486
114	0x3c1992d6	0.009373387
115	0x3c22c1fc	0.009933945
116	0x3c097bfd	0.0083913775
117	0x3b1c1be8	0.0023820344
118	0x3c1363e5	0.008995985
119	0xbaaaf80e	-0.0013043897
120	0x3c0cd933	0.008596706
121	0xbb9e54d4	-0.0048318896
122	0xbbcaac97	-0.006185125
123	0xb800eec0	-3.073993e-05
124	0x3b576c5e	0.0032870988
125	0xbbe42bed	-0.006963244
126	0xbb32256d	-0.0027182952
127	0xbba82278	-0.005131062
128	0x00000000	0.0
129	0x00000000	0.0
130	0x00000000	0.0
131	0x00000000	0.0
132	0x00000000	0.0
133	0x00000000	0.0
134	0x00000000	0.0
135	0x00000000	0.0
136	0x00000000	0.0
137	0x00000000	0.0
138	0x00000000	0.0
139	0x00000000	0.0
140	0x00000000	0.0
141	0x00000000	0.0
142	0x00000000	0.0
143	0x00000000	0.0
144	0x00000000	0.0
145	0x00000000	0.0
146	0x00000000	0.0
147	0x00000000	0.0
148	0x00000000	0.0
149	0x00000000	0.0
150	0x00000000	0.0
151	0x00000000	0.0
152	0x00000000	0.0
153	0x00000000	0.0
154	0x00000000	0.0
155	0x00000000	0.0
156	0x00000000	0.0
157	0x00000000	0.0
158	0x00000000	0.0
159	0x00000000	0.0
160	0x00000000	0.0
161	0x00000000	0.0
162	0x00000000	0.0
163	0x00000000	0.0
164	0x00000000	0.0
165	0x00000000	0.0
166	0x00000000	0.0
167	0x00000000	0.0
168	0x00000000	0.0
169	0x00000000	0.0
170	0x00000000	0.0
171	0x00000000	0.0
172	0x00000000	0.0
173	0x00000000	0.0
174	0x00000000	0.0
175	0x00000000	0.0
176	0x00000000	0.0
177	0x00000000	0.0
178	0x00000000	0.0
179	0x00000000	0.0
180	0x00000000	0.0
181	0x00000000	0.0
182	0x00000000	0.0
183	0x00000000	0.0
184	0x00000000	0.0
185	0x00000000	0.0
186	0x00000000	0.0
187	0x00000000	0.0
188	0x00000000	0.0
189	0x00000000	0.0
190	0x00000000	0.0
191	0x00000000	0.0
192	0x00000000	0.0
193	0x00000000	0.0
194	0x00000000	0.0
195	0x00000000	0.0
196	0x00000000	0.0
197	0x00000000	0.0
198	0x00000000	0.0
199	0x00000000	0.0
200	0x00000000	0.0
201	0x00000000	0.0
202	0x00000000	0.0
203	0x00000000	0.0
204	0x00000000	0.0
205	0x00000000	0.0
206	0x00000000	0.0
207	0x00000000	0.0
208	0x00000000	0.0
209	0x00000000	0.0
210	0x00000000	0.0
211	0x00000000	0.0
212	0x00000000	0.0
213	0x00000000	0.0
214	0x00000000	0.0
215	0x00000000	0.0
216	0x00000000	0.0
217	0x00000000	0.0
218	0x00000000	0.0
219	0x00000000	0.0
220	0x00000000	0.0
221	0x00000000	0.0
222	0x00000000	0.0
223	0x00000000	0.0
224	0x00000000	0.0
225	0x00000000	0.0
226	0x00000000	0.0
227	0x00000000	0.0
228	0x00000000	0.0
229	0x00000000	0.0
230	0x00000000	0.0
231	0x00000000	0.0
232	0x00000000	0.0
233	0x00000000	0.0
234	0x00000000	0.0
235	0x00000000	0.0
236	0x00000000	0.0
237	0x00000000	0.0
238	0x00000000	0.0
239	0x00000000	0.0
240	0x00000000	0.0
241	0x00000000	0.0
242	0x00000000	0.0
243	0x00000000	0.0
244	0x00000000	0.0
245	0x00000000	0.0
246	0x00000000	0.0
247	0x00000000	0.0
248	0x00000000	0.0
249	0x00000000	0.0
250	0x00000000	0.0
251	0x00000000	0.0
252	0x00000000	0.0
253	0x00000000	0.0
254	0x00000000	0.0
255	0x00000000	0.0
