input/lstm_model.pth (torch, 815034 bytes, 11 tensors)

recurrent.weight_ih_l0 f4 [512, 7]
0	0xbb199aa7	-0.0023438127
1	0xbb26b8f1	-0.0025439824
2	0xbb059a61	-0.0020386206
3	0xbb2c347e	-0.0026276405
4	0x3a6c679e	0.0009018126
5	0x3a27a199	0.00063946244
6	0xba958d93	-0.001140999
7	0xbac03fc9	-0.0014667447
8	0xbacb2b50	-0.0015500579
9	0xba94f431	-0.0011364279
10	0xbabd9d26	-0.001446639
11	0xb7e145c7	-2.6854583e-05
12	0xb978e57d	-0.00023736614
13	0xba599432	-0.0008299976
14	0x3e0c757e	0.13716695
15	0x3d6f634e	0.058444314
16	0x3d8315a0	0.06400609
17	0x3d5d0658	0.053961128
18	0xbc5cdcd3	-0.013480383
19	0x3cec9e80	0.028884172
20	0x3db563f6	0.08856957
21	0xba13ae50	-0.00056335796
22	0xba170107	-0.0005760346
23	0xba04f9b4	-0.0005072609
24	0xb9f1f231	-0.0004614755
25	0xb86e8f45	-5.6877052e-05
26	0xb9de4f51	-0.00042402235
27	0xba4a7ed2	-0.0007724586
28	0xba150a9b	-0.0005685479
29	0xba18909c	-0.00058198883
30	0xba0082ed	-0.0004902322
31	0xba09bf73	-0.00052546634
32	0xb8c6eac7	-9.4851064e-05
33	0xba047b19	-0.00050537434
34	0xba1ec721	-0.0006056894
35	0xbac105bc	-0.001472644
36	0xbad6a97a	-0.0016377412
37	0xbb10d480	-0.0022099316
38	0xbb15c47b	-0.0022852707
39	0x3730d58a	1.0540136e-05
40	0xb8dd5039	-0.00010553044
41	0xbb609594	-0.0034268843
42	0xbadada49	-0.0016697134
43	0xbb069082	-0.002053291
44	0xbb2a39c7	-0.002597438
45	0xbb290fc2	-0.0025796746
46	0x37e58e54	2.7365204e-05
47	0xb9d37b7c	-0.0004033706
48	0xbb6402d4	-0.0034791725
49	0xbb0ecf86	-0.0021791174
50	0xbb15ce5b	-0.0022858593
51	0xbaefd9f4	-0.0018299208
52	0xbb211329	-0.002457807
53	0x3a2785c7	0.0006390479
54	0x3a2d879f	0.00066196354
55	0xba8927f1	-0.0010464174
56	0xbb087be9	-0.002082581
57	0xbb0cf304	-0.0021507153
58	0xbaea08ee	-0.0017855444
59	0xbaddef27	-0.0016932235
60	0xb9cd4f4f	-0.00039159736
61	0xba273a28	-0.00063792104
62	0xbade2649	-0.0016948666
63	0xbb5a61fd	-0.0033322566
64	0xbb652319	-0.0034963547
65	0xbaf43b27	-0.0018633351
66	0xbafa62fc	-0.0019102986
67	0x3990a6c9	0.00027590085
68	0xba587a31	-0.0008257954
69	0xbbbb14d1	-0.0057092686
70	0xba2136e0	-0.00061498396
71	0xba292034	-0.0006451637
72	0xba325bb0	-0.00068038236
73	0xba02d3d2	-0.000499067
74	0xb99f2e1b	-0.00030361195
75	0xb9ccff74	-0.0003910024
76	0xba126b57	-0.0005585453
77	0xb98efac5	-0.00027271188
78	0xb99f2012	-0.00030350738
79	0xb9d6e74a	-0.00040989585
80	0xb9c3c74c	-0.00037341786
81	0xb891075e	-6.915511e-05
82	0xb91cee24	-0.00014966034
83	0xb9ddfc31	-0.00042340302
84	0xbc2f7dbf	-0.010711133
85	0xbc3fd6a1	-0.011708886
86	0xbc3bd6cb	-0.011464785
87	0xbc40bf4d	-0.01176436
88	0x3ad0614e	0.001589814
89	0xba820533	-0.0009919762
90	0xbc34eca3	-0.011042747
91	0xbaee83b3	-0.0018197208
92	0xbaf84692	-0.001894193
93	0xbab94a6f	-0.0014136563
94	0xbad118fb	-0.0015952879
95	0x38cd0bf5	9.777389e-05
96	0xb9fe345e	-0.00048485672
97	0xbb007b0c	-0.0019604592
98	0x3db7f8d9	0.08983011
99	0x3dae709f	0.085175745
100	0x3db27365	0.08713416
101	0x3dbb31ea	0.0914038
102	0x3be63954	0.007025877
103	0xbae6ddd3	-0.0017613716
104	0x3cafb956	0.02145068
105	0xb9c9746f	-0.00038424457
106	0xb9f3692b	-0.00046426928
107	0xba27a60b	-0.0006395287
108	0xba18e8dd	-0.0005833039
109	0xb811948b	-3.4709035e-05
110	0xba117596	-0.00055488327
111	0xba5574f2	-0.00081427314
112	0xbb46ede8	-0.0030354206
113	0xbb58af08	-0.003306331
114	0xbb995718	-0.004679572
115	0xbb9bd5fd	-0.004755734
116	0x38d7557f	0.00010267924
117	0xb9beaa61	-0.00036366566
118	0xbbd1571e	-0.006388559
119	0x3dbf8869	0.0935219
120	0x3dbf4eff	0.09341239
121	0x3dc5b588	0.09653765
122	0x3dcdac51	0.10042632
123	0x3bc6f914	0.006072173
124	0x3acf5be5	0.0015820233
125	0x3cbc2ae5	0.022969672
126	0xbb617393	-0.0034401163
127	0xbb692d96	-0.003558015
128	0xbb8235e2	-0.0039737085
129	0xbb7cf7e4	-0.0038599903
130	0x39e0a356	0.00042846304
131	0x39dd2e5c	0.00042186945
132	0xbbc8d218	-0.0061285608
133	0xbb694c07	-0.0035598294
134	0xbb7c7afc	-0.0038525453
135	0xbb2a291c	-0.0025964445
136	0xbb227121	-0.0024786668
137	0x38a1cf33	7.715672e-05
138	0xb9a5719c	-0.00031555898
139	0xbb8a85e8	-0.0042273887
140	0x3e1fcb01	0.15604784
141	0x3e23dbf1	0.1600187
142	0x3e19f1be	0.15033624
143	0x3e16e373	0.14735202
144	0x3b475637	0.0030416378
145	0x3a7f4808	0.00097382115
146	0x3d9733b1	0.07382906
147	0xba0d7873	-0.00053966715
148	0xba0942f6	-0.0005236113
149	0xba11d265	-0.0005562662
150	0xb9d10f19	-0.00039874835
151	0xb8e5c3b6	-0.00010956025
152	0xb9bdd548	-0.00036207796
153	0xb9f7acef	-0.00047240357
154	0xbbdd0350	-0.0067447796
155	0xbc098965	-0.008394574
156	0xbbe5a99c	-0.0070087444
157	0xbc05bf4a	-0.008163283
158	0x3ae6b478	0.0017601391
159	0x390ab65d	0.00013228641
160	0xbbc5d08d	-0.006036824
161	0x3e573226	0.21015224
162	0x3e4d6fcc	0.20062178
163	0x3e48615c	0.1956839
164	0x3e4e9d44	0.2017718
165	0x3c034b7b	0.008013601
166	0x3c38069c	0.011232045
167	0x3e3c8474	0.18409902
168	0xbbfad05b	-0.0076542324
169	0xbbf9af84	-0.0076198
170	0xbbfd1cf4	-0.0077243987
171	0xbbf30197	-0.007415961
172	0x371903ab	9.120365e-06
173	0x393b4feb	0.00017863481
174	0xbc2503e2	-0.0100717265
175	0xba6d42c2	-0.000905078
176	0xba648cfd	-0.00087185187
177	0xba6ae766	-0.00089608727
178	0xba802726	-0.0009777292
179	0xb7ec276e	-2.8151753e-05
180	0xb9cdd98e	-0.00039262738
181	0xbac7cfd4	-0.0015244433
182	0xb9588d4b	-0.00020652001
183	0xb97f2bf4	-0.00024335069
184	0xb978233e	-0.00023664252
185	0xb9826746	-0.00024872477
186	0xb8cf3a9b	-9.881445e-05
187	0xb91111da	-0.00013834928
188	0xb9820530	-0.00024799397
189	0xba1a3199	-0.00058820244
190	0xba0fd1c7	-0.00054862763
191	0xba217b42	-0.00061600294
192	0xb9e8b26b	-0.0004438342
193	0xb916d25a	-0.00014383477
194	0xb9a46d8f	-0.00031362145
195	0xb9e3fe7c	-0.0004348642
196	0xbac43e5b	-0.0014972197
197	0xbacd4fab	-0.0015664002
198	0xba93a3c9	-0.0011264022
199	0xbab641ff	-0.0013905166
200	0xb93262d3	-0.00017012218
201	0xb9e8eefb	-0.00044428543
202	0xba6145c9	-0.00085934676
203	0xbb152693	-0.0022758588
204	0xbb20b493	-0.0024521693
205	0xbaf79b7e	-0.0018890945
206	0xbaf3f39d	-0.0018612031
207	0x3973501c	0.00023204129
208	0xb99454d6	-0.00028291967
209	0xbaf36fe7	-0.0018572778
210	0xba8628de	-0.0010235568
211	0xba9cb57b	-0.0011955941
212	0xbaf173a4	-0.0018421304
213	0xbaf77086	-0.0018878139
214	0x372c288d	1.026144e-05
215	0xb84ac9e3	-4.8348575e-05
216	0xbb527a8d	-0.0032116503
217	0xba03705f	-0.0005013998
218	0xba09e6b1	-0.0005260511
219	0xb9522704	-0.00020041695
220	0xb9a74bff	-0.00031909344
221	0xb57cd3a2	-9.418528e-07
222	0xb9897921	-0.00026220924
223	0xba76244c	-0.0009389564
224	0x3d8fbe9c	0.07018778
225	0x3e366f8b	0.17815988
226	0x3e2192c4	0.15778643
227	0x3e21f80b	0.15817277
228	0xbac6ddca	-0.00151723
229	0x3c443d65	0.011977528
230	0x3d8b559f	0.0680344
231	0xba7c92df	-0.00096349226
232	0xba803f64	-0.0009784517
233	0xba60e500	-0.00085790455
234	0xba5711fa	-0.0008204278
235	0x38442869	4.6767676e-05
236	0xb9ccd405	-0.0003906788
237	0xbb1bb355	-0.0023758013
238	0xbaa46cde	-0.0012544652
239	0xbad22cda	-0.0016035095
240	0xbb02d89e	-0.001996554
241	0xbb002ade	-0.00195568
242	0x36bc594e	5.613233e-06
243	0xb9b5fb33	-0.00034710168
244	0xbb353ce2	-0.0027654697
245	0xbc084ea3	-0.00831953
246	0xbc07c7c2	-0.008287372
247	0xbc115f77	-0.008872858
248	0xbc0c1219	-0.008549237
249	0x387d4fad	6.0394104e-05
250	0x388bee73	6.672451e-05
251	0xbc2b722e	-0.010464234
252	0xbb8bbe5f	-0.0042646374
253	0xbb97f1ea	-0.0046369927
254	0xbbb41cc4	-0.005496593
255	0xbbb353a6	-0.005472618

recurrent.weight_hh_l0 f4 [512, 128]
0	0xb8e15842	-0.00010745275
1	0xb7b4eae8	-2.1567059e-05
2	0x3a8d6d16	0.0010789956
3	0x37e6f393	2.753156e-05
4	0x380473c6	3.1579075e-05
5	0x38247b8b	3.9215705e-05
6	0x380a831e	3.3023876e-05
7	0x3845e2ae	4.7179572e-05
8	0x38a1b0b8	7.709995e-05
9	0x3813ff99	3.5285575e-05
10	0x381ba6e7	3.711032e-05
11	0xb86a085c	-5.5797733e-05
12	0x395be977	0.0002097244
13	0x381e7b8e	3.7785205e-05
14	0x3b88cc89	0.004174773
15	0x3799e92e	1.8347604e-05
16	0xb808687a	-3.2522228e-05
17	0xbb941e8d	-0.0045202435
18	0xb8320a80	-4.2448286e-05
19	0xb8197fc6	-3.659704e-05
20	0x3b5555ea	0.003255243
21	0xb81556e7	-3.5605302e-05
22	0xb8b70353	-8.726739e-05
23	0xbb9d7788	-0.004805509
24	0x37d0ce8f	2.4891719e-05
25	0xb7c9cec7	-2.4057355e-05
26	0x37d2a54a	2.511092e-05
27	0xb7a7b479	-1.999199e-05
28	0xb8010a7e	-3.076577e-05
29	0x3835121c	4.317063e-05
30	0xb7b08130	-2.1040993e-05
31	0xb81ffa04	-3.81414e-05
32	0xba7ab4e2	-0.0009563697
33	0x36f3fb11	7.2711923e-06
34	0xb817719d	-3.6107016e-05
35	0x37a3d43d	1.9529945e-05
36	0x384751f0	4.7521607e-05
37	0x37a559f9	1.971143e-05
38	0xb95cbac6	-0.00021050413
39	0xb7ba772f	-2.2228427e-05
40	0x370705a4	8.04794e-06
41	0xb788343b	-1.6236785e-05
42	0x38938e7b	7.036045e-05
43	0x37073327	8.058537e-06
44	0x375fdb3d	1.3342881e-05
45	0x3799631f	1.8285178e-05
46	0x381a7e91	3.6834335e-05
47	0x385b5f83	5.230262e-05
48	0xb75a2ed5	-1.30047165e-05
49	0x37186196	9.082627e-06
50	0x375b7719	1.3081147e-05
51	0x37cfbc51	2.4764015e-05
52	0xb81ff294	-3.8134473e-05
53	0xb817710c	-3.610649e-05
54	0xb6212114	-2.4010124e-06
55	0x3b80a876	0.003926332
56	0xbb8ca81d	-0.0042925016
57	0xb52b791c	-6.38787e-07
58	0xb903fd8e	-0.0001258759
59	0x374958d3	1.2001215e-05
60	0xb7dfcfcb	-2.6680433e-05
61	0xb78d3ac1	-1.683587e-05
62	0xb77e36cd	-1.5152339e-05
63	0xb68b80ac	-4.157502e-06
64	0xb7415366	-1.1523114e-05
65	0x3817a212	3.6152145e-05
66	0x3821d3ad	3.858253e-05
67	0x3b8a1f65	0.0042151683
68	0xb830fa47	-4.219476e-05
69	0x380a29ea	3.29408e-05
70	0xb7462bc8	-1.1811913e-05
71	0x386326e0	5.4157223e-05
72	0x39880ea4	0.0002595085
73	0x3a7bd77b	0.0009606999
74	0x3740a5ef	1.1482726e-05
75	0x3b9477d5	0.0045308867
76	0xb702bf43	-7.793135e-06
77	0xb71be832	-9.292782e-06
78	0xb78d07f5	-1.6812215e-05
79	0xb8092fd2	-3.270788e-05
80	0x38a09f60	7.6590804e-05
81	0xb512fab3	-5.4754054e-07
82	0x37e1805a	2.6881859e-05
83	0xb820aa93	-3.8305832e-05
84	0x3822deaf	3.88312e-05
85	0xb7e8deb3	-2.7760258e-05
86	0xbb939c1d	-0.004504694
87	0xb64416ed	-2.921962e-06
88	0x38b3747c	8.557082e-05
89	0x3b8602bd	0.004089682
90	0x3b93a300	0.004505515
91	0x3719c598	9.1655165e-06
92	0xb67323bd	-3.6230624e-06
93	0xbb184e16	-0.0023239902
94	0xb6dd481f	-6.5947092e-06
95	0x394aacfb	0.00019328661
96	0xb7f1fef6	-2.8848164e-05
97	0x38116fd1	3.467483e-05
98	0x378f2f6b	1.706901e-05
99	0xb7b7c939	-2.1909002e-05
100	0xbb964919	-0.0045863506
101	0xb7f2bb6e	-2.8935927e-05
102	0xb802cfaf	-3.1187836e-05
103	0x39cb0ce8	0.00038728793
104	0xb7a752f2	-1.9946576e-05
105	0xbb3af18b	-0.0028525318
106	0x38f17517	0.00011513585
107	0xb88cdd13	-6.7168985e-05
108	0x3a164e0f	0.00057336775
109	0xb8071536	-3.2206262e-05
110	0x3837461d	4.3695898e-05
111	0x3ac11c11	0.0014733096
112	0xba0a5df5	-0.0005278283
113	0x3b91885d	0.0044413046
114	0x3775aaa4	1.4642868e-05
115	0xbb05f504	-0.002044023
116	0x36dfe35a	6.672385e-06
117	0x3737d037	1.0956129e-05
118	0xb7a87a85	-2.0084213e-05
119	0x3b882cc0	0.0041557252
120	0xb7807810	-1.5314698e-05
121	0xb8e419cd	-0.00010876693
122	0x3814be21	3.546302e-05
123	0xbb8f7e5d	-0.0043790773
124	0x3b90cbd7	0.004418831
125	0x36d2cb33	6.282143e-06
126	0x37a384a7	1.9492885e-05
127	0x3b0f2072	0.0021839407
128	0x3818386b	3.6292167e-05
129	0x36be52a0	5.67206e-06
130	0x3a0a71f9	0.00052812655
131	0xb7b2a53a	-2.1296193e-05
132	0x37f17105	2.8782068e-05
133	0x37fbb817	3.0007255e-05
134	0x3765b20c	1.3690918e-05
135	0xb8443b90	-4.6785513e-05
136	0x3802f8eb	3.122624e-05
137	0x37e4d07d	2.7276803e-05
138	0xb68b5ec9	-4.1535573e-06
139	0x37bfb320	2.2852386e-05
140	0x367cba97	3.7659536e-06
141	0x3809753e	3.2772536e-05
142	0x3b37a046	0.0028019114
143	0x37e3f267	2.7173386e-05
144	0x37bf7526	2.2823526e-05
145	0xbb48eaa4	-0.0030657435
146	0x35af2915	1.3050472e-06
147	0xb7eca70c	-2.821118e-05
148	0x3b0aee8b	0.0021199312
149	0xb701b447	-7.730973e-06
150	0x380ab784	3.3072676e-05
151	0xbb5077cf	-0.0031809693
152	0x373527a6	1.0797672e-05
153	0xb7b915f0	-2.2063934e-05
154	0x36d7909d	6.4243345e-06
155	0xb71ce733	-9.352155e-06
156	0xb81a67d7	-3.681317e-05
157	0x37e00aef	2.6707972e-05
158	0xb7c3ffd2	-2.3364937e-05
159	0xb805ea72	-3.1928015e-05
160	0xba18106d	-0.00058007875
161	0x37971d7f	1.8014338e-05
162	0xb794b34e	-1.772647e-05
163	0x34f437c2	4.548911e-07
164	0x372dd4f0	1.0361182e-05
165	0xb69afc94	-4.6189616e-06
166	0xb9656a5d	-0.00021878765
167	0xb66e3abf	-3.5498958e-06
168	0x3666372e	3.430479e-06
169	0x395ab215	0.00020856441
170	0x38ab8c5f	8.1800616e-05
171	0x36bd8aa1	5.6487775e-06
172	0x375f7c82	1.3320825e-05
173	0xb7405678	-1.1464224e-05
174	0xb7198b01	-9.151875e-06
175	0x37f45ca0	2.9130199e-05
176	0xb7f62709	-2.9343662e-05
177	0x36869a3a	4.0114655e-06
178	0x371a2395	9.1874e-06
179	0x381f2c7d	3.7949987e-05
180	0x376804f4	1.3829431e-05
181	0xb7808467	-1.5320444e-05
182	0xb782cfa9	-1.5593907e-05
183	0x3b38b9da	0.0028186948
184	0xbb3d7c5f	-0.0028913242
185	0x36317d1f	2.6447885e-06
186	0x36f40790	7.272647e-06
187	0xb60c52e2	-2.090987e-06
188	0xb756bf7d	-1.2799978e-05
189	0xb74f1a91	-1.2344347e-05
190	0x35ed4df5	1.7680564e-06
191	0x37ea8e06	2.7961109e-05
192	0xb4bc7413	-3.5102184e-07
193	0xb84d4f93	-4.8949918e-05
194	0x382834fd	4.010367e-05
195	0x3b2e9b62	0.0026642908
196	0x364783a4	2.9729936e-06
197	0x376fea69	1.4300088e-05
198	0xb71a73ae	-9.206049e-06
199	0x3735cd63	1.0836261e-05
200	0xb96ddae5	-0.00022683626
201	0x3a0651c1	0.00051238766
202	0x3762e666	1.35242935e-05
203	0x3b49734c	0.0030738888
204	0x349f9fc4	2.9732303e-07
205	0xb70423ec	-7.876177e-06
206	0xb7a3a29a	-1.9506831e-05
207	0xb74b0ea7	-1.2103154e-05
208	0x37d20cfe	2.504e-05
209	0x372fe82a	1.0484868e-05
210	0x37c65470	2.3642759e-05
211	0xb6b56cf4	-5.406904e-06
212	0x38f71fd6	0.00011783808
213	0xb8d679ec	-0.00010227025
214	0xbb481d48	-0.003053503
215	0x38b4d443	8.622606e-05
216	0x384a80c9	4.8280494e-05
217	0x3b26eb38	0.002546979
218	0x3b483dfd	0.0030554526
219	0x37b313c7	2.1347672e-05
220	0x384cb32f	4.8804268e-05
221	0xbab3ac4d	-0.0013707966
222	0x34ff37ca	4.7538043e-07
223	0xb8f2ff9d	-0.00011587071
224	0xb7f42cf9	-2.9108009e-05
225	0x379a57db	1.8399141e-05
226	0xb864268c	-5.4395336e-05
227	0xb7a360f5	-1.9476263e-05
228	0xbb4c631e	-0.0031187008
229	0xb8708549	-5.734459e-05
230	0xb69d7c09	-4.693404e-06
231	0xb942a7a6	-0.00018563736
232	0xb74a2376	-1.2048395e-05
233	0xbabd39ad	-0.0014436744
234	0xb8159e85	-3.5672e-05
235	0xb8bea89e	-9.0913134e-05
236	0x3a7d65c4	0.00096663483
237	0xb78ad27e	-1.65489e-05
238	0x38a530d5	7.876909e-05
239	0x3a9530b6	0.0011382315
240	0xb9ed85c7	-0.00045303834
241	0x3b44f1a8	0.0030051265
242	0xb79e8ff0	-1.8902094e-05
243	0xba756d10	-0.000936226
244	0x381327e2	3.5084675e-05
245	0xb813686e	-3.514479e-05
246	0xb827ed5b	-4.0036957e-05
247	0x3b371922	0.0027938564
248	0xb75df75c	-1.3230219e-05
249	0xb858bffe	-5.167722e-05
250	0x37fcf5f7	3.0155277e-05
251	0xbb41c3cb	-0.0029566165
252	0x3b43d053	0.002987881
253	0x3713f9cd	8.820044e-06
254	0x38145416	3.536426e-05
255	0x3a3fdab0	0.0007318659

recurrent.bias_ih_l0 f4 [512]
0	0xbbb52460	-0.005528018
1	0xbb7ad6cf	-0.0038275009
2	0x3e20eb5f	0.15714787
3	0xbb5a1c48	-0.0033281017
4	0xbb4040ae	-0.0029335427
5	0xbc0650b1	-0.008197949
6	0xbc14ad7f	-0.009074568
7	0xbb9bb957	-0.004752319
8	0xbbd852f1	-0.0066016843
9	0xbc327a43	-0.010893407
10	0xbb09dd0c	-0.0021036295
11	0xbb10d150	-0.0022097416
12	0xbcb344e6	-0.02188344
13	0xbbc7de86	-0.006099525
14	0x3e485651	0.19564177
15	0xbb9f7e5f	-0.0048673595
16	0xbc6722de	-0.014107434
17	0x3e745011	0.23858668
18	0xbc339aff	-0.010962247
19	0xbc356f8f	-0.011073961
20	0x3ec3c637	0.38237163
21	0xbb146041	-0.002264038
22	0xbc900cf4	-0.017584302
23	0x3f0ea3e1	0.5571881
24	0xbc82364f	-0.015895037
25	0xbba703e1	-0.005096898
26	0xbad3f70f	-0.0016171652
27	0xbaf6b80f	-0.0018823164
28	0xbb76ed52	-0.0037678075
29	0xbbf98b07	-0.0076154503
30	0xbc036bd4	-0.008021314
31	0xbb8572d7	-0.004072528
32	0x3e9657ce	0.29363865
33	0xbbe7558d	-0.007059759
34	0xbbf75ab8	-0.0075486563
35	0xbc84a3f3	-0.016191458
36	0xbc56233d	-0.013069925
37	0xbc7133fd	-0.014721868
38	0x3ea72f98	0.326535
39	0xbc8498a1	-0.01618606
40	0xbb1d8cc9	-0.0024040213
41	0x3e3be198	0.18347776
42	0xbcab3998	-0.020901486
43	0xbc82a44c	-0.015947483
44	0xbc8856d6	-0.01664297
45	0xbb59c6d3	-0.003323008
46	0xbb1001b7	-0.0021973678
47	0xbc00443c	-0.007828768
48	0xbbfeb51f	-0.007773056
49	0xbc3e1680	-0.011602044
50	0xbc823c56	-0.015897911
51	0xbc82ae29	-0.015952187
52	0xbb11b650	-0.002223391
53	0xbc19d004	-0.009387974
54	0xbc904914	-0.017612971
55	0x3e5dfae6	0.21677741
56	0x3e50d67c	0.2039432
57	0xbbf87b3d	-0.0075830505
58	0xbc964101	-0.018341543
59	0xbbce8678	-0.006302651
60	0xbb3db44a	-0.0028946572
61	0xbc368dfd	-0.011142251
62	0xbc20eebd	-0.009822545
63	0xbbcbe14a	-0.006221925
64	0xbb0a0463	-0.0021059744
65	0xbc4e7f41	-0.012603582
66	0xbc4dfd4d	-0.012572599
67	0x3e985a47	0.29756376
68	0xbb0acf61	-0.0021180736
69	0xbbd67ebd	-0.00654587
70	0xbb6eda73	-0.0036446124
71	0xbbc277bc	-0.0059346836
72	0x3ef0d029	0.47033814
73	0x3ed47986	0.41498965
74	0xbba7682f	-0.005108855
75	0x3e7543b3	0.23951606
76	0xbb1d1d91	-0.0023973922
77	0xbbe5312c	-0.006994387
78	0xbabc2d48	-0.0014356757
79	0xbc3956a5	-0.011312162
80	0xbcb65cda	-0.022261072
81	0xbacab620	-0.0015465654
82	0xbc082110	-0.008308664
83	0xbb2cc061	-0.0026359784
84	0xbc81f2b6	-0.015862804
85	0xbcb87472	-0.022516463
86	0x3e6b7080	0.22992134
87	0xbcb41c46	-0.021986138
88	0xbca6292d	-0.020283306
89	0x3e94f98c	0.2909664
90	0x3e711a3f	0.23545168
91	0xbc8cb41c	-0.017175727
92	0xbb661e98	-0.003511345
93	0x3e2cfe4d	0.16893883
94	0xbc582988	-0.013193496
95	0x3d9d0aad	0.07668052
96	0xbb650d78	-0.0034950655
97	0xbbdc181d	-0.0067167417
98	0xbba893b9	-0.005144563
99	0xbae54881	-0.0017492921
100	0x3e7e49bd	0.24832816
101	0xbc5f4546	-0.013627356
102	0xbc8b0183	-0.016968494
103	0x3e27af13	0.1637538
104	0xbbb5f0de	-0.0055523952
105	0x3e0684e7	0.13136636
106	0xbc90331a	-0.017602492
107	0xbc6b68e3	-0.014368269
108	0x3d80e6c6	0.062940165
109	0xbbef9e93	-0.0073126047
110	0xbca97da2	-0.02068979
111	0x3d75d531	0.06001777
112	0x3df51a01	0.119678505
113	0x3e661da6	0.22472247
114	0xbb7a1f1d	-0.0038165518
115	0x3eea275f	0.45733163
116	0xbc88dfed	-0.016708339
117	0xbbaf83d7	-0.0053562927
118	0xbc91bd0f	-0.017790345
119	0x3e48244f	0.195451
120	0xbc850eac	-0.016242348
121	0xbcab1e5f	-0.020888506
122	0xbb951efc	-0.0045508128
123	0x3e5dfd80	0.21678734
124	0x3e62a0a1	0.22131588
125	0xbbc499b1	-0.0059997668
126	0xbc8b535e	-0.017007526
127	0x3dbb550e	0.09147082
128	0xbb864f7b	-0.0040988303
129	0xbb342dd1	-0.002749313
130	0xbd93d142	-0.07217647
131	0xbb1cc896	-0.002392327
132	0xbb04e0b8	-0.0020275544
133	0xbbbf7462	-0.0058427313
134	0xbbd5645a	-0.006512207
135	0xbb6d7052	-0.0036230278
136	0xbb9a5996	-0.0047103865
137	0xbc0beb84	-0.008540038
138	0xbacd49c6	-0.0015662245
139	0xbab6bb31	-0.0013941285
140	0xbc90e802	-0.017688755
141	0xbb9311f1	-0.0044882228
142	0x3da0f0d1	0.07858432
143	0xbb308636	-0.0026935465
144	0xbc0b4e14	-0.008502502
145	0x3dca6b0a	0.09883697
146	0xbc1cf245	-0.009579246
147	0xbc05945e	-0.008153049
148	0xbe25bd23	-0.16185431
149	0xbad0de76	-0.0015935439
150	0xbc5a5989	-0.013327011
151	0xbe4ef5c1	-0.20210935
152	0xbc6f591f	-0.0146086505
153	0xbb66426b	-0.0035134803
154	0xba9bc9fe	-0.001188576
155	0xbab1a3ed	-0.0013552882
156	0xbb34263e	-0.0027488614
157	0xbbb0c498	-0.0053945296
158	0xbba4a1f2	-0.005024188
159	0xbb07de91	-0.0020732025
160	0xbda8b2f2	-0.08237256
161	0xbb9398d1	-0.004504301
162	0xbbb98ce8	-0.0056625493
163	0xbc7a7ba3	-0.015288266
164	0xbc2b0bf4	-0.010439862
165	0xbc3b5369	-0.011433461
166	0xbe324baa	-0.17411676
167	0xbc4f2d46	-0.012645071
168	0xbb0f8798	-0.0021900889
169	0x3b581df0	0.0032976829
170	0xbc88f2bf	-0.016717313
171	0xbc7376c0	-0.014859855
172	0xbc683f42	-0.014175238
173	0xbb294d5d	-0.0025833466
174	0xbad4d080	-0.0016236454
175	0xbbb606f6	-0.005555029
176	0xbbb0a8b3	-0.0053912043
177	0xbc13bf00	-0.009017706
178	0xbc5c69c5	-0.013452952
179	0xbc46ad49	-0.012126275
180	0xbad21333	-0.001602745
181	0xbbe26e05	-0.006910088
182	0xbc65c78c	-0.014024626
183	0x3ec311d7	0.38099548
184	0x3da861d6	0.08221786
185	0xbbb1dbeb	-0.0054278276
186	0xbc7e8931	-0.015535639
187	0xbb8c4b1a	-0.0042814137
188	0xbaf2bcfb	-0.0018519455
189	0xbbf1312c	-0.007360598
190	0xbbf3d6c2	-0.0074413726
191	0xbb9fefc9	-0.0048808795
192	0xbad32ad8	-0.0016110791
193	0xbc1882cc	-0.009308528
194	0xbc13d6b2	-0.009023355
195	0x3d04bfd0	0.03240949
196	0xbac861a8	-0.0015287893
197	0xbb947c18	-0.0045313947
198	0xbb3aea31	-0.0028520937
199	0xbb89afda	-0.0042018713
200	0xbe05fe28	-0.13085234
201	0xbe7a3db7	-0.24437605
202	0xbb6e0bbe	-0.0036322917
203	0x3dcc757b	0.09983345
204	0xbaec6578	-0.0018035611
205	0xbb9dd7b1	-0.004816972
206	0xba7eec46	-0.00097245385
207	0xbc061c39	-0.00818544
208	0xbca16736	-0.019702535
209	0xbaa6a8c9	-0.0012715097
210	0xbbb5ae6a	-0.0055444734
211	0xbb02b7d7	-0.0019946003
212	0xbc2b9751	-0.010473088
213	0xbc87fe3b	-0.016600719
214	0x3dc9cd7c	0.09853646
215	0xbc864f1c	-0.016395144
216	0xbc9542c8	-0.01822032
217	0x3ce63af2	0.02810428
218	0x3dc84d67	0.09780388
219	0xbc70a935	-0.01468878
220	0xbb2230fe	-0.002474844
221	0x3dd50474	0.1040124
222	0xbc3abcf9	-0.011397594
223	0x3d46ab77	0.048503365
224	0xbb1ba12e	-0.0023747194
225	0xbba8c860	-0.0051508397
226	0xbb16a74b	-0.0022987898
227	0xbaa12902	-0.0012295546
228	0x3dd60792	0.10450663
229	0xbc1f7fa8	-0.009735025
230	0xbc5d5081	-0.013507963
231	0x3d389039	0.045059416
232	0xbb7dd7d9	-0.0038733392
233	0x3dd0cb01	0.1019497
234	0xbc5d0fcd	-0.013492537
235	0xbc16d5a6	-0.009206211
236	0x3dbac310	0.091192365
237	0xbba2bbf6	-0.0049662543
238	0xbc9b0b96	-0.018926423
239	0x3d8af320	0.06784654
240	0x3e0f41d3	0.13989954
241	0x3dbdcbbf	0.09267377
242	0xbb3a798d	-0.0028453798
243	0xbe06c5f5	-0.13161452
244	0xbc682878	-0.014169805
245	0xbb6ad2cc	-0.003583121
246	0xbc657699	-0.014005327
247	0x3d9cc13a	0.076540425
248	0xbc5e2dd2	-0.013560729
249	0xbc964e67	-0.018347932
250	0xbafe87b8	-0.001941911
251	0x3db334d4	0.087503105
252	0x3dba1ad4	0.09087148
253	0xbb8155da	-0.003947002
254	0xbc52104c	-0.012821268
255	0x3d2e8aff	0.042613026

recurrent.bias_hh_l0 f4 [512]
0	0xbbb52460	-0.005528018
1	0xbb7ad6cf	-0.0038275009
2	0x3e20eb5f	0.15714787
3	0xbb5a1c48	-0.0033281017
4	0xbb4040ae	-0.0029335427
5	0xbc0650b1	-0.008197949
6	0xbc14ad7f	-0.009074568
7	0xbb9bb957	-0.004752319
8	0xbbd852f1	-0.0066016843
9	0xbc327a43	-0.010893407
10	0xbb09dd0c	-0.0021036295
11	0xbb10d150	-0.0022097416
12	0xbcb344e6	-0.02188344
13	0xbbc7de86	-0.006099525
14	0x3e485651	0.19564177
15	0xbb9f7e5f	-0.0048673595
16	0xbc6722de	-0.014107434
17	0x3e745011	0.23858668
18	0xbc339aff	-0.010962247
19	0xbc356f8f	-0.011073961
20	0x3ec3c637	0.38237163
21	0xbb146041	-0.002264038
22	0xbc900cf4	-0.017584302
23	0x3f0ea3e1	0.5571881
24	0xbc82364f	-0.015895037
25	0xbba703e1	-0.005096898
26	0xbad3f70f	-0.0016171652
27	0xbaf6b80f	-0.0018823164
28	0xbb76ed52	-0.0037678075
29	0xbbf98b07	-0.0076154503
30	0xbc036bd4	-0.008021314
31	0xbb8572d7	-0.004072528
32	0x3e9657ce	0.29363865
33	0xbbe7558d	-0.007059759
34	0xbbf75ab8	-0.0075486563
35	0xbc84a3f3	-0.016191458
36	0xbc56233d	-0.013069925
37	0xbc7133fd	-0.014721868
38	0x3ea72f98	0.326535
39	0xbc8498a1	-0.01618606
40	0xbb1d8cc9	-0.0024040213
41	0x3e3be198	0.18347776
42	0xbcab3998	-0.020901486
43	0xbc82a44c	-0.015947483
44	0xbc8856d6	-0.01664297
45	0xbb59c6d3	-0.003323008
46	0xbb1001b7	-0.0021973678
47	0xbc00443c	-0.007828768
48	0xbbfeb51f	-0.007773056
49	0xbc3e1680	-0.011602044
50	0xbc823c56	-0.015897911
51	0xbc82ae29	-0.015952187
52	0xbb11b650	-0.002223391
53	0xbc19d004	-0.009387974
54	0xbc904914	-0.017612971
55	0x3e5dfae6	0.21677741
56	0x3e50d67c	0.2039432
57	0xbbf87b3d	-0.0075830505
58	0xbc964101	-0.018341543
59	0xbbce8678	-0.006302651
60	0xbb3db44a	-0.0028946572
61	0xbc368dfd	-0.011142251
62	0xbc20eebd	-0.009822545
63	0xbbcbe14a	-0.006221925
64	0xbb0a0463	-0.0021059744
65	0xbc4e7f41	-0.012603582
66	0xbc4dfd4d	-0.012572599
67	0x3e985a47	0.29756376
68	0xbb0acf61	-0.0021180736
69	0xbbd67ebd	-0.00654587
70	0xbb6eda73	-0.0036446124
71	0xbbc277bc	-0.0059346836
72	0x3ef0d029	0.47033814
73	0x3ed47986	0.41498965
74	0xbba7682f	-0.005108855
75	0x3e7543b3	0.23951606
76	0xbb1d1d91	-0.0023973922
77	0xbbe5312c	-0.006994387
78	0xbabc2d48	-0.0014356757
79	0xbc3956a5	-0.011312162
80	0xbcb65cda	-0.022261072
81	0xbacab620	-0.0015465654
82	0xbc082110	-0.008308664
83	0xbb2cc061	-0.0026359784
84	0xbc81f2b6	-0.015862804
85	0xbcb87472	-0.022516463
86	0x3e6b7080	0.22992134
87	0xbcb41c46	-0.021986138
88	0xbca6292d	-0.020283306
89	0x3e94f98c	0.2909664
90	0x3e711a3f	0.23545168
91	0xbc8cb41c	-0.017175727
92	0xbb661e98	-0.003511345
93	0x3e2cfe4d	0.16893883
94	0xbc582988	-0.013193496
95	0x3d9d0aad	0.07668052
96	0xbb650d78	-0.0034950655
97	0xbbdc181d	-0.0067167417
98	0xbba893b9	-0.005144563
99	0xbae54881	-0.0017492921
100	0x3e7e49bd	0.24832816
101	0xbc5f4546	-0.013627356
102	0xbc8b0183	-0.016968494
103	0x3e27af13	0.1637538
104	0xbbb5f0de	-0.0055523952
105	0x3e0684e7	0.13136636
106	0xbc90331a	-0.017602492
107	0xbc6b68e3	-0.014368269
108	0x3d80e6c6	0.062940165
109	0xbbef9e93	-0.0073126047
110	0xbca97da2	-0.02068979
111	0x3d75d531	0.06001777
112	0x3df51a01	0.119678505
113	0x3e661da6	0.22472247
114	0xbb7a1f1d	-0.0038165518
115	0x3eea275f	0.45733163
116	0xbc88dfed	-0.016708339
117	0xbbaf83d7	-0.0053562927
118	0xbc91bd0f	-0.017790345
119	0x3e48244f	0.195451
120	0xbc850eac	-0.016242348
121	0xbcab1e5f	-0.020888506
122	0xbb951efc	-0.0045508128
123	0x3e5dfd80	0.21678734
124	0x3e62a0a1	0.22131588
125	0xbbc499b1	-0.0059997668
126	0xbc8b535e	-0.017007526
127	0x3dbb550e	0.09147082
128	0xbb864f7b	-0.0040988303
129	0xbb342dd1	-0.002749313
130	0xbd93d142	-0.07217647
131	0xbb1cc896	-0.002392327
132	0xbb04e0b8	-0.0020275544
133	0xbbbf7462	-0.0058427313
134	0xbbd5645a	-0.006512207
135	0xbb6d7052	-0.0036230278
136	0xbb9a5996	-0.0047103865
137	0xbc0beb84	-0.008540038
138	0xbacd49c6	-0.0015662245
139	0xbab6bb31	-0.0013941285
140	0xbc90e802	-0.017688755
141	0xbb9311f1	-0.0044882228
142	0x3da0f0d1	0.07858432
143	0xbb308636	-0.0026935465
144	0xbc0b4e14	-0.008502502
145	0x3dca6b0a	0.09883697
146	0xbc1cf245	-0.009579246
147	0xbc05945e	-0.008153049
148	0xbe25bd23	-0.16185431
149	0xbad0de76	-0.0015935439
150	0xbc5a5989	-0.013327011
151	0xbe4ef5c1	-0.20210935
152	0xbc6f591f	-0.0146086505
153	0xbb66426b	-0.0035134803
154	0xba9bc9fe	-0.001188576
155	0xbab1a3ed	-0.0013552882
156	0xbb34263e	-0.0027488614
157	0xbbb0c498	-0.0053945296
158	0xbba4a1f2	-0.005024188
159	0xbb07de91	-0.0020732025
160	0xbda8b2f2	-0.08237256
161	0xbb9398d1	-0.004504301
162	0xbbb98ce8	-0.0056625493
163	0xbc7a7ba3	-0.015288266
164	0xbc2b0bf4	-0.010439862
165	0xbc3b5369	-0.011433461
166	0xbe324baa	-0.17411676
167	0xbc4f2d46	-0.012645071
168	0xbb0f8798	-0.0021900889
169	0x3b581df0	0.0032976829
170	0xbc88f2bf	-0.016717313
171	0xbc7376c0	-0.014859855
172	0xbc683f42	-0.014175238
173	0xbb294d5d	-0.0025833466
174	0xbad4d080	-0.0016236454
175	0xbbb606f6	-0.005555029
176	0xbbb0a8b3	-0.0053912043
177	0xbc13bf00	-0.009017706
178	0xbc5c69c5	-0.013452952
179	0xbc46ad49	-0.012126275
180	0xbad21333	-0.001602745
181	0xbbe26e05	-0.006910088
182	0xbc65c78c	-0.014024626
183	0x3ec311d7	0.38099548
184	0x3da861d6	0.08221786
185	0xbbb1dbeb	-0.0054278276
186	0xbc7e8931	-0.015535639
187	0xbb8c4b1a	-0.0042814137
188	0xbaf2bcfb	-0.0018519455
189	0xbbf1312c	-0.007360598
190	0xbbf3d6c2	-0.0074413726
191	0xbb9fefc9	-0.0048808795
192	0xbad32ad8	-0.0016110791
193	0xbc1882cc	-0.009308528
194	0xbc13d6b2	-0.009023355
195	0x3d04bfd0	0.03240949
196	0xbac861a8	-0.0015287893
197	0xbb947c18	-0.0045313947
198	0xbb3aea31	-0.0028520937
199	0xbb89afda	-0.0042018713
200	0xbe05fe28	-0.13085234
201	0xbe7a3db7	-0.24437605
202	0xbb6e0bbe	-0.0036322917
203	0x3dcc757b	0.09983345
204	0xbaec6578	-0.0018035611
205	0xbb9dd7b1	-0.004816972
206	0xba7eec46	-0.00097245385
207	0xbc061c39	-0.00818544
208	0xbca16736	-0.019702535
209	0xbaa6a8c9	-0.0012715097
210	0xbbb5ae6a	-0.0055444734
211	0xbb02b7d7	-0.0019946003
212	0xbc2b9751	-0.010473088
213	0xbc87fe3b	-0.016600719
214	0x3dc9cd7c	0.09853646
215	0xbc864f1c	-0.016395144
216	0xbc9542c8	-0.01822032
217	0x3ce63af2	0.02810428
218	0x3dc84d67	0.09780388
219	0xbc70a935	-0.01468878
220	0xbb2230fe	-0.002474844
221	0x3dd50474	0.1040124
222	0xbc3abcf9	-0.011397594
223	0x3d46ab77	0.048503365
224	0xbb1ba12e	-0.0023747194
225	0xbba8c860	-0.0051508397
226	0xbb16a74b	-0.0022987898
227	0xbaa12902	-0.0012295546
228	0x3dd60792	0.10450663
229	0xbc1f7fa8	-0.009735025
230	0xbc5d5081	-0.013507963
231	0x3d389039	0.045059416
232	0xbb7dd7d9	-0.0038733392
233	0x3dd0cb01	0.1019497
234	0xbc5d0fcd	-0.013492537
235	0xbc16d5a6	-0.009206211
236	0x3dbac310	0.091192365
237	0xbba2bbf6	-0.0049662543
238	0xbc9b0b96	-0.018926423
239	0x3d8af320	0.06784654
240	0x3e0f41d3	0.13989954
241	0x3dbdcbbf	0.09267377
242	0xbb3a798d	-0.0028453798
243	0xbe06c5f5	-0.13161452
244	0xbc682878	-0.014169805
245	0xbb6ad2cc	-0.003583121
246	0xbc657699	-0.014005327
247	0x3d9cc13a	0.076540425
248	0xbc5e2dd2	-0.013560729
249	0xbc964e67	-0.018347932
250	0xbafe87b8	-0.001941911
251	0x3db334d4	0.087503105
252	0x3dba1ad4	0.09087148
253	0xbb8155da	-0.003947002
254	0xbc52104c	-0.012821268
255	0x3d2e8aff	0.042613026

recurrent.weight_ih_l1 f4 [512, 128]
0	0x38e37969	0.00010846818
1	0x37c20717	2.3129904e-05
2	0x3a47f716	0.0007628066
3	0xb801d3d9	-3.0953295e-05
4	0x3876566b	5.8731453e-05
5	0xb7f4bf2d	-2.917609e-05
6	0x383c55f9	4.490276e-05
7	0xb8ba3ab2	-8.880104e-05
8	0x38bdcb0a	9.050041e-05
9	0x398fc601	0.0002742261
10	0x37c8e6bd	2.3949304e-05
11	0x38b77265	8.747428e-05
12	0xb91612f7	-0.0001431218
13	0xb82acb69	-4.07206e-05
14	0x3a8a796b	0.001056475
15	0x384bd23e	4.8594775e-05
16	0xb89eaac8	-7.5658376e-05
17	0xba8e12cb	-0.0010839341
18	0x37fc164e	3.0051127e-05
19	0xb7eeeb64	-2.8481423e-05
20	0x3a6d93a2	0.00090628315
21	0xb7e68f4f	-2.748487e-05
22	0x391769a0	0.0001443983
23	0xba6b0b6f	-0.00089662423
24	0x37c0ae03	2.2969214e-05
25	0x37d0aedc	2.4876957e-05
26	0xb8568432	-5.1144692e-05
27	0xb875845d	-5.8535825e-05
28	0x3841bac4	4.6188725e-05
29	0x38698fde	5.5685516e-05
30	0xb505a876	-4.9791504e-07
31	0x3834f1b7	4.314046e-05
32	0xb9d636b8	-0.0004085803
33	0xb61ed53b	-2.3667951e-06
34	0xb8312e38	-4.2243133e-05
35	0xb79a2ff9	-1.838057e-05
36	0xb85d093a	-5.26991e-05
37	0x3848e315	4.7895202e-05
38	0x39f83438	0.00047341152
39	0xb8334a7d	-4.27463e-05
40	0x3839e9bc	4.432512e-05
41	0x3a00c32c	0.00049118954
42	0xb89d39b1	-7.497089e-05
43	0x38028277	3.111592e-05
44	0xb7ef377c	-2.8516857e-05
45	0x38885244	6.5003085e-05
46	0xb70c193c	-8.350526e-06
47	0x38804535	6.1164064e-05
48	0x3876314c	5.869688e-05
49	0xb8b0c329	-8.4286854e-05
50	0xb89ec3b3	-7.570479e-05
51	0x388534f6	6.351799e-05
52	0x386693d7	5.497396e-05
53	0xb7c75074	-2.3760113e-05
54	0x37a6bd8f	1.9877012e-05
55	0x39ec4067	0.0004506141
56	0xba8ad62e	-0.0010592395
57	0xb89eb45d	-7.5676224e-05
58	0xb90404e7	-0.00012590327
59	0x3781159d	1.5388063e-05
60	0xb8178fce	-3.6135134e-05
61	0x37a3ff90	1.955012e-05
62	0xb907271c	-0.00012889173
63	0xb75e7df7	-1.326156e-05
64	0xb85a4d95	-5.2047504e-05
65	0xb8cf9a4d	-9.89927e-05
66	0x38ed512e	0.000113161615
67	0x3a5ff102	0.0008542688
68	0xb7d258f1	-2.5075367e-05
69	0x3866f97e	5.506863e-05
70	0x382c9caf	4.115392e-05
71	0x38263f50	3.963645e-05
72	0xb9019dff	-0.00012361257
73	0xba2d5af7	-0.0006612981
74	0xb79b24cd	-1.8494577e-05
75	0x3a8e54d3	0.001085902
76	0xb88d71e8	-6.7446206e-05
77	0x387a2c76	5.9646052e-05
78	0xb898db9b	-7.2888295e-05
79	0xb76b3a94	-1.402073e-05
80	0x38597227	5.1843144e-05
81	0x38b821c6	8.7800945e-05
82	0xb8330ec8	-4.269069e-05
83	0xb7e02f5a	-2.672493e-05
84	0x371109f1	8.644988e-06
85	0x3853ffe5	5.054464e-05
86	0xba8dd452	-0.0010820723
87	0xb84ad6ef	-4.8360725e-05
88	0xb923919a	-0.00015599132
89	0x3a5f3b63	0.0008515624
90	0x3a8defe7	0.0010828943
91	0xb56a50d6	-8.7289425e-07
92	0x382c8c32	4.1138563e-05
93	0xba80fe4b	-0.000984141
94	0xb8a390a9	-7.799391e-05
95	0xb83a6d5d	-4.444771e-05
96	0x386aeb9a	5.600937e-05
97	0xb9007cb7	-0.00012253491
98	0xb9434565	-0.000186225
99	0xb8c154bb	-9.2187394e-05
100	0xba8f1544	-0.0010916372
101	0xb8e44720	-0.00010885135
102	0x38a1fe54	7.7244506e-05
103	0xb9d567e9	-0.00040703945
104	0x37f8c25c	2.965441e-05
105	0xba99f14f	-0.0011744889
106	0x390c0f17	0.00013357062
107	0xb7ff1232	-3.0406842e-05
108	0x39ea6aed	0.00044711624
109	0xb8a8ea9f	-8.054566e-05
110	0xb91798e3	-0.00014457437
111	0x38eb54be	0.00011221458
112	0xba110be4	-0.0005533083
113	0x3a8cfc51	0.0010756348
114	0xb8498840	-4.8049027e-05
115	0x39ba7786	0.00035565736
116	0xb904b2e7	-0.00012655147
117	0xb790be88	-1.725486e-05
118	0xb8949728	-7.085345e-05
119	0x3a89fe8e	0.0010528134
120	0x383c13b5	4.4841046e-05
121	0x391ff430	0.00015254389
122	0xb710ba0e	-8.626388e-06
123	0xba8c072c	-0.001068329
124	0x3a8c95ef	0.0010725836
125	0x37ae60ae	2.0787436e-05
126	0x387892f0	5.9264654e-05
127	0x39e0e5cf	0.0004289583
128	0x37bf1a54	2.2781234e-05
129	0xb743dccf	-1.1674317e-05
130	0x36ef257c	7.127119e-06
131	0x359c3d9d	1.1640838e-06
132	0xb5a7c151	-1.2498732e-06
133	0x3641ac55	2.8859552e-06
134	0xb7061ac4	-7.993254e-06
135	0xb7e58b1e	-2.7363709e-05
136	0x3444a794	1.8314887e-07
137	0x366d189c	3.5330077e-06
138	0x36787e39	3.702835e-06
139	0x36c02a1a	5.726947e-06
140	0xb7c2fc0a	-2.3243967e-05
141	0xb5f5ab52	-1.8303783e-06
142	0x39753a92	0.0002338684
143	0xb70e8b37	-8.496273e-06
144	0x36870b8e	4.0246587e-06
145	0xb97a1b18	-0.00023851951
146	0x36886601	4.0649907e-06
147	0x3773bafd	1.4527465e-05
148	0x396f6809	0.00022831572
149	0xb4dbdc45	-4.0952196e-07
150	0x380a2536	3.293642e-05
151	0xb9839474	-0.00025096873
152	0xb7329422	-1.0644117e-05
153	0x36d0942b	6.216132e-06
154	0xb641f6c6	-2.8902882e-06
155	0x36451531	2.9367623e-06
156	0x36419981	2.8848592e-06
157	0xb6e0b578	-6.696846e-06
158	0x3662c7a6	3.3792835e-06
159	0xb634f82a	-2.696654e-06
160	0x389fd5ad	7.621511e-05
161	0x365ac1f9	3.2597438e-06
162	0x36dbd1d6	6.5511367e-06
163	0xb659b009	-3.2437986e-06
164	0xb674bfdd	-3.6470512e-06
165	0xb81a3722	-3.6767808e-05
166	0x35853397	9.924287e-07
167	0x38259b2a	3.9483573e-05
168	0xb5db3d30	-1.6334579e-06
169	0x378431bb	1.5758784e-05
170	0xb7916c99	-1.7335917e-05
171	0xb774f72f	-1.4601085e-05
172	0xb7121af2	-8.708552e-06
173	0x35ddef34	1.65354e-06
174	0xb633abf4	-2.6773168e-06
175	0xb6663532	-3.4303634e-06
176	0xb7179570	-9.035095e-06
177	0xb81bee95	-3.7177077e-05
178	0xb71417ac	-8.826999e-06
179	0xb80c4a3a	-3.344773e-05
180	0x35f8571c	1.8502792e-06
181	0x36f91714	7.423465e-06
182	0x36ed0428	7.0636343e-06
183	0x39553602	0.00020333382
184	0xb975aa78	-0.00023428525
185	0xb5e0fcfe	-1.6762931e-06
186	0x38000b30	3.0527997e-05
187	0x35d8630e	1.6122083e-06
188	0xb5ac0d01	-1.2818783e-06
189	0x35ee5b15	1.775889e-06
190	0xb6fa58ff	-7.460941e-06
191	0x37b59c88	2.1649772e-05
192	0x35d2dcdd	1.5710499e-06
193	0xb7bd0a9f	-2.2535502e-05
194	0xb7a0b9f6	-1.9160081e-05
195	0x395ccf42	0.00021058045
196	0xb68c6007	-4.183504e-06
197	0x36860fcd	3.9953507e-06
198	0x36616b55	3.3590088e-06
199	0xb63f5acc	-2.8514069e-06
200	0x388c5025	6.690648e-05
201	0x37ce8e01	2.462324e-05
202	0xb5a951aa	-1.2615249e-06
203	0x397a8de8	0.00023894722
204	0xb4f40d02	-4.5458006e-07
205	0x36b26f8b	5.3177987e-06
206	0xb5fcb55f	-1.8828249e-06
207	0x3645bfdf	2.9466971e-06
208	0xb7a5b893	-1.9755482e-05
209	0x36048635	1.9747652e-06
210	0x367ec6b4	3.796461e-06
211	0x367201ec	3.6061929e-06
212	0xb7b43942	-2.1484335e-05
213	0x38343839	4.2967706e-05
214	0xb97a2394	-0.00023855112
215	0xb80ed55e	-3.4054152e-05
216	0xb60e0d8b	-2.1167532e-06
217	0x390a446e	0.00013186198
218	0x3979f623	0.00023838184
219	0xb74604a7	-1.1802803e-05
220	0x36fffe8a	7.6292245e-06
221	0xb904119b	-0.0001259506
222	0xb6a18da8	-4.814665e-06
223	0x390a2ba8	0.00013176969
224	0x36716c5b	3.597487e-06
225	0x36d11631	6.231269e-06
226	0xb6cc989e	-6.0974407e-06
227	0x369c3df3	4.656374e-06
228	0xb97be0f6	-0.0002402103
229	0x37d3218b	2.516878e-05
230	0x369c8f54	4.665848e-06
231	0x37800257	1.5259879e-05
232	0x370d8c40	8.436909e-06
233	0xb905ff1d	-0.00012778906
234	0x383ff8e6	4.5769753e-05
235	0x36467d17	2.957711e-06
236	0x39002b64	0.00012223196
237	0x36f8c7a5	7.4142176e-06
238	0xb7670966	-1.3770861e-05
239	0x379bcc40	1.8572551e-05
240	0xb78e6364	-1.6974001e-05
241	0x3978795a	0.0002369633
242	0xb5af2d99	-1.3051787e-06
243	0xb8b28c8d	-8.513881e-05
244	0xb7e499ce	-2.7251339e-05
245	0xb629e192	-2.5314262e-06
246	0x37c27eff	2.318574e-05
247	0x39742a9c	0.00023285527
248	0x36148f0f	2.213699e-06
249	0x37511eb2	1.2464518e-05
250	0xb60a65b4	-2.0622801e-06
251	0xb976ff29	-0.00023555443
252	0x3977fa08	0.000236489
253	0x3626bc61	2.4845579e-06
254	0xb8098841	-3.279024e-05
255	0x38e17cb4	0.00010752064

recurrent.weight_hh_l1 f4 [512, 128]
0	0xb8254a84	-3.9408464e-05
1	0xb81f8cf5	-3.803983e-05
2	0xb9ebd242	-0.00044979347
3	0x3930e597	0.00016870197
4	0x3a63415f	0.0008669104
5	0xb89036bb	-6.8766494e-05
6	0xba804bfb	-0.0009788269
7	0xb7c4c0d0	-2.3454806e-05
8	0x3a805d20	0.0009793378
9	0x3a9c2508	0.0011912892
10	0x37d321c8	2.516889e-05
11	0xb8cf47fe	-9.883939e-05
12	0xb872da6a	-5.790071e-05
13	0x358d42a3	1.0524712e-06
14	0x3673ab61	3.6309577e-06
15	0x38027aef	3.1108906e-05
16	0x375e6065	1.3254675e-05
17	0x383352c5	4.275401e-05
18	0xba805ccd	-0.0009793282
19	0x38dab034	0.000104278704
20	0xb657a3d5	-3.213286e-06
21	0x385d1caa	5.27172e-05
22	0x36ab026e	5.09648e-06
23	0xb88ebc75	-6.8061905e-05
24	0xb80f3bb2	-3.4149452e-05
25	0x37ed2248	2.8268565e-05
26	0xb90e0b57	-0.000135464
27	0x39ae6ec6	0.000332704
28	0xb7bc4fea	-2.244856e-05
29	0xb7777f5b	-1.47519995e-05
30	0xb8308516	-4.2085616e-05
31	0x372a7857	1.0160808e-05
32	0x38be4225	9.0722264e-05
33	0xb8d24369	-0.000100261364
34	0xb8cecae6	-9.860638e-05
35	0x3a8043ba	0.0009785809
36	0xb68f58a5	-4.2720517e-06
37	0x3906cc5b	0.00012855364
38	0xb8b0dd63	-8.4335705e-05
39	0x380bcdba	3.333178e-05
40	0x3a805be8	0.0009793015
41	0x37a48c2c	1.9615596e-05
42	0xb84ad527	-4.8359067e-05
43	0xb88cd0fa	-6.714645e-05
44	0xb84c7e6b	-4.8755126e-05
45	0xb8752f1f	-5.8456437e-05
46	0xba805a47	-0.000979253
47	0xb83028cc	-4.1999665e-05
48	0x38ff99e6	0.00012188013
49	0x3871bb6b	5.7633424e-05
50	0xb79d372f	-1.8741555e-05
51	0xb8ae239e	-8.303601e-05
52	0xb831b36a	-4.236718e-05
53	0xb8956ce0	-7.125153e-05
54	0x3909c0d6	0.00013137175
55	0x39a8e6be	0.00032215373
56	0x37d4ca20	2.5366491e-05
57	0xb6ba608c	-5.5544715e-06
58	0x39b2ed58	0.0003412764
59	0xb69a73d7	-4.603043e-06
60	0xb80b0a70	-3.3149903e-05
61	0x385b45b9	5.2278603e-05
62	0xb8b24b0b	-8.501679e-05
63	0x371ac5e2	9.2251885e-06
64	0x36e3cfa2	6.789299e-06
65	0xb82add52	-4.073728e-05
66	0xb7d9863e	-2.5930927e-05
67	0xb84a0904	-4.816895e-05
68	0x380f8b75	3.4223736e-05
69	0x37893c32	1.6359703e-05
70	0x3761142a	1.341574e-05
71	0xba99fec9	-0.0011748906
72	0x3852942c	5.0205897e-05
73	0x36faca58	7.4741365e-06
74	0xb8a771d1	-7.9843805e-05
75	0x382b9ba8	4.0914543e-05
76	0xb89d463b	-7.499425e-05
77	0x38bad1d4	8.908255e-05
78	0xb903aeec	-0.00012558297
79	0x38409d8a	4.5923087e-05
80	0x378b9e55	1.664382e-05
81	0xba8052d6	-0.0009790312
82	0x380fcbcd	3.428366e-05
83	0x38858f20	6.368593e-05
84	0xb7ee59ea	-2.841368e-05
85	0x3a804f69	0.0009789291
86	0xb8901ed5	-6.872198e-05
87	0xb8392867	-4.4145065e-05
88	0xba58f15c	-0.00082757114
89	0x38c671c9	9.46257e-05
90	0xba804f48	-0.0009789253
91	0xb85761f2	-5.1351213e-05
92	0x38331a88	4.2701635e-05
93	0xb868f906	-5.554503e-05
94	0x388e9213	6.798296e-05
95	0xb845d039	-4.7162383e-05
96	0x37cf43c9	2.4707888e-05
97	0x38645f0a	5.4447948e-05
98	0x3729345c	1.0085376e-05
99	0x37b04ae4	2.1015709e-05
100	0x3a25a230	0.00063184183
101	0xb882ec1d	-6.2428626e-05
102	0xb8f002f6	-0.00011444643
103	0x38a4b4ed	7.8538294e-05
104	0x36dbe2bd	6.5531044e-06
105	0xb87c8205	-6.0202572e-05
106	0xb8bca8e7	-8.995999e-05
107	0xb785169e	-1.5865367e-05
108	0x383fbaac	4.57118e-05
109	0x37d9149b	2.5878011e-05
110	0xb6ee8826	-7.1088025e-06
111	0xb72f6db8	-1.0456359e-05
112	0x3863b5ed	5.429045e-05
113	0x392c348e	0.00016422776
114	0x38d848f8	0.00010313274
115	0x388bac68	6.66015e-05
116	0x382369be	3.896071e-05
117	0x3737eb26	1.09624e-05
118	0xb7baac9c	-2.2253305e-05
119	0x37a599b8	1.9741114e-05
120	0xb7972854	-1.8019382e-05
121	0xba805424	-0.0009790701
122	0xb72ea473	-1.0409497e-05
123	0x3a80563c	0.0009791325
124	0xb8aad336	-8.145573e-05
125	0xb699e913	-4.5868887e-06
126	0x369ebeea	4.7309923e-06
127	0x37e4b705	2.7264943e-05
128	0xb7cd76aa	-2.4493162e-05
129	0x369d72e3	4.692339e-06
130	0xb8b7ecb6	-8.770211e-05
131	0xb86d6780	-5.6601595e-05
132	0x3866a1ef	5.4987086e-05
133	0xb7585c0b	-1.2896034e-05
134	0xb9815b42	-0.0002467279
135	0xb8358ffd	-4.3287862e-05
136	0x39815b6a	0.00024672906
137	0x38e72c54	0.00011023195
138	0xb5975077	-1.1273795e-06
139	0xb6b5538c	-5.4039465e-06
140	0xb6f5cc24	-7.325334e-06
141	0x36806406	3.8263415e-06
142	0xb49f022b	-2.9617635e-07
143	0xb6bed467	-5.687168e-06
144	0x34911ffd	2.703163e-07
145	0xb5661bec	-8.572231e-07
146	0xb9815cb6	-0.00024673872
147	0xb6a9266a	-5.0410645e-06
148	0xb73c9787	-1.1240953e-05
149	0x36c0794a	5.736166e-06
150	0xb64a31b4	-3.0129277e-06
151	0xb79674f1	-1.7935849e-05
152	0xb67bed2c	-3.7539967e-06
153	0x3808b041	3.2589076e-05
154	0xb67374a6	-3.627772e-06
155	0xb72538e3	-9.848011e-06
156	0xb6e0cb96	-6.6994207e-06
157	0x35e1b07b	1.6815169e-06
158	0xb8194d7a	-3.65502e-05
159	0xb5399c18	-6.9145017e-07
160	0x375f79ed	1.3320224e-05
161	0x370b3eea	8.299694e-06
162	0xb613df75	-2.2034776e-06
163	0x39815d3c	0.00024674262
164	0xb77c1bf8	-1.50268825e-05
165	0xb7be15d2	-2.2659926e-05
166	0xb71f1d43	-9.4839515e-06
167	0x367baf59	3.750398e-06
168	0x39815ba3	0.00024673072
169	0x373f29cf	1.13942215e-05
170	0xb696fc8f	-4.49975e-06
171	0xb5be0966	-1.4158838e-06
172	0xb6866c18	-4.006095e-06
173	0xb6e14836	-6.713929e-06
174	0xb9815b53	-0.0002467284
175	0xb69a5394	-4.5992874e-06
176	0x371a796c	9.207386e-06
177	0x36357424	2.7038705e-06
178	0xb7267ea8	-9.9238605e-06
179	0x373fea2d	1.143901e-05
180	0xb59d2b6a	-1.1710047e-06
181	0x3539a31c	6.9155226e-07
182	0x36c814a4	5.9628674e-06
183	0xb739443f	-1.1042749e-05
184	0xb7260b3f	-9.8969895e-06
185	0xb343fa58	-4.5629662e-08
186	0xb8fb618c	-0.00011986782
187	0xb40f3a41	-1.3339105e-07
188	0xb6c44910	-5.849761e-06
189	0x37acf980	2.062018e-05
190	0x36ca55ba	6.030049e-06
191	0x36c89113	5.9773533e-06
192	0x360e8505	2.1237076e-06
193	0xb7f33992	-2.8994666e-05
194	0x36bd3f85	5.6400336e-06
195	0x36ca4049	6.027553e-06
196	0x36f6f43f	7.3598053e-06
197	0x376f47c7	1.4262222e-05
198	0xb73e830f	-1.1355397e-05
199	0xb8e74df9	-0.00011029462
200	0xb6cfa2d5	-6.188037e-06
201	0x345a0b2a	2.0306894e-07
202	0xb70a8e5b	-8.258586e-06
203	0xb7904cd0	-1.7201906e-05
204	0xb762cd48	-1.35184455e-05
205	0x366fa0d9	3.57074e-06
206	0xb7906d99	-1.7217173e-05
207	0xb52597b4	-6.1688047e-07
208	0x35b14258	1.3206836e-06
209	0xb9815ca9	-0.00024673835
210	0xb6555862	-3.179092e-06
211	0x370fd3e4	8.572799e-06
212	0x36c189eb	5.767904e-06
213	0x398159e3	0.00024671768
214	0xb64181d3	-2.8834809e-06
215	0xb81912a9	-3.649542e-05
216	0xb894741c	-7.078817e-05
217	0x370ba4ed	8.323445e-06
218	0xb9815a55	-0.000246721
219	0xb6bbca2a	-5.5965693e-06
220	0x38195af2	3.6562742e-05
221	0xb6da91cf	-6.5138806e-06
222	0x378ff992	1.7163144e-05
223	0x3599843d	1.1437875e-06
224	0xb65bb867	-3.274088e-06
225	0x37126d9d	8.7277995e-06
226	0x362b315e	2.550972e-06
227	0x3618f22e	2.2790732e-06
228	0xb8cceb34	-9.771288e-05
229	0xb6bbba36	-5.594712e-06
230	0xb71f6f75	-9.503089e-06
231	0x36dca476	6.5756567e-06
232	0x37221d0e	9.662717e-06
233	0xb6809c5e	-3.832901e-06
234	0xb6bf0414	-5.6927183e-06
235	0x36e56a3d	6.8370996e-06
236	0xb603a1a7	-1.9614615e-06
237	0xb6666074	-3.4328814e-06
238	0x34518778	1.9513925e-07
239	0xb39cc637	-7.300371e-08
240	0xb621e0c5	-2.4121703e-06
241	0xb86e8d84	-5.687542e-05
242	0x373e7bf0	1.1353739e-05
243	0xb6317420	-2.644265e-06
244	0x36bb32ec	5.5789624e-06
245	0xb57503f9	-9.1275393e-07
246	0xb682f3e1	-3.902693e-06
247	0xb6e472ab	-6.8082786e-06
248	0xb4b75d79	-3.4154417e-07
249	0xb98156bd	-0.00024669422
250	0xb695e945	-4.467702e-06
251	0x39815b1a	0.00024672673
252	0xb6fe5ab1	-7.5803478e-06
253	0xb78d5118	-1.6846272e-05
254	0xb723b70a	-9.758174e-06
255	0xb5b54ed6	-1.3508495e-06
