input/lstm_model.pth (torch, 211369 bytes, 10 tensors)

recurrent.weight_ih_l0 f4 [256, 7]
00000000: d8f8 ecbd a8a2 fc3d a598 863d 580b 0ebd
00000010: 1ea5 e5bd 5090 71bd e2a4 cc3d 0879 a5bd
00000020: dcec b1bd c895 0d3e b6ca 273c 2df7 663d
00000030: 3676 0ebd 61c7 1c3d 1089 09be ec80 2fbd
00000040: acf7 5bbd dd10 64bc a296 8dbd f3e3 a7bd
00000050: 993e 3f3d 2805 f33c da70 ba3d 4675 e0bc
00000060: e908 e7bd 5a51 48bd c24d a3bc e270 783d
00000070: 634c 4c3c f84f 92bb 3d57 e23d 50ea 90bd
00000080: 1fc2 dcbc 7b35 26bc 6c44 b83d 0ae0 f8bd
00000090: 055b d5bd 71d3 ebbc 6d31 143d fe86 10bd
000000a0: d31a 063e 326c 3f3d 7cf1 53bc 80f3 49bc
000000b0: 00f1 ae39 aa10 66bd c2d9 c2bd d05c 0b3c
000000c0: 5e9b c5ba b15e 723d b40c d13d 3b4f 6cbd
000000d0: 31f8 673d 1cd3 8abd 55d6 e03d a8c1 8a3c
000000e0: e3ae 513d 4b58 b3bd 78e6 13bc 01a1 813d
000000f0: cb7a 193e 3bf8 5f3d c3f7 debd 93b2 003e
00000100: 6458 fbbd 1afd 7b3d a40e ea3d 02eb 0abe
00000110: 00cd 9fbd bd25 a5bd cca5 a7bd b833 993d
00000120: 29d1 fdbc bfb3 09be 7916 08be 3c79 bcbd
00000130: ae81 af3c e2a3 fd3d ce38 87bd 4643 bbbc
00000140: dd42 aebd 6805 443d ef5f 1c3d 5bf3 c1bd
00000150: 82be 033e 3e02 e73d dd4f e538 fbee ee3d
00000160: ce49 b3bd ce9d 063e b2e2 e73d b3ba 62bc
00000170: b613 f43d 8498 adbc 2e4b 8c3c 1aae 06be
00000180: 0943 38bd d826 08bc 409a 63bc 74cb ef3d
00000190: 96eb 99bd 3b4e 8d3d e98e 8f3d 6cef dbbb
000001a0: ffd4 e73d 5e06 b73c c569 013d 2528 db3b
000001b0: b743 a93c ba9f 1c3e 70fb 0c3e 68de 803c
000001c0: 346b f6bd 876f ca3d 3aae eabd 9435 803d
000001d0: 8e6b 83bd 4637 dfbd 9a7d 97bd 6ee2 f9bd
000001e0: d9e3 e83c e345 d63d 7318 c5bd 783a a23d
000001f0: 6eaf bd3d 4586 c8bd 6bc7 413d fcae 8f3c
00000200: 12e3 7e3d c20b 4eba 42ed f93d 2b82 1c3d
00000210: 97ed 96bc 7b19 e13c 2e0c 01bd 81dc 0b3e
00000220: 5a73 aa3d db81 f23d b743 21be b93c f1bd
00000230: 500b 553d 315b b93d 6403 053e 6090 96bd
00000240: 68a7 bfbc ec4f da3d 8a23 b63d b106 bb3d
00000250: 89fc f73d 94bb dc3d 3db5 3ebd 60f8 e8bd
00000260: 2ddc 0bbe 4f0b 2ebc c5a2 94bd f9c8 1dbd
00000270: af83 953d 4db4 c2bc 4052 a23d 57a2 aebd
00000280: b86d 91bd 68a0 babc af21 34bd 6733 e1bd
00000290: dd3c 003e abf9 0cbd 7383 efbd 098a 863c
000002a0: 3d3d d73d 77bc f7bb 7bc0 dabc c169 0d3e
000002b0: c805 b53d f992 c23d 4fbb 0b3e 88e4 cb3d
000002c0: 8b2a 6e3a 5024 bc3d 00cd 4e3d 2d0c f3bc
000002d0: 91a6 0f3e 2fc2 933c 0882 c13d 4633 dfbc
000002e0: 4099 78bc 12c5 c73d 1fdb 18bd 5974 d5bd
000002f0: 62c2 3ebc 44c5 07be 4221 e13d 829a cabc
00000300: c097 b4bd 4a58 dabd ec95 08bd 1790 b83b
00000310: 115b fe3d 6e0d 0bbc 58a1 8c3b d5d5 0c3e
00000320: d2a6 0bbe dc14 f53d f145 c43c 6490 2abd
00000330: 8943 e4bd 20e2 8bbc eefb 0bbd 3009 96bd
00000340: 75a6 603d 6ced 0cbe 0979 fbbc 90b7 7a39
00000350: 9e24 9c3d 7c48 c5bd b40c f7bd 59d7 dabc
00000360: 02f9 91bd 3c46 20bd 7922 883d 3d21 09be
00000370: 4a8a 01be 50ca 783d 5dad f53d 067b d1bd
00000380: fa19 093e f936 79ba 78a2 e63c 64f8 e2bc
00000390: 9f54 c23d 8ae8 893c 7fd3 e9bd 40ea f3bc
000003a0: 8659 f73d d313 743b 004d a83d 69c0 f9bd
000003b0: 6458 f6bd 2840 7a3d 4e0b 84bd 6f81 03be
000003c0: 9419 ce3d 16eb e83d 9dfb 453c 1cc3 f13d
000003d0: b683 c13c 9810 8d3c 3500 103e 0a1b 053e
000003e0: b101 6abb a404 b63d 17e5 87bd f502 073d
000003f0: b29c efbd 3ce2 e53d 21ef e13d 9b64 a83c
-0.11570901 0.12335712 0.065720834 -0.034678787 -0.11213134 -0.058975518 0.099923864 -0.080797255
-0.086877555 0.13826668 0.010241201 0.05638807 -0.034780703 0.03827608 -0.13431191 -0.04284756
-0.053702995 -0.013920036 -0.069134966 -0.08197775 0.046690557 0.029665545 0.09103556 -0.02739967
-0.11280996 -0.048905708 -0.019934539 0.06065453 0.012469384 -0.0044650994 0.11051796 -0.070759416
-0.026948033 -0.010144587 0.089974254 -0.12152107 -0.10417751 -0.028787347 0.03617995 -0.03528499
0.1309617 0.046734042 -0.012935992 -0.012326121 0.00033367425 -0.056168236 -0.0951419 0.008506015
-0.001507621 0.059172336 0.10207501 -0.057692748 0.05663318 -0.06778547 0.109783806 0.016938046
0.051192176 -0.08757075 -0.009027116 0.06329537 0.14988248 0.05468009 -0.108871005 0.1256812
-0.122727185 0.061520673 0.11428574 -0.13566211 -0.078027725 -0.08063839 -0.0818592 0.07480568
-0.030983524 -0.13447474 -0.13289823 -0.09202811 0.02142414 0.12384774 -0.066026315 -0.022859227
-0.08508847 0.04785672 0.038177427 -0.094702445 0.12865642 0.112797245 0.000109344466 0.11666676
-0.087543115 0.13146135 0.113225356 -0.013838458 0.11917822 -0.02119089 0.017125692 -0.13152352
-0.044985805 -0.008310042 -0.013891757 0.117087275 -0.075156376 0.06899687 0.0700968 -0.006711891
0.11319923 0.022341903 0.03159501 0.006688135 0.020662172 0.15295306 0.13767791 0.015731052
-0.12032166 0.098845534 -0.11459012 0.06260219 -0.06416999 -0.108992144 -0.073970035 -0.12201391
0.028428959 0.104625486 -0.09623804 0.07921308 0.09261976 -0.09791235 0.04730932 0.017539494
0.06222827 -0.00078600284 0.122034565 0.038210075 -0.018423839 0.02747797 -0.031505756 0.13658334
0.08322783 0.11841174 -0.15748487 -0.1177916 0.05201274 0.090505965 0.12989575 -0.07351756
-0.023395255 0.10659775 0.08893497 0.09132136 0.12108714 0.10777965 -0.04655956 -0.11375499
-0.13658209 -0.010622813 -0.07257608 -0.03852174 0.07300507 -0.023767615 0.07925844 -0.085270576
-0.07101005 -0.022781566 -0.043977436 -0.10996132 0.12523217 -0.03441779 -0.11694994 0.016423242
0.10509727 -0.0075603086 -0.02670311 0.13809873 0.08838993 0.09500689 0.13645671 0.09955698
0.0009085319 0.091866136 0.050488472 -0.029668892 0.14028384 0.01803693 0.094486296 -0.027246129
-0.015173256 0.09754385 -0.037318345 -0.10422582 -0.011643024 -0.13258845 0.109926715 -0.024731878
-0.088180065 -0.10661371 -0.0333461 0.005632411 0.12419713 -0.008487089 0.0042916946 0.13753445
-0.13637856 0.11966869 0.023959132 -0.041641608 -0.11145694 -0.017075598 -0.034175806 -0.07325971
0.054846246 -0.13762444 -0.030697362 0.0002391024 0.07624172 -0.09632966 -0.1206297 -0.026714014
-0.071275726 -0.03912948 0.066472 -0.13391586 -0.1265041 0.060739815 0.11995957 -0.10228543
0.13388816 -0.0009506788 0.028153643 -0.027706333 0.094887964 0.016834516 -0.11417293 -0.029774785
0.12077622 0.0037243261 0.082178116 -0.121949024 -0.12028578 0.06109634 -0.06447469 -0.12842344
0.100634724 0.11372964 0.012083915 0.11804792 0.023622375 0.017219827 0.14062579 0.12998596
-0.0035706575 0.08887604 -0.06635492 0.032961804 -0.11699809 0.112247914 0.11031938 0.020555785

recurrent.weight_hh_l0 f4 [256, 64]
00000000: 8073 f9bd 13c9 64bd a757 9dbd a8ec aa3d
00000010: 85a9 033d 7306 5d3d 4961 163d 5745 cc3d
00000020: 9f0d ec3d 0fa4 01bd 8958 e13d c62b cebd
00000030: f90a 1cbd 048d 9c3d 806b 8a3d ef06 2039
00000040: 0574 8bbc f22c 5bbd 4b66 e43d ad4c 3cbc
00000050: af25 aabd ca54 8d3c c09d 8a3c e960 9d3a
00000060: 53ce b7bd 0c33 833d 2093 1abc 0d99 973a
00000070: 8a3d 98ba 07ae a8bd efcb eabb 36e6 08bd
00000080: eb64 bdbc fe1f bcbd 6313 96bc 6083 afbd
00000090: 884e be3d c2d2 13bd fdbe e5bd 4ef0 ebbb
000000a0: 3358 09ba e73e 093d 7f27 dbb9 bceb 26bd
000000b0: 69a1 bfbd 6243 033d ab85 86bc 264c 53bd
000000c0: 7c7d cf3d a14d 10ba ea8a 4abd f951 6fbd
000000d0: fb87 3b3d ace8 933d a766 aabd 2be3 9f3b
000000e0: d594 293d 26c3 d8bd ee77 b1bd 3d83 843d
000000f0: 4db2 ee3d 6a7b ec3d 1bed b33c f66d 683d
00000100: 28c4 6fbd 05af 8e3d 844b b63c bcc0 cdbc
00000110: c6b0 743b bf57 d53c 6c6c 493c 8904 ddbd
00000120: 9e4e da37 23a9 e4bd f7c7 d2bd 5750 d93d
00000130: 26fe 3dbc 9697 30bc d914 f03d fec2 a3bc
00000140: 59f5 b03d b325 b8bd efc4 b73c b96a 903d
00000150: 2846 f23d 9d16 d7bd cf79 a6bd ac44 68bd
00000160: 6bbc 55bd 54df d23c a3fb a0bd 6425 80bd
00000170: b76f aa3d 77a8 39bd 1406 e0bc 74b7 a9bd
00000180: 349b 1eb9 7ca5 8c3d fc7f c23c 87d7 ea3d
00000190: b967 c0bd 2f0e af3d 44e5 933d 49d1 8c3d
000001a0: 7e60 babd 94c0 47bd bf5b af3a 9a45 4dbb
000001b0: c6c1 0c3d ce75 3bbd a0ea 91b9 6cf7 a23d
000001c0: dccc 0aba 903f a63d c25a f1bc cb41 3bbd
000001d0: fcf9 9bbd 9840 bbbd c0c1 21bb 23bf b43c
000001e0: d77a a43b e0f3 b43d 59b8 20bc 3fdf a1bd
000001f0: ec8a cbbd e599 8bbd d34a 613d e5f8 bebc
00000200: 706f 253a e927 c2bd dd76 ee3c 5287 a13d
00000210: 237a 663d 1611 1d3c 08bd d0bb b4b9 873d
00000220: 947d d03d a906 0eba e47d b0bd 1aeb 993d
00000230: 5e17 08ba 35b8 a03b 9acf 4dbd 29bf 36bc
00000240: c6ed 6dbd f8ef 9cbc 6ba4 143c f2f6 35bd
00000250: 293f a13a 183b 8cbd 3e68 f83c 7426 03bc
00000260: f03b ce3d 2ae9 2c3d 5bf0 89bd ffb5 e3bc
00000270: ffcc 6b39 df37 8c3d 0f91 e73d 9679 673d
00000280: 9f4e 703c 572d c6bd fc0c 543c 5a18 f33d
00000290: 783a 733d 3bc6 7c3a 4433 f2bc 0e09 07bd
000002a0: e463 bcbd e2ab d3b8 02ba e8bc 108e b83d
000002b0: a3b4 92bd 7c2f ddbd 3524 c73c 7026 2e3d
000002c0: c635 f7bd 0963 f8bd c18f 7e3d e19a 803d
000002d0: 9457 b83c 202c f6bb 694d d33d 2276 7fbd
000002e0: 4017 023d 6fd7 c4bd 6af6 683d 1e1d 83bc
000002f0: 60fb 43bd 8122 b7bc 2349 d7ba 2c25 033c
00000300: 15d9 903d 67ac 433d 47e3 b0bd b525 883d
00000310: 5780 d5bc 81cc 933d 55ba e4bc b716 f6b9
00000320: dae7 e33c 966c 403c 7834 8c3c 5fb9 2fbd
00000330: d662 3b3d 23dc adbd 7027 093d db6c f6bd
00000340: 6a5c 57bd 34d3 b9bc edaf 363d b925 363d
00000350: 108d 9c3d 3343 b8ba 9b27 e73d 746a d0bd
00000360: 48fa 0ebd d780 c1bd 6f51 a23d 04b2 993d
00000370: 6f5e 1ebc 81d1 baba 7884 843d ddc1 c73d
00000380: 7de8 30bd 99e6 adba f798 c73d dd1c 053a
00000390: c627 fc3d 4065 9cbd c904 47bd b933 03bc
000003a0: 747a 7a3d 7b0e 8abd bd29 9ebc 450f 883d
000003b0: 0e1c d83c 5e22 163b 96e2 f03d 813c d8bc
000003c0: d105 b8bd fa53 ad3d bdc1 4bbc 779c 34bd
000003d0: 2ad5 66bb 2aaa 41bd 1518 7a3d bf98 81bd
000003e0: ac09 9dbd 70bf c5bd 8acf abbd a549 b83a
000003f0: d9c2 f5bd 9990 ae3a d2d6 fa3d d9a7 ed3d
-0.12180233 -0.05585582 -0.07682734 0.0834592 0.03214409 0.05396123 0.036713872 0.09974163
0.115260355 -0.0316506 0.11003215 -0.10066943 -0.0380964 0.07644084 0.06758785 0.00015261372
-0.017023096 -0.05350966 0.11152323 -0.01149289 -0.08307969 0.017252345 0.016920924 0.0012007031
-0.089749 0.06406221 -0.009434491 0.0011565998 -0.001161502 -0.08236318 -0.007165424 -0.03342267
-0.02311941 -0.091857895 -0.018319791 -0.0856998 0.092923224 -0.036089666 -0.11218069 -0.0072002774
-0.0005239278 0.033507254 -0.00041800362 -0.040752158 -0.093569584 0.032046683 -0.01642116 -0.051586293
0.10131356 -0.00055047317 -0.049448885 -0.058427785 0.045783978 0.07222113 -0.08320361 0.0048793755
0.041401703 -0.105840966 -0.08665453 0.06470344 0.11655102 0.11546977 0.021963647 0.056745492
-0.05853668 0.06966976 0.022252806 -0.025116317 0.003733681 0.026042817 0.012293916 -0.10791881
2.6024234e-05 -0.11165073 -0.102920465 0.10611027 -0.011596238 -0.010778328 0.117227264 -0.01999044
0.08640546 -0.089915656 0.022432772 0.07051606 0.118297875 -0.1050236 -0.08128702 -0.056706116
-0.052181643 0.025741257 -0.07860496 -0.06257132 0.08322089 -0.045326676 -0.027346648 -0.08286944
-0.00015125872 0.06867501 0.023742668 0.1146689 -0.093947835 0.08547627 0.07221463 0.068758555
-0.09100436 -0.04876764 0.0013378783 -0.0031322003 0.034364484 -0.045766644 -0.00027831364 0.07957348
-0.00052948087 0.08117592 -0.029462222 -0.045717042 -0.0761604 -0.0914318 -0.0024682134 0.022063797
0.0050195265 0.08835578 -0.009809577 -0.07903909 -0.099386066 -0.068164624 0.055003 -0.023312042
0.0006310856 -0.094802685 0.029109413 0.078871384 0.056268822 0.009586593 -0.0063701905 0.06627217
0.10180202 -0.00054178626 -0.08617762 0.07515545 -0.000519147 0.0049047717 -0.050246812 -0.011153975
-0.058088087 -0.019157395 0.009072403 -0.04442496 0.0012302148 -0.06847209 0.030323144 -0.008004773
0.10070026 0.04221455 -0.06735297 -0.027796743 0.00022487713 0.06846594 0.113069646 0.056512438
0.014667182 -0.09676617 0.012942549 0.11869879 0.059381932 0.0009642576 -0.029565461 -0.03296762
-0.0919874 -0.0001009328 -0.028409008 0.09011471 -0.0716336 -0.108000726 0.024309257 0.042517126
-0.12070803 -0.121282645 0.062148813 0.06279541 0.022502698 -0.0075125843 0.10317499 -0.06236852
0.031760454 -0.09611403 0.056875624 -0.016005095 -0.04784715 -0.02235532 -0.0016424995 0.008004468
0.07072655 0.047771838 -0.086371 0.06647817 -0.026062174 0.072167404 -0.027920881 -0.000469377
0.027820516 0.011744639 0.017114863 -0.042901393 0.045748554 -0.08489253 0.033484876 -0.12032481
-0.052578367 -0.022683717 0.04460137 0.04446957 0.07644093 -0.0014058113 0.11286851 -0.10176554
-0.034906656 -0.094484024 0.079256885 0.07504657 -0.009666069 -0.0014253111 0.06470579 0.09753773
-0.043190468 -0.0013267576 0.097459726 0.00050778483 0.12312274 -0.076364994 -0.048588548 -0.008007937
0.061151937 -0.06741043 -0.019307012 0.066435374 0.026380565 0.0022908668 0.11761968 -0.026396038
-0.089854844 0.08463283 -0.0124363275 -0.04409453 -0.003522227 -0.04728142 0.061058123 -0.06327962
-0.076678604 -0.096556544 -0.08389194 0.0014060034 -0.12000055 0.001331824 0.12248005 0.1160428

recurrent.bias_ih_l0 f4 [256]
00000000: e0dd 363a a786 073c 9692 fc3b b646 143c
00000010: 1038 a6ba 72f8 d13b 86cd fc3b de14 beba
00000020: 2346 083c 5cfe ba3b 7e00 a7ba d397 0b3b
00000030: f3a5 2e3c 7c85 da3b 7c64 413c 128a 393c
00000040: afcb 123c a1dd 003c 9d97 923b 27e5 cc3b
00000050: 46df f3b8 333c 0b3c d1b7 053c 85b2 e93b
00000060: 8030 1f3c f413 48bb 9649 f53b 9f49 203c
00000070: 29b6 283b 742f ddbb 60c7 13bc f7d4 96bb
00000080: 8a91 343c d326 59bb 74e1 15bc 6e76 1b3c
00000090: 9bb1 fd3b 15ed 163c d563 083c a1a4 c23b
000000a0: 2826 fbba f427 193c 71e7 0bbc e074 153c
000000b0: cfbf 073c cf84 a63b dd93 9bbb f4c5 293c
000000c0: 4e98 aabb 6036 d3bb b151 33bc 0af0 483b
000000d0: b591 473b b13a 303c 8ed1 e23b 8826 153c
000000e0: 9b29 fdbb e803 143c 5c85 bc3b 2c0e 813b
000000f0: f8fa 0f3c c72e f6bb 3bd3 0a3c cf32 393c
00000100: 0000 0000 0000 0000 0000 0000 0000 0000
00000110: 0000 0000 0000 0000 0000 0000 0000 0000
00000120: 0000 0000 0000 0000 0000 0000 0000 0000
00000130: 0000 0000 0000 0000 0000 0000 0000 0000
00000140: 0000 0000 0000 0000 0000 0000 0000 0000
00000150: 0000 0000 0000 0000 0000 0000 0000 0000
00000160: 0000 0000 0000 0000 0000 0000 0000 0000
00000170: 0000 0000 0000 0000 0000 0000 0000 0000
00000180: 0000 0000 0000 0000 0000 0000 0000 0000
00000190: 0000 0000 0000 0000 0000 0000 0000 0000
000001a0: 0000 0000 0000 0000 0000 0000 0000 0000
000001b0: 0000 0000 0000 0000 0000 0000 0000 0000
000001c0: 0000 0000 0000 0000 0000 0000 0000 0000
000001d0: 0000 0000 0000 0000 0000 0000 0000 0000
000001e0: 0000 0000 0000 0000 0000 0000 0000 0000
000001f0: 0000 0000 0000 0000 0000 0000 0000 0000
00000200: a4b9 07bc fc38 263c 3dd3 f6bb 5255 de3b
00000210: 7da0 03bc 46df e9bb 7b6c 7a3b da29 133c
00000220: d5af b7bb 64c2 0ebb beb9 3bbc c329 a6bb
00000230: e04e 0abc a0bb 68bb b2db 0a3c 2ac0 e2bb
00000240: 342e a1bb 6a67 bbbb cca6 68bb 4e22 b33b
00000250: 7267 9f3b 9eb6 403b 8620 4d3a 5dc4 0bbc
00000260: 537a e5bb 79ba 273c 3ef5 923a ad0f 013c
00000270: 46dc abbb 0303 0fbc fc35 2db8 eda9 d538
00000280: 12ca 253c 049c 2f3c 112e eaba 3044 5d3b
00000290: 445f 8c3b f2db 9c3b 8d81 22bc 95bb 05bc
000002a0: 3af8 0dbc ac48 4a3b ce15 b63a e7ad f73b
000002b0: a7f3 333c 62a4 e43b 4486 073c 24f8 1e3c
000002c0: 6702 ecba 5bf4 e6bb c768 db3b 21b0 5dbb
000002d0: 64d9 34bb edd2 733b 5717 0cbc e47e 183c
000002e0: e05a cf3b a298 43bb 5344 103c f73b 97ba
000002f0: 80ba 323c e661 0abc 5494 29bc cc2b 09bc
00000300: 2cf3 0f3b 055c c33b 11db f03b 6265 3a3c
00000310: d8bb bebb bc78 0e3c 1a87 233c c678 a1bb
00000320: 12c0 3c3c ad2a 953b dc20 1fba cc2b 8cba
00000330: 4498 433c ba5e 0f3c 8ca6 3d3c 9fbf 3a3c
00000340: 3912 193c 208f 353c cecc 0b3c d272 d23b
00000350: 6734 d1b9 395f 783b 7abb 293c 89de 9a3b
00000360: 5b79 413c 0979 07bc 35ac 483b 117d 353c
00000370: 8996 0f3c ddf3 b3bb f6d2 1dbc 7a2e 2e3b
00000380: 0e05 143c 3794 9db9 d7ad 27bc e92a 103c
00000390: 0815 d83b 5277 0f3c 9e79 4d3b 3998 2e3c
000003a0: 3147 d1b6 268a 153c 74d0 0bbc 5383 ae3b
000003b0: 678f ed3b b765 403c b5a2 8ebb c32f 323c
000003c0: a9f7 a5bb e511 ecbb ee63 32bc 209f 643b
000003d0: 5e6c ca3b 6737 fb3b 0ab1 343c d02e 343c
000003e0: 8daf 10bc 577f 3e3c 6868 2a3c 9e4b 683b
000003f0: d995 443c 148f 0fbc 2818 013c d261 173c
0.0006975811 0.00827185 0.007707904 0.009050062 -0.0012681503 0.006407791 0.00771493 -0.0014502069
0.008317503 0.0057065915 -0.0012741236 0.002130021 0.010659683 0.0066687446 0.0118037425 0.011324422
0.008959695 0.00786534 0.00447364 0.006252903 -0.00011628731 0.008498239 0.008161501 0.007131877
0.009716153 -0.003052947 0.007485579 0.009783178 0.0025743342 -0.0067500416 -0.009019703 -0.004603024
0.011021027 -0.0033134713 -0.0091479905 0.009488685 0.0077421195 0.009211798 0.008324583 0.0059400355
-0.0019161152 0.0093479045 -0.008539067 0.009122103 0.008285477 0.00508175 -0.0047478513 0.010362137
-0.0052061444 -0.006445691 -0.01094477 0.0030660653 0.0030451838 0.010756181 0.0069219535 0.009103425
-0.007725907 0.009034134 0.0057532024 0.003938457 0.008787863 -0.0075129005 0.008473213 0.011303618
0.0 0.0 0.0 0.0 0.0 0.0 0.0 0.0
0.0 0.0 0.0 0.0 0.0 0.0 0.0 0.0
0.0 0.0 0.0 0.0 0.0 0.0 0.0 0.0
0.0 0.0 0.0 0.0 0.0 0.0 0.0 0.0
0.0 0.0 0.0 0.0 0.0 0.0 0.0 0.0
0.0 0.0 0.0 0.0 0.0 0.0 0.0 0.0
0.0 0.0 0.0 0.0 0.0 0.0 0.0 0.0
0.0 0.0 0.0 0.0 0.0 0.0 0.0 0.0
-0.008284006 0.010145422 -0.007532506 0.0067850733 -0.008033869 -0.007137212 0.0038211632 0.008982146
-0.0056056776 -0.0021783346 -0.011457859 -0.0050708964 -0.008441657 -0.0035512224 0.008475231 -0.0069198804
-0.004918838 -0.005719115 -0.003549981 0.005466736 0.0048646266 0.0029405723 0.0007824976 -0.008530703
-0.0070031076 0.01023733 0.0011212004 0.007877273 -0.0052447645 -0.008728745 -4.129669e-05 0.000101882826
0.010118978 0.010718349 -0.0017866512 0.0033762567 0.0042838175 0.0047869617 -0.009918583 -0.008162399
-0.008665139 0.003086607 0.0013891996 0.0075585726 0.010983384 0.006977604 0.0082717575 0.009702716
-0.0018006087 -0.0070481724 0.00669584 -0.0033826905 -0.0027595395 0.003720458 -0.0085504865 0.009307597
0.006327972 -0.0029845615 0.008805352 -0.0011538257 0.010908723 -0.008446192 -0.010350306 -0.008372258
0.002196501 0.0059618973 0.0073503335 0.011376711 -0.0058207326 0.0086957775 0.009980941 -0.0049277274
0.0115204025 0.0045522065 -0.0006070265 -0.0010694205 0.011938158 0.008750612 0.011575352 0.011398225
0.0093427235 0.011081487 0.008532716 0.006422379 -0.0003990263 0.0037898554 0.010359639 0.0047262353
0.011808719 -0.008268603 0.0030620222 0.011077181 0.008763918 -0.0054917173 -0.009632817 0.0026577995
0.009034408 -0.00030055802 -0.010234318 0.008799293 0.006594304 0.0087564755 0.0031353007 0.01065641
-6.236973e-06 0.009127175 -0.008533586 0.0053257137 0.007249761 0.011743001 -0.0043528923 0.010875645
-0.005064924 -0.0072042816 -0.010888083 0.0034884885 0.006177469 0.0076665166 0.0110285375 0.010997489
-0.008830917 0.01162704 0.010400869 0.0035445462 0.011998617 -0.00876214 0.007879294 0.009239631

recurrent.bias_hh_l0 f4 [256]
00000000: e0dd 363a a786 073c 9692 fc3b b646 143c
00000010: 1038 a6ba 72f8 d13b 86cd fc3b de14 beba
00000020: 2346 083c 5cfe ba3b 7e00 a7ba d397 0b3b
00000030: f3a5 2e3c 7c85 da3b 7c64 413c 128a 393c
00000040: afcb 123c a1dd 003c 9d97 923b 27e5 cc3b
00000050: 46df f3b8 333c 0b3c d1b7 053c 85b2 e93b
00000060: 8030 1f3c f413 48bb 9649 f53b 9f49 203c
00000070: 29b6 283b 742f ddbb 60c7 13bc f7d4 96bb
00000080: 8a91 343c d326 59bb 74e1 15bc 6e76 1b3c
00000090: 9bb1 fd3b 15ed 163c d563 083c a1a4 c23b
000000a0: 2826 fbba f427 193c 71e7 0bbc e074 153c
000000b0: cfbf 073c cf84 a63b dd93 9bbb f4c5 293c
000000c0: 4e98 aabb 6036 d3bb b151 33bc 0af0 483b
000000d0: b591 473b b13a 303c 8ed1 e23b 8826 153c
000000e0: 9b29 fdbb e803 143c 5c85 bc3b 2c0e 813b
000000f0: f8fa 0f3c c72e f6bb 3bd3 0a3c cf32 393c
00000100: 0000 0000 0000 0000 0000 0000 0000 0000
00000110: 0000 0000 0000 0000 0000 0000 0000 0000
00000120: 0000 0000 0000 0000 0000 0000 0000 0000
00000130: 0000 0000 0000 0000 0000 0000 0000 0000
00000140: 0000 0000 0000 0000 0000 0000 0000 0000
00000150: 0000 0000 0000 0000 0000 0000 0000 0000
00000160: 0000 0000 0000 0000 0000 0000 0000 0000
00000170: 0000 0000 0000 0000 0000 0000 0000 0000
00000180: 0000 0000 0000 0000 0000 0000 0000 0000
00000190: 0000 0000 0000 0000 0000 0000 0000 0000
000001a0: 0000 0000 0000 0000 0000 0000 0000 0000
000001b0: 0000 0000 0000 0000 0000 0000 0000 0000
000001c0: 0000 0000 0000 0000 0000 0000 0000 0000
000001d0: 0000 0000 0000 0000 0000 0000 0000 0000
000001e0: 0000 0000 0000 0000 0000 0000 0000 0000
000001f0: 0000 0000 0000 0000 0000 0000 0000 0000
00000200: a4b9 07bc fc38 263c 3dd3 f6bb 5255 de3b
00000210: 7da0 03bc 46df e9bb 7b6c 7a3b da29 133c
00000220: d5af b7bb 64c2 0ebb beb9 3bbc c329 a6bb
00000230: e04e 0abc a0bb 68bb b2db 0a3c 2ac0 e2bb
00000240: 342e a1bb 6a67 bbbb cca6 68bb 4e22 b33b
00000250: 7267 9f3b 9eb6 403b 8620 4d3a 5dc4 0bbc
00000260: 537a e5bb 79ba 273c 3ef5 923a ad0f 013c
00000270: 46dc abbb 0303 0fbc fc35 2db8 eda9 d538
00000280: 12ca 253c 049c 2f3c 112e eaba 3044 5d3b
00000290: 445f 8c3b f2db 9c3b 8d81 22bc 95bb 05bc
000002a0: 3af8 0dbc ac48 4a3b ce15 b63a e7ad f73b
000002b0: a7f3 333c 62a4 e43b 4486 073c 24f8 1e3c
000002c0: 6702 ecba 5bf4 e6bb c768 db3b 21b0 5dbb
000002d0: 64d9 34bb edd2 733b 5717 0cbc e47e 183c
000002e0: e05a cf3b a298 43bb 5344 103c f73b 97ba
000002f0: 80ba 323c e661 0abc 5494 29bc cc2b 09bc
00000300: 2cf3 0f3b 055c c33b 11db f03b 6265 3a3c
00000310: d8bb bebb bc78 0e3c 1a87 233c c678 a1bb
00000320: 12c0 3c3c ad2a 953b dc20 1fba cc2b 8cba
00000330: 4498 433c ba5e 0f3c 8ca6 3d3c 9fbf 3a3c
00000340: 3912 193c 208f 353c cecc 0b3c d272 d23b
00000350: 6734 d1b9 395f 783b 7abb 293c 89de 9a3b
00000360: 5b79 413c 0979 07bc 35ac 483b 117d 353c
00000370: 8996 0f3c ddf3 b3bb f6d2 1dbc 7a2e 2e3b
00000380: 0e05 143c 3794 9db9 d7ad 27bc e92a 103c
00000390: 0815 d83b 5277 0f3c 9e79 4d3b 3998 2e3c
000003a0: 3147 d1b6 268a 153c 74d0 0bbc 5383 ae3b
000003b0: 678f ed3b b765 403c b5a2 8ebb c32f 323c
000003c0: a9f7 a5bb e511 ecbb ee63 32bc 209f 643b
000003d0: 5e6c ca3b 6737 fb3b 0ab1 343c d02e 343c
000003e0: 8daf 10bc 577f 3e3c 6868 2a3c 9e4b 683b
000003f0: d995 443c 148f 0fbc 2818 013c d261 173c
0.0006975811 0.00827185 0.007707904 0.009050062 -0.0012681503 0.006407791 0.00771493 -0.0014502069
0.008317503 0.0057065915 -0.0012741236 0.002130021 0.010659683 0.0066687446 0.0118037425 0.011324422
0.008959695 0.00786534 0.00447364 0.006252903 -0.00011628731 0.008498239 0.008161501 0.007131877
0.009716153 -0.003052947 0.007485579 0.009783178 0.0025743342 -0.0067500416 -0.009019703 -0.004603024
0.011021027 -0.0033134713 -0.0091479905 0.009488685 0.0077421195 0.009211798 0.008324583 0.0059400355
-0.0019161152 0.0093479045 -0.008539067 0.009122103 0.008285477 0.00508175 -0.0047478513 0.010362137
-0.0052061444 -0.006445691 -0.01094477 0.0030660653 0.0030451838 0.010756181 0.0069219535 0.009103425
-0.007725907 0.009034134 0.0057532024 0.003938457 0.008787863 -0.0075129005 0.008473213 0.011303618
0.0 0.0 0.0 0.0 0.0 0.0 0.0 0.0
0.0 0.0 0.0 0.0 0.0 0.0 0.0 0.0
0.0 0.0 0.0 0.0 0.0 0.0 0.0 0.0
0.0 0.0 0.0 0.0 0.0 0.0 0.0 0.0
0.0 0.0 0.0 0.0 0.0 0.0 0.0 0.0
0.0 0.0 0.0 0.0 0.0 0.0 0.0 0.0
0.0 0.0 0.0 0.0 0.0 0.0 0.0 0.0
0.0 0.0 0.0 0.0 0.0 0.0 0.0 0.0
-0.008284006 0.010145422 -0.007532506 0.0067850733 -0.008033869 -0.007137212 0.0038211632 0.008982146
-0.0056056776 -0.0021783346 -0.011457859 -0.0050708964 -0.008441657 -0.0035512224 0.008475231 -0.0069198804
-0.004918838 -0.005719115 -0.003549981 0.005466736 0.0048646266 0.0029405723 0.0007824976 -0.008530703
-0.0070031076 0.01023733 0.0011212004 0.007877273 -0.0052447645 -0.008728745 -4.129669e-05 0.000101882826
0.010118978 0.010718349 -0.0017866512 0.0033762567 0.0042838175 0.0047869617 -0.009918583 -0.008162399
-0.008665139 0.003086607 0.0013891996 0.0075585726 0.010983384 0.006977604 0.0082717575 0.009702716
-0.0018006087 -0.0070481724 0.00669584 -0.0033826905 -0.0027595395 0.003720458 -0.0085504865 0.009307597
0.006327972 -0.0029845615 0.008805352 -0.0011538257 0.010908723 -0.008446192 -0.010350306 -0.008372258
0.002196501 0.0059618973 0.0073503335 0.011376711 -0.0058207326 0.0086957775 0.009980941 -0.0049277274
0.0115204025 0.0045522065 -0.0006070265 -0.0010694205 0.011938158 0.008750612 0.011575352 0.011398225
0.0093427235 0.011081487 0.008532716 0.006422379 -0.0003990263 0.0037898554 0.010359639 0.0047262353
0.011808719 -0.008268603 0.0030620222 0.011077181 0.008763918 -0.0054917173 -0.009632817 0.0026577995
0.009034408 -0.00030055802 -0.010234318 0.008799293 0.006594304 0.0087564755 0.0031353007 0.01065641
-6.236973e-06 0.009127175 -0.008533586 0.0053257137 0.007249761 0.011743001 -0.0043528923 0.010875645
-0.005064924 -0.0072042816 -0.010888083 0.0034884885 0.006177469 0.0076665166 0.0110285375 0.010997489
-0.008830917 0.01162704 0.010400869 0.0035445462 0.011998617 -0.00876214 0.007879294 0.009239631

recurrent.weight_ih_l1 f4 [256, 64]
00000000: a09d 243d 4e18 25bd 273d 613d 154f b63b
00000010: 809d cebc 30cf 81bd 699f 59bb 944b 393d
00000020: 9522 00be 2d74 db3d 19e4 963d 3e22 cdbb
00000030: 6ab1 bd3d e75a a33c 47c9 f93d 3d1b d53d
00000040: ddb8 923d b03c c9bd bc03 d73d 4f63 31bd
00000050: dd6f 7dbd 4557 a0bb b93a f23d f71f b6bc
00000060: 5b50 513d 54bb aabd 623e fd3c f323 9e3d
00000070: 6fbf 9b3d 30ef f53d 895b 853d 0b7d e43d
00000080: ea80 e83c 4282 243d 4f77 77bd 76b3 fa3c
00000090: 8e71 65bd 1c89 d5bd 778a f33d e86e 20bc
000000a0: 856f 26bd 6781 003d aa6f f03d 4291 113b
000000b0: c2b6 c9bd 8a34 bebc 8d2a 59ba 15d1 d1bd
000000c0: bce2 dc3d d16a f0bd 332f 653d 6eb4 813d
000000d0: 8604 c7bd 90bc 22bd 6b27 dcbc 1ae4 913d
000000e0: 340e c73c 6428 6a3d d07d 1b3d 19b2 98bd
000000f0: 2e62 3cbd 7f79 a1bd 14ce 51bd 1f4c 14bd
00000100: bb1a 9f3d c127 ccbd 6cbc 91bd eb65 843d
00000110: 1040 6e3d f6d0 49bd 9272 64bc d501 e3bd
00000120: 6864 72bd ca64 04bc db23 8d3d a630 f2bd
00000130: 7896 8e3c 0e61 acbd 0091 593c 003c 35bd
00000140: 1be8 bbba 1d42 7cbd fc60 cb3d a874 d73b
00000150: 7648 eb3d 104b 9fbd 06cd 98bd d0c2 993d
00000160: 8712 803d 469d d8bd 99e4 9ebc f120 f23d
00000170: 73e9 673d bc57 db3c e5bd 1d3b a087 2fbd
00000180: 8ded 86bc af9d c83c acac 973d b29b aabd
00000190: 0c9f a0bd cbdf 9d3d e35e da3d 60ea 833b
000001a0: 82aa 783d ece7 f5bd 53a0 b2bd 7105 103d
000001b0: ff38 8e3d f8a2 a5bd 12a6 57bd 7567 cbbd
000001c0: f132 2e3d dde8 7b3d 2112 97bd de41 71bc
000001d0: 8f55 db3d 596e 36bd 704d e93d 78ba 673d
000001e0: 7e4a dbbd ebac e0bd a139 4abd b42e c53c
000001f0: 784e 3e38 aa68 97bd f0c9 89bd b7ac f73d
00000200: aba0 35bc cd73 f2bd b502 faba 72f1 e13d
00000210: 87fe 00bc 81da 903d e456 64bd 852c a43d
00000220: 0ad3 72bd 9de7 d6bc 5c70 b1bd 55f2 993c
00000230: 8c6d 053e 04cb 823c 7fc9 953d 44c7 493d
00000240: 15a2 24bd 2d09 f4bc a008 bebd 1d9b c93d
00000250: e0ec 28bd 41d5 bdbd 701b 9d3b 3861 edbd
00000260: a31f 0a3d daf6 fc3d f644 e03c 51dd 1c3c
00000270: b683 683c b11a ddbd 9acf a4bd c680 963d
00000280: e98c ad3c cbc7 f63d 3459 163d e7b2 eabd
00000290: 5bee c0bd fb6e b0bd 697c 863d 670a ab3c
000002a0: 89c1 7f3d 5b35 33bc 9603 a2bc 69b2 8ebd
000002b0: ce95 0abd 8868 393d 2d82 b73d 9590 8abc
000002c0: 7379 1fbd a3f4 a7bd 6788 ff3c f002 773d
000002d0: ced8 a1bc 478e e6bd 4a08 693d cd19 7d3d
000002e0: 9cde c1bd 6441 abbd f60b e6bd 4081 97bd
000002f0: 82d2 05bd af1b fcba 37f7 d9bd 5580 af3d
00000300: 01fb 703d 1686 5cbd 5982 a7bd c4d3 1a3d
00000310: 29b3 12bd 18d0 cf3d caf8 b5bd c1aa 77bc
00000320: 6d05 d3bd 4fcc 553d 20c9 a9bd a6c2 ed3d
00000330: 81f0 0d3d 59be cd3c b07e 103d 916c 193b
00000340: 4bf3 9dbd cda5 71bc e4b4 b7bd 38cb 9a3d
00000350: 8976 61bc 550f 2b3d 2cfb 683c c471 5ebc
00000360: 3c48 22bd 08d5 f0bd 610f cebd 1038 aebd
00000370: 6885 853d fdc5 d13d e63b e83d 2884 07bc
00000380: a94e b7bd 589f 05bc 8a63 d03c 50fb dc3c
00000390: 0a67 59bc f064 d5bd e09f 183d 3d16 48bd
000003a0: 3fea 95bb 3403 82bd ca93 01bd 5881 75bd
000003b0: 928c c1bd 6fa7 f0bd 5eeb 0cbd f906 7a3d
000003c0: 3560 a1bc e1d0 aebb fcff bd3c c38b ad3d
000003d0: d0ad 813d 74fa aa3d 76fb a43d b996 c73d
000003e0: e82f 9abd 3ab3 af3d 8d9a 373c c159 cd3d
000003f0: afc1 c63d d816 523d 0f7b ce3d 18fd 3b3d
0.040189385 -0.040306382 0.05498996 0.0055636265 -0.025221586 -0.06338346 -0.0033206588 0.045238093
-0.12513192 0.10715518 0.07367725 -0.0062601855 0.09262355 0.019940807 0.12196594 0.10405586
0.07164166 -0.09826028 0.10498759 -0.0433076 -0.06187426 -0.004893216 0.11827607 -0.022232039
0.051102024 -0.08336511 0.030913536 0.077217005 0.076048724 0.12008512 0.065115996 0.111566626
0.028381784 0.040163286 -0.060416516 0.030603152 -0.056016497 -0.10426542 0.118916444 -0.009792067
-0.040633697 0.031373408 0.11740048 0.0022211825 -0.098493114 -0.023218412 -0.00082842336 -0.10244957
0.10785434 -0.117391236 0.055953216 0.06333242 -0.0971766 -0.03973061 -0.026874265 0.07123585
0.024298765 0.057167426 0.03796178 -0.074558444 -0.04599207 -0.07884502 -0.051221922 -0.036205407
0.0776877 -0.0996852 -0.07116017 0.06464752 0.058166564 -0.049271546 -0.013943331 -0.11084334
-0.059177786 -0.008080671 0.068916045 -0.11825685 0.017405733 -0.08416949 0.0132792 -0.044246674
-0.0014336141 -0.061586488 0.09930608 0.006575186 0.1148843 -0.07777989 -0.0746098 0.07507861
0.06253534 -0.105768725 -0.019396113 0.11822689 0.05661912 0.026775233 0.0024069485 -0.04285395
-0.016470695 0.024489252 0.074059814 -0.08330478 -0.07842836 0.07708701 0.106626295 0.0040257424
0.060709484 -0.12007126 -0.08721986 0.03516144 0.06944465 -0.080877244 -0.05264861 -0.09931842
0.04252905 0.061501373 -0.07376505 -0.014725177 0.107096784 -0.04453883 0.11391723 0.056574315
-0.10707568 -0.109704815 -0.049371365 0.024070121 4.537261e-05 -0.0739301 -0.0672797 0.120934896
-0.0110856695 -0.118384935 -0.0019074293 0.1103238 -0.007873184 0.07072926 -0.055746928 0.08016304
-0.059283294 -0.026233489 -0.08664009 0.01879231 0.1303007 0.015965946 0.07313823 0.0492623
-0.040193636 -0.029789532 -0.09278989 0.09844039 -0.041241527 -0.092691906 0.0047945306 -0.11590809
0.033721577 0.12351771 0.027376633 0.00957425 0.014191559 -0.107961066 -0.08047409 0.0734878
0.021185355 0.12049826 0.036706164 -0.11459904 -0.09420463 -0.08614918 0.06566698 0.020878984
0.06244043 -0.010938014 -0.0197771 -0.06967623 -0.03383427 0.045265704 0.08960376 -0.016914645
-0.038934182 -0.082009576 0.031192971 0.060305536 -0.0197567 -0.11257606 0.05689267 0.061792184
-0.094662875 -0.08362082 -0.1123275 -0.07397699 -0.03267146 -0.0019234325 -0.106428556 0.08569399
0.058833126 -0.05383881 -0.08179159 0.03779961 -0.03581539 0.101471126 -0.088853434 -0.0151163945
-0.10303769 0.052196797 -0.08290315 0.11609392 0.03465319 0.025115179 0.03527707 0.0023410658
-0.0771242 -0.014749003 -0.08970049 0.07558292 -0.013761171 0.04176267 0.01422004 -0.0135769285
-0.03961967 -0.117593825 -0.10061527 -0.08506787 0.06519586 0.102428414 0.1133955 -0.008271255
-0.0895055 -0.008155666 0.025438089 0.026975304 -0.013269195 -0.10419643 0.037261844 -0.048849333
-0.0045750435 -0.06348267 -0.031635083 -0.059937805 -0.0945064 -0.117506854 -0.03440415 0.061041806
-0.019699195 -0.005334959 0.023193352 0.08473923 0.0633198 0.083485514 0.08055775 0.09745545
-0.07528669 0.08579107 0.011206281 0.10026885 0.09704911 0.051291317 0.10082065 0.045895666

recurrent.weight_hh_l1 f4 [256, 64]
00000000: ae00 4dbd 9ca8 683d c404 b8bd 14b9 32bb
00000010: 5687 f53c 985e 77b8 3782 57bc c0e6 fa39
00000020: 44ae d73d 8a7d fdbd 5adc b6bd 1dec 6bbd
00000030: cf2a 64bc 5988 aa3c 9c5d 243d bb28 313d
00000040: d45a 323d 8203 d1bd bfc1 bf3d c470 d6bc
00000050: 62dd ea3c cb5c cb3d 9a6d eabd ce2e 013d
00000060: 2b83 2cbd f0d3 c93c 6073 db3c 98f4 b8ba
00000070: 5933 213d 3285 db3d a27a ca3c 0eab f03d
00000080: aa4c 033d bcac a63d 03a0 c7bc e4e3 f039
00000090: 833c d4bd 6640 e5bd e0e0 fabd 6f73 f8bd
000000a0: de9b 72bc 12cf 73bd 73c6 d7bd 93a9 e7bd
000000b0: 5583 a9bd a9ba f53c 7c59 62bd dc30 75bd
000000c0: c065 b23d 5166 b8bb b9ab 663d c32f e53d
000000d0: 8c2f 3dbd cf68 d63c c26b 153d f545 ec3d
000000e0: f98c f33c 3c49 9abd 9781 9d3d 1de4 ff3c
000000f0: 5094 363d ac3e 013c caed 183d a03a e1bd
00000100: 5840 843d d7dc fdbd 8230 c5bd 5486 dd3d
00000110: af26 63bb 2fa6 21bd 0cd7 933c 10c1 b0bd
00000120: 7099 ffbc aa82 9a3d 6439 fa3d 20d8 853d
00000130: 936e 913d 0ba3 4a3d 6da7 973c 1f65 e4bd
00000140: 5ba9 af3d 2597 b7ba ccd8 74bd b046 873d
00000150: ebb5 b03b 3803 fb3d 9e43 083d 6a62 853d
00000160: 690f b8ba bb15 cdbd 6ab4 b73d 1a99 313d
00000170: bab0 8bbd eb87 b23a ee5e 9b3d 048a 64bd
00000180: 43d2 463d 5741 6bbc ff91 7dbc 3f02 fd3d
00000190: 813a 6c3d 452e ab3d c9de 9eb9 3d00 983a
000001a0: 4674 983a 7360 c63d 143c e0bd fb2c 4aba
000001b0: 2f08 ac3d 85f6 19bd bdb5 2fbc faca dfbd
000001c0: 840d cf3d c971 4e3a c649 98b8 d512 eabd
000001d0: e8b5 9fbd 044e 31bd 80df 263d 4970 cabd
000001e0: 0c35 fbbd 6c48 8abc cb7c caba 3639 c5bd
000001f0: e07f b83a e893 f8bd 0043 e6bd 8847 133c
00000200: 4ec2 c83d 6002 e9bd 8a32 67bb c534 263d
00000210: a083 d3bd 549e b5bd fed3 cebc 26ea f83d
00000220: 6740 f93d fc15 dbbd e170 9bbd 2b41 833d
00000230: 9511 d33d c2c5 83b8 9dd4 94bd aed1 b63d
00000240: ee2b 653d 5aae 16bd 7563 4abd 1db4 f5bd
00000250: 3ce6 673d ad48 dcbd 6ad4 debc fb3d 903d
00000260: 69d5 8bbd e577 a13a b13a 88bc 2610 40bd
00000270: 43d7 4e3d 110a cabc eba8 edbd 5b50 993c
00000280: ec11 2fbc 5988 d43d ac52 9e3c a261 80bd
00000290: 30af e23d a390 18bc cfb2 f339 89e3 da3d
000002a0: bbc3 f13d 2c3b 993d 4883 2cbd eb80 dabd
000002b0: 88f8 ef3d 9db7 493c 7657 f2bd c77d e53d
000002c0: 516a 74ba 192b 6cbc 9ac6 893d ce1c c23d
000002d0: a026 c7bd b4fd ae3d 74d7 e83d afcd d93d
000002e0: 4f29 183d bd34 5ebc d16c e3bd 79e5 3c3d
000002f0: 76ca 013d 3580 c03d 56b4 ccbd a934 c139
00000300: bb06 e7bb b82d 20bd 6b49 2dbd 9400 6abd
00000310: 3a2e b83a e83c c33d c4c7 ba3d da7d b2bc
00000320: d985 9a3d d1a7 78bd cd7f 5ebd 1e66 cabd
00000330: 0d28 183d 32e3 8d3d de06 833a ad3a 29bd
00000340: 5474 c8bd 96cc 5d3c 8f5e b2bc 75d1 153c
00000350: 5756 c43d 4256 21bd 2fe4 82bd afad 6abd
00000360: 8974 a4bd b16f 1bbd 3434 ebbd 5cbf 8e3d
00000370: 546b f13d 05c0 edbd 22f7 33bd 618a fa3d
00000380: e1d3 bcbd e6c9 6b3d e433 32b8 ea5f dc3d
00000390: 6e8c e33d dd2b a0bd 59b1 aabd 5b11 86bc
000003a0: a026 723c ac1b 20bd 8dd1 c73d 10c5 d03d
000003b0: 8470 843c 9fbf 1b37 2044 d4bd f09b b83d
000003c0: 590a b2ba b01e 91bd 2e29 923c 59a4 b23d
000003d0: 00ac b73d e149 803d 0a8a 66bd 1c06 623d
000003e0: f2b2 79bc 26c6 db3d b224 8c3b aeaa 46bd
000003f0: af71 4a3d 32fd af37 2df8 c03a 9505 02ba
-0.050049476 0.056801423 -0.08985284 -0.002727096 0.02997176 -5.8977486e-05 -0.013153604 0.00047855638
0.105312854 -0.1237746 -0.089287475 -0.057598222 -0.013926222 0.020816969 0.040128335 0.043251734
0.04354365 -0.10205747 0.09363126 -0.026176818 0.028670017 0.09929808 -0.11446686 0.031538777
-0.04211728 0.024637192 0.026788414 -0.001411098 0.03935561 0.10718764 0.024716679 0.11751376
0.032055534 0.08138415 -0.024368292 0.0004594616 -0.10363104 -0.11193924 -0.12249923 -0.12131392
-0.014807669 -0.05952365 -0.10535898 -0.113116406 -0.08277003 0.029996233 -0.05526112 -0.05986105
0.087108135 -0.0056274314 0.05631611 0.111907504 -0.046187922 0.026173024 0.03647972 0.11536781
0.029730307 -0.075334996 0.07690733 0.031236703 0.044575036 0.007888477 0.03733615 -0.1099751
0.06457585 -0.123956375 -0.09628393 0.10816637 -0.0034660508 -0.039465126 0.018046878 -0.08630574
-0.031201094 0.075444534 0.12217978 0.06535363 0.071011685 0.049471896 0.018512452 -0.111521
0.08577224 -0.0014006837 -0.059777066 0.066052794 0.00539278 0.12256473 0.03326761 0.065129116
-0.0014042679 -0.100139104 0.08969958 0.0433589 -0.06820817 0.0013620829 0.07586466 -0.055795684
0.048540365 -0.01435884 -0.015476703 0.12353944 0.05767298 0.083584346 -0.00030302096 0.0011596751
0.0011631332 0.09686365 -0.10948959 -0.0007712391 0.083999984 -0.037588615 -0.010724482 -0.109273866
0.1011 0.00078752317 -7.261666e-05 -0.11429373 -0.07798368 -0.043287292 0.04074049 -0.09884698
-0.12265977 -0.016880237 -0.0015448568 -0.09630053 0.0014076196 -0.12137586 -0.11243248 0.008989222
0.09802686 -0.11377406 -0.0035277926 0.04057767 -0.1032784 -0.08868089 -0.02524757 0.12154035
0.12170487 -0.106975526 -0.07589889 0.06408914 0.10306088 -6.283402e-05 -0.07267115 0.08926712
0.055950098 -0.03678737 -0.049411256 -0.119972445 0.056616053 -0.10756049 -0.027200896 0.07043072
-0.06827814 0.0012319057 -0.016629549 -0.0468904 0.05049826 -0.024663003 -0.11604484 0.018715074
-0.010685425 0.10377569 0.01932653 -0.06268622 0.110685706 -0.009311828 0.00046481795 0.1068793
0.11804911 0.07481989 -0.042117387 -0.106691204 0.117173254 0.012311843 -0.11833088 0.11205631
-0.00093237037 -0.014414572 0.06727333 0.0947815 -0.09724164 0.08544484 0.113692194 0.10634934
0.03714877 -0.0135623785 -0.111047395 0.04611728 0.031687222 0.093994536 -0.09995334 0.00036851063
-0.007050363 -0.0391061 -0.042306345 -0.057129458 0.0014051863 0.09533101 0.091201335 -0.021788526
0.07545061 -0.060706917 -0.0543211 -0.098827586 0.03714757 0.069281 0.0009996553 -0.041315723
-0.09787813 0.013537547 -0.021773605 0.009144177 0.095867805 -0.039388902 -0.06391179 -0.057294544
-0.0803004 -0.037948314 -0.11484566 0.06970093 0.11788049 -0.116088904 -0.043936856 0.12233425
-0.092201 0.057565592 -4.2486834e-05 0.10760482 0.11110769 -0.07820866 -0.08334608 -0.016365698
0.014779717 -0.03908889 0.097567655 0.10193837 0.016166933 9.283335e-06 -0.10364556 0.09014118
-0.0013583406 -0.07085931 0.017841902 0.08722753 0.08968353 0.06264091 -0.056283988 0.055181608
-0.015240418 0.10731153 0.0042768354 -0.048502617 0.049424823 2.0979529e-05 0.00147224 -0.0004959938

recurrent.bias_ih_l1 f4 [256]
00000000: f19c 0e3c 5a38 a93a e7c6 22bc 5d11 4a3c
00000010: 42d9 103c 7a1e 05bc 13e8 ec3b fa50 0c3c
00000020: 898f 343c e1be 343c 7555 353b 89e6 693b
00000030: a69b 343c 1521 323c e72d 5dbb 5d4d af3a
00000040: b3ba bc3a d097 6d3b e1ab 38ba 4856 1b3c
00000050: 8f5e c43a 8e29 133c c440 1b3c 8324 263c
00000060: 89c3 e03b 63b0 0ebc 7801 aebb 1e41 3f3c
00000070: 46b4 a9bb 9a89 0abb bcd0 ff3b fbed 2c3c
00000080: 0915 24bc eb6d 073c fd9a 323b 3da6 053c
00000090: a6cc 6dbb 218d 393c a17a 0bbb a502 2abc
000000a0: 14b3 9b3b 2815 03bc c521 f63b 4400 e83b
000000b0: 7d25 373c 13ef ceb9 cfa5 0f3c 41fa 3d3b
000000c0: 9cba 9f3b db69 ea3b eb48 d23b 4bc6 293c
000000d0: 4922 9b3b c1f0 dcbb 8fb3 423c ae5a 2b3c
000000e0: 2868 373c 1c6b 333b 3ba6 3e3b ffbe f33b
000000f0: 2864 4b3c 1e4b 0b3c df15 373c fc9e c9bb
00000100: 0000 0000 0000 0000 0000 0000 0000 0000
00000110: 0000 0000 0000 0000 0000 0000 0000 0000
00000120: 0000 0000 0000 0000 0000 0000 0000 0000
00000130: 0000 0000 0000 0000 0000 0000 0000 0000
00000140: 0000 0000 0000 0000 0000 0000 0000 0000
00000150: 0000 0000 0000 0000 0000 0000 0000 0000
00000160: 0000 0000 0000 0000 0000 0000 0000 0000
00000170: 0000 0000 0000 0000 0000 0000 0000 0000
00000180: 0000 0000 0000 0000 0000 0000 0000 0000
00000190: 0000 0000 0000 0000 0000 0000 0000 0000
000001a0: 0000 0000 0000 0000 0000 0000 0000 0000
000001b0: 0000 0000 0000 0000 0000 0000 0000 0000
000001c0: 0000 0000 0000 0000 0000 0000 0000 0000
000001d0: 0000 0000 0000 0000 0000 0000 0000 0000
000001e0: 0000 0000 0000 0000 0000 0000 0000 0000
000001f0: 0000 0000 0000 0000 0000 0000 0000 0000
00000200: 0e25 c83b de3b 8aba 0390 22bc f6e6 e4bb
00000210: 384b 0fbc aa79 23bc a900 eebb 89ea 1a3a
00000220: 112d 04bc 65e5 7f3b 3f91 86bb d6fc 033c
00000230: 929c fa3b c3b5 d0bb e49b 0a3c 5abe 34ba
00000240: 2721 9c3b 8006 f2bb 86f1 88bb 738e 01bb
00000250: cbfb 213b b852 21bc fcf9 793b efe7 103c
00000260: ca03 bf3a 7cd6 20bb 710c 9d3b 8a65 153c
00000270: b708 0a3c c0d2 c339 5e17 f33b dd22 c8bb
00000280: 92a6 14bc bf6b f63b 3984 21bc 719d 0a3c
00000290: bda1 053c beea cfbb fc7b bb3b 92f6 153c
000002a0: bc40 643b 15c0 17bc 4ff5 2ebc b46d a33b
000002b0: 61a7 253c f94d 10bc 1cef 8aba f17f 033c
000002c0: 83bb eebb 3656 0bbc 6931 183c 04cb 0f3c
000002d0: 0dcd 243c 3551 093c 2952 8abb 3505 17bb
000002e0: ce74 cd3b bab9 6dbb 6328 de3b a826 25bc
000002f0: 228f faba a581 1c3c 14b2 d83b d5c8 fcbb
00000300: b4b1 133c 2d23 973a c25d 20bc 5ae3 493c
00000310: a77b 0f3c 99d8 05bc 6d8b ec3b 927b 0b3c
00000320: 37e9 323c 69de 343c 1359 493b 1db1 3a3b
00000330: 4cb0 363c 6cb6 343c 1ae1 82bb 4ab8 c73a
00000340: a430 673b 3026 393b 33d3 88ba 1d73 1e3c
00000350: 0e5c 223b 035b 0b3c 9b59 133c e6c2 253c
00000360: b487 ef3b 0542 0dbc 716e a8bb 081c 3f3c
00000370: 0bed adbb 3d4d eeba 4f34 f33b 29da 2f3c
00000380: 29a2 23bc 2b95 083c 2b0f 053b 6519 013c
00000390: b9c2 75bb 721e 3a3c dba1 14bb ab41 26bc
000003a0: b5e3 a53b 3304 01bc 68a2 f13b b88d e23b
000003b0: f502 373c c9e6 7039 ce9d 0f3c 023e 483b
000003c0: 7f17 a73b b964 e23b d84c d93b d230 2b3c
000003d0: ac69 723b 9c48 ddbb 4c90 433c ff69 2b3c
000003e0: b67d 373c c44a 1e3b 4abd 523b e53b ee3b
000003f0: 6d11 4d3c 89e2 e83b cb84 373c 0f1b bdbb
0.00870441 0.0012910471 -0.009935117 0.012333241 0.008840861 -0.008124942 0.007229814 0.008564228
0.01102055 0.011031837 0.0027669345 0.0035690388 0.011023438 0.010872145 -0.0033749284 0.0013374496
0.0014398902 0.0036253817 -0.0007044655 0.00948102 0.0014981794 0.008982075 0.009475891 0.010140541
0.006859247 -0.008709046 -0.0053102337 0.01167324 -0.005178961 -0.0021139146 0.0078068655 0.010554786
-0.010014781 0.008265953 0.0027253025 0.00815731 -0.003628531 0.011325152 -0.002128281 -0.010376607
0.0047515724 -0.0080006495 0.00751135 0.00708011 0.0111783715 -0.00039469506 0.008767559 0.0028988274
0.0048745405 0.0071537322 0.006417384 0.010362218 0.0047343117 -0.0067425673 0.01188363 0.010458631
0.011194266 0.0027377075 0.002909078 0.00743854 0.012414016 0.008501796 0.011174648 -0.0061529856
0.0 0.0 0.0 0.0 0.0 0.0 0.0 0.0
0.0 0.0 0.0 0.0 0.0 0.0 0.0 0.0
0.0 0.0 0.0 0.0 0.0 0.0 0.0 0.0
0.0 0.0 0.0 0.0 0.0 0.0 0.0 0.0
0.0 0.0 0.0 0.0 0.0 0.0 0.0 0.0
0.0 0.0 0.0 0.0 0.0 0.0 0.0 0.0
0.0 0.0 0.0 0.0 0.0 0.0 0.0 0.0
0.0 0.0 0.0 0.0 0.0 0.0 0.0 0.0
0.006107933 -0.0010546406 -0.00992203 -0.0069855405 -0.008745961 -0.009977737 -0.0072632623 0.0005909582
-0.008067385 0.0039046642 -0.00410667 0.008055886 0.007648059 -0.006369324 0.008460019 -0.00068948197
0.0047646943 -0.0073860288 -0.0041791825 -0.0019768744 0.002471673 -0.009846382 0.0038143387 0.00884436
0.0014573273 -0.0024541905 0.004792743 0.009118447 0.008424929 0.0003735032 0.007418557 -0.0061076717
-0.009072917 0.0075201686 -0.0098581845 0.0084603885 0.008156237 -0.006345122 0.005721567 0.009153025
0.0034828624 -0.0092621045 -0.010678603 0.004987443 0.010110707 -0.008807653 -0.0010599825 0.008026109
-0.0072855367 -0.008504441 0.009289124 0.00877643 0.010058654 0.008381178 -0.00422122 -0.0023043875
0.0062700277 -0.0036274032 0.006779717 -0.010080017 -0.0019116143 0.009552394 0.0066130254 -0.0077143707
0.009014536 0.0011530869 -0.009787979 0.012322271 0.008757508 -0.008169317 0.0072187693 0.008513348
0.010919861 0.011039355 0.0030723258 0.0028486915 0.011150431 0.011029821 -0.0039941194 0.0015237418
0.0035276795 0.0028251521 -0.0010438919 0.009671 0.0024774107 0.008505586 0.008993532 0.010117268
0.0073098782 -0.008621697 -0.0051401188 0.011664398 -0.0053077987 -0.0018180978 0.007422007 0.010733166
-0.009987392 0.008336346 0.002030323 0.00787959 -0.0037500097 0.011359798 -0.0022679481 -0.010147492
0.005062545 -0.007874536 0.0073740967 0.006913867 0.011170139 0.00022974158 0.008765651 0.0030554538
0.0050992365 0.0069089797 0.006631475 0.010448651 0.0036989255 -0.0067530405 0.0119362585 0.010462283
0.011199405 0.002415345 0.0032156282 0.0072703236 0.012516362 0.007107083 0.011201094 -0.005771048

recurrent.bias_hh_l1 f4 [256]
00000000: f19c 0e3c 5a38 a93a e7c6 22bc 5d11 4a3c
00000010: 42d9 103c 7a1e 05bc 13e8 ec3b fa50 0c3c
00000020: 898f 343c e1be 343c 7555 353b 89e6 693b
00000030: a69b 343c 1521 323c e72d 5dbb 5d4d af3a
00000040: b3ba bc3a d097 6d3b e1ab 38ba 4856 1b3c
00000050: 8f5e c43a 8e29 133c c440 1b3c 8324 263c
00000060: 89c3 e03b 63b0 0ebc 7801 aebb 1e41 3f3c
00000070: 46b4 a9bb 9a89 0abb bcd0 ff3b fbed 2c3c
00000080: 0915 24bc eb6d 073c fd9a 323b 3da6 053c
00000090: a6cc 6dbb 218d 393c a17a 0bbb a502 2abc
000000a0: 14b3 9b3b 2815 03bc c521 f63b 4400 e83b
000000b0: 7d25 373c 13ef ceb9 cfa5 0f3c 41fa 3d3b
000000c0: 9cba 9f3b db69 ea3b eb48 d23b 4bc6 293c
000000d0: 4922 9b3b c1f0 dcbb 8fb3 423c ae5a 2b3c
000000e0: 2868 373c 1c6b 333b 3ba6 3e3b ffbe f33b
000000f0: 2864 4b3c 1e4b 0b3c df15 373c fc9e c9bb
00000100: 0000 0000 0000 0000 0000 0000 0000 0000
00000110: 0000 0000 0000 0000 0000 0000 0000 0000
00000120: 0000 0000 0000 0000 0000 0000 0000 0000
00000130: 0000 0000 0000 0000 0000 0000 0000 0000
00000140: 0000 0000 0000 0000 0000 0000 0000 0000
00000150: 0000 0000 0000 0000 0000 0000 0000 0000
00000160: 0000 0000 0000 0000 0000 0000 0000 0000
00000170: 0000 0000 0000 0000 0000 0000 0000 0000
00000180: 0000 0000 0000 0000 0000 0000 0000 0000
00000190: 0000 0000 0000 0000 0000 0000 0000 0000
000001a0: 0000 0000 0000 0000 0000 0000 0000 0000
000001b0: 0000 0000 0000 0000 0000 0000 0000 0000
000001c0: 0000 0000 0000 0000 0000 0000 0000 0000
000001d0: 0000 0000 0000 0000 0000 0000 0000 0000
000001e0: 0000 0000 0000 0000 0000 0000 0000 0000
000001f0: 0000 0000 0000 0000 0000 0000 0000 0000
00000200: 0e25 c83b de3b 8aba 0390 22bc f6e6 e4bb
00000210: 384b 0fbc aa79 23bc a900 eebb 89ea 1a3a
00000220: 112d 04bc 65e5 7f3b 3f91 86bb d6fc 033c
00000230: 929c fa3b c3b5 d0bb e49b 0a3c 5abe 34ba
00000240: 2721 9c3b 8006 f2bb 86f1 88bb 738e 01bb
00000250: cbfb 213b b852 21bc fcf9 793b efe7 103c
00000260: ca03 bf3a 7cd6 20bb 710c 9d3b 8a65 153c
00000270: b708 0a3c c0d2 c339 5e17 f33b dd22 c8bb
00000280: 92a6 14bc bf6b f63b 3984 21bc 719d 0a3c
00000290: bda1 053c beea cfbb fc7b bb3b 92f6 153c
000002a0: bc40 643b 15c0 17bc 4ff5 2ebc b46d a33b
000002b0: 61a7 253c f94d 10bc 1cef 8aba f17f 033c
000002c0: 83bb eebb 3656 0bbc 6931 183c 04cb 0f3c
000002d0: 0dcd 243c 3551 093c 2952 8abb 3505 17bb
000002e0: ce74 cd3b bab9 6dbb 6328 de3b a826 25bc
000002f0: 228f faba a581 1c3c 14b2 d83b d5c8 fcbb
00000300: b4b1 133c 2d23 973a c25d 20bc 5ae3 493c
00000310: a77b 0f3c 99d8 05bc 6d8b ec3b 927b 0b3c
00000320: 37e9 323c 69de 343c 1359 493b 1db1 3a3b
00000330: 4cb0 363c 6cb6 343c 1ae1 82bb 4ab8 c73a
00000340: a430 673b 3026 393b 33d3 88ba 1d73 1e3c
00000350: 0e5c 223b 035b 0b3c 9b59 133c e6c2 253c
00000360: b487 ef3b 0542 0dbc 716e a8bb 081c 3f3c
00000370: 0bed adbb 3d4d eeba 4f34 f33b 29da 2f3c
00000380: 29a2 23bc 2b95 083c 2b0f 053b 6519 013c
00000390: b9c2 75bb 721e 3a3c dba1 14bb ab41 26bc
000003a0: b5e3 a53b 3304 01bc 68a2 f13b b88d e23b
000003b0: f502 373c c9e6 7039 ce9d 0f3c 023e 483b
000003c0: 7f17 a73b b964 e23b d84c d93b d230 2b3c
000003d0: ac69 723b 9c48 ddbb 4c90 433c ff69 2b3c
000003e0: b67d 373c c44a 1e3b 4abd 523b e53b ee3b
000003f0: 6d11 4d3c 89e2 e83b cb84 373c 0f1b bdbb
0.00870441 0.0012910471 -0.009935117 0.012333241 0.008840861 -0.008124942 0.007229814 0.008564228
0.01102055 0.011031837 0.0027669345 0.0035690388 0.011023438 0.010872145 -0.0033749284 0.0013374496
0.0014398902 0.0036253817 -0.0007044655 0.00948102 0.0014981794 0.008982075 0.009475891 0.010140541
0.006859247 -0.008709046 -0.0053102337 0.01167324 -0.005178961 -0.0021139146 0.0078068655 0.010554786
-0.010014781 0.008265953 0.0027253025 0.00815731 -0.003628531 0.011325152 -0.002128281 -0.010376607
0.0047515724 -0.0080006495 0.00751135 0.00708011 0.0111783715 -0.00039469506 0.008767559 0.0028988274
0.0048745405 0.0071537322 0.006417384 0.010362218 0.0047343117 -0.0067425673 0.01188363 0.010458631
0.011194266 0.0027377075 0.002909078 0.00743854 0.012414016 0.008501796 0.011174648 -0.0061529856
0.0 0.0 0.0 0.0 0.0 0.0 0.0 0.0
0.0 0.0 0.0 0.0 0.0 0.0 0.0 0.0
0.0 0.0 0.0 0.0 0.0 0.0 0.0 0.0
0.0 0.0 0.0 0.0 0.0 0.0 0.0 0.0
0.0 0.0 0.0 0.0 0.0 0.0 0.0 0.0
0.0 0.0 0.0 0.0 0.0 0.0 0.0 0.0
0.0 0.0 0.0 0.0 0.0 0.0 0.0 0.0
0.0 0.0 0.0 0.0 0.0 0.0 0.0 0.0
0.006107933 -0.0010546406 -0.00992203 -0.0069855405 -0.008745961 -0.009977737 -0.0072632623 0.0005909582
-0.008067385 0.0039046642 -0.00410667 0.008055886 0.007648059 -0.006369324 0.008460019 -0.00068948197
0.0047646943 -0.0073860288 -0.0041791825 -0.0019768744 0.002471673 -0.009846382 0.0038143387 0.00884436
0.0014573273 -0.0024541905 0.004792743 0.009118447 0.008424929 0.0003735032 0.007418557 -0.0061076717
-0.009072917 0.0075201686 -0.0098581845 0.0084603885 0.008156237 -0.006345122 0.005721567 0.009153025
0.0034828624 -0.0092621045 -0.010678603 0.004987443 0.010110707 -0.008807653 -0.0010599825 0.008026109
-0.0072855367 -0.008504441 0.009289124 0.00877643 0.010058654 0.008381178 -0.00422122 -0.0023043875
0.0062700277 -0.0036274032 0.006779717 -0.010080017 -0.0019116143 0.009552394 0.0066130254 -0.0077143707
0.009014536 0.0011530869 -0.009787979 0.012322271 0.008757508 -0.008169317 0.0072187693 0.008513348
0.010919861 0.011039355 0.0030723258 0.0028486915 0.011150431 0.011029821 -0.0039941194 0.0015237418
0.0035276795 0.0028251521 -0.0010438919 0.009671 0.0024774107 0.008505586 0.008993532 0.010117268
0.0073098782 -0.008621697 -0.0051401188 0.011664398 -0.0053077987 -0.0018180978 0.007422007 0.010733166
-0.009987392 0.008336346 0.002030323 0.00787959 -0.0037500097 0.011359798 -0.0022679481 -0.010147492
0.005062545 -0.007874536 0.0073740967 0.006913867 0.011170139 0.00022974158 0.008765651 0.0030554538
0.0050992365 0.0069089797 0.006631475 0.010448651 0.0036989255 -0.0067530405 0.0119362585 0.010462283
0.011199405 0.002415345 0.0032156282 0.0072703236 0.012516362 0.007107083 0.011201094 -0.005771048
