input/lstm_model.pth (torch, 814631 bytes, 11 tensors)

recurrent.weight_ih_l0 f4 [512, 7]
00000000: af5e 4a3c e9bf 3ebc fbb4 d73d a282 173d
00000010: e7b2 283d 298a 3a3d c31d 96bd 2991 883d
00000020: c14a abbd fab4 a43d daab 903d d15c 1d3d
00000030: b935 403c b78f dabd a0db d03d ee21 d6bd
00000040: 15dc 3a3d 5f05 f83c 3b15 713d c603 c13c
00000050: 69af b9bd d199 803d bc59 3c3c b121 ec3b
00000060: 7dd8 90bd 9ec1 083d 93b5 ccbd 07e0 213c
00000070: 66da cb3d 4835 b1bd f833 703b d9e5 25bb
00000080: 09b8 83bd a898 9a3b baa7 e03a a3fc 71bd
00000090: d1d7 d03d 81c2 4e3c ab20 553c 647b 9f3d
000000a0: 7ba6 bdbd d0a8 0a3d eb77 853c ab1c cbbd
000000b0: 0bb8 d23c 00a1 b23d 569d b8bc d3b7 23bd
000000c0: f798 6a3d 77c5 af3d 73b4 aabd 375c cbbd
000000d0: f7f7 11bd a79c 3c3d f3bb 6b3d 9ee6 b6bd
000000e0: e108 443d 7c4a 17bd 273e 2f3d 55dc 993d
000000f0: 8ab3 303d d6e0 523d 298c 633d c1fc c53d
00000100: 2168 173d 02fe c93d 0021 56bd d070 9b3d
00000110: 2a56 2abd cfff e83c 0e79 c03b c531 c2bd
00000120: 4931 9b3d 9e63 2ebd 5748 92bc 39e8 7f3d
00000130: 4423 acbd a505 7c3c e097 c1bd 6a0f 89bc
00000140: 231a 13bd 21aa 00bd 7d38 483d b4dd 9c3d
00000150: a84f cd3d 644c 9ebd d80c 863c 7eb3 f23c
00000160: 3226 f1bb 8732 8cbd b649 8c3d 8788 0abc
00000170: 756b 003d c578 2c3c 17f7 3bbd 7ab2 3fbd
00000180: 1115 9cbc 5a2b 12bd 9929 44bd 2613 8a3d
00000190: a9fc eabb 2127 413d d9cd a9bc 1374 a03d
000001a0: 9f03 cb3d b451 82bc 30f7 6cbc 82b0 093c
000001b0: 4959 2b3d 6511 ae3d 7995 babd 1d18 c83c
000001c0: 089b b4bd 7d93 653d 699a 6f3d 8789 adbd
000001d0: 9a5d 75bd 3bc5 d0bc 0458 d4bd 515d 9c3d
000001e0: 90ed c3bd f0e9 e7bb 819c bbbd 7248 8abd
000001f0: 367c 9a3d 9f96 f5bc 6f85 d23d 56cb 65bc
00000200: d816 a7bd 2e34 98bc 6944 90bd 12d0 693d
00000210: 1088 e2bc c01a a53d 6b1a c83b d672 203d
00000220: 6da9 dbbc 6a83 a93b 6e91 553b cf8f dbbb
00000230: 3a7e b33d af8b 96bd 58e0 493c f257 ffbc
00000240: bc0d b0bd 3d51 dc3d 3944 a13d 8dd2 d6bd
00000250: a8ab ba3d ac9f 9abd 3c54 a73d 6c30 803d
00000260: 351e a43d 5161 cabd 2374 9b3d edec cfbd
00000270: 9ba4 193d 4ad5 953d 9285 cd3d 769d b93d
00000280: c2d3 fa3c e6fb 3abd 2ffb 6b3c ad9c 4abc
00000290: d6a1 4d3d 4cd4 92bd bd84 7f3c 06cd abbd
000002a0: b8a1 773d 7973 a4bc 122b 9a3c 7d0c eabb
000002b0: 64d5 d73d 330c f73b 334c 163d 0799 c33c
000002c0: 3f1f ca3d 7b02 a43a 620a 133c dc76 9d3d
000002d0: e3a5 4abd 7424 38bd 7f65 3cbd 8340 3d3d
000002e0: 5a33 2e3d 8989 8b3b 62ad d23d e064 003d
000002f0: 36da b9bd b088 d83d a451 293d 947f 843d
00000300: 1e88 d63c 63d6 32bd 5e88 963d f531 c23d
00000310: 14fe a1bc 7fb2 d13d f8b8 cd3d a564 863b
00000320: 4712 753b 0fdf 203c e759 babd be5c c6bd
00000330: a393 c13d dacc 53bd dab7 a73d baa2 b6bd
00000340: 14b6 a8bc d599 953d 0730 5dbd 91da 14bb
00000350: 6908 72bd 39c6 3dbd f197 16bd dcff 44bc
00000360: 2515 45bd 0ecc 9cba 2683 b43c 5742 32bd
00000370: 90d6 cb3d d7ec d63c b9c7 ca3d 1758 6a3d
00000380: 0f62 acbd 563b d43d a397 3a3d 264a cf3d
00000390: 3fb7 80bd 0c3b 22bd 164e 88bd fe1b 36bd
000003a0: 7a4b 29bd 38e1 103d 34e5 b13c abbe c9bb
000003b0: 189e 34bb 5e4d ccbc eb07 bfbc 4b8f b53d
000003c0: db51 febc 46f2 1fbd 3778 d8bd 598c 313d
000003d0: 1719 62bb 58d2 98bd ffc3 56bd ae39 cd3c
000003e0: 33a9 773b e637 bdbd c0c5 47bd 322e 733d
000003f0: a155 65ba 4a34 5e3d 4cfb 46bd 6487 1b3d
0.012351676 -0.011642435 0.10532566 0.036989816 0.04118624 0.045541916 -0.07329895 0.06668312
-0.083638676 0.08042331 0.07064028 0.038418595 0.0117315585 -0.10671943 0.1019814 -0.1045569
0.045620043 0.030275999 0.058858138 0.02356137 -0.0906666 0.06279338 0.011496004 0.0072061648
-0.07072542 0.033387773 -0.0999557 0.009880072 0.099537656 -0.08652741 0.003665207 -0.0025314002
-0.06431586 0.004717905 0.001713983 -0.059078824 0.10197414 0.0126196155 0.013008277 0.07787207
-0.09260269 0.0338524 0.016292533 -0.09917577 0.025722524 0.087221146 -0.022535961 -0.03997023
0.057274785 0.08582585 -0.08335199 -0.09929698 -0.03563687 0.046047833 0.05755229 -0.089307055
0.04786003 -0.03693627 0.042783882 0.07512728 0.04313997 0.05148395 0.05555359 0.096673496
0.03696454 0.09862901 -0.052277565 0.07589877 -0.04158608 0.028442292 0.005873806 -0.09482149
0.0757776 -0.04257547 -0.01785676 0.062477324 -0.08405164 0.015382205 -0.09452796 -0.016730983
-0.035913598 -0.031412248 0.048881996 0.07659474 0.10024959 -0.07729414 0.016363546 0.029626604
-0.0073592896 -0.06845575 0.06849997 -0.008455402 0.03135248 0.010526841 -0.04588994 -0.046801068
-0.019053014 -0.035685875 -0.047891233 0.067419335 -0.0071712327 0.047156457 -0.020728039 0.078346394
0.099128 -0.0159081 -0.014463231 0.008403899 0.041833196 0.084994115 -0.09110541 0.02442556
-0.08818632 0.05604886 0.058496866 -0.08473497 -0.05990372 -0.025484672 -0.1036835 0.07634986
-0.09566796 -0.007077448 -0.0916071 -0.06752099 0.075432226 -0.029979048 0.10279357 -0.01402553
-0.08158654 -0.018579569 -0.07044298 0.057083197 -0.02765277 0.08061743 0.006106665 0.039172016
-0.026814187 0.0051731365 0.0032587904 -0.006700493 0.0876431 -0.07350861 0.012321554 -0.031169865
-0.085963696 0.107576825 0.078743406 -0.10489378 0.09114772 -0.07549986 0.08170363 0.06259236
0.08013574 -0.09881843 0.07590511 -0.10152612 0.037510496 0.07316072 0.10035242 0.090632364
0.030618552 -0.045650385 0.014403149 -0.012366456 0.050203167 -0.07169399 0.015595612 -0.083887145
0.06045696 -0.020074593 0.018819366 -0.007142602 0.10538748 0.007539296 0.036693763 0.02387668
0.09869241 0.0012512946 0.008974643 0.07688686 -0.04947461 -0.04495664 -0.04599523 0.0462041
0.04252944 0.004258339 0.102869764 0.031346202 -0.090748236 0.10572946 0.041337624 0.06469646
0.026187953 -0.043661486 0.07350229 0.09482185 -0.019774474 0.102391236 0.100450456 0.004101353
0.0037394927 0.009818806 -0.09099179 -0.09685658 0.094519876 -0.051709034 0.08189364 -0.089177564
-0.020594634 0.07304732 -0.05400088 -0.0022713284 -0.05909005 -0.046331618 -0.036765996 -0.012023892
-0.048115868 -0.0011962669 0.022035193 -0.043520298 0.09953034 0.02623598 0.09901375 0.057212915
-0.08417141 0.1036288 0.04555477 0.101215646 -0.062849514 -0.039607093 -0.06655519 -0.04446029
-0.041331746 0.035371035 0.021715738 -0.0061567626 -0.0027560052 -0.024939235 -0.023319205 0.088652216
-0.031044891 -0.03904941 -0.10569804 0.043346737 -0.0034499818 -0.07461995 -0.05243301 0.025051918
0.003779006 -0.092391774 -0.048772573 0.059370227 -0.00087484164 0.054249085 -0.0485795 0.037970915

recurrent.weight_hh_l0 f4 [512, 128]
00000000: 359a 11bd b2bd bebd 3d63 37bd 3a3e b33d
00000010: 3e16 583a 2b7f 79bb 104c e63c 5bc4 0e3d
00000020: e4df 313d 93cc aa3d 36d3 afbd 5fd8 0d3d
00000030: bc86 303d fd89 2e3d 95fe 61bd a560 46bd
00000040: 4364 5dbd 65fc 9b3c fef7 0b3d 365c 0b3d
00000050: 0e40 9c3c ce4a 6cb9 08e7 b6bc 5bea 563d
00000060: ccca 93bd 0577 93bd 534c 38bc 1324 31bd
00000070: bda5 64bd c9fb bfbd 3843 b5ba 3f64 603d
00000080: 8f4d 5f3d 7d8a 8ebd dff2 c23c 496c 9d3d
00000090: 20f6 abbd f42e adbd 72f7 91bd 7a04 c5bc
000000a0: 05e5 6e3d 763b 96bd 8691 443d 5b69 bdbd
000000b0: 357c 5bbd 24f3 973d ef35 483d 5a87 3bbd
000000c0: 4db9 ae3d 0006 683d f30c 693d 08f1 bc3d
000000d0: cb0f 813a a951 ebbb 2581 8e3d c785 7c3a
000000e0: fbd6 b1bd a557 c5bc 0777 4a3d cc0b b83d
000000f0: 0b80 983d 61d1 443d 7787 5fbd ad34 8c3c
00000100: b6e4 243d 924f 933d 8eb3 93bc 2929 b93d
00000110: 83af 9ebb 5409 02bd aae1 0c3d 2b22 13bd
00000120: f5ac 94bc 57c7 013d 396b 4e3d 96bc bdbd
00000130: 44fd 67bd ed58 913c ccd3 35bd 06a8 6cbc
00000140: 1c90 da3c ad87 b0bb 72bc 1b3d e614 8abd
00000150: 83a5 56bc 23e2 86bc 3077 a4bb cb01 37bd
00000160: a92d 0abc ac18 16bd 1bea 7d3d ee28 953d
00000170: 69b4 81bd 00d1 bfbd dc32 b03d 08ce 9c3d
00000180: 40ec 68bd aa1e 19bd dd55 0b38 adcb 0e3d
00000190: 4f00 dc3c 2286 99bc aac8 bfbd 13d5 53bd
000001a0: e5a9 93bd a264 123d a154 283d 7e72 eb3a
000001b0: 8c75 bebd e2b5 a6bd f26e 19bd 1132 a73d
000001c0: c6d9 c0bd 5f9c 88bd 5dff 9d3d 389c b4bd
000001d0: 8071 68bd f87e 5fbd 6f89 6d3b 211a a43d
000001e0: 2e47 983d 3b6d 95bd 6828 a3bd 7b51 45bd
000001f0: c0b0 bebd 35f6 7b3d 3ec8 8dbd 64e5 4cbd
00000200: e9e8 643b e434 973b 08ff fdbc ef55 76bc
00000210: 9fd4 87bd 19fc 353d 7323 153d bbc5 b4bd
00000220: 4e65 8dbd 88c6 c4bc 0be5 a03d 884a 8d3d
00000230: 188a 60bd 5616 f9bc c302 c53c 22b9 86bd
00000240: 4a81 a6bd 3e27 5b3d 9e76 a4bd 9246 d9ba
00000250: 0817 893d cd47 4b3d fb02 b7bd c1bf ac3d
00000260: f005 6a3d 6ab6 20bd d6b4 3fbd 701c b1bd
00000270: e8a8 a93d 6e34 16bd 4ef2 0fbd 170e 873d
00000280: a0a9 933d 43ce ba3b 8428 bcbd 5522 07bd
00000290: 2480 82bd a2c2 8e3d dc6f a13d 19b4 97bd
000002a0: 1f4e acbc d3a5 a7bd 9c8e 073d 864e f239
000002b0: 2c62 513d c977 a5bd b05a e13c db70 a53d
000002c0: de41 edbc aea7 09bd 1b5a 0cbd 2a46 90bd
000002d0: 69c1 b3bc 6306 a73d 5800 d7bc 933e adbd
000002e0: 9247 06bc ce26 9b3a b76c 55bc dc54 b03c
000002f0: 5a05 e63b e65a c63d e026 783d 284e a7bc
00000300: bbc6 563c 5a7b 133d a231 823d 2f4d 0d3d
00000310: 518c a0bb 672d 5dbd 34b9 be3d 593e bfbc
00000320: e746 94bb 2e0f b83d fbe7 99bd 6c7a 773d
00000330: f08b b23d 5242 a9bc ff5b c9bd e8f7 bcbd
00000340: 67d6 15bd cd51 483d 6aea c13d 0b14 233d
00000350: a219 d8bb 3f28 5bbd b714 563d 7a37 603d
00000360: a48f 5b3d 32ba 063d 9d05 ecbc a859 5fbc
00000370: 590a 663d 409f 9d3d 3466 57bc a034 683d
00000380: 2240 be3d 66db a43d 7ada 3c3b a78c 2bbd
00000390: 793e 893c 818f 48bd eea8 47bd 4cc4 c6bd
000003a0: cd4f 10bd f93e b1bd 9e6a 833d d6cc a9bd
000003b0: 3dbc 94bd d1c1 6cbd 75ba a6bd 98bd bebd
000003c0: 105c 39bc f368 bf3d 9450 183d 9b2c 5abc
000003d0: cdd1 903d 6ff9 3b3d ec46 5dbd 11e9 393d
000003e0: 48e8 90bd 6d39 a83c 3bc9 94bc 154b 02bd
000003f0: 1f78 bb3d a055 82bc 1d7d 3ebd d2b7 ba3c
-0.035547454 -0.09313525 -0.044772375 0.08752103 0.00082430604 -0.0038070183 0.028112441 0.034855228
0.04342641 0.08339801 -0.08585207 0.034630176 0.043097243 0.042612065 -0.05517443 -0.04843201
-0.054050695 0.01904125 0.03417205 0.034023486 0.019073512 -0.00022534581 -0.022326961 0.052469593
-0.07216415 -0.072004355 -0.011248666 -0.043247294 -0.055822123 -0.09374196 -0.0013829237 0.054783102
0.054517325 -0.06960008 0.02379745 0.076866694 -0.08396554 -0.08456221 -0.071272746 -0.024049986
0.05832388 -0.0733556 0.047990344 -0.092486106 -0.05358525 0.07419422 0.04887956 -0.04578338
0.08531437 0.056646347 0.056897115 0.092256606 0.0009846626 -0.0071813655 0.06958226 0.00096329715
-0.086835824 -0.024089644 0.04942992 0.08986625 0.07446297 0.04805124 -0.05457255 0.017114962
0.04025718 0.07192911 -0.018029954 0.09041054 -0.0048427 -0.031747177 0.034394898 -0.035921257
-0.018148879 0.031684246 0.050395224 -0.092644855 -0.056638017 0.017742598 -0.04439144 -0.014444357
0.026680045 -0.0053872676 0.038021512 -0.06742267 -0.0131009845 -0.016465252 -0.005019091 -0.044679444
-0.008433738 -0.036644623 0.06199084 0.07283197 -0.06333239 -0.093660355 0.08603451 0.07656485
-0.05686593 -0.03738276 3.322015e-05 0.03486221 0.026855616 -0.018740717 -0.093644455 -0.051716875
-0.07210139 0.035740502 0.041096333 0.0017963198 -0.09299764 -0.0814016 -0.03745932 0.08163846
-0.09416537 -0.066704504 0.07714722 -0.08818859 -0.056748867 -0.054564446 0.0036245247 0.08012796
0.074354514 -0.07296225 -0.07966691 -0.04817341 -0.09311056 0.0615141 -0.06922959 -0.05002345
0.0034928864 0.0046144594 -0.031005397 -0.015035137 -0.06632351 0.044429872 0.03641076 -0.088267766
-0.06904088 -0.024020448 0.078561865 0.06898981 -0.054819196 -0.030406158 0.024049168 -0.0657828
-0.08130129 0.05350422 -0.08030437 -0.0016576818 0.06693846 0.04962902 -0.08936115 0.08435012
0.05713457 -0.039236464 -0.046803318 -0.08648002 0.082841694 -0.036671095 -0.03514319 0.06594484
0.07210088 0.005700858 -0.09187415 -0.032991726 -0.06372097 0.06970717 0.078826636 -0.07407398
-0.021033345 -0.08185925 0.033094987 0.0004621634 0.051119015 -0.08079488 0.027509063 0.08078166
-0.028962072 -0.033607177 -0.03426562 -0.07044633 -0.021942811 0.08155515 -0.026245281 -0.08459201
-0.008195775 0.0011837126 -0.013026408 0.02152484 0.007019681 0.09685306 0.06058395 -0.02042301
0.0131089045 0.03600631 0.06357123 0.034497436 -0.0048995395 -0.053998377 0.093126684 -0.02334516
-0.004525054 0.0898727 -0.0751495 0.060419485 0.08718097 -0.020661507 -0.09832 -0.09226972
-0.036581423 0.048906136 0.09468539 0.039814036 -0.0065948525 -0.05350518 0.05226585 0.054740407
0.053603783 0.032892413 -0.02881127 -0.013632216 0.056162212 0.0769639 -0.013146926 0.056690812
0.09289576 0.080496594 0.0028816746 -0.041882183 0.016753422 -0.04896498 -0.04874509 -0.097054094
-0.035232354 -0.08654589 0.0641682 -0.082910225 -0.07262466 -0.057802025 -0.081410326 -0.09313506
-0.011313453 0.09346189 0.03718622 -0.013316299 0.07071266 0.045892175 -0.054022714 0.045388285
-0.07075554 0.020535195 -0.01816236 -0.031809885 0.09153771 -0.01590997 -0.046506036 0.02279273

recurrent.bias_ih_l0 f4 [512]
00000000: be41 dbba 4b32 e0ba 13f9 cfba 5bbd d5ba
00000010: 252c 003b d5bc ef3a 6694 a9b9 c7e8 f4ba
00000020: 351e 01bb f58f fcba d18c 6ab9 7468 f7ba
00000030: c92c e53a 575c 743a 8c51 adba bc08 01bb
00000040: d41c 013b fa95 003b f8c7 f8ba 4708 fbba
00000050: cd4d fbba 07e4 c6ba 3967 7d3a 9508 9a3a
00000060: e326 ae38 938e e03a d003 5f3a 3351 5539
00000070: e714 1c3a 50c2 ae3a 91b4 1b3a a7e0 d63a
00000080: b065 ecb9 f40e f2ba 31ef ef3a aed6 d5ba
00000090: 5b7f d638 3af2 a539 6106 deba 7ea6 f23a
000000a0: 88cb fd3a 8b22 fa3a ad6d 2eba 621f a4b8
000000b0: 623d 853a 6e58 ff3a 83ff d7ba 69d3 9d3a
000000c0: 7c34 d3ba ce5e f03a 6694 d73a 4b38 033b
000000d0: 71d4 fa3a d07a f1ba 2b81 63ba e2a2 f1ba
000000e0: 548c f2ba 1df6 013b beb1 ef3a 0ab6 e13a
000000f0: 038d f33a b8b8 b338 19a7 f63a 81ea fe3a
00000100: 5748 fe3a e6e9 dcba d19f ccba cbe7 edba
00000110: 2e30 19b9 f8c4 a7b9 e7fc e63a 8461 f83a
00000120: 7482 92ba 22b7 ffba d81f caba 5299 9ab9
00000130: e786 c73a 2b95 cfba bd57 0b3a 3748 023b
00000140: 7f5f e73a d724 89ba 4c5a e53a 20b6 fcba
00000150: 98a3 01bb 1d70 afba e7d8 8939 4cf3 b3b9
00000160: 4a5a ebba 2333 f63a 367a 7539 8cd2 adb9
00000170: a60d fe3a 4ce9 bfb9 6b66 ea39 de9b deb9
00000180: 25c7 f1ba 5f66 fd3a f64b 213a 101a cd3a
00000190: 523a 8037 ce8d 48ba 95b8 aa3a 4cb9 d33a
000001a0: 8cd3 d139 c1bf d83a 0ab6 fb3a a0d1 d1ba
000001b0: 6d15 ebba 088a 00ba 3c66 cb3a 07d2 beba
000001c0: 3240 003b c5eb ed3a 5971 a2ba eb95 9aba
000001d0: 754b 5eb9 cdad 033a a453 5ab9 2d85 efba
000001e0: 19bd e6b9 3819 8eba 4d85 e2ba b002 ebba
000001f0: 0abd c2ba 368c d53a 51d9 e23a aa80 1bb9
00000200: dc50 d4ba 8a99 ddba eb2d d83a 126b 3039
00000210: ba4c 023b 1550 da39 6a1c 8bb8 b41c f1ba
00000220: ad1a 01bb ff79 fbba e759 da39 f3f4 e1ba
00000230: a1aa da3a 97c6 b439 1d82 843a 2274 faba
00000240: fb3e fc3a 3237 023b 45a8 f0ba a2ca f0ba
00000250: bab8 92b9 24d4 d1ba 94a4 a43a 91f5 da3a
00000260: e760 2fba 9ac1 0b3a d9a4 a73a 0034 6638
00000270: df66 e63a 1760 8f3a 88f8 c239 8fed 023b
00000280: b32d c6b9 6e99 ebba 2ea6 e93a 4a80 00bb
00000290: d685 84b8 167b 053a 9c35 e4ba 2856 f03a
000002a0: 1d27 013b 4f28 df3a 6264 b1ba 92dd 28b9
000002b0: 5e0c 9d3a 9678 f73a 5ffa f7ba 6d4c 3d3a
000002c0: 0e38 c0ba c622 843a a038 a239 d595 023b
000002d0: 7a93 ee3a 51f0 d1ba bfe1 cdba d7e0 e7ba
000002e0: 4fb4 feba 80cc ff3a 444b f13a 38b3 d93a
000002f0: fbd4 bcb8 229a 7d39 f5ee e43a f232 033b
00000300: 6a3e 9a3a a23c f539 95df a5b9 82e9 ccba
00000310: e176 bfba 5132 ac39 0f5c fe3a 36c0 57ba
00000320: d8ec b739 0aa0 e7ba 67b1 e539 dbd9 bbb9
00000330: e58c fb39 2b49 aeba c486 093a 3dd2 013b
00000340: 7b4a da3a c455 bcb9 9932 073a ed9d faba
00000350: 0441 00bb 4f2d f0b7 634e 1e39 a30b d0ba
00000360: 6e2b edba 86c8 fd3a ef4d 45b9 3ce4 343a
00000370: b819 fb3a 2eff cbb7 d5d6 8eb9 bf69 c7ba
00000380: f940 edba b701 f23a c46d dd3a 2184 853a
00000390: 4ced d2b9 8752 5939 2550 6d3a ab79 e639
000003a0: a66d bab8 5728 013a 7906 fe3a 40ad e0ba
000003b0: ba8d e9ba e1eb d0ba 37ac bd39 c2f5 9939
000003c0: b1a5 ff3a 0ebc e93a 9726 c1ba c7fd 75ba
000003d0: cafa 46b9 ddbf d13a 72d0 ea3a a17d d6ba
000003e0: 579b 43b5 7b7d a5ba ea78 33b8 765f a3b9
000003f0: 550f ddba acaa e439 894a 003b 4e15 33b9
-0.0016727967 -0.0017104832 -0.0015867077 -0.0016307043 0.0019557562 0.0018290529 -0.00032344757 -0.0018685096
-0.0019701843 -0.0019268977 -0.00022368437 -0.0018875734 0.001748466 0.0009321621 -0.0013223155 -0.0019689044
0.001970102 0.0019620643 -0.0018980494 -0.0019152247 -0.0019172967 -0.0015174159 0.00096665655 0.0011751825
8.30421e-05 0.0017132334 0.0008507343 0.00020343512 0.00059540424 0.0013333056 0.0005939687 0.0016393856
-0.0004508919 -0.0018467591 0.0018305538 -0.001631459 0.00010228037 0.00031651725 -0.0016939157 0.0018512753
0.0019363025 0.0019083781 -0.0006653916 -7.825975e-05 0.0010165388 0.001948131 -0.0016479347 0.0012041155
-0.0016113664 0.0018338801 0.0016447424 0.0020022567 0.0019136799 -0.0018423442 -0.00086786103 -0.0018435384
-0.0018504956 0.0019830533 0.0018287224 0.001722039 0.0018581453 8.569792e-05 0.001881811 0.001944855
0.0019400221 -0.0016854375 -0.0015611594 -0.0018150745 -0.00014609165 -0.00031999475 0.0017622978 0.001894996
-0.0011177794 -0.0019509534 -0.0015420867 -0.00029487401 0.0015222699 -0.0015837302 0.0005315503 0.001987947
0.0017652361 -0.001046325 0.0017498224 -0.0019280352 -0.0019781347 -0.0013384853 0.0002629228 -0.0003432281
-0.0017955985 0.001878355 0.00023410548 -0.00033154 0.001938273 -0.0003660418 0.00044708265 -0.0004245927
-0.001844619 0.0019332877 0.00061529817 0.0015648026 1.5285947e-05 -0.0007650525 0.001302498 0.0016153245
0.000400212 0.0016536639 0.0019204032 -0.0016007908 -0.0017935463 -0.0004903381 0.0015518139 -0.0014558443
0.0019569513 0.001815193 -0.0012393399 -0.0011793947 -0.0002119968 0.0005023152 -0.00020821259 -0.0018273942
-0.00044009907 -0.0010841256 -0.0017282158 -0.0017929878 -0.0014857363 0.0016292396 0.0017307197 -0.00014829883
-0.0016198414 -0.001690672 0.0016493177 0.00016824555 0.0019882158 0.00041639866 -6.633329e-05 -0.0018395395
-0.0019699738 -0.0019186138 0.00041647183 -0.0017239138 0.0016682931 0.00034480236 0.0010109578 -0.0019108097
0.0019244844 0.0019869325 -0.0018360695 -0.0018370936 -0.00027984922 -0.0016008657 0.0012561255 0.0016705265
-0.000669016 0.0005331278 0.0012790217 5.4884702e-05 0.0017578265 0.0010938671 0.00037187734 0.0019978022
-0.00037799552 -0.0017974803 0.0017826015 -0.0019607716 -6.3191794e-05 0.00050918886 -0.0017410996 0.0018336223
0.0019707151 0.0017025563 -0.0013533945 -0.0001610427 0.0011981835 0.0018880542 -0.0018919221 0.0007221166
-0.0014665143 0.0010081164 0.00030941237 0.0019925733 0.001820191 -0.0016017054 -0.0015707536 -0.0017690909
-0.0019432398 0.0019515902 0.0018409272 0.0016609197 -9.004209e-05 0.00024185379 0.0017466234 0.002001938
0.0011767868 0.00046775216 -0.00031637834 -0.0015633556 -0.0014607572 0.00032843885 0.0019406098 -0.0008230241
0.00035080942 -0.0017671597 0.0004381046 -0.00035829734 0.00047979425 -0.0013296952 0.0005246217 0.001980915
0.0016654277 -0.00035922055 0.0005157381 -0.0019120552 -0.0019570002 -2.8631328e-05 0.00015097256 -0.0015872609
-0.0018094608 0.0019362129 -0.00018816417 0.00069004647 0.0019157445 -2.4318313e-05 -0.00027244413 -0.001521401
-0.0018101028 0.0018463646 0.0016893675 0.0010186472 -0.0004023112 0.00020725476 0.0009052775 0.00043959668
-8.889595e-05 0.00049269706 0.0019380591 -0.0017141476 -0.0017818727 -0.0015939438 0.000361772 0.00029365538
0.0019504336 0.0017832534 -0.0014736232 -0.0009383824 -0.00018976178 0.0016002614 0.0017914905 -0.0016364345
-7.286921e-07 -0.0012625897 -4.2789536e-05 -0.00031160907 -0.0016865531 0.0004361471 0.0019575676 -0.00017078707

recurrent.bias_hh_l0 f4 [512]
00000000: be41 dbba 4b32 e0ba 13f9 cfba 5bbd d5ba
00000010: 252c 003b d5bc ef3a 6694 a9b9 c7e8 f4ba
00000020: 351e 01bb f58f fcba d18c 6ab9 7468 f7ba
00000030: c92c e53a 575c 743a 8c51 adba bc08 01bb
00000040: d41c 013b fa95 003b f8c7 f8ba 4708 fbba
00000050: cd4d fbba 07e4 c6ba 3967 7d3a 9508 9a3a
00000060: e326 ae38 938e e03a d003 5f3a 3351 5539
00000070: e714 1c3a 50c2 ae3a 91b4 1b3a a7e0 d63a
00000080: b065 ecb9 f40e f2ba 31ef ef3a aed6 d5ba
00000090: 5b7f d638 3af2 a539 6106 deba 7ea6 f23a
000000a0: 88cb fd3a 8b22 fa3a ad6d 2eba 621f a4b8
000000b0: 623d 853a 6e58 ff3a 83ff d7ba 69d3 9d3a
000000c0: 7c34 d3ba ce5e f03a 6694 d73a 4b38 033b
000000d0: 71d4 fa3a d07a f1ba 2b81 63ba e2a2 f1ba
000000e0: 548c f2ba 1df6 013b beb1 ef3a 0ab6 e13a
000000f0: 038d f33a b8b8 b338 19a7 f63a 81ea fe3a
00000100: 5748 fe3a e6e9 dcba d19f ccba cbe7 edba
00000110: 2e30 19b9 f8c4 a7b9 e7fc e63a 8461 f83a
00000120: 7482 92ba 22b7 ffba d81f caba 5299 9ab9
00000130: e786 c73a 2b95 cfba bd57 0b3a 3748 023b
00000140: 7f5f e73a d724 89ba 4c5a e53a 20b6 fcba
00000150: 98a3 01bb 1d70 afba e7d8 8939 4cf3 b3b9
00000160: 4a5a ebba 2333 f63a 367a 7539 8cd2 adb9
00000170: a60d fe3a 4ce9 bfb9 6b66 ea39 de9b deb9
00000180: 25c7 f1ba 5f66 fd3a f64b 213a 101a cd3a
00000190: 523a 8037 ce8d 48ba 95b8 aa3a 4cb9 d33a
000001a0: 8cd3 d139 c1bf d83a 0ab6 fb3a a0d1 d1ba
000001b0: 6d15 ebba 088a 00ba 3c66 cb3a 07d2 beba
000001c0: 3240 003b c5eb ed3a 5971 a2ba eb95 9aba
000001d0: 754b 5eb9 cdad 033a a453 5ab9 2d85 efba
000001e0: 19bd e6b9 3819 8eba 4d85 e2ba b002 ebba
000001f0: 0abd c2ba 368c d53a 51d9 e23a aa80 1bb9
00000200: dc50 d4ba 8a99 ddba eb2d d83a 126b 3039
00000210: ba4c 023b 1550 da39 6a1c 8bb8 b41c f1ba
00000220: ad1a 01bb ff79 fbba e759 da39 f3f4 e1ba
00000230: a1aa da3a 97c6 b439 1d82 843a 2274 faba
00000240: fb3e fc3a 3237 023b 45a8 f0ba a2ca f0ba
00000250: bab8 92b9 24d4 d1ba 94a4 a43a 91f5 da3a
00000260: e760 2fba 9ac1 0b3a d9a4 a73a 0034 6638
00000270: df66 e63a 1760 8f3a 88f8 c239 8fed 023b
00000280: b32d c6b9 6e99 ebba 2ea6 e93a 4a80 00bb
00000290: d685 84b8 167b 053a 9c35 e4ba 2856 f03a
000002a0: 1d27 013b 4f28 df3a 6264 b1ba 92dd 28b9
000002b0: 5e0c 9d3a 9678 f73a 5ffa f7ba 6d4c 3d3a
000002c0: 0e38 c0ba c622 843a a038 a239 d595 023b
000002d0: 7a93 ee3a 51f0 d1ba bfe1 cdba d7e0 e7ba
000002e0: 4fb4 feba 80cc ff3a 444b f13a 38b3 d93a
000002f0: fbd4 bcb8 229a 7d39 f5ee e43a f232 033b
00000300: 6a3e 9a3a a23c f539 95df a5b9 82e9 ccba
00000310: e176 bfba 5132 ac39 0f5c fe3a 36c0 57ba
00000320: d8ec b739 0aa0 e7ba 67b1 e539 dbd9 bbb9
00000330: e58c fb39 2b49 aeba c486 093a 3dd2 013b
00000340: 7b4a da3a c455 bcb9 9932 073a ed9d faba
00000350: 0441 00bb 4f2d f0b7 634e 1e39 a30b d0ba
00000360: 6e2b edba 86c8 fd3a ef4d 45b9 3ce4 343a
00000370: b819 fb3a 2eff cbb7 d5d6 8eb9 bf69 c7ba
00000380: f940 edba b701 f23a c46d dd3a 2184 853a
00000390: 4ced d2b9 8752 5939 2550 6d3a ab79 e639
000003a0: a66d bab8 5728 013a 7906 fe3a 40ad e0ba
000003b0: ba8d e9ba e1eb d0ba 37ac bd39 c2f5 9939
000003c0: b1a5 ff3a 0ebc e93a 9726 c1ba c7fd 75ba
000003d0: cafa 46b9 ddbf d13a 72d0 ea3a a17d d6ba
000003e0: 579b 43b5 7b7d a5ba ea78 33b8 765f a3b9
000003f0: 550f ddba acaa e439 894a 003b 4e15 33b9
-0.0016727967 -0.0017104832 -0.0015867077 -0.0016307043 0.0019557562 0.0018290529 -0.00032344757 -0.0018685096
-0.0019701843 -0.0019268977 -0.00022368437 -0.0018875734 0.001748466 0.0009321621 -0.0013223155 -0.0019689044
0.001970102 0.0019620643 -0.0018980494 -0.0019152247 -0.0019172967 -0.0015174159 0.00096665655 0.0011751825
8.30421e-05 0.0017132334 0.0008507343 0.00020343512 0.00059540424 0.0013333056 0.0005939687 0.0016393856
-0.0004508919 -0.0018467591 0.0018305538 -0.001631459 0.00010228037 0.00031651725 -0.0016939157 0.0018512753
0.0019363025 0.0019083781 -0.0006653916 -7.825975e-05 0.0010165388 0.001948131 -0.0016479347 0.0012041155
-0.0016113664 0.0018338801 0.0016447424 0.0020022567 0.0019136799 -0.0018423442 -0.00086786103 -0.0018435384
-0.0018504956 0.0019830533 0.0018287224 0.001722039 0.0018581453 8.569792e-05 0.001881811 0.001944855
0.0019400221 -0.0016854375 -0.0015611594 -0.0018150745 -0.00014609165 -0.00031999475 0.0017622978 0.001894996
-0.0011177794 -0.0019509534 -0.0015420867 -0.00029487401 0.0015222699 -0.0015837302 0.0005315503 0.001987947
0.0017652361 -0.001046325 0.0017498224 -0.0019280352 -0.0019781347 -0.0013384853 0.0002629228 -0.0003432281
-0.0017955985 0.001878355 0.00023410548 -0.00033154 0.001938273 -0.0003660418 0.00044708265 -0.0004245927
-0.001844619 0.0019332877 0.00061529817 0.0015648026 1.5285947e-05 -0.0007650525 0.001302498 0.0016153245
0.000400212 0.0016536639 0.0019204032 -0.0016007908 -0.0017935463 -0.0004903381 0.0015518139 -0.0014558443
0.0019569513 0.001815193 -0.0012393399 -0.0011793947 -0.0002119968 0.0005023152 -0.00020821259 -0.0018273942
-0.00044009907 -0.0010841256 -0.0017282158 -0.0017929878 -0.0014857363 0.0016292396 0.0017307197 -0.00014829883
-0.0016198414 -0.001690672 0.0016493177 0.00016824555 0.0019882158 0.00041639866 -6.633329e-05 -0.0018395395
-0.0019699738 -0.0019186138 0.00041647183 -0.0017239138 0.0016682931 0.00034480236 0.0010109578 -0.0019108097
0.0019244844 0.0019869325 -0.0018360695 -0.0018370936 -0.00027984922 -0.0016008657 0.0012561255 0.0016705265
-0.000669016 0.0005331278 0.0012790217 5.4884702e-05 0.0017578265 0.0010938671 0.00037187734 0.0019978022
-0.00037799552 -0.0017974803 0.0017826015 -0.0019607716 -6.3191794e-05 0.00050918886 -0.0017410996 0.0018336223
0.0019707151 0.0017025563 -0.0013533945 -0.0001610427 0.0011981835 0.0018880542 -0.0018919221 0.0007221166
-0.0014665143 0.0010081164 0.00030941237 0.0019925733 0.001820191 -0.0016017054 -0.0015707536 -0.0017690909
-0.0019432398 0.0019515902 0.0018409272 0.0016609197 -9.004209e-05 0.00024185379 0.0017466234 0.002001938
0.0011767868 0.00046775216 -0.00031637834 -0.0015633556 -0.0014607572 0.00032843885 0.0019406098 -0.0008230241
0.00035080942 -0.0017671597 0.0004381046 -0.00035829734 0.00047979425 -0.0013296952 0.0005246217 0.001980915
0.0016654277 -0.00035922055 0.0005157381 -0.0019120552 -0.0019570002 -2.8631328e-05 0.00015097256 -0.0015872609
-0.0018094608 0.0019362129 -0.00018816417 0.00069004647 0.0019157445 -2.4318313e-05 -0.00027244413 -0.001521401
-0.0018101028 0.0018463646 0.0016893675 0.0010186472 -0.0004023112 0.00020725476 0.0009052775 0.00043959668
-8.889595e-05 0.00049269706 0.0019380591 -0.0017141476 -0.0017818727 -0.0015939438 0.000361772 0.00029365538
0.0019504336 0.0017832534 -0.0014736232 -0.0009383824 -0.00018976178 0.0016002614 0.0017914905 -0.0016364345
-7.286921e-07 -0.0012625897 -4.2789536e-05 -0.00031160907 -0.0016865531 0.0004361471 0.0019575676 -0.00017078707

recurrent.weight_ih_l1 f4 [512, 128]
00000000: 9b7b 05bd ba3b 0f3d b2ff 99bd 536f 36bd
00000010: bad4 87bd 88b4 8a3c 2ad3 17bd 2ee6 9e3d
00000020: fa0c 863d 8444 543d 5173 9ebd f821 8ebd
00000030: 302b 863c dfe5 8e3d 53b6 f63c 6e1f 153d
00000040: c5ba 293d adf0 3fbd 00ff babc 449d 3cbd
00000050: dfcb 63bd eded 84bd 104b 7fbd 0d42 6fbd
00000060: 6252 bd3d 01e6 b93d fe00 94bd 2be2 3ebd
00000070: f877 a83d 21f6 a4bd 22e9 79bd 2e1d 023d
00000080: cfa9 35bc 5f60 aabd 390d 2c3b 3f41 b6bc
00000090: 0d82 bdbd e3bc e4bc 05c0 eabc bc87 7bbd
000000a0: f3f5 bc3d 30b1 913c d114 863d 5704 f03c
000000b0: bcf0 243c da0a 573d cf7f 60bd 3947 5d3d
000000c0: 6f70 a3bd a017 9dba cf8c 933d 8fff 4cbd
000000d0: 8ae8 18bd 804b a23b 8d8e 833d c43c 183d
000000e0: cb57 a93c 23fb 153d 4b33 89bd ef11 6b3d
000000f0: 07d3 f03c 233c 9dbd 7237 59bd fa99 c83c
00000100: 9d93 babd ccdf 99bd 8489 a2bd 725c 7e3d
00000110: 496a a33d 5548 2d3b d55d dbbc fcaa 68bd
00000120: 2242 47bd 0dc0 653d 1dca 183c 38d0 b93d
00000130: 4291 0d3d 00d9 7d3d 101e 2e3d e376 8cbd
00000140: 94cf 863d 8ae8 203d fe00 4a3d 5017 5e3b
00000150: 6ea6 063d ef79 4b3c fa22 8dbd 21d4 b2bd
00000160: 23e9 70bd 773b bebd 53f2 81bd b9de 7b3d
00000170: ef68 a0bd b27f 05b9 e1c6 21ba 29d6 3a3d
00000180: 997f 8dbd e3fd b7bd 43bf 93bd 1db2 243d
00000190: ca97 7d3d dc92 a9bd 71c8 9c3d d688 c0bd
000001a0: 26aa 95bd 729f 2fbd e191 c1bd 9207 89bd
000001b0: 2b5c 35bd cfe8 9cbd 3072 dc3c 6ae1 473d
000001c0: 8d77 0e3d 7723 df3c 97dd 383c c541 acbd
000001d0: 7ec5 953d 3859 a03b 1f9f 5d3c 78f3 0fbd
000001e0: 2876 a53d c978 b73d 62a9 103d 5335 9f3d
000001f0: e61a 983c 581f 233d a10f 803d d355 b6bd
00000200: 093a 92bc d248 aabd a8fd a6bd 159f 7fbd
00000210: 7e74 a8bc 8c14 b13d cc00 acbd a409 b2bd
00000220: 8197 acbd 28b3 bfbc 2aa8 c9bc 644e 21bd
00000230: f944 6ebd bbdb 1bbd e2b6 803d 5225 e93b
00000240: e9d3 a93d 9537 4dbd 1f03 153d 0233 66bd
00000250: 9fbb a93d 33cc a53c 930e bcbd 4ef0 c3bd
00000260: f9a7 8b3d 86c5 78bd 47c6 a13d 13e5 813d
00000270: 153c 9bbd 6bb7 1abd a866 773d 8d5a 183d
00000280: 0240 07bc 5e80 8cbd b956 8e3c 3e61 003b
00000290: 2c97 563d 56cf 63bd 2bdb 983c 3f3c 8bbc
000002a0: 14b7 633d 4968 773d cb30 49bd 48b3 a7bd
000002b0: 898b 9abd 94c5 9f3d 582f 64bc 0752 4abd
000002c0: f250 97bd 6a7d 37bd f844 98bd 70e8 903d
000002d0: f3cb a03d 07e8 633d 5598 b0bd e0bb f6bc
000002e0: bf82 bd3d 5027 47bd bf43 cf3c 3f39 8d3b
000002f0: 2307 adbd 87a1 183c 2959 333d 2b76 aa3d
00000300: f070 aabd 2e38 2b3d 19cb adbd e38d 8a3c
00000310: 90d0 21bd 7eac dbbc 02a8 353d 4c02 073c
00000320: 5855 a83d ed03 3ebd 33c3 22bd c3ef 493d
00000330: 82a2 bf3c 7b61 1b3c 1af1 c1bd 843d 693d
00000340: e9bf c6bc f471 a53d 130c a13d c9eb 6abd
00000350: af35 963c a334 96bd f5be 0e3d a377 4cbc
00000360: 2f9c 1f3c bd29 a33d 2036 9fbd 8ccb 843d
00000370: 72c7 78bd 9e2a adbd ce59 bdbd e046 bebd
00000380: d6cc a0bd dbee b53b dc81 e73a c0c8 c0bd
00000390: 07e9 573d 9472 4c3d 4228 2a3d b9b7 7abd
000003a0: 5ce5 f1bb 4ada b33d 5c26 973d faec a0bd
000003b0: a0c9 a43d 5cd2 0abd 55e0 bd3d 6de3 5dbc
000003c0: 4efa 23bd 0d90 a6bb 9cd0 823d 85e6 7dbd
000003d0: 542d f2b9 6df5 80bd 60f6 a23d 9936 133d
000003e0: a2af 8dbc 319a d6bc 7121 04bd c2ad a9bc
000003f0: 83d7 143d 3ac5 ffbb bd2d 3a3c a008 16bd
-0.032588582 0.03496907 -0.07519473 -0.04453976 -0.06632371 0.016931787 -0.037066616 0.07758747
0.06545444 0.051823154 -0.077368386 -0.06940073 0.016378015 0.06977438 0.030116236 0.036406927
0.041437883 -0.046860386 -0.022826672 -0.046048418 -0.05561435 -0.06490693 -0.062327445 -0.0584126
0.09244229 0.09077073 -0.07226752 -0.04660241 0.08226007 -0.08054758 -0.06101335 0.03176611
-0.011087849 -0.083191626 0.0026252999 -0.022247909 -0.09253321 -0.0279221 -0.028656015 -0.061408743
0.092265986 0.017784685 0.06546939 0.029298944 0.010067161 0.052500583 -0.054809388 0.054023
-0.079804294 -0.001198519 0.072045915 -0.050048407 -0.03733114 0.004952848 0.06423674 0.037167326
0.020671746 0.036616456 -0.066992365 0.05739015 0.0293975 -0.07677486 -0.053031392 0.024487484
-0.09110186 -0.07513389 -0.07936385 0.06209988 0.07979257 0.0026440818 -0.026778141 -0.05680369
-0.048647054 0.056091357 0.009325531 0.09072918 0.034562357 0.061974525 0.04250914 -0.06858613
0.06582561 0.039284267 0.049317352 0.0033888407 0.032873563 0.012419208 -0.06891437 -0.08731867
-0.058816087 -0.09288686 -0.06345048 0.0614917 -0.078325145 -0.00012731439 -0.0006171298 0.045614395
-0.06909103 -0.08983972 -0.07214215 0.040208925 0.061912335 -0.08279964 0.07655419 -0.094010994
-0.07307844 -0.04287667 -0.09451652 -0.06690897 -0.04427735 -0.07661592 0.026909918 0.048798956
0.03478198 0.02723859 0.0112833 -0.08410982 0.07313059 0.004893448 0.013526707 -0.0351443
0.08079177 0.08958585 0.035317786 0.07773843 0.018567514 0.039824814 0.06252981 -0.089030884
-0.017849939 -0.083146706 -0.0815385 -0.06240757 -0.02056336 0.08646497 -0.083985895 -0.08693245
-0.084273346 -0.023400858 -0.02461632 -0.0393814 -0.058171246 -0.03805135 0.06284882 0.0071150446
0.08292372 -0.050101835 0.03637993 -0.05620099 0.08287739 0.020238971 -0.09182467 -0.09567319
0.068191476 -0.060735248 0.078991465 0.063425206 -0.07579819 -0.037772577 0.060400635 0.03719573
-0.008255007 -0.068604216 0.017375337 0.001958921 0.052390262 -0.055617653 0.018659195 -0.016996501
0.05559452 0.06040219 -0.0491188 -0.08188492 -0.075461455 0.07801357 -0.013927303 -0.049394634
-0.07388486 -0.04479734 -0.0743503 0.07075584 0.078514 0.0556412 -0.08622805 -0.030118883
0.092534535 -0.048621476 0.025300859 0.004309803 -0.08448627 0.009315855 0.0437862 0.0832332
-0.08322322 0.041801624 -0.084860034 0.01691336 -0.03950554 -0.02681565 0.044349678 0.008240294
0.08219403 -0.046390463 -0.039736938 0.04930092 0.02339292 0.00948369 -0.094698146 0.05694343
-0.024261432 0.080783755 0.07863631 -0.05735377 0.018336145 -0.073342584 0.03485008 -0.0124796955
0.009741827 0.07966945 -0.077739954 0.06484136 -0.06073708 -0.08455394 -0.092456445 -0.09290862
-0.07851569 0.0055521554 0.0017662602 -0.0941329 0.052712467 0.049913958 0.0415423 -0.061210368
-0.007382078 0.0878187 0.07380363 -0.078577 0.080462694 -0.03389202 0.092713036 -0.013542992
-0.04003363 -0.00508309 0.06387445 -0.06198742 -0.0004619161 -0.06296811 0.079571486 0.03594074
-0.017295662 -0.026196571 -0.032258455 -0.020712737 0.03633834 -0.0078054937 0.011363444 -0.03662932

recurrent.weight_hh_l1 f4 [512, 128]
00000000: 7238 9a3c 70c4 93bc 0914 303d bbde 943d
00000010: 1f40 69ba c81e 97bd 5292 ae3d 0a29 7f3d
00000020: 49d0 b5bd e9b9 cd3c 0078 d0bc 4640 833c
00000030: 3ac0 b4bb a109 94bd f815 823d fa1b b83c
00000040: 24e9 78bd 024e a4bc 44f9 a53d 815e 9e3d
00000050: 5d92 9fbd 8d8c b13d 8868 bd3d 466d 08bd
00000060: fd58 023c 1c56 fc3c 4d81 9c3c c2c5 533c
00000070: 2665 a2bc c819 813c 232b 90bd ebef 9a3d
00000080: e04a 2e3b 4102 a43d 9ef0 463c c02f a43d
00000090: 0a19 42bd abe8 bfbd 5ce4 a8bd ce04 103d
000000a0: 64d6 57bd 0768 a6bd b767 b23d 2fc0 ba3c
000000b0: 9af6 30bc 568a 6abc 262f 16bd d8cf 8cbd
000000c0: 1f2c 41bd 370e 493d 41ea 38bd 3a31 9f3c
000000d0: 68fa 853d 19e6 563a 6b23 e7bb 006a 9d3d
000000e0: 5923 833c 91d5 943c eced 5bbd 2fbd 7d3d
000000f0: a87e f9bb 183e 4e3d dbbe b7bd c351 e6bc
00000100: 4f85 c7bc e51a ac3d 12ff 8dbd df12 e23c
00000110: bdba ad3d 7abd 5fbd 3bed be3d 279f 6e3d
00000120: 7fe3 14bd e93c 093d 8bfb d53c 1232 6a3c
00000130: 5a4a 203d 56f6 6e3d b16c 953d 1888 723d
00000140: 9ab0 83bd 2ca8 9cbd c7a9 85bd 5ca8 04bd
00000150: 1845 afbd 8fe1 0abc f5c3 cebc 9d32 443d
00000160: 1002 15bd 7da6 403d 56ce fe3c 540f 833d
00000170: c233 a2bd 99c4 3cbc 2781 283d 9ba9 b33d
00000180: 5cc2 5e3b 5fa8 ecbc 7b98 a2bd b5ea 353d
00000190: 7e93 71bd 1c2a 99bd 4cfb a83b 3b6f c3bd
000001a0: dfd6 7dbd 5a61 a5bd 27e0 a4bd eb84 193d
000001b0: c62a a4bc d7d4 a0bc 9fd8 59bd 3390 0dbd
000001c0: 4653 92bc 8c83 b5bd fea2 b9bd 66dc 8a3d
000001d0: 9429 8a3c 376b 6e3d eb35 b8bd 2b1a 9bbc
000001e0: 3bc7 33bc 7032 65bd 801d 7a3c 18f9 88bd
000001f0: 8487 8e3c 431f a23d 2ada 113d e5fe b33d
00000200: ed3b 603d 5c22 a0bb dc8a aebd c8bd 503d
00000210: de37 95bb cae6 663d 5516 b83d c97d 0cbd
00000220: 37d6 aebd 2dc3 99bc 0412 d83c 0eb1 74bd
00000230: 77f4 183d fbe7 25bc 1f95 1b3d bcc1 abbb
00000240: 164a aabb cfd4 8cbd 02e3 29bd aa0b e53c
00000250: 0d87 25bd fd81 7e3d a419 c5bc 2399 173d
00000260: 3de2 0cbd 9fd1 21bd b3bf 88bd 061e d73c
00000270: eb73 913c 80c8 babc dcdb 543d 1fad 07bd
00000280: a12c cd3c 2d4b 883d 6666 a93d cb88 1fbd
00000290: 15e4 8fbd 7751 1fbc 1d92 35bc 6408 2ebd
000002a0: e00e 56bc 7d72 31bd b3a9 973c a1ed 903d
000002b0: 8930 47bd c796 abbd ad34 023d a64d 87bd
000002c0: 2369 b6bc 8ec6 9fbc 5d10 83bb 0fa5 ae3d
000002d0: 07b6 a63d 62ea 433d 23ae 96bd 723e bbbc
000002e0: d244 713d 2445 6ebd cc68 263d 1336 34bd
000002f0: 3925 fd3c a320 53bc 0b85 ad3d 2eb6 5bba
00000300: ea6c 79bd dcdb 253c e833 c1bd e79c 773d
00000310: 9568 37bd 3c41 923b 1acc f03c ec9d a53d
00000320: 88f7 99bd a8c5 8ebd 29d2 323d 18be b5bd
00000330: 6fc3 34bd 6c91 b1bd f66c b0bd 99c5 b23c
00000340: 6be7 4d3d a474 80bc cab9 b3bd 1767 46bd
00000350: 2033 6bbc 1da0 9d3c 185b 0cbd 6de8 b13d
00000360: fc4f 79bc d260 66bd 6aeb f1bb 43a3 a83c
00000370: 8f52 e23b 5762 5abd de06 c2bd 32c1 b4bd
00000380: 1a9c bf3d f4c2 3b3c 61d1 61bc 1ade b6bd
00000390: f0ce 6e3d d46a ddbb 2944 073d 176a a43d
000003a0: bd53 dbbc 96cc 663d efb5 c6bc 2f54 363d
000003b0: 1148 553d 2b41 adbc 649f eabc 446e 89bd
000003c0: c2df a03d 6bca 8e3d e06a c73c 6d3f afbd
000003d0: c802 853d fc7c a5bd 61c0 a4bc d08b bb3d
000003e0: 6905 51bb af1e 893c ba50 9e3d 7f77 67bd
000003f0: 14cb 2dbd c939 aa3d bcb5 90bd 32d8 5d3b
0.018825743 -0.018038005 0.042987857 0.07269045 -0.00088977994 -0.07378918 0.08524002 0.062294997
-0.08877618 0.025113063 -0.025447845 0.016021859 -0.0055160793 -0.07228399 0.063518465 0.022474278
-0.060769215 -0.020056728 0.08104184 0.07732869 -0.077915885 0.08669386 0.092484534 -0.033307336
0.007955787 0.030802779 0.019104624 0.012925567 -0.019823622 0.015759364 -0.07039478 0.07565292
0.0026594922 0.080082424 0.012142329 0.0801692 -0.04738716 -0.0937055 -0.08246681 0.035160832
-0.052694693 -0.081253104 0.08711188 0.022796718 -0.010800982 -0.014315208 -0.036666058 -0.068755805
-0.047161218 0.049085822 -0.045145277 0.019432653 0.06541902 0.00081977394 -0.0070537827 0.076862335
0.016008066 0.018168243 -0.053693697 0.061947998 -0.0076139756 0.050352186 -0.0897195 -0.028115159
-0.024355559 0.08403567 -0.069334164 0.027596889 0.08482883 -0.05462406 0.09322592 0.05825725
-0.03634977 0.033505354 0.026120922 0.014294164 0.039133407 0.058340393 0.07296122 0.05921182
-0.064301684 -0.07649264 -0.06526523 -0.032387123 -0.085581005 -0.008476629 -0.025239924 0.04789983
-0.03637892 0.047033776 0.031104248 0.06399408 -0.07920028 -0.011521482 0.041138794 0.08772584
0.003399036 -0.02888888 -0.079392396 0.044413287 -0.05897855 -0.07478735 0.00515691 -0.095427
-0.061972495 -0.08075209 -0.08050566 0.037480276 -0.020039927 -0.01963274 -0.0531851 -0.034561347
-0.017861973 -0.08862981 -0.090642914 0.06780319 0.01686553 0.058207717 -0.08994659 -0.018933376
-0.010972793 -0.055956304 0.015265822 -0.06688136 0.017398603 0.07916119 0.035608448 0.08788852
0.05474465 -0.0048869085 -0.08522579 0.05096224 -0.004553779 0.05637244 0.089886345 -0.034299646
-0.08536952 -0.018769825 0.026375778 -0.059739165 0.037342515 -0.010126109 0.03798401 -0.005241601
-0.00519682 -0.068765275 -0.041476257 0.027959663 -0.040411998 0.062135685 -0.024060078 0.037011277
-0.034395445 -0.03950655 -0.06677189 0.026259433 0.01775547 -0.022800684 0.051967487 -0.033124086
0.025045695 0.06654964 0.08271484 -0.038948815 -0.07025925 -0.009724013 -0.011082199 -0.04248847
-0.01306507 -0.043322075 0.018513536 0.07076574 -0.04863027 -0.08378368 0.031788517 -0.06606607
-0.02226693 -0.019503858 -0.0039997534 0.08527576 0.08140188 0.047830947 -0.07357433 -0.022856925
0.058903523 -0.058171406 0.040627286 -0.04399688 0.030901538 -0.012886199 0.084726416 -0.0008381334
-0.060894884 0.010123219 -0.094337285 0.060452368 -0.04477747 0.004463343 0.029394198 0.08086762
-0.07517916 -0.06971294 0.043657456 -0.08874148 -0.044131692 -0.08670315 -0.08614533 0.021822738
0.050269525 -0.015680619 -0.08775671 -0.048438158 -0.014355451 0.019241387 -0.03426656 0.0868691
-0.015216824 -0.05624468 -0.0073828 0.020585662 0.0069068144 -0.05331644 -0.09473966 -0.088259116
0.09355946 0.011460055 -0.01378283 -0.08929081 0.05830282 -0.0067571197 0.033023987 0.080280475
-0.026773328 0.056347452 -0.024256675 0.044513877 0.05207068 -0.021149239 -0.028640456 -0.067104846
0.078551784 0.06972202 0.024342954 -0.085570194 0.06494671 -0.080804795 -0.020111265 0.091575265
-0.0031894094 0.016738264 0.07730241 -0.056510445 -0.04243 0.08311803 -0.07065913 0.0033850786

recurrent.bias_ih_l1 f4 [512]
00000000: b934 cb3a 70c3 eb3a 86c1 c23a b057 5fb8
00000010: 9711 02ba d94b c3ba 6419 e5b9 3268 feba
00000020: a325 fd3a 1c4e d93a aefe a939 79e3 013b
00000030: 7506 f1ba b08a b738 e04d f33a 5138 a5ba
00000040: 27a2 c9ba 4ef7 83b9 df42 b5ba 5d30 97b9
00000050: 5e0e ccba d2f4 d1ba cfd8 8239 0c27 f93a
00000060: 2253 de3a 37e9 c23a b3aa f6ba 6605 caba
00000070: e9ae d139 5904 4c3a 8968 ecba 77b0 d23a
00000080: 2c94 e7ba 5912 ff3a a917 003b ba27 1bb9
00000090: d41a 31b9 0181 d5ba cdd6 d83a 9165 fc3a
000000a0: 3f3c f03a 7a7f a83a 81ef e0ba 436b f239
000000b0: ddd2 fa3a c634 fb3a e24d c43a 9f95 c4ba
000000c0: a600 013b 29cb 52b8 fa5c fc3a 9455 efb9
000000d0: f7c3 f1ba 3b13 d43a 0113 843a 4a89 d9ba
000000e0: 2ab8 b939 7105 023b 1d3c 013b 7775 f73a
000000f0: 36da f83a 27c7 f5ba 750b b2b9 635d f0ba
00000100: ebb3 b1b8 b51a f43a c666 fdba de15 e83a
00000110: a1fe eaba b86a 1839 bfda f73a 1dbe dcba
00000120: 5505 a5b9 b889 eeba c127 f73a 928c cf39
00000130: 77d2 833a 59a4 f4ba e46d 00bb 574f feba
00000140: eb9b eeba f83a f03a 48eb ebba 805a ebba
00000150: da6c 3db9 4a70 923a 9149 f1ba 2dcb b839
00000160: 46c2 d0ba b8fd 013b ce51 cfba 4124 01bb
00000170: 780c f0ba d20a ea3a e13e bdba e76a ed3a
00000180: 016b dd3a 395c e03a 76a7 65b9 5e0d f3ba
00000190: 4763 d9b9 71b5 043a b394 ef3a 97ab f73a
000001a0: 2549 e9ba b97f 00b9 890d f23a 383d fc3a
000001b0: 37a7 beb8 2bdc f53a a5f1 e93a 6805 aa3a
000001c0: 5442 d4ba d53d c3ba b2bf e2ba 09c3 e33a
000001d0: 3abc cd39 75f3 e2b9 bb47 92ba 5dab 00bb
000001e0: 70eb e739 5e02 c3ba 0ba4 fe3a 1718 013b
000001f0: d0db 013a 806a 3bb8 8b96 3a3a 0e57 783a
00000200: fc99 083a 9229 ea3a 3d15 ac3a 0ac8 9eb8
00000210: 2f00 71ba 1d57 d1b9 f10c 5bb9 1d4c fbba
00000220: a7d2 cb39 6fe3 f33a 2bb6 b039 8d62 ee3a
00000230: 85ba e6ba 1e63 7bb9 c683 ec3a cd1c a0ba
00000240: ff5c daba 2805 5ab9 98a3 99ba 893a 95b9
00000250: 14ee dfb9 9b2f c7ba 2fb5 da39 8b06 f73a
00000260: 4231 113a 7a21 9d3a 54af f0ba 1e9f c5ba
00000270: 44ac be39 c457 7d3a fe32 e1ba b4ba dc39
00000280: 7cd2 e4ba 4cd2 fa3a 12dd fd3a 53e8 ecb9
00000290: 4463 43b9 7ad0 b8b9 2ec7 0939 cdcf ff3a
000002a0: 8de5 f73a 2ea0 483a f82e e4ba f05b b139
000002b0: c75a f93a 4ad6 f23a 3e20 cb3a dbb2 ccb9
000002c0: 004d 003b 04b3 a8b8 a9dc fc3a 289c bfb9
000002d0: 46b6 f2ba a8be ba3a be24 5b3a 07c4 e6b9
000002e0: c957 4739 eb50 023b 9b26 013b 0369 e43a
000002f0: 2ecd e43a 0b68 f3ba d9ec b4b9 5569 d5ba
00000300: f188 0eb9 fcbd f03a 2970 00bb bfe1 dd3a
00000310: 9469 dcba 08bc b939 4f22 f53a e0e6 d7ba
00000320: bae8 d5ba caad e4ba 8402 f13a f534 b238
00000330: f395 613a a283 ecba 8172 00bb 77a3 ffba
00000340: 8d40 f5ba 0118 013b d325 e0ba 4bcf fcba
00000350: fb17 0539 5824 b73a ecb8 edba 2a7c 1a39
00000360: ae3e daba c5ad 023b 41ee f6b9 fb95 01bb
00000370: de4c 403a 8a9d e33a 690a d6ba 647e f53a
00000380: 5d29 db3a adb6 eb3a 5021 e6b9 e2ed d4b9
00000390: 2dce d8ba 451c e539 fa48 ef3a 250c f73a
000003a0: ab81 d1ba d881 cfb8 8810 f03a 51fc fa3a
000003b0: 5485 f1b8 a140 f33a 0c4c eb3a bddc ad3a
000003c0: e0a8 ccba 1be4 bcba 7a3b dfba bfaf ed3a
000003d0: 6a89 b939 3cf0 01ba 5561 4fba fd03 01bb
000003e0: 9a5a d339 8758 c9ba 5300 fe3a c713 003b
000003f0: 384d dc39 2617 e638 940a 3e3a 86bf 8838
0.0015503383 0.0017987322 0.00148587 -5.324901e-05 -0.00049617275 -0.0014899924 -0.000436972 -0.0019409715
0.0019313585 0.0016579065 0.00032423943 0.0019819422 -0.0018388765 8.7519526e-05 0.0018562637 -0.0012605285
-0.0015383408 -0.00025170523 -0.0013829133 -0.00028836998 -0.0015568247 -0.0016018397 0.00024957067 0.0019008829
0.0016962031 0.0014870529 -0.0018819183 -0.0015412986 0.00039993905 0.000778263 -0.0018036525 0.0016074319
-0.001766806 0.0019460424 0.0019545353 -0.00014796751 -0.0001689003 -0.0016289057 0.0016543508 0.0019256343
0.0018328502 0.0012855374 -0.0017161221 0.00046237753 0.0019136328 0.0019165508 0.0014976824 -0.0014998204
0.0019684224 -5.025711e-05 0.0019253783 -0.00045649393 -0.0018445243 0.0016180048 0.0010076464 -0.0016596701
0.00035423163 0.001983967 0.0019719668 0.0018879612 0.001898593 -0.0018751369 -0.00033959342 -0.0018338378
-8.47353e-05 0.0018623682 -0.0019332997 0.0017706712 -0.0017928669 0.00014535605 0.0018909796 -0.0016841326
-0.00031475225 -0.0018199002 0.0018856452 0.0003958685 0.001005723 -0.0018664702 -0.001959675 -0.0019402307
-0.0018204426 0.0018328121 -0.0017999196 -0.0017956048 -0.00018064995 0.0011172381 -0.0018408765 0.00035246593
-0.0015927039 0.0019835066 -0.0015817226 -0.0019705447 -0.0018314263 0.0017856008 -0.0014438295 0.0018113524
0.0016892852 0.0017117328 -0.00021901526 -0.0018543412 -0.00041463433 0.0005062437 0.0018278569 0.0018895742
-0.0017798288 -0.00012254612 0.0018467169 0.0019244319 -9.091052e-05 0.0018757632 0.0017848505 0.0012971582
-0.0016194084 -0.0014895747 -0.0017299561 0.0017376851 0.00039240887 -0.0004328747 -0.0011160293 -0.001963339
0.00044235168 -0.0014878025 0.0019427551 0.0019698197 0.0004953714 -4.468346e-05 0.00071177696 0.00094734214
0.0005210934 0.0017865172 0.0013128888 -7.571287e-05 -0.0009193448 -0.0003992849 -0.00020890289 -0.0019172464
0.00038876125 0.0018607209 0.00033705062 0.0018187329 -0.0017603195 -0.0002397415 0.0018044643 -0.0012215615
-0.0016659795 -0.00020792021 -0.0011721728 -0.00028463107 -0.00042711257 -0.0015196683 0.00041715192 0.0018846554
0.0005538651 0.0011988126 -0.0018362799 -0.0015077328 0.00036367972 0.0009664262 -0.0017181335 0.00042100775
-0.0017457749 0.001913616 0.0019368252 -0.00045186523 -0.00018633628 -0.00035250542 0.00013139538 0.0019516886
0.0018913016 0.0007653263 -0.0017409017 0.0003382857 0.0019024246 0.0018526998 0.001549728 -0.0003904317
0.0019577146 -8.0442085e-05 0.0019291836 -0.00036546704 -0.0018517456 0.0014247494 0.0008359662 -0.0004401507
0.00019010821 0.0019884657 0.0019706849 0.0017426315 0.0017456168 -0.0018570436 -0.0003450874 -0.0016282002
-0.0001359319 0.0018367167 -0.0019598103 0.001692824 -0.0016816133 0.00035426044 0.0018702241 -0.0016472004
-0.0016319968 -0.0017446813 0.001838759 8.4975654e-05 0.0008605413 -0.0018044601 -0.00195995 -0.0019503672
-0.0018711254 0.0019698145 -0.0017101116 -0.0019287852 0.00012692802 0.0013972623 -0.0018136776 0.00014732839
-0.001665076 0.001994 -0.0004709829 -0.0019773233 0.0007335673 0.0017365676 -0.0016330007 0.0018729684
0.0016720701 0.0017983519 -0.00043893838 -0.00040613028 -0.0016540937 0.00043699346 0.0018256002 0.0018848224
-0.0015984079 -9.8947145e-05 0.0018315474 0.0019148682 -0.0001151661 0.001855869 0.0017951741 0.0013264638
-0.0015614294 -0.0014411242 -0.0017031275 0.0018134041 0.0003538833 -0.0004956757 -0.0007910927 -0.0019686215
0.0004031256 -0.0015361466 0.0019378759 0.0019543038 0.00042019202 0.000109715664 0.0007249501 6.5206594e-05
