input/lstm_model.pth (torch, 813481 bytes, 10 tensors)

recurrent.weight_ih_l0 f4 [512, 7]
00000000: b8fa 633c d7af 113c c816 343c 6745 733c
00000010: 1870 aa3c 8210 c8bb ad82 a03b 4362 a63c
00000020: eb99 683c 9213 343c fecb 873c 63a0 8dbc
00000030: d466 d9bd 74e4 51bb 2d48 09bd f04d 79bd
00000040: 84d6 073d 1db6 0a3d bcc5 89bc 9257 883c
00000050: 43e3 2f3b c315 b13d 5b23 953d 4db3 273d
00000060: eab3 873d bc46 2f3d 6d98 4bbb ba3b ff3c
00000070: 3d0a 4e3b 3ed4 2d3c d03f 623c a73b 883c
00000080: 692f efba f236 12bc 1ff9 923b 664c ed3c
00000090: ad77 fc3c 378f f23c 8d3f 023d 70bf ac3c
000000a0: 73a5 88bc 417e 493c 5d7a d83c ca60 e43c
000000b0: 5ee1 e83c d767 ea3c c8d2 9839 ad22 9138
000000c0: 898b 133c e923 413c ef06 0f3c 8413 f63b
000000d0: 6b46 573c 1a8b 813c a823 83bc ff3d a53b
000000e0: b62b af3c 1280 983c adbc 9e3b 1496 543c
000000f0: db5f e5bb f390 093c a0df de3b 2b97 ef3c
00000100: 0377 eb3c 9ba9 d73c 2dde d33c 4864 d339
00000110: 2585 04ba 828f 0e3c 3bc8 4a3c e9f5 c23c
00000120: 6f33 3b3d e43d e23c 33e4 07bd fbb3 b7bc
00000130: ae77 af3c 2d3b e83c b973 a73c c027 3d3d
00000140: cbae ce3c 371c 003c f98e b53c 9438 a33c
00000150: a293 22bc 241f 00bc 137a 86bc ed87 3bbc
00000160: 2a8d a9bc 0006 74bc 9512 36bd c3fe c63d
00000170: 67aa dd3d c229 bd3d e881 d33d 6997 903c
00000180: 4aea a23c d934 053d e43b cc3c 6be7 c13c
00000190: ef36 913c c618 4a3c 9ffb efbc 2aeb 82bc
000001a0: e43d 123a 4d13 d73c 7008 e73c 8ef0 223d
000001b0: 25ed 293d 8a8f abbc 33d7 c23c 52f9 523c
000001c0: d871 f33b 3814 943b beb3 583b da8c ba3b
000001d0: c5ce da3a 958f d13b 9229 2b3c 4059 ca3c
000001e0: 1f57 db3c 4cc8 f83c d180 003d dcd6 393a
000001f0: 386c 223a cc7b 133c 8d8f a5bb 9df4 28bc
00000200: 5729 8d3c 98c7 a73c 1c7d 83bc e3df 4f3c
00000210: 19e0 9fbb a93d f13c e49e f23c 9540 d03c
00000220: 8c8b c33c 3f0c 393a 3705 6fba 5a70 103c
00000230: 7a79 4b3c bdd4 5a3c 759c 113b dc26 253a
00000240: c148 99bc dcaf 41ba 4df9 573b e591 e33b
00000250: f30d d33b 2ce3 853b a32f 603b 316b 8bbc
00000260: 85f1 b938 0461 d83b d212 003d 002c 0a3d
00000270: 418d 9a3c a86e 953c ad68 903b 31a1 a13c
00000280: 6b93 4a3c d841 e73c ca51 fa3c fcdc ce3c
00000290: c7b6 ec3c b3b1 873c 1d6c dbbc 49d4 df3b
000002a0: a410 da3c 7f02 e33c 1cc0 e43c 65e0 e23c
000002b0: 69dc 473a 6132 0eba efd3 123c 6501 f03c
000002c0: c5cd f33c 6172 d23c df4b cf3c 25fd 5c3a
000002d0: 3b70 2fba 902c 0f3c 2518 3b3d a785 dd3d
000002e0: 522f 643d 61ce e43d 97af 16b9 1ac9 08bc
000002f0: 1ad0 103d b380 e43c 44e7 ec3c 6409 db3c
00000300: cdcf d53c 89b5 593a 4fc7 22ba bb5b 103c
00000310: 39f1 1c3c e5a7 013c 72ce cc3b aa1d f23b
00000320: c92d 0338 d046 20bc 44c2 a53b 9ad7 d03c
00000330: 7d6d f03c 1a15 eb3c 9c9c de3c 3e22 c83c
00000340: 20ac 6f3c 7ee0 323c f0c5 003d 482e 053d
00000350: 4912 c43c 8fe5 bf3c b973 003a be09 23b7
00000360: 6344 0e3c 28a3 2a3e fabd e03d 2719 df3d
00000370: 6ec7 3d3e 1ce4 383d c648 f2bb 6791 cf3c
00000380: d459 da3c a919 e93c 2c7c e33c 7ed7 d83c
00000390: ecae 6e3a 52cf 0cba 29bd 113c 8d0d f63c
000003a0: a8cd f93c 8c90 b73c a51b b83c 36cd acbc
000003b0: 5ffc c3bc d3a3 1d3c bb2c 233b 8e63 dd3a
000003c0: dfea 993a 4799 423b 07ad ec3c de8b 78bc
000003d0: bceb 023b 1d83 ef3c 8d58 ed3c 885b db3c
000003e0: 0773 d23c 1f28 353a a0e0 1bba 3153 0d3c
000003f0: 78f8 333c d7ae 623c 6221 f33b 5e0c 2d3c
0.0139147565 0.008892021 0.01099176 0.01484809 0.020805404 -0.0061054835 0.0048983903 0.020310527
0.014196853 0.010990994 0.016576763 -0.017288392 -0.10615316 -0.0032027038 -0.033516098 -0.060865343
0.033163562 0.033865083 -0.01681792 0.01664332 0.002683834 0.08646729 0.07282134 0.04094248
0.06626113 0.042792067 -0.0031066195 0.03115641 0.0031439208 0.0106096845 0.013809159 0.016630007
-0.0018248382 -0.008924233 0.004485264 0.028967094 0.030818785 0.029609306 0.031798888 0.021087378
-0.016680455 0.012298168 0.026425535 0.027878184 0.028427776 0.028613968 0.00029148743 6.920598e-05
0.009005436 0.011788347 0.00872968 0.0075096507 0.013139348 0.0158134 -0.016008213 0.005042791
0.021383148 0.018615756 0.0048442692 0.012975235 -0.0069999523 0.008396375 0.0068015605 0.029246887
0.028743273 0.026325991 0.025862778 0.00040319772 -0.00050552405 0.008701207 0.01237684 0.0237989
0.045703348 0.027617402 -0.033176612 -0.022424689 0.021419372 0.02834853 0.020440923 0.046180487
0.025229832 0.007819227 0.022162901 0.01992444 -0.009922894 -0.0078199245 -0.016415631 -0.011445981
-0.020697195 -0.014894009 -0.044451315 0.09716561 0.10823517 0.0923648 0.10327512 0.017650323
0.019887108 0.032521103 0.024930902 0.023669919 0.01772639 0.012335008 -0.029294787 -0.015981276
0.00055786804 0.02625432 0.028202266 0.039780192 0.041485924 -0.020942468 0.023784256 0.012876825
0.0074293427 0.004519012 0.003306612 0.0056930603 0.0016693702 0.00639529 0.010446923 0.02470076
0.026774941 0.030368946 0.03137285 0.00070892065 0.00061959354 0.009001683 -0.005052513 -0.010312227
0.017231626 0.020480916 -0.016050868 0.012687656 -0.0048790094 0.029448347 0.02961678 0.02542142
0.023870252 0.0007059015 -0.00091179035 0.008815849 0.012419099 0.013356385 0.00222185 0.0006300041
-0.01871145 -0.0007388571 0.0032954991 0.006944882 0.006440872 0.004085919 0.0034208081 -0.017018886
8.866474e-05 0.006603362 0.03126795 0.033733368 0.018866183 0.018241242 0.0044070096 0.019730182
0.012364249 0.028229639 0.030556578 0.025251858 0.028895749 0.016564226 -0.02678495 0.0068307263
0.026619263 0.027711151 0.027923636 0.02769489 0.0007624091 -0.0005424377 0.008961662 0.02929754
0.029761204 0.025689306 0.025304733 0.00084300555 -0.0006692444 0.008738652 0.045677323 0.10816508
0.05570919 0.11172176 -0.00014370527 -0.008348728 0.03535471 0.0278934 0.02891887 0.026737876
0.026100064 0.0008304944 -0.0006209509 0.008810933 0.009578996 0.007913564 0.006250196 0.00738879
3.1275475e-05 -0.009782508 0.0050585587 0.025493432 0.029349083 0.028696585 0.027174287 0.02443039
0.01462844 0.010917781 0.031438768 0.03251484 0.0239345 0.023424892 0.00049000565 -9.717825e-06
0.008683297 0.16663802 0.10973735 0.10893469 0.18533108 0.045139417 -0.007393929 0.025337888
0.026654162 0.028454619 0.02776917 0.026469942 0.0009105045 -0.00053714693 0.008895197 0.030035758
0.030493572 0.022407793 0.02247412 -0.021093946 -0.02392405 0.009621578 0.0024898488 0.0016890632
0.0011742971 0.0029693411 0.0288911 -0.015170066 0.0019976934 0.029237324 0.028972888 0.026777044
0.025689615 0.00069105806 -0.00059462525 0.008625791 0.010984533 0.01383563 0.007419751 0.010562031

recurrent.weight_hh_l0 f4 [512, 128]
00000000: ed75 94bb 0acf df3a 8614 48b9 ee13 f139
00000010: 9877 f63a 329c e9bb b0d2 de3b ce81 8a3b
00000020: 519f 3bbb 7fba de3b 87ee 333b 4358 a5ba
00000030: 9f60 d5ba ac9f 2bba ba40 0c3b 5c43 dc3b
00000040: 99e6 743a d035 de3b b64d 9fba 9241 df3b
00000050: 4514 363a 5100 e73a 3d66 ab3b 40dd be3b
00000060: ec87 df3b 54b9 df3b 6d18 4dba 5248 e03b
00000070: 25e4 e639 dcb8 923b 2f68 e03b 92e6 8ab8
00000080: 7cca df3b 9230 aa3b 54c7 023b b06c dfbb
00000090: 9722 003b 4f1a 893b 9211 53bb cf98 9a3b
000000a0: e601 e63b 92ec 86bb 11da 7bbb d0d3 a9bb
000000b0: d746 dd3b ca8a 013a 5abc b839 6881 d23b
000000c0: 254b dcbb f347 8fbb 3081 8bbb 1c44 debb
000000d0: d714 bdbb 5ac7 55bb 28b4 de3b 386c ed3a
000000e0: f15d 07bb 0522 8dba a552 a73b 6fd8 df3b
000000f0: dd3f 843b 1771 b1bb 8e8c 96bb 810f b33b
00000100: 2966 a9bb 26d1 2abb 8f3a afba 2362 f63a
00000110: fe2e dfbb d055 873a b169 e8ba e146 843a
00000120: 067e 05b9 48bb e03b 95b9 e0bb bcb4 ddbb
00000130: 8fdf df3b 0803 593b 4db8 7aba d8cd 8dbb
00000140: 31ec 3dbb 878f aa3b 3aaf 4cbb 49e6 99bb
00000150: e17e dfbb 95dd 81ba 1d34 b7bb 1bc6 953a
00000160: c4f1 df3b 034e d83b a86d 8c3b 4341 5e3b
00000170: 051e a5ba 533e 5fbb d96c 5dbb a635 953a
00000180: fb7a ce39 68c8 debb a905 b0bb ad24 ddbb
00000190: 77bf 7abb b60a afba 2e59 debb 86ae c9bb
000001a0: ac2f 903b d357 223b ee07 b83a c8ca b83b
000001b0: 23eb cebb ad89 d9bb b749 263b a9f7 5abb
000001c0: fe0a e9ba e36d a03b 35fa de3b 22d1 b2bb
000001d0: 28ef 83bb 72d1 cab9 09d1 debb 694b 8a3a
000001e0: 62d8 c13b 5796 de3b c169 50bb e267 533a
000001f0: 5bdb f9ba f32d f938 8b90 8fbb 81a7 3ebb
00000200: 08a1 41bb 1935 a53b cd47 6ebb c618 8c3a
00000210: 44d8 e03a 3075 45bb db04 a93b 261a 363b
00000220: 08a0 87bb 02b7 a33b 82c3 273a 2402 b23b
00000230: 6697 2fba cc7f 023c 6c7c c33a 5584 ba3b
00000240: 6e86 873a d901 ae3b ae0e 9cbb 1ff9 9f3b
00000250: 7d11 343a fc9c c83a 447a a13b 8e7e 243b
00000260: e879 a73b 9667 a33b 610b 80bb 7061 a43b
00000270: 4c37 ed3a ea25 593b 7336 a13b f2fb a93b
00000280: 9ea5 a43b 04e7 593b a864 c23a 79ae a3bb
00000290: 8ed0 c03a 0747 843a 826f 2cbb 559c 483b
000002a0: 9e7e 543b 9f64 8dba b896 15bb 8868 5cbb
000002b0: 0074 b03b c787 baba e331 f23a f11d 873b
000002c0: 3db7 a5bb 54ea aebb 6cdf adbb a436 a3bb
000002d0: 55ae 4bbb 8bd4 e1ba 03d7 a23b 1f7a 523b
000002e0: 8f82 453b 6bc5 2cbc 42b8 4c3b 093f a93b
000002f0: f760 91ba eebe a4bb 2453 21bb 7a18 493b
00000300: b10c 5ebb 862c 1b3b 453e 3dbb f8e1 3d3a
00000310: c90e a2bb 1c34 adbb 109a 853a 5a69 8abb
00000320: 66a4 84bb e4a8 a53b 248f a5bb fb2b a6bb
00000330: 83f9 9f3b e53c 2f3b 7372 5bba dab2 bbba
00000340: 2715 7bbb f023 653a 76ed 92bb 3af6 86bb
00000350: 9547 a6bb 4ca5 87bb 5831 67bb 00ec 26bb
00000360: 1ac8 a43b bd5d 943b 5903 323b e4b7 143b
00000370: 4446 bbbb 4269 8cba df86 ceba dccb 893c
00000380: a7aa e03b 646b a7bb 70a0 64bb c1b4 aabb
00000390: 4928 7fbb 5486 563b 924e aabb 69cf 80bb
000003a0: 3949 4c3a f135 7d3a 834b 063a 9477 533b
000003b0: cf56 2ebb f56e aebb 2805 223c ed5a 62bb
000003c0: 892a fe3b 1e88 443b 88fd a13b cde9 9ebb
000003d0: 1afa 0ebb 1c94 8c36 0cd6 a9bb 331d 33bb
000003e0: 2696 4f3b dd17 a23b d3ce eeba dc82 06bb
000003f0: 5b5f 86bb e1b2 6abb 571c 0fbb acc2 85bb
-0.0045306594 0.0017075252 -0.00019081132 0.0004598195 0.0018803952 -0.0071292156 0.0068000183 0.0042268997
-0.0028628896 0.0067971344 0.0027455406 -0.0012614805 -0.0016279406 -0.0006546925 0.0021400885 0.006721897
0.0009342223 0.0067813173 -0.0012153897 0.0068132365 0.00069457694 0.0017623996 0.0052306936 0.005824715
0.006821623 0.0068275128 -0.0007823769 0.0068445588 0.00044039 0.0044776034 0.006848357 -6.6233e-05
0.006829558 0.0051937783 0.0019955235 -0.0068183765 0.0019551867 0.0041840444 -0.0032206518 0.0047179232
0.0070192693 -0.004117557 -0.0038429538 -0.0051827207 0.0067528295 0.00049416407 0.00035235548 0.006424118
-0.006722825 -0.0043725907 -0.0042573437 -0.0067830216 -0.0057703066 -0.0032620043 0.0067963786 0.0018113917
-0.0020655359 -0.0010767585 0.0051062875 0.006831221 0.0040359334 -0.0054150927 -0.004594392 0.0054644947
-0.005169649 -0.0026064604 -0.0013368892 0.0018797558 -0.006811022 0.0010325257 -0.0017731694 0.0010091924
-0.00012730816 0.006858263 -0.0068580606 -0.00676593 0.00683207 0.003311338 -0.0009564206 -0.004327517
-0.0028979892 0.005205098 -0.0031232373 -0.0046966416 -0.006820545 -0.0009907956 -0.005590929 0.0011426838
0.0068342406 0.0066010966 0.004285533 0.003391341 -0.0012597447 -0.0034064248 -0.0033786802 0.0011383786
0.0003938301 -0.0067987926 -0.0053717685 -0.006748757 -0.0038261095 -0.0013354633 -0.0067855334 -0.006154838
0.004400214 0.0024771586 0.0014040449 0.005639408 -0.0063146516 -0.0066387267 0.0025373527 -0.0033411777
-0.0017779765 0.004895912 0.0068047293 -0.0054570595 -0.0040263124 -0.0003868449 -0.0067998213 0.0010551038
0.0059156874 0.0067928242 -0.0031801315 0.0008064491 -0.0019062565 0.00011881804 -0.0043812445 -0.002909154
-0.0029545445 0.00504173 -0.0036358715 0.0010688535 0.0017154296 -0.0030129664 0.0051580495 0.0027786582
-0.0041389503 0.0049961815 0.00063996774 0.005432384 -0.00066982803 0.007965039 0.00149144 0.0056920447
0.0010339746 0.005310279 -0.004762492 0.0048819925 0.0006869061 0.0015305574 0.0049279053 0.0025099847
0.005110968 0.0049867136 -0.0039076065 0.0050164983 0.0018098145 0.003313417 0.004919821 0.005187505
0.005024626 0.0033249268 0.0014831023 -0.004995164 0.0014710592 0.0010091969 -0.002631158 0.003061076
0.0032424103 -0.0010787434 -0.002282543 -0.0033631641 0.005384922 -0.0014231139 0.0018478002 0.0041234423
-0.005057244 -0.0053379927 -0.005306175 -0.004980879 -0.0031079252 -0.001722948 0.004969479 0.0032116247
0.0030137633 -0.010545115 0.0031237756 0.005164985 -0.001109152 -0.0050276434 -0.0024616206 0.0030684755
-0.0033882076 0.002367766 -0.0028876227 0.000724345 -0.00494561 -0.005285753 0.0010193009 -0.0042239847
-0.004047918 0.0050555337 -0.005052464 -0.005071161 0.004882039 0.0026739177 -0.0008371241 -0.001432027
-0.0038312168 0.0008741012 -0.004483874 -0.004118708 -0.005074451 -0.004139578 -0.0035277214 -0.0025470257
0.005028737 0.004527776 0.002716264 0.0022692615 -0.0057151634 -0.0010712522 -0.0015756747 0.01682084
0.006856281 -0.0051092375 -0.0034885667 -0.005209536 -0.0038933924 0.0032733874 -0.0051973546 -0.003930975
0.00077928934 0.0009659222 0.00051229465 0.003226732 -0.0026602035 -0.0053232857 0.009888925 -0.003453906
0.0077565354 0.0029988359 0.0049435534 -0.0048496486 -0.0021816553 4.1895673e-06 -0.005182987 -0.0027330637
0.0031675189 0.0049466924 -0.0018219597 -0.0020524776 -0.0041007227 -0.0035812187 -0.002183696 -0.0040820446

recurrent.bias_ih_l0 f4 [512]
00000000: 9240 e33c 56b2 143d 1784 463c 10a2 193e
00000010: 9a02 d83c 115d 843d a650 713d 71cd c13c
00000020: c8f9 073d e666 6f3d 640e 8f3d db1d 833d
00000030: d261 8dbc cda3 723e 4c51 423d 4162 973d
00000040: 1794 213c 7b63 743d 5c59 403c e077 6c3d
00000050: fdf5 603c 00f0 3f3c c307 643d 52a6 813d
00000060: dd7a 6f3d 21c0 6f3d a66a 453e 62f8 6e3d
00000070: 53ae bb3c 49ee 763d 0d62 713d e448 973e
00000080: 7bce 6e3d d44e 713d 7e4d 9a3b 644f 703d
00000090: 0fd2 e83c 4671 3d3d 9e48 aa3c c823 ed3c
000000a0: 65e1 843d fb28 bc3b f1dc 313d a796 393d
000000b0: 3155 783d 995a a4bc 3326 f03c 3458 813d
000000c0: edd4 6e3d 9dec 6e3d 4494 8b3d 738c 6b3d
000000d0: ff1a 733d 87bc 953b 22a9 6b3d 97e5 853e
000000e0: 1ec9 2a3e 6f8e e63d 34db 103d 9e3a 743d
000000f0: 0599 5a3d 3ac3 883d ac22 f13c 5315 853d
00000100: ece3 6c3d 9b53 21ba 5103 153d 5415 ba3b
00000110: 07c2 6e3d f947 4d3b afb6 723d bb6c 643e
00000120: 310b 64bb 4e01 713d fd8d 713d 4aa1 6e3d
00000130: e50b 6e3d 1837 333d 70db b83b fb6d 223c
00000140: 8909 4e3d 2399 2c3d 9198 4c3d 9d47 133d
00000150: 7079 703d e49b 913c 03ce 583d abf7 eabb
00000160: c3e0 6f3d 1a45 5e3d b984 7d3d a8dc 6e3d
00000170: 53e0 293d 39ca 1e3d 0046 533b ea90 883e
00000180: a9b3 993d f37e 6f3d 2f99 593d d037 723d
00000190: eaef f33d 5288 dd3b 5bb2 733d 1c1b 723d
000001a0: efcd 7f3d ec45 003d cf7a ab3b 4643 7b3d
000001b0: 354c 7b3d fa3e 6e3d 7e6b e33d fb93 323d
000001c0: 6f02 8e3e 9e18 ff3c 8e51 6e3d 83fe 853d
000001d0: a039 033c 4218 c03c 60fa 713d 50d9 9bbb
000001e0: d121 5c3d e023 6c3d a865 5a39 cb33 df3b
000001f0: 65cb d23b 013f 163e 6f67 553d 0b7d 2f3e
00000200: 2e9d 593c faaa 07bc b8ac 493d 4176 bbbd
00000210: 3971 e63c 2006 143d 0e0d 0d3d e763 473c
00000220: 5b20 d83c 3e27 0c3d 0a98 95bc d973 bfbc
00000230: 3a39 763d 9607 8cbd 0bca cc3c 499e 153d
00000240: 41a3 b23c ddea 0c3d 1d32 453d 93ce 0a3d
00000250: 7833 1e3d 727b e43a 01e7 063d da77 033d
00000260: 21d4 0c3d 219a 0c3d 16bb a9bd ed1e 0d3d
00000270: e06e b93b 4ecf 0a3d 3fee 0c3d 386e 8ebe
00000280: 3c68 0c3d b11e e83c ff92 b13b 5f81 0c3d
00000290: 507c 1e3b 3086 e63c d2fc 1c3c 2d31 743c
000002a0: e34a 103d ed56 f03b 990d b03c d8b2 b13c
000002b0: ce2d 0c3d 21e5 593d 4142 bc3c e953 023d
000002c0: 695f 0a3d 6998 073d b420 123d 4395 0a3d
000002d0: d06d f23c cbfc c83b 2252 0b3d a962 9fbd
000002e0: 05ba 44bd 719e 41bd 5ab1 963c 8377 0d3d
000002f0: 8330 c9bb 08e3 1f3d cec3 5b3c 05aa 023d
00000300: cfec eb3c cf5a 663d ed0e 973c d7b1 ac3c
00000310: 7c44 0c3d 41c7 263d 3ef5 5fbc b6cb 40be
00000320: 5cb4 673d 5418 0e3d 0f5e 0d3d 968d 083d
00000330: 66b8 0b3d de8a b33c 6da0 b93c 5ec5 013c
00000340: 4fdb 153d 055d e53c 0c7e f93c 58a9 983c
00000350: 4bfd 0d3d 8543 a93d 4693 f53c 9086 173d
00000360: 9bdb 0c3d a3c7 fe3c d657 e13c 0719 d23c
00000370: e0bd 2ebc da11 d23c 762f a23b 9eca 19be
00000380: ac93 9f3b 6c11 0d3d 00ab ed3c b68f 0b3d
00000390: 5ece 2abc 86e7 953c 4e60 0c3d a1fc 033d
000003a0: 58db 4ebc 1118 8b3c d10a a13c 0e31 033d
000003b0: dc3a 033d 8baf 093d 6949 2dbd 6f40 e93c
000003c0: d3b3 85be 40be 803c 9c6d 0b3d 82a4 133d
000003d0: e691 053c 2d76 b53b 847b 0e3d ecf1 253c
000003e0: bd26 e53c 227e 0a3d 0298 863b ca1f 663c
000003f0: 4240 9b3d 7b02 19bd 772f ca3c 610e 07bd
0.02774075 0.036302887 0.012116454 0.15003228 0.026368428 0.064630635 0.058914803 0.023657532
0.033197194 0.05844774 0.06985167 0.06402179 -0.017258558 0.23695298 0.047440812 0.07391787
0.0098619675 0.059665184 0.011740055 0.05773151 0.013730523 0.011714935 0.055671465 0.06330551
0.05846678 0.058532838 0.19278964 0.058342345 0.022910273 0.06028584 0.0589314 0.295478
0.058302384 0.058913067 0.004708945 0.058669463 0.028420476 0.046250604 0.02078658 0.028947726
0.06488303 0.00574219 0.043423597 0.04530969 0.06062812 -0.020062732 0.02931509 0.063156515
0.05830853 0.05833112 0.06815389 0.05750699 0.059351917 0.0045695934 0.057534344 0.26151726
0.16678283 0.11257636 0.0353653 0.059626214 0.053368587 0.066778615 0.029435478 0.06498208
0.05783455 -0.0006154121 0.036380116 0.005678812 0.058290508 0.0031323417 0.059256252 0.22307102
-0.003479671 0.058839135 0.0589733 0.058259286 0.058116812 0.043753713 0.0056413934 0.009913917
0.050302062 0.04213823 0.049950186 0.035956968 0.05870956 0.01777453 0.052930843 -0.0071706376
0.05856396 0.05426512 0.061894152 0.058315903 0.041473698 0.038767073 0.0032237768 0.2667306
0.075049706 0.058470678 0.053124603 0.05913526 0.11910994 0.0067606354 0.059496265 0.059107885
0.062452253 0.031316683 0.005233146 0.061343454 0.061351974 0.058165528 0.11104487 0.043598156
0.27736232 0.031139668 0.058183245 0.06542685 0.008009344 0.023449067 0.059076667 -0.0047561303
0.053743187 0.0576514 0.0002082797 0.006811594 0.006432938 0.14672472 0.052100595 0.17137544
0.013282103 -0.00828051 0.049236983 -0.091534145 0.02813016 0.036138654 0.034436278 0.012169815
0.026382616 0.03421711 -0.018260974 -0.02337067 0.06011317 -0.068373844 0.024998685 0.036527906
0.021806361 0.03440367 0.048143495 0.03388841 0.038623303 0.0017431809 0.032935146 0.03209672
0.03438199 0.034326676 -0.08287637 0.03445332 0.0056589693 0.033889107 0.034406897 -0.27818465
0.034279093 0.028334947 0.0054191346 0.034303065 0.0024182983 0.028140157 0.009581761 0.014904303
0.035227668 0.007334581 0.021490859 0.021691725 0.03422337 0.05319703 0.022980811 0.031818304
0.033782396 0.033104334 0.03567572 0.033833753 0.029593378 0.006133651 0.034013875 -0.0778249
-0.048028965 -0.047270242 0.018395115 0.034537803 -0.0061398163 0.039034873 0.013413383 0.031900425
0.028799443 0.056238946 0.018439734 0.021080894 0.034245 0.040717367 -0.01366931 -0.1882771
0.05656849 0.03469117 0.03451353 0.033338152 0.034111403 0.021916803 0.022659505 0.007920591
0.036586102 0.027998457 0.030455612 0.018635437 0.034665387 0.082648315 0.029977452 0.036993563
0.03438912 0.031101054 0.027507704 0.0256467 -0.010665387 0.025643278 0.0049495054 -0.15018699
0.004869899 0.034440443 0.029012203 0.0340726 -0.010425178 0.018298876 0.03427153 0.032223348
-0.012625538 0.01697925 0.019658478 0.032029204 0.032038555 0.033614676 -0.042306338 0.028473107
-0.26113757 0.015715718 0.03404008 0.03604556 0.008152461 0.0055377693 0.034785762 0.010128479
0.027972573 0.033811696 0.004107476 0.014045665 0.075806156 -0.03735588 0.024680836 -0.032972697

recurrent.bias_hh_l0 f4 [512]
00000000: 9240 e33c 56b2 143d 1784 463c 10a2 193e
00000010: 9a02 d83c 115d 843d a650 713d 71cd c13c
00000020: c8f9 073d e666 6f3d 640e 8f3d db1d 833d
00000030: d261 8dbc cda3 723e 4c51 423d 4162 973d
00000040: 1794 213c 7b63 743d 5c59 403c e077 6c3d
00000050: fdf5 603c 00f0 3f3c c307 643d 52a6 813d
00000060: dd7a 6f3d 21c0 6f3d a66a 453e 62f8 6e3d
00000070: 53ae bb3c 49ee 763d 0d62 713d e448 973e
00000080: 7bce 6e3d d44e 713d 7e4d 9a3b 644f 703d
00000090: 0fd2 e83c 4671 3d3d 9e48 aa3c c823 ed3c
000000a0: 65e1 843d fb28 bc3b f1dc 313d a796 393d
000000b0: 3155 783d 995a a4bc 3326 f03c 3458 813d
000000c0: edd4 6e3d 9dec 6e3d 4494 8b3d 738c 6b3d
000000d0: ff1a 733d 87bc 953b 22a9 6b3d 97e5 853e
000000e0: 1ec9 2a3e 6f8e e63d 34db 103d 9e3a 743d
000000f0: 0599 5a3d 3ac3 883d ac22 f13c 5315 853d
00000100: ece3 6c3d 9b53 21ba 5103 153d 5415 ba3b
00000110: 07c2 6e3d f947 4d3b afb6 723d bb6c 643e
00000120: 310b 64bb 4e01 713d fd8d 713d 4aa1 6e3d
00000130: e50b 6e3d 1837 333d 70db b83b fb6d 223c
00000140: 8909 4e3d 2399 2c3d 9198 4c3d 9d47 133d
00000150: 7079 703d e49b 913c 03ce 583d abf7 eabb
00000160: c3e0 6f3d 1a45 5e3d b984 7d3d a8dc 6e3d
00000170: 53e0 293d 39ca 1e3d 0046 533b ea90 883e
00000180: a9b3 993d f37e 6f3d 2f99 593d d037 723d
00000190: eaef f33d 5288 dd3b 5bb2 733d 1c1b 723d
000001a0: efcd 7f3d ec45 003d cf7a ab3b 4643 7b3d
000001b0: 354c 7b3d fa3e 6e3d 7e6b e33d fb93 323d
000001c0: 6f02 8e3e 9e18 ff3c 8e51 6e3d 83fe 853d
000001d0: a039 033c 4218 c03c 60fa 713d 50d9 9bbb
000001e0: d121 5c3d e023 6c3d a865 5a39 cb33 df3b
000001f0: 65cb d23b 013f 163e 6f67 553d 0b7d 2f3e
00000200: 2e9d 593c faaa 07bc b8ac 493d 4176 bbbd
00000210: 3971 e63c 2006 143d 0e0d 0d3d e763 473c
00000220: 5b20 d83c 3e27 0c3d 0a98 95bc d973 bfbc
00000230: 3a39 763d 9607 8cbd 0bca cc3c 499e 153d
00000240: 41a3 b23c ddea 0c3d 1d32 453d 93ce 0a3d
00000250: 7833 1e3d 727b e43a 01e7 063d da77 033d
00000260: 21d4 0c3d 219a 0c3d 16bb a9bd ed1e 0d3d
00000270: e06e b93b 4ecf 0a3d 3fee 0c3d 386e 8ebe
00000280: 3c68 0c3d b11e e83c ff92 b13b 5f81 0c3d
00000290: 507c 1e3b 3086 e63c d2fc 1c3c 2d31 743c
000002a0: e34a 103d ed56 f03b 990d b03c d8b2 b13c
000002b0: ce2d 0c3d 21e5 593d 4142 bc3c e953 023d
000002c0: 695f 0a3d 6998 073d b420 123d 4395 0a3d
000002d0: d06d f23c cbfc c83b 2252 0b3d a962 9fbd
000002e0: 05ba 44bd 719e 41bd 5ab1 963c 8377 0d3d
000002f0: 8330 c9bb 08e3 1f3d cec3 5b3c 05aa 023d
00000300: cfec eb3c cf5a 663d ed0e 973c d7b1 ac3c
00000310: 7c44 0c3d 41c7 263d 3ef5 5fbc b6cb 40be
00000320: 5cb4 673d 5418 0e3d 0f5e 0d3d 968d 083d
00000330: 66b8 0b3d de8a b33c 6da0 b93c 5ec5 013c
00000340: 4fdb 153d 055d e53c 0c7e f93c 58a9 983c
00000350: 4bfd 0d3d 8543 a93d 4693 f53c 9086 173d
00000360: 9bdb 0c3d a3c7 fe3c d657 e13c 0719 d23c
00000370: e0bd 2ebc da11 d23c 762f a23b 9eca 19be
00000380: ac93 9f3b 6c11 0d3d 00ab ed3c b68f 0b3d
00000390: 5ece 2abc 86e7 953c 4e60 0c3d a1fc 033d
000003a0: 58db 4ebc 1118 8b3c d10a a13c 0e31 033d
000003b0: dc3a 033d 8baf 093d 6949 2dbd 6f40 e93c
000003c0: d3b3 85be 40be 803c 9c6d 0b3d 82a4 133d
000003d0: e691 053c 2d76 b53b 847b 0e3d ecf1 253c
000003e0: bd26 e53c 227e 0a3d 0298 863b ca1f 663c
000003f0: 4240 9b3d 7b02 19bd 772f ca3c 610e 07bd
0.02774075 0.036302887 0.012116454 0.15003228 0.026368428 0.064630635 0.058914803 0.023657532
0.033197194 0.05844774 0.06985167 0.06402179 -0.017258558 0.23695298 0.047440812 0.07391787
0.0098619675 0.059665184 0.011740055 0.05773151 0.013730523 0.011714935 0.055671465 0.06330551
0.05846678 0.058532838 0.19278964 0.058342345 0.022910273 0.06028584 0.0589314 0.295478
0.058302384 0.058913067 0.004708945 0.058669463 0.028420476 0.046250604 0.02078658 0.028947726
0.06488303 0.00574219 0.043423597 0.04530969 0.06062812 -0.020062732 0.02931509 0.063156515
0.05830853 0.05833112 0.06815389 0.05750699 0.059351917 0.0045695934 0.057534344 0.26151726
0.16678283 0.11257636 0.0353653 0.059626214 0.053368587 0.066778615 0.029435478 0.06498208
0.05783455 -0.0006154121 0.036380116 0.005678812 0.058290508 0.0031323417 0.059256252 0.22307102
-0.003479671 0.058839135 0.0589733 0.058259286 0.058116812 0.043753713 0.0056413934 0.009913917
0.050302062 0.04213823 0.049950186 0.035956968 0.05870956 0.01777453 0.052930843 -0.0071706376
0.05856396 0.05426512 0.061894152 0.058315903 0.041473698 0.038767073 0.0032237768 0.2667306
0.075049706 0.058470678 0.053124603 0.05913526 0.11910994 0.0067606354 0.059496265 0.059107885
0.062452253 0.031316683 0.005233146 0.061343454 0.061351974 0.058165528 0.11104487 0.043598156
0.27736232 0.031139668 0.058183245 0.06542685 0.008009344 0.023449067 0.059076667 -0.0047561303
0.053743187 0.0576514 0.0002082797 0.006811594 0.006432938 0.14672472 0.052100595 0.17137544
0.013282103 -0.00828051 0.049236983 -0.091534145 0.02813016 0.036138654 0.034436278 0.012169815
0.026382616 0.03421711 -0.018260974 -0.02337067 0.06011317 -0.068373844 0.024998685 0.036527906
0.021806361 0.03440367 0.048143495 0.03388841 0.038623303 0.0017431809 0.032935146 0.03209672
0.03438199 0.034326676 -0.08287637 0.03445332 0.0056589693 0.033889107 0.034406897 -0.27818465
0.034279093 0.028334947 0.0054191346 0.034303065 0.0024182983 0.028140157 0.009581761 0.014904303
0.035227668 0.007334581 0.021490859 0.021691725 0.03422337 0.05319703 0.022980811 0.031818304
0.033782396 0.033104334 0.03567572 0.033833753 0.029593378 0.006133651 0.034013875 -0.0778249
-0.048028965 -0.047270242 0.018395115 0.034537803 -0.0061398163 0.039034873 0.013413383 0.031900425
0.028799443 0.056238946 0.018439734 0.021080894 0.034245 0.040717367 -0.01366931 -0.1882771
0.05656849 0.03469117 0.03451353 0.033338152 0.034111403 0.021916803 0.022659505 0.007920591
0.036586102 0.027998457 0.030455612 0.018635437 0.034665387 0.082648315 0.029977452 0.036993563
0.03438912 0.031101054 0.027507704 0.0256467 -0.010665387 0.025643278 0.0049495054 -0.15018699
0.004869899 0.034440443 0.029012203 0.0340726 -0.010425178 0.018298876 0.03427153 0.032223348
-0.012625538 0.01697925 0.019658478 0.032029204 0.032038555 0.033614676 -0.042306338 0.028473107
-0.26113757 0.015715718 0.03404008 0.03604556 0.008152461 0.0055377693 0.034785762 0.010128479
0.027972573 0.033811696 0.004107476 0.014045665 0.075806156 -0.03735588 0.024680836 -0.032972697

recurrent.weight_ih_l1 f4 [512, 128]
00000000: a31a 37b7 1bfc 0537 e9eb 9434 e4dd 96b7
00000010: 81b3 c6b7 61a9 1a37 951f 2db7 26ba c136
00000020: bf26 28b7 970e 30b7 9203 62b6 8316 da36
00000030: be07 d537 b246 e535 cfad 52b7 c1e3 53b7
00000040: 719f 0cb5 3cd5 28b7 c74a 6eb7 0a68 2fb7
00000050: 677c b1b7 eb6d 9ab6 97db f4b6 ef83 32b7
00000060: 4e15 2db7 b283 2eb7 5511 8e37 b2a9 2db7
00000070: 2de5 7737 b93d 70b6 e2f6 2eb7 294b 7037
00000080: 047f 2cb7 5f2d 4bb7 27e0 aab7 4ba3 2f37
00000090: 6737 efb7 d669 04b7 8f1b e3b6 86a2 f336
000000a0: 0a05 25b7 081d 7637 6921 4437 95e4 3337
000000b0: 386b 2db7 8ee2 d1b7 8c70 f6b6 0d2d 7fb7
000000c0: c1c7 3137 d657 a736 be89 0336 013c 2f37
000000d0: ccd2 6f37 85eb 3a37 55ea 2eb7 48ed 1536
000000e0: 085f 70b3 a71c 9d37 ccf7 dab6 fff3 2db7
000000f0: 3ee5 0fb8 d6a6 e036 78d8 1836 be1f 4bb7
00000100: 3cb2 4537 06a3 c937 4eb8 d734 46c0 83b7
00000110: c3a1 2f37 ace1 01b7 758b c9b5 5bf9 82b7
00000120: c1a0 ddb5 b4fc 2bb7 b2d1 2a37 1750 2737
00000130: f147 2fb7 aefb 1735 3ec6 c037 e793 cf37
00000140: 8ea3 0736 6f28 16b7 312e fc35 2d44 5c36
00000150: ae9f 2d37 062a 5437 4782 1437 50cc 0bb8
00000160: 2ef3 2bb7 512a 24b7 52a8 5fb7 274e 65b7
00000170: 99b2 1eb7 1ca7 7437 1301 b737 4127 8335
00000180: 9469 59b6 b5ed 2d37 a6e3 e136 eacf 2f37
00000190: 1d32 de36 6d80 cb35 60b6 2e37 71fc 5137
000001a0: 4bff f2b7 bb98 e1b6 6875 41b7 42b0 44b7
000001b0: fa77 e836 71a7 2737 49bb b1b6 b5f2 e336
000001c0: c78d 3137 cce8 1cb7 ea36 2fb7 e4a3 0a37
000001d0: aaed 6637 8399 c9b7 8a60 2837 a853 7ab6
000001e0: dfea 2fb7 a58f 2db7 a828 3db5 0f4b 6737
000001f0: 35ce a0b6 17c0 a5b5 622e 6e37 d486 5436
00000200: 9053 2ab5 65cf 37b4 6589 3e32 db74 cab5
00000210: c15d 8fb5 4339 6a34 f25a a3b4 d2d4 5b34
00000220: 1bbe 75b5 0e16 c1b4 bc85 ee34 dbe4 8cb2
00000230: 58a9 a5b4 2a02 4035 d86e fcb5 2be7 a1b4
00000240: e41f e435 4f91 85b4 ad20 4e34 454e b5b4
00000250: 8b07 2fb6 9230 9c34 be54 efb4 e876 97b4
00000260: b2a3 cab4 449e bfb4 e5c3 cf34 689f e6b4
00000270: 7002 acb4 04b1 68b4 036f 97b4 1ce4 6835
00000280: f3c8 c8b4 c24b 2bb5 824e d035 3bd4 e134
00000290: 7970 16b6 89bf 6db5 b8ab 90b5 4f9b 4035
000002a0: 97f8 8db4 d6db f8b2 def6 cb35 a57c a835
000002b0: 9d55 77b4 4f78 58b6 49b3 77b4 21e8 04b5
000002c0: 27f1 bc34 f465 0035 1a9e 8eb4 adfe b334
000002d0: edc8 5335 0aba ceb5 22a5 beb4 43f2 0035
000002e0: 12c6 5fb3 c463 2134 9e50 6334 6b12 dfb4
000002f0: 33f7 3ab5 5fda 56b3 7d37 27b5 746f f8b4
00000300: 18b7 0135 e6d0 cb35 775a 4f35 7177 11b6
00000310: a441 ad34 33ae 40b4 66c6 4334 3bf4 dd32
00000320: 0380 f134 a6db cab4 ad5c c734 0565 8b34
00000330: c137 a0b4 7272 70b5 d21e 4b35 5452 6d35
00000340: 8932 df35 b336 c1b4 76c2 d335 a762 04b5
00000350: e28d ac34 6009 f335 7d97 d735 01b1 e7b5
00000360: 1ef0 90b4 2409 2ab5 fbdc 35b5 24b6 b0b5
00000370: 1187 8bb5 2264 99b5 e6e6 f3b4 f9a0 3b34
00000380: 69fb 9c33 3bba aa34 ef01 f135 4b22 ab34
00000390: e9c1 f335 f726 c0b3 c81b aa34 058d 1e35
000003a0: 228e 14b5 bd52 ca34 f45b 54b5 54b9 05b5
000003b0: afff dd32 b68b b734 ca79 fa33 079e 4935
000003c0: 6e5f 9734 2ca5 f234 00ab c1b4 e8d0 4c34
000003d0: c76e f835 9301 dbb5 9e70 9234 b5a6 fa34
000003e0: 6001 3db5 c303 a0b4 efc4 6c33 59e4 48b5
000003f0: 4676 1335 3f5b 89b4 d087 c535 bfff 1635
-1.0913852e-05 7.986116e-06 2.7738795e-07 -1.798472e-05 -2.3687027e-05 9.218552e-06 -1.0318957e-05 5.7735188e-06
-1.0022602e-05 -1.0493814e-05 -3.3678702e-06 6.499527e-06 2.5395184e-05 1.7082405e-06 -1.2557443e-05 -1.2629608e-05
-5.238608e-07 -1.0063228e-05 -1.4203316e-05 -1.0455036e-05 -2.1157974e-05 -4.602354e-06 -7.2973303e-06 -1.0640345e-05
-1.0316564e-05 -1.0401871e-05 1.693579e-05 -1.0351114e-05 1.4775706e-05 -3.5798714e-06 -1.042869e-05 1.4322614e-05
-1.0281572e-05 -1.2110307e-05 -2.0369958e-05 1.0468832e-05 -2.8516819e-05 -7.892455e-06 -6.7683354e-06 7.2608846e-06
-9.83594e-06 1.4669502e-05 1.1690289e-05 1.0722452e-05 -1.0336567e-05 -2.502024e-05 -7.3444735e-06 -1.5209674e-05
1.0596531e-05 4.9872133e-06 1.9600698e-06 1.0444784e-05 1.429459e-05 1.11413e-05 -1.0425768e-05 2.2340846e-06
-5.5965785e-08 1.87292e-05 -6.5257536e-06 -1.0368413e-05 -3.4307355e-05 6.6951425e-06 2.2775766e-06 -1.2107133e-05
1.1783613e-05 2.403698e-05 4.018097e-07 -1.5705951e-05 1.0468476e-05 -7.7415425e-06 -1.5016254e-06 -1.5613323e-05
-1.6512569e-06 -1.0251231e-05 1.0181613e-05 9.972623e-06 -1.0447563e-05 5.6618126e-07 2.2980497e-05 2.4745195e-05
2.021177e-06 -8.950111e-06 1.8788907e-06 3.2822238e-06 1.0348782e-05 1.2645969e-05 8.85182e-06 -3.3330463e-05
-1.0249014e-05 -9.785014e-06 -1.3331026e-05 -1.366766e-05 -9.459117e-06 1.45824415e-05 2.18158e-05 9.771685e-07
-3.2396974e-06 1.0366949e-05 6.7320243e-06 1.0479222e-05 6.6219495e-06 1.5162055e-06 1.0413671e-05 1.2516147e-05
-2.8967528e-05 -6.7233027e-06 -1.1531032e-05 -1.1723549e-05 6.928106e-06 9.992961e-06 -5.296814e-06 6.793382e-06
1.0583032e-05 -9.352527e-06 -1.04435985e-05 8.2636e-06 1.3764404e-05 -2.4032552e-05 1.0036058e-05 -3.7301597e-06
-1.0485498e-05 -1.0345048e-05 -7.046715e-07 1.3786149e-05 -4.7923772e-06 -1.2349363e-06 1.4196705e-05 3.1668942e-06
-6.3451535e-07 -1.7118653e-07 1.10906955e-08 -1.5084182e-06 -1.0681616e-06 2.181378e-07 -3.0427287e-07 2.0473388e-07
-9.154625e-07 -3.5965098e-07 4.442826e-07 -1.6402216e-08 -3.085686e-07 7.1528723e-07 -1.8807723e-06 -3.0156784e-07
1.6996605e-06 -2.4878906e-07 1.9197132e-07 -3.3770826e-07 -2.6081423e-06 2.9092604e-07 -4.4578877e-07 -2.8212457e-07
-3.7744536e-07 -3.5691676e-07 3.8699287e-07 -4.2956822e-07 -3.203927e-07 -2.1671082e-07 -2.8206713e-07 8.675868e-07
-3.7399113e-07 -6.3812706e-07 1.5520056e-06 4.2063934e-07 -2.241721e-06 -8.85681e-07 -1.0778813e-06 7.175158e-07
-2.644417e-07 -2.897097e-08 1.5196526e-06 1.2553252e-06 -2.3034814e-07 -3.2256537e-06 -2.3068891e-07 -4.9511624e-07
3.519319e-07 4.7832077e-07 -2.6564595e-07 3.352665e-07 7.889601e-07 -1.540234e-06 -3.5510408e-07 4.8036253e-07
-5.2101377e-08 1.5030588e-07 2.1170351e-07 -4.1550388e-07 -6.965012e-07 -5.0024365e-08 -6.2293094e-07 -4.6274693e-07
4.832268e-07 1.5185476e-06 7.7245153e-07 -2.1676208e-06 3.227152e-07 -1.7944767e-07 1.8232967e-07 2.583885e-08
4.498289e-07 -3.7785247e-07 3.713407e-07 2.596427e-07 -2.984289e-07 -8.9573507e-07 7.566824e-07 8.8409183e-07
1.6629502e-06 -3.598885e-07 1.5777321e-06 -4.931739e-07 3.214073e-07 1.8107639e-06 1.6062837e-06 -1.7262356e-06
-2.6996798e-07 -6.3343236e-07 -6.7749323e-07 -1.3166032e-06 -1.0395617e-06 -1.1428531e-06 -4.5430278e-07 1.7474294e-07
7.310047e-08 3.1800468e-07 1.7956462e-06 3.1876183e-07 1.8161346e-06 -8.9477844e-08 3.168518e-07 5.9064797e-07
-5.5341127e-07 3.7685632e-07 -7.9109964e-07 -4.981605e-07 2.5844058e-08 3.418806e-07 1.16636855e-07 7.5108295e-07
2.8195376e-07 4.519619e-07 -3.607347e-07 1.907498e-07 1.850968e-06 -1.631723e-06 2.727656e-07 4.6687424e-07
-7.040999e-07 -2.980506e-07 5.5127142e-08 -7.4838096e-07 5.493388e-07 -2.558463e-07 1.471717e-06 5.6251514e-07

recurrent.weight_hh_l1 f4 [512, 128]
00000000: 42b8 8434 66c0 cfb1 8580 1bb6 ae95 2634
00000010: 91af ea32 22e9 8ab6 027d 89b4 704c 82b4
00000020: 174c 3034 9dfe 52b7 8d79 ceb6 2fc4 9cb4
00000030: d745 e334 4b3b 0737 b0ca bab4 ed71 95b3
00000040: 73f0 ea34 3b26 6334 0e88 6535 b361 f536
00000050: 81a7 3f34 d983 0cb7 07cc 25b4 05f3 51b6
00000060: 3bea fe33 fba6 3e36 2a5f 1334 161d c2b3
00000070: 09bb 8f32 5fb6 14b2 d841 32b7 c1bb 65b4
00000080: b3c3 dc34 ee8e 9934 e894 8d34 7783 6bb6
00000090: 7a57 6a34 f7f7 be34 ebd7 cbb3 a4b6 3634
000000a0: 4520 9fb3 c33f b934 95ca a434 3c97 85b4
000000b0: d354 66b3 fc81 0731 5ef1 21b3 f84c a1b1
000000c0: 2c8b a236 4a60 8134 e3be 3eb4 ae66 d9b2
000000d0: 7439 0434 8cc1 54b4 d4be 49b2 e822 1a35
000000e0: 0c9d 9ab4 7d62 a0b4 5cd3 4434 a4c5 c033
000000f0: 033a 33b6 695e f635 5cc5 ce31 7b1c 80b6
00000100: a6a7 31b2 bc60 cb32 b362 fc34 00fe abb4
00000110: 2142 33b4 9464 4f35 7eaf 93b3 5feb 0533
00000120: 014d e232 c727 92b5 b527 4e34 1f23 29b3
00000130: ef00 3334 a8e8 37b4 238c 4334 ac3f ceb2
00000140: 5565 4033 2eac a834 2d53 b1b6 421f 3234
00000150: f048 0a34 8e3a 1137 125d 6135 1e80 81b4
00000160: a2cd 0e2f adcf 7eb3 9956 b635 f5de 2133
00000170: 8b8c 3ab4 1976 4035 d846 5db4 710d 62b7
00000180: c505 ce36 df68 5236 593f ce36 5519 82b3
00000190: be02 6036 5697 d9b4 e047 be33 9342 9534
000001a0: 2f4c 0032 69d3 43b3 160e d3b4 01c5 17b3
000001b0: 90c0 a0b2 5838 06b7 df6f 5eb2 fa51 3134
000001c0: 3030 0cb4 dfc7 ba34 4e91 9733 e912 1f34
000001d0: d044 e034 18bd 1635 95de a0b4 cb54 ddb3
000001e0: a739 0233 7126 6536 1ac2 87b0 0b20 2e30
000001f0: 6903 22b4 1819 ec33 b59f beb3 77bb 8c33
00000200: 44b5 81b2 a3e4 4bb3 ab2b 4433 5bc4 8633
00000210: 0ffa 4c32 638d b8b4 c6ec 3032 6b06 f2b3
00000220: f42a 84b2 6e0b eab4 b2c3 1935 6658 0e33
00000230: adb8 3db3 7ec7 b7b3 9c66 5db3 e85f bc32
00000240: ef55 27b3 3441 5633 a6ef c5b2 caa2 62b4
00000250: 9379 beb2 0737 25b3 7b91 b733 c364 15b5
00000260: 415c b833 58de 4135 903e 39b4 6d5a 7433
00000270: 279e c8b3 3c33 dcb1 4165 f133 abc0 39b4
00000280: e123 c9b1 5d5a 2332 25f8 6534 4e84 1ab5
00000290: 8f91 16b3 4c19 0233 1513 08b3 7fb8 da33
000002a0: 3d14 98b1 22d8 1034 d0da f432 6aee 91b1
000002b0: 89a2 4433 a413 0131 1fa2 4130 32ae 12b1
000002c0: 07ac 4c35 dec9 1fb3 6323 0cb2 3b36 81b1
000002d0: 2adb b832 fb40 8cb3 d978 8431 89aa 5c34
000002e0: 885c 1eb4 f1eb d7b2 4fd9 0ab2 18b7 1132
000002f0: 593e f4b3 264b 8e34 d459 2fb2 b487 6db5
00000300: cdb5 2db1 2043 0b30 c6a3 f332 efdc 12b3
00000310: 8520 dab4 b241 ebb4 a619 57b2 9e77 3db2
00000320: 93ea b031 0999 92b5 ae7f 99b2 d31d 7132
00000330: 59e4 5fb2 db6d 8533 801a a732 5887 df31
00000340: 7bfc 0234 1d51 db32 a20b b134 0732 a932
00000350: 0884 b632 5074 e934 1f3d 29b5 4306 8d33
00000360: a0d6 9aab dd40 bcb1 0ef0 4534 b87e 9132
00000370: 6c12 9f33 db9e 3133 5a6f fdb3 509d d934
00000380: c6cb af35 643c 2435 a1c8 5bb5 0ec0 8fb2
00000390: 1537 0334 be23 98b2 965f 3bb4 957a 7fb2
000003a0: ce24 52b2 87f5 5a33 a6b1 0033 3fe0 5f30
000003b0: 55cc 27b1 83b4 0c35 c642 3a32 a56b 27b2
000003c0: 0609 17b3 d710 6bb3 ff67 f933 6ac2 2e34
000003d0: 9cf5 a433 17f5 5632 b726 5b33 9be1 e333
000003e0: ebb7 07b2 54dd 2b34 46fd eab0 635f c431
000003f0: f800 2fb1 d6dc c1b3 2325 2b34 8213 b333
2.472098e-07 -6.046366e-09 -2.3171608e-06 1.5514408e-07 2.7321024e-08 -4.1398607e-06 -2.5609194e-07 -2.4270003e-07
1.6418959e-07 -1.2576257e-05 -6.153429e-06 -2.9200007e-07 4.233286e-07 8.060432e-06 -3.4792674e-07 -6.959076e-08
4.3760846e-07 2.115493e-07 8.5507133e-07 7.3129427e-06 1.7849199e-07 -8.375348e-06 -1.5441047e-07 -3.1284883e-06
1.1870403e-07 2.8409402e-06 1.3725062e-07 -9.03912e-08 1.6732445e-08 -8.6562e-09 -1.0624957e-05 -2.1395591e-07
4.1120583e-07 2.8602466e-07 2.637164e-07 -3.5094251e-06 2.1824772e-07 3.5570676e-07 -9.4921994e-08 1.7016515e-07
-7.409884e-08 3.4505328e-07 3.0694778e-07 -2.4883218e-07 -5.3628195e-08 1.9718973e-09 -3.7705256e-08 -4.694467e-09
4.844178e-06 2.4098182e-07 -1.7764573e-07 -2.5308818e-08 1.231436e-07 -1.981445e-07 -1.1743129e-08 5.7420266e-07
-2.8799002e-07 -2.9873982e-07 1.8330815e-07 8.976647e-08 -2.6706846e-06 1.8355905e-06 6.0178262e-09 -3.818013e-06
-1.0340875e-08 2.36763e-08 4.701047e-07 -3.203604e-07 -1.6694732e-07 7.725987e-07 -6.877143e-08 3.1180544e-08
2.634488e-08 -1.0889424e-06 1.919969e-07 -3.938032e-08 1.6671014e-07 -1.7127843e-07 1.8211772e-07 -2.4010511e-08
4.4795645e-08 3.1417716e-07 -5.284694e-06 1.6588913e-07 1.2878786e-07 8.656307e-06 8.3954467e-07 -2.412134e-07
1.298788e-10 -5.9327864e-08 1.358526e-06 3.7688512e-08 -1.7373729e-07 7.169743e-07 -2.0608002e-07 -1.3473779e-05
6.13995e-06 3.1353482e-06 6.146653e-06 -6.0582046e-08 3.3380197e-06 -4.052951e-07 8.8606384e-08 2.7801852e-07
7.467903e-09 -4.5594252e-08 -3.9312062e-07 -3.53366e-08 -1.8714019e-08 -8.000141e-06 -1.2947537e-08 1.6514232e-07
-1.3056047e-07 3.4790625e-07 7.057916e-08 1.4814908e-07 4.177332e-07 5.615452e-07 -2.9964272e-07 -1.0306538e-07
3.0320418e-08 3.4146035e-06 -9.87771e-10 6.3346367e-10 -1.5088666e-07 1.0994171e-07 -8.876615e-08 6.553358e-08
-1.5100007e-08 -4.7472565e-08 4.5674522e-08 6.275578e-08 1.193122e-08 -3.4375543e-07 1.0298384e-08 -1.12701706e-07
-1.5386355e-08 -4.3594213e-07 5.7281716e-07 3.314235e-08 -4.4172953e-08 -8.557889e-08 -5.1548895e-08 2.1929694e-08
-3.8960874e-08 4.988506e-08 -2.3042798e-08 -2.1107113e-07 -2.2174197e-08 -3.8467103e-08 8.548064e-08 -5.5653453e-07
8.5849486e-08 7.2221656e-07 -1.7252228e-07 5.689292e-08 -9.3419935e-08 -6.4086674e-09 1.1240855e-07 -1.729956e-07
-5.853949e-09 9.508395e-09 2.1417561e-07 -5.7562e-07 -3.505698e-08 3.029099e-08 -3.1682323e-08 1.0184976e-07
-4.426083e-09 1.3489674e-07 2.8504843e-08 -4.24716e-09 4.578263e-08 1.8783135e-09 7.044338e-10 -2.1344815e-09
7.6246255e-07 -3.720367e-08 -8.1571185e-09 -3.7605594e-09 2.1520083e-08 -6.531078e-08 3.8554444e-09 2.0551137e-07
-1.474856e-07 -2.5136588e-08 -8.0820675e-09 8.4817415e-09 -1.13734764e-07 2.650424e-07 -1.0206765e-08 -8.8486854e-07
-2.5278155e-09 5.0663296e-10 2.8363399e-08 -3.4194212e-08 -4.0629325e-07 -4.381996e-07 -1.2520479e-08 -1.1028446e-08
5.148942e-09 -1.0922387e-06 -1.7869606e-08 1.40348275e-08 -1.3032229e-08 6.213278e-08 1.945341e-08 6.505541e-09
1.2199045e-07 2.5531842e-08 3.2977283e-07 1.969694e-08 2.124763e-08 4.348426e-07 -6.304635e-07 6.566963e-08
-1.1001929e-12 -5.4788942e-09 1.8434386e-07 1.6937847e-08 7.4073654e-08 4.1355502e-08 -1.1801485e-07 4.053386e-07
1.3097822e-06 6.118264e-07 -8.187581e-07 -1.6734727e-08 1.2220364e-07 -1.7711383e-08 -1.7450506e-07 -1.48708255e-08
-1.2231977e-08 5.0980386e-08 2.9963893e-08 8.14456e-10 -2.4417848e-09 5.2416743e-07 1.08418075e-08 -9.745155e-09
-3.5165634e-08 -5.4730517e-08 1.1613883e-07 1.627574e-07 7.681521e-08 1.2512166e-08 5.1025122e-08 1.06115486e-07
-7.899852e-09 1.6006135e-07 -1.7097725e-09 5.715195e-09 -2.5466402e-09 -9.027433e-08 1.5939126e-07 8.3388855e-08

recurrent.bias_ih_l1 f4 [512]
00000000: 17d0 1eb7 d819 ac35 e40b 173d 3aa4 5f34
00000010: 2421 95b5 3675 d53d 318d 91b6 c57b 98b5
00000020: 6f7b 28b7 4603 2e3e 9953 e63d 51fa acb4
00000030: 4d1d 04b9 e53c f73d 15e9 75b6 4ec7 d135
00000040: b9ac 60b6 37c5 d935 a1c9 ffb7 efba ad3d
00000050: 5a73 5936 4fff da3d ebf2 a1b7 7ec6 dd3d
00000060: 7a74 a333 01d8 043e eb1e 0f35 d371 8fb5
00000070: 933d c935 3786 88b3 65ee 073e 7fbd 7c36
00000080: 5df3 15b8 ca48 cdb7 aabb 683e bcba 003e
00000090: 9d31 26b7 00f1 07b8 0a39 7835 6dde 2436
000000a0: 1e8e 88b4 7905 42b7 4645 5535 8c1c 8ab6
000000b0: 1592 6cb7 f0d2 6eb4 65a0 0134 1a0c 9432
000000c0: 0b48 023e f4e8 aa35 23e5 13b5 f3f4 80b3
000000d0: cd71 21b6 fa56 0d36 690a 1a33 ac82 3fb7
000000e0: 6f84 4436 ac02 ffb7 9ab4 a4b6 7566 eab2
000000f0: b206 4c3c 4bcf 433d 769e e3b3 248d 4c3e
00000100: bc80 4ab4 4ecf d6b4 fa5d e3b7 0a8f d3b7
00000110: a65c cf3d 839c d03d 8163 10b6 ecd8 e733
00000120: 6f17 27b4 12db dc3d 7ccd 9db5 31be 86b5
00000130: bd83 88b5 7388 33b6 38f6 e4b6 0e04 9cb6
00000140: 27c1 2036 e3ac f6b7 50c1 f13d cf1a 5eb7
00000150: 0d24 e639 0224 f33d 290f 393d 353a 43b7
00000160: 1665 62aa 1d96 1fb5 f28d d23b d27e 45b5
00000170: 2f39 303d f963 22b8 0ade 8335 ddb5 593e
00000180: 3888 083e 3f54 023e d8fc 313e 8fea 4135
00000190: 335d 373e 771b 92b5 a33c 5135 3049 46b7
000001a0: d557 2bb4 09e4 d935 0320 00b8 87d7 eab4
000001b0: 5ddd 6fb4 8355 103e 6eed 17b4 f8f0 4cb6
000001c0: 8b7c b035 a08d 2eb6 81c7 a735 093c e334
000001d0: f83c 1935 3ab4 16b8 f915 00b8 3491 2c36
000001e0: 3d79 9cb3 379d e23c 5d10 b7b4 402c ed31
000001f0: 60dd 2fb6 5ddf 0a36 55a8 4836 06ac 1f36
00000200: a51b 45b7 f056 18b5 86f4 dbbb 0c5a beb4
00000210: c3f1 d4b5 2ff2 dfbc 6665 94b6 d47b dab4
00000220: 5b63 2db7 3be7 b3bd 66b9 01bd cb36 79b6
00000230: 3be1 01b9 b5f8 0cbd 7662 de34 5050 13b6
00000240: 51f8 2cb6 883e e2b5 9590 c5b7 b998 41bc
00000250: 61e2 e0b4 879e 1fbd 3f45 71b7 9c1a e2bc
00000260: a729 0834 10c4 25bd af32 f934 dd85 eab5
00000270: 6c5d 83b4 fe17 68b3 312f 3cbd e43b 0f34
00000280: 38aa 3bb8 7d58 c6b7 36e7 eabd 2c3a 11bd
00000290: 74e5 14b7 3a34 e8b7 58d8 9db4 54a8 4933
000002a0: bd62 00b6 f48b cfb6 a9f9 a5b5 57d0 51b6
000002b0: d3d4 63b7 5ec5 7bb4 c4fe 6134 0669 e832
000002c0: 88ed 0fbd 6722 1235 fe38 0eb6 ca0f 72b3
000002d0: d097 a4b5 6333 ceb4 8049 89b3 2e92 13b7
000002e0: 5251 48b4 9dda e4b7 7229 b3b6 eabe a3b5
000002f0: 606a 0f3a 9933 81bb 25d5 92b3 fb68 fdbd
00000300: 6f1b e733 377f adb4 0609 d1b7 d19b c9b7
00000310: 80a9 cbbc 727a cebc 9e4b 2cb6 5ea5 d833
00000320: d3a5 29b4 9723 15bd 1643 afb5 3464 bfb5
00000330: 0af9 48b5 9692 a4b5 379e e5b6 c197 b1b6
00000340: ad54 ebb5 88f4 e3b7 eff7 28bd 1206 61b7
00000350: f852 8737 f94a 8fbd 16f5 933a b6db 33b7
00000360: 1d29 ccab e685 7fb4 296a 4f3a 3f8c 4fb5
00000370: e1d4 3cbb 39b2 f9b7 0d05 6235 207a cdbd
00000380: 3320 13bd cb35 15bd e80a debd 5feb 0db5
00000390: f652 adbd 7f38 a6b6 b051 9f35 016b 41b7
000003a0: 3032 3cb4 2575 12b6 0826 efb7 a669 03b5
000003b0: 1055 97b3 441c a2bd c3c6 27b4 0fc4 65b6
000003c0: ae71 6336 6726 d6b5 213a e135 50c3 37b4
000003d0: d38f 9335 7080 10b8 6a20 ffb7 a8f8 1e35
000003e0: 607a 86b4 5859 673b 6005 9fb4 d78b 4430
000003f0: 7ed9 35b6 c9f3 43b3 318c 10b4 c6f8 c134
-9.465984e-06 1.282252e-06 0.036876574 2.0828239e-07 -1.111101e-06 0.10422747 -4.3377736e-06 -1.1360904e-06
-1.0042319e-05 0.16993436 0.11246414 -3.2219626e-07 -0.00012599416 0.120721616 -3.6643517e-06 1.5629719e-06
-3.347914e-06 1.6225157e-06 -3.049226e-05 0.084829204 3.2402663e-06 0.106932275 -1.9305813e-05 0.10828875
7.611466e-08 0.12973024 5.331664e-07 -1.0687457e-06 1.4993587e-06 -6.357407e-08 0.13274534 3.7661227e-06
-3.5751018e-05 -2.44718e-05 0.22727838 0.12571234 -9.9059225e-06 -3.2410957e-05 9.24702e-07 2.4567373e-06
-2.5435378e-07 -1.1564575e-05 7.944949e-07 -4.116044e-06 -1.41007085e-05 -2.2242216e-07 1.2072412e-07 1.723497e-08
0.12722795 1.2733785e-06 -5.5095205e-07 -6.0050205e-08 -2.405711e-06 2.1061264e-06 3.5865387e-08 -1.1414912e-05
2.9283362e-06 -3.0399613e-05 -4.9086057e-06 -2.7287777e-08 0.012452768 0.04780511 -1.0599335e-07 0.19975716
-1.885955e-07 -4.001144e-07 -2.710427e-05 -2.5219768e-05 0.10125093 0.10186102 -2.151559e-06 1.07962336e-07
-1.5561612e-07 0.10783972 -1.1757215e-06 -1.0039131e-06 -1.017113e-06 -2.6752502e-06 -6.823593e-06 -4.6496343e-06
2.3954287e-06 -2.9405992e-05 0.118044496 -1.3238473e-05 0.00043895878 0.11872102 0.045180473 -1.1636458e-05
-2.0107904e-13 -5.945056e-07 0.0064256126 -7.3572767e-07 0.043023285 -3.8716917e-05 9.824882e-07 0.21260782
0.13333213 0.1272745 0.17381608 7.223943e-07 0.17906646 -1.0885841e-06 7.7946805e-07 -1.181876e-05
-1.5957569e-07 1.6234127e-06 -3.054739e-05 -4.3742713e-07 -2.2339141e-07 0.1409512 -1.4149347e-07 -3.053863e-06
1.3149269e-06 -2.6010457e-06 1.2500533e-06 4.2325726e-07 5.708566e-07 -3.5930636e-05 -3.053804e-05 2.5714517e-06
-7.286369e-08 0.027662857 -3.4098312e-07 6.9026385e-09 -2.620589e-06 2.0693617e-06 2.9900305e-06 2.3792977e-06
-1.17485515e-05 -5.6750923e-07 -0.006712499 -3.5455776e-07 -1.5865593e-06 -0.027337162 -4.422548e-06 -4.069576e-07
-1.03347365e-05 -0.08784338 -0.03167095 -3.7135785e-06 -0.00012386304 -0.034416873 4.1422362e-07 -2.1951455e-06
-2.5774536e-06 -1.6856511e-06 -2.3551556e-05 -0.011816197 -4.1887964e-07 -0.038969543 -1.4380842e-05 -0.027600579
1.268114e-07 -0.040470183 4.641674e-07 -1.7473318e-06 -2.4468625e-07 -5.403853e-08 -0.045943443 1.3339701e-07
-4.4742803e-05 -2.3644645e-05 -0.11469881 -0.035455868 -8.874911e-06 -2.7680875e-05 -2.940094e-07 4.6952053e-08
-1.913096e-06 -6.1853734e-06 -1.2366119e-06 -3.1264697e-06 -1.3579806e-05 -2.3447998e-07 2.1047441e-07 2.7056114e-08
-0.035138637 5.44393e-07 -2.1192823e-06 -5.6359376e-08 -1.2263135e-06 -3.840788e-07 -6.392929e-08 -8.795918e-06
-1.8656036e-07 -2.7281518e-05 -5.3394406e-06 -1.220001e-06 0.0005470868 -0.0039429185 -6.8374256e-08 -0.12373539
1.0761766e-07 -3.2316322e-07 -2.4918943e-05 -2.4033625e-05 -0.024861097 -0.02520487 -2.5674012e-06 1.0088364e-07
-1.5799678e-07 -0.036410894 -1.3058041e-06 -1.4259772e-06 -7.4868206e-07 -1.2261614e-06 -6.8431505e-06 -5.2926775e-06
-1.7533508e-06 -2.7174377e-05 -0.041252073 -1.3412458e-05 1.613189e-05 -0.06996722 0.0011288251 -1.0720387e-05
-1.4506483e-12 -2.3797438e-07 0.00079122424 -7.7317594e-07 -0.002881341 -2.9766104e-05 8.419891e-07 -0.10033059
-0.03591938 -0.036428254 -0.10841924 -5.2869103e-07 -0.08463089 -4.9537625e-06 1.1870197e-06 -1.152861e-05
-1.7527123e-07 -2.1823882e-06 -2.850873e-05 -4.895504e-07 -7.046958e-08 -0.079155475 -1.5625396e-07 -3.423778e-06
3.3891806e-06 -1.5955419e-06 1.6780724e-06 -1.7114257e-07 1.0994212e-06 -3.4451892e-05 -3.0413463e-05 5.922143e-07
-2.5048485e-07 0.0035301056 -2.961997e-07 7.150311e-10 -2.70977e-06 -4.5623697e-08 -1.3462046e-07 3.6130058e-07
