input/lstm_model.pth (torch, 285286 bytes, 6 tensors)

recurrent.weight_ih_l0 f4 [512, 7]
0.045469902 0.067734644 0.063773446 0.06733119 -0.06838261 0.021311235 -0.055644736 -0.09235069
-0.040010046 -0.02541277 -0.06847789 -0.108845085 0.070645854 -0.0801238 -0.010154079 -0.057824485
-0.012613442 -0.055135723 -0.05829969 0.108819194 0.05951936 0.063021876 0.009574651 -0.035067294
-0.039297182 -0.084491126 -0.065071076 -0.061177827 0.016964175 -0.05624506 -0.009799051 0.0048080073
-0.048947643 -0.07154436 -0.057782404 -0.09206604 -0.00887135 0.061143678 0.033861633 -0.01653569
-0.084183045 0.10658918 -0.054502986 0.061354823 -0.03671232 0.08318284 0.041674487 0.07822231
-0.010933066 0.022241157 0.07047828 0.0024271049 0.032154787 -0.046820052 -0.06271139 -0.062650755
0.030379387 0.053534128 0.08025282 -0.029560309 -0.008912685 0.019481413 -0.058474153 0.08398229
-0.03456809 0.015153971 -0.08819593 0.10837769 0.028388485 0.01674314 0.023751143 -0.06413604
0.065551184 0.09214924 0.07284461 0.109484166 -0.073826544 -0.079513565 -0.01881824 -0.023278473
0.062065933 -0.05268925 -0.05715962 0.0009458813 -0.059016578 -0.0883743 -0.048949637 0.07604643
-0.10221044 0.008729597 0.037532963 0.069394454 -0.113294214 0.105129994 0.07929067 -0.053557493
0.029197093 0.02554204 0.029644934 -0.030252807 0.051983792 0.04319829 -0.049952753 0.0077778995
-0.012258136 0.016584938 0.04025155 -0.031453747 0.06670815 0.0769931 -0.0906286 -0.023350671
-0.07143919 0.0075029614 -0.08294217 0.055244938 0.06495931 0.03227338 -0.029168617 -0.08542989
-0.06936652 -0.037418988 -0.036192313 -0.08237059 -0.036485415 -0.018093972 -0.049037125 0.02282804
0.06893328 0.045277547 -0.07462146 0.062568925 -0.004638045 -0.009780258 -0.07244081 0.06725386
0.08634069 0.028270045 0.03200435 -0.06998916 -0.06668884 0.02342617 -0.0586218 0.045586325
-0.062461775 0.07707006 -0.00022416917 0.06953564 -0.010786108 0.09329159 0.024602996 0.08194
0.0135941915 -0.045928314 0.0042356853 -0.014978142 0.087496005 0.020917382 0.10097282 -0.0639148
-0.032498926 0.05896052 0.10114379 0.008838372 -0.030289808 0.08732148 0.032538623 0.09173322
0.06547482 0.095228024 -0.008489243 -0.019300697 0.042107537 -0.06860263 0.054332953 0.08900248
-0.04790028 -0.09647053 -0.09133668 -0.0633963 0.0155798495 -0.056738447 0.05785997 0.064493276
-0.0782276 0.031329736 0.009176414 0.09988942 0.07508317 -0.07653375 -0.06027967 0.070619695
0.08895336 -0.034902 -0.0006813813 0.061976366 0.0473753 0.007973886 0.06320974 0.040394314
0.06989713 -0.046874166 -0.078941226 -0.03618837 -0.053359233 0.061289612 0.09416423 -0.031739615
-0.100801036 -0.05535551 0.017702267 -0.02605227 -0.05995155 -0.043488476 0.06886612 -0.002800637
0.050335243 0.08254467 0.024142211 0.020707615 -0.08208911 0.040306594 -0.08437304 0.111985
0.06424864 0.0086234445 -0.04441012 -0.07007522 0.111163594 -0.046104066 -0.041369926 -0.04326837
-0.050575778 0.045015607 -0.07809614 -0.040083252 0.014059174 -0.037498984 -0.08425293 -0.014074828
0.069988444 -0.03938318 -0.066790916 -0.06474117 -0.0060389712 0.07288674 -0.071955994 0.025742441
-0.025828628 -0.006283642 0.0863933 -0.10467982 0.0712205 -0.001862401 -0.036221623 0.0429337
00000000: a63e 3a3d 76b8 8a3d a79b 823d efe4 893d
00000010: 2f0c 8cbd e694 ae3c bceb 63bd 5c22 bdbd
00000020: 93e1 23bd 712e d0bc 233e 8cbd 2cea debd
00000030: c6ae 903d f217 a4bd 4b5d 26bc 5ed9 6cbd
00000040: 9ca8 4ebc ffd5 61bd a8cb 6ebd 99dc de3d
00000050: 93ca 733d 9d11 813d ffde 1c3c b9a2 0fbd
00000060: 15f6 20bd af09 adbd fc43 85bd 9a95 7abd
00000070: 74f8 8a3c 3861 66bd 338c 20bc 7d8c 9d3b
00000080: 537d 48bd d985 92bd 3ead 6cbd 1f8d bcbd
00000090: 2459 11bc cb71 7a3d 7fb2 0a3d db75 87bc
000000a0: 2968 acbd 6e4b da3d 863e 5fbd 324f 7b3d
000000b0: a85f 16bd c45b aa3d deb2 2a3d 0533 a03d
000000c0: 9a20 33bc 1633 b63c eb56 903d 1010 1f3b
000000d0: bdb4 033d 62c6 3fbd d46e 80bd 0a4f 80bd
000000e0: 31de f83c 9a46 5b3d 975b a43d 7628 f2bc
000000f0: 8306 12bc 7c97 9f3c 9882 6fbd e8fe ab3d
00000100: 4597 0dbd 5c48 783c 11a0 b4bd 1ff5 dd3d
00000110: f88e e83c e928 893c c291 c23c c259 83bd
00000120: b33f 863d beb8 bc3d 8e2f 953d 3c39 e03d
00000130: 5f32 97bd 02d8 a2bd b628 9abc 7fb2 bebc
00000140: d938 7e3d afd0 57bd 3520 6abd 05f5 773a
00000150: 5ebb 71bd 96fd b4bd 6a7f 48bd 3bbe 9b3d
00000160: b553 d1bd 9506 0f3c 2abc 193d ae1e 8e3d
00000170: cc06 e8bd 654e d73d 2663 a23d 1a5f 5bbd
00000180: be2e ef3c 8a3d d13c efd9 f23c bcd4 f7bc
00000190: f5ec 543d b1f0 303d 429b 4cbd c0dd fe3b
000001a0: 59d6 48bc 23dd 873c cfde 243d a5d5 00bd
000001b0: 489e 883d 8fae 9d3d 7d9b b9bd e849 bfbc
000001c0: b64e 92bd 67db f53b 96dd a9bd 8448 623d
000001d0: 6309 853d 1731 043d 06f3 eebc def5 aebd
000001e0: 0910 8ebd a744 19bd 643e 14bd e9b1 a8bd
000001f0: bb71 15bd cf39 94bc 27db 48bd df01 bb3c
00000200: e42c 8d3d f374 393d 23d3 98bd 2324 803d
00000210: befa 97bb 603d 20bc d95b 94bd 64bc 893d
00000220: 63d3 b03d 9596 e73c fe16 033d 7a56 8fbd
00000230: 2994 88bd 3de8 bf3c 6a1d 70bd bab8 3a3d
00000240: ebd7 7fbd e8d6 9d3d f40e 6bb9 b468 8e3d
00000250: 37b8 30bc a90f bf3d 398c c93c 29d0 a73d
00000260: 2cba 5e3c 541f 3cbd 81cb 8a3b e266 75bc
00000270: 1b31 b33d ee5a ab3c d6ca ce3d c3e5 82bd
00000280: 981d 05bd 9680 713d 7a24 cf3d d2ce 103c
00000290: 5522 f8bc 9bd5 b23d 3847 053d a0de bb3d
000002a0: aa17 863d e906 c33d 7716 0bbc 7f1c 9ebc
000002b0: f478 2c3d 897f 8cbd 3b8c 5e3d ef46 b63d
000002c0: 1633 44bd 5792 c5bd ba0e bbbd ebd5 81bd
000002d0: a042 7f3c 9366 68bd 93fe 6c3d 0d15 843d
000002e0: cb35 a0bd 9c53 003d ac58 163c d392 cc3d
000002f0: 34c5 993d babd 9cbd d1e7 76bd 0fa1 903d
00000300: 2e2d b63d 66f5 0ebd ba9e 32ba eeda 7d3d
00000310: 9a0c 423d e7a4 023c 1c74 813d 8274 253d
00000320: 3a26 8f3d 20ff 3fbd f0ab a1bd 423a 14bd
00000330: 368f 5abd d10a 7b3d 2dd9 c03d 6601 02bd
00000340: c670 cebd 76bc 62bd 5804 913c 926b d5bc
00000350: c28f 75bd f920 32bd ae09 8d3d e48a 37bb
00000360: 542c 4e3d 2e0d a93d e3c5 c53c 04a3 a93c
00000370: 561e a8bd 8718 253d c6cb acbd 6458 e53d
00000380: ca94 833d 5949 0d3c 63e7 35bd 9983 8fbd
00000390: bda9 e33d 9ed7 3cbd 8373 29bd 2d3a 31bd
000003a0: 8c28 4fbd 4962 383d def0 9fbd 562e 24bd
000003b0: 7358 663c 8998 19bd cd8c acbd 1b9a 66bc
000003c0: 1a56 8f3d 4250 21bd adc9 88bd 0597 84bd
000003d0: 90e2 c5bb a545 953d aa5d 93bd d0e1 d23c
000003e0: 8f96 d3bc 02e7 cdbb f8ee b03d 6062 d6bd
000003f0: 0edc 913d cf1b f4ba 205d 14bd 3fdb 2f3d

recurrent.weight_hh_l0 f4 [512, 128]
-0.044090398 0.04567027 -0.0116816 -0.009008677 0.045540757 0.0046131685 -0.067058854 0.00016373646
-0.00096043164 -0.07153483 -0.0027292527 -0.00873871 0.0091582015 0.07022944 0.00022103083 0.008542383
3.693671e-05 -0.02944087 0.041865837 -0.05445674 0.02399618 0.0024262897 -0.00034564311 -0.00073695625
0.003242598 -0.00042804814 0.0040091425 -0.07129208 0.046387453 0.047954176 0.04458132 0.00587555
0.054048683 -0.00042409578 0.052319206 0.0053618113 -0.051991556 -0.0048187613 0.036646273 -0.0005635822
-0.053177245 -0.021263944 0.051819112 0.0074580694 0.030687 -0.0009196678 -0.04910952 0.059309117
-0.00033947444 -0.00062836724 0.010932303 0.012106091 0.018215036 0.0009996099 0.035368145 -0.0002568798
-0.019120095 -0.00016605953 0.00050054677 -0.00013992608 -0.06986463 -0.0031684653 -0.016288819 -0.00019016428
-0.03548384 -0.070602074 0.0070608296 -0.012293989 0.035718124 -0.00023189551 -0.027299281 0.036317732
0.014509908 0.000113312795 -0.02599233 0.048636395 0.0007289197 0.06311959 -0.0049142744 -0.06411075
0.00098843 -0.052773155 0.061366234 -0.0121177435 0.0020343496 -0.0265895 -5.304651e-05 -0.024356462
-0.010088205 0.008004857 0.024248118 0.017452754 -0.058067787 -0.048511524 0.04299321 0.026448496
0.028436253 -0.02493486 -0.061367698 0.019105857 -0.04804928 0.036587935 0.06266618 0.0018975429
0.043754764 0.067161456 0.063060336 -0.008432276 -0.00012123739 0.004557632 -4.0720224e-05 0.035212703
0.015863448 0.02159939 0.027409766 0.02562932 -0.006621815 -0.052392475 0.0009792874 -1.4216952e-05
-0.02133026 0.043456577 -0.058336526 -0.012744292 0.03935074 0.05496707 -0.0121875685 0.01127442
-0.054464947 -0.00044915098 -0.0009325055 0.049666733 -0.012780936 -0.022854893 0.0081362985 -0.051888697
-0.05455609 -0.027671307 -0.030881863 0.026332036 -0.06737823 -0.02956331 -0.04985262 0.069600314
0.04877013 0.029700564 0.020465674 -0.021300284 -0.0626911 -0.052719913 0.0009950218 0.031575065
0.04232308 -0.011480892 -0.03057548 -0.050836436 -0.061344463 -0.016566416 -0.00072967325 0.020537416
0.023464747 0.049836077 0.050980274 -0.0009654991 -0.056146152 0.004627945 0.0009935577 0.0009913583
-0.018825067 -0.042761605 -6.366829e-05 -0.015430027 0.02537578 0.00048686366 -0.007734795 0.040243007
0.019753493 0.03064946 0.042190775 -0.015116326 0.007651746 -0.039839324 0.04802105 0.059907805
-0.022869267 -0.05216617 0.023638071 0.038426258 -0.014344871 0.045132153 0.00024369899 0.0021245568
-0.016278392 0.044053767 -0.020795774 0.029588476 0.069019705 -0.0064570294 -0.051160064 -0.0051353546
-0.056163117 -0.0612749 0.050648607 -0.019889941 -0.044394866 -0.06325063 0.027630882 0.03690364
-0.00042404752 0.05264016 0.025425803 0.021824777 -0.044837203 -0.052126594 0.06338327 0.06985536
0.00020175832 -0.00018754331 -0.010250875 -1.0755489e-05 0.052463334 0.058441658 0.00092410366 0.06757533
-0.06587406 0.050944917 -0.06814003 0.014695142 -0.00041335853 0.030807635 0.062351692 -0.063208245
-0.04494328 -0.03150191 0.00067792257 0.07148998 -0.04680833 -0.0010891064 0.0026148255 0.015901808
0.01284498 -0.04284588 0.0002969966 0.069076225 0.06974201 0.017838212 -0.00021681067 -0.014006824
0.051071603 0.008217226 -0.069224514 0.06022484 0.035097193 -0.0008280473 -0.011435912 0.006205868
00000000: 2298 34bd c010 3b3d 2e64 3fbc 2199 13bc
00000010: f288 3a3d 102a 973b 2756 89bd acb0 2b39
00000020: 7ac5 7bba da80 92bd 43dd 32bb ce2c 0fbc
00000030: 480c 163c 74d4 8f3d 83c4 6739 5af5 0b3c
00000040: 7eec 1a38 fb2d f1bc 837b 2b3d 080e 5fbd
00000050: a393 c43c 6302 1f3b 6f37 b5b9 4c30 41ba
00000060: c481 543b a66b e0b9 205f 833b 9501 92bd
00000070: c500 3e3d 996b 443d e79a 363d b087 c03b
00000080: 2762 5d3d 2c59 deb9 aa4c 563d 22b2 af3b
00000090: 19f5 54bd b3e6 9dbb 671a 163d 5cbd 13ba
000000a0: 62d0 59bd b931 aebc 4740 543d d262 f43b
000000b0: 4e63 fb3c dc15 71ba 1027 49bd 1eee 723d
000000c0: 7dfb b1b9 03b9 24ba 671d 333c a058 463c
000000d0: b337 953c 5805 833a 30de 103d d3ad 86b9
000000e0: bfa1 9cbc 4420 2eb9 2037 033a 1fb9 12b9
000000f0: 3015 8fbd 07a6 4fbb 2170 85bc d666 47b9
00000100: 8157 11bd d297 90bd 885e e73b ba6c 49bc
00000110: 2b4d 123d fa28 73b9 bea2 dfbc e7c1 143d
00000120: f7ba 6d3c 58a2 ed38 deed d4bc f536 473d
00000130: f914 3f3a d844 813d ec07 a1bb 7f4c 83bd
00000140: 358e 813a aa28 58bd 295b 7b3d 8089 46bc
00000150: b952 053b 39d2 d9bc 427e 5eb8 3487 c7bc
00000160: 0049 25bc ce26 033c fda3 c63c 14f9 8e3c
00000170: 7dd8 6dbd 05b4 46bd a619 303d 84aa d83c
00000180: 25f3 e83c 3144 ccbc b25c 7bbd e383 9c3c
00000190: 52cf 44bd 3bdd 153d 2057 803d f9b6 f83a
000001a0: 3238 333d f28b 893d c725 813d 8727 0abc
000001b0: d440 feb8 3058 953b 02cb 2ab8 323b 103d
000001c0: 10f4 813c 34f1 b03c 728a e03c 94f4 d13c
000001d0: cffb d8bb 7e99 56bd 6f5b 803a 5885 6eb7
000001e0: ccbc aebc 86ff 313d 48f2 6ebd 6fcd 50bc
000001f0: 3e2e 213d 2725 613d 5eae 47bc 58b8 383c
00000200: a316 5fbd 067c ebb9 6373 74ba 586f 4b3d
00000210: 2267 51bc 2f3a bbbc 1c4e 053c 3e89 54bd
00000220: 3576 5fbd f0ae e2bc f6fb fcbc 48b6 d73c
00000230: 99fd 89bd c12e f2bc 4332 4cbd 9c8a 8e3d
00000240: 30c3 473d 994e f33c a1a7 a73c ef7d aebc
00000250: 3164 80bd d6f0 57bd 646b 823a db54 013d
00000260: f75a 2d3d 5a1a 3cbc 6e79 fabc de39 50bd
00000270: 5544 7bbd 4bb6 87bc 8b47 3fba 153e a83c
00000280: 2439 c03c ea20 4c3d b1d0 503d 8c19 7dba
00000290: 82f9 65bd 04a6 973b 443a 823a 77f0 813a
000002a0: 0737 9abc cb26 2fbd a785 85b8 39ce 7cbc
000002b0: dee0 cf3c bc41 ff39 2a74 fdbb dad5 243d
000002c0: 14d2 a13c 9414 fb3c 3cd0 2c3d 77aa 77bc
000002d0: 7fbb fa3b 8f2e 23bd b8b1 443d e361 753d
000002e0: 5458 bbbc 32ac 55bd a1a4 c13c da64 1d3d
000002f0: c006 6bbc 7edc 383d 7389 7f39 263c 0b3b
00000300: 435a 85bc b971 343d e65b aabc 8863 f23c
00000310: 345a 8d3d 7d95 d3bb 378d 51bd 7a46 a8bb
00000320: 4c0b 66bd 64fb 7abd ea74 4f3d 3bf0 a2bc
00000330: 64d7 35bd 8c89 81bd 295a e23c 4528 173d
00000340: b252 deb9 359d 573d c649 d03c e0c9 b23c
00000350: 37a7 37bd b282 55bd 16cf 813d 5410 8f3d
00000360: 168f 5339 46a7 44b9 49f3 27bc 7972 34b7
00000370: cbe3 563d 8560 6f3d 8c3f 723a ef64 8a3d
00000380: fbe8 86bd 9eab 503d 008d 8bbd e5c3 703c
00000390: 0bb8 d8b9 4b60 fc3c 7d64 7f3d 5373 81bd
000003a0: 7216 38bd 2608 01bd 9db6 313a 5769 923d
000003b0: 17ba 3fbd 59c0 8eba 7e5d 2b3b 8244 823c
000003c0: c073 523c 297f 2fbd 35b6 9b39 d677 8d3d
000003d0: e6d4 8e3d 7121 923c ac57 63b9 e17c 65bc
000003e0: 7530 513d 8ba1 063c 95c5 8dbd 52ae 763d
000003f0: 13c2 0f3d 5011 59ba b15d 3bbc 985a cb3b

recurrent.bias_ih_l0 f4 [512]
0.007388013 -0.007196644 -0.009797416 0.0008086355 0.0036475197 0.013491657 0.021765085 0.000896637
-0.012094889 0.021780368 0.018514115 -0.0023118947 -0.013554975 0.002121066 0.010492565 -0.012277325
0.012817359 0.010494737 -0.00885659 0.0128873335 0.018908057 0.01723685 0.0067788404 0.006493185
0.01460871 0.020252695 -0.008110215 0.017356409 0.005227233 0.0023948383 -0.012863608 0.02000331
-0.012432152 0.011383175 0.0010044823 -0.011911733 -0.0076893675 0.004310812 0.018141415 -0.010183338
0.009916319 -0.012494405 -0.015218938 0.007146648 -0.006161938 0.0038885912 0.017777234 0.021129616
-0.016346283 -0.009650666 0.012608988 0.012050468 0.009950598 -0.0058306097 -0.0045885965 0.011374861
0.014090093 0.024468541 0.011256218 -0.015045676 0.014322905 -0.0010644421 0.007595695 -0.012821328
-0.007958484 0.0039308476 0.01009141 0.0151032 0.0144796 -0.0015780756 -0.013984358 0.0037863057
0.009686009 0.016438132 0.011554367 -0.0056954706 -0.008603365 0.006416346 -0.011648161 -0.011319018
0.020983238 0.020589368 -0.006972576 0.01860257 0.015116917 -0.01301251 0.012450218 -0.010728306
0.019768871 -0.01770573 0.0078077465 0.002655215 0.007456025 0.017661909 0.011202674 -0.0051601604
-0.0080082435 0.016268114 -0.017180774 0.01907008 0.02171888 0.025646163 0.009624854 0.0036062703
0.012899704 0.014322119 -0.016378947 -0.011030876 0.0006960854 5.3490174e-05 0.008450047 0.010803346
-0.011237768 0.00028909912 0.012718549 0.012324632 0.01293103 0.019474551 -0.008193549 0.015931247
0.009568135 0.0010062031 -0.016689964 -0.0016617823 0.018076478 0.019468589 0.020625196 0.0036396077
0.0 0.0 0.0 0.0 0.0 0.0 0.0 0.0
0.0 0.0 0.0 0.0 0.0 0.0 0.0 0.0
0.0 0.0 0.0 0.0 0.0 0.0 0.0 0.0
0.0 0.0 0.0 0.0 0.0 0.0 0.0 0.0
0.0 0.0 0.0 0.0 0.0 0.0 0.0 0.0
0.0 0.0 0.0 0.0 0.0 0.0 0.0 0.0
0.0 0.0 0.0 0.0 0.0 0.0 0.0 0.0
0.0 0.0 0.0 0.0 0.0 0.0 0.0 0.0
0.0 0.0 0.0 0.0 0.0 0.0 0.0 0.0
0.0 0.0 0.0 0.0 0.0 0.0 0.0 0.0
0.0 0.0 0.0 0.0 0.0 0.0 0.0 0.0
0.0 0.0 0.0 0.0 0.0 0.0 0.0 0.0
0.0 0.0 0.0 0.0 0.0 0.0 0.0 0.0
0.0 0.0 0.0 0.0 0.0 0.0 0.0 0.0
0.0 0.0 0.0 0.0 0.0 0.0 0.0 0.0
0.0 0.0 0.0 0.0 0.0 0.0 0.0 0.0
00000000: 2517 f23b d3d1 ebbb 5785 20bc 9cfa 533a
00000010: 3a0b 6f3b 1c0c 5d3c b14c b23c 4a0c 6b3a
00000020: a429 46bc be6c b23c eaaa 973c 2883 17bb
00000030: b015 5ebc 9501 0b3b 02e9 2b3c d526 49bc
00000040: e6ff 513c 1ef2 2b3c 3b1b 11bc 6525 533c
00000050: 12e5 9a3c 4b34 8d3c 0921 de3b c9c4 d43b
00000060: 5f59 6f3c fbe8 a53c b5e0 04bc 072f 8e3c
00000070: 3549 ab3b b8f2 1c3b e2c1 52bc fbdd a33c
00000080: 3ab0 4bbc 7f80 3a3c d5a8 833a 6e29 43bc
00000090: 17f7 fbbb b641 8d3b 4e9d 943c 04d8 26bc
000000a0: 0e78 223c 55b5 4cbc da58 79bc 6e2e ea3b
000000b0: 15ea c9bb bcd7 7e3b 90a1 913c 0418 ad3c
000000c0: a4e8 85bc d41d 1ebc ee95 4e3c 536f 453c
000000d0: d507 233c b30e bfbb f05b 96bb a05d 3a3c
000000e0: 22da 663c 4072 c83c 006c 383c 2482 76bc
000000f0: 9eaa 6a3c c084 8bba 4fe5 f83b 8c10 52bc
00000100: 4d64 02bc 57ce 803b 7156 253c 6a73 773c
00000110: d83b 6d3c 6ed7 ceba a61e 65bc ab23 783b
00000120: 11b2 1e3c 43a9 863c 874e 3d3c 12a1 babb
00000130: 21f5 0cbc 3640 d23b eed7 3ebc 6773 39bc
00000140: 0ae5 ab3c 09ab a83c 357a e4bb 6b64 983c
00000150: f2ac 773c 6c32 55bc 00fc 4b3c c7c5 2fbc
00000160: 54f2 a13c 9b0b 91bc 20d8 ff3b 1e03 2e3b
00000170: ac51 f43b b5af 903c 6c8b 373c 9016 a9bb
00000180: 0235 03bc b544 853c b2be 8cbc db38 9c3c
00000190: cbeb b13c e717 d23c 90b1 1d3c 2d57 6c3b
000001a0: 4859 533c 52a7 6a3c 242d 86bc d9ba 34bc
000001b0: 8079 363a a35a 6038 1172 0a3c 8400 313c
000001c0: 9e1e 38bc 3a92 9739 7661 503c 41ed 493c
000001d0: acdc 533c 1889 9f3c 3c3e 06bc 3f82 823c
000001e0: abc3 1c3c 93e2 833a 64b9 88bc 29d0 d9ba
000001f0: 1f15 943c 977c 9f3c 2cf6 a83c 7c86 6e3b
00000200: 0000 0000 0000 0000 0000 0000 0000 0000
00000210: 0000 0000 0000 0000 0000 0000 0000 0000
00000220: 0000 0000 0000 0000 0000 0000 0000 0000
00000230: 0000 0000 0000 0000 0000 0000 0000 0000
00000240: 0000 0000 0000 0000 0000 0000 0000 0000
00000250: 0000 0000 0000 0000 0000 0000 0000 0000
00000260: 0000 0000 0000 0000 0000 0000 0000 0000
00000270: 0000 0000 0000 0000 0000 0000 0000 0000
00000280: 0000 0000 0000 0000 0000 0000 0000 0000
00000290: 0000 0000 0000 0000 0000 0000 0000 0000
000002a0: 0000 0000 0000 0000 0000 0000 0000 0000
000002b0: 0000 0000 0000 0000 0000 0000 0000 0000
000002c0: 0000 0000 0000 0000 0000 0000 0000 0000
000002d0: 0000 0000 0000 0000 0000 0000 0000 0000
000002e0: 0000 0000 0000 0000 0000 0000 0000 0000
000002f0: 0000 0000 0000 0000 0000 0000 0000 0000
00000300: 0000 0000 0000 0000 0000 0000 0000 0000
00000310: 0000 0000 0000 0000 0000 0000 0000 0000
00000320: 0000 0000 0000 0000 0000 0000 0000 0000
00000330: 0000 0000 0000 0000 0000 0000 0000 0000
00000340: 0000 0000 0000 0000 0000 0000 0000 0000
00000350: 0000 0000 0000 0000 0000 0000 0000 0000
00000360: 0000 0000 0000 0000 0000 0000 0000 0000
00000370: 0000 0000 0000 0000 0000 0000 0000 0000
00000380: 0000 0000 0000 0000 0000 0000 0000 0000
00000390: 0000 0000 0000 0000 0000 0000 0000 0000
000003a0: 0000 0000 0000 0000 0000 0000 0000 0000
000003b0: 0000 0000 0000 0000 0000 0000 0000 0000
000003c0: 0000 0000 0000 0000 0000 0000 0000 0000
000003d0: 0000 0000 0000 0000 0000 0000 0000 0000
000003e0: 0000 0000 0000 0000 0000 0000 0000 0000
000003f0: 0000 0000 0000 0000 0000 0000 0000 0000

recurrent.bias_hh_l0 f4 [512]
0.007388013 -0.007196644 -0.009797416 0.0008086355 0.0036475197 0.013491657 0.021765085 0.000896637
-0.012094889 0.021780368 0.018514115 -0.0023118947 -0.013554975 0.002121066 0.010492565 -0.012277325
0.012817359 0.010494737 -0.00885659 0.0128873335 0.018908057 0.01723685 0.0067788404 0.006493185
0.01460871 0.020252695 -0.008110215 0.017356409 0.005227233 0.0023948383 -0.012863608 0.02000331
-0.012432152 0.011383175 0.0010044823 -0.011911733 -0.0076893675 0.004310812 0.018141415 -0.010183338
0.009916319 -0.012494405 -0.015218938 0.007146648 -0.006161938 0.0038885912 0.017777234 0.021129616
-0.016346283 -0.009650666 0.012608988 0.012050468 0.009950598 -0.0058306097 -0.0045885965 0.011374861
0.014090093 0.024468541 0.011256218 -0.015045676 0.014322905 -0.0010644421 0.007595695 -0.012821328
-0.007958484 0.0039308476 0.01009141 0.0151032 0.0144796 -0.0015780756 -0.013984358 0.0037863057
0.009686009 0.016438132 0.011554367 -0.0056954706 -0.008603365 0.006416346 -0.011648161 -0.011319018
0.020983238 0.020589368 -0.006972576 0.01860257 0.015116917 -0.01301251 0.012450218 -0.010728306
0.019768871 -0.01770573 0.0078077465 0.002655215 0.007456025 0.017661909 0.011202674 -0.0051601604
-0.0080082435 0.016268114 -0.017180774 0.01907008 0.02171888 0.025646163 0.009624854 0.0036062703
0.012899704 0.014322119 -0.016378947 -0.011030876 0.0006960854 5.3490174e-05 0.008450047 0.010803346
-0.011237768 0.00028909912 0.012718549 0.012324632 0.01293103 0.019474551 -0.008193549 0.015931247
0.009568135 0.0010062031 -0.016689964 -0.0016617823 0.018076478 0.019468589 0.020625196 0.0036396077
0.0 0.0 0.0 0.0 0.0 0.0 0.0 0.0
0.0 0.0 0.0 0.0 0.0 0.0 0.0 0.0
0.0 0.0 0.0 0.0 0.0 0.0 0.0 0.0
0.0 0.0 0.0 0.0 0.0 0.0 0.0 0.0
0.0 0.0 0.0 0.0 0.0 0.0 0.0 0.0
0.0 0.0 0.0 0.0 0.0 0.0 0.0 0.0
0.0 0.0 0.0 0.0 0.0 0.0 0.0 0.0
0.0 0.0 0.0 0.0 0.0 0.0 0.0 0.0
0.0 0.0 0.0 0.0 0.0 0.0 0.0 0.0
0.0 0.0 0.0 0.0 0.0 0.0 0.0 0.0
0.0 0.0 0.0 0.0 0.0 0.0 0.0 0.0
0.0 0.0 0.0 0.0 0.0 0.0 0.0 0.0
0.0 0.0 0.0 0.0 0.0 0.0 0.0 0.0
0.0 0.0 0.0 0.0 0.0 0.0 0.0 0.0
0.0 0.0 0.0 0.0 0.0 0.0 0.0 0.0
0.0 0.0 0.0 0.0 0.0 0.0 0.0 0.0
00000000: 2517 f23b d3d1 ebbb 5785 20bc 9cfa 533a
00000010: 3a0b 6f3b 1c0c 5d3c b14c b23c 4a0c 6b3a
00000020: a429 46bc be6c b23c eaaa 973c 2883 17bb
00000030: b015 5ebc 9501 0b3b 02e9 2b3c d526 49bc
00000040: e6ff 513c 1ef2 2b3c 3b1b 11bc 6525 533c
00000050: 12e5 9a3c 4b34 8d3c 0921 de3b c9c4 d43b
00000060: 5f59 6f3c fbe8 a53c b5e0 04bc 072f 8e3c
00000070: 3549 ab3b b8f2 1c3b e2c1 52bc fbdd a33c
00000080: 3ab0 4bbc 7f80 3a3c d5a8 833a 6e29 43bc
00000090: 17f7 fbbb b641 8d3b 4e9d 943c 04d8 26bc
000000a0: 0e78 223c 55b5 4cbc da58 79bc 6e2e ea3b
000000b0: 15ea c9bb bcd7 7e3b 90a1 913c 0418 ad3c
000000c0: a4e8 85bc d41d 1ebc ee95 4e3c 536f 453c
000000d0: d507 233c b30e bfbb f05b 96bb a05d 3a3c
000000e0: 22da 663c 4072 c83c 006c 383c 2482 76bc
000000f0: 9eaa 6a3c c084 8bba 4fe5 f83b 8c10 52bc
00000100: 4d64 02bc 57ce 803b 7156 253c 6a73 773c
00000110: d83b 6d3c 6ed7 ceba a61e 65bc ab23 783b
00000120: 11b2 1e3c 43a9 863c 874e 3d3c 12a1 babb
00000130: 21f5 0cbc 3640 d23b eed7 3ebc 6773 39bc
00000140: 0ae5 ab3c 09ab a83c 357a e4bb 6b64 983c
00000150: f2ac 773c 6c32 55bc 00fc 4b3c c7c5 2fbc
00000160: 54f2 a13c 9b0b 91bc 20d8 ff3b 1e03 2e3b
00000170: ac51 f43b b5af 903c 6c8b 373c 9016 a9bb
00000180: 0235 03bc b544 853c b2be 8cbc db38 9c3c
00000190: cbeb b13c e717 d23c 90b1 1d3c 2d57 6c3b
000001a0: 4859 533c 52a7 6a3c 242d 86bc d9ba 34bc
000001b0: 8079 363a a35a 6038 1172 0a3c 8400 313c
000001c0: 9e1e 38bc 3a92 9739 7661 503c 41ed 493c
000001d0: acdc 533c 1889 9f3c 3c3e 06bc 3f82 823c
000001e0: abc3 1c3c 93e2 833a 64b9 88bc 29d0 d9ba
000001f0: 1f15 943c 977c 9f3c 2cf6 a83c 7c86 6e3b
00000200: 0000 0000 0000 0000 0000 0000 0000 0000
00000210: 0000 0000 0000 0000 0000 0000 0000 0000
00000220: 0000 0000 0000 0000 0000 0000 0000 0000
00000230: 0000 0000 0000 0000 0000 0000 0000 0000
00000240: 0000 0000 0000 0000 0000 0000 0000 0000
00000250: 0000 0000 0000 0000 0000 0000 0000 0000
00000260: 0000 0000 0000 0000 0000 0000 0000 0000
00000270: 0000 0000 0000 0000 0000 0000 0000 0000
00000280: 0000 0000 0000 0000 0000 0000 0000 0000
00000290: 0000 0000 0000 0000 0000 0000 0000 0000
000002a0: 0000 0000 0000 0000 0000 0000 0000 0000
000002b0: 0000 0000 0000 0000 0000 0000 0000 0000
000002c0: 0000 0000 0000 0000 0000 0000 0000 0000
000002d0: 0000 0000 0000 0000 0000 0000 0000 0000
000002e0: 0000 0000 0000 0000 0000 0000 0000 0000
000002f0: 0000 0000 0000 0000 0000 0000 0000 0000
00000300: 0000 0000 0000 0000 0000 0000 0000 0000
00000310: 0000 0000 0000 0000 0000 0000 0000 0000
00000320: 0000 0000 0000 0000 0000 0000 0000 0000
00000330: 0000 0000 0000 0000 0000 0000 0000 0000
00000340: 0000 0000 0000 0000 0000 0000 0000 0000
00000350: 0000 0000 0000 0000 0000 0000 0000 0000
00000360: 0000 0000 0000 0000 0000 0000 0000 0000
00000370: 0000 0000 0000 0000 0000 0000 0000 0000
00000380: 0000 0000 0000 0000 0000 0000 0000 0000
00000390: 0000 0000 0000 0000 0000 0000 0000 0000
000003a0: 0000 0000 0000 0000 0000 0000 0000 0000
000003b0: 0000 0000 0000 0000 0000 0000 0000 0000
000003c0: 0000 0000 0000 0000 0000 0000 0000 0000
000003d0: 0000 0000 0000 0000 0000 0000 0000 0000
000003e0: 0000 0000 0000 0000 0000 0000 0000 0000
000003f0: 0000 0000 0000 0000 0000 0000 0000 0000

fc.weight f4 [4, 128]
0.06124207 0.023937639 0.023210322 -0.010771429 0.026629528 0.103382744 -0.043552592 0.037116177
0.071152605 -0.024371378 -0.01734431 -0.002359625 0.0053276434 0.053165026 -0.039497662 0.058167983
-0.00795172 0.0022632019 0.05201169 0.08457781 -0.056226708 -0.088406235 0.03491587 0.09183282
0.037785042 0.023228195 -0.034624986 0.031057576 -0.0024700004 -0.07847728 -0.0489535 -0.06051178
0.041803252 -0.08310845 0.06775989 -0.04002525 -0.05285528 -0.060561664 -0.02979796 -0.06751134
-0.074477285 -0.006937883 -0.05848361 0.05910122 0.009475788 0.038594127 0.05732434 -0.06498989
0.033207614 0.09373154 0.036493856 0.08098888 0.013514419 -0.019169522 0.05117282 -0.092538685
0.027770558 -3.7466496e-05 0.010204009 -0.05810067 0.03785113 -0.08644814 -0.038892735 -0.004391074
-0.02158459 0.06373736 -0.045599047 -0.022958022 -0.067368835 -0.02666327 0.004654651 0.07943403
-0.05402723 0.061067525 -0.06442775 -0.07846427 -0.05652004 -0.08431145 0.059204984 0.08091745
-0.021699896 -0.08569015 -0.06730752 -0.09647637 0.061831154 -0.07094386 0.012539898 0.037485987
-0.050982065 0.021855868 0.061422266 -0.05842219 0.09446201 -0.020095902 0.03307386 0.06116974
0.040617354 0.013629731 -0.013894908 0.0073948945 0.09526228 -0.08695419 0.05771331 0.03259102
-0.05269023 0.04047348 -0.027062463 -0.017882392 0.022701027 -0.04334032 -0.062181685 0.10089318
-0.044677842 -0.010892101 -0.058392733 -0.025323447 0.025193267 0.03609547 0.037847098 -0.064919434
-0.08107901 0.035157938 0.056481265 -0.08575708 0.037446756 0.022934396 -0.07109867 -0.03465738
-0.051239263 -0.067218214 0.011473246 0.0689205 0.055658326 -0.09202149 -0.053028375 0.0053027435
-0.028047062 -0.004627189 -0.07936812 -0.018451985 -0.04228058 0.05337825 -0.020652654 0.07657424
-0.025661927 0.044333525 0.045838278 -0.016310602 0.052368615 0.01618279 0.08155233 -0.0375368
-0.043707553 -0.07208639 -0.0040543685 0.053241342 -0.037313547 -0.013706865 0.065445945 0.03381945
-0.07189409 0.09456679 0.08556552 0.042477135 -0.04672512 -0.046213977 0.0077017555 -0.048461102
-0.039315276 0.07619126 0.037583396 -0.04967307 0.056172665 -0.059657436 -0.03337992 0.018693462
0.049192756 -0.037232567 -0.057147108 -0.044282515 -0.07469513 -0.040057804 -0.042183194 -0.041613523
-0.018441327 -0.03103871 -0.06984041 -0.0330937 -0.06627592 0.0628105 -0.021373525 0.06924083
0.044950765 0.057580836 0.044210494 0.03866219 0.099442355 0.08792079 0.06029891 -0.089382246
0.07185622 -0.05165958 0.03851133 -0.078435995 0.013721114 -0.032425433 -0.05191348 -0.05492238
0.041216455 -0.08873987 -0.08756293 0.027399436 -0.08963058 0.060958464 -0.09436606 -0.032884724
-0.029064722 0.010517123 0.0602265 0.013627272 0.026481273 -0.020920295 -0.012700307 0.052741133
0.01910455 0.0040474935 0.03161874 -0.049264472 -0.025277542 -0.07454099 0.0017162937 -0.026041156
0.026292786 -0.04744548 -0.037852637 -0.025821706 0.00699472 -0.033237446 0.08595496 0.05074857
-0.019278426 0.012964484 -0.055623554 0.07119588 0.014025792 0.042686712 -0.05328392 0.07048066
0.011228459 -0.06049442 -0.06327916 0.06028263 -0.0044401633 0.03446586 -0.054010678 -0.047977485
00000000: f7d8 7a3d de18 c43c 9323 be3c a67a 30bc
00000010: 2b26 da3c 55ba d33d 3464 32bd 2207 183d
00000020: 75b8 913d 7ca6 c7bc a815 8ebc f0a3 1abb
00000030: 8393 ae3b 92c3 593d 4dc8 21bd 8d41 6e3d
00000040: ee47 02bc 3a52 143b 360a 553d 2137 ad3d
00000050: fa4d 66bd 540e b5bd f103 0f3d d812 bc3d
00000060: 7dc4 1a3d 0e49 be3c eed2 0dbd 756c fe3c
00000070: bbdf 21bb b2b8 a0bd 7783 48bd 33db 77bd
00000080: e339 2b3d c334 aabd b2c5 8a3d 84f1 23bd
00000090: c77e 58bd 820f 78bd da1a f4bc 6343 8abd
000000a0: 8c87 98bd 2e57 e3bb 838c 6fbd 1f14 723d
000000b0: 5640 1b3c e014 1e3d edcc 6a3d 6b19 85bd
000000c0: b504 083d 52f6 bf3d 957a 153d 7fdd a53d
000000d0: 956b 5d3c 6709 9dbc 979a 513d ec84 bdbd
000000e0: 157f e33c 5825 1db8 b72e 273c f8fa 6dbd
000000f0: c909 1b3d b90b b1bd fd4d 1fbd 00e3 8fbb
00000100: 2bd2 b0bc bc88 823d 11c6 3abd 7612 bcbc
00000110: acf8 89bd ee6c dabc 0b86 983b 4fae a23d
00000120: a84b 5dbd f121 7a3d b2f2 83bd e0b1 a0bd
00000130: 8f81 67bd 7bab acbd ed80 723d 0cb8 a53d
00000140: fbc3 b1bc 517e afbd 86d8 89bd 6795 c5bd
00000150: aa42 7d3d 044b 91bd 2574 4d3c e88a 193d
00000160: 92d2 50bd 140b b33c ea95 7b3d 1b4c 6fbd
00000170: 4c75 c13d 29a0 a4bc 7578 073d 1f8d 7a3d
00000180: 625e 263d 3c4f 5f3c 78a7 63bc df50 f23b
00000190: df18 c33d 0a15 b2bd cb64 6c3d 297e 053d
000001a0: b6d1 57bd 85c7 253d 19b2 ddbc 187e 92bc
000001b0: 81f7 b93c 9f85 31bd 39b2 7ebd 15a1 ce3d
000001c0: 1d00 37bd c874 32bc 382d 6fbd 1e73 cfbc
000001d0: 1c62 ce3c d8d8 133d 8f05 1b3d 7bf4 84bd
000001e0: c10c a6bd c501 103d e658 673d 68a1 afbd
000001f0: c561 193d eae0 bb3c 2e9c 91bd e6f4 0dbd
00000200: 43e0 51bd b4a9 89bd 48fa 3b3c 3126 8d3d
00000210: fcf9 633d c375 bcbd 4834 59bd a3c2 ad3b
00000220: f4c2 e5bc ad9f 97bb c18b a2bd 9e28 97bc
00000230: 672e 2dbd 27a3 5a3d c12f a9bc f5d2 9c3d
00000240: f638 d2bc 1297 353d ebc0 3b3d d09d 85bc
00000250: 7980 563d c591 843c e804 a73d 30c0 19bd
00000260: b106 33bd 07a2 93bd 82da 84bb 9813 5a3d
00000270: 17d6 18bd c292 60bc 8608 863d 4386 0a3d
00000280: 353d 93bd 3cac c13d fa3c af3d 81fc 2d3d
00000290: d762 3fbd de4a 3dbd 025f fc3b 267f 46bd
000002a0: 0e09 21bd 2a0a 9c3d 0cf1 193d fd75 4bbd
000002b0: 4f15 663d 5b5b 74bd 62b9 08bd 0823 993c
000002c0: 587e 493d 2d81 18bd 1613 6abd 9561 35bd
000002d0: c3f9 98bd a713 24bd 49c8 2cbd f172 2abd
000002e0: 4412 97bc e544 febc 7d08 8fbd 428d 07bd
000002f0: abbb 87bd cba2 803d 8817 afbc 23ce 8d3d
00000300: 4b1e 383d e2d9 6b3d 1016 353d 3f5c 1e3d
00000310: 6fa8 cb3d d10f b43d fdfb 763d 0a0e b7bd
00000320: 5b29 933d ff98 53bd 0ebe 1d3d 0da3 a0bd
00000330: 86ce 603c 88d0 04bd 3ba3 54bd 4af6 60bd
00000340: 96d2 283d 40bd b5bd 3254 b3bd c874 e03c
00000350: 3d90 b7bd 95af 793d fe42 c1bd 22b2 06bd
00000360: 2419 eebc 0350 2c3c 10b0 763d ec44 5f3c
00000370: 41ef d83c 0a61 abbc f314 50bc 1607 583d
00000380: 2581 9c3c d6a0 843b a782 013d 8bc9 49bd
00000390: d912 cfbc f2a8 98bd 43f5 e03a 4354 d5bc
000003a0: f863 d73c 3156 42bd 5e0b 1bbd 0b88 d3bc
000003b0: f733 e53b fd23 08bd 2709 b03d bcdd 4f3d
000003c0: caed 9dbc fd68 543c 86d5 63bd 25cf 913d
000003d0: 6fcc 653c 43d8 2e3d 3d40 5abd 2a58 903d
000003e0: 92f7 373c ffc8 77bd 8198 81bd ebea 763d
000003f0: ca7e 91bb 132c 0d3d 4d3a 5dbd 0a84 44bd

fc.bias f4 [4]
0.037378963 -0.027008412 -0.0423157 -0.015376795
00000000: af1a 193d bf40 ddbc 3a53 2dbd f4ee 7bbc
