input/lstm_model.pth (torch, 281190 bytes, 6 tensors)

lstm.weight_ih_l0 f4 [512, 5]
00000000: 9eca c53b 1840 3c3c cdce 0abd 721e 14bd
00000010: ea7a 6fbd e8b0 00bd f889 0c3d 215f 7b3d
00000020: a0ca 313d 59c1 f9bc 2881 16bd 56ec e13b
00000030: b015 1e3d 6379 3cbb 22fb 513d 129d 223d
00000040: 267a 873b f96b 9a3c ac09 60bd 9d8d 663d
00000050: ccad fe3a a6f0 3dbd 45dc f9bb e496 c4bc
00000060: cd3f 09bd 1bb6 8dbd d5c9 fe3a 0374 ac3a
00000070: 5def c63c 5af3 e2bb 1a91 c5bc 30a8 8c3d
00000080: f61a 6ebd 3428 0cbc 3096 0fbd 8209 0bbd
00000090: 77a2 403d 9d38 5f3d f6ca 24bc 0215 8f3d
000000a0: 38b2 223d f100 8fbd af67 0fbc f82b 793d
000000b0: 65a9 8fbd 8182 86bb 203e 9ebd b4a1 c1bb
000000c0: 38d5 edbc 8203 24bc 7ca1 9c3d e05a 763d
000000d0: fb40 1a3b a839 b23d cd6f 5fbd 3c79 533b
000000e0: a160 5e3b dcb9 cbbc 5f06 2fbd 7b26 d23c
000000f0: 8e9c d8bc c96a eebc 5768 5b3c e9d4 383d
00000100: ef03 5bbc 317d 9ebd e66c 2a3b 23fd c6bc
00000110: 1e44 19bd 3898 b5bb 858e 423d bbd4 6f3d
00000120: 2054 82bd 9775 2d3d 184e 153d 1248 af3d
00000130: 6dc7 51bd 1643 283d c955 8c3d 74f0 25bc
00000140: 32cc 3a3d 4d07 af3d 0f72 aabd 1ffb 693d
00000150: 9824 85bd 44af 98bc 9775 73bd ef30 3a3d
00000160: 841e 233c f6cb 99bd a502 5b3b c1bd 35bd
00000170: e4ba 7fbc 7081 97bd b4a3 d13b feca 1b3d
00000180: a086 9dbc c9e5 fbbc ea8e 8bbd 20c4 803d
00000190: ce6a 85bc 8b2d 163d 0b9d 7ebd 2069 e83c
000001a0: fe44 6b3d 0ec4 443a 4300 973d 7ab9 563d
000001b0: 9c43 4ebc 0ec8 30bd 2cec b73a 8f00 8b3d
000001c0: 8660 593d 0133 8bbd 86b3 713d 9c87 3c3c
000001d0: fc63 81bd 3b16 a23d 8636 953d 103b 34bd
000001e0: 5c35 753b 9263 89bd e91d 9d3c 2438 34bd
000001f0: 7c85 78bd 294c a03d a3cf 643d 3387 e2bc
00000200: aa62 bbbb 4acd 85bd 05c8 9fbd aeba 233d
00000210: 49a9 803c 385a 8a3c e41b 14bc 076f 81bd
00000220: 2cda 4dbd 2ca4 9cbb 0201 953d 802e 72bd
00000230: 184f 92bd 5f57 593d bea2 48bd d924 a0bd
00000240: 0852 80bd 6a95 4ebd 9573 ec3c 08b8 2fbd
00000250: 2af6 97bd 2d3c 963c a6b3 3b3d 9b26 0fbc
00000260: 0db1 293d 30de 773d 790d 09bd 71f6 1e3d
00000270: 2376 8d3d 359d 9d3d b2cd b13d c653 123d
00000280: 01f9 8a3b 3334 7a3d 37c4 443d be6c 183d
00000290: 0f60 49bd 59ca 5a3d 9fe0 65bd 90b5 41bd
000002a0: 2590 5a3d 2872 9b3c 5c1f 993d 783c 16bc
000002b0: 2403 6a3b 214c 46bd d93e 3b3d ca37 a13c
000002c0: cfa8 9fbd 8d1b 8cbd 096b 923c 1263 48bd
000002d0: c6a4 25bc b283 3abd 9a0f bcbb e10d 79bd
000002e0: ea0e 97bc 0902 343d 3279 2fbd 88c2 bbbc
000002f0: 532a 97bd 28c2 ea3b 0061 8f3d 2ab7 403d
00000300: bc64 273d d61f 243d 845c c5b7 41cc 2a3d
00000310: d90f 4b3d 3a18 af3d cf48 ac3b 6596 c73a
00000320: 5880 013d a4c7 983d 17b7 06bd 805e 963a
00000330: d31d f63c 5fb2 b63d 785b 7b3d 7293 893b
00000340: 452d 81bd 99eb 723c ae28 f83c eb2d b0bd
00000350: 3fc2 893d 3a72 0b3d 269a 98bd 5daa 8e3d
00000360: 681e a0bd 82a5 493c 1b6f 2e3d 7a17 3d3c
00000370: 140a 40bd f341 923d f318 a1bd 46a8 c73b
00000380: 34d7 a2bd 779f aebc df87 a53d b483 763b
00000390: 2dad 93bd 04b9 9c3d e902 4cbd 3959 7b3d
000003a0: 1531 66bd c779 56bd 9db3 823d 63ca b0bb
000003b0: cbe0 8cbd 7614 fabc 7533 803d 8241 9cbd
000003c0: dfd3 863d d81f 3c3d b066 c33d b70c 053d
000003d0: ee30 86bd 7d88 283b 5b7c e6bc 88e5 a73d
000003e0: 77c9 16bd 310c 903c 9fde aa3d 7b97 4ebc
000003f0: 5659 023c 02fc 253d 9f7f af3c 1a08 a3bd
0.0060361167 0.0114898905 -0.033888627 -0.036161847 -0.05846683 -0.03141871 0.034311265 0.06137002
0.04340613 -0.030487703 -0.036744267 0.0068946285 0.0385949 -0.0028758876 0.05126489 0.039700575
0.0041344343 0.018850313 -0.054696724 0.056287397 0.0019430458 -0.04637208 -0.007625135 -0.023997732
-0.03350811 -0.069194995 0.0019438813 0.0013157133 0.02428406 -0.0069259824 -0.024117041 0.06868017
-0.05813118 -0.008554507 -0.03505534 -0.033944614 0.04702994 0.05449735 -0.010058155 0.06986429
0.039720744 -0.069826014 -0.008752747 0.060832947 -0.07014731 -0.0041049127 -0.07726693 -0.005909169
-0.029032335 -0.010010602 0.07647988 0.06014526 0.0023537267 0.08702403 -0.05454998 0.0032268306
0.0033932107 -0.024868898 -0.042730685 0.025653115 -0.026441839 -0.029103654 0.013391576 0.045124922
-0.013367637 -0.07738722 0.002600485 -0.024290627 -0.037418477 -0.0055418275 0.0474992 0.058552485
-0.06363702 0.04234847 0.03645143 0.08558668 -0.051215578 0.041079603 0.068523 -0.010128129
0.045604892 0.085463144 -0.08322536 0.057124253 -0.0650112 -0.01863826 -0.059438314 0.045456823
0.009956006 -0.075096056 0.0033418324 -0.044370417 -0.015608523 -0.07397735 0.0063976888 0.038035385
-0.019229233 -0.030749219 -0.06814368 0.06287408 -0.01628628 0.036664527 -0.062161487 0.02837044
0.057438843 0.0007506021 0.07373097 0.052422978 -0.0125893615 -0.043159537 0.0014032177 0.06787216
0.053070568 -0.067968376 0.059009098 0.011506941 -0.06317899 0.079143964 0.0728579 -0.04400164
0.0037415838 -0.06708445 0.019179301 -0.043998852 -0.060674176 0.078270264 0.05586208 -0.027652359
-0.005718549 -0.065332964 -0.078018226 0.039972953 0.015705721 0.016888723 -0.009039853 -0.06320005
-0.050256893 -0.004780313 0.07275583 -0.059126377 -0.07143992 0.05306184 -0.048983328 -0.07819528
-0.06265646 -0.05043546 0.028863708 -0.042900115 -0.07419999 0.01833924 0.045825623 -0.008737232
0.041428614 0.06051463 -0.033460114 0.038809244 0.069072984 0.076960005 0.086818114 0.035724424
0.0042411094 0.061084937 0.048038688 0.03721308 -0.049163874 0.05341563 -0.05612242 -0.047292292
0.053360123 0.018975332 0.074766845 -0.00916969 0.0035707438 -0.048412446 0.045714233 0.019679923
-0.077958696 -0.068411924 0.017873304 -0.048922606 -0.010110086 -0.04553575 -0.0057391645 -0.06080425
-0.018439729 0.043947253 -0.04284019 -0.022919908 -0.073811196 0.0071642585 0.07000923 0.04704968
0.040867552 0.040069424 -2.3527311e-05 0.041698698 0.04957566 0.08549543 0.005257703 0.0015227316
0.03161654 0.074599534 -0.03288945 0.0011472255 0.030043518 0.0892074 0.06136653 0.004198485
-0.063074626 0.014826679 0.030292835 -0.08602508 0.067265026 0.03404448 -0.074512765 0.06966088
-0.078182995 0.012307527 0.042586427 0.011541242 -0.04688461 0.07141485 -0.07866087 0.006093058
-0.07951203 -0.021316273 0.08082556 0.0037615122 -0.07210765 0.076524764 -0.049807463 0.061364386
-0.056199152 -0.05236223 0.06381915 -0.00539522 -0.06878813 -0.030527335 0.06259815 -0.07629682
0.0658338 0.045928806 0.095410705 0.03248283 -0.06552301 0.002571612 -0.02813547 0.081980765
-0.036813226 0.017583938 0.08343243 -0.012609358 0.00795587 0.040523537 0.02142316 -0.079605296

lstm.weight_hh_l0 f4 [512, 128]
00000000: 319e 58bd c31a 52bd 11a5 e93b 587a cebc
00000010: c9cb 11bd f598 4c3d 2d06 043d 321f 01ba
00000020: d61b f7b9 9fe8 46bc ecff f8b9 1dcb ec3c
00000030: a861 ee3c 8c18 6d3d 1867 2638 15ff 253d
00000040: 0739 843d a299 98bd 759a 4abd c543 e9bc
00000050: 9404 e9bc 2b87 67bb f82a 8f3d 1818 7abc
00000060: e7af 123d dc24 e93c e3e3 c23c d521 833d
00000070: d180 133d 815e 19bd fcbe 1e39 1ffd 4f3d
00000080: 540b 773d d2dd a53c 95b9 843d 166a 003d
00000090: acd3 203c 2550 053b b335 873d 0ff1 a13b
000000a0: 1b31 4b3c e8eb 5cbd 1e53 9cbc 0f6d b1b9
000000b0: 28ee f1bc 6909 883c 949a 7e3c b3bf b73a
000000c0: 44e1 95bd b21e d83b f5d4 ac3c 191c 023d
000000d0: 7a0c 63bd 65b8 fd3c 6264 aebc f7cc 473d
000000e0: 13df 923d df38 233d a55c f43c ef80 383d
000000f0: 4f93 b0bc e237 5dbd 87f8 8dbd f840 7b3a
00000100: ce94 23bd b705 8fbd 1f96 ff3c 0768 d63c
00000110: 13ed 8a3b d2c3 0abb 1bcf b6ba bc0c b73a
00000120: 5581 8b3c d308 63bd b9a1 983d bfe0 bcba
00000130: b422 233d 77ef d13b 9475 d5bc 38d0 e8bc
00000140: f13f 8a3d 8390 d33c d05a 9cbd 6801 6abd
00000150: 89d7 58bc 9fbf 4fbc 9815 61bc cbbd a03c
00000160: a950 5ebd 3a2c 00bd 7015 1ebd 262a 16bd
00000170: c4a4 9bbd 7173 86bc 3a9b c93c bb5f fcbc
00000180: 32a3 6eb9 0720 7e3d cef9 56bc 3335 6bbd
00000190: 83cf 433c eefb ecbc 68d0 923d 39eb 633d
000001a0: c540 cab9 d3fe 99bd 3263 393d 4067 203d
000001b0: c3bc 4fbd 9052 743c 56f6 113a 5dfc 9abd
000001c0: 8b8e 10bd 4ba6 23ba a5bf 49bd f299 1ab9
000001d0: c57d 7fb9 b604 d23b 2e1b aebc 0b69 9cbb
000001e0: f63c 823c c845 613d d115 513d 7b45 9b3d
000001f0: f56e c33c 83c5 a3bc b40d 483d 2fdc d03c
00000200: 7bb2 30bb a0b5 4d3d 6efd 9dbd 916f 9abd
00000210: e54c 3d3d fc8d 29ba c668 50bd 5ae8 7bbb
00000220: 9ce4 dbbc ce16 a3bb b58d 9c3c ee8a 933b
00000230: 0693 fd3b 246e ae3b 836c 77bd 0e54 333d
00000240: 49d2 30bd b74d 8ebd 34d1 72bc 48a0 a43b
00000250: f963 11bd 8bb7 87bd 40e4 a83a ae47 3e3d
00000260: feba 823d 3b98 9b3a f9d8 9bba bd6c 4e3d
00000270: 593a 49bd 4469 78bd 01ed 7cba 16d2 39bd
00000280: ad1c 743c 08d9 a53a a869 9e3d 72da 85bd
00000290: 0565 413d f7a9 84bc a6d5 debc 5a67 963d
000002a0: 7dac 7ebd 220b 95bd ce80 69bc 9126 193d
000002b0: d168 763d e61e 513d 69e1 de3c 411d 14bd
000002c0: 91b0 1d3d 6e1e 41bd 3a34 173d 6a30 8bbc
000002d0: 732c 623d 9bbd 63bc cd27 3b3d 2fd3 963d
000002e0: 7d73 203c db51 39bb 1cfa 753d a876 ddbc
000002f0: a4cf 97bb 4aa7 cabb e90a 81bd 04c2 8e3d
00000300: 0665 1a3d 938d 983d 8df7 26bd 1a23 953d
00000310: a046 7c3d ba36 873d 72fc 15bd f180 94bd
00000320: d07e debc 9fc4 603c ccb4 ae3c 5312 36bd
00000330: c3e4 2a3d e2cc 13bd e110 5fbd f0ed ddb8
00000340: 1851 aabc 0d10 aa3a b6a8 cb3b d528 b83b
00000350: 8c2b 38bd 336a 1e3d 51ea 48bd 9b5e c4ba
00000360: 674d 18bd 3420 b23c f0c2 893c 9089 4abd
00000370: 216a 993c 73ab a7bc 0519 d6bc d69d 79bd
00000380: fed9 ce3c ea06 9d3d 83a0 35b9 9c57 5b3c
00000390: 1ec5 303d 338a 5a3d 9256 cebc 2a15 6dbd
000003a0: df18 5a3d c39f 443d 2b9c fd3c 2280 cebc
000003b0: b4fe 973b e31e 3bbd 1d4b 23bd 53af 6b3d
000003c0: 328f 58bd db57 95bd 17c9 2abd 6af2 50bd
000003d0: e998 0a3d a50c 933d f9d7 e03c ffb5 b53c
000003e0: a707 5ebd b4a3 193c 2b41 983d 5690 c63b
000003f0: 33a3 8c3d eaf0 973d b67a 213d 2165 b8bc
-0.052885238 -0.051295053 0.007130273 -0.025204822 -0.035594735 0.04995056 0.032232452 -0.0004925608
-0.0004713225 -0.012140422 -0.00047492923 0.028905446 0.0290993 0.057884738 3.9673498e-05 0.04052647
0.064561896 -0.07451178 -0.049463708 -0.028474698 -0.028444566 -0.003532837 0.069906175 -0.015264533
0.035812285 0.028459959 0.023790305 0.06402937 0.03601152 -0.03744364 0.00015139201 0.050778504
0.060313538 0.020247374 0.064807095 0.03135117 0.0098160915 0.002034196 0.06602039 0.0049420665
0.012401844 -0.053935915 -0.019082602 -0.00033841326 -0.029532507 0.01660605 0.015539784 0.0014018923
-0.07318357 0.006595456 0.02109764 0.031765077 -0.05543182 0.030971715 -0.0212881 0.048779454
0.07171454 0.03984916 0.029829333 0.045044836 -0.021554617 -0.054008372 -0.069321685 0.0009584571
-0.039936833 -0.06983512 0.031199513 0.026172651 0.004239687 -0.0021173847 -0.001394722 0.0013965587
0.017029444 -0.055428337 0.07452721 -0.0014410241 0.039828017 0.0064067203 -0.026057042 -0.028419599
0.06750477 0.025825744 -0.076345086 -0.057130247 -0.013234981 -0.012679963 -0.0137380585 0.01962175
-0.054276142 -0.031292178 -0.038594663 -0.03666129 -0.07599786 -0.016412469 0.02461015 -0.030807367
-0.00022758244 0.062042262 -0.0131210815 -0.05742378 0.01195133 -0.028928723 0.071686566 0.055644248
-0.000385767 -0.07519307 0.045260616 0.039160967 -0.050717127 0.014912263 0.0005568018 -0.07567666
-0.03529219 -0.0006242736 -0.049255032 -0.00014743934 -0.00024365548 0.006409253 -0.021253195 -0.0047732643
0.015898209 0.05499819 0.051046196 0.07581612 0.02385662 -0.019991642 0.048841193 0.025495617
-0.0026961851 0.05022204 -0.077143535 -0.07540811 0.04621591 -0.00064679957 -0.05088117 -0.0038438053
-0.026842408 -0.0049770838 0.01911054 0.0045026457 0.007738474 0.0053231884 -0.06040622 0.043781333
-0.043169294 -0.06948417 -0.014820386 0.00502399 -0.035495732 -0.06626805 0.0012885407 0.046455078
0.06383322 0.001187093 -0.0011890224 0.05039667 -0.04912791 -0.060647264 -0.00096483534 -0.04536637
0.014899415 0.0012653181 0.07734996 -0.06535806 0.04721548 -0.016194327 -0.027201485 0.073439315
-0.062176216 -0.07277514 -0.014251901 0.037390295 0.060158554 0.051054858 0.027207093 -0.03616071
0.038498465 -0.04714816 0.03691504 -0.016990859 0.05521817 -0.013900186 0.045692254 0.07364499
0.00979316 -0.002827755 0.060052976 -0.027034119 -0.004632907 -0.006184493 -0.06300909 0.06970599
0.037694 0.07448878 -0.040763427 0.07282086 0.06159079 0.06602235 -0.036617704 -0.07251156
-0.027160078 0.013718753 0.021326445 -0.04445107 0.04172207 -0.036084063 -0.054459456 -0.000105824205
-0.020790622 0.0012974754 0.0062151803 0.005620102 -0.044963405 0.0386755 -0.049051587 -0.0014981808
-0.03718319 0.021743871 0.016816586 -0.049447596 0.018727364 -0.020467496 -0.026134977 -0.06094154
0.025250431 0.076673344 -0.000173213 0.013387587 0.043156736 0.053354453 -0.025187764 -0.05788151
0.053246375 0.048003923 0.030958256 -0.025207583 0.0046385173 -0.045683753 -0.039866555 0.05754025
-0.052870937 -0.07292148 -0.04169568 -0.051012434 0.033837233 0.07180146 0.027446734 0.022181509
-0.054206517 0.009377409 0.07434305 0.0060596867 0.06867065 0.074189976 0.039423667 -0.02250916

lstm.bias_ih_l0 f4 [512]
00000000: d1d5 873c cd51 99bd cc45 eb3a 8eb0 6c3d
00000010: 304b 8fbd d288 973d 8ea5 9c3d efef 89bd
00000020: 5e83 93bd 8662 8abd 36e3 c63c 6f49 84bb
00000030: b9c3 77bd 7d53 98bd ceeb 5e3d 5dfb aa3d
00000040: b7c0 db3b 00cc d8bc e207 95bc b09a ffbc
00000050: 9127 3a3d 4955 a53c 7068 c7bc 4515 ffbc
00000060: 215a a5bd 6985 8a3d 1504 7a3c 313d fa3a
00000070: 4cf9 1ebd 7715 a0bd fa2a c2bc 4fe7 eabc
00000080: cd09 ad3d f52f 903c 8b8d 0d3c 5378 393d
00000090: 730f 963d 1cd9 dd3a 692b 95bd 047f ac3d
000000a0: 4b67 f5bc e885 a23c 0bda 81bd 31a5 8d3d
000000b0: 976c 42bd a643 963c aa07 c2bd b882 adbc
000000c0: 7385 a3bd df78 62bd bc63 403c 645c 903d
000000d0: 81cd 60bd 4806 05bc de77 973d b803 d33c
000000e0: 6f31 0fbc 7397 063b d1b5 42bd 2b5e 71bd
000000f0: a2c0 7f3d 0173 853d c078 3fbc 2652 c83c
00000100: b4a9 ec3c 3926 88bd 9e6d a0bc 644a 64bd
00000110: 81d5 783c a86f 37bd e8d6 1a3d 11cc 83bc
00000120: c5b3 6a3c d34e ddbc b95d dabc 8ed4 28bd
00000130: f727 033d ffce 173c 3a60 8c3d 46a6 89bd
00000140: dead b23b eccc 9b3b ce7f e139 8f0c 22bd
00000150: 5027 a9bc 0bc5 8c3c 45e7 babb 849c 513c
00000160: d98d 903d ec78 7e3d 330b 97bd 38cb 173c
00000170: e5ef 21bd 2487 4d3d 14d4 8abc 7f2e 1c3d
00000180: cd46 be3c b440 d7bc 457e d0bc c7fc 34bc
00000190: 31d6 7e3d 174d 2e3d 126f 243d ef33 023d
000001a0: 04c8 71bd 3c8f 51bd c4ab a83d 726f 4b3d
000001b0: 1028 413d 316c 3d3d 23d0 fa3c 28ac 5f3d
000001c0: 509e 85bd 6445 a53d e302 47bd 77dc 983d
000001d0: a386 9a3d e041 83bc a79a 80bd 2df8 2a3d
000001e0: 4bed 193d 6374 7e3d f883 00bd ab33 7abd
000001f0: e5b7 a33d 6ef9 a7bd ba97 4e3d 43fe c7bb
00000200: 08ae 7f3d b183 5f3d 5332 223d 785c 51bd
00000210: d987 2f3d 37d2 953c 251f 33bc 0ed5 acba
00000220: 6bfe 95ba 0ee3 433d 66fe 13bd b4b4 c6bb
00000230: 9391 293d 94ad b8bc 80d7 f2bb c227 573a
00000240: 76ca 81ba 4e38 593c 18e4 fcbc 5223 923d
00000250: 60aa 95bd 2c7a 96bd 3b01 9dbd c928 893d
00000260: 5360 38bd dbad 3e3d 17ae 18bd 418e 3ebc
00000270: 7c51 9ebd df0e 94bd 0282 a6bc 3340 723d
00000280: c889 2d3c acee 7d3d 64c0 0fbd 9f51 c23c
00000290: c9ae ef3b ee85 35bc 787b 3abd 9d66 edbc
000002a0: f21b 003a 7e8e e4bc 0b60 8d3d f8fd 55bd
000002b0: ff28 203d 40ef bf3c eb83 703d 0389 0b3d
000002c0: 7e52 363b 9563 8fbc 7a90 fb3b 6334 2fbc
000002d0: 6fa6 883d 59bc 123d 2247 50bd 7816 02bd
000002e0: 8457 24bb 70bd 16ba 27d7 2e3b c6a1 0bba
000002f0: 389c 4f3d a682 a5ba 23d0 65bd 3fe1 8b3d
00000300: fe7a 00b8 9668 4abd a50f 883c 65c5 3c3d
00000310: a713 3e3d e041 39bd 1b5b 81bd 3332 c8bc
00000320: 4368 11bc 8d06 8339 5455 733b 5853 983d
00000330: 6f71 673d 799c 8dbd 7cb7 4b3c 6f72 ad3b
00000340: 92a2 ae3b 3ea6 413c d677 853d a692 d93b
00000350: ffdd 7fbc 8098 c9b9 57e2 c8bc 6e88 afba
00000360: bf1e e03c 40c3 43bd eaa9 08bc f4f2 29bd
00000370: 63a0 5a3d bf60 5fbc 21f8 99bd 9c05 7fbd
00000380: dead 4f3a 02bd 443b 56f0 66bc 55d7 e2bc
00000390: ce93 14bd cd39 273d 5425 a439 41c3 963d
000003a0: df01 0bbd 8732 4dbd dcb4 55bd 3640 56bd
000003b0: 498b 46bd 5177 683d a84d 0f3d c1a8 53bd
000003c0: a090 543b 6ba0 49bd 7775 b7bb 0ef6 4cbd
000003d0: 62d8 babc 5ebf 00b9 b18b 77bd 9c2f 0a3d
000003e0: 8b81 3ebd 3da8 d6bb 0252 853a 4898 be3c
000003f0: f458 253d c38c 23bd 03b2 343c 4e88 11bc
0.016581448 -0.074863054 0.0017949878 0.057785563 -0.06996763 0.07399143 0.076487646 -0.06735217
-0.07202791 -0.06757073 0.024278264 -0.0040370743 -0.06048939 -0.07437799 0.0544241 0.08348725
0.006706323 -0.026464462 -0.018192235 -0.03120169 0.04544789 0.020182269 -0.024341792 -0.031138072
-0.08073831 0.06763727 0.015259762 0.0019091723 -0.038811967 -0.07816594 -0.023702133 -0.02867475
0.08449135 0.017600993 0.0086397035 0.045280766 0.073271655 0.0016925666 -0.072836705 0.08422664
-0.02995648 0.019839242 -0.063404165 0.069162734 -0.04746684 0.018342804 -0.09474118 -0.021180496
-0.07984438 -0.055291053 0.0117425285 0.07048872 -0.054883484 -0.008119173 0.0739591 0.02575861
-0.008739813 0.0020537048 -0.047536675 -0.058927696 0.06243957 0.06516076 -0.011686504 0.024453234
0.028889515 -0.066479154 -0.01958352 -0.055735007 0.015187622 -0.044784218 0.037802607 -0.016088517
0.014325087 -0.027015125 -0.026656019 -0.041218333 0.032020535 0.00926566 0.06854291 -0.06721167
0.0054528555 0.004754653 0.00043010566 -0.039562758 -0.020648628 0.017183801 -0.005703839 0.012793664
0.07058305 0.06212704 -0.07375183 0.00926476 -0.039535422 0.05017771 -0.01694683 0.03813028
0.02322712 -0.02627597 -0.025450835 -0.011046595 0.062215988 0.042553987 0.040144987 0.03178781
-0.05902864 -0.05116199 0.08235887 0.04966683 0.047157347 0.046245757 0.030616825 0.05460754
-0.06524336 0.08069876 -0.048586737 0.07463925 0.07545211 -0.016022623 -0.062794976 0.041740585
0.037579816 0.062122714 -0.031375855 -0.06108443 0.079940595 -0.08201872 0.050437666 -0.0061033084
0.06242183 0.05456895 0.039598774 -0.051113576 0.042854164 0.018288715 -0.010932718 -0.0013186054
-0.001144362 0.047823958 -0.036131285 -0.006064022 0.041398596 -0.022543706 -0.0074109435 0.00082075235
-0.0009902257 0.013258053 -0.030870482 0.07135643 -0.07307887 -0.07347521 -0.0766625 0.06697232
-0.045013737 0.04655252 -0.0372754 -0.011630596 -0.07730386 -0.07229399 -0.020325664 0.059143256
0.010591932 0.061995193 -0.035095587 0.02372056 0.007314537 -0.011079295 -0.045527905 -0.028979594
0.00048869767 -0.027899977 0.06903084 -0.052244157 0.039101597 0.023429513 0.058719557 0.03406621
0.0027820165 -0.01750354 0.007677135 -0.010693642 0.0667237 0.035824154 -0.050849088 -0.03175971
-0.0025076577 -0.0005750274 0.0026678534 -0.00053265353 0.05068609 -0.0012627437 -0.056106698 0.06830072
-3.0632124e-05 -0.049416147 0.016609022 0.046086688 0.04640546 -0.04522884 -0.06316205 -0.024438
-0.008874956 0.00024991148 0.0037129717 0.074377716 0.056504663 -0.069146104 0.012433883 0.0052931826
0.0053294385 0.01181942 0.065169975 0.0066397963 -0.015616893 -0.0003845133 -0.02452199 -0.00133921
0.02735841 -0.047793627 -0.008341292 -0.041491464 0.053375613 -0.013633906 -0.0751803 -0.06226121
0.00079223316 0.0030019884 -0.0140953865 -0.027690569 -0.03627377 0.040826607 0.0003130833 0.073614605
-0.03393733 -0.050097015 -0.052174434 -0.05230733 -0.048472676 0.056754414 0.03498617 -0.05167461
0.0032434836 -0.049225252 -0.0055987197 -0.050039344 -0.022808257 -0.00012278321 -0.060435954 0.03373681
-0.04651026 -0.0065508173 0.0010171535 0.023265973 0.040368035 -0.039929163 0.011028769 -0.008882595

lstm.bias_hh_l0 f4 [512]
00000000: bc77 6c3d 0a86 9bbd a450 593d d3dd 9fbc
00000010: 1434 91bc 2cf1 2b3c 1357 0c3c 85fa 8f3d
00000020: 768d af3a 6912 0f3d 62f7 193d b702 a5bb
00000030: a974 70bd d35f 0f3d 9d26 af3d 4fb7 923d
00000040: d3e4 16bd 065b 433d f861 b0bd 3583 953c
00000050: f724 f83c 00aa 9a3c af02 623c a34e 87bd
00000060: 1758 6ebc f97f debb e880 9c3d bb56 8abb
00000070: 514b 9cbd d2a7 123d 9d77 53bc d6fa 3ebd
00000080: cfab 14bd bc01 5cbd efb4 52bd a92b ef3c
00000090: 7320 193c 5a5e 883d 657f ae3d 8b26 a73d
000000a0: b53c b63a 6c07 dabc ef93 2f3c 63fa 3f3d
000000b0: 5e61 993d 3ced a4bd 66bc bc3c ae1c 323d
000000c0: 3543 46bc 8b13 4abc b3ef 2ebd 2902 6e3c
000000d0: 3e5d 74bb 3217 d6bc c476 26bd 3214 8ebc
000000e0: 5248 a7bc 894b 04bd 3c19 eabc 44d1 e93c
000000f0: e41f 85bd 5f3d b03c fcc1 ab3d bb34 b1bc
00000100: 2d4c 7a3b e0d6 f1bb 245f ad3d 0a35 85bd
00000110: 7511 b1bd def4 96bd 85eb a33d 2788 58bc
00000120: 3ae2 823b 77d0 72bd 05d3 5b3b aef4 0fbd
00000130: 08b4 babc d471 e93c 7aab 81bd 9f53 12bd
00000140: 3f7d 71bd d9a1 113d cd1e 10bd fce7 8d3c
00000150: ac06 8bbd 4f34 03bd 39c4 a0bc 7473 c2bc
00000160: 2c9d 5dbb d448 363d ce04 3d3c c0ce 973c
00000170: a039 81bd e678 963d 0340 0e3c 5138 5dbd
00000180: a363 02bd b437 843d 6d49 a13d ab61 8ebd
00000190: be42 beba f532 0f3d 2de7 d1bc 0fee 3ebd
000001a0: 5b27 a1bc 78fb 6fbd cbb3 8f3d cf44 933d
000001b0: c688 03bd 3e9a 783d 030d 6d3c acb5 b33c
000001c0: bc97 87bd 6195 a3bc 1ff6 573d 973f a53c
000001d0: 89bb ba3d bfc7 b23d 58f5 65bd 1383 2ebb
000001e0: 119f 64bd 0fd1 fabc 4e00 22bd d27a acbc
000001f0: 78c3 053d d422 8fbd a4f5 9fbd b95c 9f3d
00000200: 4ae1 a7bc 9fca 7ebd 8d5d a73b 4c8d 9b3c
00000210: 2a9b e63c 8c4c 7d39 c752 9bbd 351b 50bd
00000220: e9aa b3bc e152 99bd 975c 47bc 146a 933d
00000230: 552c f2bc 010d 54bd 3e9f 7bbd 2bc0 d8bc
00000240: 9b20 833c 994c 9dbd 0a3f c3bc b011 823c
00000250: dcc5 70bd 6c55 aebc dc9d 2fbd ab60 583d
00000260: cedd c1bc 6c6f 8cbd f537 61bb 5716 1c3d
00000270: 8e90 893d 90d9 c7bc bba1 223d 6da6 74bd
00000280: 45d9 99bd 2b21 46bd 7e6f 7e3c a394 75bd
00000290: 26c8 41bd c474 c5bc 70bb 0fba 9562 1abd
000002a0: 5231 5b3d 265c f73b 5c97 283c 7f24 8dbc
000002b0: 9684 84bb cb90 583d c99d 193d 880c 1b3d
000002c0: 293b 03bd 5a87 60bc 6210 79bd afa9 2ebd
000002d0: 288d 823d 3135 9dbd b453 8fbc fb47 683d
000002e0: 46a4 813c 322a 89bd f919 9dba c4bf 99bd
000002f0: 7e07 3f3d fce6 fb39 b1fc 4fbd a505 b6ba
00000300: 9749 80bc bacf 2fbd 12d9 dbb9 71db 01bb
00000310: d898 343c aef7 903d c08c 933c 28d4 6f3d
00000320: 7f0e 183d 7484 96bc 2011 9d3d 6e45 82bc
00000330: 3610 8c3a f6a2 40bd 9bb0 6bbc c627 053d
00000340: 8402 763d 6d92 973c d3f8 3dbd 3d63 a13a
00000350: 9598 a739 4065 9b3d 48d1 e0bc 13a1 983d
00000360: 4f8a 8a3d d809 92b9 3a6d 473d 30a7 773d
00000370: 2056 663d cfa0 963d 0775 73bc e06e 11bd
00000380: f86d 49bd cb28 833d 6179 8f3d ad77 77b9
00000390: e526 8d3d 5f4a 063d fdfa b13c 6a4d 633c
000003a0: ef1c ff3c d0a3 613d 1ee4 3cbd 02b7 ef39
000003b0: 56b7 3a3c b49e 5a3d 4789 1abd bcd5 98bd
000003c0: ff08 34bd ad3c 0bbd f08d 3dbd d64a 7e3c
000003d0: 01ab 9e3c 6cdc acb8 33b2 453d e46b 7f3d
000003e0: b864 9f3c b7e5 913c b096 3fba c616 94bd
000003f0: f99a a73c 4316 653d 1355 6f3d b09e 9eba
0.057731375 -0.07593925 0.05305542 -0.019514954 -0.017725028 0.010494512 0.008565682 0.07030205
0.0013393599 0.034929667 0.03758944 -0.005035724 -0.058705006 0.035003494 0.08552287 0.071638696
-0.036839318 0.04769423 -0.08612436 0.018251041 0.030291064 0.01887989 0.013794585 -0.06606796
-0.014547369 -0.006790158 0.076417744 -0.004221765 -0.07631553 0.035804577 -0.012906936 -0.046625935
-0.036296662 -0.05371259 -0.051442083 0.029195623 0.009346115 0.06658621 0.08520392 0.08161648
0.001390359 -0.026614867 0.010716422 0.046869647 0.074892744 -0.08053061 0.023039054 0.043484382
-0.012100984 -0.012333761 -0.042709064 0.014526882 -0.0037287022 -0.026134107 -0.040640607 -0.017343614
-0.020420227 -0.0322986 -0.028576486 0.028542168 -0.06500223 0.021513639 0.08386609 -0.02163159
0.0038192377 -0.0073803514 0.08465412 -0.06504257 -0.08645908 -0.073709235 0.08003906 -0.013216055
0.0039942535 -0.05928084 0.0033542525 -0.035145454 -0.022790924 0.02849666 -0.06331535 -0.03572428
-0.058957335 0.03555474 -0.035185624 0.017322533 -0.06788382 -0.032032307 -0.019624816 -0.023736693
-0.0033815606 0.044503048 0.01153679 0.018531203 -0.06309819 0.07347278 0.008682254 -0.054008786
-0.031833302 0.06455937 0.07875333 -0.069522224 -0.001451574 0.034960706 -0.025622929 -0.04661375
-0.019672086 -0.05858943 0.07016715 0.071908586 -0.03211286 0.06069397 0.014468434 0.021937214
-0.06620738 -0.01996869 0.052724954 0.020171924 0.09117801 0.08729505 -0.05614218 -0.002662842
-0.05581576 -0.030617265 -0.03955107 -0.021054659 0.032657117 -0.06989065 -0.07810524 0.07781357
-0.020493168 -0.062204953 0.0051075877 0.018988274 0.02815016 0.00024156476 -0.07584148 -0.050807197
-0.021932082 -0.07486511 -0.012168071 0.07197967 -0.029562155 -0.051770214 -0.061431162 -0.02645882
0.016006758 -0.076806255 -0.02383377 0.015877575 -0.058782443 -0.021280967 -0.042875156 0.052826565
-0.023665335 -0.068571895 -0.0034365628 0.038107242 0.06717025 -0.024395734 0.03970502 -0.05972903
-0.07512144 -0.048371475 0.0155295115 -0.059956204 -0.047310017 -0.02410353 -0.00054829475 -0.03769167
0.053513832 0.0075488267 0.010289993 -0.017229317 -0.004044126 0.05287246 0.03750399 0.037853748
-0.03203884 -0.013704145 -0.06080664 -0.04264229 0.0637458 -0.07676161 -0.017495967 0.05670927
0.015825402 -0.06697501 -0.001198589 -0.075072795 0.046638004 0.00048046547 -0.050778095 -0.001388718
-0.01566009 -0.042922713 -0.00041932665 -0.0019814635 0.011022769 0.07078491 0.01801145 0.058551937
0.0371232 -0.018373705 0.07669282 -0.015902247 0.0010685984 -0.04703041 -0.014385368 0.032508634
0.060060993 0.018502438 -0.046379875 0.00123129 0.00031966405 0.07587671 -0.027443543 0.074525975
0.067646615 -0.00027854624 0.04868815 0.060462177 0.05623448 0.073548906 -0.014859444 -0.03550613
-0.04917714 0.06404265 0.07005573 -0.00023600338 0.06892184 0.03278577 0.021726126 0.013873437
0.031141726 0.055087864 -0.046115987 0.00045721984 0.01139625 0.053374007 -0.037728574 -0.074626416
-0.04395389 -0.03399341 -0.04627794 0.015520772 0.01936865 -8.242656e-05 0.048265647 0.062358752
0.019457206 0.017809732 -0.0007308526 -0.07230906 0.020459639 0.055929434 0.058430742 -0.0012101736

fc.weight f4 [4, 128]
00000000: c6c5 883d abbf 873d ae8f 5dbd b4b5 273d
00000010: e6b3 99bd c1b6 1bbc 6cfa 853d d431 a7bc
00000020: 635c 21bc d477 89bd 1f27 06bd 52bd 8b3d
00000030: a1d3 6cbd ddab 6dbd 3e0d 06bd ad87 65bd
00000040: 8d2f b8bd b42c ed3c b90b 83bd 3cfe 043c
00000050: 6d72 a6bd b614 463c 05ed e0bc b7af 9dbb
00000060: 4207 73bd a62f c03d 5461 b13d 9a41 dcbc
00000070: e615 7bbc ebee e23c b1db 8fba 5d76 7bbb
00000080: 6847 9e3d d288 9b3c c304 7e3d 4265 2e3d
00000090: ef62 ddbb 3fdf 34bd 177a 0e3d 8615 ad3d
000000a0: ecdf cabb 6a3c 3e3c 1a31 813d a93e 803d
000000b0: e679 bdbd c5bf 4fbd 14f8 47bc 7450 23bd
000000c0: da9c a1bd 2ae9 b1bd 9378 7cbd cfc7 f13c
000000d0: 1a95 b43d 0754 973d 12aa 943d 0512 8f3c
000000e0: a653 3d3d 709c 353c 9b84 24bd 9b95 53bd
000000f0: 66f2 92bc 3c1e 32bd 2221 883b e381 e3bc
00000100: 39a7 9f3d 388c a93c 969a a5bc 30ac 6b3d
00000110: b6b0 9d3c 85dd 203d 25b2 9abd 8a49 94bd
00000120: 3d6c 813d b5e6 a6bc 77d7 9bbd aa90 b43c
00000130: 9945 803c d862 3abd 273f 94bd 8f47 62bc
00000140: 7adc b1bd 4a34 8ebc 2e18 c33c 43a9 c1bc
00000150: 1fdf 53bd fbd6 eabc 96fd 5e3d 7958 96bd
00000160: e8b8 283d 0f62 98bb 73cb 863d 59f6 193b
00000170: 2d5e 32bd 2332 a3bd 3c04 a8bd e26c 7a3d
00000180: f6fb 6cbd 3ad7 433d 38f3 b93d f03f 24bd
00000190: b91d 6bbd 7ec5 53bd a282 853d 624a aabc
000001a0: 09bc 93bc 6c65 0c3d 92e8 053d b3fb b43c
000001b0: 3eb3 18bd 4c02 b1bc 1bad b0bd a45b 97bd
000001c0: 19fb 9abd 55d3 0bbd a082 013d a619 a13d
000001d0: fe22 21bc 0b6e b93d 2123 2abc 21d3 953c
000001e0: e371 3a3d 6911 00bd e5da 93bc d5ad ae3d
000001f0: 4330 423d 8ca8 1f3d 438e acbd df91 b43c
00000200: 4146 59bd 11a5 943c 4cf8 3bbb 869f 0ebc
00000210: ede1 2f3d 0882 02ba a909 59bd 28c7 0c3d
00000220: 8bba 953d 9c1d 2bbc 8884 dfbb 17ac 773d
00000230: 0fe4 1abd 4870 1f3d 6225 a3bc 3079 ecbc
00000240: 7d53 91bd 5748 973d 16ed 1bbd e227 ad3d
00000250: af38 cf3c 8505 2fbd 282c 5a3d baf3 543d
00000260: 13db a8bd a82d 68bc 487e 33bc 6677 68bd
00000270: b235 773a a106 c53b f8ce 143d 415f f0ba
00000280: f7f9 b2bd acd4 62bd 0bd2 a13d 82e6 2f3d
00000290: ffbf 54bd fd55 99bd 4289 94bd 77d1 aa3d
000002a0: 84b3 51bd 197c c63b 2cfc 93bd b2ab 97bd
000002b0: 5111 bb3b ec34 d03c d967 22bd 97f8 c6bc
000002c0: ec12 68bd 73a7 5dbd 7637 89bc bca2 0bbd
000002d0: 2ff3 143b b37f 9abd 9c7d b23c e66a 8d3c
000002e0: 3f44 963d a64f 46bd 9764 ae3d e7dc 253d
000002f0: 43d0 273d c74a 1ebc 89b4 2f3d cc3d 763b
00000300: 82a4 ffbc b76c a9bd 72c2 bc3d 5e97 4dbd
00000310: 3a40 81bc 4108 9ebd 4f12 863d ee62 eebc
00000320: 775e 55bd 73ee 8bbd 9941 103d 6162 dc3c
00000330: 9fdf c03c 3cc4 95bd 83d2 0dbd 5682 973d
00000340: 2e30 73bd d7cc 5ebd e160 32bd b781 6c3d
00000350: 5428 28bd 3c0e 8bbd ea08 0c3d fcdc a83d
00000360: e88a 013d b0b4 353d a7a6 07bd c77f 3fbd
00000370: 891a 48bd 83ae d8bc 105e a9bd 6115 89bd
00000380: 5c1a a73c 1c63 aebd 6aa1 0c3c a585 113d
00000390: 63f7 243d cfda afbc 4419 45bd 805b c83d
000003a0: 348b a6bc 0241 48bd f5d8 9dbc 0abf 0b3d
000003b0: 4a0e fa3c 29d0 9ebd a569 033d ec3c 06bc
000003c0: 1342 63bd 129d 603d 0568 633c c5ee 96bc
000003d0: 7db1 7c3d ef0e b93c 2b45 073d 686f ac3b
000003e0: 232a 113d 3d51 3f3d f8c4 fb3c 0d38 71bd
000003f0: 0bde 8d3d d16d e0bb abdf 9abd ff47 00bb
0.06678347 0.06628355 -0.0540921 0.04094477 -0.07505016 -0.009504021 0.06541905 -0.020409502
-0.009848687 -0.067123085 -0.032752153 0.06823219 -0.057819013 -0.05802523 -0.032727472 -0.056037594
-0.089934446 0.02895198 -0.0639872 0.008117255 -0.08127294 0.012089899 -0.02745677 -0.0048122066
-0.059333093 0.09384088 0.08661142 -0.02688675 -0.015325045 0.027701816 -0.0010975507 -0.003837011
0.077284634 0.01898614 0.06201626 0.042577036 -0.0067561786 -0.044158217 0.034784403 0.08451371
-0.0061912443 0.0116110835 0.063081935 0.062619515 -0.09251766 -0.050719995 -0.0122051425 -0.039871648
-0.07891245 -0.08687051 -0.061638426 0.029514221 0.08817501 0.07389074 0.07259001 0.017464647
0.04622235 0.011084661 -0.040165525 -0.051656347 -0.01793785 -0.043485865 0.0041543404 -0.027771896
0.07795567 0.020696744 -0.020215314 0.057537258 0.019249301 0.039273757 -0.075535096 -0.07240589
0.06319473 -0.020373682 -0.07609456 0.022041637 0.015658187 -0.04550442 -0.07238608 -0.013811006
-0.08684631 -0.017358918 0.02381524 -0.02364028 -0.051726457 -0.028666964 0.054441057 -0.073410936
0.041191965 -0.0046503614 0.065817736 0.0023492782 -0.043546844 -0.07968547 -0.08203933 0.061138995
-0.057857476 0.047812678 0.090795934 -0.040100038 -0.057401393 -0.051702015 0.06519057 -0.020787422
-0.018033998 0.03427641 0.0326925 0.022092676 -0.037280314 -0.02160754 -0.08626767 -0.07390526
-0.07567424 -0.03413709 0.031618714 0.0786622 -0.009835003 0.09054192 -0.010384352 0.01828915
0.045518767 -0.031266604 -0.018048713 0.085292496 0.047409307 0.0389791 -0.08425572 0.022042213
-0.053045515 0.018145116 -0.0028681932 -0.008705026 0.04294007 -0.00049784826 -0.05298773 0.034369618
0.07310971 -0.010444071 -0.006821219 0.060466852 -0.03781515 0.03892544 -0.019915286 -0.02886638
-0.07096002 0.073868446 -0.0380679 0.08454873 0.025295584 -0.042729873 0.053264767 0.05199025
-0.0824491 -0.014171042 -0.010955401 -0.056754492 0.00094303035 0.006012753 0.036330193 -0.0018338935
-0.08739083 -0.0553786 0.07901391 0.04294444 -0.051940914 -0.07487104 -0.07252742 0.083407335
-0.05119659 0.006057274 -0.07225832 -0.07405795 0.0057088514 0.02541586 -0.039649818 -0.024288459
-0.05665867 -0.05411477 -0.016750079 -0.034090742 0.0022727957 -0.07543888 0.02178841 0.017262887
0.07337236 -0.048415802 0.0851528 0.040493872 0.0409701 -0.009661383 0.04289678 0.0037573455
-0.031206373 -0.08272689 0.09216775 -0.050193183 -0.015777696 -0.07716418 0.06546461 -0.029099908
-0.05209204 -0.0683259 0.03521881 0.02690238 0.02354413 -0.07312819 -0.034624588 0.073979065
-0.05937212 -0.05439457 -0.043549422 0.057740893 -0.041054085 -0.06789824 0.03418819 0.082452744
0.031626612 0.04436177 -0.033117916 -0.046752717 -0.04885343 -0.026450401 -0.08269894 -0.06693531
0.020398311 -0.08514997 0.008583406 0.035527844 0.04027499 -0.02146664 -0.0481198 0.09783077
-0.02033005 -0.04889012 -0.019268492 0.034117736 0.030524392 -0.07754547 0.032083172 -0.008193236
-0.055482935 0.054837294 0.013879781 -0.018424401 0.061692704 0.022590129 0.033024948 0.005262304
0.035440575 0.046708334 0.03073357 -0.058891345 0.06927117 -0.0068490286 -0.075621925 -0.0019574163

fc.bias f4 [4]
00000000: 658b bc3c a149 a63d f274 383b fc41 c43c
0.023015687 0.08119512 0.0028145877 0.023957245
