input/lstm_model.pth (torch, 815034 bytes, 11 tensors)

recurrent.weight_ih_l0 f4 [512, 7]
0	0xbd04527c	-0.032305226
1	0x3d8c7a46	0.06859259
2	0xbdcc9245	-0.09988836
3	0x3d81dccd	0.063409425
4	0xbda3a399	-0.07990188
5	0xbd6b9b70	-0.057521284
6	0x3d0c1f3e	0.034209482
7	0x3d6a0868	0.057136923
8	0xbdcac74d	-0.09901295
9	0xbd27bd5e	-0.04095208
10	0x3d21d4db	0.039509635
11	0x3da69708	0.08134276
12	0xbdcaddbf	-0.09905576
13	0x3db4d523	0.08829715
14	0xbb898a59	-0.0041974005
15	0x3d2acb01	0.041697506
16	0xbdd8b614	-0.10581604
17	0x3d2711ed	0.04078858
18	0x3ce600b3	0.028076505
19	0x3b6f579b	0.0036520723
20	0x3da861ef	0.08221804
21	0xbc088e99	-0.008334779
22	0xbb2dc563	-0.0026515357
23	0xbd64c4d4	-0.055851772
24	0x3dc843db	0.097785674
25	0x3c6b6f33	0.014369774
26	0x3d032f3b	0.032027464
27	0x3cb1bfe8	0.021697953
28	0x3d9c7161	0.07638813
29	0xba91c88d	-0.0011122391
30	0xbd376f94	-0.044784144
31	0x3d04077d	0.032233704
32	0x3d5e45e2	0.054265864
33	0xbcbddcc2	-0.023176555
34	0x3dafd891	0.08586229
35	0xbb885445	-0.0041604363
36	0x3d9a81f0	0.07544315
37	0xbc405294	-0.011738438
38	0x3d0d9a82	0.03457118
39	0x3d2e3379	0.042529557
40	0xbdd8b3cf	-0.10581171
41	0xbdb19882	-0.08671667
42	0x3cbdc943	0.023167258
43	0xba3c0cf8	-0.00071735634
44	0x3cc40dbe	0.023932334
45	0xbd7b6b57	-0.061381664
46	0xbcf9893e	-0.03046095
47	0xbd4dc283	-0.05023433
48	0x3c8ed1c1	0.017434003
49	0x3dbdee57	0.09273975
50	0x3dca56dc	0.09879848
51	0xbd3ef5e5	-0.046621222
52	0xbd5a713e	-0.053330652
53	0xbda4e01a	-0.080505565
54	0xbcb7a1ac	-0.022415958
55	0xbd5da380	-0.054111004
56	0xbd7389ce	-0.059457593
57	0x3dd22465	0.10260848
58	0xbd8f5046	-0.06997733
59	0xbdc6eaf9	-0.09712786
60	0xbb94c7dd	-0.004540427
61	0xbda7e09c	-0.08197138
62	0x3cab7ea0	0.020934403
63	0xbdd100c1	-0.10205222
64	0xbdce64f7	-0.10077851
65	0xbd469aaa	-0.048487343
66	0x3da8ee23	0.08248546
67	0x3d283342	0.04106451
68	0xbda103df	-0.078620665
69	0xbc2463e5	-0.010033582
70	0x3b0a621a	0.0021115602
71	0xbd26c26e	-0.040712766
72	0x3d7ca22a	0.06167809
73	0x3db3590f	0.08757221
74	0x3bb5cdad	0.0055482
75	0xbcefdcfb	-0.029280176
76	0xbd542e0d	-0.05180173
77	0xbd90271c	-0.070387095
78	0x3d870a3b	0.06593748
79	0x3c944787	0.018100513
80	0x3dc14359	0.09436674
81	0x3d972a66	0.07381134
82	0xbd7938da	-0.060845234
83	0xbd9be155	-0.07611338
84	0x3cb633ce	0.0222415
85	0xbdda94d3	-0.10672917
86	0xbcc6e523	-0.024279183
87	0x3dae3af1	0.08507336
88	0x3d2c7088	0.042099506
89	0x3dc77db5	0.097407736
90	0xbd634a6e	-0.055490904
91	0x3dae1b07	0.08501249
92	0xbc992f40	-0.018699288
93	0x3dd1011f	0.10205292
94	0xbdcde822	-0.100540414
95	0x3cbaedfb	0.022818556
96	0xbdb963e6	-0.09052257
97	0x3cb41209	0.021981256
98	0x3c7894fb	0.015172238
99	0x3c7ed600	0.015553951
100	0xbd8778e9	-0.06614859
101	0xbd578352	-0.05261547
102	0x3d91ae67	0.07113343
103	0x3d805501	0.06266213
104	0xbcab6afb	-0.020925036
105	0xbd4e968d	-0.050436545
106	0x3c66ecde	0.0140945595
107	0xbd6bb1b4	-0.057542518
108	0x3da5a8c0	0.08088827
109	0x3d47f1dc	0.04881464
110	0xbda3158f	-0.07963096
111	0xbad0dcc6	-0.0015934936
112	0x3d7fe60a	0.06247524
113	0xbdc7b1b0	-0.09750688
114	0xbd899960	-0.06718707
115	0x3db7633a	0.08954473
116	0xbd5331bb	-0.0515611
117	0x3dd51a9e	0.104054675
118	0xbc46e669	-0.012139895
119	0xbd9a4ae4	-0.075338155
120	0x3da417c4	0.080123454
121	0x3d9a0ab6	0.07521574
122	0xbb08a1d9	-0.0020848422
123	0xbdb9a4d4	-0.090646416
124	0x3d595506	0.0530596
125	0xbd8ba7da	-0.068191245
126	0xbd6f0b47	-0.058360364
127	0x3bedee67	0.007261086
128	0x3d4068de	0.04697501
129	0x3dc702a0	0.097172976
130	0x3d1db488	0.038502246
131	0xbb92bf47	-0.0044783684
132	0xbda88929	-0.08229286
133	0xbccc7d5d	-0.024962122
134	0x3c60f1f3	0.01372956
135	0x3dafc741	0.085829265
136	0xbcc6f896	-0.024288457
137	0xbd2bec8f	-0.041973647
138	0x3da8bdd7	0.08239334
139	0x3c426e0a	0.011867056
140	0xbd9063dd	-0.070502974
141	0x3c817f2a	0.015807707
142	0xbcbe3103	-0.02321673
143	0x3db2bb40	0.08727121
144	0x3dc4ab82	0.09603025
145	0x3d1f3c34	0.038875774
146	0xbc90294d	-0.017597819
147	0x3d214ae2	0.039378054
148	0x3d98b938	0.07457203
149	0xbdd0e1a9	-0.10199291
150	0x3d7db8e5	0.061943907
151	0xbcee5aed	-0.029096091
152	0xbccddb8f	-0.025129108
153	0xbd14dc8a	-0.036343135
154	0x3d90999e	0.0706055
155	0x3db508d9	0.08839578
156	0x3cca8211	0.024720224
157	0x3cee69c4	0.029103167
158	0xbd3eae40	-0.046552896
159	0x3d98f913	0.07469382
160	0x3d562fd0	0.05229169
161	0x3dc57460	0.096413374
162	0x3d7aca4f	0.061228093
163	0x3d5c87ae	0.05384033
164	0xbcfd7234	-0.030938245
165	0x3d5cfd6e	0.053952627
166	0xbcc1a06a	-0.023636062
167	0xbb178130	-0.0023117773
168	0xbd030eb8	-0.03199646
169	0x3d2b7c86	0.0418668
170	0x3c85cdd0	0.01633349
171	0xbd61cf8c	-0.055129573
172	0x3d1c9dca	0.038236417
173	0xbdaf4bed	-0.085594036
174	0xbd15908b	-0.0365148
175	0x3cdc3003	0.026878363
176	0x3dd8a7e2	0.10578896
177	0xbc428b3a	-0.0118740145
178	0x3cdb71d9	0.026787685
179	0xbd79c428	-0.060978085
180	0xbdbc1600	-0.09183884
181	0x3d9561e6	0.07294063
182	0x3dc3ce14	0.09560791
183	0xbd376338	-0.044772357
184	0x3d5e3331	0.05424804
185	0xbc9148e6	-0.017734956
186	0x3cdf608f	0.027267722
187	0x3b1f6f4e	0.0024327817
188	0xbccd6f8a	-0.0250776
189	0x3cf75c78	0.03019546
190	0x3c4849d2	0.012224631
191	0xbdd1886c	-0.102310985
192	0xbc998abc	-0.018742912
193	0x3ca77ab0	0.020444244
194	0x3c7a32f6	0.015270939
195	0xbcddd7a0	-0.027080357
196	0x3c1ad727	0.00945071
197	0xbd89bb4c	-0.06725177
198	0x3d47df25	0.04879679
199	0xbdc44ba0	-0.09584737
200	0x3dae12fa	0.08499713
201	0x3c65f8c1	0.014036358
202	0x3dbe8c7b	0.09304138
203	0x3d6a9ffe	0.057281487
204	0xbd000ffa	-0.031265236
205	0x3d341537	0.043965545
206	0xbc1b7cb0	-0.009490177
207	0xbd83b35e	-0.06430696
208	0xbdd84ff7	-0.10562127
209	0x3c6db031	0.014507339
210	0x3bc3476c	0.005959442
211	0xbbd1d5ee	-0.0064036762
212	0x3dbfdf97	0.09368818
213	0xbcef122f	-0.029183475
214	0x3d4d4148	0.050111085
215	0x3dcc70a7	0.09982424
216	0xbdb7f965	-0.08983115
217	0x3d65fa64	0.056146994
218	0x3cbb6c41	0.022878768
219	0x3dabfa88	0.083973944
220	0x3d97e4a7	0.07416659
221	0x3d904f01	0.07046319
222	0xbd1146d7	-0.03546795
223	0xbdc713b0	-0.09720552
224	0x3ca959d9	0.020672726
225	0x3bdec4a2	0.006798343
226	0x3da993fc	0.08280179
227	0xbcce3320	-0.025170863
228	0x3bf05648	0.0073345043
229	0xbda435d5	-0.0801808
230	0xbdb9359b	-0.090434276
231	0xbd5a0cd1	-0.05323488
232	0x3d47eeb8	0.048811644
233	0x3d48022a	0.04883019
234	0xbdbe0bc8	-0.09279591
235	0xbd35058d	-0.044194747
236	0xbd9d69d3	-0.076862
237	0x3c59b927	0.013288773
238	0x3b09e8af	0.0021043231
239	0xbd4ef37c	-0.050525174
240	0xbd79f804	-0.06102754
241	0xbd01f121	-0.0317241
242	0x3d8caa83	0.0686846
243	0x3c5b730e	0.01339413
244	0x3cec523b	0.028847804
245	0x3db6964f	0.08915388
246	0xbdc4c4ba	-0.09607835
247	0xbd5dc3e1	-0.054141883
248	0xbc118d79	-0.008883827
249	0xbd959932	-0.0730461
250	0x3d7d10d1	0.061783615
251	0x3c383178	0.011242263
252	0xbce9a6bd	-0.02852189
253	0xbda1ef9d	-0.07907031
254	0x3db7913b	0.089632474
255	0xbdd719e9	-0.10502989

recurrent.weight_hh_l0 f4 [512, 128]
0	0x3d25695d	0.040383685
1	0x3da924c6	0.08258967
2	0x3c65d9b8	0.014028959
3	0xbd672644	-0.056432977
4	0x3d0130ea	0.03154079
5	0xbd838438	-0.06421703
6	0xbd778578	-0.06043002
7	0x3d92b1eb	0.071628414
8	0x3db57e8c	0.088620275
9	0x3cbca5c6	0.023028266
10	0xbda032dd	-0.078222014
11	0x3da82803	0.08210757
12	0x3d65d84d	0.056114484
13	0x3b918e2c	0.004441997
14	0xbd8e75e3	-0.06956079
15	0xbd8723f3	-0.06598654
16	0x3ca84061	0.02053851
17	0x3c69e93b	0.014276798
18	0x3dc0e0dd	0.09417889
19	0xbda524d2	-0.080636635
20	0x3d30038d	0.042972136
21	0xbda41619	-0.08012027
22	0xbae2368d	-0.0017258689
23	0xbd38f66f	-0.045156892
24	0x3d997c27	0.07494383
25	0xbd8748f2	-0.0660571
26	0x3dbeddeb	0.09319671
27	0xbd9c420b	-0.07629784
28	0xb9faedbe	-0.00047860848
29	0x3d603086	0.054733776
30	0x3d09a675	0.03360601
31	0xbdb7480f	-0.08949291
32	0xbd2c99e3	-0.042138945
33	0x3c18636b	0.009301047
34	0xbda86b1c	-0.082235545
35	0x3c0ab43d	0.008465824
36	0xbd386b50	-0.045024216
37	0xbc95b71a	-0.018275786
38	0x3a84c682	0.0010129961
39	0xbc57f755	-0.013181527
40	0xbd52db73	-0.051478814
41	0x3c0b8f5b	0.008518065
42	0x3d8c3c71	0.06847466
43	0xbd2140f0	-0.03936857
44	0xbbc6973e	-0.00606051
45	0xbb599f2e	-0.003320645
46	0xbd983944	-0.074327976
47	0x3c02d1d1	0.007984594
48	0xbd9a6a80	-0.075398445
49	0xbb318e97	-0.0027093047
50	0xbd455af8	-0.048182458
51	0x3d3a0d98	0.04542312
52	0x3d98ca35	0.07460443
53	0x3dc4ab11	0.09602941
54	0x3c303004	0.010753635
55	0x3d17f9b3	0.037103366
56	0x3c71be07	0.014754779
57	0xbc9c1d19	-0.019056844
58	0xbd991afb	-0.07475849
59	0x3d8f8330	0.07007444
60	0xbcfc9cad	-0.030836428
61	0xbdc47a70	-0.095936656
62	0x3cae03a7	0.021241976
63	0xbd5ceaf7	-0.053935017
64	0xbd2598ce	-0.04042893
65	0xbcc481a8	-0.023987606
66	0xbc361c0e	-0.011115087
67	0xbd1ce5d1	-0.038305108
68	0x3c70d3b8	0.014698915
69	0xbd397d7c	-0.045285687
70	0xbd3e9a15	-0.046533663
71	0x3cb598a9	0.02216752
72	0x3dbb5c22	0.09148432
73	0x3c942a9e	0.018086728
74	0xbb1b50e1	-0.002369933
75	0xbc4cfe78	-0.012511842
76	0x3d9227b3	0.07136478
77	0x3d56f703	0.052481662
78	0xbd43102f	-0.047622856
79	0xbd5802e2	-0.052737124
80	0x3da49395	0.080359615
81	0xbd31e903	-0.043435108
82	0x3d1cbeac	0.038267776
83	0xbdbb8773	-0.09156694
84	0x3d1bd7f3	0.038047742
85	0xbdb29272	-0.087193385
86	0x3c9e36e5	0.019313285
87	0x3dafd9fd	0.085865
88	0x3db2107e	0.08694552
89	0x3c929e42	0.017897729
90	0x3d846f4b	0.0646654
91	0x3cf4f2ae	0.029900875
92	0xbce1afa1	-0.027549567
93	0xbcc5b9d8	-0.024136469
94	0x3d6b29ea	0.05741302
95	0x3d94313d	0.07235954
96	0xbd0b5550	-0.034016907
97	0xbdb6c869	-0.08924944
98	0x3d06157a	0.032735325
99	0x3dc42c90	0.09578812
100	0x3d97cbc8	0.07411915
101	0x388380ed	6.270581e-05
102	0xbaabf282	-0.0013118538
103	0xbdc1a031	-0.09454382
104	0x3c7d044b	0.015442918
105	0xbd9bbf06	-0.07604794
106	0xbc3c5194	-0.011494059
107	0x3bd4a28d	0.006489104
108	0xbdb9f50a	-0.090799406
109	0x3d0b071a	0.03394232
110	0xbdb5bfff	-0.08874511
111	0xbd70d277	-0.058794465
112	0xbdbb2f17	-0.09139841
113	0xbd01c8e9	-0.031685743
114	0x3dc08551	0.09400428
115	0x3cce2ad4	0.025166906
116	0x3da8fbe7	0.082511716
117	0xbc05ff5f	-0.008178561
118	0x3a5ca1b8	0.0008416432
119	0x3bd22c51	0.0064139743
120	0xbcbfe425	-0.023424217
121	0x3da74813	0.08168044
122	0x3d6bc88d	0.057564307
123	0xbd93a33e	-0.0720887
124	0x3d11d924	0.035607472
125	0x3d01ac3e	0.031658404
126	0xbcf91eb3	-0.030410146
127	0xbc84a680	-0.016192675
128	0xbd0ba01d	-0.034088243
129	0x3bbc0741	0.0057381694
130	0x3cd0273f	0.025409339
131	0xbd0f63da	-0.035007335
132	0x3ce9fa17	0.028561635
133	0x3bf16fd8	0.007368069
134	0x3dbc69a7	0.09199839
135	0xbd43c3ae	-0.047794037
136	0xbd88001d	-0.066406466
137	0xbc8ed6a7	-0.017436339
138	0xbc113927	-0.008863724
139	0xbd66a5e0	-0.056310534
140	0xbd0e9f32	-0.03481979
141	0xbda55e10	-0.080745816
142	0xbd8dfb4e	-0.06932698
143	0xbc6fb1b4	-0.01462977
144	0xbd00e429	-0.03146759
145	0x3db74142	0.08947994
146	0x3b09d4f5	0.0021031473
147	0xbbd70e5e	-0.006562992
148	0xbd9f672f	-0.077833526
149	0xbd08e2be	-0.033419363
150	0x3d395da9	0.045255337
151	0x3c5c30fa	0.013439411
152	0x3d0e993a	0.034814097
153	0x3cffb69a	0.031215
154	0x3d132664	0.035925284
155	0xba8804a5	-0.0010377361
156	0x3c9b2e8f	0.0189431
157	0x3da506dc	0.08057949
158	0xbccfa117	-0.025345368
159	0x3d498217	0.04919633
160	0x3c5ad343	0.013356033
161	0xbdbd5127	-0.09243994
162	0xbc894185	-0.016754875
163	0xbd83b577	-0.06431096
164	0x3da214a0	0.0791409
165	0xbb37e4a8	-0.0028059874
166	0xbda6749e	-0.08127712
167	0xbd3a248e	-0.045445018
168	0xbc7959c9	-0.01521916
169	0xbdc08d1d	-0.09401915
170	0x3d8be4cf	0.06830751
171	0x3d8ffd4c	0.070307344
172	0xbc12bcf2	-0.008956181
173	0xbb83e3de	-0.0040249666
174	0x3d0ef6f1	0.03490347
175	0x3cc1d63b	0.023661723
176	0x3d720c32	0.05909366
177	0x3d16f207	0.03685191
178	0xbccce833	-0.025013065
179	0x3d9807c7	0.074233584
180	0x3dbcadde	0.0921285
181	0xbdbfe286	-0.09369378
182	0xbbe92616	-0.007115136
183	0x3ce3f464	0.027826495
184	0xbc8b24e4	-0.016985364
185	0xbbf98f8b	-0.0076159886
186	0x3db387ef	0.08766162
187	0xbd553a42	-0.052057512
188	0x3d911530	0.07084119
189	0xbca5a341	-0.020219447
190	0x3d92551f	0.07145142
191	0x3c578048	0.013153143
192	0xbdacdaa4	-0.0844014
193	0x3d898c00	0.06716156
194	0xb7ac2a7a	-2.0523777e-05
195	0xbd0e4322	-0.03473199
196	0xbd83cc77	-0.06435483
197	0x3d2fe440	0.042942286
198	0x3b1a7e82	0.002357394
199	0x3b992b12	0.004674324
200	0xbd93a2d1	-0.07208789
201	0x3ce83820	0.028347075
202	0xbd86e0e9	-0.06585867
203	0xbd8ead17	-0.06966608
204	0xbc70bfa5	-0.014694129
205	0xbb54847e	-0.0032427604
206	0x3dae391e	0.08506988
207	0x3c9a95ff	0.018870352
208	0xbd7f075a	-0.06226287
209	0xbac5bc99	-0.0015086114
210	0xbcb532d4	-0.022118963
211	0x3d0e8edf	0.03480422
212	0xbd94a6e9	-0.07258398
213	0x3cd7a483	0.026323562
214	0xbd441889	-0.04787496
215	0xbd1d2d4d	-0.03837328
216	0x3d53bc78	0.05169341
217	0xbd9d70f4	-0.0768756
218	0xbdbb2fed	-0.091400005
219	0x3b8ade06	0.004237893
220	0xbdb35b88	-0.087576926
221	0xbd9eeed5	-0.07760397
222	0x3da23b18	0.079214275
223	0x3cb7e27e	0.022446867
224	0xbda04ceb	-0.07827171
225	0x3d43e405	0.04782488
226	0x3d068981	0.032845978
227	0x3dacc7e3	0.08436563
228	0xbd447413	-0.04796226
229	0x3cdb2c81	0.02675462
230	0x3dac9a0b	0.08427819
231	0x3d3ce1dc	0.046113834
232	0xbd2f1598	-0.042745203
233	0xbd0fd6dc	-0.035117015
234	0xbd91d625	-0.07120923
235	0x3c923e30	0.017851919
236	0xbdc38d94	-0.09548488
237	0xbd4b1bb9	-0.049586985
238	0xbd969a1a	-0.07353611
239	0xbdc2affc	-0.095062226
240	0xbdbd7534	-0.0925087
241	0xbd69a1c2	-0.05703903
242	0xbd92e832	-0.07173194
243	0xbb85eee1	-0.0040873145
244	0xbd600a98	-0.054697603
245	0x3d3517f3	0.044212293
246	0xbd95e6a6	-0.07319383
247	0xbda2cf5c	-0.07949707
248	0xbd994152	-0.07483162
249	0xbbfce2cb	-0.0077174655
250	0xbd8e9922	-0.069628015
251	0xbdb5979c	-0.08866808
252	0x3cf085f8	0.029360756
253	0x3da972f9	0.082738824
254	0xbd396bc9	-0.045268808
255	0x3d7fc3e2	0.062442668

recurrent.bias_ih_l0 f4 [512]
0	0xb931bcd3	-0.00016950378
1	0x3a130a58	0.00056091463
2	0x3a18b920	0.00058259256
3	0xba162b0c	-0.00057284604
4	0xba1230d9	-0.0005576737
5	0x3a12b606	0.00055965816
6	0xb92ff4f9	-0.0001678056
7	0xba1a4fb8	-0.0005886513
8	0x38ccc0af	9.763368e-05
9	0xba0820e7	-0.0005192891
10	0x3a14d1f2	0.0005677036
11	0x3a0e86f3	0.0005436979
12	0xb85c17da	-5.24743e-05
13	0x3a148fb2	0.0005667164
14	0xba17299d	-0.0005766394
15	0xba09f169	-0.0005262108
16	0x3a133bb0	0.0005616499
17	0x39dbdf3b	0.00041937255
18	0xba1ac451	-0.0005903887
19	0x3a0b71a5	0.00053193636
20	0xba01f134	-0.00049569015
21	0xba011cd7	-0.0004925257
22	0x3a1cab64	0.0005976467
23	0xba1a2844	-0.0005880634
24	0x3a133ebb	0.00056169525
25	0xba0b811a	-0.0005321667
26	0x3a131e49	0.0005612118
27	0xba148666	-0.0005665779
28	0xba19719e	-0.0005853417
29	0x3a18758a	0.00058158545
30	0x3905c234	0.00012756215
31	0x385bfdd5	5.245007e-05
32	0x3a1c7c8e	0.0005969488
33	0xb99b3087	-0.0002960006
34	0xba01b448	-0.00049478235
35	0x3a1bcab1	0.0005942984
36	0x394e4514	0.00019671425
37	0xba1c59ee	-0.00059643283
38	0x38d52ce8	0.00010164996
39	0xb9a56516	-0.00031546567
40	0xb9f93378	-0.00047531328
41	0x3a128989	0.00055899523
42	0xba066fb4	-0.00051283394
43	0x3a0ff08a	0.000549086
44	0xba1433c7	-0.00056534674
45	0x399f64ad	0.00030401853
46	0xba03be44	-0.0005025605
47	0x3a1d68c9	0.0006004689
48	0x3a1c1b4d	0.0005954996
49	0x3948b566	0.00019141063
50	0xba1b3368	-0.0005920441
51	0xba0d1dde	-0.00053831737
52	0xb9c9fc33	-0.0003852561
53	0xba137fb1	-0.00056266325
54	0x389972e0	7.317006e-05
55	0xba157fab	-0.0005702923
56	0x3a1c0828	0.0005952143
57	0x39809bec	0.00024530233
58	0xba17b7d5	-0.0005787586
59	0x3a1a3277	0.00058821536
60	0x39ec049b	0.0004501686
61	0x3a09e307	0.0005259965
62	0x39fee4df	0.00048617178
63	0xba1bb990	-0.0005940432
64	0x3a0902d0	0.00052265543
65	0xba1a449e	-0.00058848585
66	0xb9fe2e23	-0.0004848103
67	0xba0dca2b	-0.00054088485
68	0xb8b8a764	-8.804983e-05
69	0xb9ccd0eb	-0.00039065568
70	0x39114786	0.00013854922
71	0xba18999f	-0.0005821231
72	0xba189c20	-0.0005821604
73	0xba10a99e	-0.0005518439
74	0xb9f871cf	-0.0004738704
75	0xba1a1d37	-0.0005878987
76	0x3a12ca7f	0.0005599632
77	0x3a087464	0.0005205332
78	0xba12a252	-0.00055936456
79	0xba191a4b	-0.0005840405
80	0x3a0ec2d4	0.0005445902
81	0x3a1b44cb	0.0005923032
82	0xba0c572d	-0.00053535664
83	0xba124ca3	-0.0005580878
84	0xb9523b12	-0.00020049166
85	0xba17619c	-0.0005774738
86	0x39db8fc6	0.00041878055
87	0xba0cf93c	-0.0005377715
88	0xba1c8c86	-0.00059718674
89	0xba124cd1	-0.00055809045
90	0xba088eb2	-0.00052092515
91	0xba019c12	-0.0004944216
92	0xb892eb55	-7.0056565e-05
93	0xb9da5565	-0.00041643824
94	0x3a110f39	0.00055335794
95	0x3a159bbb	0.00057071046
96	0xba0b3476	-0.00053102465
97	0xba0fc012	-0.0005483638
98	0x3a1b3fd8	0.0005922294
99	0xb9c2e817	-0.00037175484
100	0x3a16618d	0.0005736582
101	0xb92f01e0	-0.00016689999
102	0x39f4afd2	0.00046670303
103	0x3a0e7775	0.00054346706
104	0xba0db969	-0.00054063514
105	0xb9f127e9	-0.00045996837
106	0x3a0f5389	0.0005467465
107	0x39e4089f	0.00043493972
108	0x39d7b567	0.0004114315
109	0xba101005	-0.0005495551
110	0x3a133e22	0.00056168635
111	0xb92bad90	-0.00016372488
112	0x3a17bfcb	0.0005788772
113	0xba16089d	-0.00057233294
114	0x3a15115c	0.00056864857
115	0xba090cb6	-0.00052280293
116	0xba1c9261	-0.000597274
117	0xba1be3db	-0.0005946734
118	0x3a17d82e	0.0005792406
119	0x3a18fcc2	0.00058360037
120	0x3a182db8	0.00058051525
121	0xba0c9a56	-0.0005363574
122	0x39079c9f	0.00012932949
123	0xba14d167	-0.00056769553
124	0xb9f11130	-0.00045979908
125	0xba04a789	-0.0005060365
126	0x3a0b0173	0.0005302645
127	0xb79e0f03	-1.8842058e-05
128	0xb819f6ff	-3.6708076e-05
129	0x3a0fe06e	0.000548846
130	0x3a1a0cd7	0.0005876547
131	0xba139b81	-0.0005630777
132	0xb9ef9629	-0.0004569751
133	0x3a0c84ab	0.0005360345
134	0x399ca392	0.00029876508
135	0x3a1701f5	0.00057604845
136	0x38c236c0	9.260839e-05
137	0xb9d068ed	-0.00039751027
138	0x3a1276d9	0.00055871677
139	0xb9739262	-0.00023228818
140	0x39c16698	0.00036888267
141	0x3a14fa7a	0.0005683076
142	0xba1473a3	-0.0005662983
143	0xb93243fc	-0.00017000729
144	0x3a0ea487	0.00054413866
145	0x39e4b27a	0.00043620524
146	0xba1b872d	-0.00059329235
147	0x3a077a4a	0.0005168064
148	0xb9fa8002	-0.0004777909
149	0x3a098ff4	0.0005247586
150	0x3a1b830e	0.00059323094
151	0xba180337	-0.0005798819
152	0x3a119b56	0.0005554458
153	0xba05b269	-0.00051001325
154	0x3a14e985	0.0005680549
155	0xba0df447	-0.00054151233
156	0xb7d4e884	-2.5380643e-05
157	0x3a184b74	0.0005809583
158	0xb9bdeb9c	-0.00036224432
159	0x3a1bb334	0.0005939484
160	0x3a1a691b	0.0005890296
161	0xba143cdb	-0.000565482
162	0xb9733f4c	-0.00023197866
163	0x3a1a3dbf	0.00058838347
164	0xba10722e	-0.0005510178
165	0xba1bf695	-0.00059495243
166	0x39e6ac8d	0.0004399758
167	0xb96a7afb	-0.00022361793
168	0xb98f0f37	-0.0002728642
169	0x3a0e1291	0.0005419637
170	0xba03c2c9	-0.00050262787
171	0x3a0f362d	0.000546309
172	0x39f1eda7	0.00046144167
173	0x399cbbe4	0.00029894628
174	0xb9a5f107	-0.00031650832
175	0x3a1d2138	0.00059940247
176	0x3a1ad2e4	0.0005906059
177	0x3941c907	0.00018480803
178	0xba1a4278	-0.00058845384
179	0xb9f15b09	-0.00046034929
180	0xb77b719a	-1.4987216e-05
181	0xba0bf393	-0.00053387246
182	0xb9ef1fb5	-0.00045609256
183	0xba15e7ff	-0.0005718469
184	0x3a1a36f1	0.00058828207
185	0x3941b49f	0.00018473201
186	0xba16594e	-0.00057353533
187	0x3a19c048	0.0005865139
188	0xb89c37b2	-7.449034e-05
189	0x3a11b17b	0.00055577577
190	0x39f00f87	0.00045787936
191	0xba1a5fd0	-0.0005888911
192	0x3a05b657	0.0005100718
193	0xba19ab8f	-0.0005862051
194	0xb98353e7	-0.0002504878
195	0x39a9df4a	0.00032400555
196	0xb89bff96	-7.4385825e-05
197	0xb9af6860	-0.00033456367
198	0xb9ae42bc	-0.00033237587
199	0xba1939e4	-0.0005845113
200	0xba15d3e8	-0.00057154754
201	0xba1a9d11	-0.00058980385
202	0xb9f2b25a	-0.0004629072
203	0xba0e51cf	-0.00054290605
204	0x3a04db7c	0.0005068106
205	0x39a9c1ce	0.00032378588
206	0xba0ddbd5	-0.00054114807
207	0xba167a56	-0.00057402754
208	0x3a0d5fa9	0.00053929776
209	0x3a1ba59c	0.00059374585
210	0xba0cd4c5	-0.00053722813
211	0xba0a3e92	-0.0005273606
212	0x37324ca5	1.0627472e-05
213	0xba19e22f	-0.0005870191
214	0x3912d8d3	0.00014004418
215	0xba07af33	-0.0005175948
216	0xba1bd352	-0.000594427
217	0xba049a7c	-0.00050584204
218	0xba07768c	-0.0005167506
219	0xb994da8b	-0.00028391587
220	0x363492de	2.6907578e-06
221	0xb9b94afa	-0.00035341812
222	0x3a0c640d	0.0005355485
223	0x3a09b4ae	0.00052530586
224	0x38102004	3.4362092e-05
225	0xba00b08f	-0.0004909122
226	0x3a1700c9	0.000576031
227	0xb9c22a1c	-0.00037033937
228	0x3a0c25e8	0.00053462246
229	0x3954005c	0.0002021803
230	0x39e424b8	0.00043514906
231	0x3a196b21	0.000585245
232	0xb96dc68a	-0.00022676043
233	0xb9739f7e	-0.00023233701
234	0x3a0e9137	0.0005438509
235	0x39e50aba	0.00043686276
236	0x3a1b8276	0.0005932221
237	0xb99be503	-0.0002973453
238	0x3a110f37	0.0005533578
239	0xb9afbe04	-0.00033520174
240	0x3a176700	0.0005775541
241	0xba14d457	-0.0005677393
242	0x3a0eb9bc	0.00054445467
243	0xb9fe8486	-0.00048545393
244	0xba1be95d	-0.00059475546
245	0xba1bfb38	-0.0005950215
246	0x3a15de2f	0.0005717007
247	0x3a18675e	0.0005813743
248	0x3a188973	0.00058188214
249	0xba0f9c9c	-0.00054783537
250	0xb855e973	-5.1000574e-05
251	0xba140400	-0.0005646348
252	0xb7aad4e7	-2.036472e-05
253	0xb943aa1b	-0.00018660018
254	0x3a00d824	0.000491502
255	0xb75b42a4	-1.3068933e-05

recurrent.bias_hh_l0 f4 [512]
0	0xb931bcd3	-0.00016950378
1	0x3a130a58	0.00056091463
2	0x3a18b920	0.00058259256
3	0xba162b0c	-0.00057284604
4	0xba1230d9	-0.0005576737
5	0x3a12b606	0.00055965816
6	0xb92ff4f9	-0.0001678056
7	0xba1a4fb8	-0.0005886513
8	0x38ccc0af	9.763368e-05
9	0xba0820e7	-0.0005192891
10	0x3a14d1f2	0.0005677036
11	0x3a0e86f3	0.0005436979
12	0xb85c17da	-5.24743e-05
13	0x3a148fb2	0.0005667164
14	0xba17299d	-0.0005766394
15	0xba09f169	-0.0005262108
16	0x3a133bb0	0.0005616499
17	0x39dbdf3b	0.00041937255
18	0xba1ac451	-0.0005903887
19	0x3a0b71a5	0.00053193636
20	0xba01f134	-0.00049569015
21	0xba011cd7	-0.0004925257
22	0x3a1cab64	0.0005976467
23	0xba1a2844	-0.0005880634
24	0x3a133ebb	0.00056169525
25	0xba0b811a	-0.0005321667
26	0x3a131e49	0.0005612118
27	0xba148666	-0.0005665779
28	0xba19719e	-0.0005853417
29	0x3a18758a	0.00058158545
30	0x3905c234	0.00012756215
31	0x385bfdd5	5.245007e-05
32	0x3a1c7c8e	0.0005969488
33	0xb99b3087	-0.0002960006
34	0xba01b448	-0.00049478235
35	0x3a1bcab1	0.0005942984
36	0x394e4514	0.00019671425
37	0xba1c59ee	-0.00059643283
38	0x38d52ce8	0.00010164996
39	0xb9a56516	-0.00031546567
40	0xb9f93378	-0.00047531328
41	0x3a128989	0.00055899523
42	0xba066fb4	-0.00051283394
43	0x3a0ff08a	0.000549086
44	0xba1433c7	-0.00056534674
45	0x399f64ad	0.00030401853
46	0xba03be44	-0.0005025605
47	0x3a1d68c9	0.0006004689
48	0x3a1c1b4d	0.0005954996
49	0x3948b566	0.00019141063
50	0xba1b3368	-0.0005920441
51	0xba0d1dde	-0.00053831737
52	0xb9c9fc33	-0.0003852561
53	0xba137fb1	-0.00056266325
54	0x389972e0	7.317006e-05
55	0xba157fab	-0.0005702923
56	0x3a1c0828	0.0005952143
57	0x39809bec	0.00024530233
58	0xba17b7d5	-0.0005787586
59	0x3a1a3277	0.00058821536
60	0x39ec049b	0.0004501686
61	0x3a09e307	0.0005259965
62	0x39fee4df	0.00048617178
63	0xba1bb990	-0.0005940432
64	0x3a0902d0	0.00052265543
65	0xba1a449e	-0.00058848585
66	0xb9fe2e23	-0.0004848103
67	0xba0dca2b	-0.00054088485
68	0xb8b8a764	-8.804983e-05
69	0xb9ccd0eb	-0.00039065568
70	0x39114786	0.00013854922
71	0xba18999f	-0.0005821231
72	0xba189c20	-0.0005821604
73	0xba10a99e	-0.0005518439
74	0xb9f871cf	-0.0004738704
75	0xba1a1d37	-0.0005878987
76	0x3a12ca7f	0.0005599632
77	0x3a087464	0.0005205332
78	0xba12a252	-0.00055936456
79	0xba191a4b	-0.0005840405
80	0x3a0ec2d4	0.0005445902
81	0x3a1b44cb	0.0005923032
82	0xba0c572d	-0.00053535664
83	0xba124ca3	-0.0005580878
84	0xb9523b12	-0.00020049166
85	0xba17619c	-0.0005774738
86	0x39db8fc6	0.00041878055
87	0xba0cf93c	-0.0005377715
88	0xba1c8c86	-0.00059718674
89	0xba124cd1	-0.00055809045
90	0xba088eb2	-0.00052092515
91	0xba019c12	-0.0004944216
92	0xb892eb55	-7.0056565e-05
93	0xb9da5565	-0.00041643824
94	0x3a110f39	0.00055335794
95	0x3a159bbb	0.00057071046
96	0xba0b3476	-0.00053102465
97	0xba0fc012	-0.0005483638
98	0x3a1b3fd8	0.0005922294
99	0xb9c2e817	-0.00037175484
100	0x3a16618d	0.0005736582
101	0xb92f01e0	-0.00016689999
102	0x39f4afd2	0.00046670303
103	0x3a0e7775	0.00054346706
104	0xba0db969	-0.00054063514
105	0xb9f127e9	-0.00045996837
106	0x3a0f5389	0.0005467465
107	0x39e4089f	0.00043493972
108	0x39d7b567	0.0004114315
109	0xba101005	-0.0005495551
110	0x3a133e22	0.00056168635
111	0xb92bad90	-0.00016372488
112	0x3a17bfcb	0.0005788772
113	0xba16089d	-0.00057233294
114	0x3a15115c	0.00056864857
115	0xba090cb6	-0.00052280293
116	0xba1c9261	-0.000597274
117	0xba1be3db	-0.0005946734
118	0x3a17d82e	0.0005792406
119	0x3a18fcc2	0.00058360037
120	0x3a182db8	0.00058051525
121	0xba0c9a56	-0.0005363574
122	0x39079c9f	0.00012932949
123	0xba14d167	-0.00056769553
124	0xb9f11130	-0.00045979908
125	0xba04a789	-0.0005060365
126	0x3a0b0173	0.0005302645
127	0xb79e0f03	-1.8842058e-05
128	0xb819f6ff	-3.6708076e-05
129	0x3a0fe06e	0.000548846
130	0x3a1a0cd7	0.0005876547
131	0xba139b81	-0.0005630777
132	0xb9ef9629	-0.0004569751
133	0x3a0c84ab	0.0005360345
134	0x399ca392	0.00029876508
135	0x3a1701f5	0.00057604845
136	0x38c236c0	9.260839e-05
137	0xb9d068ed	-0.00039751027
138	0x3a1276d9	0.00055871677
139	0xb9739262	-0.00023228818
140	0x39c16698	0.00036888267
141	0x3a14fa7a	0.0005683076
142	0xba1473a3	-0.0005662983
143	0xb93243fc	-0.00017000729
144	0x3a0ea487	0.00054413866
145	0x39e4b27a	0.00043620524
146	0xba1b872d	-0.00059329235
147	0x3a077a4a	0.0005168064
148	0xb9fa8002	-0.0004777909
149	0x3a098ff4	0.0005247586
150	0x3a1b830e	0.00059323094
151	0xba180337	-0.0005798819
152	0x3a119b56	0.0005554458
153	0xba05b269	-0.00051001325
154	0x3a14e985	0.0005680549
155	0xba0df447	-0.00054151233
156	0xb7d4e884	-2.5380643e-05
157	0x3a184b74	0.0005809583
158	0xb9bdeb9c	-0.00036224432
159	0x3a1bb334	0.0005939484
160	0x3a1a691b	0.0005890296
161	0xba143cdb	-0.000565482
162	0xb9733f4c	-0.00023197866
163	0x3a1a3dbf	0.00058838347
164	0xba10722e	-0.0005510178
165	0xba1bf695	-0.00059495243
166	0x39e6ac8d	0.0004399758
167	0xb96a7afb	-0.00022361793
168	0xb98f0f37	-0.0002728642
169	0x3a0e1291	0.0005419637
170	0xba03c2c9	-0.00050262787
171	0x3a0f362d	0.000546309
172	0x39f1eda7	0.00046144167
173	0x399cbbe4	0.00029894628
174	0xb9a5f107	-0.00031650832
175	0x3a1d2138	0.00059940247
176	0x3a1ad2e4	0.0005906059
177	0x3941c907	0.00018480803
178	0xba1a4278	-0.00058845384
179	0xb9f15b09	-0.00046034929
180	0xb77b719a	-1.4987216e-05
181	0xba0bf393	-0.00053387246
182	0xb9ef1fb5	-0.00045609256
183	0xba15e7ff	-0.0005718469
184	0x3a1a36f1	0.00058828207
185	0x3941b49f	0.00018473201
186	0xba16594e	-0.00057353533
187	0x3a19c048	0.0005865139
188	0xb89c37b2	-7.449034e-05
189	0x3a11b17b	0.00055577577
190	0x39f00f87	0.00045787936
191	0xba1a5fd0	-0.0005888911
192	0x3a05b657	0.0005100718
193	0xba19ab8f	-0.0005862051
194	0xb98353e7	-0.0002504878
195	0x39a9df4a	0.00032400555
196	0xb89bff96	-7.4385825e-05
197	0xb9af6860	-0.00033456367
198	0xb9ae42bc	-0.00033237587
199	0xba1939e4	-0.0005845113
200	0xba15d3e8	-0.00057154754
201	0xba1a9d11	-0.00058980385
202	0xb9f2b25a	-0.0004629072
203	0xba0e51cf	-0.00054290605
204	0x3a04db7c	0.0005068106
205	0x39a9c1ce	0.00032378588
206	0xba0ddbd5	-0.00054114807
207	0xba167a56	-0.00057402754
208	0x3a0d5fa9	0.00053929776
209	0x3a1ba59c	0.00059374585
210	0xba0cd4c5	-0.00053722813
211	0xba0a3e92	-0.0005273606
212	0x37324ca5	1.0627472e-05
213	0xba19e22f	-0.0005870191
214	0x3912d8d3	0.00014004418
215	0xba07af33	-0.0005175948
216	0xba1bd352	-0.000594427
217	0xba049a7c	-0.00050584204
218	0xba07768c	-0.0005167506
219	0xb994da8b	-0.00028391587
220	0x363492de	2.6907578e-06
221	0xb9b94afa	-0.00035341812
222	0x3a0c640d	0.0005355485
223	0x3a09b4ae	0.00052530586
224	0x38102004	3.4362092e-05
225	0xba00b08f	-0.0004909122
226	0x3a1700c9	0.000576031
227	0xb9c22a1c	-0.00037033937
228	0x3a0c25e8	0.00053462246
229	0x3954005c	0.0002021803
230	0x39e424b8	0.00043514906
231	0x3a196b21	0.000585245
232	0xb96dc68a	-0.00022676043
233	0xb9739f7e	-0.00023233701
234	0x3a0e9137	0.0005438509
235	0x39e50aba	0.00043686276
236	0x3a1b8276	0.0005932221
237	0xb99be503	-0.0002973453
238	0x3a110f37	0.0005533578
239	0xb9afbe04	-0.00033520174
240	0x3a176700	0.0005775541
241	0xba14d457	-0.0005677393
242	0x3a0eb9bc	0.00054445467
243	0xb9fe8486	-0.00048545393
244	0xba1be95d	-0.00059475546
245	0xba1bfb38	-0.0005950215
246	0x3a15de2f	0.0005717007
247	0x3a18675e	0.0005813743
248	0x3a188973	0.00058188214
249	0xba0f9c9c	-0.00054783537
250	0xb855e973	-5.1000574e-05
251	0xba140400	-0.0005646348
252	0xb7aad4e7	-2.036472e-05
253	0xb943aa1b	-0.00018660018
254	0x3a00d824	0.000491502
255	0xb75b42a4	-1.3068933e-05

recurrent.weight_ih_l1 f4 [512, 128]
0	0x3d8986ce	0.06715165
1	0xbd91dfeb	-0.07122787
2	0x3b83a036	0.0040169014
3	0x3c66eda0	0.01409474
4	0x3d21b93e	0.0394833
5	0x3d478ef5	0.04872032
6	0xbd9d9261	-0.07693935
7	0x3b9ac4e8	0.00472318
8	0x3d8e9fd0	0.069640756
9	0xbd34309e	-0.043991677
10	0xbd43e317	-0.04782399
11	0x3d910bbd	0.07082317
12	0x3d66a9ad	0.05631416
13	0x3d715f8b	0.058929008
14	0x3d874117	0.06604212
15	0xbd4717d1	-0.048606697
16	0xbd806cdd	-0.06270764
17	0x3c369229	0.011143246
18	0x3d9af176	0.07565586
19	0xbd8c3831	-0.06846655
20	0x3cdd3cdf	0.027006565
21	0x3d18e0f2	0.0373239
22	0xbdad1731	-0.08451689
23	0x3d36d2a9	0.044634495
24	0xbccdccec	-0.025122128
25	0xbd04b8ea	-0.03240291
26	0xbb75ef00	-0.0037526488
27	0x3c160643	0.009156766
28	0x3d0e02ef	0.034670766
29	0xbc1dd441	-0.009633125
30	0xbd98e72e	-0.07465969
31	0x3c7dced8	0.01549121
32	0xbc2f50fd	-0.010700461
33	0x3da16420	0.078804255
34	0x3b7f8ba2	0.003899314
35	0x3d744a48	0.059641153
36	0x3dae702b	0.08517488
37	0x3d03f9af	0.03222054
38	0xbbb677b4	-0.005568469
39	0xbd08acad	-0.0333678
40	0xbd557b9f	-0.052119847
41	0x3d92c707	0.07166868
42	0x3d8c8b34	0.068624884
43	0x3c9b88d7	0.018986149
44	0xbd8c100c	-0.06838998
45	0x3d1f638f	0.038913306
46	0x3abd694f	0.001445094
47	0xbd732946	-0.059365533
48	0x3b751eba	0.0037402348
49	0x3d937caf	0.07201516
50	0x3d6533f5	0.055957753
51	0xbc24ee5b	-0.010066594
52	0x3d92d224	0.071689874
53	0xbd5527f6	-0.052040063
54	0x3b2f51e3	0.002675169
55	0xbd22ff19	-0.03979406
56	0xbdad6adb	-0.08467647
57	0xbd1d1b2c	-0.03835599
58	0x3c7d5c48	0.015463896
59	0xbd8b26d8	-0.06794518
60	0xbd4d4368	-0.05011311
61	0xbd0aa09a	-0.033844568
62	0xbd8f0c33	-0.06984749
63	0x3dc05cc4	0.09392694
64	0xbda8afd9	-0.08236665
65	0x3d7d1edd	0.06179701
66	0xbc3fb25d	-0.01170024
67	0x3dabc44b	0.08387049
68	0xbd68613b	-0.05673335
69	0x3b6f56fe	0.0036520357
70	0x3d6ccaf2	0.05781073
71	0xbda51894	-0.080613285
72	0xbc00fedc	-0.007873263
73	0xbc0c9115	-0.008579512
74	0xbba70d06	-0.005097988
75	0x3d1f8597	0.03894576
76	0x3b17837f	0.002311915
77	0x3b18ba2e	0.002330433
78	0xbd2ac1eb	-0.04168884
79	0x3d8f391d	0.06993315
80	0xbd11e598	-0.03561935
81	0x3da8a16a	0.08233912
82	0xbd5a58f7	-0.0533075
83	0xbcd0edd3	-0.025504028
84	0xbcd35648	-0.025797978
85	0x3d9c6e6f	0.07638251
86	0x3d7a417c	0.061097607
87	0x3db065ed	0.08613191
88	0x3d69faa5	0.0571238
89	0x3d258a2d	0.040414978
90	0xbd1b4df2	-0.03791613
91	0x3bbc8386	0.0057529835
92	0xbdbbbc64	-0.09166792
93	0xbd5ea5be	-0.054357283
94	0x3d769b26	0.060206555
95	0x3d55ccc0	0.052197218
96	0x3c981283	0.018563515
97	0x3d7521e7	0.059846785
98	0x3ccca077	0.02497886
99	0xbdab3779	-0.0836019
100	0xba4591ee	-0.0007536699
101	0x3d6d2ca5	0.057903904
102	0xbb895a20	-0.004191652
103	0xbd063308	-0.03276351
104	0xbcd795e4	-0.02631659
105	0xbd74a3b3	-0.05972643
106	0x3cb35b93	0.021894252
107	0x3d9ab71b	0.07554456
108	0x3dbfff60	0.09374881
109	0xbc3b71fe	-0.011440752
110	0x3d80aa7b	0.062825166
111	0xbd2a1d11	-0.041531626
112	0xbda0dc84	-0.0785456
113	0xbd4939d2	-0.049127407
114	0x3da90b90	0.082541585
115	0xbbe115bf	-0.0068690474
116	0x3b23c766	0.0024990677
117	0xbc2ce30b	-0.010552178
118	0x3d624908	0.05524543
119	0xbd9d45f8	-0.07679361
120	0xbdb8d046	-0.090241
121	0xbd80a79e	-0.062819704
122	0xbdae23b8	-0.085029066
123	0x3b510ce3	0.003189855
124	0x3d7c4d97	0.061597433
125	0x3d5b657a	0.053563572
126	0xbdb6a0bb	-0.08917376
127	0xbcfdc149	-0.030975955
128	0xbba0d05a	-0.00490765
129	0xbdac5221	-0.08414102
130	0xbd2a0125	-0.041504998
131	0x3d81d2f0	0.06339061
132	0x3ba8d0d5	0.005151848
133	0xbd838d97	-0.064234905
134	0xbdba0c11	-0.09084333
135	0x3d4f0314	0.050540045
136	0x3cebea7c	0.028798334
137	0xbd1d02b0	-0.03833264
138	0x3db07111	0.08615316
139	0x3d91b259	0.07114095
140	0xbbdb375d	-0.0066899494
141	0x3c609cc9	0.0137092555
142	0x3ab0cb41	0.0013488309
143	0xbd6086f9	-0.05481622
144	0x3d4360dd	0.047699798
145	0x3dab2c18	0.083580196
146	0xbd9d4303	-0.07678797
147	0xbb1a68f2	-0.0023561087
148	0xbdb8b731	-0.09019316
149	0xbdbc78d6	-0.09202735
150	0x3c7342fc	0.014847513
151	0xbbfdddb8	-0.007747378
152	0x3d3bbe2d	0.045835663
153	0xbd9718af	-0.07377755
154	0xbc8756e2	-0.016520921
155	0xbd5034f5	-0.050831754
156	0xbd836675	-0.064160265
157	0x3d9200b1	0.07129038
158	0x3c357d60	0.011077255
159	0xbda9a85d	-0.08284066
160	0x3d72ab43	0.05924536
161	0x3c8f41fa	0.017487515
162	0x3d048953	0.032357525
163	0xbc1e3579	-0.009656304
164	0x3cdc3211	0.026879342
165	0xbd0f805c	-0.035034522
166	0xbd012999	-0.03153381
167	0xbdbb32ba	-0.09140535
168	0x3d7d275a	0.061805107
169	0xbd9d4eab	-0.0768102
170	0x3cc5c220	0.024140418
171	0xbd1de598	-0.038549036
172	0x3dbcbdd9	0.09215898
173	0x3d0b113c	0.033951983
174	0xbd8dac98	-0.06917685
175	0x3c7752ec	0.015095454
176	0x3d70bf8b	0.05877642
177	0xbdb5bcd9	-0.088739105
178	0xbdb622ea	-0.08893378
179	0xbd805732	-0.06266631
180	0xbc2a2f98	-0.010387324
181	0xbcce3a88	-0.025174394
182	0x3bab4e68	0.0052278526
183	0xbdc32da8	-0.095301926
184	0xbd972263	-0.073796056
185	0x3dbe7d8c	0.0930129
186	0x3d7e84a8	0.06213823
187	0xbcda6d2d	-0.026663387
188	0x3d039b3d	0.03213047
189	0xbd8a9701	-0.06767083
190	0xbc283df0	-0.010268673
191	0xbd1675a6	-0.036733292
192	0xbd9a926f	-0.07547461
193	0xbdb7e97d	-0.08980081
194	0xbcc6622f	-0.02421674
195	0xbd1ac2c3	-0.037783395
196	0xbdad1f7c	-0.08453271
197	0x3d8410f2	0.064485446
198	0x3da1f948	0.07908875
199	0x3dac96c5	0.084271945
200	0xbd5f4fe4	-0.05451955
201	0x3d97371a	0.07383557
202	0xbd387326	-0.04503169
203	0x3b37abce	0.0028025988
204	0xbdaab823	-0.083359025
205	0x3d1064b0	0.035252273
206	0x3dae2366	0.085028455
207	0xbd89f379	-0.06735892
208	0x3d9dc3a1	0.07703329
209	0xbc5d2ad7	-0.013498983
210	0xbc71c308	-0.014755972
211	0xbd8d58b3	-0.06901684
212	0x3d6ac88c	0.057320163
213	0x3d76902b	0.060196083
214	0x3db86764	0.09004095
215	0xbd64b29b	-0.055834394
216	0xbb1cf804	-0.002395154
217	0x3d3e65f3	0.046483945
218	0xbdb164aa	-0.08661778
219	0x3db5aace	0.08870469
220	0x3d827ac4	0.06371072
221	0xbc5247cd	-0.012834501
222	0xbcb388f0	-0.021915883
223	0xbc5eb6d4	-0.013593394
224	0xbc987b05	-0.018613348
225	0x3c7366fc	0.014856096
226	0x3c0768a8	0.008264698
227	0x3da22928	0.07918006
228	0x3dc1c016	0.094604656
229	0xbccb1a77	-0.024792893
230	0xbd97fbd3	-0.074210785
231	0x3dac00f8	0.08398622
232	0x3d81de22	0.063411966
233	0xbd53f1d2	-0.05174429
234	0xbd6a133b	-0.057147246
235	0x3da76a1b	0.08174535
236	0xbda6fbf0	-0.08153522
237	0xbd8b0518	-0.06788081
238	0x3caa8509	0.02081539
239	0x3d480ad5	0.048838455
240	0xbd794ded	-0.06086533
241	0x3d61f65e	0.055166595
242	0xbd5e0246	-0.054201387
243	0x3d6e4522	0.0581714
244	0xbd8a6920	-0.06758332
245	0xbd32d733	-0.04366226
246	0x3dc1f7db	0.09471103
247	0x3dbda3ed	0.09259782
248	0xbd140a58	-0.036142677
249	0x3b6c2ae5	0.003603631
250	0xbc1ad0d8	-0.009449206
251	0x3da66750	0.08125174
252	0x3d7b97f0	0.061424196
253	0xb9002b78	-0.00012223225
254	0xbd2eec36	-0.042705737
255	0xbd46b040	-0.04850793

recurrent.weight_hh_l1 f4 [512, 128]
0	0xbd26e969	-0.04074994
1	0xbd5b4ea6	-0.053541802
2	0xbca5d902	-0.020245079
3	0x3d78eccf	0.060772713
4	0x3d7a5730	0.061118305
5	0xbd664ae8	-0.05622378
6	0x3d1fd225	0.03901877
7	0x3cb351a0	0.021889508
8	0x3db87cf3	0.09008207
9	0x3bbb4469	0.0057149422
10	0xbd0054a9	-0.03133074
11	0xbd9a46cf	-0.07533037
12	0x3d69558a	0.056966342
13	0xbd075a23	-0.033044945
14	0xbd6ece3a	-0.05830214
15	0x3da8055a	0.08204146
16	0x3da8ce64	0.08242491
17	0xbdb26bc6	-0.087119624
18	0xbd226541	-0.039647344
19	0x3da533da	0.080665305
20	0x3d450294	0.04809816
21	0x3c477334	0.012173463
22	0xbda2da3a	-0.0795178
23	0x3d0f403e	0.034973375
24	0xbca2161a	-0.01978593
25	0xbd66e826	-0.056373738
26	0xbd290c29	-0.041271362
27	0x3c99707e	0.018730398
28	0x3d3bd438	0.045856684
29	0xbd91cae5	-0.07118777
30	0x3d8d1007	0.068878226
31	0x3c34385d	0.010999766
32	0xbda93acd	-0.082631685
33	0x3d78d060	0.060745597
34	0xbda09be7	-0.07842236
35	0x3c74faf7	0.014952413
36	0xbdb9b5fb	-0.09067913
37	0xbd4cf810	-0.05004126
38	0x3dc39951	0.09550727
39	0xbd9f23b1	-0.077704795
40	0x3da4a901	0.080400474
41	0x3c889dfd	0.016676897
42	0xbd309e6b	-0.04311983
43	0xbdac6acd	-0.08418808
44	0x3cab2c5f	0.020895181
45	0xbd4b4593	-0.049626898
46	0xbc8fc6e5	-0.017550895
47	0x3db85445	0.09000448
48	0xbc71106a	-0.014713386
49	0x3d9bccf1	0.07607449
50	0x3d8b3ac4	0.06798318
51	0x3db5be2c	0.08874163
52	0xbc68c5a6	-0.014207279
53	0x3db33f88	0.08752352
54	0xbd3ff758	-0.046866745
55	0x3d61bd57	0.05511221
56	0x3d82d4b4	0.06388226
57	0x3db15f7c	0.0866079
58	0xbb9f8f2c	-0.0048693623
59	0x3c205b71	0.009787426
60	0xbd6b52d4	-0.057452038
61	0x3c46f011	0.012142197
62	0x3d9facb4	0.077966124
63	0x3dbc5bd1	0.091972
64	0xbd85bf59	-0.06530637
65	0xbd74a7cd	-0.05973034
66	0xba9e40e3	-0.0012073781
67	0x3d8abe06	0.06774525
68	0x3da726dc	0.08161709
69	0xbd4746bc	-0.048651442
70	0x3d1f17a9	0.038840923
71	0xbd6b0aa4	-0.057383195
72	0xbc2f1c87	-0.010687954
73	0x3d9977b7	0.07493537
74	0x3cf8142a	0.030283052
75	0xbd8922a5	-0.06696061
76	0xbd989b53	-0.07451501
77	0x3cced8dc	0.025249891
78	0x3c9b3523	0.018946236
79	0xbd527d8c	-0.051389262
80	0xbdbbb859	-0.09166021
81	0x3d93c30d	0.07214937
82	0xbdc37634	-0.0954403
83	0x3c9cda67	0.019147111
84	0xbce051ad	-0.027382696
85	0x3d384ef3	0.044997167
86	0xbd284c67	-0.041088488
87	0xbcf4e14c	-0.029892586
88	0xbd162d66	-0.03666439
89	0x3d023550	0.031789124
90	0x3da7a5e2	0.081859365
91	0xbc5b8f3d	-0.01340085
92	0xbd189555	-0.03725179
93	0x3d210a14	0.039316252
94	0x3d73a627	0.059484627
95	0x3d4feace	0.050761037
96	0x3d646e32	0.055769153
97	0xbdaa3e9e	-0.083127245
98	0x3d44349f	0.047901746
99	0x3cf85b1d	0.030316884
100	0x3d8b18c5	0.06791834
101	0x3cbcbe28	0.023039892
102	0x3cbbe69b	0.02293711
103	0xbcf529ef	-0.029927222
104	0xbd3aca4f	-0.045603093
105	0xbd0c1e26	-0.03420844
106	0x3b763c0d	0.0037572414
107	0xbb27f82d	-0.0025630102
108	0xbd8aebf2	-0.06783284
109	0x3d0325aa	0.03201834
110	0x3cb2b776	0.021815997
111	0x3c449e10	0.012000576
112	0x3c1fd902	0.009756329
113	0x3cd7082c	0.026249014
114	0x3d15f91b	0.03661452
115	0xbd3696ff	-0.044577595
116	0xbc6ac57d	-0.014329311
117	0x3da646b3	0.081189536
118	0x3d8f75ff	0.07004928
119	0x3d626dcd	0.055280495
120	0xbd73e30e	-0.059542708
121	0xbd4590aa	-0.048233666
122	0x3c6dc2c6	0.01451177
123	0xbd96dfa3	-0.07366874
124	0x3a3d6690	0.0007225061
125	0x3db1690b	0.086626135
126	0xbcea3688	-0.028590456
127	0x3d2abe44	0.041685358
128	0x3cb74195	0.02237014
129	0xbd94b3aa	-0.07260831
130	0x3d509cbb	0.05093072
131	0xbd8dd87c	-0.06926057
132	0xbc9dea06	-0.01927663
133	0x3db19271	0.086705096
134	0xbc1879dc	-0.009306397
135	0xbb95dc2b	-0.004573365
136	0x3d14180c	0.036155745
137	0xbca87879	-0.020565258
138	0xbda28cfc	-0.07937047
139	0x3cc9a5fe	0.024615284
140	0x3da5113e	0.08059929
141	0xbdb7f374	-0.08981982
142	0x3d8dd108	0.06924635
143	0x3bc01952	0.0058623934
144	0x3d744c51	0.059643093
145	0x3c55995b	0.013037051
146	0x3d9825ea	0.074291065
147	0x3d2a94cc	0.04164581
148	0x3c9b9f8f	0.018996982
149	0xbd254294	-0.040346697
150	0x3d818e17	0.063259296
151	0x3d7b088a	0.06128744
152	0x3cf588aa	0.029972393
153	0xbda8f84d	-0.082504846
154	0xbda2ffaa	-0.0795892
155	0x3d740301	0.059573177
156	0x3d598a74	0.053110555
157	0xbda9fbdd	-0.08299992
158	0xbc64627b	-0.013939495
159	0x3cf74bf0	0.030187577
160	0x3d96ae6d	0.07357488
161	0xbd02eff5	-0.031967122
162	0x3d670f94	0.05641134
163	0x3a9be585	0.0011893964
164	0xbd7dbbf9	-0.061946843
165	0xbda0e178	-0.07855505
166	0x3d3e1213	0.046403956
167	0xbdc1ff07	-0.09472471
168	0x3bfb7762	0.0076741436
169	0xbca781a8	-0.020447567
170	0x3d74bc49	0.059749875
171	0xbda51247	-0.08060127
172	0xbcfe4b4e	-0.031041767
173	0x3cce4f5c	0.025184326
174	0xbd7e81ba	-0.062135436
175	0xbdb70359	-0.089361854
176	0x3d92e189	0.07171924
177	0xbc4272f1	-0.0118682245
178	0xbd713ff0	-0.058898866
179	0x3d362cfb	0.04447649
180	0xbcdf4fd2	-0.027259741
181	0x3bbdbfb0	0.005790673
182	0x3d3f390d	0.046685267
183	0xbb965e1e	-0.0045888564
184	0xbcce3569	-0.025171952
185	0xbcd0e869	-0.025501447
186	0xbca33e4b	-0.019927165
187	0x3beebfb9	0.0072860387
188	0xbd2b53f7	-0.041828122
189	0xbd433999	-0.04766235
190	0x3d9c547f	0.07633304
191	0xba8f447c	-0.0010930444
192	0xbd90563f	-0.070477
193	0x3cab1dd1	0.020888241
194	0x3d1d0a2a	0.03833977
195	0xba65790c	-0.0008753694
196	0x3dbc7d05	0.09203533
197	0xbd8e1d38	-0.06939167
198	0x3d913859	0.070908256
199	0x3d910992	0.070819035
200	0xbd0f050f	-0.034916934
201	0x3d6065aa	0.054784454
202	0xbd91964e	-0.071087465
203	0xbd9a39ef	-0.07530581
204	0x3db71dbc	0.08941218
205	0xbcc86e98	-0.024466798
206	0xbcd339aa	-0.025784332
207	0xbd9cf707	-0.07664304
208	0xbd2c065d	-0.041998256
209	0x3dbd26bf	0.09235906
210	0xbd34abca	-0.044109143
211	0x3d3e92bc	0.046526656
212	0xbda39a89	-0.079884596
213	0x3d7ec8b4	0.062203124
214	0x3bc3bc36	0.005973364
215	0xbcab47dc	-0.020908289
216	0x3da8e645	0.082470454
217	0xbcffe838	-0.03123866
218	0xbdaa5432	-0.0831684
219	0xbd2fb45b	-0.04289661
220	0x3d22a28c	0.039705798
221	0x3d4ea09f	0.05044615
222	0x3d74611e	0.05966293
223	0xbd3ecf0f	-0.046584185
224	0xbdb47895	-0.08812062
225	0x3cdf2b4b	0.027242323
226	0xbd9d7fff	-0.07690429
227	0xbd6ac1d1	-0.057313744
228	0x3d8ae219	0.06781406
229	0x3db8949b	0.09012719
230	0x3d12b0a9	0.035813008
231	0x3dabbfd9	0.083862014
232	0xbda01f86	-0.078185126
233	0xbd0cd40a	-0.034381904
234	0xbdbab0e9	-0.09115774
235	0xbd3b644a	-0.04574994
236	0xbda14880	-0.078751564
237	0x3d2e4ca9	0.042553578
238	0xbd9b36ca	-0.075788096
239	0x3d40afab	0.04704253
240	0xbd7dd0ca	-0.061966695
241	0x3cd1ca61	0.025609197
242	0x3d66e699	0.05637226
243	0x3c9d015a	0.019165684
244	0x3c6f64fa	0.014611477
245	0xbd3fd965	-0.046838183
246	0xbdb70745	-0.089369334
247	0x3ce9e225	0.028550217
248	0xbd54575b	-0.05184112
249	0x3d896d10	0.06710255
250	0xbc95e7e2	-0.018299047
251	0x3d9dbf6f	0.07702529
252	0xbd1cf432	-0.03831882
253	0xbda56235	-0.08075372
254	0xbd3df52d	-0.046376396
255	0xbd5d6f67	-0.05406132

recurrent.bias_ih_l1 f4 [512]
0	0x3a176b9f	0.00057762297
1	0x3a1a42df	0.00058845984
2	0x3a1cbc31	0.00059789704
3	0xba040284	-0.0005035775
4	0x3a1528fd	0.00056900067
5	0xba1598c8	-0.0005706665
6	0xba081285	-0.0005190748
7	0xb9d805cc	-0.0004120305
8	0x3a118681	0.00055513537
9	0xba1577e7	-0.0005701766
10	0x3a14f200	0.0005681813
11	0x380a8c9f	3.3032728e-05
12	0xba12f5d8	-0.00056060916
13	0x39f5d899	0.0004689142
14	0x3a1a658c	0.00058897655
15	0xba0d7d7f	-0.00053974235
16	0xba17e5b9	-0.0005794424
17	0x3a138dd4	0.0005628739
18	0xb99787d3	-0.0002890216
19	0x38b20191	8.487993e-05
20	0x3a1391db	0.0005629339
21	0xb9dcccf0	-0.0004211436
22	0xb931dd76	-0.00016962536
23	0x3a0b9e73	0.000532604
24	0xba0bde00	-0.000533551
25	0xba10e152	-0.00055267394
26	0xba17a73f	-0.00057851145
27	0x39a0d3cb	0.00030675376
28	0x3a19fe26	0.0005874358
29	0x37c1d1a3	2.3105013e-05
30	0x3a14f597	0.00056823477
31	0x393d33a4	0.00018043682
32	0xba1a9a69	-0.00058976427
33	0x3a1ba4a1	0.00059373124
34	0xba18cfb6	-0.0005829291
35	0x3a1cf742	0.0005987772
36	0xb8d9ce18	-0.00010385754
37	0xb9b36535	-0.00034216946
38	0x3a1a842b	0.00058943284
39	0xb9861237	-0.00025572043
40	0xb994c032	-0.00028371956
41	0xba0425f1	-0.0005041054
42	0x3960b539	0.00021429815
43	0xb98e7a1a	-0.00027175323
44	0x3a0b8df4	0.0005323582
45	0x3a16be2f	0.00057503855
46	0x38095544	3.2742755e-05
47	0xba1aefb9	-0.0005910355
48	0x3a1a616f	0.00058891525
49	0xba103d10	-0.0005502263
50	0x3973875e	0.00023224714
51	0xba130ac9	-0.0005609212
52	0xb727629d	-9.976936e-06
53	0xba0a4277	-0.0005274186
54	0xba0fbe87	-0.0005483408
55	0x3a08c70e	0.000521765
56	0xb9a5f2c9	-0.00031652141
57	0xb9ccfa96	-0.00039096613
58	0xb9b2742c	-0.0003403736
59	0x393d3fc0	0.00018048193
60	0x3a0b2e3e	0.000530932
61	0xba0217be	-0.00049626443
62	0xba1bfb0e	-0.0005950191
63	0xba103c8d	-0.0005502187
64	0x3a1a8d31	0.0005895673
65	0x3a1a0b86	0.0005876351
66	0x3a1b2380	0.00059180707
67	0xba12b761	-0.00055967836
68	0xb9cfc26a	-0.00039626966
69	0x3a0f44ed	0.0005465288
70	0x3a19b0de	0.0005862842
71	0x39b193f9	0.0003387032
72	0xba171541	-0.000576336
73	0x3a128453	0.0005589176
74	0xb95a8acd	-0.00020841807
75	0xba15a979	-0.00057091523
76	0x39fa56b7	0.00047748323
77	0xba156893	-0.00056994817
78	0xba0f233f	-0.0005460269
79	0x3a061649	0.0005115015
80	0xba0c8ee7	-0.000536187
81	0x3a126c38	0.0005585584
82	0xb964614c	-0.0002178002
83	0xba1bcb74	-0.00059430976
84	0x39ff16c3	0.0004865435
85	0xba034680	-0.0005007759
86	0x3a175d18	0.0005774065
87	0x3a161a54	0.0005725969
88	0x3a1751e6	0.00057723967
89	0x3a0fbc64	0.00054830895
90	0x37cd397f	2.4464678e-05
91	0x39ee97b2	0.0004550792
92	0x3a1c6bad	0.00059669727
93	0xba144491	-0.0005655969
94	0xba09da2b	-0.0005258645
95	0xb9da3905	-0.00041622683
96	0x3a115cca	0.00055451377
97	0x3a1d8ee7	0.0006010369
98	0xb9a8c849	-0.0003219268
99	0x3960fe85	0.0002145712
100	0x387d7b87	6.0434944e-05
101	0x39795975	0.00023779816
102	0x3a1d92eb	0.0006010967
103	0xb9954297	-0.00028469108
104	0xba1a017c	-0.0005874855
105	0x385300d1	5.030708e-05
106	0xba1963bc	-0.00058513484
107	0x39549dbe	0.00020276659
108	0x39f43bff	0.00046584007
109	0xba172acb	-0.00057665695
110	0xb8c369a8	-9.3180046e-05
111	0xba16d299	-0.00057534274
112	0x386b1378	5.6046498e-05
113	0xb9e782a8	-0.000441571
114	0x3a1bf540	0.0005949326
115	0x398cf947	0.00026888607
116	0xba1ab70e	-0.0005901911
117	0x3a0fafc6	0.00054812094
118	0xb9e5f03b	-0.0004385727
119	0xb9edf7ee	-0.00045388885
120	0x3a0b7bd0	0.00053208787
121	0xb8dc9401	-0.00010517985
122	0xb9e642e1	-0.00043918847
123	0xba1764db	-0.00057752215
124	0xba0d1a55	-0.0005382647
125	0xb9693d0b	-0.00022243352
126	0xba15a75d	-0.0005708838
127	0xba1456f5	-0.00056587096
128	0x3a14b10d	0.00056721346
129	0x3a19c1a3	0.0005865341
130	0x3a1ca3be	0.0005975327
131	0xba0f9584	-0.00054772967
132	0x3a151fde	0.00056886475
133	0xba122a78	-0.00055757863
134	0xb9846ccb	-0.0002525806
135	0xb9bb3950	-0.0003571012
136	0x3a0dcb40	0.000540901
137	0xba0ebfa2	-0.00054454256
138	0x3a0f4981	0.000546597
139	0xb985d425	-0.00025525797
140	0xba112dc9	-0.00055381336
141	0xb9f6334e	-0.00046959
142	0x3a13f372	0.0005643881
143	0xba0b0f96	-0.00053047517
144	0xba149656	-0.0005668154
145	0x3a11f2d0	0.0005567493
146	0xb992a0fa	-0.00027967227
147	0x39a588da	0.00031573215
148	0x3a11fd38	0.00055690436
149	0xb9e2fd2f	-0.00043294716
150	0xb9c5ca59	-0.0003772553
151	0x3a0f7cd6	0.0005473619
152	0xba11c6e8	-0.00055609504
153	0xba10db9c	-0.00055258884
154	0xba0a5180	-0.00052764267
155	0x398f44b9	0.00027326288
156	0x3a1d06c7	0.00059900846
157	0x37d62a27	2.5530417e-05
158	0x3a1268f7	0.0005585099
159	0x39b64153	0.00034762415
160	0xb923c619	-0.00015618688
161	0x3a19a50b	0.000586108
162	0xba136dc0	-0.0005623959
163	0x3a1c31cf	0.000595835
164	0x3886752c	6.411443e-05
165	0xb9b504ac	-0.0003452649
166	0x3a191bcc	0.0005840629
167	0xb93c658f	-0.0001796691
168	0xb989b12c	-0.0002626268
169	0xb9126976	-0.00013962932
170	0x3a09b4b9	0.0005253065
171	0xb986b915	-0.00025696369
172	0x3a0ffc66	0.00054926274
173	0x3a14c58d	0.00056751893
174	0x3793cdb3	1.7619552e-05
175	0xb9dba5cb	-0.0004189446
176	0x3a0a2787	0.0005270172
177	0x39ce7472	0.0003937814
178	0x3978b9ab	0.0002372029
179	0xba0dd075	-0.00054097857
180	0x39b21abe	0.0003397073
181	0xba1ab103	-0.00059010106
182	0xba0ebc99	-0.00054449734
183	0x3a0782eb	0.00051693496
184	0xb9e1f46f	-0.00043097461
185	0x3a1244e8	0.0005579726
186	0x391967f0	0.00014629937
187	0xb9e9b8bd	-0.00044578864
188	0x39a3e63d	0.00031261324
189	0xba0a1358	-0.00052671647
190	0xb89cf8a2	-7.484971e-05
191	0xba1185fd	-0.0005551277
192	0x3a1a385a	0.0005883031
193	0x3a175c73	0.0005773969
194	0x3a1a87aa	0.00058948493
195	0xba114ea6	-0.00055430306
196	0xb9b7e7ae	-0.00035077095
197	0x3a1669b2	0.0005737796
198	0x3a1732c1	0.0005767756
199	0x39db54a3	0.00041833994
200	0xba14a0de	-0.0005669723
201	0x3a07ac0e	0.00051754795
202	0x39eca538	0.00045136525
203	0xba10a62a	-0.00055179244
204	0xb89607a8	-7.1539835e-05
205	0xba14ffc4	-0.0005683864
206	0xba0acd17	-0.0005294843
207	0x39fc36c5	0.00048105992
208	0x39661113	0.0002194087
209	0x3a0042fc	0.0004892794
210	0x396efcd7	0.00022791639
211	0xba1ad1f2	-0.0005905918
212	0x39ec02eb	0.00045015602
213	0xb9b5813a	-0.00034619292
214	0x3a092b42	0.0005232581
215	0x3a14df2a	0.0005679006
216	0x3a1607b1	0.0005723192
217	0x3a113b95	0.00055401894
218	0x39b2700d	0.0003403429
219	0x39e646b9	0.0004392171
220	0x3a1b782c	0.0005930688
221	0xba12fc1d	-0.0005607026
222	0xba09d0e3	-0.0005257262
223	0xb8789d3b	-5.927424e-05
224	0x3a10f563	0.00055297295
225	0x3a1c8fb5	0.0005972342
226	0xb99fe875	-0.00030500037
227	0x39c6428b	0.0003781508
228	0x38897f8d	6.556427e-05
229	0x397f784d	0.0002436351
230	0x3a1d2411	0.0005994449
231	0x3a0b9e22	0.0005325993
232	0xba19cb9d	-0.00058668276
233	0x39467db8	0.00018929585
234	0xba176267	-0.0005774856
235	0x39931693	0.00028054844
236	0x39fa161e	0.00047700194
237	0xba16ab2f	-0.0005747554
238	0xb846330d	-4.7254423e-05
239	0xba0e30aa	-0.00054241216
240	0xb97d3663	-0.00024148221
241	0xba022684	-0.0004964846
242	0x3a1a1398	0.00058775535
243	0x3957edc2	0.0002059257
244	0x3a1a3073	0.0005881853
245	0x3a0df590	0.0005415315
246	0xb9de6235	-0.0004241631
247	0xb9e0dc74	-0.0004288886
248	0xba07246c	-0.00051552686
249	0x37bd9fc2	2.2604949e-05
250	0xb967db02	-0.00022111463
251	0xba145cfe	-0.0005659609
252	0xba0f5dda	-0.0005469002
253	0x38b38608	8.5603504e-05
254	0xb9a77878	-0.00031942478
255	0xb949abc3	-0.0001923284
