input/rnn_model.pth (torch, 73244 bytes, 6 tensors)

rnn.weight_ih_l0 f4 [128, 4]
00000000: de88 4fbd fab1 923e cb0e 87be 4157 1a3d
00000010: 2dec 20be 3b03 35be 919b c93d 3d8a d43d
00000020: 9df1 2a3e 7fea e63d 2644 123e de6a b3be
00000030: 8511 5a3e 3931 08be 52b0 993e 1879 aebe
00000040: f791 d83d 282a ed3d 3f12 ccbd fe72 36be
00000050: 9e1b 73be cb8f cfbc 0ebe dc3d 9534 153e
00000060: 3bce ae3e 01c6 38be eb53 cc3d 2b90 5abe
00000070: b17d 0abe 894d 14be db0d 423e 6567 bc3d
00000080: 38d2 1dbe cd9f b7bc 44c8 4bbe b629 d03e
00000090: eda7 de3b 7631 38be d5c8 ae3e 70d6 01be
000000a0: bfe9 0e3e e567 de3d 22d2 bebd 183e 48be
000000b0: 248d 293c 39cd a7be 234c 06ba c64c 0b3e
000000c0: 3a2b 97be 04b7 403e 8b8f 5bbd 374e 3d3d
000000d0: bd65 54be fe27 aabd 009c 143e 651f f53d
000000e0: db1b c2bd 7f00 2e3e 6e12 afbe 5a49 8b3e
000000f0: 4d4b 913e 6dda ddbe db85 9e3d 29db da3d
00000100: 3da8 563c 501d 9cbe c20c f8bc d2fe 383e
00000110: 8a07 73be 89b5 1f3e b651 e9bd 8ada 923e
00000120: 22fc d7bd f1e3 7cbd a73f d03e a341 38be
00000130: ed6e aa3d d3f8 9bbe 1760 2f3d 5a7a 333e
00000140: aeab 8d3d a9a5 013e 4dbb 373e cc2c cabe
00000150: 3b91 54be 22b1 88bc 42f2 b73e c2ca 6cbe
00000160: dd02 533e c251 d3be 5e86 103e 48f0 a3bc
00000170: ac7e 5cbe 013e b13e bf30 47bd 2f0f 313b
00000180: b1f5 b63d 61cf a5be 4029 6d3e da52 63bd
00000190: 8819 5dbe 8bb8 7bbd d3ab 8e3d 2ba1 3f3e
000001a0: dbf3 6bbe 1307 333d cd0d 9fbd 1490 643e
000001b0: ef5c d43e 99cd 51be 56a1 f9bd 0a4e 7abd
000001c0: 29bf 403e d9f7 adbc 8a6d 80be d21f c03d
000001d0: 4065 51be c0d3 2dbd e3f6 913e f9ba ebbd
000001e0: 9eec b4bd 3f6b 183e bdc4 123e 877c 90be
000001f0: eac7 abbd ed4d bdbd 4d06 903e 2f32 86bd
00000200: 341e 31be e647 b23d a59e 6bbe b50b ba3e
00000210: a6a1 87be a76f 103e da58 853e 436e a1bc
00000220: f9f9 0cbe 8cc3 073d c9c5 3b3e 8a79 d2bb
00000230: a15a 7cbe fffd 6f3d 658d 8f3e 717d 9ebd
00000240: 64d9 f83d dfed a8be 8e7d 293e 0e12 d8bd
00000250: acdf 73be 9edb e9bc 0215 f13d bde7 033e
00000260: ad09 b2bc 3430 483e d546 313e b437 b6be
00000270: cb69 5e3e 2ec9 ae3d 8460 543c 188f 75be
00000280: 7653 57bd 2085 b93d efcf 213e b653 75be
00000290: 69ff d8bd 2a68 6a3d 6e69 67be 3fc0 873e
000002a0: 0ab4 213e 65dc a8bb 8d6d bcbe 2ab1 443e
000002b0: 3d41 febd 2f72 b0bc 1e5c 833e a15e 20be
000002c0: ee9d 3cbe d3d0 10be 2e46 433e 92e4 c23d
000002d0: 09b5 fbbd 4f10 bc3e 7b32 74bd a766 28be
000002e0: 4501 a0bd 3591 00be 52e0 06bd fc2d 8c3e
000002f0: fcf9 0e3e a6b9 313e ed43 44bd 0a1b 65be
00000300: d790 9f3e e044 d0b9 5aa1 39be 05af 89bd
00000310: 442f f73c 60d1 093e f0fe fb3d 87ce babe
00000320: 36ff 13be 610b abbd 3e69 2a3d f0e5 833e
00000330: d0aa 503e e030 ce3d 467f 17be 4360 fcbd
00000340: 9a58 8b3e 8c67 1e3d ec95 00be 318b e0bd
00000350: a2c5 0a3e d2fb 15bd 6ece 623e a5fb bfbe
00000360: 596d adbe 8fe9 683e 42bb 0cbe 9860 653e
00000370: ddf1 d0bc b970 82be e838 313d 2f26 013e
00000380: dd12 ebbc 8000 993e 70ae a53d 2cda 24be
00000390: 42a5 5f3e 27af 02bd b6d4 ca3d 80fd 9abe
000003a0: 66c1 8bbd 15f1 4abe f18c ecbd 8e44 a43e
000003b0: 91eb 73be f600 a4bd 3d23 cf3d ee6d 193e
000003c0: 2a3b 46be 0639 063e 59f0 6dbd 6c6e 563e
000003d0: 630d 8abe 8e83 c63e 6af3 36be b0c2 2dbd
000003e0: 974a 3d3e d88b 0e3e 6116 9fbc c088 5ebe
000003f0: 85c1 7fbe 8b69 143e 4c81 a43e 1225 6bbe
-0.050667636 0.2865141 -0.26378474 0.037680868 -0.15715094 -0.17677014 0.09844125 0.10377929
0.1669373 0.11275195 0.14283809 -0.3504247 0.21295746 -0.13300027 0.30017334 -0.34076762
0.105747156 0.11580306 -0.09964418 -0.17817304 -0.23741004 -0.02533712 0.107784376 0.1457084
0.34141716 -0.18044282 0.099769436 -0.21344058 -0.1352451 -0.14482702 0.18950598 0.091994084
-0.15412223 -0.022415066 -0.19900614 0.40656823 0.0067949207 -0.17987618 0.34137598 -0.12679458
0.13956355 0.1085966 -0.093174234 -0.19554937 0.010348592 -0.3277376 -0.00051230396 0.13603505
-0.29525167 0.18819815 -0.05360369 0.04621717 -0.20741935 -0.08308409 0.14512634 0.11968879
-0.09477969 0.16992377 -0.34193748 0.272044 0.28377762 -0.43330708 0.07740375 0.10686333
0.013101635 -0.30491114 -0.03027952 0.18065956 -0.23733345 0.15596594 -0.11392538 0.28682357
-0.105461374 -0.06174082 0.40673563 -0.17993788 0.08321939 -0.30463275 0.042816248 0.17527142
0.06917511 0.1266085 0.17942543 -0.39487302 -0.20758526 -0.016686026 0.35927016 -0.23124221
0.20606561 -0.41273314 0.14113757 -0.020012036 -0.21532696 0.34617618 -0.048630472 0.0027017107
0.08933581 -0.3238478 0.23160267 -0.055498935 -0.2159177 -0.06145529 0.069663666 0.18713824
-0.23042242 0.04370792 -0.07766304 0.22320586 0.41477153 -0.20488586 -0.121889755 -0.06110958
0.18822922 -0.021236347 -0.25083572 0.09381069 -0.2044878 -0.04243827 0.28508672 -0.115102716
-0.08834194 0.14884661 0.14332862 -0.28220007 -0.0838774 -0.09243379 0.28129807 -0.065525405
-0.17296678 0.0870512 -0.23009737 0.36337057 -0.26490515 0.14105092 0.2604435 -0.019705897
-0.13767232 0.033145472 0.18337168 -0.00642318 -0.24643947 0.05859184 0.28037563 -0.0773877
0.12150839 -0.3299398 0.16551802 -0.10550319 -0.23815793 -0.028547104 0.11771585 0.1288137
-0.02173313 0.19549638 0.17312177 -0.35589373 0.21720044 0.08534466 0.012962464 -0.23980367
-0.05256983 0.09058595 0.15801977 -0.23957714 -0.105955906 0.057228245 -0.22598812 0.2651386
0.15791336 -0.005153226 -0.3680233 0.19208208 -0.12414787 -0.021538822 0.25656217 -0.15661098
-0.1841962 -0.1414216 0.1906974 0.095162526 -0.12290389 0.36731192 -0.059618454 -0.16445409
-0.07812742 -0.12555392 -0.032928772 0.27378833 0.13962549 0.17355976 -0.04791634 -0.22373596
0.31165192 -0.00039724167 -0.18127957 -0.067228355 0.030173905 0.13458776 0.12304485 -0.36485693
-0.14452824 -0.0835178 0.041604273 0.25761366 0.2037766 0.10067916 -0.14794645 -0.12323048
0.27216035 0.03867297 -0.1255719 -0.10964049 0.13551953 -0.036617108 0.22149059 -0.37496677
-0.33872488 0.22745346 -0.13743308 0.22400129 -0.025505954 -0.25476626 0.04326716 0.12612222
-0.028695518 0.29883194 0.08089912 -0.16098851 0.21840385 -0.03190532 0.09903853 -0.3027153
-0.06823997 -0.19818528 -0.1155032 0.32083553 -0.2382033 -0.08007996 0.10114143 0.14983341
-0.19358507 0.1310769 -0.05809054 0.2094056 -0.26963338 0.38772243 -0.17866293 -0.042421997
0.18485485 0.13920534 -0.01941985 -0.21731853 -0.24976166 0.14493386 0.32129896 -0.2296336

rnn.weight_hh_l0 f4 [128, 128]
00000000: f3c2 0200 974a 0500 ff9f 0200 f06a 2481
00000010: 2f3f 0100 e02b 0980 2440 0080 017b 0a00
00000020: aff5 0e80 8daf 0c00 3120 0a00 3257 0a00
00000030: 9f7b 0400 7f54 0c00 c1b5 0900 a251 0580
00000040: 74d5 0300 a693 0b80 b3b4 0b80 f301 0780
00000050: 5529 0080 d616 0180 d603 0180 f5b7 0800
00000060: abfd 0500 3529 0080 0145 0880 bba6 0700
00000070: a35f 0500 cba8 0700 fa7a 0800 c0eb 0500
00000080: 3cf9 0880 92d1 0500 dd26 0580 b7c5 0500
00000090: 355a 0a80 c5b0 0980 7035 bb0f a872 0e80
000000a0: 197b 0a00 9a45 0180 e1a0 0700 a6ae 0b80
000000b0: 7cdb 0b00 190d 0680 0ae1 0080 1a5a 0280
000000c0: 2d6f 0b00 789e 0580 df75 0280 af57 0580
000000d0: 7ae7 0600 bdb8 0280 dc67 0c00 f4ee 0b80
000000e0: 8a6a 0b80 742b 0080 aa1a 0500 7d17 0700
000000f0: 1cc0 0380 eed9 0200 d76d 0b80 a8e7 0e80
00000100: 30b6 0980 8c08 0600 4f10 0c00 ea00 a023
00000110: 80b7 0b80 f239 0f00 3681 0180 6ce3 0780
00000120: 9c3f 0200 f9b6 0380 32be 0780 5a40 0c00
00000130: 902b 0280 56e1 0b80 c557 0780 9eff 0d00
00000140: 6f8d 0e80 bb2a 0980 7585 0900 bfa7 0500
00000150: a947 0500 b9ba 0080 b9f3 0080 6f1e 0480
00000160: 9c33 0400 454b 0080 4a1c 0200 650c 0800
00000170: 18bf 0300 565e 0a00 6926 0780 c6f7 0200
00000180: 8360 0880 9a00 3501 71ba 0980 54ba 0300
00000190: d449 0d80 8888 0800 be51 0780 37d9 0600
000001a0: 231b 0700 14bb 0300 ad2f 0780 b40d 7217
000001b0: ef86 0c00 f506 0c80 bac1 0e00 cfa8 0280
000001c0: 9c0d 0c80 cf79 0200 04dc 0600 3442 0980
000001d0: 9abf 0b80 eaca bca0 19b3 0400 9279 0580
000001e0: 5102 0a00 ce82 0c80 f142 0d00 800a 0c80
000001f0: 88af 0c00 a8d4 0880 aaf5 0000 c765 0880
00000200: e894 0480 7f46 0a00 02ca 0200 cbd4 0280
00000210: c5fb 0d80 1a43 0b00 e234 0680 97c7 0580
00000220: 3419 0680 2dca 0180 588e 0b80 a4ea 0800
00000230: 790e 0f00 94b5 7a01 771f 0680 8816 0e00
00000240: e3c1 0a80 1845 0680 fdb4 0c00 cdb6 0b80
00000250: 2892 0a00 7915 0b00 9c82 0b80 1ee0 0680
00000260: 5ebe 0880 f333 0600 80c4 0680 8d56 0600
00000270: b3b0 0400 7769 0300 a58e 0300 f670 0700
00000280: 691f 0180 ab4e 0400 0314 0300 beea 0580
00000290: 73e5 0c80 7fb7 0880 921d 0500 b51e 0c00
000002a0: e629 0300 8b54 0180 de87 0680 e33f 0080
000002b0: 31c7 0200 c8d9 0880 d631 0400 a5e9 0600
000002c0: 8cf5 0800 f501 0300 9f01 0080 7399 0200
000002d0: 0d06 0780 edb4 0880 1e17 0d00 1218 0e00
000002e0: dd27 0480 859b 0d00 0a4b 0a80 a839 0d80
000002f0: 6404 0380 f113 0b80 23f9 0680 7b2b 0200
00000300: 5a9d 0880 0253 0100 1e47 0800 eafe 0280
00000310: 03fb 0380 b41d 8c01 5350 0980 a51f 0200
00000320: dacc 0500 39e0 0800 1814 0c00 c01d 0800
00000330: 11c4 0280 4525 0700 4473 0380 44f5 0680
00000340: 3a76 0a00 af10 0d80 1152 0c80 103d 0480
00000350: 768d 0580 0b53 0300 ff02 0e00 f047 0700
00000360: ec07 0180 dccc 0e00 c162 0280 ea74 0c00
00000370: 123a 0a80 abc4 0b80 9fbd 0d80 25c4 0180
00000380: 0934 0180 a32b 0b00 1332 0200 66bb 0900
00000390: 1d3f 0480 992f 0e80 59d7 0a80 854b 0e00
000003a0: 4435 0980 18ba 6b80 0ad8 0b00 4615 b28f
000003b0: c070 0200 53df 118b 3cbc 0880 7374 0100
000003c0: 5629 0100 fd4c 0a00 af40 0080 6524 0180
000003d0: 581f 0400 f53d 0600 7570 0a00 84a6 0d80
000003e0: 1334 0280 6120 0a80 e4d2 0080 58f1 0680
000003f0: a079 0500 c104 0980 2975 0580 bd51 0400
2.53606e-40 4.85935e-40 2.41067e-40 -3.0198767e-38 1.14501e-40 -8.42259e-40 -2.301e-41 9.6248e-40
-1.373832e-39 1.165002e-39 9.29903e-40 9.49635e-40 4.11689e-40 1.132337e-39 8.9172e-40 -4.88462e-40
3.52079e-40 -1.063157e-39 -1.075013e-39 -6.43548e-40 -1.4827e-41 -1.00027e-40 -9.3212e-41 8.00675e-40
5.50176e-40 -1.4782e-41 -7.59438e-40 7.0266e-40 4.93485e-40 7.034e-40 7.788e-40 5.43749e-40
-8.24092e-40 5.34357e-40 -4.73119e-40 5.30104e-40 -9.50715e-40 -8.89932e-40 1.8460207e-29 -1.326828e-39
9.62514e-40 -1.16804e-40 7.00561e-40 -1.072843e-39 1.088927e-39 -5.55712e-40 -8.0729e-41 -2.15993e-40
1.050073e-39 -5.16025e-40 -2.25955e-40 -4.90632e-40 6.34051e-40 -2.49943e-40 1.139284e-39 -1.09591e-39
-1.04841e-39 -1.5588e-41 4.68743e-40 6.51274e-40 -3.44422e-40 2.6185e-40 -1.049594e-39 -1.3688e-39
-8.91876e-40 5.54079e-40 1.107876e-39 1.7347622e-17 -1.076018e-39 1.39832e-39 -1.38188e-40 -7.24432e-40
2.0649e-40 -3.41145e-40 -7.11078e-40 1.125111e-39 -1.99298e-40 -1.091026e-39 -6.74334e-40 1.28556e-39
-1.336434e-39 -8.41848e-40 8.74395e-40 5.19353e-40 4.84884e-40 -6.6983e-41 -8.7431e-41 -3.7826e-40
3.85856e-40 -2.7002e-41 1.93819e-40 7.3913e-40 3.44058e-40 9.52196e-40 -6.56627e-40 2.72555e-40
-7.69306e-40 3.324488e-38 -8.93402e-40 3.42348e-40 -1.220346e-39 7.83662e-40 -6.72172e-40 6.28935e-40
6.52583e-40 3.42617e-40 -6.59951e-40 7.8211713e-25 1.150431e-39 -1.104522e-39 1.355193e-39 -2.44228e-40
-1.106908e-39 2.27368e-40 6.2994e-40 -8.50269e-40 -1.078924e-39 -3.1982716e-19 4.3159e-40 -5.02789e-40
9.19186e-40 -1.14895e-39 1.217876e-39 -1.105793e-39 1.164995e-39 -8.1097e-40 8.8128e-41 -7.71195e-40
-4.2076e-40 9.43644e-40 2.56138e-40 -2.60007e-40 -1.28418e-39 1.034262e-39 -5.69984e-40 -5.30777e-40
-5.60054e-40 -1.64363e-40 -1.061254e-39 8.18857e-40 1.382724e-39 4.6048024e-38 -5.623e-40 1.29378e-39
-9.87908e-40 -5.75799e-40 1.166952e-39 -1.075767e-39 9.70786e-40 1.017893e-39 -1.057044e-39 -6.31411e-40
-8.02975e-40 5.69649e-40 -6.21504e-40 5.82062e-40 4.3073e-40 3.1334e-40 3.26678e-40 6.83371e-40
-1.03103e-40 3.95563e-40 2.82685e-40 -5.43387e-40 -1.184337e-39 -8.0051e-40 4.69785e-40 1.113042e-39
2.90537e-40 -1.22164e-40 -5.99753e-40 -2.2918e-41 2.55127e-40 -8.12809e-40 3.8522e-40 6.34829e-40
8.2277e-40 2.76209e-40 -5.82e-43 2.38718e-40 -6.45019e-40 -7.99588e-40 1.202154e-39 1.294332e-39
-3.81642e-40 1.249651e-39 -9.45274e-40 -1.214545e-39 -2.77082e-40 -1.017344e-39 -6.40386e-40 1.99269e-40
-7.91131e-40 1.21613e-40 7.60196e-40 -2.75117e-40 -3.65553e-40 5.14705e-38 -8.55334e-40 1.95023e-40
5.32664e-40 8.1512e-40 1.109234e-39 7.45356e-40 -2.54006e-40 6.56218e-40 -3.16856e-40 -6.38998e-40
9.60767e-40 -1.199846e-39 -1.131466e-39 -3.89247e-40 -5.09924e-40 3.05297e-40 1.286772e-39 6.68655e-40
-9.4677e-41 1.359187e-39 -2.19097e-40 1.143967e-39 -9.39187e-40 -1.080742e-39 -1.261885e-39 -1.62199e-40
-1.10502e-40 1.025844e-39 2.01634e-40 8.93745e-40 -3.89983e-40 -1.302772e-39 -9.95607e-40 1.312788e-39
-8.45628e-40 -9.893156e-39 1.08769e-39 -1.756035e-29 2.24118e-40 -2.8093995e-32 -8.0221e-40 1.3361e-40
1.06664e-40 9.45973e-40 -2.3204e-41 -1.04891e-40 3.78586e-40 5.73239e-40 9.58697e-40 -1.253596e-39
-2.02352e-40 -9.2997e-40 -7.5653e-41 -6.37591e-40 5.02808e-40 -8.28225e-40 -5.01207e-40 3.96664e-40

rnn.bias_ih_l0 f4 [128]
00000000: a5d9 0c3d bada fc3c b668 76bd 0ca5 14b9
00000010: 1e97 ef3c 2859 c73c d6ca f03c 125e 94bc
00000020: 1372 db3c 0644 3a3c 8cc7 0cba f502 453c
00000030: 053b b53c 1e4b 5f3c fc87 c43c 758e 15bc
00000040: 7ef5 1a3d 6372 22bd 7fe1 94bc 8e9d 2a3d
00000050: 9735 19bd a3da 5a3c 0839 913c a5ad 84bd
00000060: 1bcb 2dbc 141f 4c3d f9c6 d83c bd4f 183c
00000070: 6f89 1bbd 6bde 56bc 629d f93a 7966 a3bc
00000080: 2233 9e3c 488d 963b 5baa d53c c965 d0bc
00000090: 3631 323d 91e3 a33c 024e 70bc 45d2 50bc
000000a0: 3b8b 7e3c 12e0 a7bc 52ec 9e3c 5d52 633d
000000b0: 9d7e f93b d7e3 ef3b 45a8 6dbd 1ea3 d4bc
000000c0: fea0 11bd b561 1c3d ae47 42bd 3550 b9bc
000000d0: 5e6c 0ebd 31eb 603d 17fd 5ebd 9617 7b3c
000000e0: f4d7 38bc 4767 c33c a343 213d ae65 c6bc
000000f0: f8b1 3fbc 5469 793c 8e48 01bd 237f 573d
00000100: d9c9 a7bc db49 7abd ce90 27bd 2015 2fbd
00000110: 9003 65bd 5d10 81bc 84ec 043d c3a7 10bb
00000120: 7479 703d f61b c438 9694 1f3d bab5 e6bc
00000130: 8cc7 3e3d 45b6 883a 3740 dfbb f935 173b
00000140: 0c56 23bd 7750 043d 3ce4 5abd a2ff 413c
00000150: 9025 33bd ea7f 3e3d 26ec 84bb a6a9 063d
00000160: b9a6 523c f002 6d3d 3482 c3bc 0cb8 c23c
00000170: e83d c4bb 1004 cebc b101 06bd a8c9 743d
00000180: 67c6 be3c 655d 2b3b b56e 923c a446 22bd
00000190: c5a1 8fbd 241f b8bc b9f8 bf3c e774 acbc
000001a0: 2c29 6dbc 66b5 99bd 9932 c93c 40a8 2f3c
000001b0: a0dc 543d a7ca 93bc fca8 683d b99a 083d
000001c0: 32a4 0bbd f1c9 17bd d68a 043d 09d8 ffbb
000001d0: 2dd6 2d3d 157a cd3b f491 fbbb 3dcc bbbb
000001e0: db72 883c 0371 863d 60a6 8dbc ace9 97bc
000001f0: bce0 d5bc 1fb3 77bd 0435 1ebc e5bb 3cbd
0.03438725 0.030866016 -0.060158454 -0.00014175865 0.029246863 0.024334505 0.029393595 -0.018111262
0.026787793 0.011368757 -0.0005370311 0.012024631 0.02212287 0.013628749 0.023990624 -0.009128203
0.037831776 -0.03965987 -0.018173931 0.041654162 -0.037404623 0.013357791 0.01772739 -0.064784326
-0.010607506 0.049834326 0.026462065 0.009296355 -0.037972864 -0.013114552 0.0019044096 -0.019946324
0.019311491 0.0045944788 0.026082208 -0.02543916 0.043503962 0.020005973 -0.014667036 -0.012745445
0.015536125 -0.020492587 0.019399796 0.05549847 0.0076139704 0.007320862 -0.058021802 -0.025956687
-0.035553925 0.03817912 -0.04743164 -0.022621254 -0.034771316 0.054911796 -0.054440584 0.015325448
-0.011281956 0.023852957 0.039371144 -0.024218407 -0.011700146 0.015222866 -0.031563334 0.05261148
-0.02048199 -0.06110559 -0.04090958 -0.042744756 -0.0559116 -0.015754873 0.03245212 -0.002207265
0.058709577 9.3512164e-05 0.038960062 -0.028162826 0.04657702 0.0010430297 -0.006813075 0.0023072942
-0.039876983 0.0323033 -0.053440318 0.011840733 -0.043736994 0.046508707 -0.0040564714 0.032876633
0.012857133 0.05786413 -0.023865797 0.023769401 -0.005988825 -0.025148422 -0.032716457 0.059762627
0.023287965 0.0026148197 0.017875055 -0.03961815 -0.07013277 -0.022475787 0.02343403 -0.021051837
-0.014475148 -0.07505302 0.02456026 0.010721266 0.051968217 -0.018040968 0.05680178 0.03335068
-0.034092136 -0.03705782 0.032358967 -0.007807736 0.042440582 0.006270657 -0.007677311 -0.005731134
0.01665633 0.06564524 -0.017291248 -0.01854404 -0.026108138 -0.060473558 -0.009656195 -0.046077628

rnn.bias_hh_l0 f4 [128]
00000000: 6997 0fbd 3c99 b63c 6e65 633c d738 a23b
00000010: 0f5d b93b c2b9 2d3c 6ef4 42bd 6c9f cebb
00000020: 69d9 e539 ff66 a33c ffe5 053d d7e8 193d
00000030: de4d 9f3c 01c9 63bb fabf 5a3a 184c b63c
00000040: e034 07bc 291d 18bd 867d d23c 8d4d dbbc
00000050: ea6f babc 1b0f 483b 3de7 00bd 2641 c03b
00000060: 1684 513d 12d7 19bd 3be6 87bc ad9d 3e3c
00000070: 6363 24bd abe6 18bc 23cc 0a3d 1a06 483d
00000080: 4f79 653c 6b48 3dbd fdb9 043c 268e fb3a
00000090: 2184 1d3d 47e0 d7bc 499d 86bc dcf3 79bc
000000a0: 4a52 973c 25de 953a 04fa 973c d513 bbbc
000000b0: 5325 b1bc 0f19 bdbc c254 213d 12d3 41bc
000000c0: 0afb 2cbc 6b4a d7bc 8d2c 3dbc 48a2 d13c
000000d0: 6894 42bc aea3 d8bc 176f 913d aabf a9bc
000000e0: 73c9 b0bc d567 1a3d ea35 183d f3b7 453d
000000f0: 201e 5ebd 8275 103d 960b 38bd 4476 aa3b
00000100: 47fc 643d de58 783d e3d2 f6bc bc09 f5bc
00000110: 3229 113d 8226 beba 248e adbb cf41 d5bc
00000120: a9c1 44bb 03a2 68bc f209 203c 8ae1 5d3d
00000130: 3941 d3bc fbc7 f53b 85c3 673c ba63 533d
00000140: d6e5 e93b 870f 1ebd 9685 f03c 9643 0cbd
00000150: 2552 463c b849 23bc ffa3 023c b490 86bc
00000160: a5d5 17bb 9481 f2ba 2d98 173d c187 73bd
00000170: 78d9 a2bd 007d 843b 1370 05bd 80ac 3bbb
00000180: ffec 45bb a5bd 58bd 1b51 32bd ce9e 0c3c
00000190: f165 b73c faf7 5e3d 6eeb 7e3c 4ad7 9fbc
000001a0: 060d 1dbd f187 8d3d 443f 69bb d5c9 e2bc
000001b0: 2d86 f53b 2889 b23b 2541 fbbb ba07 823c
000001c0: 9e01 5bbc 32c3 a2bc ec46 27bc 267b 88bd
000001d0: 40c8 493c f59e cabc dec5 5e3d f35e 8e3c
000001e0: 6411 163d cb2a 28bc fbff 2e3c c78e 90bc
000001f0: 8b46 a8bc a97a 073d a45e a5bc f173 8d3c
-0.035056505 0.022289865 0.013879163 0.0049506235 0.0056568454 0.01060337 -0.047596388 -0.0063056257
0.00043840267 0.019946573 0.032690044 0.03757557 0.01944631 -0.003475726 0.0008344647 0.022253081
-0.0082523525 -0.037137184 0.02569462 -0.026770378 -0.022758443 0.0030526582 -0.031470526 0.0058671413
0.051151358 -0.037558623 -0.016589275 0.0116342725 -0.040133845 -0.009332339 0.033886086 0.048833944
0.014005973 -0.04621164 0.008100984 0.0019192144 0.038456086 -0.026352061 -0.016432421 -0.0152558945
0.018471856 0.0011434002 0.018551834 -0.022836605 -0.021624243 -0.023083238 0.039387472 -0.011830108
-0.010557899 -0.026280602 -0.011546266 0.025590077 -0.011876203 -0.026445236 0.07101267 -0.020721275
-0.021580433 0.03769668 0.03716079 0.04827113 -0.05422795 0.035268314 -0.044932924 0.0052020866
0.055904653 0.060631625 -0.030129855 -0.029911868 0.035439678 -0.0014507326 -0.0052964855 -0.026032357
-0.0030022657 -0.014198783 0.009767996 0.05417017 -0.025787937 0.007500646 0.014145737 0.05160878
0.0071379943 -0.038589027 0.029360574 -0.034244142 0.012104546 -0.009966306 0.00797367 -0.016426422
-0.0023168114 -0.0018501752 0.03701036 -0.059455637 -0.07951635 0.0040432215 -0.032577585 -0.0028636754
-0.0030201075 -0.052915234 -0.04353438 0.008582784 0.022387477 0.054435708 0.0155590605 -0.019511838
-0.0383425 0.069106944 -0.0035590688 -0.027684132 0.0074928016 0.005448479 -0.007667678 0.015872825
-0.013367085 -0.019868467 -0.01020978 -0.06664114 0.01231581 -0.024734 0.05438792 0.01737926
0.03663768 -0.010264109 0.010681148 -0.017646207 -0.02054145 0.033075962 -0.02018673 0.0172672

fc.weight f4 [4, 128]
00000000: 7de0 143d 8469 d03d 9290 32be de7a 82be
00000010: e42d 0abe 83b6 3d3e f6bd bebe 05b3 153e
00000020: 1fc3 223e d3bb 18bd 28f9 2fbe 63a4 30bd
00000030: 410c 8c3e 95f3 4a3e d5dd f23d 9205 7cbe
00000040: 5217 46bb 1486 953e 0198 d03d edbc aebd
00000050: 50e2 6bbd ff63 483e 128c 2dbe 7632 603e
00000060: 4add c7bd e6db 5b3e 6cc5 873e ae16 c7be
00000070: 8778 0ebe 24df 603e a294 893d f063 b13d
00000080: 7ae7 4b3e 88e6 903e 6ac9 033e ae68 833e
00000090: eadd 22be 8239 5c3e 0d99 3bbb 3008 5cbe
000000a0: 96ef 4f3d b582 d23d c1a2 33be 3b1f c43d
000000b0: fc26 3a3e 8378 d03d d49c d83d 669d 16be
000000c0: aea2 7abe da5d 92bd 9da6 413e f6c9 43be
000000d0: 9c14 57be 66f8 2ebe 05f6 bd3e ea15 9f3c
000000e0: 61f6 643d c5a3 70be 79ef 7e3d 7bb9 353e
000000f0: 9940 603e 46e8 843e 1f9b 1dbe c240 6e3e
00000100: c82f 06be 4ec5 ac3e 24d8 4c3e a655 5ebe
00000110: aa55 963d c07c 6b3e 1303 0c3c 0900 6bbe
00000120: 4221 64bd 7e21 56be 008d 1f3e 27c1 4d3d
00000130: a523 e4bd d716 9fbb a03d 513e f55a 363e
00000140: 2ce7 b4be 9b75 1cbe f6eb 9b3e 3cad 343d
00000150: b320 9abd bc87 bfbc 5f9e a03e e80a 1e3d
00000160: 4e9c 393e 88bf b2bc 70c3 b4be 4fb3 6bbd
00000170: 1530 143d 53a3 b6be 1712 21be bf62 6e3e
00000180: e488 b0bd 632b 1a3d cb9d 38be a337 2e3e
00000190: 8c1e 893e a4f0 1fbe 893f ad3d fc33 013c
000001a0: 42a2 9cbe 998f bcbe 4ebb b03e 7e5d b0be
000001b0: 21d7 29bd acc5 3e3e 06dc 083e 818f f3bb
000001c0: f745 07bd b6b4 69bd 8305 4a3e 6d2e 99bd
000001d0: c100 7e3c cd01 e93d b95d 883e 480a de3d
000001e0: bf24 a73e 6fcc 9c3d a10d 47be 6207 153c
000001f0: aeb1 28be 33f0 3dbe c36d e03d 81a5 d4bd
00000200: 9ea2 7dbe 6c01 f83d a0dd 03be 7a4e 263e
00000210: 64e0 16be aca7 ad3b ae33 4a3e d5d8 143e
00000220: 9351 c53c 3ef0 e83d 0c92 18be 4c1a 993e
00000230: 9849 53be 9b2d bf3d d63b 56be 335e c73e
00000240: 7b7a 993e 9143 f4bd 0807 863d 88c5 823e
00000250: 764c ddbd 9562 bfbb 0ad4 d83e f139 9bbe
00000260: ae49 903e 825b a23d edba 5dbd ea95 3f3e
00000270: 8096 e53c 1ea2 5b3d 09b1 38be 8801 cd3d
00000280: 89d8 c5bd b769 05be f77b 92bc 56f5 79bd
00000290: f640 9e3e 95fb bb3c 9f0f 64be 780f cbbd
000002a0: d5e6 b9bd 9669 98bd 1acd ecbb abac 19ba
000002b0: c45a 153e ea63 a5be 2894 fb3d 7ccc 32be
000002c0: 6634 d63c e6e3 39be 1161 0a3e 1441 e9bd
000002d0: 5700 18bc 03b1 e83c 5f6e 8cbe 4721 713e
000002e0: 54f0 8dbe de22 793c 8f1a 383e 027f 233d
000002f0: 8d5a debd adcf c4be 7322 efbd 6ef4 40be
00000300: 5e59 9f3e 29d2 e1be b278 5ebb 82c6 50bc
00000310: c822 253e 07fa 98bc 1fc0 2d3e 9ab5 afbd
00000320: 85a3 7f3e d451 ddbd 326e ea3d 9bf5 123e
00000330: 2890 4abe 1475 ed3c ef24 cebd d08a 81bd
00000340: fc02 7c3e fd4b cf3d 163e a0be 53d9 1e3e
00000350: 1add 4ebe 9bf1 c63d 2b53 26be 2220 53be
00000360: 0769 973d 7f69 703e 1acb f73d f525 4fbe
00000370: 59dd 8abe b8c8 e13d bd79 44be fc12 c03d
00000380: 835e 4cbe 2b03 8fbe d282 d8bd 9f84 ee3d
00000390: 1c60 b8be 1c16 dd3d 3812 e63d 86df a3be
000003a0: f006 c63e f765 2e3e c0f5 ecbd ec49 4a3e
000003b0: 2f92 813e 8d76 46be 09a2 2d3e 15e3 7c3e
000003c0: 7f63 ea3d 151f 0bbe 9b26 893d 715d 32be
000003d0: 1652 0a3e 4c85 9dbe b63a ae3c a74e cb3d
000003e0: 993a 5ebe d963 0a3e 0e9f 52bd 77ff 1fbe
000003f0: 2b33 b1bc ae1e 953e ca93 273e 5bf7 09be
0.0363469 0.101763755 -0.17437962 -0.25484365 -0.13494068 0.18526654 -0.37254304 0.14619072
0.15894745 -0.037288498 -0.1718489 -0.04312552 0.273531 0.19819482 0.11858717 -0.246115
-0.0030226302 0.29203856 0.101852424 -0.085321285 -0.057588875 0.19569395 -0.16947964 0.2189425
-0.097590044 0.21470603 0.26517808 -0.3888449 -0.13913165 0.21960121 0.067178026 0.0866164
0.1991252 0.2830088 0.12869802 0.25665802 -0.15904966 0.21506312 -0.002862516 -0.21487498
0.050765596 0.10278837 -0.17542554 0.09576269 0.18178934 0.10179236 0.105767876 -0.1470848
-0.2447612 -0.07146807 0.18911214 -0.1912001 -0.21003956 -0.17086944 0.3710176 0.01941963
0.055899028 -0.23499973 0.062240098 0.17746536 0.21899642 0.2595846 -0.15391205 0.2326689
-0.13104165 0.33744282 0.20004326 -0.2171236 0.07340558 0.22996807 0.008545655 -0.22949232
-0.05569578 -0.20911214 0.15581131 0.050233033 -0.11139611 -0.0048550176 0.20433664 0.17808135
-0.3533262 -0.15279238 0.3045346 0.04411052 -0.07525768 -0.023380153 0.31370828 0.03858462
0.18126032 -0.021819845 -0.35305357 -0.05754405 0.036178667 -0.35671481 -0.15729557 0.23279856
-0.0861986 0.037639033 -0.18028943 0.17013411 0.26781118 -0.15619141 0.08459384 0.007885929
-0.30592543 -0.36828306 0.34517902 -0.3444633 -0.04146493 0.18630093 0.13365182 -0.0074328785
-0.033025708 -0.057057105 0.19728665 -0.07479558 0.015503109 0.113772966 0.26634005 0.10841805
0.32645223 0.0765618 -0.19438793 0.0090959985 -0.1647403 -0.1854866 0.109584354 -0.1038313
-0.24769065 0.12109646 -0.12877512 0.16240874 -0.14734036 0.005299529 0.19746277 0.1453584
0.02408675 0.113739476 -0.14899462 0.29902875 -0.20633543 0.093348704 -0.20921263 0.38939056
0.29976258 -0.1192695 0.0654431 0.2554133 -0.108055994 -0.0058406093 0.42349273 -0.30317643
0.28181213 0.0792761 -0.054133344 0.18709531 0.028025866 0.053621404 -0.18036284 0.10010058
-0.096604414 -0.13028608 -0.017881377 -0.061024986 0.30908936 0.022947112 -0.22271584 -0.0991506
-0.09077231 -0.07442014 -0.0072265984 -0.00058622163 0.14585406 -0.3230279 0.12284118 -0.17460817
0.026148032 -0.18153343 0.1351359 -0.11389366 -0.009277425 0.028404718 -0.27427956 0.2354785
-0.27722418 0.015206067 0.17978881 0.039916046 -0.10857115 -0.38439694 -0.116764925 -0.18843243
0.3112287 -0.44105652 -0.0033946452 -0.01274264 0.16126549 -0.01867391 0.1696782 -0.085795596
0.24964722 -0.10806623 0.11446799 0.14351504 -0.19781554 0.028986491 -0.10065638 -0.063253045
0.24610513 0.101219155 -0.31297368 0.1551259 -0.20201531 0.09714051 -0.16242664 -0.20617726
0.07393079 0.23477744 0.120992854 -0.20229323 -0.27122 0.11024612 -0.19187064 0.09378621
-0.19957928 -0.27932104 -0.10571827 0.11646389 -0.36010826 0.10795233 0.11233944 -0.32006472
0.38677168 0.17031084 -0.115703106 0.19754761 0.25306842 -0.19381161 0.16956343 0.24696
0.114447586 -0.13586076 0.066968165 -0.17418458 0.13507876 -0.3076576 0.02126823 0.09927111
-0.2170204 0.13514651 -0.051421218 -0.15624796 -0.021630844 0.2912497 0.16364971 -0.13473265

fc.bias f4 [4]
00000000: 12b8 39bc 64d7 0dbd 8cd2 203c 27ba 67bc
-0.01133539 -0.03462924 0.009815823 -0.014143503
