input/rnn_model.pth (torch, 813986 bytes, 10 tensors)

recurrent.weight_ih_l0 f4 [512, 7]
0	0x3aa8733a	0.0012851723
1	0x3c954966	0.018223476
2	0xbb56c73f	-0.0032772569
3	0x3cba4b3a	0.022740949
4	0x3d81b913	0.06334128
5	0x3d788e18	0.060682386
6	0xbdad6978	-0.08467382
7	0xbd9f3c01	-0.07775117
8	0x3d56ba65	0.052423853
9	0x3d928863	0.0715492
10	0xbb3200c7	-0.0027161108
11	0xbd063cf4	-0.032772973
12	0x3dd7f8bb	0.105454884
13	0xbd1f502d	-0.03889482
14	0x3d06583d	0.032798994
15	0x3d854565	0.065073766
16	0x3d8d3f4a	0.06896837
17	0xbcbd8e49	-0.023139136
18	0x3d9dc586	0.0770369
19	0xbd415a16	-0.047205053
20	0xbd0f4175	-0.034974534
21	0xbc3cec5f	-0.011530965
22	0x3cca8d79	0.024725663
23	0x3c12819b	0.008942033
24	0x3d3fa4ab	0.0467879
25	0xbd1232b7	-0.035692897
26	0x3d42b8dd	0.04753958
27	0xbdaedae9	-0.085378475
28	0xbdab33b7	-0.08359473
29	0xbdd1aa47	-0.10237556
30	0xbd0725aa	-0.032994904
31	0x3dab1234	0.08353081
32	0x3db76874	0.0895547
33	0x3d3bf0a9	0.04588381
34	0xbd7e3959	-0.06206641
35	0xbdb1c225	-0.08679608
36	0x3cd93078	0.02651237
37	0x3d6928a6	0.05692353
38	0xbdc33519	-0.09531612
39	0xbd9a0990	-0.07521355
40	0xbc6ea0a1	-0.014564664
41	0xbd999ee8	-0.07501012
42	0xbcca444d	-0.024690771
43	0x3c73d54a	0.014882395
44	0x3dcef1d4	0.10104719
45	0xbbbfe051	-0.005855598
46	0xbdc0aa58	-0.094074905
47	0xbc9e1adc	-0.019299917
48	0x3dcadf66	0.09905891
49	0x3d4dc20f	0.050233897
50	0x3ce50e19	0.027960824
51	0x3c90c167	0.017670346
52	0x3ce3f806	0.027828228
53	0x3db4aaea	0.08821662
54	0x3bc4264e	0.0059860116
55	0xbdcdb556	-0.10044353
56	0x3cbdc30f	0.0231643
57	0xbbd9b325	-0.00664367
58	0xbc70cc0c	-0.014697086
59	0x3d398bde	0.045299403
60	0x3c70d16a	0.014698366
61	0xbdbc2808	-0.09187323
62	0x3dcb8b8c	0.09938726
63	0xbdd0b93f	-0.10191583
64	0x3daa6fce	0.08322106
65	0xbda7aba2	-0.08187033
66	0xbca84b0f	-0.020543603
67	0x3d557c3e	0.05212044
68	0x3dce3701	0.10069085
69	0xbd8f8b4b	-0.0700899
70	0x3c4654f3	0.012105214
71	0x3d421060	0.047378898
72	0xbd9dcc03	-0.07704928
73	0x3dc66950	0.096880555
74	0x3d9205d9	0.071300216
75	0xba535140	-0.00080611184
76	0x3d78b058	0.06071505
77	0x3d90c625	0.07069043
78	0x3d1e4c15	0.038646776
79	0xbc4ce9a3	-0.012506875
80	0x3d4af7ab	0.0495526
81	0xbdad6d98	-0.08468169
82	0xbdc5dc27	-0.09661131
83	0xbda1ab08	-0.0789395
84	0xbda8e479	-0.08246703
85	0xbdafae27	-0.08578139
86	0xbd8d93a5	-0.069129266
87	0x3d03bb9b	0.032161336
88	0xbd76a61c	-0.060217008
89	0xbdac77f9	-0.084213205
90	0x3dc4b489	0.09604747
91	0xbcd8cfbc	-0.026466243
92	0xbbf9c6d3	-0.0076225786
93	0xbd874aa5	-0.06606034
94	0xbd5743ae	-0.05255478
95	0xbcc502ef	-0.02404925
96	0x3dc10b49	0.094259806
97	0xbdbef130	-0.093233466
98	0x3d273264	0.04081954
99	0xbc548fff	-0.0129737845
100	0xbd8127a8	-0.06306392
101	0x3dd3876c	0.10328564
102	0xbd94a894	-0.07258716
103	0xbdaaa2e6	-0.08331852
104	0x3c5db552	0.013532
105	0xbdcc464b	-0.09974345
106	0xbca3b39f	-0.019983111
107	0xbc99e8d0	-0.018787771
108	0x3cd6521a	0.026162196
109	0xbc5b1e35	-0.013373901
110	0x3da35e9a	0.07977028
111	0xbcc8e56b	-0.024523458
112	0x3d357783	0.04430343
113	0xbc8ecc0d	-0.017431283
114	0xbcb14fc5	-0.021644482
115	0x3bb7a2ec	0.0056041386
116	0x3d1584d7	0.03650364
117	0xbdc88431	-0.097908385
118	0xbd6d6088	-0.057953387
119	0xbdc2f9fd	-0.09520338
120	0x3db8e2e2	0.090276495
121	0x3d253b55	0.040339787
122	0xbd613119	-0.054978464
123	0xbd3cc729	-0.04608837
124	0x3ce838f8	0.028347477
125	0x3d603474	0.054737523
126	0x3cc68923	0.024235314
127	0x3b8cf141	0.0043012206
128	0xbd281e84	-0.041044727
129	0xbdb84a8f	-0.08998596
130	0xbd899835	-0.06718484
131	0x3d5debdb	0.054180007
132	0xbd72d5c1	-0.059285883
133	0x3c9e931b	0.019357255
134	0xbc38dbb4	-0.01128285
135	0xbd8c60c9	-0.06854398
136	0x3d34e11f	0.044160005
137	0x3d994c8a	0.07485302
138	0x3da0e443	0.078560375
139	0xbdcd6f0b	-0.100309454
140	0xbd083434	-0.03325291
141	0xbd71e353	-0.059054684
142	0x3d17d36e	0.03706687
143	0xbd7baa3f	-0.061441656
144	0xbd1f19f9	-0.03884313
145	0xbd9a8087	-0.07544046
146	0x3db0d570	0.0863446
147	0xbdcc256d	-0.09968076
148	0x3d8c6122	0.06854464
149	0x3d15109f	0.036392804
150	0x3d987657	0.074444465
151	0x3c42e45b	0.0118952645
152	0xbd68019d	-0.056642164
153	0x3d764419	0.060123537
154	0xbd6aec9b	-0.05735455
155	0x3dc42ff2	0.09579457
156	0xbbc05bd2	-0.005870321
157	0xbc4c5e8d	-0.012473715
158	0x3d2dbe06	0.04241755
159	0xbb6950b2	-0.0035601077
160	0xbd89afd7	-0.06722992
161	0x3da48327	0.08032828
162	0xbce3dde5	-0.027815768
163	0xbd9cb39e	-0.07651447
164	0xbd7a7538	-0.061146945
165	0x3d9e1d03	0.07720377
166	0xbd4b2574	-0.049596265
167	0xbd8890be	-0.066682324
168	0x3c94ec44	0.018179066
169	0xbdc94402	-0.098274246
170	0x3d56e109	0.052460704
171	0xbd801ddf	-0.062556975
172	0xbbb25d14	-0.0054432247
173	0xbcbd64d6	-0.023119371
174	0xbcb2cde1	-0.021826686
175	0x3d58ff82	0.052978046
176	0xbcec6651	-0.028857382
177	0xbbaf2870	-0.0053453967
178	0x3d86acef	0.06575953
179	0x3d3c8d3e	0.046033137
180	0xbc682370	-0.014168605
181	0xbd873f35	-0.06603853
182	0x3c6bb5af	0.014386578
183	0xbcaa4744	-0.020785935
184	0x3ca37e05	0.019957552
185	0xbd821fbf	-0.06353711
186	0x3db99296	0.09061162
187	0xbd97ad64	-0.074061185
188	0xbd95251f	-0.07282471
189	0x3d2abf02	0.041686065
190	0xbd8cb300	-0.06870079
191	0xbdb767c3	-0.08955338
192	0x3d44f199	0.048081968
193	0xbc4c62aa	-0.012474695
194	0xbdc987cd	-0.09840355
195	0x3cd8c25b	0.026459863
196	0xbd2b8566	-0.041875266
197	0xbd88c31a	-0.06677838
198	0xbc4f4cee	-0.012652619
199	0x3c22770e	0.00991608
200	0x3dc91c36	0.09819834
201	0x3d8492bf	0.06473302
202	0x3d920742	0.071302906
203	0x3cd12140	0.02552855
204	0xbdafcaa1	-0.0858357
205	0x3db7e8ab	0.08979925
206	0xbceb3404	-0.028711326
207	0x3c8b6eb6	0.017020565
208	0xbb0097f4	-0.001962182
209	0x3c357231	0.011074589
210	0x3c00ee08	0.007869251
211	0xbd951c3f	-0.07280778
212	0xbd3e06f9	-0.04639337
213	0xbd3bf83a	-0.045891024
214	0x3b79dd4a	0.0038126283
215	0xbd8e31ac	-0.06943068
216	0x3d922d1f	0.071375124
217	0x3db1cfac	0.086821884
218	0xbd013cdb	-0.031552177
219	0xbd3008d8	-0.042977184
220	0x3db5eaf2	0.08882703
221	0xbd275fea	-0.040862955
222	0xbc039282	-0.008030536
223	0x3dcd43ee	0.10022722
224	0xbcdbf989	-0.026852386
225	0x3d4cb578	0.04997775
226	0x3d0b3c99	0.033993337
227	0x3d0cb9bd	0.03435682
228	0xbdcf76da	-0.10130091
229	0x3d76ffdc	0.0603026
230	0x3cdb0548	0.026735917
231	0x3d604c9a	0.054760553
232	0xbd0c8303	-0.03430463
233	0x3d67d72a	0.05660168
234	0x3cd6185c	0.026134662
235	0x3bba7c71	0.005691104
236	0xbdaab97f	-0.08336162
237	0x3b34e93c	0.0027604839
238	0x3dc2fa47	0.09520393
239	0xbd679362	-0.05653704
240	0xbd37c9fe	-0.04487037
241	0xbdd3697b	-0.10322853
242	0xbda92774	-0.08259478
243	0xbd8ce2ba	-0.06879182
244	0x3d3200d0	0.043457806
245	0xbd8ed591	-0.06974328
246	0xbd8863e9	-0.06659681
247	0xbd89fd72	-0.06737794
248	0xbda10076	-0.07861416
249	0xbd8f7bf8	-0.07006067
250	0x3db65b74	0.08904162
251	0xbd985493	-0.07438006
252	0x3c0c75ef	0.008573039
253	0xbd41f917	-0.04735669
254	0x3dca01f4	0.09863654
255	0xbbb165ec	-0.0054137614

recurrent.weight_hh_l0 f4 [512, 128]
0	0x3943cf13	0.0001867379
1	0x3909cccb	0.0001314163
2	0x3d76ea33	0.060281944
3	0x3d01738d	0.03160434
4	0xbc9ba83c	-0.019001119
5	0xbd668edf	-0.056288596
6	0xb978f89c	-0.00023743737
7	0xbd38b26e	-0.04509204
8	0xbbdf8909	-0.006821756
9	0xbd1b72dd	-0.03795134
10	0x3d872872	0.06599511
11	0xbc5309b4	-0.012880731
12	0xbd9e4e20	-0.07729745
13	0x3c126553	0.00893529
14	0x3c4363c6	0.011925643
15	0x3d6bcd99	0.05756912
16	0x3c008bf5	0.007845868
17	0xbc894d6c	-0.01676055
18	0xbda436a6	-0.08018236
19	0x3ba95394	0.005167434
20	0x3da1a9dc	0.07893726
21	0x3c80b8a5	0.015713045
22	0xbc638832	-0.013887452
23	0x3c5d4f81	0.013507725
24	0x3cb71c9b	0.022352507
25	0x3db7702c	0.08956942
26	0xbd68bb09	-0.056818996
27	0xb867117e	-5.5090983e-05
28	0xbd1b8027	-0.037964012
29	0xbc610aea	-0.013735512
30	0xbd67a410	-0.056552947
31	0x3d484e9e	0.0489031
32	0x3a2db51a	0.00066264125
33	0xbd1f9537	-0.03896066
34	0xbc380f43	-0.011234107
35	0x3d52bacf	0.051447686
36	0xbd2d0035	-0.042236526
37	0x3da27eb3	0.07934322
38	0x3d5bb647	0.05364063
39	0xbd0cedbc	-0.03440641
40	0x3ca2af6c	0.019859038
41	0xbcf4a645	-0.02986444
42	0xbd8152e2	-0.06314637
43	0x3d4c0c7b	0.04981659
44	0xbda6b6c8	-0.081403315
45	0xbd821541	-0.0635171
46	0xbc85ab40	-0.01631701
47	0xbd8586b3	-0.065198325
48	0xbd94609b	-0.072449885
49	0x3dbc0c81	0.091820724
50	0x3bba507e	0.005685865
51	0xb8464991	-4.7275393e-05
52	0x3a283e0c	0.0006417937
53	0x3d1c2585	0.03812172
54	0x3d01ec26	0.03171935
55	0xbda6804f	-0.08129942
56	0x3d3faa78	0.04679343
57	0x3d60cc57	0.054882374
58	0xbcf7e987	-0.030262722
59	0xbd725658	-0.059164375
60	0x3d2afba3	0.041743886
61	0xbd0858ee	-0.033287935
62	0xbd1d5fa9	-0.038421307
63	0x3b88351d	0.004156722
64	0x3d55250d	0.052037288
65	0x3c2b333f	0.01044923
66	0xbbddff3f	-0.0067748125
67	0xbd89085b	-0.06691047
68	0xbd3ebf71	-0.04656929
69	0xbd9b2605	-0.07575611
70	0xbc9805f8	-0.018557534
71	0x3dad28f6	0.08455078
72	0xbce78e04	-0.02826596
73	0x3d286114	0.041108206
74	0xbd4baeed	-0.04972737
75	0x3cf0bce9	0.029386954
76	0x3d8136ef	0.06309306
77	0x3d95d4f5	0.07316009
78	0x3d877d03	0.06615641
79	0xbccafd91	-0.024779113
80	0x3bafd1b7	0.005365576
81	0x3b16d0fd	0.002301275
82	0x3d47fb9a	0.04882393
83	0x3a1962ab	0.00058511895
84	0x3d8f12bc	0.06985995
85	0xbc051836	-0.008123448
86	0xbca078df	-0.019588886
87	0x3bfd688a	0.0077334093
88	0x3d59e26b	0.053194445
89	0x3db495a1	0.08817602
90	0x3d400590	0.046880305
91	0xbcf00367	-0.029298497
92	0x3da5cb10	0.08095372
93	0xbc2d5038	-0.010578208
94	0xbc092da1	-0.008372695
95	0xbd8b0a77	-0.067891054
96	0x3db08a51	0.08620132
97	0xbd85dfe6	-0.06536846
98	0xbd3f3479	-0.0466809
99	0x3b2f2b14	0.0026728557
100	0xbd9499de	-0.0725591
101	0xbd8192e9	-0.06326849
102	0x3c95d6d5	0.018290916
103	0xbc84e5fb	-0.016222944
104	0xbd8729b2	-0.065997496
105	0xbd847630	-0.06467855
106	0xbd99a7d0	-0.07502711
107	0xbc4b3cbc	-0.012404617
108	0x3d9b2d4c	0.07576999
109	0x3d71b8b5	0.05901404
110	0x37700518	1.4306301e-05
111	0x3d9ce597	0.07660978
112	0x3da8ade3	0.08236291
113	0xbc77d09f	-0.015125423
114	0xbdae6452	-0.08515228
115	0xbc26dc8d	-0.010184419
116	0x3c59ec38	0.013300948
117	0x3d6e8a49	0.058237348
118	0xbc860eb9	-0.016364442
119	0x3db1e137	0.086855344
120	0x3d85141c	0.06497976
121	0x3d9760d2	0.07391514
122	0xbd663758	-0.056205124
123	0x3d1ddb3b	0.038539153
124	0xbb096789	-0.0020966253
125	0xbdbcd488	-0.092202246
126	0xbd42ebec	-0.047588274
127	0xbdb3c774	-0.08778277
128	0xbdb5166f	-0.088421695
129	0x3da5e565	0.08100394
130	0xbd44e969	-0.04807416
131	0x399bd8f0	0.00029725535
132	0xbc8b8d57	-0.01703517
133	0x3da40ca6	0.08010225
134	0xbd8fe6fa	-0.07026477
135	0xbd414597	-0.047185507
136	0xbd34d787	-0.044150855
137	0x3d623396	0.055224977
138	0x3c38d159	0.011280381
139	0x3d30cd19	0.043164346
140	0xbdb0957a	-0.086222604
141	0x3d6ff12d	0.058579613
142	0x3a51fc9c	0.0008010359
143	0xbd31082e	-0.04322069
144	0x3d8d0435	0.06885568
145	0xbd0402f9	-0.032229397
146	0xbcb38b81	-0.021917107
147	0xbd74f9d2	-0.05980856
148	0xbd586c8d	-0.052837897
149	0xbda2ef2c	-0.07955775
150	0xbdacc754	-0.08436456
151	0xbccfbf30	-0.02535972
152	0xbc108632	-0.008821057
153	0xbd7e992b	-0.06215779
154	0xb94f9214	-0.00019795477
155	0xbd16a3e3	-0.03677739
156	0xbda837a2	-0.08213736
157	0x3c0d2fa4	0.008617315
158	0xbd89db66	-0.067313
159	0x3db5e7ec	0.08882126
160	0x3cda54ef	0.026651828
161	0x3ceccdf7	0.028906805
162	0x3d0018f8	0.031273812
163	0xbd855a04	-0.0651131
164	0x3d2894e2	0.04115761
165	0x38b27df6	8.5111635e-05
166	0xbd1b7fe9	-0.03796378
167	0x3b01a9f1	0.001978513
168	0x3d50409d	0.05084287
169	0x3d4bfbbf	0.04980063
170	0xbd9afd61	-0.075678594
171	0x3dadcc65	0.08486251
172	0xbd9329c4	-0.071857005
173	0x3c90c043	0.017669803
174	0xbbacb825	-0.005270975
175	0xbc85c078	-0.016327128
176	0x3d2402fb	0.040041905
177	0x3d61a5e7	0.055089857
178	0x3cd52b46	0.026021611
179	0x3d234240	0.039858103
180	0xbd83d2f3	-0.0643672
181	0x3d720d06	0.05909445
182	0x3d1eff58	0.038817734
183	0xbd250cae	-0.040295295
184	0xbd61cf93	-0.0551296
185	0xbdbcf864	-0.09227064
186	0xbd2abc7d	-0.041683663
187	0x3bd14f4b	0.0063876263
188	0x3d0e69b7	0.034768786
189	0x3d725e24	0.05917181
190	0xbcb273d7	-0.021783752
191	0xbc1cc8e8	-0.009569384
192	0xbd0f120d	-0.034929324
193	0x3d0f3f75	0.034972627
194	0xbc4d161b	-0.012517477
195	0x3da0fc8f	0.07860672
196	0x3d83902c	0.06423983
197	0x3d873c9e	0.06603359
198	0xbcc24224	-0.023713179
199	0x3cf14560	0.029452026
200	0x3d89eb99	0.0673439
201	0xbc95ac23	-0.018270558
202	0x3d2c45bf	0.042058703
203	0xbcf6b615	-0.03011612
204	0xbd1cd361	-0.038287524
205	0xb9188092	-0.00014543746
206	0xbceadf86	-0.028671037
207	0x3d3ec321	0.04657281
208	0x3cea9dfb	0.028639784
209	0x3d8bfdf6	0.068355486
210	0x3d8902b9	0.066899724
211	0xbd700c95	-0.05860575
212	0xbd65b276	-0.056078397
213	0xbd3f32fc	-0.046679482
214	0xbd9b9a93	-0.07597842
215	0x3db4872f	0.08814847
216	0xbd670842	-0.05640436
217	0x3c08c554	0.008347828
218	0x3d91b90f	0.07115375
219	0x3dacc38e	0.084357366
220	0xbc8e4fc2	-0.017372016
221	0x3ae00d1a	0.0017093748
222	0x3d9b78a9	0.075913735
223	0xbcfdebe4	-0.03099627
224	0xbcbfde39	-0.023421394
225	0xbd3f01d2	-0.046632595
226	0x3d296367	0.041354563
227	0x3d1cd08d	0.038284827
228	0xbb9f7bb5	-0.004867042
229	0x3c9a1804	0.01881028
230	0x3db682f3	0.08911695
231	0xbc16377c	-0.009168502
232	0xbd1ce997	-0.038308706
233	0xbcc759c0	-0.024334788
234	0xba6112c2	-0.0008585864
235	0xbd8ba56d	-0.06818662
236	0xbda99d4f	-0.08281957
237	0xbdbc5446	-0.091957614
238	0x3d876bbc	0.066123456
239	0x3d92a175	0.07159702
240	0x3c780854	0.015138704
241	0xbc9dd54a	-0.019266743
242	0xbd5e3967	-0.054253962
243	0xbc4ac8db	-0.012376989
244	0x3c2e5f30	0.010642812
245	0x3cad3b9a	0.021146584
246	0xbcc84286	-0.024445783
247	0xbc679bf5	-0.014136304
248	0xbd953081	-0.07284642
249	0x3d145146	0.03621032
250	0x3d859648	0.065228045
251	0xbc52ea87	-0.0128732985
252	0xbd3ab4fa	-0.04558275
253	0xbc4f8547	-0.012666053
254	0xbd5a9c65	-0.053371806
255	0xbcd68d3f	-0.026190398

recurrent.bias_ih_l0 f4 [512]
0	0xbafe74b1	-0.0019413439
1	0xbb717da5	-0.0036848572
2	0x3b7faf9e	0.0039014588
3	0x3b7fdb78	0.0039040726
4	0xbb247631	-0.0025094862
5	0x3ae2cb89	0.001730309
6	0x3a01f50c	0.00049574743
7	0x39fb65b5	0.00047950228
8	0xbb7d7857	-0.0038676464
9	0x3a334c87	0.00068397116
10	0x3b14f2b0	0.002272766
11	0xbad8e239	-0.0016546912
12	0x3b58cab4	0.0033079805
13	0x3b7d2eb9	0.0038632585
14	0xbb6deaa2	-0.0036303182
15	0x3b702041	0.0036640319
16	0x3b7f3558	0.0038941707
17	0x3b29128b	0.0025798406
18	0x3b40dbb8	0.0029427838
19	0x3b788043	0.0037918247
20	0xbb62f625	-0.0034631577
21	0x3b754f0d	0.003743115
22	0xbb78afc3	-0.003794656
23	0xbb7c7af2	-0.003852543
24	0x3b3a9642	0.0028470908
25	0x3b7b5ea3	0.0038355968
26	0x3b794823	0.0038037382
27	0x3b80911e	0.0039235493
28	0x3b7f7faa	0.0038986006
29	0xbb720b6d	-0.003693308
30	0x3b716c9b	0.0036838416
31	0x3b73e9ff	0.003721833
32	0xbb74f2e3	-0.0037376217
33	0xbabf2b0d	-0.0014584974
34	0xbb11d848	-0.0022254158
35	0x3b80aa6e	0.003926567
36	0xbb77696b	-0.0037752043
37	0xba9a6078	-0.0011778018
38	0x3b6235a6	0.003451684
39	0x3b3baa69	0.0028635508
40	0x3b7d1c23	0.0038621507
41	0xbb1a384f	-0.0023532098
42	0xba7f6405	-0.0009742382
43	0x3b03ff33	0.0020141124
44	0xbb66768f	-0.0035165881
45	0xbb1dc087	-0.0024071054
46	0x3b0f560a	0.0021871352
47	0x3b7e07d1	0.0038761983
48	0x3b727806	0.003699781
49	0x3b8177e8	0.0039510615
50	0x3a5e1118	0.0008471175
51	0x3b773438	0.0037720334
52	0x3b819914	0.003955016
53	0x3b214460	0.0024607405
54	0x3b137dee	0.002250548
55	0xbb635972	-0.0034690765
56	0x3a9aa2d4	0.0011797794
57	0xbb3c0682	-0.0028690402
58	0xbb6fee91	-0.0036610703
59	0x3b72df88	0.0037059505
60	0x3af0ee68	0.0018381597
61	0xbab968f2	-0.0014145656
62	0x3b827977	0.003981765
63	0x3b5b6f47	0.0033483075
64	0xbac40888	-0.0014956156
65	0xbb771c05	-0.003770591
66	0x368e036b	4.2323277e-06
67	0xbb60db98	-0.0034310576
68	0xbb768504	-0.0037615905
69	0x3b001784	0.0019545266
70	0x3b572d52	0.003283341
71	0x3b77ca25	0.0037809697
72	0xba07229a	-0.00051549973
73	0xb86218f5	-5.3905842e-05
74	0x3a0b277e	0.0005308314
75	0xbaf96590	-0.001902746
76	0x3b74e116	0.0037365607
77	0x3b79e269	0.0038129336
78	0xbb676461	-0.0035307633
79	0x3aac0896	0.0013125117
80	0xb8bb5c6f	-8.934072e-05
81	0x3b13fe3e	0.002258196
82	0x3b830a45	0.003999027
83	0xbad0da5d	-0.0015934218
84	0x3b7dd903	0.0038734085
85	0x3b6e6716	0.0036377362
86	0x3b7c5283	0.003850133
87	0x3b8058a0	0.003916815
88	0x3b067d87	0.0020521597
89	0xbb7fc304	-0.003902615
90	0x3b7c500e	0.0038499865
91	0x3b1a978f	0.002358887
92	0xbb185164	-0.0023241872
93	0xbb766344	-0.0037595788
94	0x3ad142df	0.0015965364
95	0x3b8201b6	0.003967489
96	0xbb745b01	-0.0037285688
97	0x3b793721	0.0038027244
98	0x3b806ee7	0.0039194706
99	0x3b6bbc52	0.0035970402
100	0x3b82846e	0.003983072
101	0xbb724535	-0.003696752
102	0xbb7adb23	-0.0038277588
103	0xbb489c9a	-0.003061092
104	0xbb763590	-0.0037568547
105	0x3b821d35	0.003970767
106	0xbb8005c9	-0.0039069396
107	0xbad7754f	-0.0016438159
108	0xbacd66a9	-0.0015670854
109	0x3b0ec46e	0.0021784562
110	0x3b573ef1	0.0032843912
111	0x3b4d946a	0.003136898
112	0xbb756a67	-0.0037447454
113	0x3b54dedb	0.0032481465
114	0x3b7c5e23	0.0038508258
115	0xbb7eedfd	-0.0038899176
116	0xbb75afca	-0.0037488812
117	0xb9c28225	-0.0003709953
118	0x3b72f380	0.0037071407
119	0xbb5b7015	-0.0033483554
120	0x3b813e06	0.0039441613
121	0xbb12d8ed	-0.002240713
122	0x3b161ead	0.0022906468
123	0x3b7f94fa	0.003899871
124	0x3b0a0d8f	0.002106521
125	0x3b7d6008	0.0038661975
126	0x3b7b2b92	0.003832553
127	0xbb71b96c	-0.0036884202
128	0x00000000	0.0
129	0x00000000	0.0
130	0x00000000	0.0
131	0x00000000	0.0
132	0x00000000	0.0
133	0x00000000	0.0
134	0x00000000	0.0
135	0x00000000	0.0
136	0x00000000	0.0
137	0x00000000	0.0
138	0x00000000	0.0
139	0x00000000	0.0
140	0x00000000	0.0
141	0x00000000	0.0
142	0x00000000	0.0
143	0x00000000	0.0
144	0x00000000	0.0
145	0x00000000	0.0
146	0x00000000	0.0
147	0x00000000	0.0
148	0x00000000	0.0
149	0x00000000	0.0
150	0x00000000	0.0
151	0x00000000	0.0
152	0x00000000	0.0
153	0x00000000	0.0
154	0x00000000	0.0
155	0x00000000	0.0
156	0x00000000	0.0
157	0x00000000	0.0
158	0x00000000	0.0
159	0x00000000	0.0
160	0x00000000	0.0
161	0x00000000	0.0
162	0x00000000	0.0
163	0x00000000	0.0
164	0x00000000	0.0
165	0x00000000	0.0
166	0x00000000	0.0
167	0x00000000	0.0
168	0x00000000	0.0
169	0x00000000	0.0
170	0x00000000	0.0
171	0x00000000	0.0
172	0x00000000	0.0
173	0x00000000	0.0
174	0x00000000	0.0
175	0x00000000	0.0
176	0x00000000	0.0
177	0x00000000	0.0
178	0x00000000	0.0
179	0x00000000	0.0
180	0x00000000	0.0
181	0x00000000	0.0
182	0x00000000	0.0
183	0x00000000	0.0
184	0x00000000	0.0
185	0x00000000	0.0
186	0x00000000	0.0
187	0x00000000	0.0
188	0x00000000	0.0
189	0x00000000	0.0
190	0x00000000	0.0
191	0x00000000	0.0
192	0x00000000	0.0
193	0x00000000	0.0
194	0x00000000	0.0
195	0x00000000	0.0
196	0x00000000	0.0
197	0x00000000	0.0
198	0x00000000	0.0
199	0x00000000	0.0
200	0x00000000	0.0
201	0x00000000	0.0
202	0x00000000	0.0
203	0x00000000	0.0
204	0x00000000	0.0
205	0x00000000	0.0
206	0x00000000	0.0
207	0x00000000	0.0
208	0x00000000	0.0
209	0x00000000	0.0
210	0x00000000	0.0
211	0x00000000	0.0
212	0x00000000	0.0
213	0x00000000	0.0
214	0x00000000	0.0
215	0x00000000	0.0
216	0x00000000	0.0
217	0x00000000	0.0
218	0x00000000	0.0
219	0x00000000	0.0
220	0x00000000	0.0
221	0x00000000	0.0
222	0x00000000	0.0
223	0x00000000	0.0
224	0x00000000	0.0
225	0x00000000	0.0
226	0x00000000	0.0
227	0x00000000	0.0
228	0x00000000	0.0
229	0x00000000	0.0
230	0x00000000	0.0
231	0x00000000	0.0
232	0x00000000	0.0
233	0x00000000	0.0
234	0x00000000	0.0
235	0x00000000	0.0
236	0x00000000	0.0
237	0x00000000	0.0
238	0x00000000	0.0
239	0x00000000	0.0
240	0x00000000	0.0
241	0x00000000	0.0
242	0x00000000	0.0
243	0x00000000	0.0
244	0x00000000	0.0
245	0x00000000	0.0
246	0x00000000	0.0
247	0x00000000	0.0
248	0x00000000	0.0
249	0x00000000	0.0
250	0x00000000	0.0
251	0x00000000	0.0
252	0x00000000	0.0
253	0x00000000	0.0
254	0x00000000	0.0
255	0x00000000	0.0

recurrent.bias_hh_l0 f4 [512]
0	0xbafe74b1	-0.0019413439
1	0xbb717da5	-0.0036848572
2	0x3b7faf9e	0.0039014588
3	0x3b7fdb78	0.0039040726
4	0xbb247631	-0.0025094862
5	0x3ae2cb89	0.001730309
6	0x3a01f50c	0.00049574743
7	0x39fb65b5	0.00047950228
8	0xbb7d7857	-0.0038676464
9	0x3a334c87	0.00068397116
10	0x3b14f2b0	0.002272766
11	0xbad8e239	-0.0016546912
12	0x3b58cab4	0.0033079805
13	0x3b7d2eb9	0.0038632585
14	0xbb6deaa2	-0.0036303182
15	0x3b702041	0.0036640319
16	0x3b7f3558	0.0038941707
17	0x3b29128b	0.0025798406
18	0x3b40dbb8	0.0029427838
19	0x3b788043	0.0037918247
20	0xbb62f625	-0.0034631577
21	0x3b754f0d	0.003743115
22	0xbb78afc3	-0.003794656
23	0xbb7c7af2	-0.003852543
24	0x3b3a9642	0.0028470908
25	0x3b7b5ea3	0.0038355968
26	0x3b794823	0.0038037382
27	0x3b80911e	0.0039235493
28	0x3b7f7faa	0.0038986006
29	0xbb720b6d	-0.003693308
30	0x3b716c9b	0.0036838416
31	0x3b73e9ff	0.003721833
32	0xbb74f2e3	-0.0037376217
33	0xbabf2b0d	-0.0014584974
34	0xbb11d848	-0.0022254158
35	0x3b80aa6e	0.003926567
36	0xbb77696b	-0.0037752043
37	0xba9a6078	-0.0011778018
38	0x3b6235a6	0.003451684
39	0x3b3baa69	0.0028635508
40	0x3b7d1c23	0.0038621507
41	0xbb1a384f	-0.0023532098
42	0xba7f6405	-0.0009742382
43	0x3b03ff33	0.0020141124
44	0xbb66768f	-0.0035165881
45	0xbb1dc087	-0.0024071054
46	0x3b0f560a	0.0021871352
47	0x3b7e07d1	0.0038761983
48	0x3b727806	0.003699781
49	0x3b8177e8	0.0039510615
50	0x3a5e1118	0.0008471175
51	0x3b773438	0.0037720334
52	0x3b819914	0.003955016
53	0x3b214460	0.0024607405
54	0x3b137dee	0.002250548
55	0xbb635972	-0.0034690765
56	0x3a9aa2d4	0.0011797794
57	0xbb3c0682	-0.0028690402
58	0xbb6fee91	-0.0036610703
59	0x3b72df88	0.0037059505
60	0x3af0ee68	0.0018381597
61	0xbab968f2	-0.0014145656
62	0x3b827977	0.003981765
63	0x3b5b6f47	0.0033483075
64	0xbac40888	-0.0014956156
65	0xbb771c05	-0.003770591
66	0x368e036b	4.2323277e-06
67	0xbb60db98	-0.0034310576
68	0xbb768504	-0.0037615905
69	0x3b001784	0.0019545266
70	0x3b572d52	0.003283341
71	0x3b77ca25	0.0037809697
72	0xba07229a	-0.00051549973
73	0xb86218f5	-5.3905842e-05
74	0x3a0b277e	0.0005308314
75	0xbaf96590	-0.001902746
76	0x3b74e116	0.0037365607
77	0x3b79e269	0.0038129336
78	0xbb676461	-0.0035307633
79	0x3aac0896	0.0013125117
80	0xb8bb5c6f	-8.934072e-05
81	0x3b13fe3e	0.002258196
82	0x3b830a45	0.003999027
83	0xbad0da5d	-0.0015934218
84	0x3b7dd903	0.0038734085
85	0x3b6e6716	0.0036377362
86	0x3b7c5283	0.003850133
87	0x3b8058a0	0.003916815
88	0x3b067d87	0.0020521597
89	0xbb7fc304	-0.003902615
90	0x3b7c500e	0.0038499865
91	0x3b1a978f	0.002358887
92	0xbb185164	-0.0023241872
93	0xbb766344	-0.0037595788
94	0x3ad142df	0.0015965364
95	0x3b8201b6	0.003967489
96	0xbb745b01	-0.0037285688
97	0x3b793721	0.0038027244
98	0x3b806ee7	0.0039194706
99	0x3b6bbc52	0.0035970402
100	0x3b82846e	0.003983072
101	0xbb724535	-0.003696752
102	0xbb7adb23	-0.0038277588
103	0xbb489c9a	-0.003061092
104	0xbb763590	-0.0037568547
105	0x3b821d35	0.003970767
106	0xbb8005c9	-0.0039069396
107	0xbad7754f	-0.0016438159
108	0xbacd66a9	-0.0015670854
109	0x3b0ec46e	0.0021784562
110	0x3b573ef1	0.0032843912
111	0x3b4d946a	0.003136898
112	0xbb756a67	-0.0037447454
113	0x3b54dedb	0.0032481465
114	0x3b7c5e23	0.0038508258
115	0xbb7eedfd	-0.0038899176
116	0xbb75afca	-0.0037488812
117	0xb9c28225	-0.0003709953
118	0x3b72f380	0.0037071407
119	0xbb5b7015	-0.0033483554
120	0x3b813e06	0.0039441613
121	0xbb12d8ed	-0.002240713
122	0x3b161ead	0.0022906468
123	0x3b7f94fa	0.003899871
124	0x3b0a0d8f	0.002106521
125	0x3b7d6008	0.0038661975
126	0x3b7b2b92	0.003832553
127	0xbb71b96c	-0.0036884202
128	0x00000000	0.0
129	0x00000000	0.0
130	0x00000000	0.0
131	0x00000000	0.0
132	0x00000000	0.0
133	0x00000000	0.0
134	0x00000000	0.0
135	0x00000000	0.0
136	0x00000000	0.0
137	0x00000000	0.0
138	0x00000000	0.0
139	0x00000000	0.0
140	0x00000000	0.0
141	0x00000000	0.0
142	0x00000000	0.0
143	0x00000000	0.0
144	0x00000000	0.0
145	0x00000000	0.0
146	0x00000000	0.0
147	0x00000000	0.0
148	0x00000000	0.0
149	0x00000000	0.0
150	0x00000000	0.0
151	0x00000000	0.0
152	0x00000000	0.0
153	0x00000000	0.0
154	0x00000000	0.0
155	0x00000000	0.0
156	0x00000000	0.0
157	0x00000000	0.0
158	0x00000000	0.0
159	0x00000000	0.0
160	0x00000000	0.0
161	0x00000000	0.0
162	0x00000000	0.0
163	0x00000000	0.0
164	0x00000000	0.0
165	0x00000000	0.0
166	0x00000000	0.0
167	0x00000000	0.0
168	0x00000000	0.0
169	0x00000000	0.0
170	0x00000000	0.0
171	0x00000000	0.0
172	0x00000000	0.0
173	0x00000000	0.0
174	0x00000000	0.0
175	0x00000000	0.0
176	0x00000000	0.0
177	0x00000000	0.0
178	0x00000000	0.0
179	0x00000000	0.0
180	0x00000000	0.0
181	0x00000000	0.0
182	0x00000000	0.0
183	0x00000000	0.0
184	0x00000000	0.0
185	0x00000000	0.0
186	0x00000000	0.0
187	0x00000000	0.0
188	0x00000000	0.0
189	0x00000000	0.0
190	0x00000000	0.0
191	0x00000000	0.0
192	0x00000000	0.0
193	0x00000000	0.0
194	0x00000000	0.0
195	0x00000000	0.0
196	0x00000000	0.0
197	0x00000000	0.0
198	0x00000000	0.0
199	0x00000000	0.0
200	0x00000000	0.0
201	0x00000000	0.0
202	0x00000000	0.0
203	0x00000000	0.0
204	0x00000000	0.0
205	0x00000000	0.0
206	0x00000000	0.0
207	0x00000000	0.0
208	0x00000000	0.0
209	0x00000000	0.0
210	0x00000000	0.0
211	0x00000000	0.0
212	0x00000000	0.0
213	0x00000000	0.0
214	0x00000000	0.0
215	0x00000000	0.0
216	0x00000000	0.0
217	0x00000000	0.0
218	0x00000000	0.0
219	0x00000000	0.0
220	0x00000000	0.0
221	0x00000000	0.0
222	0x00000000	0.0
223	0x00000000	0.0
224	0x00000000	0.0
225	0x00000000	0.0
226	0x00000000	0.0
227	0x00000000	0.0
228	0x00000000	0.0
229	0x00000000	0.0
230	0x00000000	0.0
231	0x00000000	0.0
232	0x00000000	0.0
233	0x00000000	0.0
234	0x00000000	0.0
235	0x00000000	0.0
236	0x00000000	0.0
237	0x00000000	0.0
238	0x00000000	0.0
239	0x00000000	0.0
240	0x00000000	0.0
241	0x00000000	0.0
242	0x00000000	0.0
243	0x00000000	0.0
244	0x00000000	0.0
245	0x00000000	0.0
246	0x00000000	0.0
247	0x00000000	0.0
248	0x00000000	0.0
249	0x00000000	0.0
250	0x00000000	0.0
251	0x00000000	0.0
252	0x00000000	0.0
253	0x00000000	0.0
254	0x00000000	0.0
255	0x00000000	0.0

recurrent.weight_ih_l1 f4 [512, 128]
0	0x3d0d3140	0.034470797
1	0x3d6c35fb	0.057668667
2	0xbd30a345	-0.043124456
3	0xbce4a2ab	-0.027909597
4	0xbd1aa02e	-0.037750416
5	0xbd5b5c1b	-0.053554635
6	0xbbcbc6af	-0.0062187533
7	0xbd88643e	-0.06659745
8	0x3c41e31a	0.01183393
9	0x3b30d69d	0.0026983388
10	0x3ce2b7ca	0.027675528
11	0xbdafceca	-0.08584364
12	0x3d3fe14f	0.04684573
13	0xbc2f9c97	-0.010718486
14	0x3bdb51f6	0.00669312
15	0xbdb34fb4	-0.087554365
16	0x3db6f05e	0.08932565
17	0xbd889daf	-0.06670701
18	0x3d8d08c4	0.068864375
19	0x3c87e19b	0.01658707
20	0x3a964d55	0.0011467139
21	0xbd7ac0e3	-0.061219107
22	0x3ccffb06	0.025388252
23	0xbd1645b2	-0.03668756
24	0x3d72cbad	0.05927627
25	0x3b9eef12	0.0048502767
26	0xbd9103db	-0.070808135
27	0x3d166fd7	0.036727753
28	0xbbc17db8	-0.0059048794
29	0x3dac3dbc	0.084102124
30	0xbd8ae6f9	-0.06782336
31	0xbd09c5a4	-0.03363575
32	0x3d9d4a04	0.07680133
33	0x3d9a1653	0.07523789
34	0xbcf241d3	-0.029572403
35	0xbca0ca3d	-0.019627685
36	0xbb17c9e7	-0.0023161115
37	0xbb8ad16f	-0.004236392
38	0x3bad1ae5	0.005282747
39	0xbc059b08	-0.008154638
40	0xbd885b22	-0.06658007
41	0xbda1665a	-0.0788085
42	0xbd54290a	-0.05179695
43	0xbd22f9d9	-0.039789055
44	0x3c1fe3b7	0.009758881
45	0x3a6693c5	0.0008795823
46	0x3cbdac84	0.02315355
47	0xbda85659	-0.082195945
48	0x3d82fc27	0.063957505
49	0xbd60a976	-0.05484911
50	0xbd8ea054	-0.06964174
51	0x3d3220c3	0.043488275
52	0xbd5ff2b3	-0.054674815
53	0x3dab9977	0.083788805
54	0xbc902dba	-0.01759993
55	0x3b7ad5da	0.0038274438
56	0xbd5d7856	-0.05406984
57	0xbd2fcb85	-0.0429187
58	0xbb957362	-0.004560874
59	0xbd784d16	-0.06062039
60	0x3c771f5f	0.015083163
61	0x3ceec43f	0.029146312
62	0xb9fdd3d8	-0.00048413756
63	0x3d15a1e4	0.036531344
64	0xbd33e37f	-0.04391813
65	0x3cef3bdd	0.02920335
66	0xbd842161	-0.06451679
67	0xbcb63216	-0.02224068
68	0x3d1511bd	0.03639387
69	0xbd2c85f9	-0.042119954
70	0x3d2b522e	0.04182642
71	0x3d3f7a2f	0.046747383
72	0x3c23c996	0.009996792
73	0xbd8963e2	-0.06708504
74	0x3d859ac1	0.065236576
75	0xbb8563da	-0.004070741
76	0xbd66d1a5	-0.056352276
77	0x3b0a815e	0.0021134238
78	0x3d56ffbd	0.052489985
79	0xbd86ff67	-0.06591683
80	0x3c9e0b68	0.019292548
81	0x3cc3cf04	0.023902424
82	0x3ca4bbc0	0.020109057
83	0xbcb83684	-0.022486933
84	0x3d5c24d4	0.05374606
85	0xbb5ba5e6	-0.0033515631
86	0x3d9166b1	0.07099665
87	0xbbb596c6	-0.0055416552
88	0xbcd4b2f1	-0.025964232
89	0xbd2f3fb6	-0.04278537
90	0x3d3cbcba	0.04607842
91	0x3ceb9327	0.028756691
92	0xbd42c162	-0.047547705
93	0xbbea0f28	-0.00714292
94	0xbd486c16	-0.048931204
95	0x3d045324	0.03230585
96	0xbd89b572	-0.06724061
97	0xbcad05e0	-0.021120965
98	0xbd645aca	-0.055750646
99	0x3c942933	0.018086052
100	0x3c5c590a	0.013448963
101	0x3da8e92f	0.08247601
102	0xbd7d935a	-0.061908104
103	0x3d33a12c	0.043854877
104	0xbdb9e2ea	-0.090764835
105	0x3dbdcce5	0.09267596
106	0xbb4106ea	-0.0029453584
107	0x3d3c2225	0.045931
108	0xbd622d26	-0.05521884
109	0xbd568384	-0.052371517
110	0x3ce2b98f	0.027676372
111	0x3d9d94cb	0.07694396
112	0xbdb509ee	-0.088397846
113	0xbd0ffd53	-0.0351537
114	0x3b7f4b85	0.0038954925
115	0x3cf9bbc6	0.030485045
116	0xbdaa87cd	-0.08326683
117	0x3d1be775	0.03806253
118	0xbc200317	-0.009766362
119	0x3da61b7d	0.08110712
120	0xbcf91b79	-0.030408608
121	0x3d8c3e50	0.06847823
122	0x3c0170be	0.007900415
123	0x3d1f8bab	0.038951557
124	0x3da1f13e	0.079073414
125	0x3d3db09f	0.046311017
126	0x3db70b0e	0.089376554
127	0x3d71f296	0.05906924
128	0x3d988129	0.0744651
129	0xbce3d976	-0.027813654
130	0xbc44711c	-0.011989858
131	0xbdb762bd	-0.0895438
132	0x3c1857d2	0.009298282
133	0xbce19153	-0.027535116
134	0xbd1906fc	-0.037360176
135	0x3c68f899	0.014219427
136	0x3ccb7b31	0.024839016
137	0x3c322fc0	0.010875642
138	0x3c39faec	0.011351328
139	0xbc251c4e	-0.010077549
140	0xbd24ee65	-0.040266413
141	0x3d8db3c0	0.0691905
142	0x3c2fda5b	0.010733212
143	0xbcb771e8	-0.022393182
144	0xbc11327d	-0.008862135
145	0xbda4cdb8	-0.0804705
146	0x3d450f19	0.0481101
147	0x3d2b5a11	0.04183394
148	0xbd73b124	-0.059495106
149	0xbdaf602e	-0.08563267
150	0x3da4e9a7	0.08052378
151	0x3d6a7d9a	0.05724869
152	0xbd272c27	-0.04081359
153	0x39269889	0.00015887817
154	0x3cfd03b9	0.030885564
155	0xbd2cd899	-0.04219875
156	0x3d46381c	0.048393354
157	0x3cd2d2f9	0.025735365
158	0xbc944ca9	-0.01810296
159	0xbdabd248	-0.08389717
160	0xbd4a4bc9	-0.04938868
161	0x3a751a35	0.00093499135
162	0xbd48701d	-0.048935045
163	0xbd432974	-0.047646955
164	0x3d9d5960	0.076830626
165	0x3dbb974a	0.091597155
166	0xbca661e2	-0.020310346
167	0xbd38d1e4	-0.045122042
168	0xbd17d908	-0.03707221
169	0x3d3fd5a0	0.046834588
170	0xbd257bcf	-0.040401276
171	0xbd0ef9ca	-0.034906186
172	0x3d44014e	0.047852807
173	0xbd97d5b6	-0.07413809
174	0xbdaf5c25	-0.08562497
175	0xbd81eaae	-0.0634359
176	0xbd989a5f	-0.07451319
177	0x3b67dcbe	0.0035379375
178	0xbd9f6172	-0.07782258
179	0xbbd62048	-0.00653461
180	0x3c56297d	0.013071415
181	0x3d7c890c	0.061654136
182	0xbd40f5c5	-0.047109384
183	0x3d3788ce	0.0448082
184	0xbb2c9874	-0.0026335986
185	0x3c374abb	0.011187251
186	0xbb3f015b	-0.0029145095
187	0x3d63104a	0.055435456
188	0xbd0de829	-0.034645233
189	0xbd676f19	-0.056502435
190	0x3d1b744f	0.037952717
191	0x3d949805	0.07255558
192	0xbda3860e	-0.07984553
193	0xbd60428f	-0.054750975
194	0xbcec0a45	-0.02881349
195	0x3da69f5d	0.08135865
196	0xbd833fc3	-0.06408646
197	0xbd803a97	-0.06261175
198	0xbd88bcea	-0.066766575
199	0x3b1d9b5a	0.0024048896
200	0x3d0b8fb5	0.034072597
201	0xbcb9852c	-0.02264651
202	0xbd30c9a2	-0.043161042
203	0xbda7e232	-0.0819744
204	0xbc076b80	-0.008265376
205	0xbd9ee16a	-0.07757838
206	0xbd7b248c	-0.06131415
207	0xbd2aeb41	-0.04172826
208	0x3c47ed6a	0.0122026
209	0xbd4284ca	-0.04748992
210	0xbd8bdc5d	-0.0682914
211	0xbccab4e7	-0.024744464
212	0xbb15cd59	-0.0022857992
213	0x3dbd5c38	0.09246105
214	0xbd86bb58	-0.06578702
215	0xbd83d31e	-0.06436752
216	0x3d36b350	0.0446046
217	0xbda312d3	-0.07962575
218	0x3d8989bb	0.06715723
219	0x3d3c2aee	0.04593938
220	0xbd37681b	-0.044777017
221	0x3d8bdf9d	0.0682976
222	0x3d5eadda	0.054365017
223	0x3c8d6822	0.017261568
224	0xbb92e7d6	-0.0044832034
225	0xbd83d704	-0.06437495
226	0xbc6e2055	-0.014534076
227	0xbc988ad7	-0.018620891
228	0x3caeb393	0.021325862
229	0x3d852f77	0.06503194
230	0xbdabf241	-0.08395816
231	0x3d867f2c	0.06567225
232	0x3db60ba1	0.08888937
233	0x3d119488	0.03554204
234	0xbd0ce752	-0.03440029
235	0x3d72e9a5	0.059304852
236	0xbd67b9a9	-0.056573544
237	0xbd849a11	-0.06474698
238	0xbd9fba2b	-0.077991806
239	0xbbf605db	-0.0075080222
240	0x3cdd2ec7	0.026999844
241	0xbd03705e	-0.032089584
242	0x3d0e7aa7	0.03478494
243	0xbd8f4ec7	-0.069974475
244	0xbc83d153	-0.016091025
245	0x3d874a6b	0.06605991
246	0x3d6b13a1	0.057391766
247	0x3da2785e	0.079331145
248	0xbda9b3c1	-0.082862385
249	0x3d2f24cc	0.0427597
250	0x3d04ed5b	0.032452922
251	0x3d890f9d	0.06692431
252	0x3db695c8	0.08915287
253	0x3c79d450	0.015248373
254	0x3cd00eb5	0.025397638
255	0x3c18db63	0.00932965

recurrent.weight_hh_l1 f4 [512, 128]
0	0xbd919aa9	-0.07109577
1	0xbd102535	-0.035191733
2	0xbcebbaef	-0.02877566
3	0x3da08a2e	0.07838856
4	0x3bb40476	0.005493696
5	0x3d8ee370	0.06976974
6	0x3d4a41bd	0.0493791
7	0xbd0712cb	-0.032976907
8	0x3da3725a	0.07980795
9	0xbd75b74a	-0.05998925
10	0x3d25d878	0.040489644
11	0xbcc70768	-0.024295524
12	0xbcb9d747	-0.02268566
13	0x3da5a673	0.08088388
14	0xbd6676ba	-0.05626557
15	0xbdb136b3	-0.08653011
16	0xbd33cc95	-0.043896277
17	0xbd3a6503	-0.04550649
18	0x3db082f0	0.08618724
19	0x3c019991	0.007910148
20	0x3d81206e	0.063050136
21	0xbc8fa0ab	-0.017532667
22	0xbb314200	-0.0027047396
23	0xbd175c95	-0.036953527
24	0xbcc2738e	-0.023736741
25	0x3cf9ceac	0.030494057
26	0xbdb1a871	-0.08674706
27	0xbd8e3f10	-0.06945622
28	0x3d48df43	0.049041044
29	0x3c9e8061	0.019348325
30	0xbc2d2d0e	-0.010569824
31	0x3db69d9b	0.089167796
32	0x3c2ca1dc	0.010536637
33	0xbda936c4	-0.08262399
34	0x3c5ad96d	0.013357502
35	0xbd3c81ca	-0.046022214
36	0x3d14a5a2	0.036290772
37	0x3d83a440	0.064278126
38	0xbdad2c5b	-0.08455726
39	0xbaca5f33	-0.0015439749
40	0x3c648cdd	0.0139496
41	0xbc7e6c57	-0.01552876
42	0x3ca1f312	0.019769225
43	0x3d45ff02	0.048338898
44	0xbda3893a	-0.07985158
45	0x3d27149b	0.040791135
46	0x3d9d129e	0.076695666
47	0x3d6b6b55	0.057475407
48	0x3d91f819	0.07127399
49	0xbc954996	-0.018223565
50	0xbd69ec24	-0.057109967
51	0x3d4e821b	0.050417047
52	0xbc2b0b4e	-0.010439707
53	0xbcd2a11a	-0.025711585
54	0xbda135b2	-0.0787157
55	0x3dba282c	0.090896934
56	0x3db9ec20	0.090782404
57	0xbce3eedb	-0.027823856
58	0x3da22cb6	0.07918684
59	0xbd9dee6a	-0.077114895
60	0xbb75568d	-0.0037435621
61	0xbcd0c139	-0.02548276
62	0x3d8affee	0.06787096
63	0xbc163c48	-0.009169646
64	0x3dbc4a8a	0.09193905
65	0xbb8b3ca1	-0.004249171
66	0x3d53ca6f	0.051706728
67	0xbd634a6e	-0.055490904
68	0x3ca459ea	0.020062406
69	0x3db11652	0.086468354
70	0x3cd856bb	0.026408544
71	0x3d42e875	0.04758497
72	0xbd825e0c	-0.06365594
73	0x3d7cfe4a	0.061765946
74	0xbdbd8e75	-0.09255687
75	0xbd577d93	-0.05260999
76	0xbd8576be	-0.06516789
77	0x3d87155e	0.06595872
78	0x3cc1feec	0.023681127
79	0xbd67b2fb	-0.056567173
80	0xbb73a0dd	-0.003717474
81	0x3d5b9cfb	0.053616505
82	0x3c2391af	0.009983464
83	0x3da5b88b	0.080918394
84	0xbda3390d	-0.07969866
85	0x3d346750	0.04404384
86	0x3d44f15b	0.048081737
87	0x3d9e90de	0.07742475
88	0x3cbc27b6	0.022968154
89	0xbdb46e5f	-0.08810114
90	0xbcee75a6	-0.029108834
91	0xbd813126	-0.063082024
92	0x3dbd9f1d	0.09258864
93	0x3d7876dc	0.060660228
94	0x3c8aaf6a	0.016929347
95	0x3c2a3cc8	0.010390468
96	0x3db63360	0.08896518
97	0x3c6b8b43	0.014376464
98	0x3cb0d06b	0.021583756
99	0xbd20e2e4	-0.03927888
100	0x3da0db4e	0.07854329
101	0xbd3fbff6	-0.046813928
102	0x3c3ce1e7	0.011528469
103	0x3cf46689	0.029834049
104	0xbbe8762c	-0.0070941653
105	0x3d9fd039	0.07803387
106	0xbd10e01f	-0.03536999
107	0xbceb594b	-0.028729102
108	0xbda1c74d	-0.07899342
109	0xbce6931c	-0.02814632
110	0x39b3d36d	0.00034299065
111	0x3d41331d	0.047167886
112	0x3db0e122	0.08636691
113	0x3d861691	0.06547273
114	0xba661749	-0.00087772735
115	0xbcd2e49a	-0.025743771
116	0xb9541286	-0.00020224796
117	0x3a65f458	0.0008772067
118	0x3cea6a91	0.028615268
119	0xbcb4903f	-0.022041438
120	0xbce989d9	-0.028508114
121	0xbd6fba46	-0.058527254
122	0xbdb86b7f	-0.09004878
123	0xb8e3d75f	-0.000108643195
124	0xbd9512dd	-0.072789885
125	0xbb3c94bc	-0.0028775176
126	0xbc4d17a1	-0.012517841
127	0x3d079469	0.03310052
128	0xbd83adca	-0.06429632
129	0x3cb871ea	0.022515256
130	0xbcf7c1bc	-0.030243747
131	0x3ca6e391	0.020372184
132	0x3db99b21	0.090627916
133	0xbd783f4a	-0.060607232
134	0x3d80baaf	0.06285607
135	0xbdafa872	-0.0857705
136	0x3dbc0f11	0.09182561
137	0x3d8d6bbd	0.06905315
138	0x3d836c0a	0.06417091
139	0xbc763f52	-0.015029745
140	0xbd3b21f3	-0.045686673
141	0x3d2d99bc	0.04238294
142	0x3d8c1002	0.06838991
143	0xbd9d319e	-0.07675479
144	0x3c945f90	0.018111974
145	0x3daed28f	0.085362546
146	0xbd92aadb	-0.07161494
147	0xbd99b346	-0.07504897
148	0xbd85a7d9	-0.06526155
149	0xbd434853	-0.047676396
150	0xbd867220	-0.06564736
151	0xbdbe1b38	-0.09282535
152	0xbd9840e4	-0.07434252
153	0x3d45e6f7	0.04831597
154	0x3c82c827	0.01596458
155	0x3d337455	0.043812115
156	0xbca13988	-0.019680753
157	0x3cfdff87	0.031005634
158	0x3b995340	0.0046791136
159	0x3da144b6	0.07874434
160	0x3a011b0d	0.00049249904
161	0x3d0aacb4	0.03385611
162	0x3d9e321b	0.077244006
163	0x3d207674	0.039175466
164	0x3c538fea	0.01291273
165	0xbcff2a96	-0.031148236
166	0xbd837a0c	-0.06419763
167	0xbd5a2dad	-0.053266216
168	0xbd267249	-0.040636335
169	0x3d07d8b8	0.033165663
170	0x3d989155	0.07449595
171	0xbdaf46ac	-0.085584015
172	0xbc98c901	-0.018650534
173	0xbd835768	-0.06413156
174	0xbce9d0c8	-0.028541937
175	0xbd18569c	-0.037191972
176	0x3da5dd97	0.080989055
177	0x3dabd4cb	0.083901964
178	0x3dae31aa	0.085055664
179	0xbdb8e0a9	-0.090272255
180	0xbd1057f7	-0.03524014
181	0x3d836af2	0.064168826
182	0x3db67a43	0.08910038
183	0xbd0c4807	-0.034248378
184	0xbc35fd61	-0.0111077735
185	0x3caf3004	0.0213852
186	0xbdabef53	-0.08395257
187	0xbcb71462	-0.022348586
188	0xbd94cb0f	-0.07265293
189	0x3db4714f	0.088106744
190	0xbd505a26	-0.050867222
191	0xbcc8ea3e	-0.024525758
192	0x3bf26d6a	0.007398297
193	0xbbe6598c	-0.007029718
194	0xbd3d041b	-0.046146493
195	0x3b680507	0.0035403387
196	0xbda7a75c	-0.08186218
197	0x3a409bf9	0.00073474605
198	0x3a572cbe	0.0008208266
199	0x3d7af340	0.061267138
200	0x3db1e937	0.0868706
201	0x3c1beafc	0.009516474
202	0xbd5595bf	-0.052144762
203	0x3d563e4c	0.052305505
204	0xbc88dc26	-0.016706537
205	0x3db0f7f0	0.0864104
206	0xbc29ddb3	-0.010367799
207	0xbd8c7ced	-0.06859765
208	0x3d20c81a	0.03925333
209	0xbc481ec9	-0.012214371
210	0xbdaa0e6d	-0.08303533
211	0x3c99e44d	0.01878562
212	0xbd200b2c	-0.039073154
213	0xbd1d77d3	-0.03844435
214	0x3d0a1537	0.03371164
215	0x3db9a28b	0.09064206
216	0x3d400548	0.046880037
217	0x3d517549	0.051137242
218	0xbac4007b	-0.0014953756
219	0xbd833af4	-0.06407729
220	0xbd73c793	-0.0595165
221	0x3d232396	0.03982886
222	0x3cd6894c	0.026188515
223	0xbdb07173	-0.08615389
224	0xbda51b6b	-0.0806187
225	0x3d146ee8	0.03623858
226	0xbdaf04be	-0.085458264
227	0x3d951997	0.072802715
228	0xbdb7f932	-0.08983077
229	0xbcb3c466	-0.021944236
230	0x3da7fdd3	0.0820271
231	0x3db02181	0.0860014
232	0xbd602ca9	-0.05473009
233	0xbcf65122	-0.030067984
234	0x3c71bc4e	0.014754368
235	0x3db3bcfa	0.08776279
236	0xbcec5982	-0.028851274
237	0xbd3bebb1	-0.04587907
238	0xbd965008	-0.073394835
239	0x3db7b5a6	0.089701936
240	0xbc168e49	-0.009189197
241	0xbca9d75f	-0.02073258
242	0x3d677ec8	0.056517392
243	0xbbc60b85	-0.0060438537
244	0x3d3f4bf1	0.046703283
245	0xbd1c82a6	-0.038210534
246	0x3da38d00	0.07985878
247	0xbdb68159	-0.0891139
248	0xbcd0bc8d	-0.025480533
249	0xbda98ece	-0.08279191
250	0x3d52728b	0.051378768
251	0x3d0ec26b	0.03485338
252	0xbd552b81	-0.05204344
253	0x3d1a5d01	0.03768635
254	0x3ce9833b	0.028504958
255	0x3d367583	0.04454566

recurrent.bias_ih_l1 f4 [512]
0	0xb9e19638	-0.00043027266
1	0xbaa5e658	-0.0012657149
2	0xbaa953ef	-0.0012918691
3	0xbb774f68	-0.0037736539
4	0xbb7216fa	-0.0036939965
5	0xbad28ef7	-0.0016064335
6	0x3a967ae4	0.0011480716
7	0xb961344a	-0.00021477151
8	0xbb42dd47	-0.0029733942
9	0x3b7420ed	0.003725107
10	0x3b19fcbd	0.002349659
11	0x3b80b4ca	0.0039278017
12	0xbaa8b309	-0.001287074
13	0xbaa2d070	-0.0012421738
14	0xbb2465f4	-0.0025085183
15	0xbb771f57	-0.003770789
16	0x3b15e842	0.0022874032
17	0xbadbf525	-0.0016781433
18	0xbb1c43dd	-0.002384416
19	0x3b816314	0.0039485786
20	0xba9c86a6	-0.0011941984
21	0xbb6db62e	-0.0036271918
22	0x3b81b5d9	0.0039584455
23	0xbb3134ce	-0.002703953
24	0xbb29135a	-0.0025798888
25	0x3b7a61d3	0.003820528
26	0x3b781b59	0.0037858097
27	0xb8ce4bd2	-9.836968e-05
28	0x3aa97d4c	0.0012931018
29	0x3b7b43cc	0.003833997
30	0x3b8270c0	0.003980726
31	0xbab09456	-0.0013471942
32	0xbb72c136	-0.0037041432
33	0xbb634623	-0.0034679256
34	0xbb66ccfe	-0.00352174
35	0x3b654ea5	0.0034989503
36	0xbb5f4116	-0.0034065894
37	0x3b678555	0.0035327275
38	0x3b823159	0.003973168
39	0xba33f36c	-0.0006864581
40	0xbb739374	-0.0037166746
41	0xbb772bb9	-0.003771527
42	0x3b80d829	0.0039320183
43	0x3afd8f74	0.001934512
44	0x3b71ae6c	0.0036877645
45	0x3a7ffdf4	0.000976532
46	0xbb4918e1	-0.0030684995
47	0xbb4e213c	-0.0031452915
48	0xbb59c11a	-0.003322667
49	0x3b5cf660	0.0033716187
50	0x3b010621	0.001968749
51	0xbb4d8b9f	-0.0031363738
52	0xbb43f69d	-0.0029901632
53	0x3b82ed3b	0.003995565
54	0x3b5cee38	0.0033711325
55	0x3b7a9ba8	0.003823975
56	0x3b83020c	0.0039980467
57	0xb9fecc8f	-0.00048599063
58	0xbb50908e	-0.0031824443
59	0xbb78ef1d	-0.003798432
60	0x3b7d1c41	0.0038621577
61	0x37bb1a4c	2.2304383e-05
62	0xbb729aab	-0.0037018459
63	0x3b21b7cf	0.002467621
64	0xbb6e934d	-0.0036403716
65	0xbaef3518	-0.0018250076
66	0xb945a547	-0.00018848955
67	0x3b7d108e	0.0038614604
68	0xbb6ab7af	-0.003581505
69	0xbb7ce791	-0.0038590173
70	0xb9daf8f2	-0.0004176568
71	0x3b6fd97a	0.0036598132
72	0xba82b938	-0.0009973412
73	0x39e21150	0.00043118978
74	0x3b7f0733	0.0038914203
75	0x3b7c64bc	0.003851219
76	0x3b7cc13f	0.0038567332
77	0x3b765495	0.0037587036
78	0x3b81fda7	0.0039670053
79	0x3b6c896d	0.0036092654
80	0x3b3d178e	0.002885315
81	0x3b809643	0.0039241626
82	0x38f52f70	0.00011691346
83	0xbb526116	-0.0032101325
84	0xbb0c87ab	-0.002144317
85	0x3b7dde5e	0.0038737278
86	0xb8566662	-5.1116927e-05
87	0xbb23364a	-0.0024904185
88	0x3b777c2e	0.0037763226
89	0x3ad68040	0.0016365126
90	0xbb5ae2a4	-0.0033399248
91	0x3a3487c7	0.00068866875
92	0x3b369062	0.0027857055
93	0x3b653e49	0.0034979752
94	0x3b72cd29	0.0037048555
95	0x3a0b597d	0.0005315764
96	0xbb14a07b	-0.0022678662
97	0x3a78ae31	0.0009486406
98	0x3b8072bc	0.0039199274
99	0x3b804ba2	0.003915266
100	0x3b811654	0.0039394293
101	0x3b178e9f	0.002312578
102	0x3b4f0a84	0.003159196
103	0x3b815b5a	0.0039476575
104	0x3ab6b80b	0.0013940347
105	0x3b7f0d55	0.0038917859
106	0x3b842640	0.00403288
107	0xbb47fc5e	-0.0030515413
108	0x3b82c98d	0.003991312
109	0xbb1bb20d	-0.002375725
110	0xbb4fcb37	-0.003170682
111	0xba287b2d	-0.0006427046
112	0x3b6d52ce	0.0036212686
113	0xbb6ae2d0	-0.0035840757
114	0xbb6927b5	-0.0035576646
115	0xbb7450f9	-0.0037279709
116	0x3adced39	0.0016855366
117	0xbb76bd5b	-0.0037649486
118	0xbb4d57e5	-0.0031332907
119	0x3b47bc5d	0.0030477263
120	0xbb7b8cbe	-0.003838345
121	0x3b5d93c8	0.0033810008
122	0x3b7f2d81	0.0038937035
123	0xbb6a7b96	-0.003577923
124	0x3b501fd2	0.0031757248
125	0x3b8186a8	0.00395282
126	0x3b411cb7	0.0029466578
127	0xbb5e8e24	-0.0033959234
128	0x00000000	0.0
129	0x00000000	0.0
130	0x00000000	0.0
131	0x00000000	0.0
132	0x00000000	0.0
133	0x00000000	0.0
134	0x00000000	0.0
135	0x00000000	0.0
136	0x00000000	0.0
137	0x00000000	0.0
138	0x00000000	0.0
139	0x00000000	0.0
140	0x00000000	0.0
141	0x00000000	0.0
142	0x00000000	0.0
143	0x00000000	0.0
144	0x00000000	0.0
145	0x00000000	0.0
146	0x00000000	0.0
147	0x00000000	0.0
148	0x00000000	0.0
149	0x00000000	0.0
150	0x00000000	0.0
151	0x00000000	0.0
152	0x00000000	0.0
153	0x00000000	0.0
154	0x00000000	0.0
155	0x00000000	0.0
156	0x00000000	0.0
157	0x00000000	0.0
158	0x00000000	0.0
159	0x00000000	0.0
160	0x00000000	0.0
161	0x00000000	0.0
162	0x00000000	0.0
163	0x00000000	0.0
164	0x00000000	0.0
165	0x00000000	0.0
166	0x00000000	0.0
167	0x00000000	0.0
168	0x00000000	0.0
169	0x00000000	0.0
170	0x00000000	0.0
171	0x00000000	0.0
172	0x00000000	0.0
173	0x00000000	0.0
174	0x00000000	0.0
175	0x00000000	0.0
176	0x00000000	0.0
177	0x00000000	0.0
178	0x00000000	0.0
179	0x00000000	0.0
180	0x00000000	0.0
181	0x00000000	0.0
182	0x00000000	0.0
183	0x00000000	0.0
184	0x00000000	0.0
185	0x00000000	0.0
186	0x00000000	0.0
187	0x00000000	0.0
188	0x00000000	0.0
189	0x00000000	0.0
190	0x00000000	0.0
191	0x00000000	0.0
192	0x00000000	0.0
193	0x00000000	0.0
194	0x00000000	0.0
195	0x00000000	0.0
196	0x00000000	0.0
197	0x00000000	0.0
198	0x00000000	0.0
199	0x00000000	0.0
200	0x00000000	0.0
201	0x00000000	0.0
202	0x00000000	0.0
203	0x00000000	0.0
204	0x00000000	0.0
205	0x00000000	0.0
206	0x00000000	0.0
207	0x00000000	0.0
208	0x00000000	0.0
209	0x00000000	0.0
210	0x00000000	0.0
211	0x00000000	0.0
212	0x00000000	0.0
213	0x00000000	0.0
214	0x00000000	0.0
215	0x00000000	0.0
216	0x00000000	0.0
217	0x00000000	0.0
218	0x00000000	0.0
219	0x00000000	0.0
220	0x00000000	0.0
221	0x00000000	0.0
222	0x00000000	0.0
223	0x00000000	0.0
224	0x00000000	0.0
225	0x00000000	0.0
226	0x00000000	0.0
227	0x00000000	0.0
228	0x00000000	0.0
229	0x00000000	0.0
230	0x00000000	0.0
231	0x00000000	0.0
232	0x00000000	0.0
233	0x00000000	0.0
234	0x00000000	0.0
235	0x00000000	0.0
236	0x00000000	0.0
237	0x00000000	0.0
238	0x00000000	0.0
239	0x00000000	0.0
240	0x00000000	0.0
241	0x00000000	0.0
242	0x00000000	0.0
243	0x00000000	0.0
244	0x00000000	0.0
245	0x00000000	0.0
246	0x00000000	0.0
247	0x00000000	0.0
248	0x00000000	0.0
249	0x00000000	0.0
250	0x00000000	0.0
251	0x00000000	0.0
252	0x00000000	0.0
253	0x00000000	0.0
254	0x00000000	0.0
255	0x00000000	0.0
