input/rnn_model.pth (torch, 813474 bytes, 10 tensors)

recurrent.weight_ih_l0 f4 [512, 7]
0.056927133 0.028688606 -0.07994211 0.08505274 0.08218032 0.015335958 0.01858742 -0.088417575
0.021038637 0.035451844 -0.09009083 -0.07497699 0.068475366 0.08497197 0.07858769 0.031511337
0.06900291 0.09053662 0.03421945 0.10637184 0.10335844 -0.10308751 0.008935829 -0.0638338
0.022882352 0.09689154 0.09592213 -0.08859839 -0.04071469 -0.057582907 -0.08229155 -0.07472547
-0.09086267 -0.09825642 0.0054170815 0.01189061 0.061325092 -0.0064383866 0.094920784 0.06594086
0.077030644 0.0263515 0.092398964 0.0899285 -0.060993746 0.014642246 0.10347101 -0.09873954
-0.030150563 0.04322838 -0.045928758 -0.0775609 0.015944757 0.0013853959 -0.025273956 -0.061198525
-0.077461936 -0.09969121 -0.021043757 -0.06549172 -0.015354154 0.063421234 0.061680477 0.04908302
0.006543596 -0.08124929 -0.071717754 0.07483575 0.0531269 0.072781965 0.034835886 -0.056944076
0.0052589593 -0.09817947 0.06662402 0.07016403 0.06697098 -0.025858862 0.040142093 0.046829633
-0.070540115 0.08519486 -0.09220664 -0.08918121 0.07747298 -0.09551802 0.07827381 -0.046466507
-0.012126675 0.046768565 0.07039941 0.059275474 -0.043552108 -0.05946431 -0.072679624 0.0038545942
0.053314153 0.044927306 -0.09004395 -0.0129561 0.07340856 -0.078161016 0.054342616 -0.03542648
0.0514836 0.09053866 0.035349246 -0.058207184 -0.048774358 0.0027180454 -0.037677947 0.07854055
0.0666378 -0.027577225 -0.055605825 -0.098590165 0.057589393 -0.08630451 -0.09077352 -0.011149147
0.045161802 -0.10217573 0.09077312 -0.06025679 0.07006284 -0.09469072 -0.016323877 -0.02259144
0.051387724 0.00052634295 -0.035101034 0.10618614 0.079195544 0.06763525 -0.01528872 0.08601051
0.07574691 0.09879435 -0.086129226 0.05080489 -0.036685724 0.015518245 0.03315124 0.01484557
-0.0004233603 0.08063264 0.030238418 -0.019456642 0.016372355 0.08204351 0.102088004 0.034009963
-0.04568007 -0.07149215 -0.06860258 -0.056089923 0.030608352 0.054489076 0.027231582 0.05754159
-0.061505307 -0.044715125 0.020949066 0.044969458 -0.037803452 -0.004483444 0.041318458 0.028420847
0.030351833 0.011722102 -0.042429518 0.06311985 0.08457685 -0.053715207 0.049257677 -0.06258023
-0.03583659 0.01978738 -0.019724337 -0.087653376 0.011140934 0.050770458 -0.061986856 -0.019626494
0.0067165163 0.03137637 0.08982048 -0.036627162 -0.038915377 0.07974245 -0.079343975 0.065257765
-0.036466017 0.09413277 -0.02949562 -0.015487396 0.10088653 0.03226261 -0.06769616 0.021851305
-0.04325795 -0.07417829 0.0032531947 -0.056758944 -0.045207366 -0.06523446 0.080234684 -0.02905017
0.048570566 -0.079234965 0.02055758 0.03034256 -0.05392108 -0.09433414 -0.09153327 0.101290606
-0.05619993 0.07839726 0.074409015 0.06882065 -0.054386046 -0.0069813393 -0.05361272 0.09820107
0.0012918975 -0.0029444387 -0.07138053 0.0923798 0.027869228 0.075551786 0.015442218 -0.004536662
-0.09565915 -0.009610029 0.011084574 0.0579291 -0.020493712 0.03786492 0.008798612 0.056016263
0.05630937 -0.018452974 -0.008125302 -0.07885015 -0.0029780306 -0.057392076 0.008989853 0.050797842
0.05012647 0.022101562 0.037583943 0.03116903 -0.04096326 -0.029593812 -0.09387694 -0.030288408
00000000: 6d2c 693d 5e04 eb3c b0b8 a3bd 2230 ae3d
00000010: 284e a83d ac43 7b3c a544 983c 4614 b5bd
00000020: 3859 ac3c f435 113d 8b81 b8bd 898d 99bd
00000030: d03c 8c3d c905 ae3d 95f2 a03d 0812 013d
00000040: 6651 8d3d 436b b93d b229 0c3d 7bd9 d93d
00000050: 97ad d33d 8b1f d3bd 9567 123c 4cbb 82bd
00000060: c573 bb3c 126f c63d d272 c43d 1373 b5bd
00000070: 72c4 26bd 0edc 6bbd 7988 a8bd ab09 99bd
00000080: 3516 babd a93a c9bd c681 b13b d5d0 423c
00000090: 0530 7b3d 1af9 d2bb d465 c23d 000c 873d
000000a0: 3ec2 9d3d 1adf d73c ab3b bd3d 6f2c b83d
000000b0: 94d4 79bd 08e6 6f3c 9ce8 d33d f537 cabd
000000c0: 50fe f6bc 3e10 313d cb1f 3cbd 40d8 9ebd
000000d0: 949e 823c 2c96 b53a 540b cfbc 4eab 7abd
000000e0: 5da4 9ebd e82a ccbd f563 acbc 8620 86bd
000000f0: fd8f 7bbc fee2 813d aba4 7c3d 470b 493d
00000100: a96b d63b 0766 a6bd c2e0 92bd 7c43 993d
00000110: 989b 593d b60e 953d 13b0 0e3d 313e 69bd
00000120: 5953 ac3b 5112 c9bd 2d72 883d 29b2 8f3d
00000130: 1528 893d f7d5 d3bc 096c 243d 6ed0 3f3d
00000140: 5677 90bd a57a ae3d d6d6 bcbd a3a4 b6bd
00000150: 27aa 9e3d f49e c3bd 054e a03d aa53 3ebd
00000160: f6ae 46bc 6590 3f3d 912d 903d d7ca 723d
00000170: b263 32bd d990 73bd 0ed9 94bd 5c9d 7c3b
00000180: f15f 5a3d b205 383d f668 b8bd d245 54bc
00000190: 3a57 963d e212 a0bd 5d96 5e3d 5b1b 11bd
000001a0: 78e0 523d 556c b93d 5fca 103d a86a 6ebd
000001b0: 9fc7 47bd 3c21 323b 3154 1abd ded9 a03d
000001c0: 6679 883d a2e9 e1bc efc2 63bd a4e9 c9bd
000001d0: dbe2 6b3d 6bc0 b0bd 78e7 b9bd e9aa 36bc
000001e0: 95fb 383d 8241 d1bd 42e7 b93d d3cf 76bd
000001f0: 1b7d 8f3d 35ed c1bd a7b9 85bc af11 b9bc
00000200: ef7b 523d 47fa 093a 1ac6 0fbd 1e78 d93d
00000210: 4631 a23d 5a84 8a3d 8a7d 7abc 4726 b03d
00000220: 3221 9b3d b154 ca3d 8564 b0bd ca18 503d
00000230: c543 16bd 3d40 7e3c 98c9 073d d53a 733c
00000240: 75f6 ddb9 ba22 a53d 8fb6 f73c 8963 9fbc
00000250: 511f 863c 6e06 a83d 8413 d13d 084e 0b3d
00000260: 061b 3bbd 7a6a 92bd 827f 8cbd 8cbe 65bd
00000270: 5ebe fa3c f02f 5f3d c414 df3c bbb0 6b3d
00000280: fdec 7bbd 3527 37bd 609d ab3c e531 383d
00000290: cbd7 1abd dbe9 92bb 8b3d 293d d6d2 e83c
000002a0: 68a4 f83c 0f0e 403c 93ca 2dbd fb44 813d
000002b0: a136 ad3d 7a04 5cbd 6bc2 493d 102a 80bd
000002c0: 63c9 12bd 2519 a23c ef94 a1bc 9d83 b3bd
000002d0: 7788 363c aff4 4f3d eee5 7dbd bec7 a0bc
000002e0: 3916 dc3b 8284 003d cdf3 b73d 5d06 16bd
000002f0: bb65 1fbd 0250 a33d 187f a2bd dda5 853d
00000300: 645d 15bd afc8 c03d cca0 f1bc d9be 7dbc
00000310: 999d ce3d cc25 043d 49a4 8abd 8201 b33c
00000320: 402f 31bd caea 97bd 8d33 553b 117c 68bd
00000330: 5c2b 39bd a599 85bd 1552 a43d 9ffa edbc
00000340: eef1 463d f145 a2bd 5f68 a83c f690 f83c
00000350: 5adc 5cbd 4232 c1bd cc75 bbbd 7371 cf3d
00000360: e631 66bd be8e a03d c163 983d d7f1 8c3d
00000370: e7c3 5ebd b8c3 e4bb 0399 5bbd a51d c93d
00000380: e354 a93a 7cf7 40bb f52f 92bd 9f31 bd3d
00000390: 024e e43c e5ba 9a3d 5b01 7d3c 47a8 94bb
000003a0: f2e8 c3bd 6273 1dbc 139c 353c 1047 6d3d
000003b0: 6ee2 a7bc 3f18 1b3d 0e28 103c 4f71 653d
000003c0: a7a4 663d b12a 97bc fd1f 05bc 307c a1bd
000003d0: 102b 43bb f413 6bbd 2d4a 133c 6611 503d
000003e0: 6a51 4d3d 560e b53c 9ff1 193d 3256 ff3c
000003f0: 17c9 27bd b96e f2bc 8e42 c0bd 651f f8bc

recurrent.weight_hh_l0 f4 [512, 128]
-0.009732382 -0.06776515 0.07431087 -0.07364051 0.001706891 -0.006939052 0.023844615 -0.070310034
-0.00089880597 -0.019863987 -0.08645184 0.07252645 0.06897378 -0.0031004741 -0.011915783 -0.005626651
0.02849197 -0.080708236 0.09194739 0.0008296866 0.08504307 0.066463225 -0.06126756 -0.07055509
-0.066782095 -0.00035086717 -0.00038008168 -0.0010266171 0.0114206625 -0.03271871 0.021855274 -0.06105687
-0.015572852 0.052786153 -0.066410154 0.06680945 0.022386769 0.09103385 -0.023698617 0.0018767349
-0.006111172 0.049324166 -7.172683e-05 -0.012242518 0.02044247 0.041139223 0.003372652 -0.0057893274
0.054035176 -0.035102896 -0.010891054 0.019052682 0.015769653 0.061052132 0.053637933 0.031239798
-0.0053393934 0.024637355 0.028000398 0.08481074 -0.031691566 -0.010088204 -0.0040315962 -0.05910751
0.010537096 0.04548476 -0.01646332 0.0059943874 0.0058670016 0.035536878 -0.08271205 -0.050566424
0.059365086 0.021748582 0.09103626 -0.062588684 0.08131807 -0.00019386888 -0.057961524 0.07368637
0.03794981 0.040285487 0.08611466 -0.00063718815 0.04057459 -0.0793069 -0.083040774 -0.05250505
-0.084237374 -0.018497694 0.060318466 -0.056454178 -0.08735792 -0.03506221 0.05366912 -0.0008550557
0.024584599 -0.060967036 0.059595037 0.026977131 -0.07479649 -0.08008152 0.022366326 0.086883046
0.08724106 0.022786122 0.052333277 0.06367682 0.020482345 0.07639234 0.08022095 0.031482574
0.029060487 0.010260304 -0.038332455 -0.04388452 0.091388404 -0.058978878 -0.0010345869 0.024128122
0.069314785 -0.040394306 -0.08292438 -0.0064160675 0.00025497787 0.012208234 -0.040694427 -0.0011319636
0.0509244 0.05311637 -3.1694894e-05 0.0005457707 -0.045854505 -0.052404605 -0.058190845 -0.018473454
-0.017220529 -0.057062045 0.09091306 0.01946036 -0.04528003 0.040381182 0.08342584 -0.0308689
-0.0020235626 -0.018171823 0.07219049 0.014888542 0.023257343 -0.067761004 0.011379327 -0.03430128
0.042050477 0.045841347 0.06736878 0.09244962 0.024220487 -0.023092473 0.05195659 -0.08161462
-0.0066945986 0.01592672 -0.02959908 0.07404023 -0.0887235 0.051932145 -0.09168289 0.087997094
0.07806041 0.00086185813 -0.09132643 0.048229765 -0.08558339 -0.02604644 -0.06466743 0.07672794
-0.053563144 -0.03728337 -0.027715903 -0.082964756 0.01748858 0.058277585 -0.03748231 0.024516564
-0.0038811793 -0.072786465 -0.06411587 -0.07808949 0.026281752 0.016550805 0.07846935 -0.0018040698
0.043211497 0.038538482 0.0008721362 0.07405328 0.05302233 0.05589869 -0.06177038 0.018141719
0.036686223 -0.07302446 -0.028945448 0.055825274 -0.084757134 -0.008121151 -0.08706056 -0.0022268079
0.048068907 0.051246125 0.058064573 -0.03489717 -0.063045025 0.09263662 -0.0061825872 -0.05717085
-0.05363205 0.055549163 -0.042822205 0.058070697 0.057566367 0.055092867 -0.06630486 0.0052461424
0.0074318303 0.05059492 0.059540387 0.021583349 0.06640321 0.030039283 -0.06875141 0.08559497
-0.014466298 -0.0052519543 -0.0895156 -0.08933978 -0.032626715 -0.079561524 -0.06425457 0.050465666
-0.08343048 0.054669823 0.05938605 0.09020486 -0.047939464 0.04118397 0.0021968277 0.022196993
0.081492186 -0.049776275 -0.086115524 -0.023611603 0.02414596 -0.023741173 0.02120288 0.029716833
00000000: 9274 1fbc 74c8 8abd 4c30 983d d6d0 96bd
00000010: c2b9 df3a fd60 e3bb c855 c33c b5fe 8fbd
00000020: d99d 6bba cdb9 a2bc aa0d b1bd bf88 943d
00000030: 2042 8d3d 5331 4bbb 6b3a 43bc c55f b8bb
00000040: fe67 e93c 5c4a a5bd ea4e bc3d 537f 593a
00000050: 102b ae3d df1d 883d b1f3 7abd 307f 90bd
00000060: 0dc5 88bd 98f4 b7b9 b345 c7b9 8e8f 86ba
00000070: bb1d 3b3c 0e04 06bd d509 b33c c516 7abd
00000080: 4725 7fbc 4b36 583d 0c02 88bd 65d3 883d
00000090: 7564 b73c f56f ba3d 9a23 c2bc c6fc f53a
000000a0: 3a40 c8bb 2308 4a3d 0c6c 96b8 d894 48bc
000000b0: f876 a73c 9a81 283d b607 5d3b 66b4 bdbb
000000c0: fd53 5d3d 0ec8 0fbd 6470 32bc 5f14 9c3c
000000d0: 5c2f 813c cd11 7a3d 73b3 5b3d 9bea ff3c
000000e0: 14f6 aebb 47d4 c93c 1761 e53c 41b1 ad3d
000000f0: 04cf 01bd ff48 25bc 7b1b 84bb b71a 72bd
00000100: c9a3 2c3c 3a4e 3a3d 16de 86bc 916c c43b
00000110: fa3f c03b 1e8f 113d ef64 a9bd bd1e 4fbd
00000120: ce28 733d 152a b23c 3871 ba3d 7f2e 80bd
00000130: 178a a63d 4849 4bb9 1069 6dbd e1e8 963d
00000140: 4371 1b3d 6502 253d e25c b03d f908 27ba
00000150: 8b31 263d a86b a2bd 4811 aabd 890f 57bd
00000160: a584 acbd 7a88 97bc 7f10 773d 7f3c 67bd
00000170: b6e8 b2bd 649d 0fbd 27d4 5b3d d125 60ba
00000180: a465 c93c 92b8 79bd ed19 743d 25ff dc3c
00000190: e72e 99bd c801 a4bd 9639 b73c bdef b13d
000001a0: 71ab b23d f6a9 ba3c 6b5b 563d fe68 823d
000001b0: 97ca a73c 9673 9c3d e24a a43d dff3 003d
000001c0: 4210 ee3c d61a 283c 7e02 1dbd 41c0 33bd
000001d0: d829 bb3d d693 71bd fa9a 87ba 57a8 c53c
000001e0: e9f4 8d3d 8074 25bd 42d4 a9bd e03d d2bb
000001f0: 8dae 8539 0b05 483c 33af 26bd 655e 94ba
00000200: 1b96 503d 8d90 593d 22f0 04b8 0d12 0f3a
00000210: efd1 3bbd 36a6 56bd 8659 6ebd a455 97bc
00000220: 1112 8dbc e4b9 69bd a030 ba3d 556b 9f3c
00000230: 8e77 39bd bd66 253d 2bdb aa3d c6e0 fcbc
00000240: bf9d 04bb 13dd 94bc 9cd8 933d 12ef 733c
00000250: 2f86 be3c 48c6 8abd 5b70 3a3c 807f 0cbd
00000260: 1f3d 2c3d 23c4 3b3d a5f8 893d 3a56 bd3d
00000270: 0b6a c63c 6d2c bdbc 6fd0 543d 9125 a7bd
00000280: 5d5e dbbb c178 823c c579 f2bc 67a2 973d
00000290: abb4 b5bd cdb6 543d 3dc4 bbbd d237 b43d
000002a0: 23de 9f3d 52ee 613a 5a09 bbbd 938c 453d
000002b0: 5846 afbd 585f d5bc 5c70 84bd 8a23 9d3d
000002c0: 0765 5bbd 72b6 18bd 760c e3bc 6de9 a9bd
000002d0: 3644 8f3c 7ab4 6e3d 0d87 19bd f6d6 c83c
000002e0: 625b 7ebb 1211 95bd 2e4f 83bd 62ed 9fbd
000002f0: d44c d73c 8e95 873c 8ab4 a03d 8a76 ecba
00000300: 8afe 303d 87da 1d3d 12a0 643a 3fa9 973d
00000310: f12d 593d 06f6 643d f002 7dbd f19d 943c
00000320: 4b44 163d d98d 95bd 011f edbc 0ba9 643d
00000330: 2695 adbd 930e 05bc cf4c b2bd a3ef 11bb
00000340: e7e3 443d 75e7 513d 1ed5 6d3d 56f0 0ebd
00000350: c01d 81bd 45b8 bd3d 4d97 cabb fb2b 6abd
00000360: 48ad 5bbd 8587 633d 5666 2fbd 8adb 6d3d
00000370: b6ca 6b3d 0fa9 613d d8ca 87bd d5e7 ab3b
00000380: b686 f33b 9e3c 4f3d 9fe0 733d 90cf b03c
00000390: 68fe 873d f114 f63c 8acd 8cbd 6a4c af3d
000003a0: 0d04 6dbc 9618 acbb f453 b7bd c6f7 b6bd
000003b0: 97a3 05bd 27f1 a2bd e697 83bd 16b5 4e3d
000003c0: 99dd aabd 77ed 5f3d c93e 733d 53bd b83d
000003d0: 2c5c 44bd 86b0 283d a7f8 0f3b 78d6 b53c
000003e0: 60e5 a63d 35e2 4bbd 565d b0bd 1f6d c1bc
000003f0: c0cd c53c d97c c2bc aab1 ad3c b770 f33c

recurrent.bias_ih_l0 f4 [512]
-0.00012927527 0.0037202798 -0.000988999 0.0037874219 -0.0033915539 0.0032382044 -0.0018020063 0.0035788293
0.0033804013 -0.0015558077 -0.0035510755 -0.0038387435 -0.0029442857 -0.003362958 0.0017665657 0.001917102
-0.0037574037 -0.0030295732 -0.0034028448 0.0036258732 0.003425724 0.0035889037 -0.0005050946 0.003490972
-0.0033874402 -0.0014615323 0.0019887532 -0.0036178075 0.0032557924 0.003287833 -0.0037779298 -0.0034854372
0.0024936027 0.0015346318 -0.0022966443 -0.00097534916 0.002054807 -0.003830328 0.0007206126 0.002536931
-0.0016657723 0.0036888637 0.0011142483 -0.0021578274 0.003342518 0.003615269 -0.001214385 -0.0038964592
0.0027009011 -0.0038428805 0.0028582767 0.0024707597 -0.003745188 -0.0022635667 0.003440829 -0.0037906293
0.0029415241 0.0004855536 0.0019817892 0.0037168423 0.0008969454 0.0034233374 0.0034382017 0.0037783708
0.0031142544 -0.0038136654 -0.0034323009 0.0019349899 0.0019088908 0.0024199425 -0.0030789003 -0.00010462949
-0.0027434658 -0.0013931711 0.0031128752 -0.0005773418 -0.0012833423 -0.0036328097 0.0034775943 0.0014595592
0.0038465844 -0.0027581605 0.0036584954 0.0008368674 -0.0012999668 0.0036728138 -0.0031644483 0.0014926112
0.0034755736 -0.0024649417 0.00088735996 -0.0027248233 0.0038536573 -0.0016312912 0.003804086 0.0039631687
0.0019118964 0.0009559594 0.002823623 -0.002988359 -0.0035916683 0.00037189317 0.0039267237 -0.00035040054
-0.001174203 0.0025217733 0.0033265576 0.00020384062 0.0038029836 0.0037794271 -0.0030669584 0.0021176958
-0.003366652 0.00045409088 0.0037922338 0.0036121472 2.6610434e-05 0.0039234925 0.0038241032 -0.0032679397
0.0009246664 0.0006418649 -0.0013999095 -0.0036693858 0.0008483291 -0.00019499869 0.0015699774 0.0038553076
0.0 0.0 0.0 0.0 0.0 0.0 0.0 0.0
0.0 0.0 0.0 0.0 0.0 0.0 0.0 0.0
0.0 0.0 0.0 0.0 0.0 0.0 0.0 0.0
0.0 0.0 0.0 0.0 0.0 0.0 0.0 0.0
0.0 0.0 0.0 0.0 0.0 0.0 0.0 0.0
0.0 0.0 0.0 0.0 0.0 0.0 0.0 0.0
0.0 0.0 0.0 0.0 0.0 0.0 0.0 0.0
0.0 0.0 0.0 0.0 0.0 0.0 0.0 0.0
0.0 0.0 0.0 0.0 0.0 0.0 0.0 0.0
0.0 0.0 0.0 0.0 0.0 0.0 0.0 0.0
0.0 0.0 0.0 0.0 0.0 0.0 0.0 0.0
0.0 0.0 0.0 0.0 0.0 0.0 0.0 0.0
0.0 0.0 0.0 0.0 0.0 0.0 0.0 0.0
0.0 0.0 0.0 0.0 0.0 0.0 0.0 0.0
0.0 0.0 0.0 0.0 0.0 0.0 0.0 0.0
0.0 0.0 0.0 0.0 0.0 0.0 0.0 0.0
00000000: 118e 07b9 f0cf 733b 4da1 81ba 6536 783b
00000010: d544 5ebb 0e38 543b 4c31 ecba cb8a 6a3b
00000020: b989 5d3b 3eec cbba 29b9 68bb 6e93 7bbb
00000030: ebf4 40bb 1365 5cbb 1c8c e73a 4547 fb3a
00000040: c63e 76bb ce8b 46bb 4302 5fbb 0fa0 6d3b
00000050: 1d82 603b d033 6b3b 5368 04ba cbc8 643b
00000060: d1ff 5dbb e390 bfba be55 023b bd18 6dbb
00000070: 225f 553b af78 573b 2597 77bb ef6b 64bb
00000080: b66b 233b b325 c93a 4c83 16bb 93ae 7fba
00000090: f1a9 063b 3d06 7bbb 7ee7 3c3a a442 263b
000000a0: 0b56 daba ddc0 713b f80b 923a 566a 0dbb
000000b0: 250e 5b3b 26ee 6c3b 002c 9fba bd5b 7fbb
000000c0: 9a01 313b d6d8 7bbb ed51 3b3b 78ec 213b
000000d0: d471 75bb 5958 14bb 887f 613b 356c 78bb
000000e0: 96c6 403b e791 fe39 e8e0 013b 4496 733b
000000f0: fd20 6b3a 125a 603b 7453 613b 8b9e 773b
00000100: 8518 4c3b b0ee 79bb 74f0 60bb 7d9f fd3a
00000110: bf33 fa3a e697 1e3b 60c7 49bb 886c dbb8
00000120: b8cb 33bb 119b b6ba 6101 4c3b c158 17ba
00000130: d235 a8ba 6f14 6ebb 5ae8 633b ae4e bf3a
00000140: fa16 7c3b 41c2 34bb 5ec3 6f3b 3861 5b3a
00000150: a663 aaba 97b3 703b a262 4fbb b9a3 c33a
00000160: 73c6 633b dc8a 21bb b89d 683a f392 32bb
00000170: a48d 7c3b 0dd1 d5ba f94d 793b 78dd 813b
00000180: 9998 fa3a 5999 7a3a 880c 393b 58d8 43bb
00000190: 3262 6bbb a8fa c239 bfab 803b f7b5 b7b9
000001a0: b7e7 99ba 5644 253b 6002 5a3b 0dbe 5539
000001b0: 7a3b 793b 44b0 773b 06ff 48bb 0ac9 0a3b
000001c0: 0ca3 5cbb 0c13 ee39 2087 783b c6b9 6c3b
000001d0: 7939 df37 a490 803b ce9d 7a3b ee2a 56bb
000001e0: 5065 723a d342 283a 2b7d b7ba 147a 70bb
000001f0: 6762 5e3a 9078 4cb9 b3c7 cd3a 54a9 7c3b
00000200: 0000 0000 0000 0000 0000 0000 0000 0000
00000210: 0000 0000 0000 0000 0000 0000 0000 0000
00000220: 0000 0000 0000 0000 0000 0000 0000 0000
00000230: 0000 0000 0000 0000 0000 0000 0000 0000
00000240: 0000 0000 0000 0000 0000 0000 0000 0000
00000250: 0000 0000 0000 0000 0000 0000 0000 0000
00000260: 0000 0000 0000 0000 0000 0000 0000 0000
00000270: 0000 0000 0000 0000 0000 0000 0000 0000
00000280: 0000 0000 0000 0000 0000 0000 0000 0000
00000290: 0000 0000 0000 0000 0000 0000 0000 0000
000002a0: 0000 0000 0000 0000 0000 0000 0000 0000
000002b0: 0000 0000 0000 0000 0000 0000 0000 0000
000002c0: 0000 0000 0000 0000 0000 0000 0000 0000
000002d0: 0000 0000 0000 0000 0000 0000 0000 0000
000002e0: 0000 0000 0000 0000 0000 0000 0000 0000
000002f0: 0000 0000 0000 0000 0000 0000 0000 0000
00000300: 0000 0000 0000 0000 0000 0000 0000 0000
00000310: 0000 0000 0000 0000 0000 0000 0000 0000
00000320: 0000 0000 0000 0000 0000 0000 0000 0000
00000330: 0000 0000 0000 0000 0000 0000 0000 0000
00000340: 0000 0000 0000 0000 0000 0000 0000 0000
00000350: 0000 0000 0000 0000 0000 0000 0000 0000
00000360: 0000 0000 0000 0000 0000 0000 0000 0000
00000370: 0000 0000 0000 0000 0000 0000 0000 0000
00000380: 0000 0000 0000 0000 0000 0000 0000 0000
00000390: 0000 0000 0000 0000 0000 0000 0000 0000
000003a0: 0000 0000 0000 0000 0000 0000 0000 0000
000003b0: 0000 0000 0000 0000 0000 0000 0000 0000
000003c0: 0000 0000 0000 0000 0000 0000 0000 0000
000003d0: 0000 0000 0000 0000 0000 0000 0000 0000
000003e0: 0000 0000 0000 0000 0000 0000 0000 0000
000003f0: 0000 0000 0000 0000 0000 0000 0000 0000

recurrent.bias_hh_l0 f4 [512]
-0.00012927527 0.0037202798 -0.000988999 0.0037874219 -0.0033915539 0.0032382044 -0.0018020063 0.0035788293
0.0033804013 -0.0015558077 -0.0035510755 -0.0038387435 -0.0029442857 -0.003362958 0.0017665657 0.001917102
-0.0037574037 -0.0030295732 -0.0034028448 0.0036258732 0.003425724 0.0035889037 -0.0005050946 0.003490972
-0.0033874402 -0.0014615323 0.0019887532 -0.0036178075 0.0032557924 0.003287833 -0.0037779298 -0.0034854372
0.0024936027 0.0015346318 -0.0022966443 -0.00097534916 0.002054807 -0.003830328 0.0007206126 0.002536931
-0.0016657723 0.0036888637 0.0011142483 -0.0021578274 0.003342518 0.003615269 -0.001214385 -0.0038964592
0.0027009011 -0.0038428805 0.0028582767 0.0024707597 -0.003745188 -0.0022635667 0.003440829 -0.0037906293
0.0029415241 0.0004855536 0.0019817892 0.0037168423 0.0008969454 0.0034233374 0.0034382017 0.0037783708
0.0031142544 -0.0038136654 -0.0034323009 0.0019349899 0.0019088908 0.0024199425 -0.0030789003 -0.00010462949
-0.0027434658 -0.0013931711 0.0031128752 -0.0005773418 -0.0012833423 -0.0036328097 0.0034775943 0.0014595592
0.0038465844 -0.0027581605 0.0036584954 0.0008368674 -0.0012999668 0.0036728138 -0.0031644483 0.0014926112
0.0034755736 -0.0024649417 0.00088735996 -0.0027248233 0.0038536573 -0.0016312912 0.003804086 0.0039631687
0.0019118964 0.0009559594 0.002823623 -0.002988359 -0.0035916683 0.00037189317 0.0039267237 -0.00035040054
-0.001174203 0.0025217733 0.0033265576 0.00020384062 0.0038029836 0.0037794271 -0.0030669584 0.0021176958
-0.003366652 0.00045409088 0.0037922338 0.0036121472 2.6610434e-05 0.0039234925 0.0038241032 -0.0032679397
0.0009246664 0.0006418649 -0.0013999095 -0.0036693858 0.0008483291 -0.00019499869 0.0015699774 0.0038553076
0.0 0.0 0.0 0.0 0.0 0.0 0.0 0.0
0.0 0.0 0.0 0.0 0.0 0.0 0.0 0.0
0.0 0.0 0.0 0.0 0.0 0.0 0.0 0.0
0.0 0.0 0.0 0.0 0.0 0.0 0.0 0.0
0.0 0.0 0.0 0.0 0.0 0.0 0.0 0.0
0.0 0.0 0.0 0.0 0.0 0.0 0.0 0.0
0.0 0.0 0.0 0.0 0.0 0.0 0.0 0.0
0.0 0.0 0.0 0.0 0.0 0.0 0.0 0.0
0.0 0.0 0.0 0.0 0.0 0.0 0.0 0.0
0.0 0.0 0.0 0.0 0.0 0.0 0.0 0.0
0.0 0.0 0.0 0.0 0.0 0.0 0.0 0.0
0.0 0.0 0.0 0.0 0.0 0.0 0.0 0.0
0.0 0.0 0.0 0.0 0.0 0.0 0.0 0.0
0.0 0.0 0.0 0.0 0.0 0.0 0.0 0.0
0.0 0.0 0.0 0.0 0.0 0.0 0.0 0.0
0.0 0.0 0.0 0.0 0.0 0.0 0.0 0.0
00000000: 118e 07b9 f0cf 733b 4da1 81ba 6536 783b
00000010: d544 5ebb 0e38 543b 4c31 ecba cb8a 6a3b
00000020: b989 5d3b 3eec cbba 29b9 68bb 6e93 7bbb
00000030: ebf4 40bb 1365 5cbb 1c8c e73a 4547 fb3a
00000040: c63e 76bb ce8b 46bb 4302 5fbb 0fa0 6d3b
00000050: 1d82 603b d033 6b3b 5368 04ba cbc8 643b
00000060: d1ff 5dbb e390 bfba be55 023b bd18 6dbb
00000070: 225f 553b af78 573b 2597 77bb ef6b 64bb
00000080: b66b 233b b325 c93a 4c83 16bb 93ae 7fba
00000090: f1a9 063b 3d06 7bbb 7ee7 3c3a a442 263b
000000a0: 0b56 daba ddc0 713b f80b 923a 566a 0dbb
000000b0: 250e 5b3b 26ee 6c3b 002c 9fba bd5b 7fbb
000000c0: 9a01 313b d6d8 7bbb ed51 3b3b 78ec 213b
000000d0: d471 75bb 5958 14bb 887f 613b 356c 78bb
000000e0: 96c6 403b e791 fe39 e8e0 013b 4496 733b
000000f0: fd20 6b3a 125a 603b 7453 613b 8b9e 773b
00000100: 8518 4c3b b0ee 79bb 74f0 60bb 7d9f fd3a
00000110: bf33 fa3a e697 1e3b 60c7 49bb 886c dbb8
00000120: b8cb 33bb 119b b6ba 6101 4c3b c158 17ba
00000130: d235 a8ba 6f14 6ebb 5ae8 633b ae4e bf3a
00000140: fa16 7c3b 41c2 34bb 5ec3 6f3b 3861 5b3a
00000150: a663 aaba 97b3 703b a262 4fbb b9a3 c33a
00000160: 73c6 633b dc8a 21bb b89d 683a f392 32bb
00000170: a48d 7c3b 0dd1 d5ba f94d 793b 78dd 813b
00000180: 9998 fa3a 5999 7a3a 880c 393b 58d8 43bb
00000190: 3262 6bbb a8fa c239 bfab 803b f7b5 b7b9
000001a0: b7e7 99ba 5644 253b 6002 5a3b 0dbe 5539
000001b0: 7a3b 793b 44b0 773b 06ff 48bb 0ac9 0a3b
000001c0: 0ca3 5cbb 0c13 ee39 2087 783b c6b9 6c3b
000001d0: 7939 df37 a490 803b ce9d 7a3b ee2a 56bb
000001e0: 5065 723a d342 283a 2b7d b7ba 147a 70bb
000001f0: 6762 5e3a 9078 4cb9 b3c7 cd3a 54a9 7c3b
00000200: 0000 0000 0000 0000 0000 0000 0000 0000
00000210: 0000 0000 0000 0000 0000 0000 0000 0000
00000220: 0000 0000 0000 0000 0000 0000 0000 0000
00000230: 0000 0000 0000 0000 0000 0000 0000 0000
00000240: 0000 0000 0000 0000 0000 0000 0000 0000
00000250: 0000 0000 0000 0000 0000 0000 0000 0000
00000260: 0000 0000 0000 0000 0000 0000 0000 0000
00000270: 0000 0000 0000 0000 0000 0000 0000 0000
00000280: 0000 0000 0000 0000 0000 0000 0000 0000
00000290: 0000 0000 0000 0000 0000 0000 0000 0000
000002a0: 0000 0000 0000 0000 0000 0000 0000 0000
000002b0: 0000 0000 0000 0000 0000 0000 0000 0000
000002c0: 0000 0000 0000 0000 0000 0000 0000 0000
000002d0: 0000 0000 0000 0000 0000 0000 0000 0000
000002e0: 0000 0000 0000 0000 0000 0000 0000 0000
000002f0: 0000 0000 0000 0000 0000 0000 0000 0000
00000300: 0000 0000 0000 0000 0000 0000 0000 0000
00000310: 0000 0000 0000 0000 0000 0000 0000 0000
00000320: 0000 0000 0000 0000 0000 0000 0000 0000
00000330: 0000 0000 0000 0000 0000 0000 0000 0000
00000340: 0000 0000 0000 0000 0000 0000 0000 0000
00000350: 0000 0000 0000 0000 0000 0000 0000 0000
00000360: 0000 0000 0000 0000 0000 0000 0000 0000
00000370: 0000 0000 0000 0000 0000 0000 0000 0000
00000380: 0000 0000 0000 0000 0000 0000 0000 0000
00000390: 0000 0000 0000 0000 0000 0000 0000 0000
000003a0: 0000 0000 0000 0000 0000 0000 0000 0000
000003b0: 0000 0000 0000 0000 0000 0000 0000 0000
000003c0: 0000 0000 0000 0000 0000 0000 0000 0000
000003d0: 0000 0000 0000 0000 0000 0000 0000 0000
000003e0: 0000 0000 0000 0000 0000 0000 0000 0000
000003f0: 0000 0000 0000 0000 0000 0000 0000 0000

recurrent.weight_ih_l1 f4 [512, 128]
-0.060474955 0.060570374 0.036116354 -0.03560193 0.026230393 -0.06944739 -0.07496914 0.08564032
-0.003310208 -0.0383254 -0.02318797 0.051783323 -0.06991613 0.08235599 -0.068327904 -0.037333447
-0.063170515 0.054649457 -0.07504233 0.023824785 0.061350152 -0.055382214 -0.08258296 0.072863996
-0.015713979 -0.0012651253 -0.048422907 0.009506606 0.027430344 -0.015594295 0.07350065 0.0023573977
-0.044069078 -0.083378166 0.040671606 -0.010096643 0.046392493 0.0020347394 0.07174767 0.056696754
0.09093941 0.036834873 0.063961916 0.04209307 0.0007074981 0.007948369 -0.074520156 -0.03101612
-0.060285922 -0.091462344 -0.017864903 0.04058652 -0.04121032 -0.017955337 0.029044338 -0.002884637
-0.020204134 -0.042634945 0.07337761 0.049485832 0.062114764 0.028407853 0.078831255 -0.014693206
0.060074292 -0.029357113 -0.047081698 -0.08429068 0.058077257 0.009904906 -0.030748906 0.057389796
-0.06840697 -0.053780403 -0.038851794 -0.04703245 -0.0185859 -0.05136777 -0.03013985 0.08573337
0.06012514 -0.006488919 0.03798877 -0.042145476 -0.047033023 0.07613275 0.051684815 0.026524354
-0.087440275 0.09055734 0.07250775 0.061021216 0.07337818 0.015400107 -0.004294586 0.0062530544
0.06451689 -0.014019436 -0.073611006 -0.08450458 -0.06786738 0.026483042 -0.0069216006 0.04186713
-0.014013886 -0.00029071158 -0.06172552 0.07000568 0.01924018 -0.008904957 -0.08031195 -0.07940324
-0.010907741 0.0023182034 -0.034310956 0.091454156 -0.06220622 -0.0663035 0.05107186 -0.053044558
-0.013891312 -0.01520599 0.0010451685 -0.03337413 -0.049273197 0.013129775 0.02863812 -0.08616078
-0.03915919 0.01827871 -0.0059128273 -0.08346018 -0.0028730384 -0.08280265 0.0914273 -0.06384961
0.056458853 0.06084691 -0.00825087 -0.048016384 -0.079462916 0.030498987 -0.0016280179 -0.06329189
0.015264116 0.05191069 0.031572886 -0.06143658 0.05231283 0.040325362 0.0918693 0.0023078474
-0.009262727 -0.08240695 -0.033386935 0.0007829064 -0.07544811 0.015365652 0.047357295 0.061953105
0.012446679 -0.009672055 0.03295439 0.09135829 0.071077414 -0.040843863 -0.08603891 -0.04996692
0.07767571 0.035077892 -0.04393055 -0.0035423439 0.044671763 0.08338462 -0.016460216 -0.044912238
0.0040277964 0.0469774 -0.023575598 0.09046997 0.051998693 0.003311185 -0.05821805 -0.02820406
0.0033473684 -0.031467788 -0.083585106 0.08138456 0.015048875 0.03286036 0.015416501 -0.019960139
0.05320223 0.05017231 0.06680173 -0.004861397 -0.0727687 0.026986029 0.07940952 0.030447476
0.022026327 0.06932857 -0.047281984 -0.04424708 -0.051589943 -0.044250138 -0.017149331 -0.0055854595
0.019787785 0.010814608 0.07765129 -0.071658574 -0.08797878 0.05734845 -0.08234525 -0.0005657092
0.088265456 -0.052860375 -0.05353205 -0.08122828 -0.0907319 -0.08874998 0.08360454 -0.0010139212
0.027150966 0.045073114 -0.0330199 0.067131825 0.018594217 -0.0042801565 0.035149317 0.091694556
-0.07446445 -0.051229816 0.02762898 -0.05652265 0.019505871 0.008617211 -0.009657725 0.05479837
0.007380945 0.045679685 0.008607049 0.08567615 -0.08206031 -0.076443 -0.083684966 -0.061477426
0.04556304 0.0059449263 0.055970334 0.081965506 0.03258787 0.029199239 -0.045520574 0.083233036
00000000: 96b4 77bd a418 783d beee 133d 54d3 11bd
00000010: 1fe1 d63c 6f3a 8ebd 6c89 99bd 3164 af3d
00000020: 13f0 58bb 18fb 1cbd b3f4 bdbc c01a 543d
00000030: 3030 8fbd 42aa a83d 80ef 8bbd f5ea 18bd
00000040: 8b5f 81bd 1cd8 5f3d cbaf 99bd 322c c33c
00000050: 4c4a 7b3d 76d8 62bd 4121 a9bd b839 953d
00000060: 9aba 80bc 90d2 a5ba 1957 46bd 98c1 1b3c
00000070: 9ab5 e03c 377f 7fbc 8287 963d 927e 1a3b
00000080: c781 34bd 2cc2 aabd 4597 263d 646c 25bc
00000090: 0e06 3e3d 4359 053b 71f0 923d db3a 683d
000000a0: 713e ba3d 2ae0 163d 77fe 823d c869 2c3d
000000b0: 6577 393a e039 023c 069e 98bd 8515 febc
000000c0: 5fee 76bd 9c50 bbbd 6b59 92bc 0d3e 263d
000000d0: 27cc 28bd 1217 93bc 64ee ed3c 2e0c 3dbb
000000e0: 2483 a5bc fba1 2ebd 0047 963d a8b1 4a3d
000000f0: 0d6c 7e3d 96b7 e83c 4872 a13d c6bb 70bc
00000100: 7610 763d 547e f0bc bdd8 40bd 98a0 acbd
00000110: 6be2 6d3d 3048 223c 21e5 fbbc 9011 6b3d
00000120: f418 8cbd d748 5cbd 0f23 1fbd 19a5 40bd
00000130: 7541 98bc 0367 52bd d9e7 f6bc fa94 af3d
00000140: c745 763d ffa0 d4bb 1d9a 1b3d bca0 2cbd
00000150: b3a5 40bd 7deb 9b3d 75b3 533d 9a49 d93c
00000160: e313 b3bd 2076 b93d f17e 943d 62f1 793d
00000170: 4d47 963d bb50 7c3c 99b9 8cbb 6ce6 cc3b
00000180: 6e21 843d c7b1 65bc 5ec1 96bd bd10 adbd
00000190: 0efe 8abd f7f2 d83c 98ce e2bb de7c 2b3d
000001a0: 809a 65bc a66a 98b9 e6d3 7cbd 235f 8f3d
000001b0: 959d 9d3c 19e6 11bc 977a a4bd 2a9e a2bd
000001c0: 62b6 32bc 00ed 173b a589 0cbd 514c bb3d
000001d0: f3cb 7ebd 21ca 87bd ba30 513d 4045 59bd
000001e0: 6398 63bc 8b22 79bc 09fe 883a 50b3 08bd
000001f0: b1d2 49bd 451e 573c 7e9a ea3c 1075 b0bd
00000200: 6365 20bd 3cbd 953c 64c0 c1bb 2ced aabd
00000210: 9649 3cbb 7094 a9bd 3c3e bb3d 96c3 82bd
00000220: 6641 673d 9c3a 793d a82e 07bc d4ac 44bd
00000230: 74bd a2bd 03d9 f93c 3763 d5ba 2e9f 81bd
00000240: 5816 7a3c 4ea0 543d 9252 013d eca4 7bbd
00000250: fa45 563d 352c 253d f925 bc3d 413f 173b
00000260: b1c2 17bc fac4 a8bd bdc0 08bd f63b 4d3a
00000270: 8a84 9abd 37c0 7b3c b9f9 413d 8ac2 7d3d
00000280: 28ed 4b3c 8a77 1ebc 2ffb 063d 0e1a bb3d
00000290: 0991 913d e54b 27bd 2b35 b0bd 1daa 4cbd
000002a0: 7114 9f3d d6ad 0f3d 85f0 33bd ab26 68bb
000002b0: bdf9 363d 8ec5 aa3d 93d7 86bc e5f5 37bd
000002c0: 9bfb 833b 606b 403d 9d21 c1bc 5248 b93d
000002d0: 95fc 543d 7700 593b 0d76 6ebd 330c e7bc
000002e0: 865f 5b3b 5ee4 00bd ab2e abbd f3ac a63d
000002f0: 8e8f 763c 9698 063d 7e95 7c3c 7283 a3bc
00000300: 95ea 593d 7b81 4d3d 58cf 883d 5b4c 9fbb
00000310: c207 95bd ce11 dd3c 75a1 a23d fc6c f93c
00000320: 8e70 b43c 23fc 8d3d c1aa 41bd 6d3c 35bd
00000330: fa4f 53bd a23f 35bd c17c 8cbc 3b06 b7bb
00000340: fe19 a23c c12f 313c a407 9f3d bbc1 92bd
00000350: 382e b4bd 35e6 6a3d a0a4 a8bd 1a4c 14ba
00000360: 85c4 b43d 1f84 58bd 6c44 5bbd 035b a6bd
00000370: a5d1 b9bd 8dc2 b5bd db38 ab3d 8de5 84ba
00000380: b46b de3c 969e 383d e03f 07bd 697c 893d
00000390: e652 983c 8e40 8cbb bbf8 0f3d 5bca bb3d
000003a0: d180 98bd 5bd6 51bd 2c56 e23c 4b84 67bd
000003b0: c7ca 9f3c 342f 0d3c 6f3b 1ebc 4174 603d
000003c0: dbdb f13b 9f1a 3b3d 9404 0d3c fa76 af3d
000003d0: 3c0f a8bd 268e 9cbd 0663 abbd c1cf 7bbd
000003e0: 4fa0 3a3d a8cd c23b 2641 653d 88dd a73d
000003f0: dc7a 053d 3e33 ef3c c873 3abd 1576 aa3d

recurrent.weight_hh_l1 f4 [512, 128]
-0.03674672 -0.070124626 0.08071439 0.0701286 0.05113669 -0.012261052 -0.0001959186 0.08738675
0.059475977 0.03965725 -0.07622465 0.016523331 0.0344029 0.06321411 0.060036063 -0.032580856
-0.046565514 -0.04909167 -0.025398886 0.09128902 -0.07630839 0.015752317 0.053884864 0.05186085
-0.06019765 -0.036784105 7.949157e-05 0.08489507 0.03804226 0.035104573 -0.06913752 0.0223557
0.0211195 0.01764501 -0.05110869 0.057113506 0.081302844 0.069413975 -0.07353599 0.039833046
-0.06769436 0.08359499 -0.04213602 0.07242084 0.06423047 0.077812 0.025553575 -0.042994402
0.07449102 0.067961246 0.0039253477 -0.00058899773 0.0008909016 -0.019813186 -0.033200666 0.06791675
-0.07957979 0.07760842 0.06558308 0.020938678 -0.079916775 -0.03939411 0.08792688 0.0022022552
-0.08489113 0.00038458203 0.048909567 0.08534268 0.00022534917 0.02748538 -0.037825 0.06683849
0.048089605 -0.0139744915 -0.032925516 0.026468687 0.09044305 -0.070318654 0.025713969 0.04328681
0.012896875 -0.06767818 -0.088879675 0.040065825 -0.011501035 -0.049830098 -0.05168317 -0.027989317
0.060152408 -0.0049795276 0.012966697 -0.0020831085 -0.03065717 4.5550623e-05 -0.057747893 0.057492327
-0.036119565 -0.06934547 0.017704716 -0.013716671 0.07409421 0.042677492 0.033910386 0.015897667
-0.0053824014 -0.047902804 0.054707285 -0.008594252 -0.049023584 -0.002055476 0.032076553 -0.026098229
-0.025665987 0.026601791 0.0708331 0.034085914 0.0459272 -0.06832522 -0.011478796 0.009519785
-0.09147818 0.063553244 0.081572175 0.06012878 -0.07396412 0.01322917 -0.00087373133 0.030422237
-0.046063583 0.050464623 -0.024983896 -0.0033028382 -0.032064 -0.00057734305 -0.0016917012 -0.009925723
0.05634686 -0.033807363 0.038856573 0.030836876 -0.033765882 -0.035582766 0.014463778 -0.04333674
0.04658148 -0.056651566 -0.058616605 -0.0047620703 -0.031058202 -0.02496882 -0.05681303 0.07000634
0.05809156 -0.03168917 -0.07503334 0.001936566 0.076924786 0.08379352 0.048045177 -0.09141852
0.012788475 0.014273637 0.08810259 0.06995243 0.020941826 -0.06919181 0.049733136 -0.061797168
0.07606186 -0.057647534 0.030081822 0.042977888 -0.061379574 -0.0666164 0.07295935 -0.026051333
0.030223139 -0.015635721 0.06413309 -0.015655158 -0.05586979 -0.0112170605 -0.0026916324 -0.016087584
-0.0003398096 0.041083936 -0.085150644 0.033064272 0.0695815 -0.09256427 -0.066654906 -0.030971672
-0.06028078 0.06414005 0.08506115 -0.0024960744 0.05742044 0.029250307 -0.07391867 0.04890973
0.07866163 0.008998467 -0.09089782 -0.055533096 -0.03582876 0.046355907 -0.04920714 0.09141871
-0.018777175 0.086151496 -0.06564192 0.08401505 0.015305887 -0.06191188 0.08585932 -0.075001426
-0.047192954 0.074982986 0.08610116 0.037967958 -0.07792574 -0.022172097 -0.053033035 0.0340642
0.07140576 0.04145548 0.050368197 -0.062286697 -0.04080544 0.04733602 0.030651353 0.011894028
0.05217096 -0.07782668 0.06418892 0.045825135 0.04231942 -0.032162752 -0.08089488 0.013394657
-0.075316116 0.0008170109 -0.0071702823 -0.08875758 0.04292125 -0.07599275 -0.08213306 -0.039134234
-0.06926465 -0.03862018 0.029967798 -0.05358805 0.07454972 -0.06321281 -0.058506567 -0.004236034
00000000: bb83 16bd 809d 8fbd 964d a53d 959f 8f3d
00000010: b574 513d 94e2 48bc 806f 4db9 d3f7 b23d
00000020: 159d 733d a46f 223d ab1b 9cbd f05b 873c
00000030: 0eea 0c3d 6676 813d 60e8 753d 8173 05bd
00000040: 7bbb 3ebd 5914 49bd 5311 d0bc bdf5 ba3d
00000050: 9347 9cbd 010b 813c 60b6 5c3d 0b6c 543d
00000060: d091 76bd eeaa 16bd b6b4 a638 77dd ad3d
00000070: 33d2 1b3d d0c9 0f3d f997 8dbd 4d23 b73c
00000080: cd02 ad3c 458c 903c 5957 51bd daef 693d
00000090: 1b82 a63d ea28 8e3d 0a9a 96bd fa27 233d
000000a0: 57a3 8abd da33 ab3d d296 2cbd 6151 943d
000000b0: 448b 833d e65b 9f3d bb55 d13c e61a 30bd
000000c0: bf8e 983d 442f 8b3d 34a0 803b f866 1aba
000000d0: 658b 693a 434f a2bc 6cfd 07bd f017 8b3d
000000e0: bbfa a2bd 2af1 9e3d 6c50 863d 9787 ab3c
000000f0: 68ab a3bd b85b 21bd 0213 b43d b653 103b
00000100: 67db adbd baa1 c939 6655 483d 25c8 ae3d
00000110: b54b 6c39 0529 e13c 63ee 1abd 9ee2 883d
00000120: 9bf9 443d 44f5 64bc e8dc 06bd dcd4 d83c
00000130: 353a b93d 3a03 90bd 1aa6 d23c 834d 313d
00000140: 6a4d 533c dc9a 8abd 8c06 b6bd 101c 243d
00000150: d66e 3cbc a51a 4cbd bbb1 53bd da49 e5bc
00000160: 5f62 763d 4e2b a3bb 4572 543c c384 08bb
00000170: bf24 fbbc 9c0d 3f38 0e89 6cbd 137d 6b3d
00000180: 1cf2 13bd ff04 8ebd 7b09 913c e3bb 60bc
00000190: b5be 973d 98ce 2e3d 9ee5 0a3d d33b 823c
000001a0: db5e b0bb bb35 44bd bf14 603d e8ce 0cbc
000001b0: f4cc 48bd 2ab5 06bb b462 033d f4cb d5bc
000001c0: 7a41 d2bc 00ec d93c f210 913d ac9d 0b3d
000001d0: 291e 3c3d 18ee 8bbd 8f11 3cbc dff8 1b3c
000001e0: e958 bbbd 3428 823d 500f a73d 9849 763d
000001f0: 807a 97bd 29bf 583c 1e0b 65ba 0e38 f93c
00000200: 2bad 3cbd feb3 4e3d 07ab ccbc 6e74 58bb
00000210: 8a55 03bd d658 17ba 13bc ddba 809f 22bc
00000220: f7cb 663d 9779 0abd 1228 1f3d 9e9d fc3c
00000230: 184e 0abd 3cbf 11bd 7bf9 6c3c de81 31bd
00000240: 39cc 3e3d 790b 68bd f717 70bd 240b 9cbb
00000250: c56d febc 698b ccbc c8b4 68bd 7c5f 8f3d
00000260: 6af1 6d3d 81cc 01bd 14ab 99bd 5fd4 fd3a
00000270: be8a 9d3d f09b ab3d 05cb 443d a239 bbbd
00000280: c086 513c f9db 693c 216f b43d 3843 8f3d
00000290: 318e ab3c 70b4 8dbd f9b4 4b3d 071f 7dbd
000002a0: 52c6 9b3d d21f 6cbd 276e f63c 9509 303d
000002b0: 2669 7bbd 2e6e 88bd b66b 953d 9b69 d5bc
000002c0: 8496 f73c 7c16 80bc 3658 833d 3f3f 80bc
000002d0: b9d7 64bd c3c7 37bc 1966 30bb 1cca 83bc
000002e0: 7928 b2b9 a147 283d 7663 aebd 676e 073d
000002f0: bf80 8e3d 5692 bdbd 5e82 88bd 4eb8 fdbc
00000300: fbe8 76bd dc5b 833d 8a34 ae3d 2e95 23bb
00000310: b231 6b3d 579e ef3c ac62 97bd 9255 483d
00000320: 5919 a13d 4e6e 133c a328 babd ac76 63bd
00000330: 2ec1 12bd b1df 3d3d 6d8d 49bd bc39 bb3d
00000340: 97d2 99bc 3270 b03d 456f 86bd 1510 ac3d
00000350: 8bc5 7a3c 5097 7dbd 03d7 af3d 599a 99bd
00000360: 664d 41bd ae90 993d ce55 b03d 4a84 1b3d
00000370: 8897 9fbd 42a2 b5bc 2b39 59bd e786 0b3d
00000380: 2f3d 923d 39cd 293d e24e 4e3d 5620 7fbd
00000390: 9b23 27bd 6ae3 413d 8c18 fb3c 2bdf 423c
000003a0: 37b1 553d 9863 9fbd 7b75 833d 23b3 3b3d
000003b0: 2157 2d3d 17bd 03bd 37ac a5bd 4375 5b3c
000003c0: 563f 9abd ac2c 563a b0f4 eabb 89c6 b5bd
000003d0: 31ce 2f3d 16a2 9bbd 6135 a8bd 384b 20bd
000003e0: a0da 8dbd 3230 1ebd 077f f53c 257f 5bbd
000003f0: 86ad 983d b875 81bd 95a4 6fbd 6ece 8abb

recurrent.bias_ih_l1 f4 [512]
0.00366214 0.0039620344 -0.0038548703 0.003055303 0.00012341203 0.0028970565 0.003539201 0.0035787122
-0.0020279265 -0.00092561304 0.0036814483 -0.0037579006 0.0020273945 -0.0031243062 0.0019467734 0.0037903925
-0.0028583528 0.003551485 0.0014928741 0.0034006438 -0.0030434865 0.003886932 0.0029605527 -0.003926702
-0.00058182474 -0.0030334357 0.003015392 0.0037912966 0.0031557595 -0.0036605343 0.003789094 -0.00047059642
-0.0033646987 0.0011393768 0.0017491375 -0.0037285401 0.0016212106 -0.001611725 0.0036441737 0.0009212423
1.2861171e-05 -0.0031943826 -0.001156338 -0.0005929398 -0.0020293798 0.0037425922 0.0036157041 0.001963647
-0.0035184026 0.002360995 0.0032092922 0.0038808864 0.003621065 -0.0026055523 0.002633969 0.0033615897
0.0020297554 0.0012510517 -0.0029946202 -0.0034407568 0.002010509 0.0021767495 -0.0028253952 -0.0015479838
-0.0027906012 -0.0009169614 0.0021982465 0.003503206 -0.0016203306 0.0037933756 0.0032640463 0.003271658
-0.0038265018 0.0037774201 -0.00370318 0.0022357516 0.00370845 0.001958858 -0.0030387098 0.0037498013
0.0018427435 0.0012630983 -0.0017166333 -0.0029908055 -0.0038336162 0.0015476476 0.0034154898 0.001342422
-0.0036161095 0.0036895869 -0.0016050098 -0.0033038568 0.0036580514 -0.0033214295 -0.0021714312 0.0023917102
0.0034592834 0.00055255875 0.0035665373 -0.00051944004 0.0037460385 0.0009997563 0.002081917 0.0014765883
0.0036902633 0.0007060801 -0.002556447 0.003600594 0.00371556 -0.003411454 0.0024213544 0.001854562
0.0036839042 -0.003165532 0.0034241197 -0.002075994 -0.003001416 -0.0038838321 1.2112392e-05 0.0036174443
-0.002248793 0.0028520213 0.0021561517 -0.0030210596 -0.0023511883 -0.0035861554 0.002827727 -0.00040997387
0.0 0.0 0.0 0.0 0.0 0.0 0.0 0.0
0.0 0.0 0.0 0.0 0.0 0.0 0.0 0.0
0.0 0.0 0.0 0.0 0.0 0.0 0.0 0.0
0.0 0.0 0.0 0.0 0.0 0.0 0.0 0.0
0.0 0.0 0.0 0.0 0.0 0.0 0.0 0.0
0.0 0.0 0.0 0.0 0.0 0.0 0.0 0.0
0.0 0.0 0.0 0.0 0.0 0.0 0.0 0.0
0.0 0.0 0.0 0.0 0.0 0.0 0.0 0.0
0.0 0.0 0.0 0.0 0.0 0.0 0.0 0.0
0.0 0.0 0.0 0.0 0.0 0.0 0.0 0.0
0.0 0.0 0.0 0.0 0.0 0.0 0.0 0.0
0.0 0.0 0.0 0.0 0.0 0.0 0.0 0.0
0.0 0.0 0.0 0.0 0.0 0.0 0.0 0.0
0.0 0.0 0.0 0.0 0.0 0.0 0.0 0.0
0.0 0.0 0.0 0.0 0.0 0.0 0.0 0.0
0.0 0.0 0.0 0.0 0.0 0.0 0.0 0.0
00000000: 8400 703b f4d3 813b fea1 7cbb 7a3b 483b
00000010: 2a68 0139 8bdc 3d3b f1f1 673b d488 6a3b
00000020: f6e6 04bb d7a4 72ba 7444 713b 1c47 76bb
00000030: 09de 043b 29c1 4cbb e02a ff3a 3c68 783b
00000040: 3453 3bbb 08c0 683b 8bac c33a 56dd 5e3b
00000050: 3b75 47bb e6bb 7e3b d505 423b 90ab 80bb
00000060: 9985 18ba 9bcc 46bb e29d 453b 6777 783b
00000070: dcd0 4e3b 93e5 6fbb 7352 783b 62ba f6b9
00000080: 4782 5cbb 2457 953a 5143 e53a 865a 74bb
00000090: cd7e d43a 8440 d3ba 17d3 6e3b 867f 713a
000000a0: 4fc6 5737 d958 51bb 4490 97ba 846f 1bba
000000b0: 58ff 04bb 4746 753b 73f5 6c3b 88b0 003b
000000c0: 0095 66bb ecba 1a3b fd52 523b 7856 7e3b
000000d0: 644f 6d3b eac1 2abb ab9e 2c3b 1e4e 5c3b
000000e0: a505 053b 54fa a33a 6441 44bb 527e 61bb
000000f0: bec2 033b cca7 0e3b 442a 39bb b8e5 caba
00000100: 85e2 36bb 3d60 70ba 7510 103b 0b96 653b
00000110: 4661 d4ba 489a 783b 9ce9 553b 5069 563b
00000120: 0cc6 7abb 988e 773b 0db1 72bb b085 123b
00000130: 7709 733b 2f60 003b 1725 47bb 3abf 753b
00000140: 3688 f13a 8c8e a53a a800 e1ba 6401 44bb
00000150: 683d 7bbb 70da ca3a 69d6 5f3b 35f4 af3a
00000160: 40fc 6cbb ffcc 713b 315f d2ba 8585 58bb
00000170: ebbb 6f3b 57ac 59bb 924e 0ebb 3dbe 1c3b
00000180: 25b5 623b 97d9 103a 91bc 693b 082b 08ba
00000190: 1980 753b 410a 833a c570 083b 158a c13a
000001a0: 58d8 713b 3c18 393a 108a 27bb f1f7 6b3b
000001b0: c180 733b b392 5fbb 96af 1e3b c614 f33a
000001c0: a86d 713b d074 4fbb 3267 603b 660d 08bb
000001d0: 68b3 44bb e487 7ebb 5436 4b37 a512 6d3b
000001e0: 7c60 13bb fae8 3a3b 394e 0d3b f8fc 45bb
000001f0: 6516 1abb b405 6bbb 6351 393b c3f1 d6b9
00000200: 0000 0000 0000 0000 0000 0000 0000 0000
00000210: 0000 0000 0000 0000 0000 0000 0000 0000
00000220: 0000 0000 0000 0000 0000 0000 0000 0000
00000230: 0000 0000 0000 0000 0000 0000 0000 0000
00000240: 0000 0000 0000 0000 0000 0000 0000 0000
00000250: 0000 0000 0000 0000 0000 0000 0000 0000
00000260: 0000 0000 0000 0000 0000 0000 0000 0000
00000270: 0000 0000 0000 0000 0000 0000 0000 0000
00000280: 0000 0000 0000 0000 0000 0000 0000 0000
00000290: 0000 0000 0000 0000 0000 0000 0000 0000
000002a0: 0000 0000 0000 0000 0000 0000 0000 0000
000002b0: 0000 0000 0000 0000 0000 0000 0000 0000
000002c0: 0000 0000 0000 0000 0000 0000 0000 0000
000002d0: 0000 0000 0000 0000 0000 0000 0000 0000
000002e0: 0000 0000 0000 0000 0000 0000 0000 0000
000002f0: 0000 0000 0000 0000 0000 0000 0000 0000
00000300: 0000 0000 0000 0000 0000 0000 0000 0000
00000310: 0000 0000 0000 0000 0000 0000 0000 0000
00000320: 0000 0000 0000 0000 0000 0000 0000 0000
00000330: 0000 0000 0000 0000 0000 0000 0000 0000
00000340: 0000 0000 0000 0000 0000 0000 0000 0000
00000350: 0000 0000 0000 0000 0000 0000 0000 0000
00000360: 0000 0000 0000 0000 0000 0000 0000 0000
00000370: 0000 0000 0000 0000 0000 0000 0000 0000
00000380: 0000 0000 0000 0000 0000 0000 0000 0000
00000390: 0000 0000 0000 0000 0000 0000 0000 0000
000003a0: 0000 0000 0000 0000 0000 0000 0000 0000
000003b0: 0000 0000 0000 0000 0000 0000 0000 0000
000003c0: 0000 0000 0000 0000 0000 0000 0000 0000
000003d0: 0000 0000 0000 0000 0000 0000 0000 0000
000003e0: 0000 0000 0000 0000 0000 0000 0000 0000
000003f0: 0000 0000 0000 0000 0000 0000 0000 0000

recurrent.bias_hh_l1 f4 [512]
0.00366214 0.0039620344 -0.0038548703 0.003055303 0.00012341203 0.0028970565 0.003539201 0.0035787122
-0.0020279265 -0.00092561304 0.0036814483 -0.0037579006 0.0020273945 -0.0031243062 0.0019467734 0.0037903925
-0.0028583528 0.003551485 0.0014928741 0.0034006438 -0.0030434865 0.003886932 0.0029605527 -0.003926702
-0.00058182474 -0.0030334357 0.003015392 0.0037912966 0.0031557595 -0.0036605343 0.003789094 -0.00047059642
-0.0033646987 0.0011393768 0.0017491375 -0.0037285401 0.0016212106 -0.001611725 0.0036441737 0.0009212423
1.2861171e-05 -0.0031943826 -0.001156338 -0.0005929398 -0.0020293798 0.0037425922 0.0036157041 0.001963647
-0.0035184026 0.002360995 0.0032092922 0.0038808864 0.003621065 -0.0026055523 0.002633969 0.0033615897
0.0020297554 0.0012510517 -0.0029946202 -0.0034407568 0.002010509 0.0021767495 -0.0028253952 -0.0015479838
-0.0027906012 -0.0009169614 0.0021982465 0.003503206 -0.0016203306 0.0037933756 0.0032640463 0.003271658
-0.0038265018 0.0037774201 -0.00370318 0.0022357516 0.00370845 0.001958858 -0.0030387098 0.0037498013
0.0018427435 0.0012630983 -0.0017166333 -0.0029908055 -0.0038336162 0.0015476476 0.0034154898 0.001342422
-0.0036161095 0.0036895869 -0.0016050098 -0.0033038568 0.0036580514 -0.0033214295 -0.0021714312 0.0023917102
0.0034592834 0.00055255875 0.0035665373 -0.00051944004 0.0037460385 0.0009997563 0.002081917 0.0014765883
0.0036902633 0.0007060801 -0.002556447 0.003600594 0.00371556 -0.003411454 0.0024213544 0.001854562
0.0036839042 -0.003165532 0.0034241197 -0.002075994 -0.003001416 -0.0038838321 1.2112392e-05 0.0036174443
-0.002248793 0.0028520213 0.0021561517 -0.0030210596 -0.0023511883 -0.0035861554 0.002827727 -0.00040997387
0.0 0.0 0.0 0.0 0.0 0.0 0.0 0.0
0.0 0.0 0.0 0.0 0.0 0.0 0.0 0.0
0.0 0.0 0.0 0.0 0.0 0.0 0.0 0.0
0.0 0.0 0.0 0.0 0.0 0.0 0.0 0.0
0.0 0.0 0.0 0.0 0.0 0.0 0.0 0.0
0.0 0.0 0.0 0.0 0.0 0.0 0.0 0.0
0.0 0.0 0.0 0.0 0.0 0.0 0.0 0.0
0.0 0.0 0.0 0.0 0.0 0.0 0.0 0.0
0.0 0.0 0.0 0.0 0.0 0.0 0.0 0.0
0.0 0.0 0.0 0.0 0.0 0.0 0.0 0.0
0.0 0.0 0.0 0.0 0.0 0.0 0.0 0.0
0.0 0.0 0.0 0.0 0.0 0.0 0.0 0.0
0.0 0.0 0.0 0.0 0.0 0.0 0.0 0.0
0.0 0.0 0.0 0.0 0.0 0.0 0.0 0.0
0.0 0.0 0.0 0.0 0.0 0.0 0.0 0.0
0.0 0.0 0.0 0.0 0.0 0.0 0.0 0.0
00000000: 8400 703b f4d3 813b fea1 7cbb 7a3b 483b
00000010: 2a68 0139 8bdc 3d3b f1f1 673b d488 6a3b
00000020: f6e6 04bb d7a4 72ba 7444 713b 1c47 76bb
00000030: 09de 043b 29c1 4cbb e02a ff3a 3c68 783b
00000040: 3453 3bbb 08c0 683b 8bac c33a 56dd 5e3b
00000050: 3b75 47bb e6bb 7e3b d505 423b 90ab 80bb
00000060: 9985 18ba 9bcc 46bb e29d 453b 6777 783b
00000070: dcd0 4e3b 93e5 6fbb 7352 783b 62ba f6b9
00000080: 4782 5cbb 2457 953a 5143 e53a 865a 74bb
00000090: cd7e d43a 8440 d3ba 17d3 6e3b 867f 713a
000000a0: 4fc6 5737 d958 51bb 4490 97ba 846f 1bba
000000b0: 58ff 04bb 4746 753b 73f5 6c3b 88b0 003b
000000c0: 0095 66bb ecba 1a3b fd52 523b 7856 7e3b
000000d0: 644f 6d3b eac1 2abb ab9e 2c3b 1e4e 5c3b
000000e0: a505 053b 54fa a33a 6441 44bb 527e 61bb
000000f0: bec2 033b cca7 0e3b 442a 39bb b8e5 caba
00000100: 85e2 36bb 3d60 70ba 7510 103b 0b96 653b
00000110: 4661 d4ba 489a 783b 9ce9 553b 5069 563b
00000120: 0cc6 7abb 988e 773b 0db1 72bb b085 123b
00000130: 7709 733b 2f60 003b 1725 47bb 3abf 753b
00000140: 3688 f13a 8c8e a53a a800 e1ba 6401 44bb
00000150: 683d 7bbb 70da ca3a 69d6 5f3b 35f4 af3a
00000160: 40fc 6cbb ffcc 713b 315f d2ba 8585 58bb
00000170: ebbb 6f3b 57ac 59bb 924e 0ebb 3dbe 1c3b
00000180: 25b5 623b 97d9 103a 91bc 693b 082b 08ba
00000190: 1980 753b 410a 833a c570 083b 158a c13a
000001a0: 58d8 713b 3c18 393a 108a 27bb f1f7 6b3b
000001b0: c180 733b b392 5fbb 96af 1e3b c614 f33a
000001c0: a86d 713b d074 4fbb 3267 603b 660d 08bb
000001d0: 68b3 44bb e487 7ebb 5436 4b37 a512 6d3b
000001e0: 7c60 13bb fae8 3a3b 394e 0d3b f8fc 45bb
000001f0: 6516 1abb b405 6bbb 6351 393b c3f1 d6b9
00000200: 0000 0000 0000 0000 0000 0000 0000 0000
00000210: 0000 0000 0000 0000 0000 0000 0000 0000
00000220: 0000 0000 0000 0000 0000 0000 0000 0000
00000230: 0000 0000 0000 0000 0000 0000 0000 0000
00000240: 0000 0000 0000 0000 0000 0000 0000 0000
00000250: 0000 0000 0000 0000 0000 0000 0000 0000
00000260: 0000 0000 0000 0000 0000 0000 0000 0000
00000270: 0000 0000 0000 0000 0000 0000 0000 0000
00000280: 0000 0000 0000 0000 0000 0000 0000 0000
00000290: 0000 0000 0000 0000 0000 0000 0000 0000
000002a0: 0000 0000 0000 0000 0000 0000 0000 0000
000002b0: 0000 0000 0000 0000 0000 0000 0000 0000
000002c0: 0000 0000 0000 0000 0000 0000 0000 0000
000002d0: 0000 0000 0000 0000 0000 0000 0000 0000
000002e0: 0000 0000 0000 0000 0000 0000 0000 0000
000002f0: 0000 0000 0000 0000 0000 0000 0000 0000
00000300: 0000 0000 0000 0000 0000 0000 0000 0000
00000310: 0000 0000 0000 0000 0000 0000 0000 0000
00000320: 0000 0000 0000 0000 0000 0000 0000 0000
00000330: 0000 0000 0000 0000 0000 0000 0000 0000
00000340: 0000 0000 0000 0000 0000 0000 0000 0000
00000350: 0000 0000 0000 0000 0000 0000 0000 0000
00000360: 0000 0000 0000 0000 0000 0000 0000 0000
00000370: 0000 0000 0000 0000 0000 0000 0000 0000
00000380: 0000 0000 0000 0000 0000 0000 0000 0000
00000390: 0000 0000 0000 0000 0000 0000 0000 0000
000003a0: 0000 0000 0000 0000 0000 0000 0000 0000
000003b0: 0000 0000 0000 0000 0000 0000 0000 0000
000003c0: 0000 0000 0000 0000 0000 0000 0000 0000
000003d0: 0000 0000 0000 0000 0000 0000 0000 0000
000003e0: 0000 0000 0000 0000 0000 0000 0000 0000
000003f0: 0000 0000 0000 0000 0000 0000 0000 0000
