input/rnn_model.pth (torch, 813474 bytes, 10 tensors)

recurrent.weight_ih_l0 f4 [512, 7]
00000000: 58ab 4a3d 9e0f bebd f068 4ebd d173 f8bc
00000010: 3fdf bbbd 2341 7d3c 000c 9a3d d9f0 78bd
00000020: ddd1 fbbc ef36 133d 5f95 97bb d5d9 d23c
00000030: 55f3 1a3d d3f6 6bbd dfad b93d 3975 90bc
00000040: 198b 7f3b a43c 133a 277d cabc 4110 92bd
00000050: 4099 4c3d cff4 4bbd 37d1 b03d 3e0f b3bd
00000060: 5b21 c6bd 029c 89bd b24e 943d 9d5a afbd
00000070: 7c83 8c3d dfd2 bc3d 103b cfbd 1218 47bd
00000080: 3a18 d23d d88f c7bd 65af 393d 693b d33d
00000090: 599d 57bd fd70 b73d cf1f 49bd a54c 8ebd
000000a0: df5a 8b3d 693e c23c bba4 9d3c f4dc 7d3d
000000b0: 8adb c63b 74c5 2b3d 12d4 7abc e977 943d
000000c0: 6a37 573d 2c7e 1bbd 14ba b83d 4d78 9bbd
000000d0: 7d55 cd3d 80fd 063d 7c81 6f3d fd1e 8fbd
000000e0: ee0f 89bd d7f9 1abd 2e20 87bc c63a 2d3d
000000f0: 7ae1 c53d 2f5e 0dbb 133a c83d a535 943d
00000100: 8a28 7bbd a9c1 d0bb bed4 1dbc d060 7c3c
00000110: d4f1 a93d 1783 f4bc 8308 27bd 5842 ecbc
00000120: 038e e0bc 00ec cb3d 60ca b1bd 86e4 f73c
00000130: b093 cdbb 1faa afbd 0140 37bd c912 bdbd
00000140: 169e bf3d 7020 a93b 261f 38bc 495f b03c
00000150: 0df2 203c 7363 e43c 6245 133d 8742 5bbd
00000160: f51b 3e3d 69ec b4bd aa58 d1bd 4f80 54bd
00000170: 13d3 9a3d 0a20 a1bd f6af a2bd b37b a03c
00000180: 134a 5fbd 2713 9abd 9764 8f3d 5d04 3fba
00000190: b99a 8a3d 93b4 d43d b07b 453c 2e52 99bc
000001a0: 6e2f 873d 3b2e 8bbc 2a05 9bbd abd8 263d
000001b0: db17 483c d1f0 67bc 26f5 77bc 97db 97bd
000001c0: 955d 56bd 4106 673d 9c57 b33b 2888 313d
000001d0: 6530 b03d fa7f a53d da02 dbbc 8ba2 97bd
000001e0: aeef 0e3d aa83 a23d 28af 81bd 6dff 86bd
000001f0: c06f c53d d3c2 43bb 8c75 d3bd ece8 dbbc
00000200: 46a5 b6bb bca2 3e3d 8c7d 4fbd 1f18 f1bc
00000210: 3f44 ab3d 9879 cc3d 0cbc 533d 1fba 89bd
00000220: a276 f23c 2e39 4fbd d8a5 24bd adc2 0e3d
00000230: b40e c5bd de79 d33d 0d29 8b3d 564d 093d
00000240: 0fa7 22bd 5815 683d 3090 efbc 7499 f0bc
00000250: b9c3 04bd a10d 08bd 9ec7 963d 77d0 bd3d
00000260: 0394 8dbd d18c 8cbb 1049 333c 7746 96bd
00000270: 3c81 203d 6bf2 843d 9576 623d 5608 28bd
00000280: bac7 893c 8432 cbba 98df 583a 5432 a0bd
00000290: 3301 8fbc bde7 cd3d f1e4 93bc c679 38bd
000002a0: f0ed 84bd 52e1 ab3c 136d 213d 382b 5e3c
000002b0: cb48 da3a f44f 3b3b aab1 de3c 393f 85bd
000002c0: 5c87 a5bd 24da bf3c cbf7 d3bd 81d0 e2bc
000002d0: d52f 303d c929 8a3c 763f 5ebd ec5c 1d3d
000002e0: ff6d 9dbc b607 99bc 711f c3bd e9cb 053d
000002f0: 3cbe babd 5d04 a9bc 30ce 69bd df82 14bd
00000300: 0396 e53c 3eed 033c 77f1 2cbc da4d cb3c
00000310: 6614 cd3b 678c bbbd d659 0fbd e27c d0bd
00000320: 4367 41bd b7a4 acbd 8239 08bd 1648 86bd
00000330: 77fe cc3d aa7b 563d 6ac5 283d 3e4b b8bd
00000340: 40b1 01bd 3411 cbbd d98b d13d bd17 59bc
00000350: f904 bc3d 142f 64bd 874d 6c3d f61b dfbd
00000360: 1b1a b13d c014 9a3d 4ff8 00bc 97fb 343d
00000370: 1f7e a83b 0989 a1bd 891d 163d 0136 ca3c
00000380: 1b26 adb9 f6ab 443c e49b d53c 9dcc 68bd
00000390: bc2c 3b3d 8b46 033d 02df 693c 2055 c93a
000003a0: d55d 833d 8820 f43b 0910 30bd 8a78 cbbd
000003b0: b685 62bd 6d7a b6bd fae1 20bd 5018 7bbd
000003c0: d5c4 243c 9fef 47bd 4838 723d 466c a13d
000003d0: 24f7 a63d f0af 003d ed84 af3d 7cd1 ff3c
000003e0: 7533 53bd cbfa 81bd 86a4 6ebd d591 3fbd
000003f0: ba82 b7bd 98b6 943c 97e8 b1bd 1f6d b7bc
0.049479812 -0.092803225 -0.050393045 -0.030328663 -0.0917344 0.015457424 0.0752182 -0.060776565
-0.030739719 0.03594106 -0.0046259607 0.025738636 0.037829716 -0.057608437 0.090663664 -0.017634021
0.003899282 0.0005616641 -0.02471788 -0.071320064 0.049950838 -0.049794015 0.086336546 -0.087431416
-0.09674331 -0.06719209 0.072415724 -0.08562205 0.06861016 0.09219908 -0.10118687 -0.04860694
0.10258527 -0.09744233 0.045333285 0.10314066 -0.052640293 0.08957098 -0.0491026 -0.069482125
0.06804442 0.0237114 0.019243589 0.061978295 0.0060686516 0.041936353 -0.015309351 0.072494335
0.05254308 -0.037962124 0.090198666 -0.07591305 0.10026071 0.0329566 0.058473095 -0.069883324
-0.066924915 -0.037835922 -0.016494837 0.04229238 0.09662147 -0.002157103 0.09776702 0.072367944
-0.061317958 -0.0063707423 -0.009633241 0.015403941 0.08298078 -0.029847665 -0.0407796 -0.028840229
-0.027411466 0.09957123 -0.08681178 0.030260336 -0.0062737092 -0.0857737 -0.044738773 -0.092320986
0.093563244 0.0051613376 -0.011237895 0.02152981 0.009823334 0.027879452 0.03595484 -0.053530242
0.04641338 -0.08834154 -0.102219895 -0.051880177 0.075597905 -0.07867439 -0.07943718 0.019590234
-0.054514002 -0.07523184 0.07001608 -0.0007286722 0.06767792 0.10386004 0.012053415 -0.018715944
0.06600843 -0.016989818 -0.07569344 0.040733974 0.012212719 -0.014156536 -0.015134132 -0.0741493
-0.05233534 0.05640245 0.0054730903 0.04334274 0.086029805 0.0808105 -0.026734758 -0.074040495
0.034896545 0.07935269 -0.063322365 -0.06591687 0.09640455 -0.0029870763 -0.10325155 -0.026844464
-0.0055739013 0.046541914 -0.05065684 -0.029430447 0.08362626 0.0998413 0.051693007 -0.06724953
0.029597584 -0.05059164 -0.040197223 0.034853626 -0.09621945 0.10325979 0.06794939 0.03352102
-0.0397101 0.05666098 -0.029243559 -0.029370047 -0.03241322 -0.033216123 0.07362293 0.09268277
-0.069129966 -0.0042892476 0.010942712 -0.07337659 0.039185748 0.0649155 0.05528887 -0.041023575
0.01681887 -0.0015502726 0.0008273064 -0.07822099 -0.017456627 0.10053966 -0.018053504 -0.045038007
-0.064906955 0.020981465 0.039410662 0.013560109 0.0016653774 0.0028581591 0.027184326 -0.065061994
-0.080824584 0.023419447 -0.10349997 -0.027687313 0.043014366 0.016865628 -0.05425974 0.038418695
-0.01921749 -0.018680435 -0.09527481 0.032665167 -0.091183156 -0.020631963 -0.0570814 -0.03625762
0.028025633 0.008052168 -0.010555617 0.024817396 0.006258535 -0.09157639 -0.034997784 -0.101800695
-0.04721762 -0.08429854 -0.03325797 -0.06556718 0.10009473 0.05236403 0.041203894 -0.08998726
-0.03166318 -0.099153906 0.10231752 -0.013250289 0.09180636 -0.05570896 0.057691123 -0.10894005
0.08647557 0.07523489 -0.007871701 0.044185247 0.005141988 -0.078874655 0.03664926 0.024683954
-0.00033025522 0.012003889 0.026075311 -0.05683576 0.04569696 0.032049697 0.014274361 0.0015360452
0.064143814 0.007450167 -0.042984042 -0.099351004 -0.055303298 -0.089100696 -0.039278008 -0.061302483
0.010056694 -0.048812505 0.059135705 0.0788198 0.08152607 0.031417787 0.085702755 0.03122782
-0.051562745 -0.06346663 -0.05826237 -0.046769936 -0.08960481 0.018153474 -0.08686941 -0.0223909

recurrent.weight_hh_l0 f4 [512, 128]
00000000: 1ea2 413d 24e4 573d 9ff0 53bd e886 95bd
00000010: 7520 f03b 5eb5 19bb 0529 423d 1cd9 bdbd
00000020: d5c9 423c 32a7 90bd cb30 8b3a b54c e6ba
00000030: a46f f4bb b73f 7f39 9452 85bd f5bb 9f3d
00000040: c58b 94bd b153 39bc a62f 543a ec06 42bd
00000050: a085 223d 2e5e b93c a505 d2bc f98b cebc
00000060: fe01 a23d 6823 40bd 7c55 3ebd 5c32 a43d
00000070: a251 04bd 5e7a 72bc 4086 64bd e9b7 473c
00000080: 21f0 88bd c6bf 8e3b 66dd a4bd fd6b 60bb
00000090: e663 9dbd b922 7c3d 38fe 333d 2022 d0bb
000000a0: 88b6 2cbd 699b 74bd 43b8 b5bd 6504 32bd
000000b0: 8476 99bd 00be 83b8 c9ab 08bd 3e7e 73bc
000000c0: 368e 183c 9c25 e03c 9954 83bd a96e a23d
000000d0: 2330 4cbd b491 8bbd e53d b2bd f781 67bd
000000e0: 585d 04bc 9cf8 ad3c d07e 933c a896 843d
000000f0: 4a50 85bd b5c8 9ebd f1a6 f63c f452 b438
00000100: 0859 4c3d 1082 a73d 833c 5abc 2dee 993d
00000110: f156 593b 3166 97bd 0e78 b6bd c25a 44bb
00000120: 378c 51bd 4a35 993b f2ab b03b fd89 593d
00000130: 81e1 aabc 1405 1c3d 5204 31bd 1795 b0bd
00000140: b83e a2bd ed37 22bd 7241 32b7 cbe8 5f3d
00000150: ae0f 14bd a0de 8ebb b9b3 973d 6f70 403d
00000160: 0d85 743d 7499 a83d 1c32 bc3d e4a5 05bd
00000170: 6466 aebd c979 053d 54fc 7e3d a01b c8bc
00000180: bcaa 37bd 23e2 813d 6736 263d 41b5 7dbc
00000190: 3fb3 3fbc fff4 b3bd cfe8 f5bc b773 36bd
000001a0: 1492 de39 d17f 64bd 275a 8dbd 85da a7bd
000001b0: 6073 043d dcec 07bd 3fd1 473c 5696 0b3d
000001c0: b0af e63b 8f6a 28bd 82cc 923d 6887 30bd
000001d0: 9da9 f9bc 721e 873d 1de4 89bd 71b9 b93d
000001e0: a547 7cbd a637 3b3d 148c 89bd 4886 e1bc
000001f0: 4b3f 97bd 1827 8abb ea2b bd3d a701 413d
00000200: 9fff b13d feca 5dbd 1564 943d afa4 d539
00000210: bdd8 b2bd 079c 343d 2ceb e3bc d86e 573d
00000220: 98cc 0b3d aeae 47bb 4dd4 46bd 73b2 e8b9
00000230: 45db 613c c226 ff3c fcae ba3d bdce b8bd
00000240: 90c7 ac3d 4132 acbd 814e 8d3d a46d 5a3d
00000250: 1d7d 2cbc 12f2 69bd 0e30 c1bc 9060 223c
00000260: 5bef 91bc b2cf b73d bd7f 20bc 0b23 3ebd
00000270: cb9d bebc f39d 903d ba88 8f3d dfa5 5abd
00000280: 364d ab3d 7499 933b 27da 98bb 0f37 10bd
00000290: 0397 98bd 93bf 2f3c 2aad af3d 3d01 3f3d
000002a0: 23ab b93d 6b32 a1bd 27d5 8dbc f2ba 0d3c
000002b0: 212c 8bbd 2616 723d 7ad6 663d 8468 9ebd
000002c0: 518e c43c 2869 bd3d 71ca 253d 28f9 b33d
000002d0: 70d5 88bd ada4 8fbd 3708 4fbd 5ff5 85bc
000002e0: 33f4 033d 4509 5a3d de43 7ebd 4dd6 513c
000002f0: c6b2 a5bd 4d5e 3bbd 3ce1 573d 8282 72bd
00000300: 7393 473d ea40 483d 7c99 9b3c 15e3 7abd
00000310: ba4c 4dbd 9bc1 523d 1838 133c f662 9b3d
00000320: 1f1d 4bbd 2c3d 273d 6def 90bc f0f5 a9bb
00000330: 69de b9b9 10a0 88bd bbc3 3dbc 2c97 6d3c
00000340: df06 19bc b18d e93c e45c 9139 c59b 90bd
00000350: 8e06 7c3d 8a7d 49bd 1773 5bbd 6724 923d
00000360: a5ef bb3d 0def 47bd 139e 9dbb f593 4fbc
00000370: d6eb 55bd 6995 bc3d 7bbd 993c cbad 1e3d
00000380: 0cd6 72b9 21c5 0abd 271b a7bd 3c9a a63d
00000390: db06 4a3d 2e9f bb3c be6a 6bbd fe8b ecbc
000003a0: 79e2 06bc 8954 67bb f9f2 a73c 5cbd afbd
000003b0: 7248 95bd 162a 1e3a 180d 643d 025e 8e3d
000003c0: 2be4 61bd ec48 203d 3886 9a3d 0b50 4b3d
000003d0: d09f 3dbd 5868 8bbc 0fce de3c 0525 bdbd
000003e0: 601d e53c a398 ea3c ce01 2d3d c725 dcbc
000003f0: 02a4 32bd c4f0 7bbc a9bf 4f3c ff81 543d
0.047273748 0.052707806 -0.051743146 -0.07301122 0.007328088 -0.002345405 0.0474024 -0.09269926
0.011888941 -0.0706314 0.00106194 -0.0017570468 -0.0074595977 0.0002434243 -0.06509891 0.07799522
-0.072532214 -0.0113114575 0.00080942584 -0.047369882 0.039678216 0.022627916 -0.025637457 -0.025213229
0.07910536 -0.046908766 -0.046468243 0.08017418 -0.032304414 -0.014799682 -0.055792093 0.012189844
-0.06686426 0.0043563573 -0.08050041 -0.0034244054 -0.0768507 0.06155655 0.043943614 -0.0063517243
-0.042166263 -0.059718523 -0.08873036 -0.043461222 -0.07493308 -6.281957e-05 -0.033366952 -0.014861641
0.0093112495 0.027361684 -0.0641262 0.07931263 -0.049850594 -0.068149 -0.08703212 -0.05652043
-0.0080788955 0.02123671 0.018004805 0.06474048 -0.065094545 -0.077531256 0.0301089 8.59852e-05
0.049889594 0.08179104 -0.013320091 0.075161316 0.0033163393 -0.07392538 -0.08909617 -0.0029961322
-0.05115911 0.004675542 0.005391591 0.05311011 -0.020859482 0.03809078 -0.04321701 -0.08622187
-0.07922119 -0.039604116 -1.0624864e-05 0.054665368 -0.036147766 -0.004360035 0.07407326 0.046982225
0.0596972 0.08232394 0.09189245 -0.03262891 -0.08515623 0.032586847 0.062252358 -0.024427235
-0.04484056 0.0634196 0.040579226 -0.015485109 -0.01170045 -0.08786964 -0.030018238 -0.044543948
0.00042451976 -0.055785958 -0.06901961 -0.08195976 0.032336593 -0.03318487 0.012195884 0.03407892
0.0070399866 -0.041117247 0.07167913 -0.043097883 -0.030476386 0.06597604 -0.06732962 0.09068573
-0.061591763 0.045707367 -0.06716171 -0.02752985 -0.07385119 -0.004216086 0.092368916 0.047120716
0.08691334 -0.054148667 0.07245652 0.00040749225 -0.08732746 0.04409411 -0.0278221 0.052595943
0.034130663 -0.0030469107 -0.04854231 -0.00044383443 0.013785188 0.03114641 0.09115407 -0.09023807
0.08436501 -0.08408023 0.06899739 0.053327218 -0.010527876 -0.057115622 -0.023582485 0.009910718
-0.017814329 0.089751616 -0.00979608 -0.04642014 -0.0232686 0.070613764 0.070085004 -0.053380843
0.08364336 0.004504377 -0.0046646777 -0.035208758 -0.07450678 0.010726827 0.0857795 0.04663204
0.09065845 -0.078709446 -0.017313553 0.008650528 -0.06795526 0.059103154 0.056356885 -0.077347785
0.023993643 0.092485726 0.040476266 0.08787757 -0.06681335 -0.07013831 -0.050544944 -0.016352354
0.03221531 0.053231496 -0.062076442 0.012807441 -0.08090739 -0.04574423 0.052705035 -0.059206493
0.048724603 0.048890032 0.018994085 -0.06125172 -0.050122 0.051454168 0.008985542 0.07587235
-0.04958832 0.040829822 -0.017692292 -0.0051867887 -0.00035451658 -0.066711545 -0.01158231 0.014501374
-0.009340017 0.028509947 0.00027725764 -0.07060961 0.06152969 -0.04919199 -0.053576555 0.071358494
0.09176568 -0.04881196 -0.0048101037 -0.012669553 -0.052226864 0.09208185 0.01876711 0.03873996
-0.00023158657 -0.033879403 -0.08159476 0.081348866 0.049322944 0.022903051 -0.057474844 -0.028875347
-0.008232706 -0.003529819 0.0205016 -0.08581039 -0.072892085 0.0006033493 0.05567655 0.06951524
-0.05514924 0.039132044 0.075451314 0.04963688 -0.046294987 -0.017017528 0.027197866 -0.092355765
0.027968109 0.028637236 0.04223805 -0.026873482 -0.04361344 -0.015377227 0.012679973 0.051881786

recurrent.bias_ih_l0 f4 [512]
00000000: ab4d 8d3a 312e a1ba 76af 7b3b 5d12 a3b8
00000010: 8862 f5ba d31e 7f3b 44cd 153b 5fde 6e3b
00000020: d06a b5ba eceb ec3a 063a 473b b8e6 1ebb
00000030: 3e3c 793b 6cdb 753a a767 35bb 0561 5dbb
00000040: e2c7 03bb 6d0e ecba 92d9 623b 9171 4d3b
00000050: f549 2bbb 11ab c837 512a 70bb 7480 713b
00000060: ec71 5ebb 99b0 5abb 2c07 593b 90c4 26bb
00000070: 4161 33bb 7c4f f1ba 2caa e83a 6406 6abb
00000080: bdaf b33a e20a 373b 262b 4fbb 9b5a 60bb
00000090: 2de2 94ba 4016 b53a 0dde 8db9 deff 3ebb
000000a0: af71 bab9 0275 50b9 ef5a 5abb 4d35 213b
000000b0: b090 b6ba c4cf 3a3b d2ce 693b 460e 4dbb
000000c0: 43cf bbba 2fc2 903a 0133 183b 27cd 743b
000000d0: 67d0 3fbb f079 163a 026f 33bb d696 36bb
000000e0: 1121 afba 8ec2 803b 3fb2 473b 4499 773b
000000f0: 4db2 17bb bc83 55bb d770 5a3b a868 5aba
00000100: 91d8 3dbb 5fbe d4ba d32a 233b 78a4 63bb
00000110: b615 503b 20e8 423b a60e 613b d664 3239
00000120: f5b4 41bb 3164 263b 9da4 7fbb d256 313b
00000130: c55e 5bbb 458a 13bb c265 303b f206 60bb
00000140: a0a4 5d3b 9f72 663b 8563 ec3a b48e 2b3b
00000150: 08e1 db3a 91cc 873a 87d6 76bb 636d 5d3b
00000160: c852 72ba 40ff 263b 8cb2 b23a b8ce bbba
00000170: 460e c43a cd05 553b 86be 653b e645 5ebb
00000180: 6fb6 13ba eb94 3ab9 7f61 5c3b 147e 49b9
00000190: ba0b f53a 7a51 bd3a 1b74 cbb9 d08e 9aba
000001a0: 6f6d 043b 18d9 3cbb b81e 3bbb 9949 203b
000001b0: 30cf c6ba 84a0 34bb 79de 8138 7a04 beba
000001c0: ff2c 09bb 889c 79bb 10ac 19bb 8bd2 59bb
000001d0: dda4 0ab9 bc3d 16bb b075 d73a 1f66 793b
000001e0: f020 823b 620a 4139 a952 d9ba 7a11 4c3a
000001f0: 55b5 3d3b 6c4f 28bb c9ee 60bb ade9 25ba
00000200: 0000 0000 0000 0000 0000 0000 0000 0000
00000210: 0000 0000 0000 0000 0000 0000 0000 0000
00000220: 0000 0000 0000 0000 0000 0000 0000 0000
00000230: 0000 0000 0000 0000 0000 0000 0000 0000
00000240: 0000 0000 0000 0000 0000 0000 0000 0000
00000250: 0000 0000 0000 0000 0000 0000 0000 0000
00000260: 0000 0000 0000 0000 0000 0000 0000 0000
00000270: 0000 0000 0000 0000 0000 0000 0000 0000
00000280: 0000 0000 0000 0000 0000 0000 0000 0000
00000290: 0000 0000 0000 0000 0000 0000 0000 0000
000002a0: 0000 0000 0000 0000 0000 0000 0000 0000
000002b0: 0000 0000 0000 0000 0000 0000 0000 0000
000002c0: 0000 0000 0000 0000 0000 0000 0000 0000
000002d0: 0000 0000 0000 0000 0000 0000 0000 0000
000002e0: 0000 0000 0000 0000 0000 0000 0000 0000
000002f0: 0000 0000 0000 0000 0000 0000 0000 0000
00000300: 0000 0000 0000 0000 0000 0000 0000 0000
00000310: 0000 0000 0000 0000 0000 0000 0000 0000
00000320: 0000 0000 0000 0000 0000 0000 0000 0000
00000330: 0000 0000 0000 0000 0000 0000 0000 0000
00000340: 0000 0000 0000 0000 0000 0000 0000 0000
00000350: 0000 0000 0000 0000 0000 0000 0000 0000
00000360: 0000 0000 0000 0000 0000 0000 0000 0000
00000370: 0000 0000 0000 0000 0000 0000 0000 0000
00000380: 0000 0000 0000 0000 0000 0000 0000 0000
00000390: 0000 0000 0000 0000 0000 0000 0000 0000
000003a0: 0000 0000 0000 0000 0000 0000 0000 0000
000003b0: 0000 0000 0000 0000 0000 0000 0000 0000
000003c0: 0000 0000 0000 0000 0000 0000 0000 0000
000003d0: 0000 0000 0000 0000 0000 0000 0000 0000
000003e0: 0000 0000 0000 0000 0000 0000 0000 0000
000003f0: 0000 0000 0000 0000 0000 0000 0000 0000
0.0010780593 -0.0012297091 0.0038404143 -7.775866e-05 -0.0018721381 0.0038928285 0.0022857944 0.0036448461
-0.0013841037 0.0018075681 0.0030399575 -0.0024246406 0.0038030292 0.00093787047 -0.002768019 -0.0033779752
-0.0020108153 -0.001800967 0.0034614545 0.0031348208 -0.002613661 2.3921517e-05 -0.0036646316 0.0036850246
-0.0033942414 -0.003336942 0.0033115847 -0.002544675 -0.00273712 -0.0018410529 0.001775091 -0.0035709376
0.001370899 0.002793007 -0.0031611412 -0.0034233693 -0.001135891 0.0013815835 -0.00027059056 -0.0029144208
-0.00035561385 -0.00019880015 -0.003331836 0.002459842 -0.0013928618 0.0028505186 0.0035676253 -0.0031289025
-0.0014328737 0.0011044199 0.002322376 0.0037353726 -0.0029268505 0.0005740216 -0.0027379398 -0.0027860901
-0.0013361295 0.0039294427 0.0030471233 0.0037780562 -0.0023147047 -0.003257974 0.0033331418 -0.0008331635
-0.0028968195 -0.0016231051 0.0024897351 -0.0034735482 0.0031751222 0.0029740408 0.0034341007 0.00017012967
-0.0029557322 0.0025389309 -0.003900803 0.0027059806 -0.0033473235 -0.0022512835 0.002691612 -0.0034183827
0.0033820048 0.0035163534 0.001803503 0.0026177587 0.0016775439 0.0010360648 -0.003766449 0.0033787123
-0.0009243903 0.002548173 0.0013633533 -0.0014328575 0.0014957867 0.0032504678 0.0035056188 -0.0033916174
-0.00056347897 -0.00017793819 0.0033627448 -0.00019215822 0.0018695511 0.0014443838 -0.00038805683 -0.0011791829
0.002020683 -0.0028815921 -0.0028552245 0.002445793 -0.0015167948 -0.0027561495 6.192638e-05 -0.0014497184
-0.002093136 -0.0038087685 -0.0023448505 -0.0033237066 -0.00013222122 -0.002292498 0.0016438272 0.0038055254
0.0039712116 0.00018409782 -0.0016580421 0.00077845866 0.0028947194 -0.0025682105 -0.0034322015 -0.0006329071
0.0 0.0 0.0 0.0 0.0 0.0 0.0 0.0
0.0 0.0 0.0 0.0 0.0 0.0 0.0 0.0
0.0 0.0 0.0 0.0 0.0 0.0 0.0 0.0
0.0 0.0 0.0 0.0 0.0 0.0 0.0 0.0
0.0 0.0 0.0 0.0 0.0 0.0 0.0 0.0
0.0 0.0 0.0 0.0 0.0 0.0 0.0 0.0
0.0 0.0 0.0 0.0 0.0 0.0 0.0 0.0
0.0 0.0 0.0 0.0 0.0 0.0 0.0 0.0
0.0 0.0 0.0 0.0 0.0 0.0 0.0 0.0
0.0 0.0 0.0 0.0 0.0 0.0 0.0 0.0
0.0 0.0 0.0 0.0 0.0 0.0 0.0 0.0
0.0 0.0 0.0 0.0 0.0 0.0 0.0 0.0
0.0 0.0 0.0 0.0 0.0 0.0 0.0 0.0
0.0 0.0 0.0 0.0 0.0 0.0 0.0 0.0
0.0 0.0 0.0 0.0 0.0 0.0 0.0 0.0
0.0 0.0 0.0 0.0 0.0 0.0 0.0 0.0

recurrent.bias_hh_l0 f4 [512]
00000000: ab4d 8d3a 312e a1ba 76af 7b3b 5d12 a3b8
00000010: 8862 f5ba d31e 7f3b 44cd 153b 5fde 6e3b
00000020: d06a b5ba eceb ec3a 063a 473b b8e6 1ebb
00000030: 3e3c 793b 6cdb 753a a767 35bb 0561 5dbb
00000040: e2c7 03bb 6d0e ecba 92d9 623b 9171 4d3b
00000050: f549 2bbb 11ab c837 512a 70bb 7480 713b
00000060: ec71 5ebb 99b0 5abb 2c07 593b 90c4 26bb
00000070: 4161 33bb 7c4f f1ba 2caa e83a 6406 6abb
00000080: bdaf b33a e20a 373b 262b 4fbb 9b5a 60bb
00000090: 2de2 94ba 4016 b53a 0dde 8db9 deff 3ebb
000000a0: af71 bab9 0275 50b9 ef5a 5abb 4d35 213b
000000b0: b090 b6ba c4cf 3a3b d2ce 693b 460e 4dbb
000000c0: 43cf bbba 2fc2 903a 0133 183b 27cd 743b
000000d0: 67d0 3fbb f079 163a 026f 33bb d696 36bb
000000e0: 1121 afba 8ec2 803b 3fb2 473b 4499 773b
000000f0: 4db2 17bb bc83 55bb d770 5a3b a868 5aba
00000100: 91d8 3dbb 5fbe d4ba d32a 233b 78a4 63bb
00000110: b615 503b 20e8 423b a60e 613b d664 3239
00000120: f5b4 41bb 3164 263b 9da4 7fbb d256 313b
00000130: c55e 5bbb 458a 13bb c265 303b f206 60bb
00000140: a0a4 5d3b 9f72 663b 8563 ec3a b48e 2b3b
00000150: 08e1 db3a 91cc 873a 87d6 76bb 636d 5d3b
00000160: c852 72ba 40ff 263b 8cb2 b23a b8ce bbba
00000170: 460e c43a cd05 553b 86be 653b e645 5ebb
00000180: 6fb6 13ba eb94 3ab9 7f61 5c3b 147e 49b9
00000190: ba0b f53a 7a51 bd3a 1b74 cbb9 d08e 9aba
000001a0: 6f6d 043b 18d9 3cbb b81e 3bbb 9949 203b
000001b0: 30cf c6ba 84a0 34bb 79de 8138 7a04 beba
000001c0: ff2c 09bb 889c 79bb 10ac 19bb 8bd2 59bb
000001d0: dda4 0ab9 bc3d 16bb b075 d73a 1f66 793b
000001e0: f020 823b 620a 4139 a952 d9ba 7a11 4c3a
000001f0: 55b5 3d3b 6c4f 28bb c9ee 60bb ade9 25ba
00000200: 0000 0000 0000 0000 0000 0000 0000 0000
00000210: 0000 0000 0000 0000 0000 0000 0000 0000
00000220: 0000 0000 0000 0000 0000 0000 0000 0000
00000230: 0000 0000 0000 0000 0000 0000 0000 0000
00000240: 0000 0000 0000 0000 0000 0000 0000 0000
00000250: 0000 0000 0000 0000 0000 0000 0000 0000
00000260: 0000 0000 0000 0000 0000 0000 0000 0000
00000270: 0000 0000 0000 0000 0000 0000 0000 0000
00000280: 0000 0000 0000 0000 0000 0000 0000 0000
00000290: 0000 0000 0000 0000 0000 0000 0000 0000
000002a0: 0000 0000 0000 0000 0000 0000 0000 0000
000002b0: 0000 0000 0000 0000 0000 0000 0000 0000
000002c0: 0000 0000 0000 0000 0000 0000 0000 0000
000002d0: 0000 0000 0000 0000 0000 0000 0000 0000
000002e0: 0000 0000 0000 0000 0000 0000 0000 0000
000002f0: 0000 0000 0000 0000 0000 0000 0000 0000
00000300: 0000 0000 0000 0000 0000 0000 0000 0000
00000310: 0000 0000 0000 0000 0000 0000 0000 0000
00000320: 0000 0000 0000 0000 0000 0000 0000 0000
00000330: 0000 0000 0000 0000 0000 0000 0000 0000
00000340: 0000 0000 0000 0000 0000 0000 0000 0000
00000350: 0000 0000 0000 0000 0000 0000 0000 0000
00000360: 0000 0000 0000 0000 0000 0000 0000 0000
00000370: 0000 0000 0000 0000 0000 0000 0000 0000
00000380: 0000 0000 0000 0000 0000 0000 0000 0000
00000390: 0000 0000 0000 0000 0000 0000 0000 0000
000003a0: 0000 0000 0000 0000 0000 0000 0000 0000
000003b0: 0000 0000 0000 0000 0000 0000 0000 0000
000003c0: 0000 0000 0000 0000 0000 0000 0000 0000
000003d0: 0000 0000 0000 0000 0000 0000 0000 0000
000003e0: 0000 0000 0000 0000 0000 0000 0000 0000
000003f0: 0000 0000 0000 0000 0000 0000 0000 0000
0.0010780593 -0.0012297091 0.0038404143 -7.775866e-05 -0.0018721381 0.0038928285 0.0022857944 0.0036448461
-0.0013841037 0.0018075681 0.0030399575 -0.0024246406 0.0038030292 0.00093787047 -0.002768019 -0.0033779752
-0.0020108153 -0.001800967 0.0034614545 0.0031348208 -0.002613661 2.3921517e-05 -0.0036646316 0.0036850246
-0.0033942414 -0.003336942 0.0033115847 -0.002544675 -0.00273712 -0.0018410529 0.001775091 -0.0035709376
0.001370899 0.002793007 -0.0031611412 -0.0034233693 -0.001135891 0.0013815835 -0.00027059056 -0.0029144208
-0.00035561385 -0.00019880015 -0.003331836 0.002459842 -0.0013928618 0.0028505186 0.0035676253 -0.0031289025
-0.0014328737 0.0011044199 0.002322376 0.0037353726 -0.0029268505 0.0005740216 -0.0027379398 -0.0027860901
-0.0013361295 0.0039294427 0.0030471233 0.0037780562 -0.0023147047 -0.003257974 0.0033331418 -0.0008331635
-0.0028968195 -0.0016231051 0.0024897351 -0.0034735482 0.0031751222 0.0029740408 0.0034341007 0.00017012967
-0.0029557322 0.0025389309 -0.003900803 0.0027059806 -0.0033473235 -0.0022512835 0.002691612 -0.0034183827
0.0033820048 0.0035163534 0.001803503 0.0026177587 0.0016775439 0.0010360648 -0.003766449 0.0033787123
-0.0009243903 0.002548173 0.0013633533 -0.0014328575 0.0014957867 0.0032504678 0.0035056188 -0.0033916174
-0.00056347897 -0.00017793819 0.0033627448 -0.00019215822 0.0018695511 0.0014443838 -0.00038805683 -0.0011791829
0.002020683 -0.0028815921 -0.0028552245 0.002445793 -0.0015167948 -0.0027561495 6.192638e-05 -0.0014497184
-0.002093136 -0.0038087685 -0.0023448505 -0.0033237066 -0.00013222122 -0.002292498 0.0016438272 0.0038055254
0.0039712116 0.00018409782 -0.0016580421 0.00077845866 0.0028947194 -0.0025682105 -0.0034322015 -0.0006329071
0.0 0.0 0.0 0.0 0.0 0.0 0.0 0.0
0.0 0.0 0.0 0.0 0.0 0.0 0.0 0.0
0.0 0.0 0.0 0.0 0.0 0.0 0.0 0.0
0.0 0.0 0.0 0.0 0.0 0.0 0.0 0.0
0.0 0.0 0.0 0.0 0.0 0.0 0.0 0.0
0.0 0.0 0.0 0.0 0.0 0.0 0.0 0.0
0.0 0.0 0.0 0.0 0.0 0.0 0.0 0.0
0.0 0.0 0.0 0.0 0.0 0.0 0.0 0.0
0.0 0.0 0.0 0.0 0.0 0.0 0.0 0.0
0.0 0.0 0.0 0.0 0.0 0.0 0.0 0.0
0.0 0.0 0.0 0.0 0.0 0.0 0.0 0.0
0.0 0.0 0.0 0.0 0.0 0.0 0.0 0.0
0.0 0.0 0.0 0.0 0.0 0.0 0.0 0.0
0.0 0.0 0.0 0.0 0.0 0.0 0.0 0.0
0.0 0.0 0.0 0.0 0.0 0.0 0.0 0.0
0.0 0.0 0.0 0.0 0.0 0.0 0.0 0.0

recurrent.weight_ih_l1 f4 [512, 128]
00000000: c8d5 083a 2529 84bd cb40 71bd 7111 94bd
00000010: a411 a6bc ebac 33bd df59 ba3c cd75 1f3d
00000020: 6910 4b3d 4d85 fcb9 6723 41bd 42dd 77bb
00000030: 414a 013c 2eb8 94bd ce63 3a3d 9d49 a33d
00000040: 16d9 30bc c3ad 463c 4253 953d f1eb a33d
00000050: 64a8 8c3d 3141 aebd da25 5b3c bc4c 773d
00000060: 0f1b a53d f8e0 4b3c 6ede bbbd 8141 aebc
00000070: a33a 3b3d fc7f 8cbd 15e7 15bc bf67 0e3d
00000080: 44b8 acbd 0b93 473d 9d1f b2bd 271c 91bb
00000090: 7196 9f3d a261 58bc 14cc e6bb 9f1e e2bc
000000a0: 5158 4dbd 724b 7ebd 7df9 60bd 8c9b 6a3c
000000b0: e785 893c 596a 67bc 48f2 8d3d d126 d8bc
000000c0: 3411 173d 7acb 63bd 0f17 ffbc 656b 4b3d
000000d0: a271 0abd 302f f2bc 63e8 823c 9a7c a23d
000000e0: ace3 fa3c d8d3 ad3d 8965 a8bd bea2 b93d
000000f0: 1fa7 8fbc 519d abbd cc60 8dbd e0e7 51bd
00000100: 92fe ebbb 0781 b93d 8d19 6fbd 7d1f a4bc
00000110: 32c2 103d a891 79bd e31c 4f3c dae3 733d
00000120: 655d 753d 6025 b1bd e7e1 a9bd f196 a93c
00000130: e05e 833d d449 5fbd d951 033c 9d2e 043d
00000140: 4bbb 9f3d 7a91 bb3d 357e bb3d 3fa7 7bbd
00000150: 6621 3c3b eaaf bb3d e4ab 253d 734d 933d
00000160: 403d ab3d c4f5 aa3d 4436 93bd 1ab7 b5bd
00000170: db93 053c ce51 283d 2ffa 7abd e6b9 b93c
00000180: 7449 7c3d aff2 5f3d d1c3 01bd 85da f5bb
00000190: dc8c 853d f894 dfbc 40df a03c f068 323d
000001a0: 15cf 89bd 83e6 70bd 0a08 d3bc 61e2 b33d
000001b0: c00a 093d 3004 d23b c3fd efbb d8cd 70bb
000001c0: 3daa e33c f3f5 fcbc 949f 1cbc 8930 87bd
000001d0: 88ab d03c a6f2 853d 0d41 b63d 4b00 38bc
000001e0: 3b20 36bd 1f1b 693d ca06 1fbd e8a6 363d
000001f0: a00f 11bd 4460 9f3d 102e 8dbd 5209 4e3d
00000200: 4210 0c3d d0b5 2ebc 2212 b2bd 91ff 9b3d
00000210: 8422 783d c765 c23c ab59 4ebd 447b 893d
00000220: 27bf 85bd 0b33 7d3d 29f7 5a3d 97f1 a4bd
00000230: ae6e 84bd abf7 23bd 49c8 3d3d a573 843d
00000240: 4579 873d f6c0 98bd 608e 45bd 1c5a 13bd
00000250: 9dc1 aabd b9d1 91bd f427 8ebd 6dc9 503d
00000260: b2e0 953c 4ee8 843d 2469 d3bc a8b7 4c3d
00000270: 3c2e 703c 2351 a7bb 44be a63d c405 7b3d
00000280: 42a8 36bd 42f5 3dbd 7529 923c 2356 88bd
00000290: 9f3b fb3c 9dc8 163c eb55 af3d ea5c abbc
000002a0: d4e1 893d b271 0ebc 9bbe 703b 66a7 963d
000002b0: 7434 ac3d b2d7 913d 4bfa 913d cd19 94bd
000002c0: 7ed0 04bc e634 b23d af7b b3bd c000 383d
000002d0: ee23 a6bd 5b70 2abd ec1e b23d bb9f 24bd
000002e0: e024 663d b8a5 a1bd 7d2b 2e3c 4ffc b3bd
000002f0: 659b 69bd 366d 81bc 2be1 b23d 5bae b43c
00000300: b7c2 cd3c a1ac ed3b 4762 ce3c f7fc 243d
00000310: 10ca 953a fd32 2dbd f41b 763d bb46 99bd
00000320: f439 383d 3d17 50bd ee2e a9bd 0382 b33d
00000330: 8541 edbc fd71 8bbd 7181 2d3d 3011 8f3d
00000340: 2409 173d 230a 643b f003 bb3d 23e5 853d
00000350: 0003 20bc d8ae a9bd cc00 083c 9a2a 3e3d
00000360: 2e01 6bbd 65ba a63c eb55 ca3c 1a94 31bd
00000370: b96e b2bb ae93 b3bd dbee 66bd 859e 52bd
00000380: 7f3a b03d ef59 063c dc2b 3ebd 1e69 54bd
00000390: 8170 c03c 823d 043c 3b79 b33d ed76 593d
000003a0: 00b9 b6bd 9e9e 8bba 07b9 34bb 0efc 48bc
000003b0: 3b72 d83c a77a 963b 19e7 54bd 9e28 13bd
000003c0: f95e 143d 9b50 993d 6ef0 993b c5fb d8b9
000003d0: 16b3 85bd 6228 bb3b 940a b53b 21b4 0d3d
000003e0: ab38 9bbd d32c 9b3d c3b5 b63c 4ff2 c5bc
000003f0: dfb3 0abd 8dbb d43c 7dd3 943d 2eef 69bd
0.0005219844 -0.0645316 -0.058899682 -0.07229889 -0.020272084 -0.04386608 0.022747932 0.038930703
0.049576197 -0.00048164502 -0.047152903 -0.003782109 0.007891239 -0.07261692 0.045505337 0.07973025
-0.010793945 0.012126389 0.07291271 0.080039866 0.068680555 -0.08508528 0.013375724 0.060375914
0.08061802 0.012443773 -0.091732845 -0.02127147 0.045710217 -0.068603486 -0.0091493325 0.03476691
-0.084335834 0.048724215 -0.08697436 -0.004428405 0.07792366 -0.013206871 -0.007043371 -0.027602492
-0.050133053 -0.06208367 -0.05492543 0.014319312 0.016787482 -0.014124476 0.06930977 -0.026385697
0.03688164 -0.055613972 -0.031138925 0.049662966 -0.033799775 -0.029563516 0.015979951 0.07933922
0.03062614 0.084876716 -0.08222491 0.09064244 -0.017535744 -0.08379615 -0.06903228 -0.051246524
-0.007201978 0.09057813 -0.058373976 -0.020034546 0.03534145 -0.060929924 0.0126411645 0.059543468
0.05990352 -0.08649707 -0.082950406 0.020701857 0.0641458 -0.054513767 0.0080151195 0.032271016
0.07799395 0.09158607 0.091549315 -0.061438795 0.002870643 0.09164412 0.04044713 0.07192507
0.08361292 0.08347657 -0.07188085 -0.088728145 0.008152927 0.04109364 -0.06127375 0.022671651
0.061593488 0.0546748 -0.031680886 -0.007502856 0.065210074 -0.027292714 0.019637704 0.043557107
-0.06728951 -0.058813583 -0.02576067 0.08783413 0.033457518 0.0064091906 -0.007323952 -0.0036743786
0.027791137 -0.030878996 -0.009559531 -0.06601054 0.025472417 0.06540422 0.08899126 -0.011230539
-0.04446433 0.05691063 -0.038824834 0.044592768 -0.03541529 0.07782033 -0.06893551 0.050301857
0.034195192 -0.010663465 -0.08694865 0.07617105 0.06057979 0.023730172 -0.050378483 0.06712964
-0.065306 0.061816256 0.053458367 -0.08053892 -0.06466423 -0.040031116 0.046333585 0.0646737
0.06614927 -0.074586794 -0.048231483 -0.035974607 -0.0833771 -0.071200795 -0.06941214 0.050973345
0.01829562 0.06489621 -0.02580697 0.049979836 0.014659461 -0.005106108 0.08141759 0.061284795
-0.044594057 -0.046376474 0.017842034 -0.06657054 0.030668078 0.009203103 0.085613094 -0.020918328
0.067325264 -0.008694099 0.0036734703 0.073561475 0.08408442 0.07121219 0.07127818 -0.072314836
-0.008106349 0.08701496 -0.08763825 0.04492259 -0.08112322 -0.041611057 0.08697304 -0.040191393
0.05618751 -0.078929365 0.010630486 -0.087883584 -0.05703296 -0.015799146 0.08734354 0.022055795
0.025117261 0.007253245 0.025193347 0.04028031 0.0011428017 -0.042284954 0.060085252 -0.07484194
0.044977143 -0.05080341 -0.08260904 0.08765032 -0.028961906 -0.06808851 0.042359773 0.069857
0.03687395 0.003479608 0.091316104 0.06537845 -0.00976634 -0.08285302 0.008300971 0.046427347
-0.057374172 0.020352552 0.024699172 -0.04335413 -0.005445328 -0.08768402 -0.056380134 -0.051420707
0.08604907 0.008200153 -0.046428546 -0.05185806 0.023491146 0.008071305 0.08763357 0.053091932
-0.08922005 -0.001065213 -0.0027576105 -0.012267126 0.026421657 0.004592258 -0.051978204 -0.035927407
0.036223385 0.074860774 0.004697851 -0.00041386313 -0.065282986 0.005711601 0.0055249427 0.034595612
-0.07579168 0.07576909 0.022303468 -0.024163393 -0.033862945 0.025968337 0.07266901 -0.057112865

recurrent.weight_hh_l1 f4 [512, 128]
00000000: a71a aa3c 8f47 d8bc 2d1f 7ebd 94fe 513d
00000010: 92e0 d93c 702b 8a3d b97d aa3d 1aa0 653a
00000020: 7db0 54ba e1af 983d f794 95bd 4f09 a3bc
00000030: d9f4 a73d 1ad0 b5bd b740 53bd 7ec5 8bbd
00000040: 6b83 7fbd 24ad 9fbb 6044 a5bd d207 76bd
00000050: f87e 473d fad0 f33c db34 ac3c 4c88 ecbc
00000060: 6c3a 943d 87ec ed3c 4d58 b0bd 7901 0d3d
00000070: a7be 99bd 47d9 a4bd 2701 eeb8 282b 973d
00000080: 3e8a 85bd 0e3b 8b3d a67b 383d 15bf 8abd
00000090: 4b6c ecbc 3603 7d3d bc2d b83d f85e 9b3d
000000a0: b72a a83c 58ec 523d f12b 803c 951b e93b
000000b0: f729 4d3d c28e 8f3d 5b0c 15bd 9029 a63d
000000c0: 3e8a 493d fa2b 923c 8628 7e3d 1572 6abd
000000d0: ebf3 253d ad26 2abd 27d4 aebd 1069 c5bb
000000e0: 1175 2a3d 44d7 593c 76d7 ff3c 5066 1c3d
000000f0: d368 9ebd f1b7 463d dad3 4a3d 1f48 093d
00000100: 1cc2 803c a5e0 87bc 049d 30bd 5075 503d
00000110: d9cf 6cbd 4688 a5bd 4f18 49bd a5af 3a3d
00000120: 62a0 43bc d85b a0bd b60d 073d a3bd 28bd
00000130: 0708 8dbd 1f62 ec3b bcc8 91bd 3ce3 b1bd
00000140: ad8b 2d3a 28b2 babd d9b3 2a3a 98f3 bbbc
00000150: 886c dfbc 3051 54bc f665 9f3d a409 abba
00000160: 0615 d1bc 3036 933d 0394 b6bb 3275 ba3d
00000170: c435 4abc cd28 3c3d c8e2 8a3d fa67 653c
00000180: 552d c33b de0e a53c 8735 acbc 68e1 02bd
00000190: da86 84bd 51f0 413a a219 523c d098 afbd
000001a0: 82a1 763d a65a b23c a2ae 86bd fe03 bdbd
000001b0: 4d99 a93d ac3f 5ebd af06 0ebd 5a6b f13c
000001c0: b520 e13c b6c2 91bd e6ba fdbc 2857 0fbb
000001d0: 67e6 143d 2aa3 65ba e91e 883d b0f7 1cbd
000001e0: 37ff 103d f9cf 2d3d 8b81 5a3c d074 48bd
000001f0: 11de 9e3c c907 47bd 5ee0 01bd c28a c0bb
00000200: 8336 8d3c 4422 44bd fa4a b73d d6fe 7f3d
00000210: 2b3f 323d 541d b93d 7aeb abbb 0137 eabc
00000220: 9a21 733d 398f 323d 684d db3a 7fa1 86bd
00000230: ff77 b7bc d9c8 ab3d 6201 953d 783e 963d
00000240: b15e af3c eee1 a03d 82c0 963c 75c2 013d
00000250: 5fb2 7cbd e0a7 663d ccc0 48ba 0bde 923d
00000260: 2e08 60bd c11e c3bc 9bfb eabc 9e8f 87bd
00000270: 6266 06bd b084 78bd 066a a3ba 9834 9b3d
00000280: ece6 7c3d a89c 113d b774 9b3d 3177 94bd
00000290: 4ace 77bd d001 1c3d 5a77 77bd bd13 923d
000002a0: c8c4 9ebd 9dc9 43ba 7a62 a13d df56 533d
000002b0: 4616 783d d377 e63b 43a6 12bd 70a9 76bd
000002c0: c648 963c b8b3 3dbd 94fd ae3a 420f 83bd
000002d0: 04c4 e03c 36a8 14bd 5a7f b53d d044 683d
000002e0: 5ed0 243c 8645 5a3d ee86 7f3c 63af 3b3d
000002f0: 11a0 3c3d 0e56 1fbd 2fad 9b3c a030 1a3a
00000300: 9bbc 1e3d 2b5a 553d b34b c33c 951e 45bd
00000310: 5819 b8bd e319 7e3c aa3d b23d fbf7 8d3d
00000320: 4b3f 1cbd 3336 36bd abe9 b1bb f496 8e3d
00000330: a7cb f3bc 8585 973d 29d2 73bd 278f fd3a
00000340: 6954 3bbc 916a 793d b7b2 bd3d fec0 9a3c
00000350: 8fa2 79bd 0d28 bbbc f8b0 9dbc 99b2 23bb
00000360: cfc1 9fbc 1871 f83c c9e8 0f3d 3a8b 5b3d
00000370: 9e2d 69ba db57 96bd f9ef 953d 1ca4 a83c
00000380: 40e5 cb3b 285b 4d3d d1be a5bc 0f1d 063d
00000390: 4c2f 693c 13c9 5b3d 4943 603d ad13 92bd
000003a0: 80a9 45bd da2f b0bd 7622 30bd 3036 a73d
000003b0: 3ba2 41bd e98e dabb bd9a 443d cefe 953c
000003c0: 2842 863d 2851 153d 0635 153d b167 f53c
000003d0: 2cdf a5bd 918e 19bc 72a6 bdbc ec09 b63d
000003e0: 31bf bc3d be7f 9a3d 23ce b13d 0d1b 81bd
000003f0: 87f0 813d a971 2bbc 009f 51bd 930f 713d
0.020764662 -0.02640131 -0.06204145 0.051268175 0.026596341 0.06746566 0.08324761 0.0008759514
-0.0008113457 0.07455421 -0.073038034 -0.0199019 0.08200998 -0.08877583 -0.05157539 -0.06824778
-0.06238119 -0.004872935 -0.08069682 -0.06006605 0.04870507 0.029762734 0.021021297 -0.028873585
0.072377056 0.02904345 -0.08610592 0.034425233 -0.07507067 -0.08049255 -0.00011348939 0.07381278
-0.06520508 0.06798373 0.045039795 -0.06774727 -0.028860232 0.06177064 0.08993098 0.07586473
0.02052818 0.051494926 0.015645953 0.0071138837 0.05008885 0.07009651 -0.036388736 0.08113396
0.049204104 0.017843235 0.062050365 -0.057237703 0.04051582 -0.04154079 -0.085365586 -0.0060244873
0.04161555 0.013295952 0.03123067 0.03818351 -0.077348374 0.048515264 0.049518444 0.033516046
0.015717559 -0.016586611 -0.04311849 0.050893128 -0.057815406 -0.08082633 -0.049095448 0.045577664
-0.011940094 -0.07830018 0.03297206 -0.041196477 -0.06886297 0.0072138454 -0.07118365 -0.0868592
0.00066202396 -0.09116012 0.0006511785 -0.022943303 -0.027273431 -0.01295881 0.077831194 -0.0013049138
-0.02552272 0.0718807 -0.0055718436 0.091043845 -0.01234192 0.04593735 0.06781536 0.014001841
0.0059563317 0.02014869 -0.021021618 -0.031953245 -0.064710334 0.00073981757 0.012823494 -0.085740685
0.06021262 0.02177174 -0.06576277 -0.09229277 0.08281193 -0.05425994 -0.034674343 0.029470135
0.027481416 -0.07117216 -0.03097291 -0.0021872018 0.03635254 -0.000875997 0.06646521 -0.03832215
0.03539964 0.042434666 0.0133365495 -0.048939526 0.019392999 -0.04859141 -0.031708114 -0.005875916
0.017237907 -0.04788424 0.089498475 0.06249889 0.043517273 0.09038797 -0.005246577 -0.028590681
0.059358217 0.04359362 0.0016731443 -0.06573772 -0.022396086 0.08387918 0.072756544 0.07336134
0.021407457 0.07855593 0.018402342 0.03167959 -0.061693545 0.05631244 -0.00076581235 0.071712576
-0.0546953 -0.023818376 -0.028684428 -0.0661919 -0.032812484 -0.060673416 -0.001246751 0.07578391
0.06174366 0.03554979 0.07590621 -0.072492965 -0.060499467 0.038087666 -0.060416557 0.07132671
-0.07752377 -0.00074687024 0.07880111 0.05159652 0.060568117 0.007033327 -0.03580309 -0.060220182
0.018345248 -0.04631397 0.0013350719 -0.063993946 0.027437218 -0.03629323 0.08862181 0.05670625
0.010059444 0.05328896 0.015596135 0.04582156 0.04605109 -0.038900428 0.019003479 0.00058818795
0.038754087 0.052087944 0.023839807 -0.04812487 -0.08989209 0.015509102 0.08703168 0.06932064
-0.0381463 -0.044485282 -0.0054294667 0.06962386 -0.029760195 0.07398514 -0.059526596 0.0019345031
-0.011433699 0.060892645 0.09262603 0.018890854 -0.060946044 -0.022846246 -0.019249424 -0.0024978279
-0.019501595 0.030327365 0.03513411 0.053599574 -0.0008895042 -0.07340976 0.07321162 0.020586066
0.006222397 0.05013576 -0.02023259 0.032742556 0.014232468 0.053658556 0.054751668 -0.07132659
-0.04825735 -0.08602877 -0.043001615 0.08164632 -0.047273856 -0.0066698682 0.047999132 0.018309977
0.06555587 0.03645435 0.03642752 0.02995667 -0.08099207 -0.009372369 -0.023150656 0.08888611
0.09216154 0.07543896 0.086818956 -0.06303988 0.06344705 -0.01046411 -0.051177025 0.058852743

recurrent.bias_ih_l1 f4 [512]
00000000: 0f79 d93a 79ee 8cba 41b4 023b 057f 4c3b
00000010: 026c 4a3b d307 d739 b8cb 09bb adb8 403b
00000020: 407f d9b9 3a06 0139 edec 243b 69c8 67bb
00000030: eb56 a3ba b489 0bbb bb02 6d38 1a99 46bb
00000040: 51cc 523b 46aa 5d3b b6f7 553a 3964 543b
00000050: eaf0 463b e1c6 69bb 35da cb3a 3f4a 6aba
00000060: 6049 603b 9e53 433b 7f71 143b cdd5 66bb
00000070: bc5f 34bb 6c5a 033b 98e8 213b ca21 493b
00000080: f60d ed3a fbb5 183b 7be2 03bb 8c3c 693b
00000090: c0bd 243b 5559 20bb 34c2 dc3a 2b93 0f3b
000000a0: 1b25 3d3b 14be 53ba 022e 163b 0556 59bb
000000b0: 15e2 b3ba 3a56 3c3a 3a56 d63a 094c 693b
000000c0: 6a0d 0cbb 74dd 043b 9fd7 2a39 cdea 663b
000000d0: 5d02 fbba 5fa6 b3ba ed2d 79ba 4277 753b
000000e0: 6ac9 67bb 2e0a f73a e6fc f1ba 4966 62bb
000000f0: 05a0 203b deea 6fbb bf0a 0bbb 33a2 1dba
00000100: a637 0ebb 2719 bc3a f64c 763b acac 8bba
00000110: 8f80 38bb 088c 3ebb c88d 063b 6786 003b
00000120: 8960 03bb bb16 36ba de5c 5a3b 0346 9db9
00000130: 1fff 003b 4e10 52bb 1e89 b9ba adf5 74bb
00000140: bbf3 57bb 7cac 7f3b 3d20 6e3b 0717 24bb
00000150: 72d9 1ebb f26e 2b3a 8f19 773b cd99 15b8
00000160: 63b8 5fbb f341 3c3b 7b99 43ba e32e c93a
00000170: cb2b 6f3b 7a29 bf3a a87b 07bb f7e6 6939
00000180: 1442 363b b313 2ebb 4342 49bb 2d2c 083b
00000190: 9ad5 453b 386e 06bb d415 53bb 2b37 853a
000001a0: 1076 23bb 9dfe 24bb 15db e63a 4a97 01bb
000001b0: cd03 88b9 a9db 36bb e8cc d5ba 5b3b 4c3b
000001c0: 77ba 733b a86e c2ba 6ff4 203b 0b84 7738
000001d0: bd4f f0ba 29f5 6ebb dbd2 9139 29cb 9aba
000001e0: dde5 483b 1b22 253b 1735 95ba af71 e0ba
000001f0: 123e 673b 4ebb 89ba 48c0 4bba 09c3 5b3b
00000200: 0000 0000 0000 0000 0000 0000 0000 0000
00000210: 0000 0000 0000 0000 0000 0000 0000 0000
00000220: 0000 0000 0000 0000 0000 0000 0000 0000
00000230: 0000 0000 0000 0000 0000 0000 0000 0000
00000240: 0000 0000 0000 0000 0000 0000 0000 0000
00000250: 0000 0000 0000 0000 0000 0000 0000 0000
00000260: 0000 0000 0000 0000 0000 0000 0000 0000
00000270: 0000 0000 0000 0000 0000 0000 0000 0000
00000280: 0000 0000 0000 0000 0000 0000 0000 0000
00000290: 0000 0000 0000 0000 0000 0000 0000 0000
000002a0: 0000 0000 0000 0000 0000 0000 0000 0000
000002b0: 0000 0000 0000 0000 0000 0000 0000 0000
000002c0: 0000 0000 0000 0000 0000 0000 0000 0000
000002d0: 0000 0000 0000 0000 0000 0000 0000 0000
000002e0: 0000 0000 0000 0000 0000 0000 0000 0000
000002f0: 0000 0000 0000 0000 0000 0000 0000 0000
00000300: 0000 0000 0000 0000 0000 0000 0000 0000
00000310: 0000 0000 0000 0000 0000 0000 0000 0000
00000320: 0000 0000 0000 0000 0000 0000 0000 0000
00000330: 0000 0000 0000 0000 0000 0000 0000 0000
00000340: 0000 0000 0000 0000 0000 0000 0000 0000
00000350: 0000 0000 0000 0000 0000 0000 0000 0000
00000360: 0000 0000 0000 0000 0000 0000 0000 0000
00000370: 0000 0000 0000 0000 0000 0000 0000 0000
00000380: 0000 0000 0000 0000 0000 0000 0000 0000
00000390: 0000 0000 0000 0000 0000 0000 0000 0000
000003a0: 0000 0000 0000 0000 0000 0000 0000 0000
000003b0: 0000 0000 0000 0000 0000 0000 0000 0000
000003c0: 0000 0000 0000 0000 0000 0000 0000 0000
000003d0: 0000 0000 0000 0000 0000 0000 0000 0000
000003e0: 0000 0000 0000 0000 0000 0000 0000 0000
000003f0: 0000 0000 0000 0000 0000 0000 0000 0000
0.0016591864 -0.0010752223 0.0019943865 0.003120364 0.0030887132 0.00041013825 -0.0021025967 0.002940695
-0.00041484274 0.00012304718 0.0025165633 -0.0035367256 -0.0012461817 -0.0021291794 5.6507746e-05 -0.0030303658
0.003216524 0.0033823415 0.0008162217 0.003240837 0.0030355998 -0.003567152 0.0015552702 -0.0008937455
0.0034223422 0.0029804478 0.0022650657 -0.003522265 -0.0027522882 0.002004291 0.0024705287 0.0030690306
0.0018085826 0.0023301828 -0.0020124007 0.0035589067 0.0025137514 -0.0024467309 0.0016842545 0.0021907787
0.0028861228 -0.0008077335 0.0022915606 -0.0033162844 -0.0013723994 0.00071844796 0.0016352602 0.00355983
-0.00213703 0.0020273598 0.00016292788 0.0035235167 -0.0019150485 -0.0013706199 -0.00095054397 0.0037455116
-0.0035367855 0.0018847638 -0.001846221 -0.003454583 0.0024509442 -0.0036608498 -0.0021216122 -0.0006013244
-0.002170065 0.0014350758 0.0037582493 -0.0010656319 -0.0028152799 -0.0029075164 0.0020531286 0.001961136
-0.0020046553 -0.0006946136 0.0033319513 -0.00029997536 0.0019683314 -0.0032053175 -0.0014155244 -0.003737788
-0.0032951671 0.003901272 0.0036335133 -0.002503814 -0.0024238494 0.00065396645 0.0037704443 -3.5667606e-05
-0.0034137003 0.0028725832 -0.000746153 0.0015349056 0.0036494609 0.0014584505 -0.002067307 0.00022306653
0.0027810382 -0.0026562035 -0.003070966 0.0020778284 0.003018713 -0.0020512473 -0.0032209055 0.0010163536
-0.0024942197 -0.0025176175 0.0017612899 -0.0019774013 -0.00025942773 -0.0027901924 -0.0016311677 0.0031163308
0.003719 -0.0014834004 0.0024559756 5.9012364e-05 -0.0018334311 -0.0036462045 0.00027813655 -0.0011809814
0.0030654587 0.002519733 -0.001138362 -0.0017123724 0.00352848 -0.0010508092 -0.00077724876 0.0033532998
0.0 0.0 0.0 0.0 0.0 0.0 0.0 0.0
0.0 0.0 0.0 0.0 0.0 0.0 0.0 0.0
0.0 0.0 0.0 0.0 0.0 0.0 0.0 0.0
0.0 0.0 0.0 0.0 0.0 0.0 0.0 0.0
0.0 0.0 0.0 0.0 0.0 0.0 0.0 0.0
0.0 0.0 0.0 0.0 0.0 0.0 0.0 0.0
0.0 0.0 0.0 0.0 0.0 0.0 0.0 0.0
0.0 0.0 0.0 0.0 0.0 0.0 0.0 0.0
0.0 0.0 0.0 0.0 0.0 0.0 0.0 0.0
0.0 0.0 0.0 0.0 0.0 0.0 0.0 0.0
0.0 0.0 0.0 0.0 0.0 0.0 0.0 0.0
0.0 0.0 0.0 0.0 0.0 0.0 0.0 0.0
0.0 0.0 0.0 0.0 0.0 0.0 0.0 0.0
0.0 0.0 0.0 0.0 0.0 0.0 0.0 0.0
0.0 0.0 0.0 0.0 0.0 0.0 0.0 0.0
0.0 0.0 0.0 0.0 0.0 0.0 0.0 0.0

recurrent.bias_hh_l1 f4 [512]
00000000: 0f79 d93a 79ee 8cba 41b4 023b 057f 4c3b
00000010: 026c 4a3b d307 d739 b8cb 09bb adb8 403b
00000020: 407f d9b9 3a06 0139 edec 243b 69c8 67bb
00000030: eb56 a3ba b489 0bbb bb02 6d38 1a99 46bb
00000040: 51cc 523b 46aa 5d3b b6f7 553a 3964 543b
00000050: eaf0 463b e1c6 69bb 35da cb3a 3f4a 6aba
00000060: 6049 603b 9e53 433b 7f71 143b cdd5 66bb
00000070: bc5f 34bb 6c5a 033b 98e8 213b ca21 493b
00000080: f60d ed3a fbb5 183b 7be2 03bb 8c3c 693b
00000090: c0bd 243b 5559 20bb 34c2 dc3a 2b93 0f3b
000000a0: 1b25 3d3b 14be 53ba 022e 163b 0556 59bb
000000b0: 15e2 b3ba 3a56 3c3a 3a56 d63a 094c 693b
000000c0: 6a0d 0cbb 74dd 043b 9fd7 2a39 cdea 663b
000000d0: 5d02 fbba 5fa6 b3ba ed2d 79ba 4277 753b
000000e0: 6ac9 67bb 2e0a f73a e6fc f1ba 4966 62bb
000000f0: 05a0 203b deea 6fbb bf0a 0bbb 33a2 1dba
00000100: a637 0ebb 2719 bc3a f64c 763b acac 8bba
00000110: 8f80 38bb 088c 3ebb c88d 063b 6786 003b
00000120: 8960 03bb bb16 36ba de5c 5a3b 0346 9db9
00000130: 1fff 003b 4e10 52bb 1e89 b9ba adf5 74bb
00000140: bbf3 57bb 7cac 7f3b 3d20 6e3b 0717 24bb
00000150: 72d9 1ebb f26e 2b3a 8f19 773b cd99 15b8
00000160: 63b8 5fbb f341 3c3b 7b99 43ba e32e c93a
00000170: cb2b 6f3b 7a29 bf3a a87b 07bb f7e6 6939
00000180: 1442 363b b313 2ebb 4342 49bb 2d2c 083b
00000190: 9ad5 453b 386e 06bb d415 53bb 2b37 853a
000001a0: 1076 23bb 9dfe 24bb 15db e63a 4a97 01bb
000001b0: cd03 88b9 a9db 36bb e8cc d5ba 5b3b 4c3b
000001c0: 77ba 733b a86e c2ba 6ff4 203b 0b84 7738
000001d0: bd4f f0ba 29f5 6ebb dbd2 9139 29cb 9aba
000001e0: dde5 483b 1b22 253b 1735 95ba af71 e0ba
000001f0: 123e 673b 4ebb 89ba 48c0 4bba 09c3 5b3b
00000200: 0000 0000 0000 0000 0000 0000 0000 0000
00000210: 0000 0000 0000 0000 0000 0000 0000 0000
00000220: 0000 0000 0000 0000 0000 0000 0000 0000
00000230: 0000 0000 0000 0000 0000 0000 0000 0000
00000240: 0000 0000 0000 0000 0000 0000 0000 0000
00000250: 0000 0000 0000 0000 0000 0000 0000 0000
00000260: 0000 0000 0000 0000 0000 0000 0000 0000
00000270: 0000 0000 0000 0000 0000 0000 0000 0000
00000280: 0000 0000 0000 0000 0000 0000 0000 0000
00000290: 0000 0000 0000 0000 0000 0000 0000 0000
000002a0: 0000 0000 0000 0000 0000 0000 0000 0000
000002b0: 0000 0000 0000 0000 0000 0000 0000 0000
000002c0: 0000 0000 0000 0000 0000 0000 0000 0000
000002d0: 0000 0000 0000 0000 0000 0000 0000 0000
000002e0: 0000 0000 0000 0000 0000 0000 0000 0000
000002f0: 0000 0000 0000 0000 0000 0000 0000 0000
00000300: 0000 0000 0000 0000 0000 0000 0000 0000
00000310: 0000 0000 0000 0000 0000 0000 0000 0000
00000320: 0000 0000 0000 0000 0000 0000 0000 0000
00000330: 0000 0000 0000 0000 0000 0000 0000 0000
00000340: 0000 0000 0000 0000 0000 0000 0000 0000
00000350: 0000 0000 0000 0000 0000 0000 0000 0000
00000360: 0000 0000 0000 0000 0000 0000 0000 0000
00000370: 0000 0000 0000 0000 0000 0000 0000 0000
00000380: 0000 0000 0000 0000 0000 0000 0000 0000
00000390: 0000 0000 0000 0000 0000 0000 0000 0000
000003a0: 0000 0000 0000 0000 0000 0000 0000 0000
000003b0: 0000 0000 0000 0000 0000 0000 0000 0000
000003c0: 0000 0000 0000 0000 0000 0000 0000 0000
000003d0: 0000 0000 0000 0000 0000 0000 0000 0000
000003e0: 0000 0000 0000 0000 0000 0000 0000 0000
000003f0: 0000 0000 0000 0000 0000 0000 0000 0000
0.0016591864 -0.0010752223 0.0019943865 0.003120364 0.0030887132 0.00041013825 -0.0021025967 0.002940695
-0.00041484274 0.00012304718 0.0025165633 -0.0035367256 -0.0012461817 -0.0021291794 5.6507746e-05 -0.0030303658
0.003216524 0.0033823415 0.0008162217 0.003240837 0.0030355998 -0.003567152 0.0015552702 -0.0008937455
0.0034223422 0.0029804478 0.0022650657 -0.003522265 -0.0027522882 0.002004291 0.0024705287 0.0030690306
0.0018085826 0.0023301828 -0.0020124007 0.0035589067 0.0025137514 -0.0024467309 0.0016842545 0.0021907787
0.0028861228 -0.0008077335 0.0022915606 -0.0033162844 -0.0013723994 0.00071844796 0.0016352602 0.00355983
-0.00213703 0.0020273598 0.00016292788 0.0035235167 -0.0019150485 -0.0013706199 -0.00095054397 0.0037455116
-0.0035367855 0.0018847638 -0.001846221 -0.003454583 0.0024509442 -0.0036608498 -0.0021216122 -0.0006013244
-0.002170065 0.0014350758 0.0037582493 -0.0010656319 -0.0028152799 -0.0029075164 0.0020531286 0.001961136
-0.0020046553 -0.0006946136 0.0033319513 -0.00029997536 0.0019683314 -0.0032053175 -0.0014155244 -0.003737788
-0.0032951671 0.003901272 0.0036335133 -0.002503814 -0.0024238494 0.00065396645 0.0037704443 -3.5667606e-05
-0.0034137003 0.0028725832 -0.000746153 0.0015349056 0.0036494609 0.0014584505 -0.002067307 0.00022306653
0.0027810382 -0.0026562035 -0.003070966 0.0020778284 0.003018713 -0.0020512473 -0.0032209055 0.0010163536
-0.0024942197 -0.0025176175 0.0017612899 -0.0019774013 -0.00025942773 -0.0027901924 -0.0016311677 0.0031163308
0.003719 -0.0014834004 0.0024559756 5.9012364e-05 -0.0018334311 -0.0036462045 0.00027813655 -0.0011809814
0.0030654587 0.002519733 -0.001138362 -0.0017123724 0.00352848 -0.0010508092 -0.00077724876 0.0033532998
0.0 0.0 0.0 0.0 0.0 0.0 0.0 0.0
0.0 0.0 0.0 0.0 0.0 0.0 0.0 0.0
0.0 0.0 0.0 0.0 0.0 0.0 0.0 0.0
0.0 0.0 0.0 0.0 0.0 0.0 0.0 0.0
0.0 0.0 0.0 0.0 0.0 0.0 0.0 0.0
0.0 0.0 0.0 0.0 0.0 0.0 0.0 0.0
0.0 0.0 0.0 0.0 0.0 0.0 0.0 0.0
0.0 0.0 0.0 0.0 0.0 0.0 0.0 0.0
0.0 0.0 0.0 0.0 0.0 0.0 0.0 0.0
0.0 0.0 0.0 0.0 0.0 0.0 0.0 0.0
0.0 0.0 0.0 0.0 0.0 0.0 0.0 0.0
0.0 0.0 0.0 0.0 0.0 0.0 0.0 0.0
0.0 0.0 0.0 0.0 0.0 0.0 0.0 0.0
0.0 0.0 0.0 0.0 0.0 0.0 0.0 0.0
0.0 0.0 0.0 0.0 0.0 0.0 0.0 0.0
0.0 0.0 0.0 0.0 0.0 0.0 0.0 0.0
