input/rnn_model.pth (torch, 3740 bytes, 6 tensors)

rnn.weight_ih_l0 f4 [14, 4]
00000000: 2f1d c43e b81f f23e 100c 1e38 3cf6 15bf
00000010: 356a 1e3f cbe7 39bf 612d 833c 4659 60bd
00000020: ec4f c2be 2279 b73d 84a6 de3e 2063 04bf
00000030: e49a 4c3e d833 24be f53b 4f3f 3b61 25bf
00000040: 0a56 113f 2ad9 2bbf 5b1b ca3d 34a1 f93b
00000050: bc51 3a3e 25c3 e7bd 6f50 febe fad5 293f
00000060: f000 82be a3fb e9be 1348 a13d e4c7 173f
00000070: c0e5 fa3e 96a1 493c d018 fe3e 4132 2bbf
00000080: 4601 b6bc aa0b 923d d842 313f 22a6 3bbe
00000090: 3536 a4be 774c 03bf d94d 163f c6d4 b23e
000000a0: 33b8 0ebf 01ef 9ebd d746 e53e f9d2 f33e
000000b0: 8c50 3bbf b5ce 0fbd f452 ee3e 3a1b 0c3e
000000c0: c433 d43e ea50 dd3e 6991 29bf 6580 933d
000000d0: 91b1 1a3d efff 21bf 4dd3 ff3d 7802 cc3e
0.38303515 0.47289824 3.768137e-05 -0.5857885 0.6188081 -0.72619313 0.01601285 -0.054772638
-0.379516 0.08958651 0.43486416 -0.5171375 0.19980961 -0.16035402 0.8095086 -0.64601487
0.5677191 -0.6712824 0.09868499 0.007618094 0.18195242 -0.11316518 -0.4967074 0.6634213
-0.2539134 -0.45699796 0.07875075 0.59289384 0.4900341 0.0123065915 0.49628305 -0.66873556
-0.022217404 0.07131131 0.6924262 -0.18325093 -0.32072607 -0.5128855 0.58712536 0.34927958
-0.55749816 -0.0776043 0.4478061 0.47621897 -0.7316978 -0.03510924 0.46547663 0.13682261
0.41445744 0.43225795 -0.66237503 0.07202224 0.037766997 -0.6328115 0.12491474 0.39845634

rnn.weight_hh_l0 f4 [14, 14]
00000000: 68d3 c2bd 8488 913d b0c8 163e 86f1 243e
00000010: 0438 0f3e 00bd 2e3e 2eb7 6ebe 98e1 fa3d
00000020: 1e3d 733e 420a 213e 50d4 823c 5732 843e
00000030: b8f0 04be 86fd e8bd ba74 5c3e 1d7e 86be
00000040: b8b9 e0bc 77fa 873e a7ff 823e 2822 eebc
00000050: 8576 803e 50a1 b33d 0835 4dbd 2d3c 813e
00000060: 6031 3dbc 9229 53be 98f4 1bbd 20cf 743c
00000070: 5c29 2dbe 8406 be3d 88c3 743d ed23 48be
00000080: bb6c 14be 1004 0e3e 00a9 893a a077 bbbc
00000090: 6cf1 bbbd e060 da3c 6a3b 7ebe beda 03be
000000a0: 5db3 49be 6b4b 58be 0afd 623e 88ae 3bbe
000000b0: 3069 54be 4c3e a93d c5d2 863e 4880 763d
000000c0: 789b 663d 80f2 3f3e cc57 45bd acb3 493e
000000d0: 3c6e 38bd 3300 61be b21c 4ebe 38c4 a7bc
000000e0: e06b d13d 8cd9 73bd d24c 78be 6e54 453e
000000f0: 98aa 393e d491 aa3d 00c7 d83b 80f7 08bb
00000100: 0ca2 e03d 2cd3 4c3e 903a 943c 3439 87be
00000110: 7807 603d 2ac5 83be d82d ae3d 99f6 6cbe
00000120: 3c16 8d3d a0b0 233d 2061 4cbc 3a28 373e
00000130: 8932 49be 11db 4ebe d6a4 86be 4d77 39be
00000140: f0cb 2f3e b3f4 873e 781d 223d b493 f53d
00000150: a247 43be 0f8c 0bbe f2ac 16be 6cb7 373e
00000160: d0aa f8bc 92d2 36be 16a1 4ebe 6040 3e3e
00000170: 58c3 33bd d20e 7d3e c07d ab3d c0b8 d93b
00000180: 347a f13d 153e 87be 001d 253b b6be 3cbe
00000190: c10a 11be ca1d 87be 6e39 94bd 52c5 583e
000001a0: f6dc 74be 7606 593e 8802 52bd 6863 afbc
000001b0: 006d 67bd 7eb2 643e f093 56bd 98fe 1f3e
000001c0: 1c26 4cbe 363a c6bd c4b2 533e 0674 1a3e
000001d0: d87e 51bd 0053 dc3c 50fb 7ebd 7c8a 35bd
000001e0: 084a 95bc 7884 8ebd e066 febc c034 c8bc
000001f0: 22e3 05be fa28 4ebe 5cd3 f93d 8ab3 173e
00000200: 7c2d 8dbd 303a 9b3c eb31 49be e48b 62be
00000210: d40a d53d 18ab d63d 5248 bfbd 007d ff3d
00000220: ecfb ad3d 4da4 65be 6011 26bd 007d b73b
00000230: 21b9 803e d82b 63bd 8138 48be 5269 2ebe
00000240: a616 243e de3f 183e 669f f8bd 3048 7d3d
00000250: d062 9c3c 01aa 4abe 7f40 79be f233 6b3e
00000260: a0b6 fbbd a0de 613c 30e6 693e 0057 fe3a
00000270: 56ed 88bd af7f 5bbe f8e1 a03d 7577 883e
00000280: f22c 80bd 349c a13d bbb4 68be 40f5 09bc
00000290: 39bf 08be 5eb9 35be fda5 85be 34f5 00be
000002a0: 482c 4dbe b013 dbbd e427 7fbe 50ad 0c3e
000002b0: d45b 21be 9b4f 813e 600c e53d 9097 733d
000002c0: c6f5 22be 1080 123e b443 d63d 98c7 85bd
000002d0: 1647 81be 1ed0 16be 70d2 4e3e c9c8 5dbe
000002e0: 58bf fe3d e0be 973c 9255 153e dcdc c13d
000002f0: 4609 73be 9ee5 e7bd 628c cebd 945d b0bd
00000300: 4062 0a3c d1f0 863e 4041 d63d 809d 20bc
-0.09512979 0.071061164 0.14724994 0.16107759 0.13986212 0.17064285 -0.23312065 0.1225006
0.23753783 0.1572657 0.01597038 0.25819656 -0.12982452 -0.11376481 0.21528903 -0.26268092
-0.027432308 0.26558277 0.25585672 -0.029069021 0.25090423 0.08771002 -0.050099403 0.25241223
-0.011547416 -0.20621327 -0.03807506 0.014941961 -0.16910309 0.092785865 0.059756786 -0.19544955
-0.14494602 0.13868737 0.0010502636 -0.02288419 -0.09176907 0.026657522 -0.24827352 -0.12876412
-0.19697328 -0.2112252 0.22166839 -0.18328297 -0.20743251 0.08263835 0.2633268 0.060180932
0.05630061 0.1874485 -0.048179433 0.19697446 -0.045027003 -0.21972732 -0.20128134 -0.020479307
0.10225654 -0.05953364 -0.24248055 0.19270489 0.18131483 0.08328596 0.0066155195 -0.0020899475
0.10968408 0.2000243 0.018094331 -0.2641083 0.054694623 -0.25736362 0.08504838 -0.23140945
0.068890065 0.039963365 -0.012474328 0.17886439 -0.19648184 -0.20200755 -0.26297635 -0.18111916
0.1716764 0.26553878 0.039578885 0.11991063 -0.19070294 -0.13627647 -0.14714411 0.17941064
-0.030354887 -0.17853764 -0.20178637 0.18579245 -0.043887466 0.24712685 0.08373594 0.0066443384
0.117908865 -0.26414552 0.0025194287 -0.18432125 -0.14164259 -0.26389915 -0.07237516 0.21169022
-0.23912415 0.21193871 -0.051271945 -0.021409705 -0.056500435 0.22333714 -0.052387178 0.15624464
-0.19936413 -0.096790716 0.20673662 0.15083322 -0.05114636 0.026895046 -0.06225139 -0.044321522
-0.018223777 -0.0695886 -0.031054914 -0.024439216 -0.13074926 -0.20132819 0.12198517 0.14814582
-0.06893441 0.018948644 -0.19647948 -0.22123677 0.10402456 0.10481852 -0.09339966 0.12475014
0.08495316 -0.22425957 -0.040543914 0.005599618 0.25141242 -0.055461735 -0.19552805 -0.17032364
0.16024265 0.14868113 -0.12139778 0.06183642 0.019090086 -0.19791414 -0.2434101 0.22969034
-0.12290692 0.013785988 0.22841716 0.001940459 -0.06685893 -0.21435426 0.078556 0.26653638
-0.06258573 0.078911215 -0.22725193 -0.008420289 -0.13354196 -0.17746493 -0.26103202 -0.12593538
-0.20036423 -0.106971145 -0.24917561 0.13737988 -0.15757686 0.25256047 0.11184001 0.059470713
-0.15914068 0.14306664 0.10462132 -0.0653221 -0.25249547 -0.14727828 0.20197463 -0.21658625
0.1243884 0.018523633 0.14583424 0.09465954 -0.23734006 -0.11323093 -0.1008537 -0.086115986
0.008446276 0.26355603 0.10461664 -0.009803176

rnn.bias_ih_l0 f4 [14]
00000000: 5d4b 323d 581a 803e e258 033e f12f 29bc
00000010: 26cf 033e a49a b93d 3846 ec3d f892 f1bd
00000020: 4936 c23d fd1a 9c3c f56a 5dbd 349f c93c
00000030: c18b c13c b6df 5b3d
0.043528903 0.250201 0.12826875 -0.0103263715 0.1287199 0.090626985 0.11536831 -0.1179561
0.0948301 0.019055838 -0.05405708 0.024612047 0.02362621 0.053680144

rnn.bias_hh_l0 f4 [14]
00000000: 538d 5bbe 032b 69be bfba 7bbd cb18 babd
00000010: d04f 78bc 73e3 203e 30a8 c1bd b140 093d
00000020: 22a1 f8bd 1e6d 7a3d 456b 11be 5932 9f3d
00000030: 9212 31be 60df ebbd
-0.2144063 -0.22770314 -0.06145739 -0.0908676 -0.0151557475 0.15711765 -0.09455907 0.03350896
-0.12140109 0.06113922 -0.14201076 0.07773275 -0.1729224 -0.11517215

fc.weight f4 [4, 14]
00000000: 26e2 c4be b710 24bf dd6e fe3e f433 13be
00000010: a1bc 2ebf 8bfd c3bd dbcd 5c3e f29f edbe
00000020: 1ec2 1e3e 30dd 813e 2077 1d3f e795 223f
00000030: d5ae d0be f46d e13d 1b85 a4be 2d0b 6a3f
00000040: b39a 9bbe 3d6c 8a3e dc8c 293f 3cfe d33c
00000050: 409f 1d3f 7a32 6bbd 4486 4e3d c282 cd3e
00000060: f1dc ee3d 8797 c93d 3f0e 04bf 7afd 3c3f
00000070: e24f 993e dbd5 9bbd 705d 2bbf 6798 21bf
00000080: b569 3cbe 9f78 a73e eb41 d2be 2941 bcbe
00000090: e4e3 ecbe 432e 22bf b1cd 9dbe 1098 a8be
000000a0: 7bff 323f 0551 9a3d 7649 323f 105e 083e
000000b0: 01ae 223f 2f21 4a3f 8fd7 5f3b 824a e9be
000000c0: 2f74 26bf b790 a73e f90e 943e 10c0 09bf
000000d0: d70a 02bf 9b70 9dbe aaed c43b 3838 6bbe
-0.38453788 -0.64088005 0.49693957 -0.14375287 -0.68256575 -0.09569844 0.21562903 -0.4641109
0.15503737 0.25364065 0.61509895 0.6350998 -0.40758386 0.110073 -0.321328 0.914233
-0.30391464 0.27035704 0.6623056 0.025878064 0.6157112 -0.057421185 0.050421014 0.40138823
0.11663235 0.09843355 -0.5158424 0.73824275 0.29943758 -0.07609149 -0.6693945 -0.6312317
-0.18399699 0.32709214 -0.41065916 -0.36768463 -0.46267617 -0.6335184 -0.30820993 -0.32928514
0.6992108 0.075349845 0.6964334 0.13317132 0.6354676 0.78956884 0.0034155583 -0.45564657
-0.6502103 0.32727596 0.28917673 -0.5380869 -0.5079779 -0.30749974 0.006009777 -0.22970665

fc.bias f4 [4]
00000000: 96c7 7b3e f42a 3b3e 1991 5dbc 7bb3 483d
0.24587855 0.18278104 -0.0135233635 0.04899929
