input/rnn_model.pth (torch, 813474 bytes, 10 tensors)

recurrent.weight_ih_l0 f4 [512, 7]
0.0050943797 -0.084240824 0.08719712 0.073977046 0.083151996 -0.08727603 0.09331787 -0.07116124
0.046691097 -0.085360676 0.09142462 0.018492281 0.046581607 -0.09316338 0.01525122 0.10132719
0.09387091 0.08002068 -0.09170367 -0.07248696 0.08729499 0.026527926 0.034776475 0.05807242
-0.074905 0.04201397 0.0018871248 -0.08809503 0.0409369 -0.043944564 -0.08643659 -0.039435837
0.06395324 -0.023463478 -0.040337257 0.010553713 -0.10134423 0.018798426 0.06418717 0.06049999
0.08466887 -0.0029192332 -0.03496687 0.06445904 -0.047094285 0.04841213 -0.0784926 -0.013466631
0.031793863 0.09359651 0.008805153 0.06937641 0.003927746 -0.063021824 0.08820115 0.08472215
-0.04312797 0.032580364 0.10041972 -0.04239456 -0.0109079555 0.007355246 -0.019357247 0.008093361
0.0076597617 -0.04612898 0.052743904 0.014186355 0.0728809 0.0100895 0.022358024 -0.07831045
-0.013216492 0.04342876 -0.015554503 -0.030708548 -0.0016703208 0.07357958 0.023851782 -0.07333603
-0.08708337 -0.08883962 -0.07104484 -0.08380714 0.026036128 0.062070742 0.026272474 0.077420354
-0.07454991 -0.05240997 0.01985172 0.004637819 -0.028813967 0.089048564 0.02200784 0.065094545
0.023243457 -0.051724516 0.089210995 0.013911376 0.08222182 0.07334036 -0.06763523 0.05983122
0.015423913 0.005287061 0.024111092 0.05354234 0.06987629 -0.037008658 -0.06968577 -0.100932986
0.015587875 0.090108775 -0.030530348 -0.0054670116 0.07067356 0.07034747 -0.03820183 -0.027966242
-0.025390726 -0.007912878 -0.016741639 0.10240761 -0.09744402 -0.081182346 -0.06672554 -0.0737743
0.018892279 0.02427136 0.036988918 0.034321763 0.03373699 -0.092476696 0.042448133 -0.103315294
0.031509798 0.06018155 0.020986 0.08207199 0.07711379 0.07301772 0.06495605 0.073268846
-0.101835884 -0.056304853 0.03821547 -0.088977486 -0.084965944 -0.097542785 0.039234478 -0.09115212
-0.072493896 -0.08440089 -0.07953865 -0.077346034 -0.0012887393 -0.009308916 0.034974243 -0.06790734
-0.03220405 0.09879045 -0.07905133 -0.0009625325 0.0046116603 -0.011972759 -0.025863199 -0.020117294
-0.08233635 0.07056571 0.041221265 0.047987744 0.016152594 0.10822416 -0.008161033 -0.07243898
0.037025627 -0.007430063 0.06355358 0.042184267 0.0760275 -0.023395704 -0.03943658 0.057170827
0.053549346 -0.013051844 -0.06575851 -0.028511465 -0.09333366 -0.03209791 0.077648565 -0.022205206
0.09167921 0.012401524 0.05857486 -0.021711702 0.08731267 0.006082072 0.08586769 0.020334907
-0.033564366 0.022639615 0.07721058 -0.007830186 0.07118875 -0.089584455 0.097423725 0.09088209
-0.053476762 0.012661652 -0.09529154 -0.008284815 -0.0028773914 0.049853273 -0.06875873 -0.024704527
-0.06858253 -0.0883736 0.082086034 -0.08268975 0.08577734 -0.042853832 0.015199603 -0.052445825
0.020148009 -0.071208864 0.041871782 0.006070833 -0.088170595 0.05773869 -0.035361562 0.08574143
0.047362193 -0.031058501 -0.050849076 -0.07297227 -0.07972777 0.045636583 -0.069256894 0.045530777
-0.006929469 0.08342074 -0.060980443 0.09447697 0.007924389 -0.027791942 -0.07740725 0.09696149
0.0019318719 -0.08678699 0.041657683 0.06752071 -0.095072314 -0.05252847 -0.07322009 0.099899255
00000000: c1ee a63b 7486 acbd 6794 b23d 4781 973d
00000010: 984b aa3d c6bd b2bd 701d bf3d fcbc 91bd
00000020: 2a3f 3f3d 94d1 aebd d53c bb3d 207d 973c
00000030: 5bcc 3e3d 71cc bebd 41e0 793c a184 cf3d
00000040: 643f c03d e2e1 a33d 22cf bbbd 0b74 94bd
00000050: b7c7 b23d 1851 d93c c771 0e3d 59dd 6d3d
00000060: cb67 99bd d716 2c3d 6759 f73a 2b6b b4bd
00000070: 73ad 273d 37ff 33bd ab05 b1bd 7987 21bd
00000080: ebf9 823d 7b36 c0bc ae38 25bd 7be9 2c3c
00000090: 908d cfbd 28ff 993c 9074 833d d6ce 773d
000000a0: df66 ad3d 9b50 3fbb 6c39 0fbd 1a03 843d
000000b0: f0e5 40bd cc4b 463d bac0 a0bd 25a3 5cbc
000000c0: 483a 023d 87af bf3d 7d43 103c 3815 8e3d
000000d0: 52b4 803b 9611 81bd cea2 b43d ce82 ad3d
000000e0: f4a6 30bd fd72 053d dba8 cd3d eba5 2dbd
000000f0: 48b7 32bc 4704 f13b 1793 9ebc 049a 043c
00000100: bdfe fa3b bef1 3cbd fe09 583d e36d 683c
00000110: 9542 953d 6e4e 253c 2d28 b73c 3b61 a0bd
00000120: fc89 58bc 5be2 313d 50d8 7ebc 7e90 fbbc
00000130: aaee daba e4b0 963d d064 c33c 3331 96bd
00000140: c458 b2bd 8cf1 b5bd f57f 91bd 14a3 abbd
00000150: b849 d53c e43d 7e3d 5f39 d73c 908e 9e3d
00000160: a0ad 98bd d6ab 56bd 13a0 a23c d8f8 973b
00000170: 450b ecbc 185f b63d c949 b43c 4a50 853d
00000180: 1069 be3c 16dd 53bd 41b4 b63d 8aec 633c
00000190: ea63 a83d 7833 963d 5784 8abd 9511 753d
000001a0: 94b4 7c3c 153f ad3b a084 c53c 364f 5b3d
000001b0: 4d1b 8f3d 6496 17bd 6ab7 8ebd f4b5 cebd
000001c0: 4964 7f3c f38a b83d c81a fabc 9e24 b3bb
000001d0: 4dbd 903d 5612 903d 8679 1cbd 7619 e5bc
000001e0: 3600 d0bc 04a5 01bc c325 89bc 15bb d13d
000001f0: bb90 c7bd ee42 a6bd 66a7 88bd fb16 97bd
00000200: fbc3 9a3c bbd4 c63c b181 173d fa94 0c3d
00000210: cc2f 0a3d 6c64 bdbd 18de 2d3d f896 d3bd
00000220: 6b10 013d ee80 763d d5ea ab3c 5c15 a83d
00000230: d6ed 9d3d 508a 953d ad07 853d fa0d 963d
00000240: 558f d0bd eb9f 66bd d387 1c3d d439 b6bd
00000250: a002 aebd 83c4 c7bd 55b4 203d f6ad babd
00000260: ae77 94bd 60da acbd 29e5 a2bd 9967 9ebd
00000270: eaea a8ba 6c84 18bc 2741 0f3d 0113 8bbd
00000280: 65e8 03bd a652 ca3d aae5 a1bd 7652 7cba
00000290: 691d 973b 6429 44bc 0fdf d3bc 06cd a4bc
000002a0: f69f a8bd c184 903d a1d7 283d cc8e 443d
000002b0: 7252 843c a1a4 dd3d dab5 05bc e35a 94bd
000002c0: 2fa8 173d e377 f3bb 6128 823d 69c9 2c3d
000002d0: 4eb4 9b3d 59a8 bfbc 4088 21bd f52b 6a3d
000002e0: 8f56 5b3d 67d7 55bc 66ac 86bd e090 e9bc
000002f0: b825 bfbd 1979 03bd 3606 9f3d b1e7 b5bc
00000300: 4fc2 bb3d c32f 4b3c 31ec 6f3d bddc b1bc
00000310: fcd0 b23d 1e4c c73b 66db af3d 6495 a63c
00000320: ca7a 09bd b776 b93c 9520 9e3d 2e4a 00bc
00000330: 68cb 913d 0e78 b7bd 1786 c73d 6420 ba3d
00000340: 730a 5bbd d172 4f3c 3628 c3bd 08bd 07bc
00000350: 9e92 3cbb f232 4c3d 61d1 8cbd 2661 cabc
00000360: ff74 8cbd 38fd b4bd b91c a83d 3e59 a9bd
00000370: 08ac af3d 8087 2fbd c107 793c 6fd1 56bd
00000380: 700d a53c f4d5 91bd bf81 2b3d d7ed c63b
00000390: c992 b4bd 687f 6c3d 49d7 10bd 3499 af3d
000003a0: dcfe 413d 666e febc 1f47 50bd 7c72 95bd
000003b0: 5048 a3bd 6ded 3a3d 8fd6 8dbd 7b7e 3a3d
000003c0: 9910 e3bb 7ed8 aa3d a1c6 79bd 247d c13d
000003d0: 4cd5 013c edab e3bc b187 9ebd bf93 c63d
000003e0: dd36 fd3a 61bd b1bd 3fa1 2a3d 4c48 8a3d
000003f0: 46b5 c2bd 1828 57bd 6af4 95bd fb97 cc3d

recurrent.weight_hh_l0 f4 [512, 128]
0.06440443 -0.08101317 -0.061556775 -0.088429324 -0.051581252 -0.018579377 0.004965537 -0.0038745923
0.036451805 0.033864938 -0.08575264 0.038831305 -0.01213326 0.04558121 0.08284082 -0.07944267
-0.069262594 -0.01661622 0.037865736 -0.045569066 -0.044879742 -0.08482128 -0.009039768 -0.00020830658
-0.08942245 -0.064353384 -0.0065976256 -0.03323252 0.06778465 0.07667028 -0.0919416 0.07165672
0.029851608 -0.01609033 -0.08059342 -0.025608744 0.055468872 0.010312031 0.05309982 -0.03211599
-0.009172375 0.047835708 -0.080099806 0.07328513 0.0007338781 -0.025642319 0.00056630105 0.046042945
0.069230154 -0.081127144 -0.046851374 -0.017700478 0.028308548 0.09042459 -0.0092768455 0.011989034
-0.0590571 0.017239876 0.017228352 0.08754291 0.04105124 -0.09012709 -0.03889167 -0.046404935
0.06785478 -0.051971518 -0.059928432 -0.072928526 -0.044376433 -0.06451042 0.038794555 0.018953884
0.04887181 -0.00020463557 0.01516329 -0.074289896 0.08500478 0.027218865 -0.03825715 0.07086774
-0.04779024 0.013586294 0.07003552 0.06359632 -0.029468771 -0.0006759303 0.046552323 0.015443668
-0.050679408 0.0587347 -0.03992482 -0.00082496594 -0.039952595 -0.038110115 -0.08436145 0.060480844
0.033090923 0.020858617 0.011707909 -0.08474379 -0.013735824 -0.012201421 0.00026865522 -0.0007064402
-0.018423647 -0.08904901 0.04340307 -0.0020738123 0.07836617 0.051077385 0.02194107 -0.06138383
0.08497181 -0.05581416 -0.0002655882 0.019682094 -0.008618295 0.04389561 0.07959319 -0.084398225
-0.024152474 -0.08975584 -0.02694326 -0.03202059 0.010278269 0.010990981 -0.061073538 0.042768653
0.062407423 -0.007877616 -0.01573524 -0.07192692 0.052690074 0.022198804 -0.06265354 -0.06886888
-0.032835316 -0.0348633 0.057498228 -0.04973776 0.017274505 -0.08175843 0.07098336 0.0348487
-0.0021229186 -0.028786607 0.034704916 0.038144942 -0.059012864 0.06611346 -0.050712127 -0.032845516
0.037154354 0.004760967 -0.04658747 0.05994784 -0.08635944 0.031769942 0.02117136 -0.027643234
-0.0068011014 0.02201309 -0.0002725633 -0.09215424 0.04255549 0.08103279 0.071638495 -0.01737496
-0.008251441 -0.07451382 0.07962915 -0.08786075 -0.05834985 -0.09093709 -0.044405673 -0.055846833
0.07309568 -0.085269764 -0.04739489 0.0008480373 -0.04410668 -0.019772017 0.03307209 0.0033709249
0.016726263 0.014792426 0.07937766 -0.0007629382 -0.035569105 0.061106134 -0.036736894 0.036392592
0.0697345 -0.020647964 -0.04473434 -0.0101348935 -0.045813814 -0.070881605 0.07516178 -0.064397275
-0.083619714 0.087782905 -0.031548716 0.038960524 -0.00503057 -0.07713174 0.09165942 -0.06666536
-0.05726014 -0.03433077 0.018226715 0.029612985 0.019107468 0.000836731 -0.04177415 -0.08717759
0.09190273 -0.050138842 0.048219636 0.07485851 0.05847898 -0.089841165 0.07052099 0.056881834
0.06451778 0.08343647 -0.0036943757 -0.001017672 -0.0018506031 -0.06261498 0.092172615 0.034528207
0.011333184 0.0056284 -0.05915185 0.008624633 -0.043119054 0.0314839 -0.030730572 0.048481047
0.039064843 -0.015070991 -0.013035597 -0.034241132 -0.010897776 0.015835704 0.05926296 -0.024492387
-0.04149656 -0.08807931 0.063596144 -0.016813945 -0.052780394 0.00018163549 -0.034856096 -0.03535672
00000000: 78e6 833d 3cea a5bd f522 7cbd 6f1a b5bd
00000010: dd46 53bd c733 98bc f2b5 a23b dfec 7dbb
00000020: 7d4e 153d f6b5 0a3d 159f afbd 930d 1f3d
00000030: 95ca 46bc 5db3 3a3d 73a8 a93d d7b2 a2bd
00000040: 8cd9 8dbd bd1e 88bc 1a19 1b3d a1a6 3abd
00000050: d2d3 37bd c7b6 adbd 891b 14bc df6c 5ab9
00000060: 1e23 b7bd b5cb 83bd e530 d8bb d31e 08bd
00000070: aed2 8a3d 4f05 9d3d e14b bcbd c2c0 923d
00000080: 5c8b f43c decf 83bc 2a0e a5bd 6ec9 d1bc
00000090: 5433 633d cbf3 283c 327f 593d 0e8c 03bd
000000a0: bb47 16bc 60ef 433d 5e0b a4bd 8416 963d
000000b0: ba61 403a d70f d2bc d273 143a 8797 3c3d
000000c0: 8ac8 8d3d fd25 a6bd 3ae7 3fbd 9800 91bc
000000d0: 54e7 e73c 8730 b93d e9fd 17bc a76d 443c
000000e0: dce5 71bd a43a 8d3c 7922 8d3c b249 b33d
000000f0: 5825 283d 8d94 b8bd df4c 1fbd 1a13 3ebd
00000100: 72f7 8a3d 16e0 54bd 8477 75bd 8d5b 95bd
00000110: 10c4 35bd 0a1e 84bd 0ae7 1e3d 2d45 9b3c
00000120: cf2d 483d 7193 56b9 736f 783c 4d25 98bd
00000130: fc16 ae3d 19fa de3c 88b3 1cbd 1b23 913d
00000140: b3bf 43bd 0c99 5e3c c86e 8f3d ca3e 823d
00000150: 7e68 f1bc ea30 31ba a6ad 3e3d 7007 7d3c
00000160: 3695 4fbd cc93 703d 3588 23bd 8742 58ba
00000170: 55a5 23bd 5a19 1cbd b2c5 acbd c3ba 773d
00000180: 598a 073d b1df aa3c 88d2 3f3c 278e adbd
00000190: 390c 61bc 78e8 47bc 4bda 8c39 6630 39ba
000001a0: 30ed 96bc 545f b6bd 6bc7 313d cce8 07bb
000001b0: 717e a03d 8536 513d c2bd b33c 9c6d 7bbd
000001c0: b305 ae3d 639d 64bd a53e 8bb9 583c a13c
000001d0: c033 0dbc e2cb 333d c101 a33d fad8 acbd
000001e0: 69db c5bc e9d1 b7bd 1db8 dcbc 0628 03bd
000001f0: 2f66 283c 8413 343c 3f28 7abd 2f2e 2f3d
00000200: ed9e 7f3d 1e11 01bc 31e7 80bc 6c4e 93bd
00000210: 8cd1 573d 44da b53c 8050 80bd 210b 8dbd
00000220: 537e 06bd d2cc 0ebd 4383 6b3d d2b9 4bbd
00000230: 4383 8d3c f770 a7bd b95f 913d 83bd 0e3d
00000240: aa20 0bbb e4d1 ebbc be26 0e3d df3d 1c3d
00000250: 79b7 71bd 7e66 873d 85b7 4fbd 0589 06bd
00000260: 2a2f 183d e301 9c3b 81d2 3ebd de8b 753d
00000270: 38dd b0bd 3321 023d 8f6f ad3c 1074 e2bc
00000280: c6db debb cc54 b43c d4e6 8eb9 5dbb bcbd
00000290: aa4e 2e3d 85f4 a53d 34b7 923d ef55 8ebc
000002a0: 0d31 07bc b49a 98bd 9c14 a33d 56f0 b3bd
000002b0: 4100 6fbd 3a3d babd b9e2 35bd a6bf 64bd
000002c0: 30b3 953d eaa1 aebd 2521 42bd d24e 5e3a
000002d0: 35a9 34bd edf8 a1bc 9a76 073d bcea 5c3b
000002e0: 8405 893c ee5b 723c c190 a23d eaff 47ba
000002f0: e9b0 11bd 6d4a 7a3d 6d79 16bd 6610 153d
00000300: f6d0 8e3d eb25 a9bc 5b3b 37bd d30c 26bc
00000310: 44a7 3bbd 602a 91bd 6bee 993d b8e2 83bd
00000320: d040 abbd 86c7 b33d 3a39 01bd 1295 1f3d
00000330: 7bd7 a4bb 3ff7 9dbd efb7 bb3d d987 88bd
00000340: 9c89 6abd 6c9e 0cbd 3150 953c ee96 f23c
00000350: 4487 9c3c 1158 5b3a 5f1b 2bbd 2a8a b2bd
00000360: 8037 bc3d 635e 4dbd f481 453d 6b4f 993d
00000370: a887 6f3d a5fe b7bd 4f6d 903d edfc 683d
00000380: e621 843d bde0 aa3d 571d 72bb 6863 85ba
00000390: f08f f2ba 483c 80bd ffc4 bc3d 736d 0d3d
000003a0: d2ae 393c 716e b83b 3649 72bd 554e 0d3c
000003b0: 9b9d 30bd 43f5 003d aebe fbbc 1094 463d
000003c0: 7502 203d 51ec 76bc 4293 55bc 6e40 0cbd
000003d0: 968c 32bc e1b9 813c b8bd 723d 42a4 c8bc
000003e0: 4cf8 29bd ed62 b4bd b23e 823d 66bd 89bc
000003f0: 4130 58bd 6875 3e39 44c5 0ebd 35d2 10bd

recurrent.bias_ih_l0 f4 [512]
-0.002134838 0.0035681631 -0.0036411055 0.0011424574 0.0009608528 -0.0016872225 -0.0031156004 -0.002512619
-0.003793481 -0.0025711856 -0.0014120113 -0.003556956 -0.0029778595 -0.0027838873 0.0007383185 0.0015630063
0.0036664251 0.00026410128 -0.0023903972 -0.00046837036 -0.0005408088 0.00388815 0.0038989682 -0.0026516817
-0.003164086 0.0038636886 0.003949699 -0.0025783256 -0.002680347 -0.0035063366 0.003705884 -0.0027243318
0.00027514694 0.003933613 0.0012773199 0.00063341385 0.0022007956 -0.0012343299 -0.003513806 -0.0037573923
-0.0035373478 -8.5993145e-07 -0.0035096055 0.0025002423 0.0039495663 0.003935692 -0.0036398005 0.0035732777
0.0039794147 -0.0037859497 0.004014738 -0.0032531181 0.0039705024 2.9146666e-05 0.0030417016 -0.0027590923
-0.0037168462 0.0012205973 0.0037010314 0.0015638341 -0.0033333756 0.003533572 0.0037958724 0.0036871824
0.0019796782 0.0039004365 -0.0011403909 -0.003472156 -0.0013967834 -0.003314859 -0.0036771074 -0.00371191
-0.003782155 0.0034927495 -0.0025701665 4.6865225e-05 0.003527918 -0.0010845566 0.0029744806 -0.001659195
0.0016654022 -0.0021119793 0.0036790278 0.003792378 -0.003688651 -0.0033013278 0.003973046 -0.0033788898
0.0032989604 -0.00021265971 0.00034117213 0.0018881022 -0.0009609364 -0.0033457587 0.0039328816 0.0038045289
0.003739207 -0.0036924868 -0.0013930806 0.003961658 0.0037079765 0.0003798977 -0.0028535507 0.0012028452
-0.0034952578 -0.001319229 -0.0024098228 0.0020689007 -0.0032807975 0.0037962438 0.0038782393 0.0008092936
0.0037427605 0.0016920994 0.0035987687 0.0038860715 -0.0028036817 0.0016943795 0.0030658233 -0.0035195032
0.001885323 0.002045751 -0.0035526417 0.0026174728 0.0013193933 -0.0036021862 0.0028353285 0.004002827
0.0 0.0 0.0 0.0 0.0 0.0 0.0 0.0
0.0 0.0 0.0 0.0 0.0 0.0 0.0 0.0
0.0 0.0 0.0 0.0 0.0 0.0 0.0 0.0
0.0 0.0 0.0 0.0 0.0 0.0 0.0 0.0
0.0 0.0 0.0 0.0 0.0 0.0 0.0 0.0
0.0 0.0 0.0 0.0 0.0 0.0 0.0 0.0
0.0 0.0 0.0 0.0 0.0 0.0 0.0 0.0
0.0 0.0 0.0 0.0 0.0 0.0 0.0 0.0
0.0 0.0 0.0 0.0 0.0 0.0 0.0 0.0
0.0 0.0 0.0 0.0 0.0 0.0 0.0 0.0
0.0 0.0 0.0 0.0 0.0 0.0 0.0 0.0
0.0 0.0 0.0 0.0 0.0 0.0 0.0 0.0
0.0 0.0 0.0 0.0 0.0 0.0 0.0 0.0
0.0 0.0 0.0 0.0 0.0 0.0 0.0 0.0
0.0 0.0 0.0 0.0 0.0 0.0 0.0 0.0
0.0 0.0 0.0 0.0 0.0 0.0 0.0 0.0
00000000: a3e8 0bbb d8d7 693b 9d9f 6ebb 82be 953a
00000010: bde1 7b3a cb25 ddba 1a2f 4cbb c0aa 24bb
00000020: 0d9c 78bb 5681 28bb 3d13 b9ba d21b 69bb
00000030: 3128 43bb e171 36bb b78b 413a cadd cc3a
00000040: 6848 703b 1377 8a39 36a8 1cbb 9b8f f5b9
00000050: 10c5 0dba 55d0 7e3b d585 7f3b d6c7 2dbb
00000060: 8e5c 4fbb f035 7d3b 7a6c 813b 20f9 28bb
00000070: c3a8 2fbb 91ca 65bb 6bde 723b b48a 32bb
00000080: 9941 9039 8ae5 803b be6b a73a af0b 263a
00000090: 393b 103b 3dc9 a1ba e247 66bb 953e 76bb
000000a0: d9d2 67bb 0ad6 66b5 6901 66bb 1bdb 233b
000000b0: 5d6b 813b faf6 803b b889 6ebb a72d 6a3b
000000c0: c065 823b b21d 78bb 108e 833b 4432 55bb
000000d0: fd1a 823b fd7f f437 4957 473b e3d1 34bb
000000e0: 5596 73bb 73fc 9f3a 018d 723b 91f9 cc3a
000000f0: c374 5abb 8093 673b 2cc4 783b a8a4 713b
00000100: 7dbd 013b 779e 7f3b 2b79 95ba 1c8d 63bb
00000110: 4614 b7ba 1b3e 59bb a0fb 70bb 8443 73bb
00000120: 08de 77bb 9de6 643b 3d70 28bb 2791 4438
00000130: a434 673b ae27 8eba 81ef 423b 5979 d9ba
00000140: a049 da3a 2269 0abb d81b 713b 8b89 783b
00000150: 4bbd 71bb 175b 58bb 5330 823b 5d70 5dbb
00000160: 5f33 583b 68fd 5eb9 59df b239 327a f73a
00000170: 5ae7 7bba 8444 5bbb 67df 803b 6755 793b
00000180: 7c0d 753b a6fd 71bb 0798 b6ba ccd0 813b
00000190: 8601 733b 022d c739 a302 3bbb caa8 9d3a
000001a0: b210 65bb fbe9 acba 1eee 1dbb 6596 073b
000001b0: a602 57bb 67ca 783b 0f2a 7e3b c626 543a
000001c0: 1a49 753b 6fc9 dd3a 52d9 6b3b 76ad 7e3b
000001d0: f9bd 37bb f115 de3a fbeb 483b 77a7 66bb
000001e0: f11c f73a 0212 063b 70d3 68bb e889 2b3b
000001f0: 7eef ac3a a812 6cbb ebd0 393b 262a 833b
00000200: 0000 0000 0000 0000 0000 0000 0000 0000
00000210: 0000 0000 0000 0000 0000 0000 0000 0000
00000220: 0000 0000 0000 0000 0000 0000 0000 0000
00000230: 0000 0000 0000 0000 0000 0000 0000 0000
00000240: 0000 0000 0000 0000 0000 0000 0000 0000
00000250: 0000 0000 0000 0000 0000 0000 0000 0000
00000260: 0000 0000 0000 0000 0000 0000 0000 0000
00000270: 0000 0000 0000 0000 0000 0000 0000 0000
00000280: 0000 0000 0000 0000 0000 0000 0000 0000
00000290: 0000 0000 0000 0000 0000 0000 0000 0000
000002a0: 0000 0000 0000 0000 0000 0000 0000 0000
000002b0: 0000 0000 0000 0000 0000 0000 0000 0000
000002c0: 0000 0000 0000 0000 0000 0000 0000 0000
000002d0: 0000 0000 0000 0000 0000 0000 0000 0000
000002e0: 0000 0000 0000 0000 0000 0000 0000 0000
000002f0: 0000 0000 0000 0000 0000 0000 0000 0000
00000300: 0000 0000 0000 0000 0000 0000 0000 0000
00000310: 0000 0000 0000 0000 0000 0000 0000 0000
00000320: 0000 0000 0000 0000 0000 0000 0000 0000
00000330: 0000 0000 0000 0000 0000 0000 0000 0000
00000340: 0000 0000 0000 0000 0000 0000 0000 0000
00000350: 0000 0000 0000 0000 0000 0000 0000 0000
00000360: 0000 0000 0000 0000 0000 0000 0000 0000
00000370: 0000 0000 0000 0000 0000 0000 0000 0000
00000380: 0000 0000 0000 0000 0000 0000 0000 0000
00000390: 0000 0000 0000 0000 0000 0000 0000 0000
000003a0: 0000 0000 0000 0000 0000 0000 0000 0000
000003b0: 0000 0000 0000 0000 0000 0000 0000 0000
000003c0: 0000 0000 0000 0000 0000 0000 0000 0000
000003d0: 0000 0000 0000 0000 0000 0000 0000 0000
000003e0: 0000 0000 0000 0000 0000 0000 0000 0000
000003f0: 0000 0000 0000 0000 0000 0000 0000 0000

recurrent.bias_hh_l0 f4 [512]
-0.002134838 0.0035681631 -0.0036411055 0.0011424574 0.0009608528 -0.0016872225 -0.0031156004 -0.002512619
-0.003793481 -0.0025711856 -0.0014120113 -0.003556956 -0.0029778595 -0.0027838873 0.0007383185 0.0015630063
0.0036664251 0.00026410128 -0.0023903972 -0.00046837036 -0.0005408088 0.00388815 0.0038989682 -0.0026516817
-0.003164086 0.0038636886 0.003949699 -0.0025783256 -0.002680347 -0.0035063366 0.003705884 -0.0027243318
0.00027514694 0.003933613 0.0012773199 0.00063341385 0.0022007956 -0.0012343299 -0.003513806 -0.0037573923
-0.0035373478 -8.5993145e-07 -0.0035096055 0.0025002423 0.0039495663 0.003935692 -0.0036398005 0.0035732777
0.0039794147 -0.0037859497 0.004014738 -0.0032531181 0.0039705024 2.9146666e-05 0.0030417016 -0.0027590923
-0.0037168462 0.0012205973 0.0037010314 0.0015638341 -0.0033333756 0.003533572 0.0037958724 0.0036871824
0.0019796782 0.0039004365 -0.0011403909 -0.003472156 -0.0013967834 -0.003314859 -0.0036771074 -0.00371191
-0.003782155 0.0034927495 -0.0025701665 4.6865225e-05 0.003527918 -0.0010845566 0.0029744806 -0.001659195
0.0016654022 -0.0021119793 0.0036790278 0.003792378 -0.003688651 -0.0033013278 0.003973046 -0.0033788898
0.0032989604 -0.00021265971 0.00034117213 0.0018881022 -0.0009609364 -0.0033457587 0.0039328816 0.0038045289
0.003739207 -0.0036924868 -0.0013930806 0.003961658 0.0037079765 0.0003798977 -0.0028535507 0.0012028452
-0.0034952578 -0.001319229 -0.0024098228 0.0020689007 -0.0032807975 0.0037962438 0.0038782393 0.0008092936
0.0037427605 0.0016920994 0.0035987687 0.0038860715 -0.0028036817 0.0016943795 0.0030658233 -0.0035195032
0.001885323 0.002045751 -0.0035526417 0.0026174728 0.0013193933 -0.0036021862 0.0028353285 0.004002827
0.0 0.0 0.0 0.0 0.0 0.0 0.0 0.0
0.0 0.0 0.0 0.0 0.0 0.0 0.0 0.0
0.0 0.0 0.0 0.0 0.0 0.0 0.0 0.0
0.0 0.0 0.0 0.0 0.0 0.0 0.0 0.0
0.0 0.0 0.0 0.0 0.0 0.0 0.0 0.0
0.0 0.0 0.0 0.0 0.0 0.0 0.0 0.0
0.0 0.0 0.0 0.0 0.0 0.0 0.0 0.0
0.0 0.0 0.0 0.0 0.0 0.0 0.0 0.0
0.0 0.0 0.0 0.0 0.0 0.0 0.0 0.0
0.0 0.0 0.0 0.0 0.0 0.0 0.0 0.0
0.0 0.0 0.0 0.0 0.0 0.0 0.0 0.0
0.0 0.0 0.0 0.0 0.0 0.0 0.0 0.0
0.0 0.0 0.0 0.0 0.0 0.0 0.0 0.0
0.0 0.0 0.0 0.0 0.0 0.0 0.0 0.0
0.0 0.0 0.0 0.0 0.0 0.0 0.0 0.0
0.0 0.0 0.0 0.0 0.0 0.0 0.0 0.0
00000000: a3e8 0bbb d8d7 693b 9d9f 6ebb 82be 953a
00000010: bde1 7b3a cb25 ddba 1a2f 4cbb c0aa 24bb
00000020: 0d9c 78bb 5681 28bb 3d13 b9ba d21b 69bb
00000030: 3128 43bb e171 36bb b78b 413a cadd cc3a
00000040: 6848 703b 1377 8a39 36a8 1cbb 9b8f f5b9
00000050: 10c5 0dba 55d0 7e3b d585 7f3b d6c7 2dbb
00000060: 8e5c 4fbb f035 7d3b 7a6c 813b 20f9 28bb
00000070: c3a8 2fbb 91ca 65bb 6bde 723b b48a 32bb
00000080: 9941 9039 8ae5 803b be6b a73a af0b 263a
00000090: 393b 103b 3dc9 a1ba e247 66bb 953e 76bb
000000a0: d9d2 67bb 0ad6 66b5 6901 66bb 1bdb 233b
000000b0: 5d6b 813b faf6 803b b889 6ebb a72d 6a3b
000000c0: c065 823b b21d 78bb 108e 833b 4432 55bb
000000d0: fd1a 823b fd7f f437 4957 473b e3d1 34bb
000000e0: 5596 73bb 73fc 9f3a 018d 723b 91f9 cc3a
000000f0: c374 5abb 8093 673b 2cc4 783b a8a4 713b
00000100: 7dbd 013b 779e 7f3b 2b79 95ba 1c8d 63bb
00000110: 4614 b7ba 1b3e 59bb a0fb 70bb 8443 73bb
00000120: 08de 77bb 9de6 643b 3d70 28bb 2791 4438
00000130: a434 673b ae27 8eba 81ef 423b 5979 d9ba
00000140: a049 da3a 2269 0abb d81b 713b 8b89 783b
00000150: 4bbd 71bb 175b 58bb 5330 823b 5d70 5dbb
00000160: 5f33 583b 68fd 5eb9 59df b239 327a f73a
00000170: 5ae7 7bba 8444 5bbb 67df 803b 6755 793b
00000180: 7c0d 753b a6fd 71bb 0798 b6ba ccd0 813b
00000190: 8601 733b 022d c739 a302 3bbb caa8 9d3a
000001a0: b210 65bb fbe9 acba 1eee 1dbb 6596 073b
000001b0: a602 57bb 67ca 783b 0f2a 7e3b c626 543a
000001c0: 1a49 753b 6fc9 dd3a 52d9 6b3b 76ad 7e3b
000001d0: f9bd 37bb f115 de3a fbeb 483b 77a7 66bb
000001e0: f11c f73a 0212 063b 70d3 68bb e889 2b3b
000001f0: 7eef ac3a a812 6cbb ebd0 393b 262a 833b
00000200: 0000 0000 0000 0000 0000 0000 0000 0000
00000210: 0000 0000 0000 0000 0000 0000 0000 0000
00000220: 0000 0000 0000 0000 0000 0000 0000 0000
00000230: 0000 0000 0000 0000 0000 0000 0000 0000
00000240: 0000 0000 0000 0000 0000 0000 0000 0000
00000250: 0000 0000 0000 0000 0000 0000 0000 0000
00000260: 0000 0000 0000 0000 0000 0000 0000 0000
00000270: 0000 0000 0000 0000 0000 0000 0000 0000
00000280: 0000 0000 0000 0000 0000 0000 0000 0000
00000290: 0000 0000 0000 0000 0000 0000 0000 0000
000002a0: 0000 0000 0000 0000 0000 0000 0000 0000
000002b0: 0000 0000 0000 0000 0000 0000 0000 0000
000002c0: 0000 0000 0000 0000 0000 0000 0000 0000
000002d0: 0000 0000 0000 0000 0000 0000 0000 0000
000002e0: 0000 0000 0000 0000 0000 0000 0000 0000
000002f0: 0000 0000 0000 0000 0000 0000 0000 0000
00000300: 0000 0000 0000 0000 0000 0000 0000 0000
00000310: 0000 0000 0000 0000 0000 0000 0000 0000
00000320: 0000 0000 0000 0000 0000 0000 0000 0000
00000330: 0000 0000 0000 0000 0000 0000 0000 0000
00000340: 0000 0000 0000 0000 0000 0000 0000 0000
00000350: 0000 0000 0000 0000 0000 0000 0000 0000
00000360: 0000 0000 0000 0000 0000 0000 0000 0000
00000370: 0000 0000 0000 0000 0000 0000 0000 0000
00000380: 0000 0000 0000 0000 0000 0000 0000 0000
00000390: 0000 0000 0000 0000 0000 0000 0000 0000
000003a0: 0000 0000 0000 0000 0000 0000 0000 0000
000003b0: 0000 0000 0000 0000 0000 0000 0000 0000
000003c0: 0000 0000 0000 0000 0000 0000 0000 0000
000003d0: 0000 0000 0000 0000 0000 0000 0000 0000
000003e0: 0000 0000 0000 0000 0000 0000 0000 0000
000003f0: 0000 0000 0000 0000 0000 0000 0000 0000

recurrent.weight_ih_l1 f4 [512, 128]
-0.08240258 0.004185797 0.08730861 0.037332706 0.051208526 -0.09018401 0.0451631 0.064935535
0.08708354 0.07318774 -0.016977264 0.06488273 0.08419253 0.058482375 -0.04349289 0.046910968
-0.06208624 0.07850561 0.08024435 -0.052439716 0.09278621 0.012050062 0.024200303 0.00019087027
-0.019135267 -0.0706454 0.05649984 0.070280306 0.0026079544 0.040488552 0.04234368 -0.019843675
0.084353864 -0.0445304 0.020652909 0.04200111 0.061335392 -0.017280173 0.03738237 0.01879501
-0.035855286 -0.061748836 0.08390348 -0.0038959826 -0.055270314 0.033625588 -0.013411952 -0.023191681
-0.056745313 -0.019027498 0.07377706 -0.048064634 0.078751326 -0.086303964 -0.040611017 -0.075504355
-0.0374114 -0.081282385 -0.022056384 0.00559853 -0.011313789 0.0073418026 0.0672518 -0.042049643
-0.011919483 -0.079436265 0.02255288 0.053687956 -0.0012886416 -0.08093843 -0.071967915 -0.0034509038
-0.06811945 -0.043967593 0.033545367 0.022250794 -0.018394817 -0.012145235 0.055242047 0.04419575
0.07100095 0.08389096 0.022310715 -0.070129685 -0.066637434 0.032286473 -0.0058666547 -0.06762553
0.023566963 -0.0071373754 -0.09164061 -0.054040305 0.049695738 0.07264224 -0.02766607 -0.07979361
0.014123738 -0.0515537 -0.07202581 0.06239843 0.056288686 -0.018144056 0.021791259 0.011171855
0.01995666 -0.08301429 0.020270452 -0.075606495 0.053977724 0.041776627 0.028060293 -0.011101381
-0.08957425 -0.05533214 0.08742606 -0.07390026 -0.052974243 -0.019211834 0.015445651 -0.043765433
0.023735091 0.07275974 0.04959499 -0.08244337 0.063348375 0.03202685 0.01754484 0.047470286
-0.008470527 0.070642956 0.07619868 0.084576696 0.091677696 -0.0032968547 0.038171988 -0.047803544
0.09262796 -0.0040897685 -0.056398235 0.008207173 0.05757538 0.09096296 -0.06869846 0.015615557
-0.02715743 -0.0910034 0.09204322 0.078755885 -0.052547503 0.031300984 -0.015063341 -0.008839474
-0.04159426 0.0327913 0.032059398 -0.0059649115 -0.07630348 0.061462365 0.041517623 0.082838625
0.09040568 -0.06188999 0.00028078078 -0.011611985 0.03057203 0.02948233 0.0019988823 -0.037087385
-0.022094317 0.052109525 -0.06433467 0.014865184 -0.010021352 -0.059285555 -0.03774015 0.07279837
0.080623485 0.021119267 0.033758666 0.005764471 0.06622212 0.08757388 -0.016569909 -0.032420434
0.059310317 -0.06418438 0.079979524 0.076217584 0.086166136 0.01876355 -0.082570516 0.021795182
0.073821984 0.010901021 0.08541991 -0.08618915 -0.087497346 0.0690717 0.051238995 -0.015656745
-0.00050091697 0.066213645 0.07699521 0.034153692 -0.0002554059 -0.027821904 0.014115299 0.09026515
-0.056034002 -0.02016975 0.039166957 -0.08411069 0.041993663 0.08015086 -0.0038456828 -0.002473335
0.022310829 -0.059314314 0.04039308 0.056951124 0.0663266 0.016400531 -0.038962092 -0.042539123
0.09166183 0.022117265 0.029388804 -0.014316636 0.05733327 0.043046672 0.015580825 0.07666883
0.06992657 -0.017931245 0.090898365 0.0859799 0.08640552 0.07447377 -0.09211501 -0.04616875
0.07063288 -0.048248816 0.042555 -0.055709668 0.07393191 0.08421105 0.0017984908 -0.016750267
-0.080654494 -0.076755576 0.045760375 -0.014014918 0.030406745 -0.035397716 0.07448408 0.08611339
00000000: afc2 a8bd 0329 893b dbce b23d 2eea 183d
00000010: 08c0 513d 65b2 b8bd f1fc 383d ecfc 843d
00000020: db58 b23d 74e3 953d e713 8bbc 3de1 843d
00000030: 226d ac3d 378b 6f3d 9a25 32bd b725 403d
00000040: 244e 7ebd 8dc7 a03d 2657 a43d 07cb 56bd
00000050: b206 be3d a06d 453c b73f c63c 5924 4839
00000060: 90c1 9cbc 89ae 90bd 606c 673d 1fef 8f3d
00000070: 37ea 2a3b 53d7 253d 9170 2d3d 348f a2bc
00000080: b8c1 ac3d 8265 36bd 4a30 a93c 5b09 2c3d
00000090: d23a 7b3d 268f 8dbc 421e 193d fef7 993c
000000a0: fedc 12bd 59ec 7cbd 96d5 ab3d be53 7fbb
000000b0: 2063 62bd fcba 093d cebd 5bbc 7bfc bdbc
000000c0: c66d 68bd 8edf 9bbc 6d18 973d 6cdf 44bd
000000d0: 6048 a13d 22c0 b0bd bd57 26bd 07a2 9abd
000000e0: b23c 19bd 6177 a6bd 97af b4bc e073 b73b
000000f0: 785d 39bc 8193 f03b 50bb 893d 3f3c 2cbd
00000100: ef49 43bc 7baf a2bd d1c0 b83c e7e7 5b3d
00000110: a3e7 a8ba 0cc3 a5bd ea63 93bd 8f28 62bb
00000120: 3682 8bbd 5d17 34bd de66 093d 4c47 b63c
00000130: bab0 96bc cffc 46bc 7c45 623d 9a06 353d
00000140: f268 913d 06cf ab3d f6c4 b63c 27a0 8fbd
00000150: 3579 88bd d23e 043d 113d c0bb 417f 8abd
00000160: 810f c13c a5e0 e9bb 12ae bbbd 5e59 5dbd
00000170: c28d 4b3d 74c5 943d f4a3 e2bc d56a a3bd
00000180: 4067 673c f929 53bd 4582 93bd 7f95 7f3d
00000190: f78e 663d d8a2 94bc 9583 b23c 280a 373c
000001a0: 267c a33c 6503 aabd 380e a63c 94d7 9abd
000001b0: bf17 5d3d f81d 2b3d b3de e53c 91e2 35bc
000001c0: b472 b7bd f4a3 62bd 6f0c b33d 0559 97bd
000001d0: 85fb 58bd 2362 9dbc c10f 7d3c 6243 33bd
000001e0: 1870 c23c 0f03 953d 1e24 4b3d 12d8 a8bd
000001f0: cbbc 813d 962e 033d 32ba 8f3c 3470 423d
00000200: f7c7 0abc 41ad 903d 0e0e 9c3d 8c36 ad3d
00000210: 84c1 bb3d 0b10 58bb 3b5a 1c3d a6cd 43bd
00000220: bab3 bd3d 7703 86bb d601 67bd 6177 063c
00000230: 29d4 6b3d ca4a ba3d c7b1 8cbd 65d8 7f3c
00000240: 4279 debc fe5f babd 2881 bc3d c44a a13d
00000250: 0d3c 57bd 7635 003d 3bcc 76bc 71d3 10bc
00000260: be5e 2abd 2c50 063d b750 033d 4e75 c3bb
00000270: 0045 9cbd f6bf 7b3d 620e 2a3d 4ca7 a93d
00000280: 9d26 b93d 5c80 7dbd c235 9339 3240 3ebc
00000290: 3272 fa3c ed84 f13c aeff 023b f1e8 17bd
000002a0: 24ff b4bc cc70 553d e5c1 83bd 1a8d 733c
000002b0: 9930 24bc 69d5 72bd 6a95 1abd 5017 953d
000002c0: ed1d a53d 5002 ad3c 8746 0a3d e3e3 bc3b
000002d0: 769f 873d ef59 b33d 9ebd 87bc 4acb 04bd
000002e0: 60ef 723d 1a73 83bd 4ecc a33d f717 9c3d
000002f0: df77 b03d 04b6 993c bb1a a9bd cf8b b23c
00000300: fb2f 973d 329a 323c a2f0 ae3d f083 b0bd
00000310: cf31 b3bd 7775 8d3d fbdf 513d 9342 80bc
00000320: f84f 03ba 059b 873d aaaf 9d3d bee4 0b3d
00000330: 00e8 85b9 c3ea e3bc db43 673c efdc b83d
00000340: e983 65bd 083b a5bc 886d 203d 3a42 acbd
00000350: 8c01 2c3d 2226 a43d da07 7cbb ad17 22bb
00000360: 33c5 b63c 91f3 72bd 3773 253d 9545 693d
00000370: 3ed6 873d 685a 863c b796 1fbd 813d 2ebd
00000380: 33b9 bb3d 442f b53c cac0 f03c 5390 6abc
00000390: 4ad6 6a3d b551 303d b746 7f3c 8c04 9d3d
000003a0: a935 8f3d 8ce4 92bc ec28 ba3d 3b16 b03d
000003b0: 61f5 b03d b485 983d cba6 bcbd 711b 3dbd
000003c0: f9a7 903d 8da0 45bd 274e 2e3d d22f 64bd
000003d0: 9d69 973d d876 ac3d 56bb eb3a db37 89bc
000003e0: 2f2e a5bd 0732 9dbd 3b6f 3b3d d49e 65bc
000003f0: 9117 f93c 32fd 10bd 1c8b 983d 385c b03d

recurrent.weight_hh_l1 f4 [512, 128]
0.07116394 8.1251645e-05 -0.05868681 -0.08336841 -0.023450496 -0.06532789 -0.004065173 -0.089827076
-0.054747533 0.049563766 0.08356548 0.023284415 0.019546242 0.023079108 0.08204419 -0.017602472
-0.07749796 0.00950858 -0.038284138 0.07577138 0.058675934 -0.060042143 -0.078473836 -0.011851531
0.050879464 0.022512488 0.08795118 -0.011376533 -0.00031026424 0.015550503 0.052454364 0.02434081
-0.044705726 4.0715104e-06 -0.040992334 -0.025991827 0.091013946 0.03266919 0.059303295 -0.07301523
0.092464775 0.017128922 0.032062978 -0.085133955 -0.061904795 -0.04885579 0.058204968 0.033384074
-0.06340506 0.002269406 0.091181144 0.026734212 0.03094805 0.036194462 0.07825886 0.05158493
-0.017540278 -0.01447273 0.023587449 -0.041991416 0.06851513 -0.022705441 -0.062409353 0.0008373613
0.08339583 0.011714016 0.069740444 0.0006977583 0.085917585 0.047786012 0.00026757014 -0.05458224
0.07206015 0.08138393 -0.08650786 0.020446448 -0.041376125 -0.06430141 0.035347722 0.054118432
-0.08948419 0.05432673 0.03032738 0.05930791 -0.03591439 0.031672694 0.014497315 -0.04723653
0.0601824 -0.07559631 -0.043834943 -0.06423128 -0.012334945 -0.06693229 -0.0038286247 -0.04680076
0.08915842 0.07091367 -0.03682859 0.004422289 -0.089434996 -0.03216844 0.022168038 -0.016946778
-0.009514361 0.043877985 0.02982733 -0.0860301 -0.07800082 -0.05089362 -0.059718 -0.045239087
0.039522283 0.048315536 -0.03788178 -0.087703995 0.056892637 -0.06968022 0.05353846 0.090435125
-0.031932056 0.0022171622 0.011955378 -0.025484243 0.0149237625 0.008998592 -0.046440113 0.061264474
-0.05870751 0.09060935 -0.06759635 -0.014035289 0.00034343713 -0.0009051797 0.06370506 0.00026460423
0.011794154 -0.09147803 0.041701406 -0.009255066 -0.048669543 -0.07358525 0.07268514 -0.08921845
0.05092108 0.08407072 -0.016960744 0.08702013 -0.018121367 -0.013884456 -0.037672587 -0.044977568
0.08766852 -0.030786812 0.054367874 0.059814356 -0.00012996857 0.001685375 -0.0017163231 -0.017261222
-0.010515108 0.023282269 0.022620143 0.028524153 -0.0468984 0.026638102 -0.043192536 0.044184927
0.0035515898 -0.051216647 0.0006535063 -0.078814894 0.052438032 -0.05736021 -0.02656021 -0.031096444
-0.081277594 0.08961764 0.009817433 -0.0070987754 0.032239653 0.08454889 0.091980085 -0.04227793
0.048959088 0.08808129 -0.09282233 0.02875921 0.053828496 0.08996302 -0.01899495 0.049297277
-0.05880092 0.027655704 0.05315782 -0.05426685 -0.047782157 0.037993416 -0.052267842 -0.047049187
0.072330385 0.01379903 0.02010373 -0.057577457 0.0806576 -0.021312509 -0.0036239526 -0.06970077
0.046011854 0.08672617 0.044558235 -0.029889511 0.058646716 -0.02837525 0.034271296 0.065993786
-0.08244883 0.023405964 0.03684593 0.030335996 0.07324622 0.057622544 -0.08379376 -0.019557055
0.00800455 -0.020506512 0.02543933 -0.08146229 -0.00069714914 0.04791926 0.04811794 -0.05790283
0.0061526317 -0.073073715 0.03888552 0.029747393 0.07321761 0.072865754 -0.060176596 0.051429942
0.0039015422 0.06599879 0.042412784 0.02691688 0.074503146 0.03878677 -0.00026402785 0.02186579
0.012084823 0.050343793 0.07077746 -0.0870847 0.065370865 0.077906 -0.055831447 0.014123673
00000000: 66be 913d a565 aa38 9561 70bd 0fbd aabd
00000010: 411b c0bc a1ca 85bd 2535 85bb 42f7 b7bd
00000020: f33e 60bd 6003 4b3d 6124 ab3d f5be be3c
00000030: 711f a03c 6610 bd3c c906 a83d 0f33 90bc
00000040: 40b7 9ebd e0c9 1b3c d4cf 1cbd 062e 9b3d
00000050: 2d56 703d c0ee 75bd e4b6 a0bd ed2c 42bc
00000060: fc66 503d 1c6c b83c c01f b43d a364 3abc
00000070: f6aa a2b9 89c7 7e3c 63da 563d 6166 c73c
00000080: 5a1d 37bd 029e 8836 94e7 27bd d0ec d4bc
00000090: 8565 ba3d 21d0 053d 03e8 723d 0289 95bd
000000a0: 2c5e bd3d f451 8c3c 7854 033d b65a aebd
000000b0: e28f 7dbd 021d 48bd 5568 6e3d bdbd 083d
000000c0: 83da 81bd 51ba 143b 2ebd ba3d b501 db3c
000000d0: c486 fd3c a540 143d 2e46 a03d b84a 533d
000000e0: a1b0 8fbc 081f 6dbc 773a c13c 31ff 2bbd
000000f0: a951 8c3d c300 babc f3a0 7fbd 5e82 5b3a
00000100: 6fcb aa3d 25ec 3f3c 14d4 8e3d c4e9 363a
00000110: 8ff5 af3d 44bb 433d a848 8c39 a091 5fbd
00000120: 4694 933d 9eac a63d 082b b1bd 4f7f a73c
00000130: 037a 29bd 75b0 83bd c6c8 103d 4aab 5d3d
00000140: 7d43 b7bd b585 5e3d 2071 f83c daec 723d
00000150: f81a 13bd 3abb 013d 2586 6d3c 177b 41bd
00000160: d281 763d 3dd2 9abd 458c 33bd b08b 83bd
00000170: 8218 4abc cc13 89bd aae9 7abb 27b2 3fbd
00000180: b198 b63d 303b 913d 93d9 16bd d9e8 903b
00000190: b229 b7bd 0ec3 03bd bf99 b53c f8d3 8abc
000001a0: 1fe2 1bbc 67b9 333d 7258 f43c 8d30 b0bd
000001b0: e5be 9fbd d475 50bd dd9a 74bd 9f4c 39bd
000001c0: 1ee2 213d 83e6 453d ed29 1bbd 279e b3bd
000001d0: 4108 693d 81b4 8ebd 254b 5b3d 0d36 b93d
000001e0: 30cb 02bd cf4d 113b 7de0 433c 55c4 d0bc
000001f0: cc82 743c d56e 133c fd37 3ebd 75f0 7a3d
00000200: 4977 70bd 6591 b93d f56f 8abd 45f4 65bc
00000210: 5a0f b439 9549 6dba cc77 823d 94ba 8a39
00000220: 443c 413c d558 bbbd 18cf 2a3d 8fa2 17bc
00000230: b759 47bd ddb3 96bd f2db 943d 2ab8 b6bd
00000240: 9f92 503d 452d ac3d 42f1 8abc 9c37 b23d
00000250: 4373 94bc a17b 63bc 924e 1abd 663a 38bd
00000260: 8e8b b33d a034 fcbc d9b0 5e3d e6ff 743d
00000270: 2c48 08b9 cde7 dc3a 3ff6 e0ba 6867 8dbc
00000280: 8f47 2cbc 75ba be3c e14d b93c 7cab e93c
00000290: 8918 40bd 2638 da3c a8ea 30bd 41fb 343d
000002a0: cac1 683b 8cc8 51bd 1150 2b3a b469 a1bd
000002b0: 43c9 563d 8af2 6abd cc94 d9bc f8bd febc
000002c0: de74 a6bd 7489 b73d 4cd9 203c d89c e8bb
000002d0: ba0d 043d f827 ad3d 0e60 bc3d 9f2b 2dbd
000002e0: 5389 483d f763 b43d a219 bebd 6f98 eb3c
000002f0: 457b 5c3d 883e b83d 4c9b 9bbc f1eb 493d
00000300: 3cd9 70bd 378e e23c 04bc 593d eb46 5ebd
00000310: 39b7 43bd fc9e 1b3d ce16 56bd a6b6 40bd
00000320: f421 943d 5415 623c 94b0 a43c 57d6 6bbd
00000330: d02f a53d 9297 aebc d67f 6dbb 47bf 8ebd
00000340: ed76 3c3d 7d9d b13d b282 363d d9da f4bc
00000350: 8a37 703d 3673 e8bc 0f60 0c3d c027 873d
00000360: efda a8bd ddbd bf3c c2eb 163d 3283 f83c
00000370: 1d02 963d 9e05 6c3d 109c abbd 1e36 a0bc
00000380: 8425 033c 46fd a7bc 2466 d03c b3d5 a6bd
00000390: e3c0 36ba fc46 443d 5117 453d 852b 6dbd
000003a0: 049c c93b aca7 95bd 6c46 1f3d ceb0 f33c
000003b0: 1df3 953d a43a 953d bc7b 76bd 34a8 523d
000003c0: 04b1 7f3b 602a 873d 07b9 2d3d ca80 dc3c
000003d0: 1b95 983d e0de 1e3d 386d 8ab9 e31f b33c
000003e0: 6cff 453c 4b35 4e3d c6f3 903d 7759 b2bd
000003f0: 29e1 853d 2e8d 9f3d 84af 64bd fa66 673c

recurrent.bias_ih_l1 f4 [512]
0.0024859463 0.0013851376 -0.0011601473 0.0039859544 0.0025353548 0.00040851475 -0.0036697113 -0.0032447593
-0.00019541086 -0.0017999925 -0.0023722998 0.0038259386 0.0020563398 0.0017294019 0.0036945138 0.0039411266
-0.0030111219 -0.003094668 -0.0035663403 0.003138468 -0.0038462325 0.0037549285 -0.0036052675 0.0038617465
0.0038770263 0.0016400598 -0.002075066 -0.003492189 0.0032473293 0.003905216 -0.0036711486 0.003692617
0.00371016 -0.0036009804 0.0029473226 -0.002304586 -0.0032901054 -0.0021150922 0.0015857826 0.0017642659
-0.0032741944 -0.0026461666 0.0035751516 0.0027139266 -0.0039041822 -0.0013196984 0.0024718263 0.0006558645
-0.0034302298 0.0024938935 -0.00015583471 0.0026251483 -0.0023372762 -0.0005315186 0.0009822354 0.0039532795
-0.002948213 0.0039928025 0.00384131 0.003929593 0.0033777382 0.00071172963 -0.0031531744 0.003972417
0.0020804827 -0.0037026154 -0.00023634723 0.0027308378 0.003889773 0.0035105883 -0.0018814045 -0.0012062431
-0.0007648177 -0.0028618064 0.003951185 0.0037593762 0.003727594 -0.0027076441 0.003895203 -0.0021180178
0.0038030127 0.0019610443 -0.0030422301 -0.0029920079 -0.0038472195 -0.0030218104 -0.0018934764 -0.0037747498
-0.0037057374 0.0016586394 0.0016371483 0.003948354 0.0032911238 0.0037201897 -0.00010128422 0.0037212942
-0.0026117156 0.0019208028 -1.7678428e-06 -0.0031857244 -0.0021139353 0.0026699195 -0.0016063093 -0.0022590323
0.0005163459 -0.0025409914 -0.002977917 0.002930589 0.003948775 -0.0010801936 0.00047037334 -0.003532442
-0.0031716926 0.0020362537 0.0038228526 0.001123524 -0.00031602805 0.0038822754 0.0038508035 0.003949473
0.0024168168 0.0039159223 0.001419242 -0.0026262552 0.003059643 -0.0016545302 -0.000119931465 0.0036173477
0.0 0.0 0.0 0.0 0.0 0.0 0.0 0.0
0.0 0.0 0.0 0.0 0.0 0.0 0.0 0.0
0.0 0.0 0.0 0.0 0.0 0.0 0.0 0.0
0.0 0.0 0.0 0.0 0.0 0.0 0.0 0.0
0.0 0.0 0.0 0.0 0.0 0.0 0.0 0.0
0.0 0.0 0.0 0.0 0.0 0.0 0.0 0.0
0.0 0.0 0.0 0.0 0.0 0.0 0.0 0.0
0.0 0.0 0.0 0.0 0.0 0.0 0.0 0.0
0.0 0.0 0.0 0.0 0.0 0.0 0.0 0.0
0.0 0.0 0.0 0.0 0.0 0.0 0.0 0.0
0.0 0.0 0.0 0.0 0.0 0.0 0.0 0.0
0.0 0.0 0.0 0.0 0.0 0.0 0.0 0.0
0.0 0.0 0.0 0.0 0.0 0.0 0.0 0.0
0.0 0.0 0.0 0.0 0.0 0.0 0.0 0.0
0.0 0.0 0.0 0.0 0.0 0.0 0.0 0.0
0.0 0.0 0.0 0.0 0.0 0.0 0.0 0.0
00000000: 42eb 223b 818d b53a 1510 98ba 9c9c 823b
00000010: 3228 263b ec2d d639 8a7f 70bb 07a6 54bb
00000020: 34e7 4cb9 baed ebba 9678 1bbb 99bc 7a3b
00000030: a8c3 063b 19ad e23a a81f 723b 9124 813b
00000040: 3e56 45bb eacf 4abb 43b9 69bb c1ae 4d3b
00000050: 1311 7cbb 3f15 763b 5a46 6cbb 5b15 7d3b
00000060: b515 7e3b 46f7 d63a d5fd 07bb 36dd 64bb
00000070: 25d1 543b a7ee 7f3b a797 70bb d5ff 713b
00000080: 2826 733b 6dfe 6bbb de27 413b 8a08 17bb
00000090: cf9e 57bb 5c9d 0abb 09da cf3a f13e e73a
000000a0: de93 56bb 4f6b 2dbb 174d 6a3b 22dc 313b
000000b0: 4fdd 7fbb bbf9 acba 5dfe 213b 52ee 2b3a
000000c0: b5cd 60bb 9770 233b 9067 23b9 ae0a 2c3b
000000d0: fd2c 19bb 9c55 0bba 5abe 803a 838a 813b
000000e0: ce36 41bb 0ed6 823b 7dbe 7b3b d1c3 803b
000000f0: 0b5d 5d3b 5e93 3a3a 7da5 4ebb 0d2b 823b
00000100: b558 083b 94a7 72bb fad3 77b9 dbf7 323b
00000110: 90eb 7e3b e611 663b 7699 f6ba cd1a 9eba
00000120: 0c7e 48ba 258d 3bbb f178 813b de5f 763b
00000130: a64a 743b bb72 31bb a946 7f3b 71ce 0abb
00000140: f73b 793b dd84 003b 2760 47bb 9015 44bb
00000150: a221 7cbb 9109 46bb 862e f8ba cb61 77bb
00000160: f5db 72bb b466 d93a 9595 d63a 3261 813b
00000170: e5af 573b 6dce 733b 8d68 d4b8 f5e0 733b
00000180: 5129 2bbb 72c3 fb3a 9e46 edb5 96c7 50bb
00000190: f389 0abb d1f9 2e3b cc8a d2ba 460c 14bb
000001a0: 635b 073a c386 26bb 2829 43bb 200f 403b
000001b0: ba64 813b 4895 8dba 719c f639 8b80 67bb
000001c0: 2cdc 4fbb ab72 053b d388 7a3b 3643 933a
000001d0: 91b0 a5b9 c66d 7e3b c35d 7c3b 956a 813b
000001e0: 7563 1e3b 2351 803b dc05 ba3a 401d 2cbb
000001f0: 4b84 483b d2dc d8ba b783 fbb8 0611 6d3b
00000200: 0000 0000 0000 0000 0000 0000 0000 0000
00000210: 0000 0000 0000 0000 0000 0000 0000 0000
00000220: 0000 0000 0000 0000 0000 0000 0000 0000
00000230: 0000 0000 0000 0000 0000 0000 0000 0000
00000240: 0000 0000 0000 0000 0000 0000 0000 0000
00000250: 0000 0000 0000 0000 0000 0000 0000 0000
00000260: 0000 0000 0000 0000 0000 0000 0000 0000
00000270: 0000 0000 0000 0000 0000 0000 0000 0000
00000280: 0000 0000 0000 0000 0000 0000 0000 0000
00000290: 0000 0000 0000 0000 0000 0000 0000 0000
000002a0: 0000 0000 0000 0000 0000 0000 0000 0000
000002b0: 0000 0000 0000 0000 0000 0000 0000 0000
000002c0: 0000 0000 0000 0000 0000 0000 0000 0000
000002d0: 0000 0000 0000 0000 0000 0000 0000 0000
000002e0: 0000 0000 0000 0000 0000 0000 0000 0000
000002f0: 0000 0000 0000 0000 0000 0000 0000 0000
00000300: 0000 0000 0000 0000 0000 0000 0000 0000
00000310: 0000 0000 0000 0000 0000 0000 0000 0000
00000320: 0000 0000 0000 0000 0000 0000 0000 0000
00000330: 0000 0000 0000 0000 0000 0000 0000 0000
00000340: 0000 0000 0000 0000 0000 0000 0000 0000
00000350: 0000 0000 0000 0000 0000 0000 0000 0000
00000360: 0000 0000 0000 0000 0000 0000 0000 0000
00000370: 0000 0000 0000 0000 0000 0000 0000 0000
00000380: 0000 0000 0000 0000 0000 0000 0000 0000
00000390: 0000 0000 0000 0000 0000 0000 0000 0000
000003a0: 0000 0000 0000 0000 0000 0000 0000 0000
000003b0: 0000 0000 0000 0000 0000 0000 0000 0000
000003c0: 0000 0000 0000 0000 0000 0000 0000 0000
000003d0: 0000 0000 0000 0000 0000 0000 0000 0000
000003e0: 0000 0000 0000 0000 0000 0000 0000 0000
000003f0: 0000 0000 0000 0000 0000 0000 0000 0000

recurrent.bias_hh_l1 f4 [512]
0.0024859463 0.0013851376 -0.0011601473 0.0039859544 0.0025353548 0.00040851475 -0.0036697113 -0.0032447593
-0.00019541086 -0.0017999925 -0.0023722998 0.0038259386 0.0020563398 0.0017294019 0.0036945138 0.0039411266
-0.0030111219 -0.003094668 -0.0035663403 0.003138468 -0.0038462325 0.0037549285 -0.0036052675 0.0038617465
0.0038770263 0.0016400598 -0.002075066 -0.003492189 0.0032473293 0.003905216 -0.0036711486 0.003692617
0.00371016 -0.0036009804 0.0029473226 -0.002304586 -0.0032901054 -0.0021150922 0.0015857826 0.0017642659
-0.0032741944 -0.0026461666 0.0035751516 0.0027139266 -0.0039041822 -0.0013196984 0.0024718263 0.0006558645
-0.0034302298 0.0024938935 -0.00015583471 0.0026251483 -0.0023372762 -0.0005315186 0.0009822354 0.0039532795
-0.002948213 0.0039928025 0.00384131 0.003929593 0.0033777382 0.00071172963 -0.0031531744 0.003972417
0.0020804827 -0.0037026154 -0.00023634723 0.0027308378 0.003889773 0.0035105883 -0.0018814045 -0.0012062431
-0.0007648177 -0.0028618064 0.003951185 0.0037593762 0.003727594 -0.0027076441 0.003895203 -0.0021180178
0.0038030127 0.0019610443 -0.0030422301 -0.0029920079 -0.0038472195 -0.0030218104 -0.0018934764 -0.0037747498
-0.0037057374 0.0016586394 0.0016371483 0.003948354 0.0032911238 0.0037201897 -0.00010128422 0.0037212942
-0.0026117156 0.0019208028 -1.7678428e-06 -0.0031857244 -0.0021139353 0.0026699195 -0.0016063093 -0.0022590323
0.0005163459 -0.0025409914 -0.002977917 0.002930589 0.003948775 -0.0010801936 0.00047037334 -0.003532442
-0.0031716926 0.0020362537 0.0038228526 0.001123524 -0.00031602805 0.0038822754 0.0038508035 0.003949473
0.0024168168 0.0039159223 0.001419242 -0.0026262552 0.003059643 -0.0016545302 -0.000119931465 0.0036173477
0.0 0.0 0.0 0.0 0.0 0.0 0.0 0.0
0.0 0.0 0.0 0.0 0.0 0.0 0.0 0.0
0.0 0.0 0.0 0.0 0.0 0.0 0.0 0.0
0.0 0.0 0.0 0.0 0.0 0.0 0.0 0.0
0.0 0.0 0.0 0.0 0.0 0.0 0.0 0.0
0.0 0.0 0.0 0.0 0.0 0.0 0.0 0.0
0.0 0.0 0.0 0.0 0.0 0.0 0.0 0.0
0.0 0.0 0.0 0.0 0.0 0.0 0.0 0.0
0.0 0.0 0.0 0.0 0.0 0.0 0.0 0.0
0.0 0.0 0.0 0.0 0.0 0.0 0.0 0.0
0.0 0.0 0.0 0.0 0.0 0.0 0.0 0.0
0.0 0.0 0.0 0.0 0.0 0.0 0.0 0.0
0.0 0.0 0.0 0.0 0.0 0.0 0.0 0.0
0.0 0.0 0.0 0.0 0.0 0.0 0.0 0.0
0.0 0.0 0.0 0.0 0.0 0.0 0.0 0.0
0.0 0.0 0.0 0.0 0.0 0.0 0.0 0.0
00000000: 42eb 223b 818d b53a 1510 98ba 9c9c 823b
00000010: 3228 263b ec2d d639 8a7f 70bb 07a6 54bb
00000020: 34e7 4cb9 baed ebba 9678 1bbb 99bc 7a3b
00000030: a8c3 063b 19ad e23a a81f 723b 9124 813b
00000040: 3e56 45bb eacf 4abb 43b9 69bb c1ae 4d3b
00000050: 1311 7cbb 3f15 763b 5a46 6cbb 5b15 7d3b
00000060: b515 7e3b 46f7 d63a d5fd 07bb 36dd 64bb
00000070: 25d1 543b a7ee 7f3b a797 70bb d5ff 713b
00000080: 2826 733b 6dfe 6bbb de27 413b 8a08 17bb
00000090: cf9e 57bb 5c9d 0abb 09da cf3a f13e e73a
000000a0: de93 56bb 4f6b 2dbb 174d 6a3b 22dc 313b
000000b0: 4fdd 7fbb bbf9 acba 5dfe 213b 52ee 2b3a
000000c0: b5cd 60bb 9770 233b 9067 23b9 ae0a 2c3b
000000d0: fd2c 19bb 9c55 0bba 5abe 803a 838a 813b
000000e0: ce36 41bb 0ed6 823b 7dbe 7b3b d1c3 803b
000000f0: 0b5d 5d3b 5e93 3a3a 7da5 4ebb 0d2b 823b
00000100: b558 083b 94a7 72bb fad3 77b9 dbf7 323b
00000110: 90eb 7e3b e611 663b 7699 f6ba cd1a 9eba
00000120: 0c7e 48ba 258d 3bbb f178 813b de5f 763b
00000130: a64a 743b bb72 31bb a946 7f3b 71ce 0abb
00000140: f73b 793b dd84 003b 2760 47bb 9015 44bb
00000150: a221 7cbb 9109 46bb 862e f8ba cb61 77bb
00000160: f5db 72bb b466 d93a 9595 d63a 3261 813b
00000170: e5af 573b 6dce 733b 8d68 d4b8 f5e0 733b
00000180: 5129 2bbb 72c3 fb3a 9e46 edb5 96c7 50bb
00000190: f389 0abb d1f9 2e3b cc8a d2ba 460c 14bb
000001a0: 635b 073a c386 26bb 2829 43bb 200f 403b
000001b0: ba64 813b 4895 8dba 719c f639 8b80 67bb
000001c0: 2cdc 4fbb ab72 053b d388 7a3b 3643 933a
000001d0: 91b0 a5b9 c66d 7e3b c35d 7c3b 956a 813b
000001e0: 7563 1e3b 2351 803b dc05 ba3a 401d 2cbb
000001f0: 4b84 483b d2dc d8ba b783 fbb8 0611 6d3b
00000200: 0000 0000 0000 0000 0000 0000 0000 0000
00000210: 0000 0000 0000 0000 0000 0000 0000 0000
00000220: 0000 0000 0000 0000 0000 0000 0000 0000
00000230: 0000 0000 0000 0000 0000 0000 0000 0000
00000240: 0000 0000 0000 0000 0000 0000 0000 0000
00000250: 0000 0000 0000 0000 0000 0000 0000 0000
00000260: 0000 0000 0000 0000 0000 0000 0000 0000
00000270: 0000 0000 0000 0000 0000 0000 0000 0000
00000280: 0000 0000 0000 0000 0000 0000 0000 0000
00000290: 0000 0000 0000 0000 0000 0000 0000 0000
000002a0: 0000 0000 0000 0000 0000 0000 0000 0000
000002b0: 0000 0000 0000 0000 0000 0000 0000 0000
000002c0: 0000 0000 0000 0000 0000 0000 0000 0000
000002d0: 0000 0000 0000 0000 0000 0000 0000 0000
000002e0: 0000 0000 0000 0000 0000 0000 0000 0000
000002f0: 0000 0000 0000 0000 0000 0000 0000 0000
00000300: 0000 0000 0000 0000 0000 0000 0000 0000
00000310: 0000 0000 0000 0000 0000 0000 0000 0000
00000320: 0000 0000 0000 0000 0000 0000 0000 0000
00000330: 0000 0000 0000 0000 0000 0000 0000 0000
00000340: 0000 0000 0000 0000 0000 0000 0000 0000
00000350: 0000 0000 0000 0000 0000 0000 0000 0000
00000360: 0000 0000 0000 0000 0000 0000 0000 0000
00000370: 0000 0000 0000 0000 0000 0000 0000 0000
00000380: 0000 0000 0000 0000 0000 0000 0000 0000
00000390: 0000 0000 0000 0000 0000 0000 0000 0000
000003a0: 0000 0000 0000 0000 0000 0000 0000 0000
000003b0: 0000 0000 0000 0000 0000 0000 0000 0000
000003c0: 0000 0000 0000 0000 0000 0000 0000 0000
000003d0: 0000 0000 0000 0000 0000 0000 0000 0000
000003e0: 0000 0000 0000 0000 0000 0000 0000 0000
000003f0: 0000 0000 0000 0000 0000 0000 0000 0000
