input/rnn_model.pth (torch, 815252 bytes, 10 tensors)

recurrent.weight_ih_l0 f4 [512, 7]
000000 a8 a1 e8 3c 8c 43 e3 bc 71 26 29 3d 66 ae ef 3c
       0.028397396 -0.02774217 0.041296426 0.029257964
000010 0a 9f 91 3b 9a 13 c9 bd 90 a1 3d bd d2 8f 19 3d
       0.0044440078 -0.09818192 -0.046296656 0.037490673
000020 79 29 81 3d 25 76 c5 3d fe fd cd bd 3c e9 3e 3d
       0.063067384 0.09641675 -0.10058211 0.04660915
000030 52 0d 99 bc 64 52 0b bd ad fb 72 3d 33 6a 87 bc
       -0.01868311 -0.03401412 0.059322048 -0.016530132
000040 82 ed 66 3d 0f 1c 30 3d bc 0e 7d bb 5a e0 9e bd
       0.05637885 0.04299551 -0.0038613519 -0.077576354
000050 7e 8a 91 bd 35 70 6f 3d a3 5d 88 3d 28 b0 45 3d
       -0.071064934 0.05845662 0.06658485 0.0482637
000060 a1 6a 4d 3d 7c 98 5e bd 6d a4 ae 3d f6 e8 5b bb
       0.050150517 -0.05434464 0.085274555 -0.0033555604
000070 d0 ad d1 bd e0 bd a9 3d bf 7f 43 3b c8 1c c8 3d
       -0.1023823 0.08288169 0.0029830781 0.097711146
000080 39 a9 64 bc a7 65 8d bd 77 d4 1a 3c 98 43 bc bc
       -0.013956361 -0.06904154 0.00945007 -0.02298145
000090 da 9f 80 3a bb 81 62 bc f1 0c 1f bd a3 35 60 bd
       0.0009813264 -0.0138248755 -0.0388307 -0.054738652
0000a0 0e fd 38 bd 7b bb 83 bc cc cb a6 3d 34 e2 cd 3d
       -0.045163207 -0.016080609 0.0814434 0.100529104
0000b0 ec 27 50 3d a4 b0 97 bd 8c ff 0a bd 12 3a de 3d
       0.050819322 -0.074067384 -0.033935115 0.1085092
0000c0 ab 28 51 3d af 60 60 bd 0c f3 82 3d 31 fb 39 bd
       0.051064175 -0.054779705 0.06394014 -0.04540557
0000d0 19 6a 74 bc bd d6 38 bc 50 2d 97 3d d0 0e c4 bc
       -0.014917874 -0.011281666 0.073816895 -0.023932844
0000e0 8e e3 55 3d a0 79 2b bc 91 ca 87 bd d6 cc 84 bd
       0.052218966 -0.010466009 -0.06630433 -0.06484382
0000f0 58 79 b2 bd 24 67 e2 ba 9c 36 41 bd bf f2 57 bd
       -0.08714551 -0.001727317 -0.04717122 -0.052721735
000100 0b 81 a0 bd 66 85 c7 3c ca 4d 5a 3d 7c d4 b6 bc
       -0.07837113 0.024355602 0.05329684 -0.022318117
000110 f7 30 7d 3c f7 11 5f bc 5c 00 cc 3b 3d 6c 84 bc
       0.015453569 -0.013615123 0.006225629 -0.016164893
000120 a0 d7 c3 bd 81 ff 68 bb 65 ed 39 bd cb b9 d5 3d
       -0.095626116 -0.0035552683 -0.045392413 0.10435828
000130 fb 8a 77 3d 1c 77 62 3d 19 d8 54 bd 87 12 34 bc
       0.060435276 0.055289373 -0.0519639 -0.010990745
000140 af a0 9a bd 59 4d 9b 3d fb 28 fb bc 1d 3c 00 bd
       -0.07550179 0.07583112 -0.03065919 -0.03130733
000150 48 42 65 bc 05 a4 4d bd de 16 94 bd 9b 98 18 3d
       -0.013992853 -0.05020525 -0.07230924 0.03725491
000160 5e 63 77 bc b6 63 79 bd 2f 61 12 bd 76 6a 24 b9
       -0.015099375 -0.060886107 -0.035737213 -0.00015679919
000170 35 63 bc bd b1 51 9b 3d 1a 1d 63 3d f8 0d 13 3d
       -0.0919861 0.07583941 0.055447675 0.035901994
000180 a6 5b 27 bd a2 00 87 bd 52 f8 50 bd 85 6a 15 3d
       -0.040858887 -0.065919176 -0.051018067 0.036478538
000190 c8 c1 fc bb c5 ec 4e 3d 9e f0 d8 bd 3c 72 76 bd
       -0.00771353 0.05051877 -0.10592769 -0.060167536
0001a0 e3 b8 1b bc e4 ac 0d bd 7d f4 0a 3c 20 9f 32 bd
       -0.00950453 -0.03458871 0.008481142 -0.043608785
0001b0 c7 68 83 3d 70 57 d2 3d ed 99 b2 3d 9a 5a ca 3d
       0.06416469 0.10270584 0.08720765 0.09880562
0001c0 df 8f 94 bd 4f 2b 9b 3c 1f 8e 62 bc 3c 5a 49 bd
       -0.07254004 0.01894155 -0.01382783 -0.04915832
0001d0 7a 3f 96 bd 51 df d6 3d a3 90 ad ba 41 94 d8 3c
       -0.07336326 0.10491813 -0.0013241958 0.02643788
0001e0 ce 0c c5 bd 8c 2d d2 3d de d9 fd 3c b4 25 5e 3d
       -0.09621583 0.102625936 0.030987676 0.054235175
0001f0 8e 4b da 3d 16 a8 71 3d f8 86 9f 3d f3 2c 25 bc
       0.10658942 0.05899819 0.07789415 -0.0100815175
000200 f0 69 b2 3d 7b 99 47 bd a9 c4 d4 3d ab f2 da bc
       0.08711612 -0.048730355 0.103890724 -0.026727041
000210 6f 41 5e 3c 56 45 03 bd bc 7c c1 3d 3b d0 ec bc
       0.013565405 -0.032048546 0.09447619 -0.028907886
000220 4a 66 48 3d 88 36 e6 bc ef ae 01 3c 3e 7b a9 3d
       0.048925675 -0.028102174 0.007915243 0.0827546
000230 03 5f 6b bc 1a c6 ad 3d bf 50 34 3d fb 19 87 3d
       -0.014365914 0.084850505 0.044022318 0.06596752
000240 6d c7 98 3d c4 0c 44 bd 75 bd f0 3c 86 25 65 bd
       0.074599124 -0.047863737 0.029387215 -0.05594399
000250 af b9 21 3d c8 96 09 bd c3 4a 69 bd 18 3f a2 3d
       0.039483722 -0.03359106 -0.056956064 0.079221904
000260 99 ad 92 bc 12 ba ef 3c e5 3e 9a 3c 16 95 5e bd
       -0.017905043 0.02926353 0.018828819 -0.0543414
000270 1b b7 87 3d 09 c5 28 bd e2 b6 b2 3d f3 66 52 bd
       0.066267215 -0.041203532 0.087262884 -0.05136771
000280 d0 e7 26 bd f4 a8 15 bd 5b 86 35 3d 92 ce 06 bd
       -0.040748417 -0.03653808 0.044317584 -0.032911845
000290 ed 79 cf 3d 33 93 7f 3d b2 b9 b5 bd 1a ab 56 3d
       0.10130677 0.06239624 -0.08873309 0.05240927
0002a0 43 b8 14 3d 39 d2 bd bd 9d 06 83 3d cc 91 9c bd
       0.03630854 -0.092686124 0.06397746 -0.07644996
0002b0 e2 b4 d2 bd 09 55 9d bd 4e 0e 31 3d 3c cc 6d 3d
       -0.10288407 -0.07682235 0.043226533 0.0580561
0002c0 7a 08 a9 3d b3 da a2 bd 97 a7 20 bd 0a 05 a9 3d
       0.0825357 -0.0795187 -0.039222326 0.08252914
0002d0 69 eb 7d bd 2b b4 85 3b dc 04 e5 3c 8c 7c 9f 3d
       -0.061992083 0.0040803156 0.027956419 0.07787427
0002e0 ee 47 25 bd 42 67 8b bd 6e cd c5 bd 0d 0e b0 3d
       -0.0403518 -0.06806804 -0.09658323 0.0859643
0002f0 3d cf 3a bd d7 82 50 3d e1 3b 0c 3c d0 66 05 bd
       -0.045607794 0.05090603 0.008559198 -0.032568753
000300 89 04 e5 bc 6c 0a 1e 3a 1d 39 88 bd bd 93 d6 3a
       -0.027956264 0.00060287747 -0.066515185 0.0016370934
000310 0e 1c 89 3d 7b 2d 64 3d ba 27 39 bd 1b 5c 1c bd
       0.06694804 0.055707436 -0.0452039 -0.038173776
000320 5c 5d c8 3d 8b 66 b0 3c a1 8b 96 3d d4 c9 a7 3c
       0.09783432 0.021533271 0.07350851 0.020481981
000330 95 71 07 3d b6 87 9f bd 1f d0 8d 3d 05 3e 00 3d
       0.033067305 -0.07789557 0.069244616 0.031309146
000340 c1 bc 72 bd 71 c9 6d bd 08 6a 62 bd 11 a5 89 bc
       -0.05926204 -0.058053438 -0.0552769 -0.016802343
000350 ba c3 cc bd 52 89 2a ba 65 d9 6d bd bd b3 a4 3d
       -0.099982694 -0.00065054477 -0.05806865 0.08042095
000360 dc a8 03 3d 4c 29 f6 bc fd 43 c0 3b 5e 0e 88 3d
       0.03214346 -0.030048989 0.00586748 0.06643365
000370 38 66 9d 3d 1f dd 05 bd b5 4f 87 3d 4a 0b 88 bd
       0.07685512 -0.03268158 0.06607 -0.06642778
000380 16 05 86 bd a2 59 bc 3d 30 f3 5f bc 6e a8 d3 3d
       -0.06543939 0.091967836 -0.01366882 0.1033486
000390 be 62 a8 3d c2 95 8e bd 9c ed 32 3d cf f5 5d 3d
       0.082219586 -0.06962158 0.043683633 0.0541895
0003a0 0e 83 c1 bd 3e ea 51 3c b9 72 ae 3d 3e a2 86 3c
       -0.09448825 0.012812195 0.08517975 0.016434785
0003b0 e5 a7 89 bd c8 b3 44 3d 5a c3 a5 bd a5 23 14 3d
       -0.067214765 0.048023015 -0.08093901 0.036166806
0003c0 06 8b b2 3d f7 43 59 bd 96 4f 0e 3d 7c f8 ab 3d
       0.08717923 -0.053043332 0.034743868 0.08397004
0003d0 96 6c c0 bd 6f 2b 9b bb 2c f2 f0 bc dd 39 a3 3c
       -0.09395711 -0.0047354023 -0.029412352 0.019925052
0003e0 f0 97 88 3d a8 ac 98 3d ee 1a b3 3d c8 31 94 3d
       0.06669605 0.074548066 0.08745371 0.072360575
0003f0 28 86 c7 bd fb 7f 26 bd a3 ca 86 3b bb c0 5a bc
       -0.09742385 -0.040649395 0.0041135116 -0.013351615

recurrent.weight_hh_l0 f4 [512, 128]
000000 c0 02 a1 bc cd e1 17 3d 83 15 b6 3d a8 e0 ec 3c
       -0.019654632 0.037080575 0.08890822 0.028915718
000010 76 50 89 3d c8 a0 fd 3c a8 35 69 3d 27 ef f6 bb
       0.067048 0.030960456 0.056935936 -0.0075358334
000020 6f f9 97 bd 95 76 2e 3d 13 61 9d bd 93 eb d0 bc
       -0.074206226 0.042593557 -0.07684531 -0.025502956
000030 ce 6b be bd 86 07 17 bd 93 d0 33 bc 4e 4d 4e bd
       -0.09297906 -0.03687241 -0.010975021 -0.050366692
000040 0c 15 47 3d 9a a7 31 bd 25 7f 9d bd 33 1e 55 3d
       0.048604056 -0.043372728 -0.076902665 0.052030753
000050 62 c2 da 3b 01 b5 ba 39 cc 61 34 bd 9a 80 4e 3d
       0.0066760043 0.00035611543 -0.04403858 0.050415613
000060 18 3a 9f 3d 84 24 c6 bb 20 4d 85 3c 5e 06 80 bc
       0.077747524 -0.0060468335 0.016272128 -0.015628036
000070 d5 29 6e bd e0 9b ad 3d a2 25 8f 3d ae 8d fd ba
       -0.058145363 0.084769964 0.069896 -0.0019344592
000080 f0 b3 32 bd ab 50 83 3c 03 47 84 bd 9f 1c c0 bd
       -0.043628633 0.016029676 -0.06458857 -0.09380459
000090 2a 79 5d bc e0 35 b3 bd 09 f2 cb b9 c0 6c b9 3d
       -0.013517657 -0.0875051 -0.00038899507 0.090539455
0000a0 0a 5f 8d 3d 41 20 3b bd ae 54 23 bd 41 54 52 bd
       0.06902893 -0.045685057 -0.03987568 -0.051349882
0000b0 2f db fe bb fe e1 c8 3b 9e 8d d7 b8 04 ae 5f bd
       -0.0077775936 0.006130456 -0.00010278377 -0.054609314
0000c0 02 2a 52 3d 09 37 92 3d e2 4e 1e bc 47 3f 38 3c
       0.051309593 0.071394034 -0.009662362 0.011245555
0000d0 04 23 fc bc a1 dd 95 3c 18 0e 96 3d f1 0a fe 3c
       -0.030778416 0.018294157 0.07326907 0.031011077
0000e0 59 3a 3e bd ea ae a0 3d 33 ff a0 bd be 9b 1e bd
       -0.046442363 0.07845862 -0.078611754 -0.038722746
0000f0 b1 11 a7 3c 31 b0 26 3c 61 77 08 bd ce b7 7c 3c
       0.020394178 0.010173843 -0.033316974 0.015424682
000100 8c e4 91 3d db 93 99 3d 08 cc dc 38 37 b7 10 bd
       0.0712367 0.07498904 0.00010528421 -0.035330977
000110 2c 81 89 bd e5 62 b6 3c bc 40 16 3c ca 91 50 ba
       -0.06714091 0.022263953 0.009170707 -0.00079562946
000120 23 50 bf 3d ab b4 7d bd 12 6e 93 bc 30 a2 69 bd
       0.09341457 -0.061939877 -0.017996822 -0.05703944
000130 ab cb 81 3d b3 47 74 bd fc 0b 84 bd b0 d5 59 3d
       0.06337675 -0.05963869 -0.06447598 0.053182304
000140 b2 58 89 bd 3d 3f 53 3d f4 30 4d bd 55 ae 8d 3d
       -0.067063704 0.05157398 -0.050095513 0.06918017
000150 20 cc 3c bd 43 7c 82 3d 3d 54 a4 bc 48 8e 3b 3d
       -0.046093106 0.06371357 -0.0200597 0.045789987
000160 d4 55 5a 3d 17 19 f1 bc 35 2c 32 3d ef 00 df 3b
       0.05330451 -0.02943091 0.04349919 0.006805531
000170 42 57 0d 3d f4 16 f9 bb 6e 7d 19 bd d6 a4 ac bc
       0.034507044 -0.007601613 -0.037473135 -0.021074694
000180 8a 87 24 3d 9c d3 2e 3d b0 f0 b6 bd 7b 47 9e 3d
       0.040168323 0.042682275 -0.08932626 0.077284776
000190 97 01 de 3c 05 cb 39 3a e2 57 a1 3d bc a1 84 bc
       0.027100367 0.0007087442 0.078780904 -0.016190402
0001a0 89 e9 06 3d 02 63 4c bd b0 f1 9c bd 48 0a 1d 3a
       0.03293756 -0.04989911 -0.07663286 0.0005990607
0001b0 da e1 3a ba b0 27 9b 38 6e 31 95 bc 23 56 5f bc
       -0.00071289914 7.398368e-05 -0.018212046 -0.013631376
0001c0 3d a3 3f 3d 5c fe f6 b8 99 1e 5a 3d 63 c9 b6 3d
       0.046786536 -0.00011777572 0.053251836 0.0892513
0001d0 c2 84 8e 3d e4 5d 9d bd 79 e9 9b 3c c4 7a 9b 3b
       0.06958915 -0.07683924 0.019032227 0.0047448594
0001e0 f2 d7 8b bd 13 d1 d4 bc ca 1e 99 bd 75 76 26 bc
       -0.06828298 -0.0259786 -0.07476576 -0.010160078
0001f0 67 7a 0d bd 4a 4f ed bb 95 1b a8 bb 77 84 aa 3a
       -0.03454056 -0.007242118 -0.005130241 0.0013009448
000200 6d 1d 81 3d d1 b4 55 3d ed c0 a5 bd e8 0f 40 3c
       0.06304441 0.052174393 -0.08093438 0.011722542
000210 4c f1 b0 3d 48 42 38 bd 2f eb a8 3d d5 52 54 3d
       0.08639774 -0.044985086 0.08247983 0.051836807
000220 81 8e ac 3d d8 2a 4f bd f2 99 0d 3c 42 df 97 bd
       0.08425618 -0.05057797 0.00864266 -0.0741563
000230 6e f5 45 3d 15 4b a3 bd c1 cf ab 3d f7 1d 78 bc
       0.048329763 -0.07973305 0.08389235 -0.015143863
000240 5e b8 97 bd 22 e0 3b 3d 67 3d 7e bd e1 d4 77 3c
       -0.07408212 0.045868047 -0.062070277 0.015126438
000250 53 0e bd bd d7 3a 9f bd 10 86 a2 bc 1b 4b 6f 3d
       -0.09231248 -0.07774895 -0.019839317 0.058421236
000260 bd 27 7b bd 1b 13 cf 3c 77 7f 02 bd 09 b0 75 3d
       -0.061317194 0.025277665 -0.03185984 0.059982333
000270 9c a3 61 bd ff 30 f4 bc 20 f4 01 bd a8 08 89 bb
       -0.05508767 -0.02980852 -0.031726956 -0.00418194
000280 5f 62 8d bd 3f 16 6e 3d d2 29 2b 3b 88 33 05 3c
       -0.069035284 0.058126684 0.0026117456 0.008129962
000290 e2 32 8a 3d 1c b6 a1 3d 38 fd a9 bd 9d 12 5b 3d
       0.067479864 0.07896063 -0.08300251 0.053484548
0002a0 6c 7e b8 3c 2c 36 ab bd 92 4e 01 bd e7 62 e2 bb
       0.02252122 -0.08359942 -0.03156907 -0.0069087627
0002b0 bd d8 29 3d d8 e2 3a bd 17 a3 bc bd 8a c2 9d bd
       0.041466463 -0.04562649 -0.092107944 -0.07703121
0002c0 7a 69 b7 bd 07 6b 92 3d 8e 72 5d 3d 71 72 10 bd
       -0.08955665 0.0714932 0.054064326 -0.03526539
0002d0 98 ab ba 3b 5a f6 bc bd cd 57 2e bc b6 e0 06 3d
       0.005696725 -0.09226675 -0.0106410505 0.032929145
0002e0 f6 1f 0e 3d 0f 8b 6c bd d2 2d 59 bc e5 3f 7b bd
       0.03469845 -0.057749804 -0.013255553 -0.06134023
0002f0 f4 a9 47 bd 88 62 7c 3c 30 05 8d bd dd 3e b7 3d
       -0.048746064 0.015404351 -0.06885755 0.08947537
000300 ca d9 2f bd 57 b5 ef 39 55 c4 2a bd 8c 91 84 bc
       -0.04293231 0.0004572074 -0.041691143 -0.016182683
000310 b2 69 26 3d ec 79 17 3d 44 74 0a bd 6c 18 68 3d
       0.040628143 0.036981508 -0.033802286 0.056663916
000320 ad 89 31 3d 78 69 cd bc f8 31 66 b8 64 fe ce bb
       0.04334419 -0.025074705 -5.488281e-05 -0.006316947
000330 98 45 a1 3d 0b 78 ba 3d 13 ba 18 bd 42 fe 82 3d
       0.07874602 0.09104928 -0.03728683 0.06396152
000340 54 00 f7 bc 5c c6 8e 3d ff f4 20 3b 04 9f f1 bc
       -0.030151524 0.06971428 0.0024560092 -0.02949477
000350 6c 38 42 bd c2 f5 56 3c 06 b2 0d 3d ae 21 6a bd
       -0.04741709 0.013120117 0.034593605 -0.057161026
000360 bf 57 19 bd 2a 6a 04 3d d6 5f b7 bc 4d ae 92 3d
       -0.037437197 0.03232781 -0.022384565 0.071621515
000370 02 7b 1b 3b c3 b4 af bd e7 5b 23 bc 6c e2 a7 3d
       0.0023724441 -0.085793994 -0.009970642 0.081974834
000380 09 b0 37 bd 76 5d 71 3d a4 b3 1e bd 0f 5a 32 bd
       -0.044845615 0.058927022 -0.038745537 -0.043542918
000390 e5 a0 b3 3d 11 22 69 bc b0 71 9e 3d d4 db fa bc
       0.087709226 -0.0142293135 0.07736528 -0.0306224
0003a0 8d 22 29 bd 5c 09 81 3d ad c9 76 bd c7 53 8b 3d
       -0.041292716 0.06300613 -0.060250927 0.06803089
0003b0 26 58 57 bd ce d7 91 3d 9d da be 3c 11 7d a7 bd
       -0.0525743 0.071212396 0.023297602 -0.081781514
0003c0 97 eb 32 3c 1f 69 88 bd c9 63 6e 3d 8a 3e 44 3d
       0.010920427 -0.06660675 0.05820063 0.047911204
0003d0 c2 70 7d bd b6 4e 9a 3d 7d c2 2e bd d9 84 0d bd
       -0.061875112 0.07534544 -0.042665947 -0.03455052
0003e0 cc 9a a8 bc ee 68 45 bd f1 48 05 bd ad 82 98 bd
       -0.020581625 -0.048195772 -0.032540265 -0.074467994
0003f0 b8 0f 1a bd 04 65 68 3c 23 6a 95 bd 74 b8 ec b9
       -0.037612647 0.01418424 -0.072956346 -0.00045150856

recurrent.bias_ih_l0 f4 [512]
000000 33 0a 8a 3a 23 eb 82 ba 58 48 03 3b 10 2a 3c bb
       0.0010531604 -0.0009988289 0.0020032134 -0.0028711595
000010 67 a8 2c 3b c0 51 87 ba 65 f8 22 ba a0 93 14 bb
       0.0026345493 -0.0010324046 -0.0006216823 -0.0022671
000020 b2 a8 d9 ba 7e 97 42 3a 48 4f 38 bb 1c 7b a9 ba
       -0.0016606061 0.0007423087 -0.0028123427 -0.0012930366
000030 08 ca c0 3a 85 b7 3e bb dc 11 8a 38 60 c9 51 3a
       0.0014708648 -0.0029101085 6.583679e-05 0.00080027245
000040 14 76 39 bb f8 93 3e 3b 00 d1 ae 3a b0 28 3e 3b
       -0.002829914 0.0029079895 0.0013337433 0.002901595
000050 24 30 33 bb 6e 5c 23 bb 27 f8 3b 3b 90 f5 2a 3b
       -0.0027341926 -0.0024926919 0.0028681846 0.0026086308
000060 1e 8f dc b9 0f dd 27 bb 73 74 db 3a 69 b8 3f bb
       -0.000420683 -0.002561394 0.0016743079 -0.0029254204
000070 f2 a8 42 3b 96 ab f0 39 36 bb 44 3b eb 79 2c bb
       0.002970275 0.0004590421 0.0030018813 -0.0026317786
000080 d8 d6 d2 ba 0d b3 3d bb cf b7 27 bb 4e b2 3f 3a
       -0.0016085757 -0.0028945834 -0.0025591736 0.0007312641
000090 51 ad 95 3a 29 cc 38 3b 3b d0 40 3b 61 e2 06 bb
       0.001141945 0.002819786 0.002942099 -0.002058171
0000a0 02 cb 2b 3b 47 61 05 3b e0 23 2d bb 7e 65 8f ba
       0.0026213531 0.0020352171 -0.0026419088 -0.0010940281
0000b0 6a e3 3b 3b d8 40 3f 3b d2 a6 27 3b ea dd fd ba
       0.0028669485 0.0029182937 0.002558161 -0.0019368504
0000c0 be bd c1 ba 46 8d 36 ba 76 96 d8 ba f3 b7 3d 3b
       -0.0014781279 -0.00069638004 -0.0016524333 0.0028948754
0000d0 51 5b 31 3b 3a 20 30 3b c1 3f 1c bb c4 9e b9 3a
       0.0027062485 0.0026874677 -0.0023841711 0.0014161696
0000e0 0b dd 17 bb 5f f8 2a bb 7e 96 44 3b 09 f9 12 bb
       -0.0023172523 -0.0026087982 0.0029996927 -0.0022426269
0000f0 15 07 22 bb 78 4d 93 b8 fe 38 dc ba 8a 0a c6 ba
       -0.002472346 -7.023936e-05 -0.0016801653 -0.0015109342
000100 bf 37 7f 3a 90 1a 0f bb 26 f2 4b ba ed 90 50 ba
       0.0009735785 -0.00218359 -0.00077799184 -0.0007956166
000110 5c 8d 23 3b 76 4f 43 3b f1 4d 99 b9 92 1d 2c bb
       0.0024956083 0.0029802 -0.00029240505 -0.0026262742
000120 46 e9 3e bb 78 ef 32 3b 18 93 37 3b ff 11 00 bb
       -0.002913074 0.002730338 0.0028011259 -0.0019541977
000130 20 9f 38 bb 41 36 11 3b a1 dd e2 39 e3 a5 2f 3b
       -0.0028171018 0.0022157582 0.00043271206 0.0026801757
000140 1f 3f 3d ba 6f 2c 14 bb 61 47 1b 3b 1f 7e 1d 3b
       -0.00072191836 -0.0022609492 0.0023693668 0.0024031473
000150 23 fe 38 3b ae f8 3e 3b 75 d6 3c bb b5 4b 1a 3b
       0.002822765 0.0029139924 -0.002881435 0.002354366
000160 4a 9e 32 ba 2b 08 1a bb 79 db 14 bb 49 d0 ce 3a
       -0.0006813748 -0.0023503404 -0.0022713824 0.0015778627
000170 f8 87 3f 3b bf 1c 3d 3b 0b 23 27 bb d6 40 3b 3b
       0.002922533 0.0028856245 -0.0025503065 0.002857258
000180 72 ac 27 ba fe 61 20 bb 23 54 de ba 87 e9 b4 ba
       -0.0006396241 -0.002447247 -0.001696233 -0.0013802507
000190 08 ec 36 bb 68 24 3d bb 68 24 41 bb c4 7f a2 ba
       -0.0027911682 -0.002886081 -0.0029471163 -0.0012397696
0001a0 24 be 39 3b e9 03 10 3b ae 51 b2 3a 8c cd 18 bb
       0.0028342092 0.0021974987 0.0013604665 -0.0023315875
0001b0 e8 8d 1d 3b a1 55 06 3b e1 83 32 bb 12 11 84 39
       0.0024040882 0.0020497816 -0.002723925 0.0002518972
0001c0 c0 3b 3c 3b b9 d6 a2 ba e9 58 36 3b b2 92 84 ba
       0.0028722137 -0.0012423611 0.002782399 -0.0010114519
0001d0 b0 63 29 bb 5b 20 23 3a 36 48 c6 b9 4b 84 41 bb
       -0.0025846772 0.0006222778 -0.00037819304 -0.0029528316
0001e0 e4 9c 7b ba 0c e8 3e 3b 81 60 b7 ba cb 07 a1 3a
       -0.00095982687 0.002913001 -0.0013990552 0.0012285648
0001f0 2a 82 0f bb 36 34 45 3b 96 46 43 3b 83 6b cc 3a
       -0.0021897652 0.0030090935 0.0029796711 0.0015596006
000200 00 00 00 00 00 00 00 00 00 00 00 00 00 00 00 00
       0.0 0.0 0.0 0.0
000210 00 00 00 00 00 00 00 00 00 00 00 00 00 00 00 00
       0.0 0.0 0.0 0.0
000220 00 00 00 00 00 00 00 00 00 00 00 00 00 00 00 00
       0.0 0.0 0.0 0.0
000230 00 00 00 00 00 00 00 00 00 00 00 00 00 00 00 00
       0.0 0.0 0.0 0.0
000240 00 00 00 00 00 00 00 00 00 00 00 00 00 00 00 00
       0.0 0.0 0.0 0.0
000250 00 00 00 00 00 00 00 00 00 00 00 00 00 00 00 00
       0.0 0.0 0.0 0.0
000260 00 00 00 00 00 00 00 00 00 00 00 00 00 00 00 00
       0.0 0.0 0.0 0.0
000270 00 00 00 00 00 00 00 00 00 00 00 00 00 00 00 00
       0.0 0.0 0.0 0.0
000280 00 00 00 00 00 00 00 00 00 00 00 00 00 00 00 00
       0.0 0.0 0.0 0.0
000290 00 00 00 00 00 00 00 00 00 00 00 00 00 00 00 00
       0.0 0.0 0.0 0.0
0002a0 00 00 00 00 00 00 00 00 00 00 00 00 00 00 00 00
       0.0 0.0 0.0 0.0
0002b0 00 00 00 00 00 00 00 00 00 00 00 00 00 00 00 00
       0.0 0.0 0.0 0.0
0002c0 00 00 00 00 00 00 00 00 00 00 00 00 00 00 00 00
       0.0 0.0 0.0 0.0
0002d0 00 00 00 00 00 00 00 00 00 00 00 00 00 00 00 00
       0.0 0.0 0.0 0.0
0002e0 00 00 00 00 00 00 00 00 00 00 00 00 00 00 00 00
       0.0 0.0 0.0 0.0
0002f0 00 00 00 00 00 00 00 00 00 00 00 00 00 00 00 00
       0.0 0.0 0.0 0.0
000300 00 00 00 00 00 00 00 00 00 00 00 00 00 00 00 00
       0.0 0.0 0.0 0.0
000310 00 00 00 00 00 00 00 00 00 00 00 00 00 00 00 00
       0.0 0.0 0.0 0.0
000320 00 00 00 00 00 00 00 00 00 00 00 00 00 00 00 00
       0.0 0.0 0.0 0.0
000330 00 00 00 00 00 00 00 00 00 00 00 00 00 00 00 00
       0.0 0.0 0.0 0.0
000340 00 00 00 00 00 00 00 00 00 00 00 00 00 00 00 00
       0.0 0.0 0.0 0.0
000350 00 00 00 00 00 00 00 00 00 00 00 00 00 00 00 00
       0.0 0.0 0.0 0.0
000360 00 00 00 00 00 00 00 00 00 00 00 00 00 00 00 00
       0.0 0.0 0.0 0.0
000370 00 00 00 00 00 00 00 00 00 00 00 00 00 00 00 00
       0.0 0.0 0.0 0.0
000380 00 00 00 00 00 00 00 00 00 00 00 00 00 00 00 00
       0.0 0.0 0.0 0.0
000390 00 00 00 00 00 00 00 00 00 00 00 00 00 00 00 00
       0.0 0.0 0.0 0.0
0003a0 00 00 00 00 00 00 00 00 00 00 00 00 00 00 00 00
       0.0 0.0 0.0 0.0
0003b0 00 00 00 00 00 00 00 00 00 00 00 00 00 00 00 00
       0.0 0.0 0.0 0.0
0003c0 00 00 00 00 00 00 00 00 00 00 00 00 00 00 00 00
       0.0 0.0 0.0 0.0
0003d0 00 00 00 00 00 00 00 00 00 00 00 00 00 00 00 00
       0.0 0.0 0.0 0.0
0003e0 00 00 00 00 00 00 00 00 00 00 00 00 00 00 00 00
       0.0 0.0 0.0 0.0
0003f0 00 00 00 00 00 00 00 00 00 00 00 00 00 00 00 00
       0.0 0.0 0.0 0.0

recurrent.bias_hh_l0 f4 [512]
000000 33 0a 8a 3a 23 eb 82 ba 58 48 03 3b 10 2a 3c bb
       0.0010531604 -0.0009988289 0.0020032134 -0.0028711595
000010 67 a8 2c 3b c0 51 87 ba 65 f8 22 ba a0 93 14 bb
       0.0026345493 -0.0010324046 -0.0006216823 -0.0022671
000020 b2 a8 d9 ba 7e 97 42 3a 48 4f 38 bb 1c 7b a9 ba
       -0.0016606061 0.0007423087 -0.0028123427 -0.0012930366
000030 08 ca c0 3a 85 b7 3e bb dc 11 8a 38 60 c9 51 3a
       0.0014708648 -0.0029101085 6.583679e-05 0.00080027245
000040 14 76 39 bb f8 93 3e 3b 00 d1 ae 3a b0 28 3e 3b
       -0.002829914 0.0029079895 0.0013337433 0.002901595
000050 24 30 33 bb 6e 5c 23 bb 27 f8 3b 3b 90 f5 2a 3b
       -0.0027341926 -0.0024926919 0.0028681846 0.0026086308
000060 1e 8f dc b9 0f dd 27 bb 73 74 db 3a 69 b8 3f bb
       -0.000420683 -0.002561394 0.0016743079 -0.0029254204
000070 f2 a8 42 3b 96 ab f0 39 36 bb 44 3b eb 79 2c bb
       0.002970275 0.0004590421 0.0030018813 -0.0026317786
000080 d8 d6 d2 ba 0d b3 3d bb cf b7 27 bb 4e b2 3f 3a
       -0.0016085757 -0.0028945834 -0.0025591736 0.0007312641
000090 51 ad 95 3a 29 cc 38 3b 3b d0 40 3b 61 e2 06 bb
       0.001141945 0.002819786 0.002942099 -0.002058171
0000a0 02 cb 2b 3b 47 61 05 3b e0 23 2d bb 7e 65 8f ba
       0.0026213531 0.0020352171 -0.0026419088 -0.0010940281
0000b0 6a e3 3b 3b d8 40 3f 3b d2 a6 27 3b ea dd fd ba
       0.0028669485 0.0029182937 0.002558161 -0.0019368504
0000c0 be bd c1 ba 46 8d 36 ba 76 96 d8 ba f3 b7 3d 3b
       -0.0014781279 -0.00069638004 -0.0016524333 0.0028948754
0000d0 51 5b 31 3b 3a 20 30 3b c1 3f 1c bb c4 9e b9 3a
       0.0027062485 0.0026874677 -0.0023841711 0.0014161696
0000e0 0b dd 17 bb 5f f8 2a bb 7e 96 44 3b 09 f9 12 bb
       -0.0023172523 -0.0026087982 0.0029996927 -0.0022426269
0000f0 15 07 22 bb 78 4d 93 b8 fe 38 dc ba 8a 0a c6 ba
       -0.002472346 -7.023936e-05 -0.0016801653 -0.0015109342
000100 bf 37 7f 3a 90 1a 0f bb 26 f2 4b ba ed 90 50 ba
       0.0009735785 -0.00218359 -0.00077799184 -0.0007956166
000110 5c 8d 23 3b 76 4f 43 3b f1 4d 99 b9 92 1d 2c bb
       0.0024956083 0.0029802 -0.00029240505 -0.0026262742
000120 46 e9 3e bb 78 ef 32 3b 18 93 37 3b ff 11 00 bb
       -0.002913074 0.002730338 0.0028011259 -0.0019541977
000130 20 9f 38 bb 41 36 11 3b a1 dd e2 39 e3 a5 2f 3b
       -0.0028171018 0.0022157582 0.00043271206 0.0026801757
000140 1f 3f 3d ba 6f 2c 14 bb 61 47 1b 3b 1f 7e 1d 3b
       -0.00072191836 -0.0022609492 0.0023693668 0.0024031473
000150 23 fe 38 3b ae f8 3e 3b 75 d6 3c bb b5 4b 1a 3b
       0.002822765 0.0029139924 -0.002881435 0.002354366
000160 4a 9e 32 ba 2b 08 1a bb 79 db 14 bb 49 d0 ce 3a
       -0.0006813748 -0.0023503404 -0.0022713824 0.0015778627
000170 f8 87 3f 3b bf 1c 3d 3b 0b 23 27 bb d6 40 3b 3b
       0.002922533 0.0028856245 -0.0025503065 0.002857258
000180 72 ac 27 ba fe 61 20 bb 23 54 de ba 87 e9 b4 ba
       -0.0006396241 -0.002447247 -0.001696233 -0.0013802507
000190 08 ec 36 bb 68 24 3d bb 68 24 41 bb c4 7f a2 ba
       -0.0027911682 -0.002886081 -0.0029471163 -0.0012397696
0001a0 24 be 39 3b e9 03 10 3b ae 51 b2 3a 8c cd 18 bb
       0.0028342092 0.0021974987 0.0013604665 -0.0023315875
0001b0 e8 8d 1d 3b a1 55 06 3b e1 83 32 bb 12 11 84 39
       0.0024040882 0.0020497816 -0.002723925 0.0002518972
0001c0 c0 3b 3c 3b b9 d6 a2 ba e9 58 36 3b b2 92 84 ba
       0.0028722137 -0.0012423611 0.002782399 -0.0010114519
0001d0 b0 63 29 bb 5b 20 23 3a 36 48 c6 b9 4b 84 41 bb
       -0.0025846772 0.0006222778 -0.00037819304 -0.0029528316
0001e0 e4 9c 7b ba 0c e8 3e 3b 81 60 b7 ba cb 07 a1 3a
       -0.00095982687 0.002913001 -0.0013990552 0.0012285648
0001f0 2a 82 0f bb 36 34 45 3b 96 46 43 3b 83 6b cc 3a
       -0.0021897652 0.0030090935 0.0029796711 0.0015596006
000200 00 00 00 00 00 00 00 00 00 00 00 00 00 00 00 00
       0.0 0.0 0.0 0.0
000210 00 00 00 00 00 00 00 00 00 00 00 00 00 00 00 00
       0.0 0.0 0.0 0.0
000220 00 00 00 00 00 00 00 00 00 00 00 00 00 00 00 00
       0.0 0.0 0.0 0.0
000230 00 00 00 00 00 00 00 00 00 00 00 00 00 00 00 00
       0.0 0.0 0.0 0.0
000240 00 00 00 00 00 00 00 00 00 00 00 00 00 00 00 00
       0.0 0.0 0.0 0.0
000250 00 00 00 00 00 00 00 00 00 00 00 00 00 00 00 00
       0.0 0.0 0.0 0.0
000260 00 00 00 00 00 00 00 00 00 00 00 00 00 00 00 00
       0.0 0.0 0.0 0.0
000270 00 00 00 00 00 00 00 00 00 00 00 00 00 00 00 00
       0.0 0.0 0.0 0.0
000280 00 00 00 00 00 00 00 00 00 00 00 00 00 00 00 00
       0.0 0.0 0.0 0.0
000290 00 00 00 00 00 00 00 00 00 00 00 00 00 00 00 00
       0.0 0.0 0.0 0.0
0002a0 00 00 00 00 00 00 00 00 00 00 00 00 00 00 00 00
       0.0 0.0 0.0 0.0
0002b0 00 00 00 00 00 00 00 00 00 00 00 00 00 00 00 00
       0.0 0.0 0.0 0.0
0002c0 00 00 00 00 00 00 00 00 00 00 00 00 00 00 00 00
       0.0 0.0 0.0 0.0
0002d0 00 00 00 00 00 00 00 00 00 00 00 00 00 00 00 00
       0.0 0.0 0.0 0.0
0002e0 00 00 00 00 00 00 00 00 00 00 00 00 00 00 00 00
       0.0 0.0 0.0 0.0
0002f0 00 00 00 00 00 00 00 00 00 00 00 00 00 00 00 00
       0.0 0.0 0.0 0.0
000300 00 00 00 00 00 00 00 00 00 00 00 00 00 00 00 00
       0.0 0.0 0.0 0.0
000310 00 00 00 00 00 00 00 00 00 00 00 00 00 00 00 00
       0.0 0.0 0.0 0.0
000320 00 00 00 00 00 00 00 00 00 00 00 00 00 00 00 00
       0.0 0.0 0.0 0.0
000330 00 00 00 00 00 00 00 00 00 00 00 00 00 00 00 00
       0.0 0.0 0.0 0.0
000340 00 00 00 00 00 00 00 00 00 00 00 00 00 00 00 00
       0.0 0.0 0.0 0.0
000350 00 00 00 00 00 00 00 00 00 00 00 00 00 00 00 00
       0.0 0.0 0.0 0.0
000360 00 00 00 00 00 00 00 00 00 00 00 00 00 00 00 00
       0.0 0.0 0.0 0.0
000370 00 00 00 00 00 00 00 00 00 00 00 00 00 00 00 00
       0.0 0.0 0.0 0.0
000380 00 00 00 00 00 00 00 00 00 00 00 00 00 00 00 00
       0.0 0.0 0.0 0.0
000390 00 00 00 00 00 00 00 00 00 00 00 00 00 00 00 00
       0.0 0.0 0.0 0.0
0003a0 00 00 00 00 00 00 00 00 00 00 00 00 00 00 00 00
       0.0 0.0 0.0 0.0
0003b0 00 00 00 00 00 00 00 00 00 00 00 00 00 00 00 00
       0.0 0.0 0.0 0.0
0003c0 00 00 00 00 00 00 00 00 00 00 00 00 00 00 00 00
       0.0 0.0 0.0 0.0
0003d0 00 00 00 00 00 00 00 00 00 00 00 00 00 00 00 00
       0.0 0.0 0.0 0.0
0003e0 00 00 00 00 00 00 00 00 00 00 00 00 00 00 00 00
       0.0 0.0 0.0 0.0
0003f0 00 00 00 00 00 00 00 00 00 00 00 00 00 00 00 00
       0.0 0.0 0.0 0.0

recurrent.weight_ih_l1 f4 [512, 128]
000000 d4 6e a4 3d fe de 70 3d 40 fa 2f bd db a8 ac bd
       0.08028951 0.058806412 -0.042963266 -0.08430644
000010 91 44 b5 bb b0 d8 c7 3b 5b a4 61 bd e4 e0 b6 3d
       -0.0055318554 0.006098829 -0.055088382 0.08929613
000020 1d 97 af 3d 00 98 8b 3d c2 b6 97 3c 29 a0 dc 3c
       0.085737444 0.06816101 0.018519763 0.026931839
000030 eb a4 cb bc 18 84 30 bd 03 ce 30 3d 94 ca 9a bd
       -0.024858912 -0.043094724 0.043165218 -0.0755817
000040 14 8c 77 3d d3 63 9f bd 43 89 f7 bc 24 6c 3a bb
       0.060436323 -0.07782712 -0.030216819 -0.0028445804
000050 7b 59 dc bc 48 0a 9a 3d 5c e8 5a 3b 1a 0c c1 3c
       -0.026898136 0.07521492 0.0033402657 0.02356534
000060 7f e5 1c bd a3 31 6e 3d ec f1 6a bd b6 35 55 3d
       -0.038304802 0.058152806 -0.05735962 0.052053176
000070 c4 62 fd 3c 61 d9 14 bc 05 80 ae bd 5f 3e 88 3d
       0.030930884 -0.00908503 -0.085205115 0.06652521
000080 97 d6 59 bd 68 67 14 bd 0a 93 80 bc 91 8e 85 bd
       -0.053183164 -0.03623143 -0.015695114 -0.06521333
000090 63 3c 6e bd 75 ae 80 bc 4e 90 be bd 6c 28 02 3c
       -0.058163058 -0.015708188 -0.09304868 0.007944208
0000a0 5c 0e 0c bd 2e 2f bb 3d dc 6c 62 bd 5e 9d 51 bd
       -0.03419338 0.09139858 -0.055279598 -0.051175468
0000b0 29 31 53 bd 91 cd 4d bd 78 ba 59 bc 44 cf e6 3b
       -0.051560555 -0.05024487 -0.0132890865 0.007043751
0000c0 f0 6f 5c 3c f7 11 9e 3d c4 69 8f 3d 70 b1 14 3d
       0.013454422 0.0771827 0.07002595 0.03630203
0000d0 bf df a1 3d 75 42 00 3c 7a ec 5a 3d 2a e0 92 3d
       0.07904004 0.007828345 0.053448178 0.07171662
0000e0 e8 c8 25 bd 34 88 e9 3b d3 1d af bd 23 f5 64 3d
       -0.040474802 0.0071268324 -0.085506104 0.055897843
0000f0 e4 f0 af 3d 46 67 28 3c e7 53 66 3d 5b 1e 71 3d
       0.08590868 0.010278529 0.05623236 0.05886684
000100 42 be eb 3b 24 f2 ac 3d c3 c4 99 3d 8e 4c 43 bd
       0.0071943114 0.08444622 0.075082324 -0.04768043
000110 3f ca 7a bd a8 4f f0 bb ca e5 23 bd 0c cf b5 3d
       -0.061228033 -0.0073337145 -0.040014066 0.08877382
000120 1b fb 9c bd 69 44 86 bc c6 5b 4b 3d 56 20 0d 3d
       -0.07665082 -0.016390042 0.04964807 0.034454666
000130 34 48 1d bc 49 6a 53 bc 56 12 cd 3c 9d 28 2e bd
       -0.009599734 -0.012903758 0.025033157 -0.0425192
000140 40 c8 ae 3c 16 81 64 3d 6d 27 88 3d 85 5a 29 3c
       0.021335721 0.05578717 0.06648145 0.010336523
000150 e4 11 a7 3c 93 4c 98 bd 03 1c b9 bd 45 cd 02 bd
       0.020394273 -0.074364804 -0.09038546 -0.03193404
000160 5d a0 7f bd fc 23 84 bd e1 f6 91 bd 4c 36 bc bd
       -0.062408794 -0.06452176 -0.071271665 -0.09190044
000170 95 c4 a1 3d 09 0b b1 ba 32 07 6c 3d f0 f7 63 3d
       0.07898823 -0.0013507317 0.05762405 0.055656374
000180 6a f5 a7 3b 40 ae 62 bd ac a6 9e bb 98 56 28 bd
       0.005125691 -0.05534196 -0.004841646 -0.041098207
000190 fa 88 92 bd 1e ab 71 3d 7a 20 77 bd a8 05 e5 bc
       -0.071550325 0.05900108 -0.060333706 -0.027956799
0001a0 24 4e be bd b6 94 57 bd 1d 6f ad bd 82 d8 95 bd
       -0.09292248 -0.052632056 -0.08468459 -0.07316686
0001b0 30 0e 54 bb 46 5b 12 bd 6d 21 a2 bd d7 8a 2b bb
       -0.003235709 -0.035731576 -0.07916532 -0.0026175284
0001c0 b2 e7 87 3d 96 06 6d bc 01 52 de 3b e9 de aa 3d
       0.06635989 -0.014466902 0.006784678 0.08343298
0001d0 ab 10 ab 3d 7c 89 0e 3d 6d 18 30 3d d8 80 94 3d
       0.083527885 0.034799084 0.042992044 0.072511375
0001e0 10 0b 4b bd cf 02 b3 bd ac 63 99 3b 5c b9 14 3d
       -0.049571097 -0.0874077 0.0046810713 0.036309585
0001f0 06 d7 3b 3c 81 69 1f bc d3 ee 20 3d 55 7f 36 bd
       0.01146484 -0.009729744 0.03929026 -0.044555027
000200 72 ed be bc 8e fb 48 b9 64 dc 91 3d 4a b0 71 bd
       -0.023306582 -0.00019167198 0.07122114 -0.059006013
000210 62 ad ad bd b7 90 62 3d 19 9a 8c 3d 58 80 b4 bc
       -0.08480336 0.055313792 0.06865329 -0.022033855
000220 fb 41 9c bd f6 ab fa bc 6f f9 44 3c 12 66 36 bd
       -0.07629772 -0.030599575 0.01202236 -0.044530936
000230 b4 45 05 bd 4f 43 70 3d e4 1a 1d bd 25 e9 51 3c
       -0.032537177 0.05865794 -0.038355723 0.012811934
000240 ca f1 e2 b7 69 42 8c 3d f8 1c 58 3d c6 18 b1 3d
       -2.7053891e-05 0.06848604 0.052762 0.08647303
000250 80 48 98 bd 2a 83 31 3d 6a 7d ae bc fc e7 14 3a
       -0.07435703 0.04333798 -0.021300036 0.00056803203
000260 5d 0e af bd a8 81 89 3d 4d b9 5a bd 50 c9 bb 3d
       -0.085476615 0.06714183 -0.053399373 0.09169257
000270 38 d9 2d bd 75 f1 c4 3c 41 e3 02 bd 7b 0e 1b bd
       -0.042443484 0.024040917 -0.031955007 -0.037855607
000280 56 78 e5 bc c1 9d 0b 3d cf 9e 4e bd db 63 02 3d
       -0.028011482 0.034085993 -0.05044442 0.03183351
000290 69 e0 21 bd 20 e1 1c 3d b5 0e 96 3c 5c 52 ac b8
       -0.039520655 0.038300633 0.01831756 -8.21694e-05
0002a0 ad f3 a4 bc 45 15 5f 3c 89 1e 0f 3b 87 b5 f5 3b
       -0.020135725 0.013615911 0.0021838269 0.0074984464
0002b0 9f 97 8b 3d 82 bf 40 3d e3 a3 b9 bd a7 b5 96 3d
       0.06816029 0.047057636 -0.09064462 0.07358866
0002c0 e7 5b b3 bd 05 6b 82 bd fc 32 b1 bb 12 b7 ff 3b
       -0.08757763 -0.063680686 -0.005407689 0.007803806
0002d0 42 bb 27 bd e8 1e 6f 3c b9 ce a0 bd c9 d5 8f bd
       -0.040950067 0.014594771 -0.07851929 -0.07023198
0002e0 be 67 81 bd 2d 8f 4a 3d 95 35 3e 3d 45 0b b2 bd
       -0.063186154 0.04945295 0.04643782 -0.08693556
0002f0 5a eb 5b 3d fa 22 0e 3d 5b be b9 bd a0 f4 aa bd
       0.053691246 0.034701325 -0.090695105 -0.0834744
000300 1d 1c 6e bd ff fd 4a 3d 24 43 0b bd 2f 62 a1 bd
       -0.05813228 0.049558636 -0.033999577 -0.07880055
000310 bd 6a b0 3a 48 a4 ba 3d 19 3c 34 3d 31 57 1f bd
       0.0013459545 0.091133654 0.044002626 -0.03890151
000320 30 e2 d6 bc 5f 65 13 3d c8 e5 73 bc f2 e5 81 3d
       -0.026230901 0.035985347 -0.014886327 0.06342687
000330 39 11 af 3d 08 e8 b1 3d 7d d1 99 bd 3a 58 3e 3d
       0.08548207 0.086868346 -0.0751066 0.04647086
000340 af 5d a8 3d ed 6a 68 bd 00 6f 9b 3d 89 3a be bd
       0.08220994 -0.056742597 0.07589531 -0.092885084
000350 8f b6 a2 bd 1e 90 a9 bd 59 47 f8 3c be 1f 77 bd
       -0.079449765 -0.08279441 0.030307459 -0.060333006
000360 b2 34 91 3d 1b 4b ad 3d c6 97 9f bd 30 6a 6a 3c
       0.07090129 0.08461591 -0.0779262 0.014307544
000370 f2 a3 a3 bd 05 9a fe 3c 8d 8f 6f bd 12 24 78 3d
       -0.079902545 0.031079302 -0.05848651 0.060581274
000380 a1 cf 17 bd 34 27 af bd e1 1c 76 3b 7e 2f 2c 3b
       -0.037063245 -0.08552399 0.0037553834 0.0026273425
000390 97 88 ae 3b d6 99 95 3c 09 1b a6 bd 98 d3 4b 3c
       0.0053263414 0.018261831 -0.08110625 0.012440585
0003a0 42 25 87 3d cb bf 52 3c 53 71 19 3d fd 27 35 bb
       0.06598903 0.01286311 0.03746159 -0.0027642243
0003b0 2b 0d 79 3d 1b 33 8a bd 13 e0 48 3c 17 de af 3d
       0.060803574 -0.06748029 0.012260455 0.08587282
0003c0 79 56 ff 3b a7 e9 0e bd af ae 47 bd ed ff 42 bd
       0.0077922908 -0.034890797 -0.048750576 -0.04760735
0003d0 d3 d3 cc bc 79 31 38 bd 3d 76 98 3d 24 fb 8b 3d
       -0.02500335 -0.044969056 0.07444427 0.06835011
0003e0 fc 0e 02 3d 5d de 52 3d 86 db 88 bd 72 ee bc 3a
       0.03175257 0.051481593 -0.06682496 0.0014414324
0003f0 13 13 17 3c 57 7e 9d 3d 9a b5 75 3d 6b d1 36 3d
       0.009220856 0.07690113 0.059987642 0.04463331

recurrent.weight_hh_l1 f4 [512, 128]
000000 1d e9 37 3d 22 d1 be 3c 2a 5f 83 bd 85 9d 71 bd
       0.04490005 0.023293082 -0.064146355 -0.058988113
000010 9c 0f 8e bc 3d 9a f0 3c 60 20 a9 bd 46 c0 9c bc
       -0.017341428 0.029370422 -0.08258128 -0.019134652
000020 fe 9c 06 3d 5d b7 f3 bc 52 c0 8a bd b7 13 67 3b
       0.032864563 -0.02975052 -0.067749634 0.0035259554
000030 30 9f df 3c ca d5 b9 3d 1b 68 db 38 b2 5e c1 bc
       0.027297586 0.0907398 0.00010462125 -0.023604725
000040 fd d8 a5 3d 66 de 7b 3d 8b 77 99 3d 10 61 bf 3c
       0.08098028 0.061491393 0.07493504 0.023361713
000050 03 31 8b bc fc 66 34 3c bc 5b 3a 3d a5 e6 98 3d
       -0.016991144 0.0110108815 0.04549764 0.07465867
000060 bf cf 9d 3d b4 0c 1c bc f1 8b 83 bd 27 14 9f bd
       0.0770564 -0.009524513 -0.06423176 -0.07767516
000070 d9 21 29 bd 40 19 bd bd 85 79 0b bd c9 a3 1c bd
       -0.041292045 -0.09233332 -0.034051437 -0.038242135
000080 3f c8 99 3d 85 df 0a 3d 91 55 8d 3c fb 75 0d bc
       0.07508897 0.03390457 0.017252715 -0.008634086
000090 7b 18 92 3c fb 45 20 bd 14 20 8f 3d ca bb 3f bd
       0.017833939 -0.03912924 0.0698854 -0.04680995
0000a0 2e 1f 39 3d fa ad b7 bd 85 b0 3f 3d 62 72 8b 3d
       0.04519575 -0.0896873 0.0467992 0.06808926
0000b0 d1 47 38 ba 37 bf 20 bc 05 a3 a4 bb c9 aa 51 3d
       -0.00070297444 -0.009811214 -0.0050243163 0.051188264
0000c0 59 0e 87 3d 7a 2f 91 3d ea 25 83 3d ba 1a 19 ba
       0.065945335 0.070891336 0.06403716 -0.00058404694
0000d0 9c ed 09 bd 11 2b 37 3d 00 00 4e 34 69 f3 b1 ba
       -0.033673868 0.044718806 1.9185245e-07 -0.001357657
0000e0 a6 ec b0 3d b6 97 85 3d fe 6a fc 3c 3d 00 82 bd
       0.08638887 0.06523077 0.030812737 -0.06347702
0000f0 24 5e 84 3d f9 25 a7 bd 15 df 00 bd e9 a4 1d 3d
       0.064632684 -0.081615396 -0.031462748 0.03848735
000100 bf 40 72 bd 7e a5 45 ba a1 20 a2 3d 32 7b 15 bd
       -0.059143778 -0.0007539614 0.0791638 -0.03649444
000110 d7 05 50 bd 97 bb 7d 3d 35 fe e1 39 66 d2 a6 3d
       -0.05078682 0.061946478 0.00043104743 0.08145599
000120 e9 97 bd bc fb d8 02 3d 28 fc 68 3d aa b8 97 bd
       -0.023143725 0.03194521 0.0568811 -0.07408269
000130 97 a7 a9 bb 09 0b f6 bc b8 00 02 bd f0 f9 01 3b
       -0.005177449 -0.030034559 -0.031738967 0.0019832812
000140 b2 bd 53 3d 6a 47 04 bd 90 e5 82 bd 43 00 bc 3d
       0.05169458 -0.03229467 -0.06391442 0.091797374
000150 7b c9 49 bd 4d 5b 8f bd c2 d2 05 bd c4 0e 8f bb
       -0.049264412 -0.06999836 -0.032671697 -0.004365774
000160 7e 27 4b 3d 2f 90 86 bd fd 47 23 3d d4 1c 9b bc
       0.04959821 -0.065704696 0.039863575 -0.018934645
000170 1f 8d b9 bc f2 5e 5f 3d e7 4b a3 bd f6 e6 18 3b
       -0.0226503 0.054533906 -0.079734616 0.0023331023
000180 11 29 81 3c 7b f9 06 bd b6 08 92 bc 9b e9 34 3d
       0.015766652 -0.032952767 -0.01782642 0.044168096
000190 80 fb 8c 3d 1d 0e 27 bd ad ef 78 3d 77 f5 77 bd
       0.06883907 -0.040784944 0.060775448 -0.060536828
0001a0 1e 99 04 bd 44 0b b3 bd 06 39 bd bb d1 bb 8c 3a
       -0.032372586 -0.08742383 -0.00577462 0.0010737126
0001b0 9c b8 bd bd de 17 aa 3d 56 9a 14 bd 3f 38 35 bd
       -0.09263727 0.083053336 -0.03628 -0.044243094
0001c0 c8 32 16 3a b4 b1 b4 3b 3d 0f 47 bd cc 3c 69 bd
       0.0005729613 0.005514348 -0.048598517 -0.056942746
0001d0 bc 1d a1 bd f2 87 3e bc 75 ac bb 3b bb b0 5a 3d
       -0.078669995 -0.011629092 0.0057273456 0.0533912
0001e0 b1 66 77 bd 3e 79 57 3d 43 f0 6d bd de b0 03 bd
       -0.06040067 0.05260586 -0.05809046 -0.032151096
0001f0 a6 a8 72 bc cc 06 82 3d ef 96 7d bd 72 97 8d bd
       -0.014810717 0.06348953 -0.06191152 -0.069136515
000200 b9 92 54 3d bf b7 e7 3c ec 20 98 3b f0 43 7d bd
       0.051897738 0.02828586 0.0046425965 -0.06183237
000210 6b 0a 84 bd c3 ac 8a bc 3d 22 47 3b 4d 14 a1 bd
       -0.064472996 -0.016928082 0.0030385398 -0.078652
000220 e6 aa 06 bd fd 8e 99 bd 8b d5 13 3d bc bd 81 bd
       -0.032877825 -0.07497976 0.036092322 -0.06335017
000230 af f3 ba 3d 92 f4 30 bd 30 0a 70 3c 12 01 0c 3d
       0.0912851 -0.04320199 0.014650866 0.03418071
000240 d0 13 6b bd 79 ac 9a bd 2f 01 9c bd 41 51 ab bd
       -0.05739194 -0.07552428 -0.07617413 -0.08365107
000250 8d 8f b4 3c 1f e8 be ba 33 3e 05 3d b5 3e 9d 3c
       0.022041107 -0.0014565027 0.03253002 0.01919494
000260 bf 76 6f bd a0 de aa 3d bf a5 8d 3d c0 2d 5d bd
       -0.058462854 0.083432436 0.06916379 -0.05399871
000270 a3 a2 7d bd 74 50 01 3d 94 d2 26 3d ce 46 2b 3d
       -0.06192268 0.031570867 0.040728167 0.04181557
000280 1f bc 4f bd 49 14 ac bd cc 18 86 3d c0 52 86 3d
       -0.050716516 -0.084023066 0.065476984 0.06558752
000290 91 0c b9 bd ff 94 d4 3c f6 f6 9b 3d 7c 40 5c 3c
       -0.090356 0.025949953 0.076154634 0.013443109
0002a0 b9 53 92 bd d5 cd a4 3d e8 6d 9b bc d9 48 63 bd
       -0.07144875 0.08047072 -0.018973306 -0.055489395
0002b0 cd 10 8d 3c 34 a6 48 bb 1e ac 23 3d cc b2 0d bd
       0.017219925 -0.0030616643 0.039959066 -0.034594342
0002c0 09 4e 99 3d a2 c5 53 3d c7 46 63 bc b7 1b e6 bb
       0.07485587 0.05170215 -0.013871855 -0.007022347
0002d0 f9 72 55 3d 96 73 c8 bc 1c 62 20 3b cb 26 ab 39
       0.0521116 -0.024469178 0.002447254 0.00032644565
0002e0 9f 37 56 bd b4 a5 91 3d b6 fa f2 3c 7d ee 77 bd
       -0.05229914 0.071116835 0.029660564 -0.060530175
0002f0 c1 6d 84 bd fc f9 09 3b 85 d8 94 3d 89 78 31 bd
       -0.064662464 0.0021053543 0.0726786 -0.043327842
000300 f8 cb 43 bc 45 fb 75 bd ab f8 4c 3d 8e 07 c0 bd
       -0.011950485 -0.060054082 0.050041836 -0.09376441
000310 f7 23 a2 bd 18 3f 9e bd 9b e3 79 3d 32 14 29 3c
       -0.07917016 -0.07726878 0.061008077 0.010319756
000320 54 56 00 3d cf 3b 85 3d 72 79 b1 3d 34 68 a3 bd
       0.03133233 0.06505548 0.08665742 -0.079788595
000330 f5 03 82 bd ac 90 59 3a df 2d ac bd 99 98 16 3d
       -0.06348411 0.0008299451 -0.08407187 0.036766622
000340 8e da 97 3d f0 2e ae 3d 3c 39 f0 3c 10 46 56 bd
       0.07414733 0.08505046 0.029324166 -0.05231291
000350 03 f8 8d 3d 15 94 72 bd ef c2 be 3c c2 78 3d bc
       0.0693207 -0.059223253 0.023286311 -0.011564435
000360 29 54 ac bd 6a 12 14 bc de 69 6d 3d d5 8c 5f bc
       -0.0841449 -0.009037593 0.05796229 -0.013644417
000370 7d c5 46 3b 14 75 af bd a6 10 02 bd 31 d6 8f 3d
       0.0030330115 -0.08567253 -0.03175416 0.07023276
000380 5f e5 d6 3c b7 04 bb 3d 03 07 ca 3c 79 ff 17 bd
       0.02623242 0.09131759 0.024661547 -0.037108872
000390 7b e2 b4 3b c6 a5 a1 3d 2b 27 0b bd d4 0c 8d bd
       0.0055201626 0.07892947 -0.0339729 -0.068872124
0003a0 6c 81 0d 3d 20 75 87 bd 35 6e 92 bd 5e 55 d2 bc
       0.034547254 -0.06614137 -0.071499266 -0.025675472
0003b0 8a ac 4e bd c4 70 f2 bb a6 79 96 3c 76 0c bb bd
       -0.050457515 -0.0073986966 0.018368553 -0.09133236
0003c0 22 f7 2f 3d d8 13 95 bd 68 b5 95 bd 87 48 22 3d
       0.042960294 -0.072791755 -0.07309991 0.03961995
0003d0 bf 0b 6f 3d 52 26 80 3d 92 ea 20 3c be 0d 18 ba
       0.05836081 0.06257309 0.009821551 -0.00058003876
0003e0 af 10 9b 3d fd fd b7 bb 44 b5 8e 3d 0d 6a 8d bd
       0.075715415 -0.0056149946 0.069681674 -0.06904993
0003f0 ce a5 0f bc 50 c3 4f 3d 35 a6 22 bc 86 de 09 bd
       -0.008767558 0.050723374 -0.009927322 -0.03365948

recurrent.bias_ih_l1 f4 [512]
000000 57 b3 40 3b 1f 48 33 bb b2 34 43 3b ca 18 2d bb
       0.002940377 -0.002735622 0.0029786048 -0.002641248
000010 c5 24 b7 3a ae be 18 bb 52 eb c4 3a 17 90 1e bb
       0.001397275 -0.0023307013 0.0015023744 -0.002419477
000020 68 d7 f0 ba 9c fc 1a bb ea c2 2f 3b 10 fd f5 3a
       -0.0018374743 -0.0023649102 0.0026819059 0.0018767435
000030 5f 81 33 bb a6 2f 3c bb c3 da 41 3b f0 d3 24 bb
       -0.0027390344 -0.0028714924 0.0029579855 -0.0025150739
000040 64 52 26 3b 89 ee b2 3a 92 76 29 3a 92 f6 43 3b
       0.0025378698 0.0013651411 0.0006464507 0.0029901606
000050 7d bb 2e bb c7 f3 b7 3a 79 51 6e ba 3f 9f 3a ba
       -0.0026662045 0.0014034443 -0.000909112 -0.00071190664
000060 69 89 02 3b 82 b4 02 3b 3f d3 e3 ba a0 e5 2c b9
       0.0019918329 0.0019944017 -0.0017381682 -0.0001648874
000070 f8 1c 2c 3b 11 0c 69 39 34 4b 38 bb c6 b1 3e 3b
       0.0026262384 0.00022225107 -0.0028120996 0.002909766
000080 67 24 42 3b 3e 49 18 39 3e 55 fe 3a f8 79 23 bb
       0.0029623748 0.00014523134 0.0019404066 -0.0024944525
000090 b6 42 32 3b 4c d5 30 3b 66 b1 3a bb ff 0f 03 bb
       0.0027200407 0.0026982604 -0.0028487085 -0.0019998548
0000a0 b1 57 3e 3b e4 5d 9b 3a b8 1a ee b9 25 b2 10 bb
       0.0029043967 0.0011853543 -0.00045414804 -0.0022078839
0000b0 06 70 40 3b 23 ca 3b 3b 5f 4a b0 ba 10 3a 32 bb
       0.0029363646 0.0028654418 -0.0013449899 -0.0027195252
0000c0 54 90 3b bb e8 06 3b 3b a6 d5 ab ba 02 94 34 bb
       -0.0028619962 0.0028538052 -0.0013109937 -0.002755404
0000d0 df e1 65 ba 66 d7 8a b9 d2 2b 1a 3b 88 6c 57 3a
       -0.0008769314 -0.00026481895 0.0023524654 0.00082177715
0000e0 54 45 40 bb fe b1 04 ba 49 0c d4 ba 2c aa a3 3a
       -0.0029338198 -0.00050619233 -0.0016177978 0.0012486628
0000f0 cf 2e 3f 3b de df 40 3b ba a9 39 bb 93 8c 26 bb
       0.0029172187 0.002943031 -0.0028329925 -0.0025413379
000100 84 f2 42 3b cb 10 1f 3b d0 cc 43 3b 38 02 43 3b
       0.0029746601 0.0024271484 0.0029876716 0.002975596
000110 66 6d 6b b9 7a 7a 2e 3b 17 cc 32 3b 78 5a 35 3b
       -0.000224521 0.0026623295 0.0027282292 0.0027672332
000120 41 77 30 3b 6a 2b 1a 3b a0 41 33 b8 ba e3 b8 39
       0.002692655 0.0023524412 -4.2738044e-05 0.00035264884
000130 28 94 87 3a ac 8d 35 bb 90 48 37 3b 04 e8 44 3b
       0.0010343837 -0.0027702851 0.0027966835 0.0030045519
000140 72 95 8d 3a bc ff 9f ba c0 fc 42 3b 93 18 18 bb
       0.0010801984 -0.0012206952 0.0029752702 -0.0023208007
000150 98 b3 3d 3b 0d 5d 3f bb c4 b9 40 3b d8 1d 65 39
       0.0028946158 -0.002919975 0.00294076 0.0002185026
000160 6f 28 dc 3a 3f c1 41 bb fc 2d 38 bb 52 a5 f6 3a
       0.0016796718 -0.0029564647 -0.002810358 0.001881758
000170 0c 34 d6 3a 9b 1c 18 bb 74 7b 34 bb 94 87 31 bb
       0.0016342415 -0.002321041 -0.0027539404 -0.0027088868
000180 ea a4 1b 3b 47 ba 31 bb 83 ad 88 3a 9f 94 e6 3a
       0.002374942 -0.0027119087 0.0010427687 0.00175919
000190 f0 ca 49 ba f6 8a 30 3b 58 9e 08 3b 80 c5 31 bb
       -0.00076977815 0.0026938296 0.0020846333 -0.0027125776
0001a0 59 4b 25 3b 42 b7 05 3b bc 63 30 bb 7a d7 39 3a
       0.0025221913 0.002040342 -0.0026914915 0.00070892985
0001b0 8e 0c 11 3b 2f c7 1a 3b 3e f3 0b bb 3f 6c 30 3b
       0.0022132727 0.0023617258 -0.00213547 0.0026919988
0001c0 48 b9 31 bb be 81 b5 ba d4 af a5 ba a0 89 9a 3a
       -0.0027118493 -0.001384787 -0.0012640902 0.0011790283
0001d0 9c 80 27 3b 34 fc 3b bb 35 b1 3b bb 5d e8 37 bb
       0.0025558835 -0.002868426 -0.002863956 -0.0028062083
0001e0 18 f2 fa 3a 9f 92 cd b9 c5 00 35 bb bb 7d 14 bb
       0.0019145636 -0.00039209888 -0.0027618867 -0.002265795
0001f0 8d 3e 2e ba cd 97 34 3b 89 93 e0 39 fb 76 2b 3b
       -0.0006646894 0.00275563 0.00042834532 0.0026163447
000200 00 00 00 00 00 00 00 00 00 00 00 00 00 00 00 00
       0.0 0.0 0.0 0.0
000210 00 00 00 00 00 00 00 00 00 00 00 00 00 00 00 00
       0.0 0.0 0.0 0.0
000220 00 00 00 00 00 00 00 00 00 00 00 00 00 00 00 00
       0.0 0.0 0.0 0.0
000230 00 00 00 00 00 00 00 00 00 00 00 00 00 00 00 00
       0.0 0.0 0.0 0.0
000240 00 00 00 00 00 00 00 00 00 00 00 00 00 00 00 00
       0.0 0.0 0.0 0.0
000250 00 00 00 00 00 00 00 00 00 00 00 00 00 00 00 00
       0.0 0.0 0.0 0.0
000260 00 00 00 00 00 00 00 00 00 00 00 00 00 00 00 00
       0.0 0.0 0.0 0.0
000270 00 00 00 00 00 00 00 00 00 00 00 00 00 00 00 00
       0.0 0.0 0.0 0.0
000280 00 00 00 00 00 00 00 00 00 00 00 00 00 00 00 00
       0.0 0.0 0.0 0.0
000290 00 00 00 00 00 00 00 00 00 00 00 00 00 00 00 00
       0.0 0.0 0.0 0.0
0002a0 00 00 00 00 00 00 00 00 00 00 00 00 00 00 00 00
       0.0 0.0 0.0 0.0
0002b0 00 00 00 00 00 00 00 00 00 00 00 00 00 00 00 00
       0.0 0.0 0.0 0.0
0002c0 00 00 00 00 00 00 00 00 00 00 00 00 00 00 00 00
       0.0 0.0 0.0 0.0
0002d0 00 00 00 00 00 00 00 00 00 00 00 00 00 00 00 00
       0.0 0.0 0.0 0.0
0002e0 00 00 00 00 00 00 00 00 00 00 00 00 00 00 00 00
       0.0 0.0 0.0 0.0
0002f0 00 00 00 00 00 00 00 00 00 00 00 00 00 00 00 00
       0.0 0.0 0.0 0.0
000300 00 00 00 00 00 00 00 00 00 00 00 00 00 00 00 00
       0.0 0.0 0.0 0.0
000310 00 00 00 00 00 00 00 00 00 00 00 00 00 00 00 00
       0.0 0.0 0.0 0.0
000320 00 00 00 00 00 00 00 00 00 00 00 00 00 00 00 00
       0.0 0.0 0.0 0.0
000330 00 00 00 00 00 00 00 00 00 00 00 00 00 00 00 00
       0.0 0.0 0.0 0.0
000340 00 00 00 00 00 00 00 00 00 00 00 00 00 00 00 00
       0.0 0.0 0.0 0.0
000350 00 00 00 00 00 00 00 00 00 00 00 00 00 00 00 00
       0.0 0.0 0.0 0.0
000360 00 00 00 00 00 00 00 00 00 00 00 00 00 00 00 00
       0.0 0.0 0.0 0.0
000370 00 00 00 00 00 00 00 00 00 00 00 00 00 00 00 00
       0.0 0.0 0.0 0.0
000380 00 00 00 00 00 00 00 00 00 00 00 00 00 00 00 00
       0.0 0.0 0.0 0.0
000390 00 00 00 00 00 00 00 00 00 00 00 00 00 00 00 00
       0.0 0.0 0.0 0.0
0003a0 00 00 00 00 00 00 00 00 00 00 00 00 00 00 00 00
       0.0 0.0 0.0 0.0
0003b0 00 00 00 00 00 00 00 00 00 00 00 00 00 00 00 00
       0.0 0.0 0.0 0.0
0003c0 00 00 00 00 00 00 00 00 00 00 00 00 00 00 00 00
       0.0 0.0 0.0 0.0
0003d0 00 00 00 00 00 00 00 00 00 00 00 00 00 00 00 00
       0.0 0.0 0.0 0.0
0003e0 00 00 00 00 00 00 00 00 00 00 00 00 00 00 00 00
       0.0 0.0 0.0 0.0
0003f0 00 00 00 00 00 00 00 00 00 00 00 00 00 00 00 00
       0.0 0.0 0.0 0.0
