output/model_0.onnx (onnx, 608830 bytes, 7 tensors)

fc.weight f4 [4, 128]
000000 69 70 58 bd 17 1e 12 bd c8 1c cc bc 86 09 58 3d
       -0.052841578 -0.035673227 -0.024916068 0.052743457
000010 00 82 06 ba 92 f8 2e 3d b6 5e 52 3d 98 5a 5a 3c
       -0.0005131066 0.042717524 0.051359855 0.013327263
000020 f3 0e a4 bd fc 5c f8 bc 9f 36 99 3d 50 9e 65 bc
       -0.08010664 -0.030317776 0.07481121 -0.014014795
000030 8e 57 3e 3d 40 86 96 3b 10 37 97 bc cf 13 8f 3d
       0.046470217 0.0045936406 -0.018458873 0.069862
000040 28 2c ac bd b4 c7 65 bd b8 7c 2d 3c 9c 09 98 3c
       -0.0840686 -0.056098655 0.010588817 0.01855927
000050 00 bd b2 39 c5 2e a2 3d b6 13 4a 3d 04 0b a1 bc
       0.00034091622 0.07919077 0.049335204 -0.019658573
000060 59 ce aa 3d 40 32 18 3c f6 30 06 3d 20 6f 09 bd
       0.08340139 0.009289324 0.032761537 -0.033553243
000070 30 1e 14 bc 50 79 3f bc 0a 80 1b 3d ea 7a 14 3d
       -0.0090404 -0.011686638 0.037963904 0.036250032
000080 24 de a1 3c 0e 24 7a 3d d8 f8 b2 3c 9b d9 92 3d
       0.019759245 0.06106954 0.021847174 0.07170411
000090 74 fb 92 3c 68 5f ea 3c 41 e0 02 bd 49 b6 16 bd
       0.017942168 0.028609946 -0.031952146 -0.036794934
0000a0 f8 cd 00 bc 27 47 a0 bd f9 f9 9a bd 42 89 36 3d
       -0.007861607 -0.07826071 -0.0756721 0.044564493
0000b0 3e ba 48 3d 06 f4 31 3d 44 24 af 3c 88 de b2 bd
       0.04900574 0.04344561 0.021379597 -0.08733851
0000c0 07 af a8 bd a2 f4 54 3d f2 f9 57 3d f0 6e 9f 3b
       -0.08236509 0.051991113 0.0527286 0.0048655197
0000d0 ee 38 34 3d ba 2f 89 bd a9 06 9b 3d 9a 1c f3 bc
       0.043999605 -0.06698556 0.0756963 -0.029676724
0000e0 be 44 e3 bc 7d e8 82 3d 60 86 bd bc 53 96 aa 3d
       -0.02774274 0.06392 -0.023135364 0.08329453
0000f0 2a 57 7a bd 36 79 4a 3d be 91 aa bd 73 46 83 bd
       -0.061118282 0.049432002 -0.08328579 -0.064099215
000100 78 20 b2 bd 63 98 9a 3d 24 be 8b bd d8 27 25 3c
       -0.08697599 0.07548597 -0.06823376 0.0100803
000110 6c 18 8c bd 64 7a 83 bc 60 fb c1 bc 02 d5 56 3d
       -0.068405956 -0.016049571 -0.023679435 0.052449234
000120 55 63 4b bd d8 cb 48 bc 30 14 2f 3c 10 85 4e 3c
       -0.049655277 -0.012255631 0.010685965 0.012604967
000130 e0 29 0a bc 83 59 01 bd c3 8a 6b bd 96 0d 6a 3d
       -0.008432835 -0.031579506 -0.05750538 0.057141863
000140 b0 38 81 bb 3a c2 6b bd fd 3d b0 3d 26 d4 d8 bc
       -0.0039435253 -0.057558276 0.08605573 -0.026468348
000150 11 4a ab 3d 58 56 ef 3c fe d0 25 3d 1f 4c 03 bd
       0.083637364 0.029215977 0.040482514 -0.032055017
000160 17 dc a1 3d aa 5d 0a 3d d6 a6 1c 3d c8 6d 16 3c
       0.07903307 0.03378073 0.038245045 0.009181447
000170 6d c4 99 3d 4c 39 dc 3c b8 df d8 3c 14 2f d5 bc
       0.07508168 0.02688279 0.026473865 -0.026023425
000180 85 1c 9f bd b7 c0 b0 3d 0c 1f 33 bd 05 7e 80 3d
       -0.077691115 0.086305074 -0.04373078 0.06274036
000190 99 10 97 bd e2 9d 5b bd 4a e7 4b 3d 94 d2 06 3d
       -0.073762126 -0.053617366 0.04978112 0.032915667
0001a0 d2 bb 14 3d a8 6d 1e bc 3f 7c a4 3d 6b 96 13 bd
       0.036311932 -0.009669699 0.080315106 -0.03603212
0001b0 b7 e9 b2 bd d1 5e a4 3d 20 ed af 3b 08 58 c2 3c
       -0.08735984 0.08025897 0.0053688437 0.023723617
0001c0 ff 3a 8f 3d f1 01 a5 3d d8 a3 29 bc 09 4d 12 bd
       0.069936745 0.08057011 -0.010354005 -0.035717998
0001d0 d5 05 8d 3d ad 2c ad 3d 61 f7 00 bd 00 b6 af b9
       0.06885878 0.08455787 -0.03148592 -0.00033514202
0001e0 11 b0 27 bd 63 fd 2f bd aa 10 73 bd 7a 0a 5c 3d
       -0.040939394 -0.042966258 -0.059342064 0.05372093
0001f0 58 c9 4f bc a8 6c 41 bc 96 e5 38 3d 44 bf 94 bc
       -0.012682281 -0.011805691 0.045140825 -0.018157609
000200 a5 2d 6b bd 69 40 16 bd 74 6b aa bc 8a e3 75 3d
       -0.057416577 -0.03668252 -0.02080319 0.06003145
000210 90 b8 ef bb f1 4a b1 bd a0 73 6d 3c 1b 99 81 3d
       -0.0073157027 -0.08656872 0.014492899 0.06328031
000220 2a f2 27 3d 35 f1 64 bd fc e5 c3 3c 99 cc a1 3d
       0.04100243 -0.055894095 0.023913376 0.07900352
000230 50 2f 89 3b 31 94 b4 3d 4f 20 a8 bd f0 b7 7c bd
       0.0041865483 0.08817328 -0.082092874 -0.061698854
000240 72 65 74 3d e0 a8 0c bc 68 b0 89 bc d0 63 83 bc
       0.05966706 -0.008585185 -0.01680775 -0.016038805
000250 29 03 97 3d 52 2f 7e 3d 14 cd 0e bd 70 a0 30 3c
       0.073736496 0.062056847 -0.034863546 0.010780439
000260 63 f0 08 bd a3 99 5e bd 40 04 9b 3c 10 7b da 3b
       -0.033432376 -0.05434574 0.018922925 0.006667502
000270 7c 08 61 bd 00 58 69 b9 8a 71 44 3d 80 a1 d1 ba
       -0.054939732 -0.00022253394 0.04795984 -0.0015993565
000280 bc 0d d4 bc a7 b4 2b bd ca fc 79 bd 84 ff ac 3c
       -0.025885455 -0.04192033 -0.061032094 0.021117933
000290 38 ea b4 bd 49 8f 03 bd a8 67 ec bc 8a d1 60 3d
       -0.08833736 -0.03211907 -0.02885802 0.054887332
0002a0 9c e4 e5 3c b4 bc aa 3c 12 b5 26 3d 10 64 12 3d
       0.028063111 0.020841934 0.040700026 0.03573996
0002b0 d5 fd 13 bd ae 37 10 3d fc 13 a6 bc 8a 46 08 bd
       -0.036130745 0.03520935 -0.020273201 -0.033270396
0002c0 fb db 41 bd b8 b9 97 bd 59 e2 79 bd 42 e3 4e 3d
       -0.04732893 -0.0740847 -0.061006878 0.0505097
0002d0 d5 a5 88 bd e2 a5 86 bd 26 7a 06 3d 9c 69 8f bc
       -0.06672255 -0.065746084 0.032831334 -0.017506413
0002e0 a5 d4 34 bd 38 44 cc 3c 40 8e ed bb 40 5e 5f 3b
       -0.044148106 0.024934873 -0.0072496235 0.0034083277
0002f0 a0 d6 94 3b d6 f2 4d 3d 94 0f b1 3c ad 32 94 bd
       0.004542187 0.050280415 0.021613874 -0.07236228
000300 c0 26 08 3c 0c 36 9f bd fb 82 84 3d 64 c5 c6 bc
       0.00831002 -0.077739805 0.06470295 -0.024264045
000310 78 73 0a bc 05 15 81 3d c8 01 c8 3c 1e 73 4f 3d
       -0.008450381 0.06302837 0.024414912 0.050646894
000320 56 74 54 3d 17 8f 74 bd 37 98 a6 3d 74 5c 82 3c
       0.05186876 -0.059706774 0.081345014 0.015913226
000330 54 cf d3 3c 80 27 30 3c 62 ba 50 3d 9a 38 18 3d
       0.025855698 0.010751605 0.050959 0.037163354
000340 ae 2b 44 3d 53 00 88 3d 70 3d c3 3c a0 10 bd 3c
       0.04789322 0.06640687 0.023833007 0.023079216
000350 6a 85 0c 3d 80 3e ba 3b b3 21 2c bd d8 fa 8d bd
       0.03430692 0.00568372 -0.042024326 -0.0693261
000360 2e dc 4a 3d aa 3f 5b 3d 8f e7 54 bd 48 79 68 bc
       0.049526386 0.05352751 -0.051978644 -0.014189072
000370 d4 b0 2b bd f3 98 a2 bd fa c0 72 3d 24 0c 2d bd
       -0.041916683 -0.07939329 0.059266068 -0.042247906
000380 c4 b4 c3 bc b0 00 c3 3b 2d 01 5a bd 0a 1e 37 bd
       -0.023889907 0.0059510097 -0.053223778 -0.04470638
000390 c0 b2 e1 3a 30 16 df bb 4b f9 32 bd 88 79 be 3c
       0.0017219409 -0.006808065 -0.043694776 0.02325131
0003a0 b2 f5 a9 bd 7a b8 30 3d 64 8c c8 bc 68 6e d0 3c
       -0.08298816 0.04314468 -0.024481006 0.02544327
0003b0 58 19 2c 3c 79 a6 9d bd b0 3a ed bb 80 ad 95 3b
       0.010504089 -0.07697768 -0.007239662 0.004567802
0003c0 a0 0b 99 3b 59 25 1b bd e2 5c b2 bd 12 8e 28 3d
       0.0046705753 -0.037877414 -0.08709122 0.041151114
0003d0 83 02 2a bd f5 f6 31 bd 00 fd 54 ba ee 58 36 3d
       -0.0415063 -0.043448407 -0.0008124858 0.044518404
0003e0 8c a9 a9 3c bc d6 0e 3d 59 99 86 3d d2 36 68 bd
       0.020710729 0.034872755 0.065722175 -0.056692906
0003f0 20 89 65 3b 80 6e 08 3d 58 22 6d bc d8 b0 e2 3c
       0.003502436 0.033308506 -0.01447352 0.027672216

fc.bias f4 [4]
000000 52 6c 73 3d 20 bc c8 3b 8b b0 07 bd b7 e3 aa 3d
       0.059429474 0.006125942 -0.03312735 0.083442144

onnx::GRU_172 f4 [1, 384, 7]
000000 9a ff c7 bd 80 82 e8 3d 7d 68 a4 bd 6c dd 7e bd
       -0.09765549 0.11353016 -0.08027742 -0.062222883
000010 24 5b 8a 3d e4 81 94 bc e2 9e d5 bd 10 04 40 bd
       0.06755665 -0.018128343 -0.10430695 -0.046878874
000020 d8 b2 4a 3d 00 30 1c ba 70 db b0 3c b8 6e b2 3c
       0.049486965 -0.00059580803 0.021589011 0.02178131
000030 6f eb ad bd 44 14 51 3d f6 39 b8 bd ac 8c a5 bd
       -0.08492171 0.051044717 -0.0899543 -0.08083472
000040 5c 6c 8f bc 0e de 8e bd 08 35 06 bd ee c1 57 bd
       -0.017507724 -0.06975947 -0.03276542 -0.05267518
000050 d0 9f 05 3c 60 4d 54 bb 5a 6c bb 3d 98 bd 59 3d
       0.008155778 -0.0032394752 0.09151526 0.053159326
000060 e8 55 51 3d b3 65 ca bd b5 dc c7 bd ee 82 f8 bd
       0.051107317 -0.09882679 -0.097588934 -0.12134348
000070 8a e6 ce 3d 20 2c 22 bc 22 62 da 3d 2c e2 a7 3d
       0.101025656 -0.0098982155 0.106632486 0.08197436
000080 b9 e6 e1 bd 10 1b 1f 3c c8 b5 0f 3d 84 7b e8 bc
       -0.11030335 0.009711042 0.03508547 -0.02837921
000090 99 b9 e6 bd ad 91 e7 bd a4 94 6b bd 84 03 d5 bd
       -0.11265869 -0.11307082 -0.0575148 -0.10401061
0000a0 64 00 0e bd 7c 39 a9 3d 1e 5e 79 bd 38 68 8b 3c
       -0.03466834 0.082629174 -0.060880773 0.017017469
0000b0 46 d1 07 bd 00 78 71 3d a4 ea 55 3d 80 26 89 ba
       -0.033158563 0.05895233 0.052225724 -0.0010463744
0000c0 7c d1 f9 3d a8 16 c2 3c 58 27 60 3d ac 03 fc 3d
       0.12198159 0.023692444 0.05472502 0.12305388
0000d0 80 c6 5b bc 50 f3 cc bc 30 e7 54 3c 60 be 32 3d
       -0.013414025 -0.025018364 0.0129945725 0.043638587
0000e0 5a e1 a1 bd 40 c3 7c 3b c8 0a e6 3c c0 1d 45 3b
       -0.079043105 0.0038568527 0.028081313 0.0030077547
0000f0 54 d3 d8 bc fc 7a 45 3d 5c 14 b2 bc a0 2e b1 3d
       -0.026467957 0.04821299 -0.021738224 0.08651471
000100 cf e2 dc bd 3e 3d ad 3d 34 0b ea 3d 18 de 3e bc
       -0.10785448 0.08458947 0.11427918 -0.011649631
000110 02 18 9c 3d 7c 9b 02 3d 80 a9 2b bd 50 2d c0 3d
       0.076217666 0.031886563 -0.041909695 0.09383643
000120 e0 b5 56 3d 60 a0 5e 3d f4 85 00 bd a0 57 86 3d
       0.052419543 0.054352164 -0.031377748 0.06559682
000130 30 59 c4 3d b0 4e 34 3d b0 e9 6d 3c 94 66 39 3d
       0.09587324 0.044020355 0.0145210475 0.04526384
000140 14 bc 48 bd 88 51 6b 3d c0 01 07 3c 10 c2 d0 bc
       -0.04900749 0.0574508 0.008240163 -0.025483161
000150 6a 8b 28 bd a0 75 59 bc 08 39 31 bc 80 a0 f4 3b
       -0.04114858 -0.013272673 -0.01081682 0.007465422
000160 b8 c9 59 bd 0c 66 80 3d fe 46 f4 3d 6a 5e f5 3d
       -0.05317089 0.06269464 0.11927603 0.11980899
000170 9a 36 8d bd 34 f9 80 bc b8 9e 46 3d 08 21 7c bc
       -0.0689518 -0.01574383 0.04849121 -0.015388735
000180 12 d9 14 bd 98 be 61 bd 8a e0 fa 3d ec 71 71 3d
       -0.036339827 -0.055113405 0.12249859 0.058946535
000190 3c 31 5f 3d f0 61 8b bd 84 d6 9c bd 22 cc 86 bd
       0.054490313 -0.068057895 -0.07658103 -0.06581904
0001a0 f4 25 c1 bc 36 b3 81 bd e4 d6 56 bd b0 84 24 bd
       -0.023577668 -0.0633301 -0.05245103 -0.040165603
0001b0 93 57 e8 bd 80 86 03 3d 40 d3 58 3b 22 89 9f bd
       -0.113448285 0.03211069 0.00330849 -0.07789828
0001c0 64 3f 26 3d c8 ec fd 3c c0 c2 f8 3b c4 e6 88 3d
       0.040587798 0.030996695 0.0075915754 0.0668464
0001d0 8f c8 9c bd 78 28 ba bd 38 d5 b9 bc 9a 0d c3 3d
       -0.07655441 -0.0908975 -0.022684678 0.09524079
0001e0 b0 fe 56 bd 38 73 92 bd 80 cd cb bd 8b 7f 8f bd
       -0.052488983 -0.071508825 -0.099513054 -0.07006749
0001f0 4e a4 7f bd d2 db f8 bd 9e 8b a7 bd d8 09 ee bd
       -0.062412553 -0.121513024 -0.08180927 -0.11622971
000200 28 5b 13 3d b4 34 98 bc 09 e4 7e bd b0 7a 1c 3c
       0.035975605 -0.018579818 -0.06222919 0.009550735
000210 20 85 4e bd 1e 87 97 bd f8 8a d3 3d 74 9d fb 3d
       -0.050419927 -0.073988184 0.103292406 0.12285891
000220 46 a8 68 bd 74 56 9b 3d c0 6d 07 3c 68 e0 98 bd
       -0.056801103 0.07584849 0.0082659125 -0.07464677
000230 3b 1a e0 bd 18 3b 3b 3d 00 c6 57 bb 1e 63 9e 3d
       -0.10942503 0.045710653 -0.0032924414 0.07733749
000240 c8 ef 95 3c f8 82 2a 3d 34 dc cb bd 48 35 c0 3d
       0.018302813 0.041628808 -0.0995411 0.093851626
000250 ac 7c a6 3d e8 9a 94 3d 70 99 a3 3c b4 23 cc 3d
       0.08129248 0.072561085 0.019970626 0.09967747
000260 00 ef 37 bc 00 b9 bd 3d 18 e7 ec 3c 00 83 1c 3c
       -0.011226416 0.092638016 0.028918788 0.009552717
000270 fc bd db bd 18 10 ee 3c ea 9f 95 bd a9 42 8e bd
       -0.10729596 0.029060408 -0.07305892 -0.06946308
000280 5c 55 8b bd 1c 62 88 bc 50 8a d6 bb 88 7d bc 3d
       -0.068033904 -0.016648345 -0.00654725 0.09203631
000290 fa 6c d9 3d a1 11 87 bd c4 36 5a 3d 4c 6d 26 3d
       0.10616489 -0.06595159 0.053274885 0.040631577
0002a0 00 3b c0 3a 60 bc a4 3c b4 1d af bd 5e f8 d6 3d
       0.0014666021 0.020109355 -0.08550587 0.10496591
0002b0 de d3 17 bd f0 96 8e 3d 2e 14 9f 3d c0 59 57 3d
       -0.037067287 0.06962383 0.07767521 0.052575827
0002c0 20 6a 9d 3c a0 f7 d6 3c 84 3c 71 3d de c6 95 bd
       0.019215643 0.026241124 0.058895603 -0.073133215
0002d0 8e 05 e8 3d a4 99 da 3d 2a 71 a9 bd d3 c1 92 bd
       0.113291845 0.10673836 -0.082735375 -0.07165875
0002e0 08 9d 91 3d 7a 06 c5 bd 40 92 c0 bd b4 37 f7 3d
       0.071100295 -0.09620376 -0.09402895 0.120711714
0002f0 b8 99 19 bc 46 19 60 bd c2 25 45 bd 83 3a b5 bd
       -0.009375028 -0.054711603 -0.04813171 -0.08849051
000300 c8 e8 8d 3d 5a 81 a7 bd 54 71 05 3d 28 2a 63 3d
       0.06929165 -0.08178969 0.03257878 0.055460125
000310 1e 7c d7 3d 80 d3 e9 3a 40 a5 00 3d 8c cf 29 3d
       0.1052172 0.0017839521 0.031407595 0.041457698
000320 10 c0 9d bd 60 49 2b 3d fc e8 7f 3d 24 c5 cc bc
       -0.07702649 0.041818023 0.06247805 -0.024996348
000330 f4 9b e1 3d f8 e5 ce 3d 5a 02 03 bd 34 e4 eb bd
       0.11016074 0.10102457 -0.031984664 -0.11518136
000340 91 2e a8 bd 55 96 97 bd fa 71 d8 3d 10 38 49 3c
       -0.08212007 -0.074017204 0.10568614 0.012281433
000350 48 2e 16 bc 62 46 3a bd f0 ab 24 bc 10 2b 89 3d
       -0.009166308 -0.04547728 -0.010050759 0.06697667
000360 18 c4 e4 bc 1e ff 0c bd 5c a1 a6 bd 98 22 f2 3c
       -0.027925536 -0.034422986 -0.081362456 0.029557511
000370 30 a3 09 3d e0 b9 21 bb 42 08 ca bd ac 39 d3 bc
       0.033602893 -0.002467744 -0.09864856 -0.025784336
000380 40 3b d1 bc 32 ca 90 3d 40 75 6a 3b d4 bd ea 3d
       -0.025540948 0.07069816 0.0035775453 0.11461988
000390 34 03 0e 3d 36 11 cc 3d d9 0b f1 bd f2 36 a4 3d
       0.034671023 0.0996422 -0.11769838 0.080182925
0003a0 80 48 fe bb 42 74 cd 3d 38 36 c4 3d eb f7 d4 bd
       -0.0077601075 0.1003194 0.09580654 -0.10398849
0003b0 ee e4 c5 3d 96 f3 a4 3d b2 b6 bc 3d 07 c0 da bd
       0.096628055 0.08054273 0.09214534 -0.106811576
0003c0 03 e3 9d bd 80 5b 14 3c 64 44 7d 3d 08 84 cd bc
       -0.07709315 0.009055018 0.0618328 -0.025087371
0003d0 b8 f4 d7 bc de 15 fd bd d4 6f d7 bd cb 09 88 bd
       -0.026361808 -0.123576865 -0.105193764 -0.06642493
0003e0 2c 0d 4e 3d 20 d3 6f bd 48 db 40 bd 67 66 f1 bd
       0.05030553 -0.058550954 -0.047084123 -0.1178711
0003f0 0e 4c d0 3d 08 1d cb 3d 38 39 c8 3c a0 ed 0c 3c
       0.10170756 0.09917647 0.024441347 0.008601576

onnx::GRU_173 f4 [1, 384, 128]
000000 0d 2d d1 3d 43 79 da 3d 39 cc 90 3d 5b 50 a3 bd
       0.10213671 0.1066766 0.070702024 -0.07974311
000010 aa 78 08 3d 8c fd bb 3c bc 8a 95 3c ee e0 11 3d
       0.0333182 0.022948049 0.01825463 0.0356149
000020 ca 6b be bd 95 02 dc bd 24 b8 cd bc 7f 85 49 bd
       -0.09297903 -0.1074268 -0.02511222 -0.049199577
000030 1a 1c 51 bd e7 bc 8c 3d ee 84 2b 3d 50 b7 80 bd
       -0.05105219 0.06871968 0.04187482 -0.06284964
000040 4c d8 c3 bc 20 af ac bc 4b 43 86 3d 60 39 c7 bc
       -0.02390685 -0.0210796 0.06555804 -0.02431935
000050 6d 2e db 3d 06 8c 3c 3d 1e 69 44 3d f9 11 d6 bd
       0.107022144 0.046031974 0.04795181 -0.10452647
000060 6a 0b 42 3d aa 8a 09 3d 0d a1 8c 3d 8a 35 91 bd
       0.047374167 0.033579506 0.068666555 -0.0709029
000070 68 50 03 bc a2 d8 be bd 20 15 d7 bb c0 a0 eb ba
       -0.008014776 -0.09318663 -0.0065637976 -0.0017976984
000080 24 a0 7f bd e0 c8 91 bd 7e 67 34 3d 40 3a 1d 3c
       -0.06240858 -0.07118392 0.04404401 0.009596407
000090 be 71 27 3d 52 48 b8 bd 1a cf 0c bd f3 2a 8e 3d
       0.040879957 -0.08998169 -0.034377195 0.06941786
0000a0 d0 46 d6 bd 1e 4b 4a 3d 48 8b 26 3c 02 2d 09 3d
       -0.10462725 0.049388044 0.010165043 0.03349019
0000b0 6a 59 40 3d 80 9d ad bc 80 f7 de 3b 81 6d a0 3d
       0.046960272 -0.021193266 0.0068044066 0.07833386
0000c0 5d 40 91 3d ee ab 74 3d 2d bb c6 3d da 35 11 3d
       0.070923544 0.059734277 0.0970367 0.035451747
0000d0 84 a4 1e bd bb e6 a0 3d 40 58 c6 bb 75 e6 d1 3d
       -0.038731113 0.07856508 -0.0060530007 0.10249034
0000e0 cf 4e c1 bd 1a 73 3d 3d 8f 9c 9f 3d e0 52 83 3b
       -0.0943886 0.046252348 0.07793533 0.004007682
0000f0 8c b3 c5 bc f8 f4 1f 3c d0 fc b9 bd 8a 0e 65 3d
       -0.024133466 0.009762995 -0.09081423 0.05592207
000100 02 cd 53 3d 34 75 9b 3c ce cc 44 3d a0 f7 ee bc
       0.051709183 0.018976785 0.04804688 -0.029170811
000110 34 9e c7 bd 4b 95 c9 3d ab 03 c0 3d 52 35 8c bd
       -0.09746972 0.098429285 0.093756996 -0.068461075
000120 11 5c bc 3d d4 3b 9e bd c5 9d b8 3d 00 d4 b4 3a
       0.09197248 -0.07726255 0.09014467 0.0013796091
000130 26 7d 37 bd 2e 74 73 bd 2f fc aa bd 48 e9 07 bc
       -0.044797085 -0.05943697 -0.083488815 -0.008295365
000140 44 e9 46 bd 8b 74 b9 3d fe 7b 49 3d e1 ab b6 3d
       -0.048562303 0.09055432 0.049190514 0.08919502
000150 af 45 c1 3d a3 51 6e bd a5 bf bd 3d 53 4e 87 3d
       0.09437119 -0.058183324 0.09265069 0.06606736
000160 b0 2c df 3b 4d ab a6 3d 90 13 99 bd f0 e5 78 3c
       0.006810747 0.08138142 -0.074744344 0.01519154
000170 7c a9 b0 3c 5c 0e a2 3c cc f7 10 bd 86 21 38 3d
       0.021565191 0.019782238 -0.035392568 0.044953845
000180 2f 1a 79 bd a2 f9 91 bd c2 13 31 3d 4d 95 a1 3d
       -0.060815986 -0.07127692 0.043231733 0.07889805
000190 a3 13 9d 3d 3a 92 ac bd 89 06 db 3d 58 e8 4c bc
       0.07669761 -0.08426328 0.10694606 -0.012506567
0001a0 2c 30 a6 bc c1 2f aa 3d d9 0d a6 3d 0e 45 d2 bd
       -0.020286642 0.083098896 0.0810811 -0.102670774
0001b0 88 9c 22 bc b7 fb ca bd a2 c2 4e bd 77 03 ad 3d
       -0.009925015 -0.09911292 -0.050478585 0.084479265
0001c0 98 b7 35 bc 33 5b b6 3d 85 8f d1 3d 20 5f 0b bd
       -0.011091135 0.089041136 0.10232452 -0.034026265
0001d0 10 89 c2 bc 81 5b 9f 3d 1a 76 15 bd ad 4d a5 3d
       -0.023746997 0.07781125 -0.036489584 0.08071456
0001e0 eb 48 d7 3d 98 ac 04 3c 89 7d b0 3d 74 e0 8b 3c
       0.10511955 0.00809779 0.08617694 0.017074801
0001f0 c0 6e c6 bb 54 77 c0 3c 08 4f 29 bd 64 c9 d4 3c
       -0.006055683 0.0234944 -0.041335136 0.025974937
000200 5e fc 70 3d 2b 6c cf 3d 1b 70 a1 bd b4 57 6f bd
       0.058834426 0.10128053 -0.078827105 -0.05843325
000210 e0 22 d2 3b f4 60 7e bd 34 7e 8c 3c 16 2b 54 3d
       0.006412849 -0.06210418 0.017150022 0.051798902
000220 18 37 24 bc d1 88 84 3d 17 95 9a 3d c0 b8 76 bb
       -0.010022901 0.06471408 0.07547968 -0.003764674
000230 3e 1a 34 bd 0e 63 4a 3d b0 54 68 bc 42 a3 b4 bd
       -0.04397034 0.049410872 -0.014180347 -0.088202015
000240 6a 3a 97 bd 02 54 ad bd 93 49 cd bd 6a 54 46 3d
       -0.073841885 -0.08463289 -0.10023799 0.048420347
000250 54 9a cf bd 51 66 ad bd ef d7 bc bd a6 70 1b 3d
       -0.10136858 -0.08466781 -0.092208736 0.037949227
000260 02 a9 93 bd b6 69 a2 bd d4 49 06 bd af 3d af 3d
       -0.0720997 -0.07930319 -0.03278525 0.08556687
000270 5c 7a 95 bd 80 19 a5 bc 8e c1 5d 3d 36 86 50 bd
       -0.07298729 -0.02015376 0.054139666 -0.050909244
000280 93 10 ba 3d 26 00 01 3d 89 ec 48 bd f4 47 b5 bd
       0.090851925 0.031494282 -0.049053703 -0.088516146
000290 85 eb 94 3d f3 9e 86 3d 0a 85 8c bd 25 ac aa bd
       0.07271484 0.06573286 -0.06861313 -0.08333615
0002a0 60 f9 40 bb 50 f6 b9 3b 86 74 da bd d7 6e 90 3d
       -0.0029445514 0.0056751147 -0.10666756 0.07052391
0002b0 ba 15 0e bd 9a e3 41 3d 5c 42 c0 3c 92 61 74 3d
       -0.03468869 0.0473362 0.023469143 0.059663363
0002c0 a8 8b 70 bd 87 2b c1 3d d8 58 a5 bd 41 99 8e 3d
       -0.058726937 0.0943213 -0.08073586 0.069628246
0002d0 af a0 97 3d 3f 61 b2 3d f6 60 12 3d 20 f2 e5 bb
       0.07403695 0.087099545 0.035737 -0.007017389
0002e0 f1 83 d4 3d 25 a2 db bd 28 3e d7 bd 40 87 31 3b
       0.10376728 -0.10724286 -0.10509902 0.0027088672
0002f0 f1 32 d9 3d ca ae 20 3d 74 df ed 3c d4 a4 f8 3c
       0.106054194 0.03922919 0.029037215 0.030352034
000300 c0 0b 2e bc e2 4a 59 bd 2f 7d db bd 4d a6 cc bd
       -0.010622919 -0.05304993 -0.10717236 -0.09992657
000310 e0 c9 3b bc bd 99 bd bd 52 48 65 bd 22 01 04 bd
       -0.011461705 -0.09257839 -0.055977173 -0.032227643
000320 09 29 bc 3d 80 c7 1e bb f8 f8 66 3c 69 f4 8a 3d
       0.09187514 -0.0024227798 0.014097445 0.06784899
000330 07 c9 c4 bd 99 bb b2 3d 65 e1 bc 3d 4f 86 d8 bd
       -0.096086554 0.08727188 0.09222678 -0.10572492
000340 74 a3 db bc a6 fb 06 3d 28 3e 60 bd 4c f1 9e 3c
       -0.026811339 0.032954834 -0.054746777 0.019402169
000350 ba d3 78 3d 34 9d ea 3c ea dd 3b 3d 28 13 93 bc
       0.060748793 0.028639413 0.04586593 -0.01795347
000360 17 6d c6 bd 17 ff 80 3d 9c 59 23 bd c3 e1 d0 3d
       -0.09688776 0.062986545 -0.03988038 0.10199311
000370 c3 3f 40 bd 1c 37 ff 3c 7a 1d 2e 3d 45 ca c5 3d
       -0.046935808 0.031154208 0.04250858 0.096577205
000380 8d c6 93 3d 57 28 92 3d 4c 7f e6 bc 1a be 1d 3d
       0.07215605 0.071366005 -0.028136872 0.038511373
000390 dc cb 84 3c d0 80 b8 bc 5f bd b8 3d c7 57 cc 3d
       0.016210489 -0.02252236 0.09020495 0.0997768
0003a0 9c 24 fa 3c e0 3a 7c 3b 0e 87 71 3d 45 ed da 3d
       0.030535035 0.003848724 0.05896669 0.10689787
0003b0 fc 05 81 3c 4f 94 6f bd af d1 b2 bd dc 0c a6 3c
       0.015749924 -0.058491047 -0.087314 0.020269804
0003c0 ef 0b ca 3d 30 e0 bf 3b 0b bf 94 3d e4 68 05 bd
       0.098655574 0.0058555827 0.07263001 -0.032570735
0003d0 eb e9 b9 3d b4 2f c6 3c c4 01 b6 3c c9 02 7b bd
       0.090778194 0.024192668 0.022217639 -0.061281953
0003e0 6e 39 b8 bd 70 ec 3f 3c 21 49 a3 3d 20 94 cd bc
       -0.08995329 0.011714086 0.079729326 -0.025095046
0003f0 a4 b3 bf bd be 4c 5e 3d 50 28 55 bc ea b5 06 3d
       -0.093604356 0.054272406 -0.0130100995 0.03288833

onnx::GRU_174 f4 [1, 768]
000000 00 00 00 00 00 00 00 00 00 00 00 00 00 00 00 00
       0.0 0.0 0.0 0.0
000010 00 00 00 00 00 00 00 00 00 00 00 00 00 00 00 00
       0.0 0.0 0.0 0.0
000020 00 00 00 00 00 00 00 00 00 00 00 00 00 00 00 00
       0.0 0.0 0.0 0.0
000030 00 00 00 00 00 00 00 00 00 00 00 00 00 00 00 00
       0.0 0.0 0.0 0.0
000040 00 00 00 00 00 00 00 00 00 00 00 00 00 00 00 00
       0.0 0.0 0.0 0.0
000050 00 00 00 00 00 00 00 00 00 00 00 00 00 00 00 00
       0.0 0.0 0.0 0.0
000060 00 00 00 00 00 00 00 00 00 00 00 00 00 00 00 00
       0.0 0.0 0.0 0.0
000070 00 00 00 00 00 00 00 00 00 00 00 00 00 00 00 00
       0.0 0.0 0.0 0.0
000080 00 00 00 00 00 00 00 00 00 00 00 00 00 00 00 00
       0.0 0.0 0.0 0.0
000090 00 00 00 00 00 00 00 00 00 00 00 00 00 00 00 00
       0.0 0.0 0.0 0.0
0000a0 00 00 00 00 00 00 00 00 00 00 00 00 00 00 00 00
       0.0 0.0 0.0 0.0
0000b0 00 00 00 00 00 00 00 00 00 00 00 00 00 00 00 00
       0.0 0.0 0.0 0.0
0000c0 00 00 00 00 00 00 00 00 00 00 00 00 00 00 00 00
       0.0 0.0 0.0 0.0
0000d0 00 00 00 00 00 00 00 00 00 00 00 00 00 00 00 00
       0.0 0.0 0.0 0.0
0000e0 00 00 00 00 00 00 00 00 00 00 00 00 00 00 00 00
       0.0 0.0 0.0 0.0
0000f0 00 00 00 00 00 00 00 00 00 00 00 00 00 00 00 00
       0.0 0.0 0.0 0.0
000100 00 00 00 00 00 00 00 00 00 00 00 00 00 00 00 00
       0.0 0.0 0.0 0.0
000110 00 00 00 00 00 00 00 00 00 00 00 00 00 00 00 00
       0.0 0.0 0.0 0.0
000120 00 00 00 00 00 00 00 00 00 00 00 00 00 00 00 00
       0.0 0.0 0.0 0.0
000130 00 00 00 00 00 00 00 00 00 00 00 00 00 00 00 00
       0.0 0.0 0.0 0.0
000140 00 00 00 00 00 00 00 00 00 00 00 00 00 00 00 00
       0.0 0.0 0.0 0.0
000150 00 00 00 00 00 00 00 00 00 00 00 00 00 00 00 00
       0.0 0.0 0.0 0.0
000160 00 00 00 00 00 00 00 00 00 00 00 00 00 00 00 00
       0.0 0.0 0.0 0.0
000170 00 00 00 00 00 00 00 00 00 00 00 00 00 00 00 00
       0.0 0.0 0.0 0.0
000180 00 00 00 00 00 00 00 00 00 00 00 00 00 00 00 00
       0.0 0.0 0.0 0.0
000190 00 00 00 00 00 00 00 00 00 00 00 00 00 00 00 00
       0.0 0.0 0.0 0.0
0001a0 00 00 00 00 00 00 00 00 00 00 00 00 00 00 00 00
       0.0 0.0 0.0 0.0
0001b0 00 00 00 00 00 00 00 00 00 00 00 00 00 00 00 00
       0.0 0.0 0.0 0.0
0001c0 00 00 00 00 00 00 00 00 00 00 00 00 00 00 00 00
       0.0 0.0 0.0 0.0
0001d0 00 00 00 00 00 00 00 00 00 00 00 00 00 00 00 00
       0.0 0.0 0.0 0.0
0001e0 00 00 00 00 00 00 00 00 00 00 00 00 00 00 00 00
       0.0 0.0 0.0 0.0
0001f0 00 00 00 00 00 00 00 00 00 00 00 00 00 00 00 00
       0.0 0.0 0.0 0.0
000200 00 00 00 00 00 00 00 00 00 00 00 00 00 00 00 00
       0.0 0.0 0.0 0.0
000210 00 00 00 00 00 00 00 00 00 00 00 00 00 00 00 00
       0.0 0.0 0.0 0.0
000220 00 00 00 00 00 00 00 00 00 00 00 00 00 00 00 00
       0.0 0.0 0.0 0.0
000230 00 00 00 00 00 00 00 00 00 00 00 00 00 00 00 00
       0.0 0.0 0.0 0.0
000240 00 00 00 00 00 00 00 00 00 00 00 00 00 00 00 00
       0.0 0.0 0.0 0.0
000250 00 00 00 00 00 00 00 00 00 00 00 00 00 00 00 00
       0.0 0.0 0.0 0.0
000260 00 00 00 00 00 00 00 00 00 00 00 00 00 00 00 00
       0.0 0.0 0.0 0.0
000270 00 00 00 00 00 00 00 00 00 00 00 00 00 00 00 00
       0.0 0.0 0.0 0.0
000280 00 00 00 00 00 00 00 00 00 00 00 00 00 00 00 00
       0.0 0.0 0.0 0.0
000290 00 00 00 00 00 00 00 00 00 00 00 00 00 00 00 00
       0.0 0.0 0.0 0.0
0002a0 00 00 00 00 00 00 00 00 00 00 00 00 00 00 00 00
       0.0 0.0 0.0 0.0
0002b0 00 00 00 00 00 00 00 00 00 00 00 00 00 00 00 00
       0.0 0.0 0.0 0.0
0002c0 00 00 00 00 00 00 00 00 00 00 00 00 00 00 00 00
       0.0 0.0 0.0 0.0
0002d0 00 00 00 00 00 00 00 00 00 00 00 00 00 00 00 00
       0.0 0.0 0.0 0.0
0002e0 00 00 00 00 00 00 00 00 00 00 00 00 00 00 00 00
       0.0 0.0 0.0 0.0
0002f0 00 00 00 00 00 00 00 00 00 00 00 00 00 00 00 00
       0.0 0.0 0.0 0.0
000300 00 00 00 00 00 00 00 00 00 00 00 00 00 00 00 00
       0.0 0.0 0.0 0.0
000310 00 00 00 00 00 00 00 00 00 00 00 00 00 00 00 00
       0.0 0.0 0.0 0.0
000320 00 00 00 00 00 00 00 00 00 00 00 00 00 00 00 00
       0.0 0.0 0.0 0.0
000330 00 00 00 00 00 00 00 00 00 00 00 00 00 00 00 00
       0.0 0.0 0.0 0.0
000340 00 00 00 00 00 00 00 00 00 00 00 00 00 00 00 00
       0.0 0.0 0.0 0.0
000350 00 00 00 00 00 00 00 00 00 00 00 00 00 00 00 00
       0.0 0.0 0.0 0.0
000360 00 00 00 00 00 00 00 00 00 00 00 00 00 00 00 00
       0.0 0.0 0.0 0.0
000370 00 00 00 00 00 00 00 00 00 00 00 00 00 00 00 00
       0.0 0.0 0.0 0.0
000380 00 00 00 00 00 00 00 00 00 00 00 00 00 00 00 00
       0.0 0.0 0.0 0.0
000390 00 00 00 00 00 00 00 00 00 00 00 00 00 00 00 00
       0.0 0.0 0.0 0.0
0003a0 00 00 00 00 00 00 00 00 00 00 00 00 00 00 00 00
       0.0 0.0 0.0 0.0
0003b0 00 00 00 00 00 00 00 00 00 00 00 00 00 00 00 00
       0.0 0.0 0.0 0.0
0003c0 00 00 00 00 00 00 00 00 00 00 00 00 00 00 00 00
       0.0 0.0 0.0 0.0
0003d0 00 00 00 00 00 00 00 00 00 00 00 00 00 00 00 00
       0.0 0.0 0.0 0.0
0003e0 00 00 00 00 00 00 00 00 00 00 00 00 00 00 00 00
       0.0 0.0 0.0 0.0
0003f0 00 00 00 00 00 00 00 00 00 00 00 00 00 00 00 00
       0.0 0.0 0.0 0.0

onnx::GRU_192 f4 [1, 384, 128]
000000 06 12 b5 bd f8 35 c2 bd c8 d0 91 bc 52 e0 6d 3d
       -0.08841328 -0.0948295 -0.01779975 0.058075257
000010 d8 b5 01 3c a4 ba ad 3c 6e b5 ac bd 1f 41 ae 3d
       0.00791689 0.021207161 -0.084330425 0.085085146
000020 6c a4 ca 3c a7 bb b2 3d 78 83 61 bc ef 8d a2 3d
       0.024736606 0.08727198 -0.013764255 0.07937228
000030 6c ec c8 bd 0e 99 51 3d be 12 83 bd de 00 73 3d
       -0.09810719 0.051171355 -0.06400059 0.059327
000040 90 6a ca bd c0 5c c8 bb 99 9e 8a 3d 5a 71 40 3d
       -0.098836064 -0.0061145723 0.06768531 0.0469831
000050 a4 fc a7 3c 15 db c3 3d 16 4f 5b bd b6 e7 a7 bd
       0.02050621 0.09563271 -0.05354222 -0.08198492
000060 2e 97 0f bd 63 c4 91 3d 83 84 bd 3d 03 0a be 3d
       -0.035056286 0.07117536 0.0925379 0.09279253
000070 18 96 89 bc 82 99 95 bd a0 9d ad 3b 7f 22 c1 3d
       -0.016795203 -0.0730467 0.0052983314 0.09430408
000080 c7 b8 db 3d 28 12 8f bd 04 09 e6 3c 6e eb 2f 3d
       0.10728603 -0.06985885 0.02808047 0.042949133
000090 ef 35 8e 3d 90 22 69 bc a8 55 52 3c 29 dc 99 bd
       0.06943881 -0.014229432 0.012837805 -0.07512695
0000a0 4c e6 b4 bd 9c 37 e5 bc 9a 0f 91 bd 66 0e 48 3d
       -0.08832988 -0.027980618 -0.07083054 0.048841856
0000b0 c0 9c 69 3c f2 20 55 3d f2 f5 34 bd 3a b2 71 bd
       0.0142585635 0.052033372 -0.044179864 -0.05900786
0000c0 f3 28 cc bd 3e ed 48 3d 0b c6 8f 3d 20 f4 2b 3b
       -0.09968748 0.049054377 0.070201956 0.002623804
0000d0 c3 df 99 3d 9c 4f a4 bc e2 bd 31 bd 4e d9 11 bd
       0.07513382 -0.020057492 -0.043393977 -0.03560763
0000e0 f6 02 3a bd c2 2e 74 3d cf 43 bf bd 44 15 63 bd
       -0.04541298 0.059614904 -0.09339105 -0.055440202
0000f0 88 08 3a bc 24 22 fb 3c 4e 0b 15 3d 86 0e 1d 3d
       -0.011354573 0.030655928 0.036387734 0.03834393
000100 c7 51 80 bd 04 65 b3 3c ad de a8 bd 36 74 6c bd
       -0.06265598 0.021898754 -0.08245597 -0.057728015
000110 b4 c7 d2 3c 10 11 54 bd c4 a3 cc 3c bc 07 96 bd
       0.025729991 -0.051774085 0.024980433 -0.07325694
000120 5c b3 a0 bd fd d7 d0 3d f3 85 83 3d e4 4c 94 bd
       -0.0784671 0.101974465 0.06422033 -0.07241228
000130 51 32 d4 3d 5c 78 49 bd d8 6d de bc a2 fd d9 bd
       0.103611596 -0.04918705 -0.027151987 -0.1064408
000140 6e 96 29 3d dc 13 95 3c cb b8 b3 3d 90 d9 88 bd
       0.041403227 0.018197946 0.08775481 -0.06682122
000150 c0 fd aa 3a 22 29 2b bd 46 e8 2b 3d 06 32 33 3d
       0.0013045594 -0.041787274 0.04196956 0.043748878
000160 58 47 67 bc 5c e9 ad 3c a8 8b 64 3c 50 1f 37 bc
       -0.014116131 0.021229438 0.013949312 -0.011176899
000170 18 14 1e bd 05 e2 ca 3d ca a2 3f 3d a0 3d c5 bd
       -0.03859338 0.09906391 0.046786107 -0.09630895
000180 3b ce a9 3d c7 1f 6f bd 00 23 7f ba 74 9d 8d bc
       0.082912885 -0.058379915 -0.00097326934 -0.017286994
000190 c0 a3 83 3b 95 a2 7b bd 9b c7 86 3d 9a 63 1f 3d
       0.0040173233 -0.061434347 0.065810405 0.038913347
0001a0 c0 15 0a bd f0 b5 73 bc 50 86 b6 bd 6a fa d5 bd
       -0.03371215 -0.01487492 -0.08912337 -0.10448153
0001b0 1e 97 68 bd 3c a0 bb 3c 3c 2f e1 3c 6e 7a 2a 3d
       -0.05678474 0.022903554 0.027488343 0.041620664
0001c0 ce 01 cc bd 80 5b 19 3b dc 63 bd bc 45 7f 7c bd
       -0.09961282 0.0023400486 -0.023118906 -0.06164481
0001d0 27 e7 81 bd 97 68 a9 3d 32 42 07 3d 80 f7 b5 3a
       -0.06342917 0.08271902 0.033022113 0.0013882965
0001e0 1f a2 89 3d 24 6c c8 bd 48 f5 b8 bd d1 b0 b1 bd
       0.06720375 -0.09786251 -0.09031159 -0.08676303
0001f0 20 34 64 bb ca 99 57 3d 78 8e 0e bd 34 70 b2 3c
       -0.0034821108 0.0526369 -0.034803838 0.021782018
000200 3b c4 c9 bd 12 28 52 3d 54 8e a6 3c 83 f4 a1 3d
       -0.09851881 0.051307745 0.02033154 0.07907965
000210 ba 6a 25 3d b6 34 24 bd e8 da d0 bd 40 b7 34 bd
       0.040384986 -0.04008933 -0.10198003 -0.044120073
000220 af c3 c4 3d fe 30 bb bd 28 2e 18 3c 72 9a 14 3d
       0.09607636 -0.09140204 0.009288348 0.036280103
000230 1b 90 d5 3d a0 e8 46 bc 80 c6 50 3c 99 8a c1 3d
       0.104278766 -0.012140423 0.012742639 0.094502635
000240 1e 26 4e 3d 2b cb c2 3d a3 8d 9d 3d 62 a8 1b bd
       0.05032932 0.095114075 0.07693031 -0.03800238
000250 ec 3a 97 3c 7c 7d 91 bc f8 4b 51 bc 60 9f 60 bc
       0.018460713 -0.01776003 -0.01277446 -0.013709873
000260 00 74 f2 39 86 6c dc bd d0 f3 46 bc c9 80 97 bd
       0.00046244264 -0.10762887 -0.01214309 -0.07397611
000270 51 40 a9 3d ea 8d 7b 3d 44 3b dc 3c 88 4e 1c 3c
       0.082642205 0.061414637 0.026883729 0.009540208
000280 1c a5 d6 bd b9 dc 93 3d 53 a9 b0 3d e8 a5 c8 bd
       -0.10480711 0.07219834 0.08626046 -0.09797269
000290 80 df 09 3c f1 fd a0 3d 72 39 0f bd 0e c0 0c 3d
       0.008415103 0.078609355 -0.034966893 0.034362845
0002a0 a0 e9 77 3b 9f 40 bd bd e0 45 80 bd 1d 73 86 3d
       0.003782846 -0.09240841 -0.062633276 0.06564925
0002b0 2a 8f 57 bd c0 05 1d 3c da 65 0f bd d2 36 23 3d
       -0.052626766 0.00958389 -0.035009243 0.039847203
0002c0 ab 99 a9 3d d0 80 2a bc 62 cc 4e 3d 9c c7 fb 3c
       0.08281263 -0.010406688 0.050487883 0.03073483
0002d0 68 5c 11 3c 50 99 fa bb 60 a7 20 3c d4 9a a5 3c
       0.008872129 -0.007647671 0.00980553 0.02021543
0002e0 f4 38 e0 bc ba 4a 19 3d 5f 55 b3 3d b0 9e 72 3c
       -0.027370907 0.03742478 0.087565176 0.014808342
0002f0 29 3c 80 3d 0e 03 0d 3d 72 7a 85 bd 8e a5 35 3d
       0.06261475 0.03442674 -0.06517495 0.04434734
000300 80 d1 5d bb 96 86 35 3d 00 05 25 bd 3e 52 7b 3d
       -0.0033846796 0.044317804 -0.04028797 0.06135773
000310 ed 03 a8 3d a9 8e 70 bd b4 98 20 bd 9c 42 b9 3c
       0.08203874 -0.0587298 -0.03920813 0.02261477
000320 10 a3 60 3c db 07 ae 3d 6e 28 70 3d a0 86 df 3b
       0.013710752 0.08497592 0.058632307 0.0068214685
000330 2e 8a 5a 3d 0e 9b 7f 3d cb 9f 92 3d a0 b6 7c bd
       0.053354435 0.06240373 0.07159384 -0.061697602
000340 42 cb 14 3d 11 39 97 3d 0f 77 d0 3d 60 ec 6e 3b
       0.036326654 0.073839314 0.101789586 0.0036456808
000350 18 a1 51 bc 64 a8 c9 bc b8 0b 1b 3c b1 a4 a2 3d
       -0.012794755 -0.024616428 0.009463243 0.07941569
000360 57 84 ba 3d 61 08 dc 3d 20 c6 25 bd 20 c5 ba bc
       0.09107273 0.10743786 -0.04047215 -0.022799075
000370 77 e2 6e bd 06 cf 34 3d e0 39 fb 3b 82 c0 8c bd
       -0.058321442 0.044142745 0.0076668113 -0.068726555
000380 e2 76 01 3d 61 a7 b8 3d 10 c8 ad bb 30 d7 82 3c
       0.031607516 0.090163 -0.0053033903 0.01597175
000390 8a 0a 7f 3d 71 0e b2 3d 82 da 42 3d 1d f9 3f bd
       0.06226591 0.08694161 0.047571667 -0.046868432
0003a0 ec df b7 3c 05 c4 d8 bd 1f 96 97 3d 9e 9d a3 bd
       0.022445641 -0.10584263 0.0740168 -0.079890475
0003b0 d4 9e e6 3c f0 80 2b 3c 49 dc a0 bd e3 dd 6b bd
       0.028151907 0.010467753 -0.07854516 -0.057584655
0003c0 0f fa 8c 3d 34 dc a4 bc 01 f1 a1 3d 9c aa aa bc
       0.068836324 -0.020124532 0.07907296 -0.020833306
0003d0 bc 07 ab bd 66 4f 8e bd 32 67 70 3d fc b0 df bc
       -0.083510846 -0.06948738 0.058692165 -0.027306072
0003e0 aa fe 1d 3d 1e b2 09 3d d0 d2 d2 3b a8 fa 1e bd
       0.038572945 0.03361713 0.006433822 -0.038813263
0003f0 e3 3f b8 3d ee c6 52 3d 49 f1 a1 bd b4 05 08 bd
       0.089965604 0.051459245 -0.079073496 -0.033208564

onnx::GRU_193 f4 [1, 384, 128]
000000 99 b9 a0 bd c2 03 63 bd 92 17 35 bd b0 24 8f 3b
       -0.078479 -0.055423506 -0.04421193 0.004368387
000010 40 1e 44 3b 20 c0 f2 bb 22 8d 54 3d 10 84 15 bc
       0.0029925257 -0.007408157 0.051892407 -0.009125724
000020 83 6c a9 3d 2f 35 86 3d f2 d6 5a 3d d4 b6 17 bd
       0.0827265 0.06553113 0.053427644 -0.037039593
000030 00 43 eb b9 f3 5b b5 3d 9f 70 c7 bd 37 96 ae 3d
       -0.00044872612 0.088554285 -0.09738278 0.08524745
000040 bc 2d 09 bd 46 0e 9c bd 50 86 2c 3c 0b 92 a4 3d
       -0.03349088 -0.0761991 0.0105300695 0.08035668
000050 98 d1 20 3c 9b 0a 9c 3d d4 96 93 bd 38 5f 1d bd
       0.009815596 0.0761921 -0.072065026 -0.038420886
000060 ca 8d 1f bd 38 86 97 bd 58 1f 53 bc 0c 8b ec bc
       -0.03895358 -0.07398647 -0.012885891 -0.028874896
000070 f8 95 24 3c d0 b8 f1 bc 1f 00 9d 3d 07 64 83 bd
       0.010045521 -0.02950707 0.07666039 -0.06415563
000080 ad b2 7c bd fe 00 88 bd 60 48 00 bc 18 80 4c 3c
       -0.061693836 -0.06640814 -0.007829756 0.012481712
000090 3c 98 a0 bd 42 b6 db bd 14 7d 36 bd 32 6a d0 bd
       -0.078415364 -0.10728122 -0.044552878 -0.10176505
0000a0 f7 e9 c8 3d c4 e8 15 bd a0 5d 15 3c 39 0c c5 3d
       0.0981025 -0.036598936 0.00911656 0.09621472
0000b0 ab 49 b8 bd 28 6e 02 3c e0 a5 a1 bd 56 1d 2d 3d
       -0.08998426 0.007960834 -0.07892966 0.042264305
0000c0 96 d8 08 3d a7 33 9d bd 46 84 1e 3d dc 57 95 bd
       0.033409677 -0.076758675 0.038700365 -0.072921485
0000d0 23 72 c5 3d 0c 27 c4 bd b8 25 2e bd ec cd aa 3c
       0.096409105 -0.0957776 -0.04251644 0.020850144
0000e0 a8 49 00 bd 41 54 bd bd b5 d0 a5 bd 41 69 b8 3d
       -0.031320244 -0.09244586 -0.08096448 0.090044506
0000f0 a2 78 be bd 12 b0 bb bd 2d f3 a5 3d 78 8f 49 bd
       -0.09300353 -0.09164442 0.08103023 -0.049209088
000100 ae 82 ae bd 57 6f cb 3d ee fe 0b 3d a8 26 3f 3c
       -0.08521019 0.09933346 0.034178667 0.011666931
000110 7e 47 14 bd 1c fd 8e bd c0 8d 02 bd 50 fa e6 bc
       -0.036200993 -0.069818705 -0.031873465 -0.02819553
000120 77 37 c6 bd 80 b0 08 ba 5c 7e a1 bd 3e 27 a6 bd
       -0.09678548 -0.0005214289 -0.07885429 -0.081129536
000130 b2 26 78 3d b0 d0 1a bc d6 e2 ca bd 85 4b bd 3d
       0.060583778 -0.009449169 -0.09906547 0.0924292
000140 00 d7 39 ba 66 36 63 3d 20 f4 cf bc 44 4b c9 bd
       -0.00070892274 0.0554718 -0.025384963 -0.09828809
000150 d0 e0 c8 3b 78 69 00 bc 4c 26 a1 3c 69 ad ce bd
       0.0061303154 -0.007837646 0.019671582 -0.10091669
000160 00 51 6a bb e7 a1 cf 3d 18 43 e6 bc 89 28 bc 3d
       -0.0035753846 0.10138302 -0.028108165 0.09187419
000170 60 bb ae bd 9b 1d 98 3d 04 1d 2c bd 62 65 28 3d
       -0.08531833 0.07427522 -0.04201986 0.04111231
000180 2c bb f7 3c c8 79 86 3c 05 c4 95 bd e1 fe 90 3d
       0.030240618 0.016415492 -0.073127784 0.07079864
000190 46 0b 55 3d 80 26 d1 bc a4 47 d3 3c 06 2f 49 3d
       0.052012704 -0.025531054 0.025790997 0.04911711
0001a0 7c ef 21 bd 0d d0 99 bd 50 e6 ea bb 84 68 c6 3c
       -0.03953503 -0.07510386 -0.0071685687 0.024219759
0001b0 9a ac 28 3d ec 7d 1e bd 41 8f dc 3d ad b2 d8 3d
       0.04118023 -0.038694307 0.10769511 0.10580955
0001c0 c1 fb bb 3d 74 69 9a 3c ac 4e 25 bd 40 25 0b bd
       0.091788776 0.018849112 -0.04035823 -0.03397107
0001d0 c6 7a 76 3d c8 50 a5 bd a6 98 11 3d 91 98 a9 3d
       0.06017568 -0.080720484 0.035545968 0.08281053
0001e0 94 c3 46 bd c0 53 3d 3b 92 1a 60 bd 73 93 d4 3d
       -0.04852636 0.002888903 -0.05471284 0.10379686
0001f0 c3 39 8d 3d a8 0d 50 bd b0 2d 2e bc cc d0 8d bd
       0.06895783 -0.050794274 -0.01063101 -0.069245905
000200 28 ff 67 3c 64 6a e8 3c ab 93 96 3d b6 aa 14 3d
       0.014159955 0.028371044 0.07352384 0.036295615
000210 cc 12 ca 3c 48 38 b5 bd 9d 35 bc bd f6 1d 13 3d
       0.024667166 -0.088486254 -0.091899134 0.035917245
000220 40 23 4c 3b 8c 0b d1 bc e0 cc 53 bc 51 bc bc 3d
       0.003114894 -0.025518201 -0.012927264 0.09215606
000230 54 7d e5 bc fc 8c 81 bc 31 e6 a8 bd 80 14 29 bc
       -0.028013863 -0.015814297 -0.082470305 -0.010319829
000240 f2 c0 24 3d ff 16 b0 bd 95 94 cb 3d e7 cc 93 3d
       0.04022307 -0.08598136 0.09940449 0.072168164
000250 8c d2 fc 3c 48 28 69 bd c0 87 81 ba d9 77 a4 3d
       0.030862115 -0.05692318 -0.0009882376 0.080306716
000260 c4 1e fd 3c e4 9a b5 bc 33 b6 75 bd f0 54 81 bd
       0.03089846 -0.022168584 -0.05998821 -0.06315029
000270 a4 28 c7 3c c0 08 6a bb 08 94 7a bd d2 ab 27 bd
       0.024311371 -0.0035710782 -0.06117633 -0.040935345
000280 7c 57 99 bd 14 88 ff 3c 6a b6 53 3d 23 b7 54 bd
       -0.074873894 0.031192817 0.051687635 -0.051932465
000290 cf 93 79 bd c4 c5 ed 3c 5c 14 3c bd 70 9b 83 bd
       -0.060931977 0.029024966 -0.045917854 -0.06426132
0002a0 ca 00 ad bd e3 65 90 3d 0e d8 9c bd e0 55 6c bd
       -0.08447416 0.07050683 -0.07658397 -0.057699084
0002b0 a8 15 6f 3c c0 83 e6 3a b4 e0 f6 3c a7 04 b2 bd
       0.014592566 0.0017586872 0.030136444 -0.086922936
0002c0 6e 62 57 3d 24 cf bd bc 5e 02 1d 3d af a7 92 3d
       0.052584104 -0.023170061 0.038332336 0.07160889
0002d0 0d e1 bb 3d 06 b1 9d bd 06 12 7f 3d de b3 74 3d
       0.091737844 -0.0769978 0.062273048 0.059741847
0002e0 b5 d6 a4 3d 2a 91 21 3d 88 7f 13 bc 10 cc 3f 3c
       0.080487646 0.03944508 -0.009002574 0.011706367
0002f0 b4 8f eb bc 0a b2 27 bd d2 12 00 3d 42 8a 4e 3d
       -0.028755046 -0.040941276 0.03126795 0.05042482
000300 5a dd a7 bd 09 e4 cd 3d e5 d7 3f bd 46 53 39 3d
       -0.08196516 0.1005326 -0.046836752 0.04524543
000310 f2 b8 29 3d 46 1a 4d 3d dc 7d fa 3c 20 4a 5f 3c
       0.041436143 0.050073884 0.030577593 0.013628513
000320 1c e1 c5 3c 12 3c 3b 3d e3 de 97 3d 04 d3 a3 3c
       0.024155192 0.045711584 0.07415559 0.019998081
000330 1b b7 d2 bd 18 19 3b 3c 20 b9 f9 bb 17 6d 4c bd
       -0.10288831 0.011419557 -0.0076209456 -0.049908724
000340 16 dd 65 bd cb 8f 80 3d 02 3b 3a 3d d7 06 d3 bd
       -0.056119047 0.06277426 0.04546643 -0.10304039
000350 f8 2f 4e 3c 3b b7 b4 3d fc 87 15 bd 3c 41 fe 3c
       0.012584679 0.08824011 -0.036506638 0.031036966
000360 66 79 7f 3d e5 26 b1 bd 29 fb ab bd f2 a7 43 3d
       0.062371634 -0.08649997 -0.083975144 0.047767587
000370 1b d2 b4 3d 95 da cc 3d 1f b9 a4 3d b1 1c da 3d
       0.08829137 0.10002629 0.080431215 0.10650004
000380 e0 52 8e bb 08 8c d2 bd 65 a6 d3 3d 06 48 64 3d
       -0.0043433756 -0.10280615 0.103344716 0.05573275
000390 ba a5 2c 3d 6c e4 d2 3c a4 a2 d8 3c 92 63 51 3d
       0.042150237 0.025743686 0.02644474 0.05112035
0003a0 0c a1 58 bd 16 5f 25 bd 94 72 90 bd 06 1b 60 3d
       -0.05288796 -0.040373884 -0.07053104 0.05471327
0003b0 2a 54 67 3d 50 da a1 bc b5 69 83 3d 9b 1a db bd
       0.05647675 -0.01975742 0.064166464 -0.10698434
0003c0 c6 f6 d5 bd ca aa 3d 3d d0 bd 9e 3b 41 7f ab 3d
       -0.10447459 0.046305455 0.0048444048 0.08373881
0003d0 10 d7 c2 3b bd 17 d7 3d 40 5a 45 bc be 55 56 3d
       0.0059460476 0.105025746 -0.012045443 0.052327864
0003e0 e2 c5 4f 3d cf 7e b9 3d 8b 0c 84 bd 04 57 c0 bd
       0.050725825 0.0905739 -0.06447705 -0.09391597
0003f0 2c 07 c6 bd 78 8e 11 bc 10 44 1d bc 54 b0 ab bc
       -0.09669337 -0.008884065 -0.009598747 -0.020958103
