output/model_1.onnx (onnx, 811065 bytes, 7 tensors)

fc.weight f4 [4, 128]
00000000: 70f3 d3bc 6457 0d3d 404d 733c 5937 8ebd
00000010: ee64 a5bd c315 9f3d c01b 103d 568b 08bd
00000020: c97b 33bd c3d4 a53d 9099 093d c46a 15bd
00000030: 5293 a3bd dbb1 57bd 1c76 873c 2487 adbc
00000040: 74f4 abbd 6ae3 15bd c27d 513d e0e4 f43b
00000050: 622f 86bd f6c4 79bd eebf 393d c8bd 02bc
00000060: d083 bd3c 3a29 6c3d 318b a4bd 7db4 b1bd
00000070: 8014 a03c 6490 97bd a481 05bd 1c64 87bd
00000080: fe3f 5e3d 70a5 c13c 6f97 a43d 100e aabc
00000090: 5db7 a3bd 32c9 94bd 0d2c b1bd 8094 0bbc
000000a0: 8aa1 1b3d 6750 4cbd 97c8 913d d86c 5c3c
000000b0: f8bb e9bc b0b2 d9bb b210 163d 34dd 6bbd
000000c0: d751 9fbd b22e 5abd 2181 06bd 405e 003c
000000d0: 004c 79b9 1345 88bd 59be 8f3d 2ca6 a3bc
000000e0: 7e3c 96bd b93b ac3d 20df e43b a002 77bb
000000f0: 022b 373d 7ca6 92bd 44c3 fabc 306c 3bbd
00000100: 0af0 723d 8a70 dbbc d548 b13d 000c 073d
00000110: ace6 e03c 17fc 4dbd 506a 8bbb d868 9bbd
00000120: 4a9d 333d 60e8 2a3c 8104 92bd 0052 0f3b
00000130: 2c26 113d b6c0 74bd fc3d 9cbc e8d2 263c
00000140: 1fb8 7fbd 20fa 13bc 13f4 983d d630 17bd
00000150: 7e22 743d 4007 95ba 609e 66bc e6ff b1bd
00000160: 99c7 a4bd a90a 913d 76d3 173d b9e6 adbd
00000170: e8f5 67bc 7831 a23c 478b ab3d 61b4 67bd
00000180: 3a6c 0a3d 7747 15bd f23a 603d c88c b03c
00000190: 9453 8a3c ea39 b0bd 0915 8e3d dc85 34bd
000001a0: a060 3cbb a5b5 12bd 6857 fd3c a014 1abd
000001b0: c843 573c 0f35 973d 780f 923c f181 5bbd
000001c0: 20c6 653c e6f6 86bd e282 6a3d 78f3 9a3c
000001d0: 4d01 84bd 0d96 8b3d 92ce 2b3d 55bf 9d3d
000001e0: 9497 e1bc ba76 90bd 88b7 02bc 8899 b0bc
000001f0: 9ffe 9e3d 0ace 1f3d d12d 29bd 70bf 73bc
00000200: 513e 923d b8c6 97bc 3406 ec3c 10d3 78bd
00000210: ca4c 3d3d 18b4 acbd 8777 8ebd 0c8f 6dbd
00000220: 3b39 913d e6f8 4b3d 9769 42bd dbd9 a13d
00000230: c2fe 1ebd ce07 023d 269a 643d e7c5 af3d
00000240: 6a35 32bd 194c af3d b928 9fbd 2d60 a33d
00000250: 4881 4b3c d0d5 af3b 0d46 b03d a865 8d3c
00000260: 00b6 93bc 4e99 1a3d 40ba 2f3c 2bd2 00bd
00000270: e719 893d 6713 35bd 2211 1a3d 3cfe 92bd
00000280: 91b5 16bd ceb6 f1bc d1c6 7fbd 781d 063c
00000290: f6d1 f5bc a8b6 5abc fbbf 2abd 886f 1fbc
000002a0: 8828 27bd bc6f c5bc eb80 9b3d 7158 a43d
000002b0: c075 c7bb 4858 1fbd 6d3a 91bd 84fd a23c
000002c0: 1289 6b3d 6c4f 103d 1d1d 93bd 21c5 9f3d
000002d0: 9d0c b43d e655 0e3d 84f3 82bd 41f8 60bd
000002e0: bc89 9f3c a6a1 353d ec10 b1bc 6f23 8ebd
000002f0: 7740 6abd d021 923b b233 a6bd 98fe 5f3c
00000300: be78 323d 7a99 4abd 4936 9f3d aaec 503d
00000310: 4af8 b4bd 4c78 5bbd f888 cfbc 108d 14bd
00000320: 3aac 6c3d 9043 8cbb 7012 503c 8ade 2c3d
00000330: 2d5d a43d d997 af3d 72ec 7a3d b8c9 93bc
00000340: 1046 e83c 9f9f 00bd c84a 1fbd eeb4 6e3d
00000350: f8b5 62bc eaa4 81bd 202d d03b 20a8 6abd
00000360: 2c49 c9bc 5f64 8c3d 3187 9c3d 441f e3bc
00000370: bae7 7e3d eb3f 99bd b029 c7bc 1907 a43d
00000380: a7c4 a3bd b057 57bc f558 a33d 2853 00bc
00000390: 406b a53a 9076 9cbb 037c 56bd 1c6e 37bd
000003a0: 28e5 9abd 02c1 373d 66a1 a8bd d019 acbd
000003b0: 460a 383d 9f73 9e3d 50af 863b a40c b83c
000003c0: 18e4 073d cc7c 80bc f0c5 bdbb a29d a7bd
000003d0: 8868 7abc 0019 64bc 08d4 393c e9d5 1cbd
000003e0: 505c ee3b 668f f6bc 064b 6fbd 8602 573d
000003f0: 9487 023d 9112 993d b01b c13c 9ac4 f3bc
-0.025872916 0.03450717 0.014849961 -0.069441505 -0.080758914 0.077678226 0.035182714 -0.033336006
-0.043819223 0.08097222 0.033593714 -0.036478773 -0.079870835 -0.05265985 0.016535811 -0.021182604
-0.08396235 -0.036593832 0.051145323 0.007473573 -0.06552006 -0.060978852 0.045349054 -0.007979818
0.023134142 0.057656504 -0.08034361 -0.086770035 0.019541025 -0.07400587 -0.032594338 -0.06610891
0.054260246 0.023638457 0.08036696 -0.020758659 -0.07993958 -0.072649375 -0.0865098 -0.008519292
0.037995853 -0.049881365 0.071183376 0.013453685 -0.028532013 -0.0066436157 0.036637016 -0.057584003
-0.077792816 -0.05326719 -0.03283799 0.007834971 -0.00023774803 -0.066538 0.07018728 -0.019976698
-0.07335757 0.08409829 0.0069846064 -0.0037690774 0.04471875 -0.071606606 -0.030610688 -0.045757473
0.05931095 -0.026787061 0.0865647 0.03297043 0.027453743 -0.05028924 -0.004254617 -0.07588357
0.043851174 0.010431379 -0.07129765 0.0021868944 0.035436794 -0.059754096 -0.019072525 0.01018212
-0.06243145 -0.009031802 0.074684285 -0.036911808 0.059603207 -0.0011369959 -0.0140758455 -0.08691387
-0.08045883 0.070821114 0.0370669 -0.084912725 -0.01415775 0.01979898 0.083761744 -0.056568507
0.03379462 -0.036445107 0.054743715 0.021551505 0.016885556 -0.08604796 0.06937606 -0.04407297
-0.0028744116 -0.03581776 0.030925468 -0.037617326 0.013138719 0.07383167 0.017829642 -0.05359072
0.014024287 -0.06590061 0.057253726 0.018914923 -0.064455606 0.06815729 0.041945048 0.07702509
-0.027538098 -0.07053895 -0.007978328 -0.021557584 0.07763409 0.039014854 -0.04130346 -0.014877185
0.07140792 -0.018527374 0.028811552 -0.06074816 0.04621581 -0.08432788 -0.06956392 -0.05799775
0.07090994 0.049797915 -0.04746398 0.07902881 -0.038817175 0.031745724 0.05581107 0.08582669
-0.04350797 0.08559436 -0.07771439 0.079773284 0.01242096 0.0053660646 0.08607111 0.017260388
-0.01803112 0.03774386 0.010725558 -0.03145043 0.066943936 -0.044207957 0.037613995 -0.071773976
-0.03679425 -0.029506113 -0.062445465 0.008185737 -0.030007344 -0.013349213 -0.041686993 -0.009731181
-0.040810138 -0.02410113 0.075929485 0.08024681 -0.006087035 -0.03890255 -0.07091222 0.019896276
0.057503767 0.035231993 -0.07183287 0.07801271 0.08791468 0.034749888 -0.06394103 -0.054924253
0.019474857 0.044343613 -0.021614514 -0.06940352 -0.057190385 0.004459597 -0.08115329 0.01367154
0.04357218 -0.049462773 0.07774026 0.05100695 -0.0883642 -0.05358152 -0.025333866 -0.03626734
0.057781436 -0.004280515 0.012699708 0.042204417 0.08025584 0.085738845 0.061260648 -0.018040523
0.02835372 -0.031402227 -0.038889676 0.058278017 -0.01383733 -0.06330283 0.0063530356 -0.057289243
-0.024571024 0.06855082 0.07642973 -0.02772487 0.06223271 -0.074828945 -0.02431187 0.08009166
-0.07996493 -0.013143465 0.079759516 -0.007832326 0.0012620464 -0.004774876 -0.05236436 -0.044782743
-0.07563239 0.0448618 -0.08233909 -0.08403361 0.044931673 0.07736897 0.0041102543 0.022466965
0.03317651 -0.015684508 -0.0057914183 -0.08184363 -0.015283711 -0.013921976 0.011342056 -0.038289938
0.007274188 -0.030097675 -0.058421157 0.05249264 0.03186758 0.074742444 0.023572773 -0.029756833

fc.bias f4 [4]
00000000: f2a4 703d 28d2 3e3c 7efa 8bbd 082d c63c
0.058751054 0.011646785 -0.06834887 0.024191394

onnx::LSTM_182 f4 [1, 512, 7]
00000000: 3874 203d 48b2 b2bd 14bb 023d 80cf 7e3b
00000010: d423 c0bd 0ee4 c63d 9b7a d4bd be82 b7bd
00000020: 9cd3 c53d 2d5b 48bd 4e40 b13d f8d3 553d
00000030: 807c b53d 1473 0b3d e49e 3a3d e8ec 993c
00000040: ad61 dabd 60d9 80bb c082 d53a 58c5 323d
00000050: 54f3 ad3d 1436 be3d 181d a33d 9c4c ac3d
00000060: 3019 3a3d 7a3d b23d d4de a53d a28e d33d
00000070: d8fd 70bc 6ca7 c83d bc36 5dbd 8806 56bd
00000080: e044 9fbd 104d 9d3c 98e9 9cbd 721c 67bd
00000090: c0ff 3e3d c88c c33c c036 8fbb 0078 adbc
000000a0: d80f 303c f411 b5bd e029 b03d 7444 bf3d
000000b0: 961a 9d3d 4c66 63bd ae07 9fbd d6df 9dbd
000000c0: 34f5 94bc 9062 04bc 901d bf3d c06f a03d
000000d0: 903f 963d d273 63bd bec0 48bd 408a c73d
000000e0: da23 b13d fcc8 203d 2331 48bd 3043 623d
000000f0: 784b d93c 6091 55bd f092 893c 66d7 90bd
00000100: a3ab 8bbd 066a 9fbd cfa5 ccbd 72a0 903d
00000110: 00f9 c03d b015 9abb 25f0 7cbd 7c64 cebc
00000120: 92c4 d53d 209f ffbc 782e cb3c d2c5 1dbd
00000130: 9bf2 58bd 67f0 92bd a877 1fbc ccfe 943d
00000140: c6c5 b33d bb43 c1bd d0d1 873c b81e 503d
00000150: 2cd2 9fbc 696a a0bd 8ce9 adbd dcc7 bdbd
00000160: f043 a73d de8d 01bd f86c 2b3d 6811 efbc
00000170: 70cc da3b 483a d33c 6543 a1bd 5655 d8bd
00000180: b4e9 d1bd 78c6 9d3d 8f79 c0bd 3628 b53d
00000190: 35cc 9bbd 380d 25bd daf1 8ebd 48b9 ce3d
000001a0: a4a1 1b3d 0c27 313d d0bd 50bc 8e2f b23d
000001b0: 4463 a53d 32a5 ad3d 22db b43d 58c0 ae3d
000001c0: 50d5 ee3c 1628 cb3d 14bb b3bc e886 e23c
000001d0: 9444 743d a80c 5abc b868 b13d 9ca6 d4bc
000001e0: 1684 b83d e795 bbbd 589a 913d 381a 833d
000001f0: 0c1f d13d d04a b23d cea5 09bd 4287 9b3d
00000200: f88f 94bd aa5c a43d b89d 9bbd d89e 14bc
00000210: 2ccc a7bd 589a 5ebc f45d 6c3d 485c a43c
00000220: 66bd b0bd 79df 6fbd 8403 c9bd 3c54 393d
00000230: f6ce 96bd 2acf 8cbd 5c77 7d3d 18cb 183d
00000240: 4094 c5bd a8e3 c83d 56c8 993d a186 d6bd
00000250: 70b8 573d 94fc eabc 3ef7 97bd d080 ee3c
00000260: 4c87 db3d 8202 ba3d 8022 c03c 10d8 873d
00000270: 384a 53bc 781d e5bc 87cf 9dbd d0a5 8bbc
00000280: 201f f43c 1aba cc3d 003b b93c 38c9 1f3c
00000290: d849 153c 824f a03d da1a a23d 2800 af3c
000002a0: e4d3 c03d 40bb d83a 76df 57bd e496 66bd
000002b0: 205e 553c fe6f b03d 00e8 5439 606f 96bd
000002c0: a01d 90bc a4a6 dabd 782a 613d bcbb 83bd
000002d0: ea96 a93d c0be 0b3c a4ea e9bc a823 95bc
000002e0: 04f0 0fbd 3245 07bd 804b 06bb aec0 a63d
000002f0: 700a 813d a8ab db3d 8c25 ae3d 696e b3bd
00000300: d0ac 82bd 6450 7c3d 7091 0fbd dc27 b4bc
00000310: a0af 86bd 520d a43d 58e4 bb3d cd9f c0bd
00000320: 80b5 543d 9c0e 02bd dc53 6c3d 89aa 59bd
00000330: 5d15 3fbd 10d8 b33d 82e7 903d 807d 143d
00000340: 41d1 a5bd 9aee 8abd 04be 933d 577c 6bbd
00000350: 0041 a03d 3e60 2ebd 0098 23b8 a81c 6e3d
00000360: 600f 343b 99b7 c0bd a087 563b d0b4 073d
00000370: c88a 93bc 3b09 70bd d87e 8cbc c68b 92bd
00000380: 9afe 96bd c972 94bd 3cc0 8dbd 50ff ea3b
00000390: d803 633c c45b db3d 58ff 4ebc a481 9cbc
000003a0: 7075 d4bd 84e3 a4bc 50e0 f73b 9843 54bc
000003b0: 3023 e8bb f855 c4bc cb31 d1bd 0881 3bbc
000003c0: e8cd 633c 60e8 ecbc 0837 cfbd b0f0 69bc
000003d0: 2028 c13c 98a3 9e3c 5473 b33d 2896 203c
000003e0: 1afa d63d c8d7 183c f832 0e3d 9244 ccbd
000003f0: b278 913d b0b4 a43b 00dc 593b 3a6c b63d
0.039173335 -0.08725411 0.031916693 0.0038881004 -0.09381834 0.09711467 -0.10374948 -0.08960484
0.09659502 -0.048915077 0.08654843 0.052204102 0.08861637 0.034045294 0.045561686 0.018789724
-0.106631614 -0.003932163 0.0016289577 0.043645233 0.08493677 0.09287658 0.079645336 0.084130496
0.045434177 0.08703132 0.08099142 0.103299394 -0.014708959 0.09797558 -0.054007277 -0.052252322
-0.07776809 0.019201785 -0.07661742 -0.056423612 0.04663062 0.02387084 -0.0043705404 -0.021175385
0.010745965 -0.08841315 0.08601737 0.09339228 0.076710865 -0.05551748 -0.07765137 -0.07708709
-0.018183328 -0.00808014 0.093318105 0.078338146 0.07336342 -0.055530377 -0.04901194 0.09743166
0.08649416 0.039254174 -0.048874985 0.055239856 0.026525244 -0.052140594 0.016793698 -0.07072334
-0.068198465 -0.07783894 -0.09992563 0.070618525 0.09422493 -0.0047022924 -0.061752457 -0.025194399
0.104378834 -0.031203806 0.024802431 -0.038518734 -0.05296574 -0.07174759 -0.009733118 0.07275161
0.08777957 -0.09436747 0.016579539 0.050810546 -0.019509397 -0.07832796 -0.08491811 -0.09266636
0.08167255 -0.031629436 0.041851968 -0.029183105 0.006677203 0.025784627 -0.078741826 -0.105631515
-0.102496535 0.077038705 -0.093981855 0.0884556 -0.07607309 -0.04029581 -0.06979723 0.10093933
0.03799595 0.04325013 -0.012740567 0.087004766 0.08075574 0.08478774 0.08830859 0.085327804
0.02915445 0.09919755 -0.021939792 0.027652219 0.059635714 -0.013308682 0.08662552 -0.025958352
0.090095684 -0.09159451 0.07109517 0.06401485 0.10211 0.087056756 -0.03360539 0.07594158
-0.07254022 0.08025487 -0.07598442 -0.009071074 -0.081932396 -0.013586603 0.05770679 0.020063534
-0.08629875 -0.05856273 -0.09815124 0.045246348 -0.073636934 -0.06875451 0.061881408 0.03730306
-0.09647417 0.09809047 0.07508914 -0.10474897 0.052666128 -0.028684892 -0.074202046 0.029114157
0.10719165 0.090825096 0.02345395 0.066330075 -0.012896113 -0.027968153 -0.07705598 -0.017046839
0.029799998 0.099964336 0.022611141 0.009752564 0.009111844 0.07827665 0.07915278 0.02136238
0.09415415 0.0016535297 -0.052703343 -0.056296244 0.013022929 0.08615111 0.00020304322 -0.07345462
-0.017592251 -0.106763154 0.054972142 -0.06432292 0.08280738 0.008529365 -0.028554268 -0.018205479
-0.035141006 -0.033024974 -0.002049178 0.081422195 0.06300819 0.107261 0.08503255 -0.087612934
-0.063806176 0.061600104 -0.03505081 -0.021991663 -0.065764666 0.08010353 0.091744125 -0.094054796
0.051930904 -0.031752214 0.057697162 -0.05314115 -0.046651233 0.08781445 0.070754066 0.0362525
-0.08096553 -0.06783791 0.07213977 -0.057491627 0.07824898 -0.042572252 -3.900379e-05 0.058132797
0.0027474985 -0.094100185 0.0032734647 0.03313142 -0.018010512 -0.058602553 -0.017150328 -0.07155566
-0.0737278 -0.07248456 -0.069214314 0.007171549 0.013855897 0.10710862 -0.012634121 -0.019104786
-0.10373962 -0.02012802 0.007564582 -0.012955569 -0.007084273 -0.023966774 -0.102145754 -0.011444338
0.013904072 -0.028919399 -0.10117918 -0.014278576 0.023578703 0.019365117 0.087622315 0.009801425
0.10496922 0.00932879 0.034716576 -0.09974016 0.07103099 0.0050264224 0.0033242702 0.08907361

onnx::LSTM_183 f4 [1, 512, 128]
00000000: 98d4 9f3c 732c 4ebd 3ba6 a4bd f482 353d
00000010: 063a 89bd b20b 14bd ee41 b9bd 1e2e 9abd
00000020: c82d 26bc e64b c1bd 7836 b73d 8060 ebbc
00000030: 90ec 9cbc 8a11 a33d c8ed 27bc 59d9 52bd
00000040: 1cb1 8abd 12b0 9f3d 4880 513d 7728 42bd
00000050: c6a6 a23d 9fe7 7bbd b848 a6bd 405c d9ba
00000060: f875 373d e81f edbc 3701 50bd 3830 143d
00000070: 4ca6 9bbd 386b c03d 9af5 bf3d e30e 66bd
00000080: 9f2f 79bd bb6d b2bd 4899 a73d f055 b5bd
00000090: ff40 0ebd 9560 6fbd d5c2 b0bd 4043 523d
000000a0: f31e 3ebd 1c10 d73c 9895 3a3d 782a 8e3c
000000b0: b09e e6bc 40bd f33a 66e2 4fbd 4072 2ebb
000000c0: 705a 95bc 5435 403d f42a bebd 80ff 81ba
000000d0: f2d3 943d 94ce 463d d43f a23c 60cc ae3d
000000e0: 3469 91bd 7237 2abd 9062 b3bb f05e f6bb
000000f0: 5fc4 2cbd 3c0d bebd 9ce1 e43c 4a2e 26bd
00000100: 8865 77bd a41a 863c b85b 413d 3052 05bc
00000110: 8487 e2bc c050 a1ba 93ec 9abd 1af7 5fbd
00000120: 85db c4bd 6457 663d 6098 243b d0ec ddbb
00000130: 9a9d 893d 2071 2a3c 9045 b7bc 00e8 b83a
00000140: 5c5b a5bd 653f 5dbd e495 863d e078 8dbc
00000150: 3436 e33c f0de 763d 6272 43bd b291 8f3d
00000160: b6c4 5bbd 141d 583d 9664 85bd dc4e cebc
00000170: cec1 9cbd 6675 b03d 6819 0bbd dc98 be3d
00000180: 8081 c53d a145 babd 803d 573d 4c98 aebd
00000190: b025 563d ce23 a33d 2515 8cbd ccff 9abd
000001a0: 009a 513a c05b 2fbd 8889 993d 4149 31bd
000001b0: 355a c4bd feb0 b9bd 6a3d 903d 3239 b53d
000001c0: 808a 323d 06dc 6fbd f2b0 863d 654a 18bd
000001d0: 2466 9abc 5a64 bfbd 5a30 a43d dafd 983d
000001e0: d05e 19bc dee0 b43d cbfc a0bd 25ad 2fbd
000001f0: ccdc dd3c 903d 20bc 8282 9f3d 6430 b93c
00000200: 0ea7 8fbd 7030 7dbd 6a41 a43d d8a1 dbbc
00000210: acd9 883c 721c 7ebd e09d 6abd f470 533d
00000220: 180d 90bd 9017 9bbd b0f2 833b c8dd 9e3d
00000230: 1819 45bc 4843 623d 8063 363b 39e1 babd
00000240: a893 8a3c 18dd f73c 781d 37bc d49d 4f3d
00000250: e0ab 2e3b 3cfd a43d 7076 933b c034 8c3d
00000260: c486 bd3d 65a3 c3bd d4fc 8d3d ce2d 9abd
00000270: 10c5 d23b 00ae 903d 822c b03d 109a 24bc
00000280: 3836 043d 440d dabc e809 6ebc 62c3 22bd
00000290: a682 bb3d 001e 8d3c 085b 7d3d 70f3 9dbd
000002a0: 0c26 a4bd 78c2 1ebc 282b 483d 6435 9abd
000002b0: e939 1bbd 19dc 16bd 4843 0c3d cbda 42bd
000002c0: 48f4 823d 6c98 efbc d4bf 03bd dee6 a3bd
000002d0: 7671 5fbd 7c36 5b3d 279a 0fbd 52b4 ad3d
000002e0: 3df5 37bd 06b2 bf3d 19d9 79bd fa6b abbd
000002f0: db1a a5bd 205a 1e3c 86b2 803d f069 aa3c
00000300: 001f 9a3d 3b95 1bbd 395d 36bd a044 e73b
00000310: fe2c a8bd 74bc 293d b0b2 38bc f012 9b3b
00000320: 0051 263d 3de7 a6bd 249a a83d ccd2 b33d
00000330: 4507 a3bd d0df 5c3c b0a3 9f3d acfb 3a3d
00000340: 30d7 abbc 8095 f93c 7134 6cbd 2813 c33d
00000350: 3a86 933d 2680 8abd 9b86 23bd 1e3a b9bd
00000360: 08de babd 8486 3a3d ee01 993d fc5c cdbc
00000370: c443 9f3d 00d2 743d 342b 213d 18c0 8a3c
00000380: e848 193d c096 0a3c 5a48 813d e8b0 a83c
00000390: 28ab 123d 681a 0e3d c5fc 0fbd f219 9e3d
000003a0: d228 8a3d 3b72 b4bd 40c4 713c 3a3d 913d
000003b0: f846 2dbc 3067 a0bd 9055 3d3d 1baa 8fbd
000003c0: 6c18 513d 021b 91bd 1c42 c23d 008e 97bc
000003d0: a0b2 31bc b4e2 543d b8d5 03bc 94ef 29bd
000003e0: 90ad a2bc 2056 653d 6b27 afbd 3e86 84bd
000003f0: 48eb f8bc d0a1 10bc 3914 18bd 5848 1b3d
0.019510552 -0.05033536 -0.080395184 0.04431434 -0.0670052 -0.036143966 -0.09045778 -0.075283274
-0.010142751 -0.094383046 0.08945936 -0.028732538 -0.01915577 0.0796233 -0.010249563 -0.05147681
-0.06772062 0.077972546 0.05114773 -0.04740187 0.07941966 -0.061500188 -0.08119339 -0.0016583279
0.04479024 -0.028945878 -0.05078241 0.036178797 -0.07600078 0.0939545 0.09373017 -0.05616654
-0.06083643 -0.08712336 0.08183533 -0.08854282 -0.034729954 -0.058441717 -0.08630911 0.051333666
-0.046416234 0.026252799 0.04555282 0.017354235 -0.02815184 0.001859583 -0.05075302 -0.0026618391
-0.0182316 0.046925858 -0.092855364 -0.0009918064 0.07266988 0.048536852 0.019805826 0.08535075
-0.07100144 -0.041556783 -0.005474396 -0.0075186417 -0.04217946 -0.09279868 0.02793961 -0.04057149
-0.060399562 0.016370125 0.04720661 -0.008137271 -0.02765251 -0.001230739 -0.07564654 -0.054679014
-0.096121825 0.056235686 0.0025115237 -0.006772615 0.06719513 0.010402948 -0.022372037 0.0014107227
-0.08074066 -0.054015536 0.06571558 -0.017269552 0.027735807 0.060271204 -0.047716506 0.07010211
-0.053654395 0.052762106 -0.06513326 -0.025184087 -0.07654153 0.08616142 -0.033959776 0.09306499
0.09643841 -0.09095312 0.052548885 -0.08525142 0.052282035 0.079658136 -0.068399705 -0.07568321
0.0007995665 -0.04281211 0.07496935 -0.04328275 -0.09587518 -0.09066962 0.07042964 0.088488
0.043589115 -0.05855944 0.065767184 -0.037180323 -0.018847533 -0.093453124 0.08017035 0.07470293
-0.009360984 0.088319525 -0.078607164 -0.042889733 0.027082823 -0.009780303 0.07788564 0.022606082
-0.07014285 -0.06181377 0.08020289 -0.026810572 0.016705357 -0.062038846 -0.057279468 0.051621392
-0.070337474 -0.075728536 0.0040267333 0.07757145 -0.012029909 0.055239946 0.0027830303 -0.09124989
0.016916111 0.030256793 -0.0111764595 0.050687626 0.0026652738 0.08056113 0.004500203 0.06845999
0.0925422 -0.095526494 0.06932989 -0.07528268 0.006432183 0.07064438 0.08602239 -0.010046497
0.03227827 -0.026617654 -0.014528729 -0.039737113 0.091557786 0.01722622 0.061854392 -0.07712448
-0.08015069 -0.00968992 0.048869282 -0.07529715 -0.037897024 -0.036830995 0.034243852 -0.04757194
0.06394249 -0.029247485 -0.032165363 -0.08003019 -0.054551564 0.053518757 -0.03505912 0.08481659
-0.04491161 0.09360127 -0.060998056 -0.08370204 -0.08061763 0.009665042 0.06284051 0.020802468
0.07525444 -0.037984114 -0.044522498 0.0070577413 -0.082117066 0.04143949 -0.011273071 0.004732482
0.04060459 -0.08149574 0.08232525 0.08780441 -0.07960371 0.013481095 0.07794893 0.04565017
-0.020976633 0.030466795 -0.0576672 0.09525138 0.07203336 -0.067627236 -0.03992329 -0.09044288
-0.0912438 0.04553844 0.07471071 -0.025068752 0.07776597 0.059770584 0.039347842 0.0169373
0.037423044 0.008458793 0.06312628 0.020592168 0.03580776 0.03469315 -0.03515317 0.077197924
0.06746067 -0.0881085 0.014756262 0.07091756 -0.010576002 -0.078321815 0.046224177 -0.07014867
0.05104868 -0.070852295 0.094852656 -0.018500328 -0.01084581 0.051974013 -0.00804656 -0.041488245
-0.019858152 0.05599034 -0.0855244 -0.06470917 -0.030385628 -0.008827642 -0.03712866 0.03791079

onnx::LSTM_184 f4 [1, 1024]
00000000: 0000 0000 0000 0000 0000 0000 0000 0000
00000010: 0000 0000 0000 0000 0000 0000 0000 0000
00000020: 0000 0000 0000 0000 0000 0000 0000 0000
00000030: 0000 0000 0000 0000 0000 0000 0000 0000
00000040: 0000 0000 0000 0000 0000 0000 0000 0000
00000050: 0000 0000 0000 0000 0000 0000 0000 0000
00000060: 0000 0000 0000 0000 0000 0000 0000 0000
00000070: 0000 0000 0000 0000 0000 0000 0000 0000
00000080: 0000 0000 0000 0000 0000 0000 0000 0000
00000090: 0000 0000 0000 0000 0000 0000 0000 0000
000000a0: 0000 0000 0000 0000 0000 0000 0000 0000
000000b0: 0000 0000 0000 0000 0000 0000 0000 0000
000000c0: 0000 0000 0000 0000 0000 0000 0000 0000
000000d0: 0000 0000 0000 0000 0000 0000 0000 0000
000000e0: 0000 0000 0000 0000 0000 0000 0000 0000
000000f0: 0000 0000 0000 0000 0000 0000 0000 0000
00000100: 0000 0000 0000 0000 0000 0000 0000 0000
00000110: 0000 0000 0000 0000 0000 0000 0000 0000
00000120: 0000 0000 0000 0000 0000 0000 0000 0000
00000130: 0000 0000 0000 0000 0000 0000 0000 0000
00000140: 0000 0000 0000 0000 0000 0000 0000 0000
00000150: 0000 0000 0000 0000 0000 0000 0000 0000
00000160: 0000 0000 0000 0000 0000 0000 0000 0000
00000170: 0000 0000 0000 0000 0000 0000 0000 0000
00000180: 0000 0000 0000 0000 0000 0000 0000 0000
00000190: 0000 0000 0000 0000 0000 0000 0000 0000
000001a0: 0000 0000 0000 0000 0000 0000 0000 0000
000001b0: 0000 0000 0000 0000 0000 0000 0000 0000
000001c0: 0000 0000 0000 0000 0000 0000 0000 0000
000001d0: 0000 0000 0000 0000 0000 0000 0000 0000
000001e0: 0000 0000 0000 0000 0000 0000 0000 0000
000001f0: 0000 0000 0000 0000 0000 0000 0000 0000
00000200: 0000 0000 0000 0000 0000 0000 0000 0000
00000210: 0000 0000 0000 0000 0000 0000 0000 0000
00000220: 0000 0000 0000 0000 0000 0000 0000 0000
00000230: 0000 0000 0000 0000 0000 0000 0000 0000
00000240: 0000 0000 0000 0000 0000 0000 0000 0000
00000250: 0000 0000 0000 0000 0000 0000 0000 0000
00000260: 0000 0000 0000 0000 0000 0000 0000 0000
00000270: 0000 0000 0000 0000 0000 0000 0000 0000
00000280: 0000 0000 0000 0000 0000 0000 0000 0000
00000290: 0000 0000 0000 0000 0000 0000 0000 0000
000002a0: 0000 0000 0000 0000 0000 0000 0000 0000
000002b0: 0000 0000 0000 0000 0000 0000 0000 0000
000002c0: 0000 0000 0000 0000 0000 0000 0000 0000
000002d0: 0000 0000 0000 0000 0000 0000 0000 0000
000002e0: 0000 0000 0000 0000 0000 0000 0000 0000
000002f0: 0000 0000 0000 0000 0000 0000 0000 0000
00000300: 0000 0000 0000 0000 0000 0000 0000 0000
00000310: 0000 0000 0000 0000 0000 0000 0000 0000
00000320: 0000 0000 0000 0000 0000 0000 0000 0000
00000330: 0000 0000 0000 0000 0000 0000 0000 0000
00000340: 0000 0000 0000 0000 0000 0000 0000 0000
00000350: 0000 0000 0000 0000 0000 0000 0000 0000
00000360: 0000 0000 0000 0000 0000 0000 0000 0000
00000370: 0000 0000 0000 0000 0000 0000 0000 0000
00000380: 0000 0000 0000 0000 0000 0000 0000 0000
00000390: 0000 0000 0000 0000 0000 0000 0000 0000
000003a0: 0000 0000 0000 0000 0000 0000 0000 0000
000003b0: 0000 0000 0000 0000 0000 0000 0000 0000
000003c0: 0000 0000 0000 0000 0000 0000 0000 0000
000003d0: 0000 0000 0000 0000 0000 0000 0000 0000
000003e0: 0000 0000 0000 0000 0000 0000 0000 0000
000003f0: 0000 0000 0000 0000 0000 0000 0000 0000
0.0 0.0 0.0 0.0 0.0 0.0 0.0 0.0
0.0 0.0 0.0 0.0 0.0 0.0 0.0 0.0
0.0 0.0 0.0 0.0 0.0 0.0 0.0 0.0
0.0 0.0 0.0 0.0 0.0 0.0 0.0 0.0
0.0 0.0 0.0 0.0 0.0 0.0 0.0 0.0
0.0 0.0 0.0 0.0 0.0 0.0 0.0 0.0
0.0 0.0 0.0 0.0 0.0 0.0 0.0 0.0
0.0 0.0 0.0 0.0 0.0 0.0 0.0 0.0
0.0 0.0 0.0 0.0 0.0 0.0 0.0 0.0
0.0 0.0 0.0 0.0 0.0 0.0 0.0 0.0
0.0 0.0 0.0 0.0 0.0 0.0 0.0 0.0
0.0 0.0 0.0 0.0 0.0 0.0 0.0 0.0
0.0 0.0 0.0 0.0 0.0 0.0 0.0 0.0
0.0 0.0 0.0 0.0 0.0 0.0 0.0 0.0
0.0 0.0 0.0 0.0 0.0 0.0 0.0 0.0
0.0 0.0 0.0 0.0 0.0 0.0 0.0 0.0
0.0 0.0 0.0 0.0 0.0 0.0 0.0 0.0
0.0 0.0 0.0 0.0 0.0 0.0 0.0 0.0
0.0 0.0 0.0 0.0 0.0 0.0 0.0 0.0
0.0 0.0 0.0 0.0 0.0 0.0 0.0 0.0
0.0 0.0 0.0 0.0 0.0 0.0 0.0 0.0
0.0 0.0 0.0 0.0 0.0 0.0 0.0 0.0
0.0 0.0 0.0 0.0 0.0 0.0 0.0 0.0
0.0 0.0 0.0 0.0 0.0 0.0 0.0 0.0
0.0 0.0 0.0 0.0 0.0 0.0 0.0 0.0
0.0 0.0 0.0 0.0 0.0 0.0 0.0 0.0
0.0 0.0 0.0 0.0 0.0 0.0 0.0 0.0
0.0 0.0 0.0 0.0 0.0 0.0 0.0 0.0
0.0 0.0 0.0 0.0 0.0 0.0 0.0 0.0
0.0 0.0 0.0 0.0 0.0 0.0 0.0 0.0
0.0 0.0 0.0 0.0 0.0 0.0 0.0 0.0
0.0 0.0 0.0 0.0 0.0 0.0 0.0 0.0

onnx::LSTM_202 f4 [1, 512, 128]
00000000: bc61 f0bc e8a2 5cbc 7837 f6bc 5172 9cbd
00000010: 7034 833d 3a05 c2bd 4937 97bd 281b 96bd
00000020: 803a 9f3c 20dd 2b3c 2c8d c8bc 20fb 3a3c
00000030: 9028 a13c e847 a4bd 807e 22bc 68dc bb3d
00000040: 80b7 133d 8851 5e3d 4c36 c23d ead2 823d
00000050: c85d 283d b0ed 6a3c c209 c1bd 20d6 57bc
00000060: 1861 f83c f6a0 9fbd d016 97bc dab0 a63d
00000070: 8408 753d 7852 bd3d 5483 9e3c e827 c6bd
00000080: bc42 ac3c 18c7 f3bc 28bd e3bc 7429 1a3d
00000090: 64a8 2dbd 0071 7dbc 643d 0f3d 8c69 bb3d
000000a0: 7851 53bd a8f8 5cbc dc41 ac3d 944e 9bbc
000000b0: a80c a23c 177c b6bd 0040 9cbb 1897 b73d
000000c0: 54f7 88bc 70c8 a53b 787b 603d c804 4e3c
000000d0: 087a 113c 80b0 663d 1abf bd3d fc4f 893d
000000e0: 44c4 8b3d fc12 81bd 6831 333d 57c5 6fbd
000000f0: 9cf0 343d 48ae d43c b929 bfbd b8a8 973d
00000100: 5a1a 06bd 54c0 c03d 26da 7bbd 02ed 953d
00000110: 8432 be3c 38b6 adbd 4a7f b53d 0080 663d
00000120: 7404 b5bd 10b6 263c de13 a23d 5833 c5bc
00000130: c231 c53d 8224 9dbd d829 bc3c 508d 23bc
00000140: 98d3 a73c 272e bcbd 9b59 b7bd 44fe 1a3d
00000150: 807d 75bc 2880 d73c 59dc 38bd c91d a4bd
00000160: 0ade 12bd 202f 723d 0c8f 9c3d 782f bdbd
00000170: b83f 453c 4651 aabd 7cd4 9b3c 2075 be3d
00000180: 2eb2 c53d 0c5e 96bd 5073 d13b e1d5 39bd
00000190: d7b5 75bd 1080 673d 489a 1c3c 1c99 25bd
000001a0: 5805 56bd 0cd7 b9bc cae4 883d c8c1 6dbc
000001b0: c3a5 21bd 24f0 02bd 601f 4d3c f44a 043d
000001c0: 099e b4bd 640c 0fbd a8b9 51bd 24f6 313d
000001d0: 1ad7 9ebd 6901 8dbd 90bb 5b3c 10f1 853d
000001e0: 45c9 89bd 1c30 5f3d 58b6 193d f89b 1bbc
000001f0: 98a2 0dbd a072 4f3c 0ec9 8ebd 20c8 7c3b
00000200: 3bc4 9cbd 5c18 913c dacb c2bd 1460 b53c
00000210: 4234 b3bd c266 a03d ba3b 9bbd ace4 5b3d
00000220: 8820 4c3d 00ef 7dbd c4a7 d8bc 8017 fbbc
00000230: 745e 9dbc b1be 82bd 3088 86bc c40e b93d
00000240: be9d 85bd 281d 793d 83b6 9fbd 5879 083d
00000250: a87a 47bc 5e61 80bd 7d29 2fbd c0a0 0cbc
00000260: 00a5 c53a 8a55 96bd e8c5 69bc 24de 183d
00000270: 73a2 7ebd bcef a7bc d0f8 94bc 42ed 0dbd
00000280: b0d8 8ebd a320 a4bd b025 a13b 7ef8 b2bd
00000290: 9e0f 56bd 5c95 b83d dc3f 6abd dcec b73c
000002a0: a062 10bc f804 023d f997 2ebd 4439 c23c
000002b0: 005e 503d bc67 843d bc48 1c3d ae4f 853d
000002c0: 5c3d 603d ba80 8ebd 9406 06bd ce5b bfbd
000002d0: 5e8d 84bd c8f8 2a3d a8e2 ec3c 641d 3a3d
000002e0: 787b c83c dea9 35bd 78d0 1f3d a803 963d
000002f0: 14f7 4f3d a429 bbbd c069 feba c566 b4bd
00000300: 6049 dc3b 56c2 8f3d c0db 85bc 4965 73bd
00000310: 204a 593d 289e 663d c4c0 a7bd f20b 01bd
00000320: e2b2 8dbd 740f 193d d4ed 363d dc73 163d
00000330: 741e a3bc f818 313d f225 c63d 863d 9ebd
00000340: dc27 6d3d be15 bfbd 4cec ad3d 9eca 58bd
00000350: c865 c13c 50f2 09bc c08b 4cbc 38b3 adbd
00000360: d016 123d 044e 94bd 80a3 4e3d ce68 993d
00000370: 984e 283d 1c85 963c 72b8 a93d af28 48bd
00000380: 700f 093c f8dd e4bc e40e 92bc 7b68 b4bd
00000390: 982a 08bd 1977 78bd 80a5 a8bd bbf3 55bd
000003a0: 40b6 8b3d 3ed5 b53d e4cb 623d 922a 09bd
000003b0: 5002 babc 081c 143c 8e2b 993d a98b a5bd
000003c0: cc35 ac3d c049 d7ba 97f8 4bbd d019 333d
000003d0: b22c 873d 18fe 8b3c e011 5cbc 8d71 6cbd
000003e0: 49a0 39bd 646c 83bd 30d8 40bc 1016 ab3d
000003f0: 281a 5f3d 88ee 5f3d e2cb 8abd 2b4d 5dbd
-0.029343478 -0.013466574 -0.030055746 -0.076389916 0.06406486 -0.09473653 -0.07383592 -0.073293984
0.019437075 0.010489732 -0.024481378 0.011412412 0.019672662 -0.080215275 -0.009917855 0.091728985
0.03606367 0.054276973 0.094830126 0.06387885 0.04110506 0.014338896 -0.09425689 -0.01317361
0.030319735 -0.07794373 -0.018443495 0.081392005 0.059822574 0.09244245 0.019349732 -0.0967558
0.021027915 -0.029758021 -0.027800158 0.03763719 -0.042396918 -0.015468836 0.034970656 0.09150991
-0.051591367 -0.013487019 0.08410999 -0.018958367 0.019781426 -0.08910387 -0.0047683716 0.08964366
-0.016719498 0.0050592944 0.05480525 0.012574382 0.008879192 0.056320667 0.09264965 0.06704709
0.06824544 -0.06302449 0.04374829 -0.058537807 0.044174775 0.02596201 -0.0933413 0.074052274
-0.032739975 0.09411684 -0.06148734 0.07320596 0.023217447 -0.08482021 0.08862169 0.056274414
-0.0883874 0.010175243 0.079139456 -0.024072334 0.09628631 -0.07672979 0.022969171 -0.009982422
0.020486638 -0.0918849 -0.08952638 0.037840143 -0.014983535 0.026306227 -0.045132015 -0.080134936
-0.035856284 0.059126973 0.076444715 -0.092375696 0.0120391175 -0.08316283 0.019022219 0.092996836
0.09653126 -0.07342157 0.00639192 -0.045369986 -0.05998787 0.056518614 0.009558268 -0.04042922
-0.05225119 -0.02268555 0.06684263 -0.014511533 -0.039464723 -0.031967297 0.012519687 0.032298043
-0.08819205 -0.034923926 -0.051202446 0.04344763 -0.07755871 -0.068850346 0.013411418 0.0654012
-0.06727842 0.05448924 0.037527412 -0.009497635 -0.03457889 0.012661606 -0.06971942 0.0038571432
-0.076546155 0.01771181 -0.09511538 0.02214054 -0.08750202 0.078320995 -0.07579751 0.053684875
0.04983571 -0.061995506 -0.026447184 -0.030650854 -0.019210078 -0.06384028 -0.016422361 0.090360194
-0.065242276 0.06081882 -0.07798483 0.033318847 -0.01217524 -0.06268571 -0.042764176 -0.008583248
0.0015079081 -0.07340534 -0.014268376 0.037321225 -0.062166642 -0.020500056 -0.01818505 -0.034650095
-0.069749236 -0.080140375 0.004917823 -0.087388024 -0.052260987 0.09012863 -0.057189807 0.02245181
-0.0088125765 0.03174302 -0.0426254 0.023708947 0.050870895 0.06465098 0.038155302 0.06509338
0.054746017 -0.069581464 -0.032721117 -0.09343682 -0.06472276 0.041741163 0.028916672 0.045438185
0.024472937 -0.04435145 0.03901717 0.07324916 0.05077274 -0.09138802 -0.0019410178 -0.08808664
0.006722614 0.070194885 -0.016340137 -0.059422765 0.053049207 0.056303173 -0.08191064 -0.031505533
-0.06918885 0.037368253 0.044660404 0.036731586 -0.019911982 0.043236703 0.09675206 -0.077265784
0.05789934 -0.09330319 0.08492336 -0.052927606 0.023608103 -0.008419588 -0.012484491 -0.08481449
0.035666287 -0.07241443 0.050448895 0.07490693 0.041090578 0.018374018 0.08287133 -0.048866924
0.008365497 -0.027937874 -0.017829366 -0.088089906 -0.033243746 -0.060660455 -0.082346916 -0.052234393
0.06821871 0.08878563 0.055370227 -0.033487864 -0.02270618 0.009039886 0.074790105 -0.08083279
0.084086984 -0.0016425177 -0.04979762 0.04372579 0.06600322 0.017088935 -0.013431996 -0.057725478
-0.045318875 -0.06417158 -0.011770293 0.083538175 0.054468304 0.05467084 -0.06777169 -0.05402867

onnx::LSTM_203 f4 [1, 512, 128]
00000000: a453 ad3c 68a9 483c 2249 9a3d 70ed 193d
00000010: d43d 593d 1062 3cbd 9056 5e3d 4e49 98bd
00000020: 182e b5bd 50db 853c 94a6 87bd 60cc 4abb
00000030: ea26 943d 2fdd 27bd 25c5 98bd ba77 ae3d
00000040: 3c6e e7bc f8f9 27bc 7815 f93c dad6 66bd
00000050: d27e 9cbd 9682 873d 280e ee3c 1896 28bd
00000060: a3dc 4cbd 8c9c 9ebc 1096 063d e0f5 66bb
00000070: ec24 9ebc ff20 8bbd 582e 4fbd 1067 28bd
00000080: d060 d83c 6493 7c3d 00cf d839 94b4 df3c
00000090: e612 bbbd c028 2b3c 1246 80bd 26c2 c33d
000000a0: 8b88 c4bd a28d af3d aac7 aebd 6848 193d
000000b0: 7c99 a73d 5d97 6fbd 0c8a 783d 2c13 8cbc
000000c0: 600b 113d 00c3 683b 4032 6d3d ce25 c63d
000000d0: a202 9f3d f871 653d 431c b0bd 200e 30bd
000000e0: 80be 09bc 7c3a b43c 6414 e8bc 00c0 d4b6
000000f0: dcbf 9e3d 20a7 31bc 247d 0bbd 2cc2 ae3d
00000100: a9b7 b9bd c06c bc3b b4cf 583d 8895 d83c
00000110: 2002 293d 12e9 9e3d c0e1 533b 6ee1 a3bd
00000120: fc1d 303d 104c 0e3c dc06 7e3d 7807 92bd
00000130: 6a3a 86bd a6d7 acbd b8f7 b6bd c028 c63a
00000140: ac48 8c3c 90be 87bd 4126 46bd c6a9 92bd
00000150: 76d8 3abd b472 acbd a429 243d 08d8 08bd
00000160: cce1 a6bd f8a4 ca3c a01b 97bb 0099 4a3d
00000170: 988b c73c 0080 5bbc a016 273c bece 40bd
00000180: 9d93 c0bd 987c 4a3c 9cf9 d4bc 383f 233d
00000190: 89a3 38bd 646f e6bc 78fb 87bc c875 673c
000001a0: 3811 933d 3025 1a3d d022 afbd 1cea 213d
000001b0: 6676 bfbd 787a 77bd c4a3 bf3d 4ed9 a93d
000001c0: 8006 3e3c ac79 3f3d 167e b03d 16fc bb3d
000001d0: a1ea 84bd 78aa 323d a1dd b6bd 3261 15bd
000001e0: c847 18bd d0df d7bb b2c2 b73d 987f 273c
000001f0: d097 4e3d 30d6 a83b c4fd 733d 5468 c53c
00000200: 06f0 913d 898a 53bd 1c00 bf3d 40d6 3ebb
00000210: 8bce 94bd 62cb 5ebd 2d6e 9dbd c8a2 babd
00000220: e073 e53c 843f cfbc 59d1 38bd 40fe 893c
00000230: 846e 153d f880 7abc dcfe 7f3d 727b 1dbd
00000240: da83 02bd 0084 463d 243b 913c 987f 06bd
00000250: 99ee 98bd 9879 4c3c 7439 283d b8e8 233c
00000260: e040 37bb f8ff 7dbd 7e92 b83d c090 ee3c
00000270: 7cb8 43bd 48b3 b53c 66d1 903d b7df c1bd
00000280: 64a3 ab3c d8b6 20bc 62f9 883d c611 babd
00000290: 3063 e8bc 2b65 5abd 4962 65bd 7873 913d
000002a0: ac82 8dbc 98b4 46bc f64f 8a3d 02a4 a63d
000002b0: 6c07 bdbd 8606 90bd f085 313d 6b82 8dbd
000002c0: 8812 97bc 72b1 10bd 8661 a53d 640a ffbc
000002d0: 8188 b5bd 7c13 bcbd 884e b43d 17c9 b5bd
000002e0: 0c38 403d aac5 bfbd 648e a33d 202f 183c
000002f0: 665a 8b3d f03c 163d f657 9abd 2ae7 04bd
00000300: b808 823d e4d0 aabc 80a2 633d 5c44 133d
00000310: d0f6 1dbd acef b93c 0a20 a5bd bbe8 5ebd
00000320: 7c22 953c 4623 a53d 507d e43c 8283 943d
00000330: f8f2 7b3c 5814 863d 1072 ff3b 3c57 6e3d
00000340: 860c 65bd 882b dbbc 04b6 d8bc 1ebe a4bd
00000350: 6a9e 7abd e12f b1bd d4bc 723d 40de af3a
00000360: acc5 293d d444 b5bd a8b1 f8bc 0081 3bba
00000370: ba72 babd 2afd 03bd 08b3 ecbc dae2 1fbd
00000380: 1c2a aa3d 9023 823d 06fd 93bd 8004 b9bc
00000390: 24dd 7c3d 1ab5 953d 305e 75bc 3e52 5ebd
000003a0: 87d0 6abd 362d 8a3d 00fb f13b 8c55 10bd
000003b0: 3c65 ac3d 300a 453c 92f1 67bd 4268 1fbd
000003c0: 48e1 8dbc 88c1 543d 0ceb b93c c1cb c3bd
000003d0: 2045 c6bc 2c58 9a3d 47fd 54bd 44ef 9ebd
000003e0: 3cf4 8ebd 6021 183d 8479 ac3d 6981 a8bd
000003f0: 3e34 ac3d 729e af3d c641 8c3d 9309 aabd
0.021158047 0.012247421 0.0753348 0.037579954 0.05303748 -0.045991957 0.05428177 -0.07435857
-0.08846682 0.016339928 -0.06623569 -0.003094457 0.07233985 -0.04098242 -0.07459477 0.0851893
-0.028250806 -0.010252468 0.030405745 -0.056357242 -0.076413766 0.06616704 0.029059485 -0.041158766
-0.050015103 -0.019361757 0.032857955 -0.0035241768 -0.019304715 -0.06793403 -0.050581306 -0.041113913
0.026413351 0.061664 0.00041352957 0.027307786 -0.09134464 0.010446727 -0.06263365 0.09558515
-0.09596356 0.08571936 -0.08534177 0.037422568 0.08183572 -0.05849396 0.060678527 -0.017098986
0.03541124 0.003551662 0.05790925 0.096751794 0.07764174 0.056016892 -0.085991405 -0.04298222
-0.008407235 0.022000544 -0.028330036 -6.340444e-06 0.07751438 -0.010843068 -0.03405489 0.08533129
-0.090682335 0.0057502687 0.052932456 0.02643849 0.041261792 0.077592984 0.0032330602 -0.08001982
0.042997345 0.008685127 0.06201826 -0.07130331 -0.0655411 -0.08439569 -0.08933967 0.0015118346
0.017124496 -0.06628144 -0.048376326 -0.07161288 -0.04561659 -0.084203154 0.040078774 -0.03340915
-0.08148536 0.024736866 -0.0046114475 0.04946232 0.024358556 -0.013397217 0.010198265 -0.047072165
-0.09403155 0.012358807 -0.02599793 0.039855212 -0.045077834 -0.028129287 -0.016599402 0.014127202
0.071810186 0.03763312 -0.08551562 0.039529905 -0.093487546 -0.06041953 0.09357408 0.08293401
0.011598229 0.046746895 0.08617799 0.09178941 -0.064900644 0.043619603 -0.08928991 -0.036469646
-0.03717783 -0.00658796 0.08972682 0.010223292 0.05043775 0.0051524863 0.05956818 0.0240976
0.07125859 -0.05164579 0.09326193 -0.0029119402 -0.072659574 -0.05439318 -0.0768703 -0.09113079
0.028009355 -0.025298841 -0.045121524 0.016844869 0.03648235 -0.015289538 0.062498912 -0.038447805
-0.031864025 0.04846573 0.017728396 -0.032836527 -0.07467384 0.012480162 0.041070417 0.010004215
-0.0027962252 -0.06201169 0.09012316 0.029121757 -0.04778336 0.022180215 0.070711896 -0.09466498
0.020951934 -0.009809218 0.06688191 -0.09085421 -0.028367609 -0.053319138 -0.056001935 0.07102102
-0.017274223 -0.012128018 0.067535326 0.08136751 -0.09229931 -0.07032494 0.043340623 -0.06909641
-0.018441454 -0.035325475 0.08075242 -0.031132884 -0.08863927 -0.09183404 0.08804041 -0.088762455
0.04692845 -0.09363873 0.07986143 0.009288579 0.068043515 0.03667921 -0.075363085 -0.032447018
0.06349319 -0.02085156 0.055574894 0.035953864 -0.038565457 0.022697292 -0.080627516 -0.054421168
0.01820492 0.080633685 0.027891785 0.072516456 0.0153777525 0.06546849 0.0077955797 0.058188662
-0.055920146 -0.026754156 -0.02645398 -0.080440745 -0.06118623 -0.0865171 0.05926211 0.0013417676
0.04144828 -0.088510185 -0.03035815 -0.00071527064 -0.091039136 -0.032223858 -0.028893963 -0.039034702
0.08308813 0.06354439 -0.07225995 -0.022585154 0.061734334 0.07309933 -0.014976069 -0.05427765
-0.057327773 0.067469046 0.007384658 -0.035237834 0.084177464 0.012026355 -0.056626864 -0.038917787
-0.017319337 0.05194238 0.022695087 -0.09560347 -0.024202883 0.07536349 -0.051999357 -0.0776048
-0.06980178 0.037141204 0.08421615 -0.08227808 0.08408402 0.08575143 0.06848483 -0.083026074
