output/model_0.onnx (onnx, 214229 bytes, 5 tensors)

fc.weight f4 [4, 128]
-0.020890024 -0.023639446 -0.04198783 0.03620496 0.04015852 -0.001037959 0.0052787093 -0.07111991
0.029983295 0.04360518 -0.01591551 -0.08389061 -0.06881704 -0.07529138 -0.08250015 0.015442455
0.036478467 0.040474754 -0.013039057 0.028857239 0.07924231 0.08167077 0.061218876 -0.033806257
-0.06365648 -0.08759703 -0.0030928059 0.062859915 0.017578226 -0.06546433 0.00647774 -0.01358321
-0.07805941 0.028248431 0.010481599 0.069821134 -0.011338564 0.045828 -0.07405216 0.06409665
-0.036986846 -0.025137942 -0.08882158 -0.018452795 0.046013586 -0.06759865 0.028771766 0.056225944
-0.0690277 0.02765562 -0.07343885 0.066843174 0.0111104995 -0.02344166 -0.0049286834 0.027984887
0.0032483093 -0.029667849 -0.03068154 -0.08046388 -0.03776307 -0.07520142 0.040133417 -0.0518866
0.037940085 0.062879294 -0.07198729 -0.09481158 -0.0650389 -0.021440897 0.049735796 0.0299075
0.08649581 -0.041006893 -0.06922359 0.048391666 -0.04017901 -0.014727226 -0.030119378 0.013030335
0.048856143 0.08172948 0.07185633 0.019591184 -0.07823609 0.02390351 0.069267094 -0.06468606
0.009344153 0.016313422 -0.07706456 0.058775716 -0.031541202 -0.052668016 -0.03753262 0.042759478
0.006181103 -0.004543195 0.0078079873 -0.025442777 0.08692584 -0.0028872115 -0.068634085 -0.048046753
-0.060301863 -0.028472578 -0.08571046 0.0850959 0.07677308 -0.07374287 -0.06398688 0.061906964
-0.01492251 -0.020701678 -0.042131446 -0.02961329 -0.03031457 0.045755118 -0.046925943 -0.06724947
0.02559083 0.024248485 0.018430656 0.035201352 -0.08684556 -0.015956167 -0.034530975 0.07430821
-0.08061669 -0.07275908 0.013541134 -0.027942305 0.030644108 0.01067732 0.08550779 0.011822682
-0.018916892 -0.06318663 -0.058673333 -0.073191896 -0.09038607 -0.029543582 0.04278963 0.08422079
0.05280151 -0.077219024 -0.07744118 0.04795986 -0.02286979 -0.03421219 -0.0033263497 -0.0027529951
-0.049224842 -0.006586918 -0.040225267 0.07717436 0.084824935 0.0076332423 -0.042602204 -0.019425327
0.0073704524 -0.07793168 0.0066346545 0.068779 -0.0813238 0.036143307 0.07300326 0.08052859
0.046721086 -0.055172533 -0.061519552 -0.05799147 -0.06671886 0.0133231785 -0.06565557 0.0022697102
-0.04299288 0.049708154 0.087830245 -0.006849121 -0.027190896 0.0042235316 0.07013919 -0.036994178
0.07845211 0.052472334 0.036376365 0.069233015 0.050819855 0.08078466 0.0787165 0.044784047
-0.070805594 -0.059792835 -0.040540587 -0.04214401 -0.018723292 0.035337668 0.06237611 -0.0639121
-0.06634692 0.061064392 0.018653316 -0.044100247 0.03230749 0.04105297 0.00853381 0.056846887
0.061046254 -0.051749974 -0.020960832 0.067272015 0.015279851 -0.060845684 0.029256659 -0.033459596
0.058068752 0.028220538 -0.055982787 -0.08520224 0.017166823 0.0321269 -0.06503386 -0.053729102
-0.07050532 0.042477254 0.08027902 -0.06502439 0.05152714 -0.003927532 -0.008351387 -0.011505273
0.04137057 -0.07649527 -0.060300976 0.020020092 0.064357266 0.029123353 -0.0817737 -0.021556342
0.049542625 -0.06670993 -0.06010788 0.046710532 -0.07859072 0.033329353 0.029232688 0.04149523
0.015441949 -0.0046459795 -0.034251895 -0.07515604 -0.0041795657 -0.009864033 -0.08129288 -0.011447812
00000000: 8e21 abbc 83a7 c1bc 6efb 2bbd a74b 143d
00000010: 437d 243d 200c 88ba 06f9 ac3b 51a7 91bd
00000020: 879f f53c 589b 323d 3e61 82bc d7ce abbd
00000030: f3ef 8cbd 5e32 9abd d7f5 a8bd 5a02 7d3c
00000040: 726a 153d dbc8 253d c5a1 55bc 0466 ec3c
00000050: cb49 a23d 0143 a73d a5c0 7a3d 6e78 0abd
00000060: 545e 82bd 1266 b3bd acb0 4abb b3bc 803d
00000070: 3600 903c 2a12 86bd 3943 d43b 1d8c 5ebc
00000080: 9ddd 9fbd 4169 e73c 03bb 2b3c 62fe 8e3d
00000090: 62c5 39bc 24b6 3b3d a9a8 97bd 1b45 833d
000000a0: 857f 17bd 16ee cdbc 17e8 b5bd 512a 97bc
000000b0: be78 3c3d 2971 8abd c4b2 eb3c 2d4d 663d
000000c0: 655e 8dbd 0a8e e23c 1c67 96bd 13e5 883d
000000d0: d008 363c b908 c0bc cb80 a1bb 9040 e53c
000000e0: 96e1 543b fd09 f3bc da57 fbbc 3fca a4bd
000000f0: 73ad 1abd 3403 9abd f062 243d 0b87 54bd
00000100: 1067 1b3d dcc6 803d 136e 93bd 932c c2bd
00000110: 1d33 85bd d2a4 afbc c3b7 4b3d 9300 f53c
00000120: b724 b13d d8f6 27bd 19c5 8dbd 5736 463d
00000130: bf92 24bd 774a 71bc eabc f6bc 307d 553c
00000140: 611d 483d c961 a73d 6929 933d b17d a03c
00000150: 3e3a a0bd 4bd1 c33c e8db 8d3d 207a 84bd
00000160: 3818 193c baa3 853c 06d4 9dbd cebe 703d
00000170: 5931 01bd 6bba 57bd cebb 19bd 9024 2f3d
00000180: da8a ca3b 15df 94bb 25da ff3b 5f6d d0bc
00000190: 2d06 b23d 5f37 3dbb 0790 8cbd accc 44bd
000001a0: 16ff 76bd 533f e9bc f788 afbd c246 ae3d
000001b0: 343b 9d3d 8006 97bd 8e0b 83bd 2892 7d3d
000001c0: 8b7d 74bc 9196 a9bc 0692 2cbd 9297 f2bc
000001d0: 4356 f8bc b869 3b3d 6b35 40bd 17ba 89bd
000001e0: dca3 d13c c2a4 c63c e3fb 963c 4b2f 103d
000001f0: 16dc b1bd 82b6 82bc 5a70 0dbd e72e 983d
00000200: 5d1a a5bd b602 95bd a2db 5d3c 43e7 e4bc
00000210: 5a09 fb3c edef 2e3c b51e af3d ecb3 413c
00000220: 99f7 9abc fe67 81bd 7353 70bd a2e5 95bd
00000230: 551c b9bd 6205 f2bc 2e44 2f3d f37b ac3d
00000240: 6546 583d 0225 9ebd 7b99 9ebd 8f71 443d
00000250: 6d59 bbbc 1522 0cbd e3fe 59bb 986b 34bb
00000260: fd9f 49bd 13d7 d7bb 40c3 24bd 970d 9e3d
00000270: b2b8 ad3d 4720 fa3b a67f 2ebd dd21 9fbc
00000280: d683 f13b a59a 9fbd 8467 d93b 01dc 8c3d
00000290: 188d a6bd 010b 143d bc82 953d 2cec a43d
000002a0: 9c5e 3f3d 98fc 61bd edfb 7bbd 7788 6dbd
000002b0: e6a3 88bd 7649 5a3c 6d76 86bd 6bbf 143b
000002c0: 4d19 30bd c79a 4b3d 58e0 b33d 976e e0bb
000002d0: 71bf debc 8d65 8a3b 23a5 8f3d 3587 17bd
000002e0: 80ab a03d 3bed 563d 62ff 143d 0aca 8d3d
000002f0: 7b28 503d 6e72 a53d 1e36 a13d 7a6f 373d
00000300: 8602 91bd 55e9 74bd e30d 26bd 339f 2cbd
00000310: 9761 99bc 3bbe 103d 187e 7f3d 59e4 82bd
00000320: e5e0 87bd a81e 7a3d d7ce 983c 76a2 34bd
00000330: dc54 043d 2927 283d 65d1 0b3c 48d8 683d
00000340: a30b 7a3d c8f7 53bd 0db6 abbc e9c5 893d
00000350: 5758 7a3c 5339 79bd a9ab ef3c ee0c 09bd
00000360: 80d9 6d3d c22e e73c 354e 65bd 837e aebd
00000370: 70a1 8c3c 7f97 033d 7930 85bd 0c13 5cbd
00000380: 1865 90bd a1fc 2d3d 5469 a43d 822b 85bd
00000390: 1f0e 533d 87b2 80bb 42d4 08bc 9d80 3cbc
000003a0: 3074 293d 8da9 9cbd 28fe 76bd 2d01 a43c
000003b0: becd 833d 1994 ee3c f878 a7bd ed96 b0bc
000003c0: 35ed 4a3d 379f 88bd ae33 76bd 8b53 3f3d
000003d0: 2cf4 a0bd 5c84 083d 6479 ef3c e7f6 293d
000003e0: 3a00 7d3c 4d3d 98bb b74b 0cbd 69eb 99bd
000003f0: bdf4 88bb c19c 21bc e27c a6bd 9b8f 3bbc

fc.bias f4 [4]
0.016696466 -0.03436778 -0.037389107 -0.0047644507
00000000: 07c7 883c 3bc5 0cbd 5225 19bd 1c1f 9cbb

onnx::GRU_101 f4 [1, 384, 7]
0.00038377114 -0.102555454 0.08746037 0.07241076 -0.102941915 -0.102153085 -0.04583802 0.09568274
-0.099479005 0.016448835 -0.047741573 -0.011456083 -0.12410807 -0.06302137 0.03687917 -0.07203884
-0.073268846 -0.050103754 0.02023148 -0.07094562 -0.07436214 0.021288205 0.0022131968 -0.11343775
0.059579026 0.09186671 -0.12183574 0.054592546 -0.019932475 -0.080267556 -0.07523243 -0.0641307
-0.090138726 -0.04309491 -0.014008178 0.08624825 -0.039203398 0.05966647 0.10997059 -0.09916622
-0.09650152 -0.10062116 0.03161344 -0.009375535 0.08253126 0.07592746 -0.09974216 -0.11590868
-0.027635936 0.07284543 -0.08261927 -0.041136783 -0.05094104 0.119641036 -0.017533353 -0.05733462
-0.11003154 -0.02272296 -0.050732754 -0.071269415 0.030016385 -0.11133042 -0.09461666 0.11358621
0.107704185 0.04122969 0.061164163 -0.06656746 0.10968821 0.11912895 -0.0022644592 -0.039515004
-0.05062029 -0.025239775 -0.017016813 -0.08227323 -0.12097799 -0.098238565 0.038930967 -0.05596255
-0.014482615 0.073099904 0.11516692 0.08732793 -0.028469611 -0.057992883 0.05739605 0.11013101
0.015902134 -0.07576388 -0.013919122 -0.012450966 -0.085711814 0.060807534 0.06614098 -0.0672124
-0.118605725 0.03724526 -0.06887495 0.10856422 -0.09222485 0.09399224 0.021861486 -0.07260807
0.07625737 0.0541027 0.012889174 -0.07683961 0.012470369 0.07272759 -0.0468032 0.0634624
-0.12188433 -0.03448975 -0.054334573 -0.09651645 0.052205414 -0.066501334 0.11147947 -0.0020627459
0.044318154 0.053508405 -0.07422439 0.03677402 -0.07700614 -0.08568232 -0.009221132 -0.047302023
0.108872116 0.09712824 -0.0035578462 -0.048563898 0.076812685 0.0981737 -0.117533654 0.07442917
0.007697372 0.09939144 0.08515102 -0.12190194 -0.0567886 0.043243725 -0.008269906 -0.103502385
-0.03762238 0.07241597 -0.014697552 0.116130784 -0.03615477 -0.053874865 0.024260797 -0.0027911677
-0.040050324 0.049128972 -0.106401 0.10104754 -0.108918674 0.06407924 -0.0383893 0.040265277
-0.017557774 -0.110852994 -0.09222721 -0.0831375 -0.0914034 -0.07411767 -0.045879964 -0.11747271
0.10530667 -0.017479012 -0.008036085 0.0380013 -0.11483286 0.11594719 -0.059459835 0.022121739
0.04824644 0.113381244 0.08003855 -0.08953789 0.025794148 -0.090479635 0.015958317 0.11151519
0.011900237 -0.09113501 0.028811177 -0.09010074 -0.009214272 -0.07439791 -0.058822967 0.0021076172
0.08675721 -0.081087716 0.08922507 -0.111528896 0.09536964 -0.02439692 0.10724511 -0.01769292
-0.004218458 -0.047331493 -0.119522735 0.09852345 -0.072922446 -0.01167785 -0.080341354 -0.063475065
0.06366644 0.11104039 0.001172153 0.009728249 0.053043153 -0.08636723 -0.036064688 -0.08326735
0.058194768 -0.12365106 -0.095286146 -0.08044703 0.049707763 -0.06378684 0.06732009 0.00011459853
0.08530816 0.018083312 0.007436919 -0.05487545 0.015132272 0.022050751 -0.107111216 -0.07129623
-0.060458947 -0.046962418 -0.09450745 0.017802712 -0.01020298 0.10725584 0.11119418 -0.116701156
-0.06872826 -0.011547627 -0.042871743 0.06893483 -0.10802821 0.123856515 0.024584513 0.06498917
0.008532844 0.067825235 -0.11810806 -0.024103861 -0.052435365 -0.037720744 0.000572533 -0.010752139
00000000: e434 c939 9808 d2bd 6c1e b33d 184c 943d
00000010: 36d3 d2bd a335 d1bd a6c0 3bbd 50f5 c33d
00000020: a6bb cbbd b5bf 863c ab8c 43bd 4bb2 3bbc
00000030: 5f2c febd 5911 81bd 9d0e 173d 1989 93bd
00000040: fa0d 96bd 9839 4dbd 7dbc a53c f04b 91bd
00000050: 2d4b 98bd 9a64 ae3c 480b 113b 0d52 e8bd
00000060: 2309 743d 9d24 bc3d 0485 f9bd 6f9c 5f3d
00000070: 6e49 a3bc 5163 a4bd 7613 9abd f556 83bd
00000080: a79a b8bd 4a84 30bd 8f82 65bc eca2 b03d
00000090: be93 20bd d464 743d 4338 e13d a917 cbbd
000000a0: 97a2 c5bd 7712 cebd 187d 013d d89b 19bc
000000b0: 2606 a93d db7f 9b3d 9e45 ccbd 8861 edbd
000000c0: c264 e2bc fc2f 953d 4b34 a9bd 0b7f 28bd
000000d0: 8da7 50bd 5c06 f53d 1ba2 8fbc b5d7 6abd
000000e0: 3758 e1bd 8025 babc 26cd 4fbd b3f5 91bd
000000f0: ece4 f53c 3401 e4bd 61c6 c1bd e39f e83d
00000100: 0394 dc3d 77e0 283d 4687 7a3d 8554 88bd
00000110: 36a4 e03d e1f9 f33d 5267 14bb 7cda 21bd
00000120: 3957 4fbd a5c3 cebc d866 8bbc de7e a8bd
00000130: 4fc3 f7bd 4d31 c9bd 1476 1f3d fd38 65bd
00000140: 7d48 6dbc 67b5 953d a2dc eb3d fcd8 b23d
00000150: 1a39 e9bc f289 6dbd 1f18 6b3d 5e8c e13d
00000160: 3145 823c 182a 9bbd 070d 64bc 23ff 4bbc
00000170: ad89 afbd 5211 793d ec74 873d a8a6 89bd
00000180: 8fe7 f2bd 7c8e 183d 4f0e 8dbd eb56 de3d
00000190: 62e0 bcbd 017f c03d dc16 b33c 8ab3 94bd
000001a0: d32c 9c3d cb9a 5d3d 1d2d 533c 165e 9dbd
000001b0: 8550 4c3c 34f2 943d b6b4 3fbd 93f8 813d
000001c0: 7e9e f9bd 2045 0dbd ee8d 5ebd 6baa c5bd
000001d0: 58d5 553d da31 88bd 594f e43d 222f 07bb
000001e0: f486 353d a12b 5b3d f502 98bd 5ba0 163d
000001f0: 65b5 9dbd 367a afbd 3b14 17bc c4bf 41bd
00000200: 58f8 de3d 2ceb c63d c12a 69bb f0ea 46bd
00000210: f84f 9d3d 4b0f c93d 7cb5 f0bd 526e 983d
00000220: 3d3a fc3b bd8d cb3d a863 ae3d b9a7 f9bd
00000230: 2a9b 68bd 5520 313d 807e 07bc 0ff9 d3bd
00000240: ed19 1abd d34e 943d 00ce 70bc fad5 ed3d
00000250: 0617 14bd e4ab 5cbd 94be c63c 06ec 36bb
00000260: cf0b 24bd 763b 493d c4e8 d9bd 03f2 ce3d
00000270: c110 dfbd fa3b 833d 193e 1dbd 34ed 243d
00000280: 52d5 8fbc e506 e3bd 9fe1 bcbd fe43 aabd
00000290: b531 bbbd 01cb 97bd a1ec 3bbd 8895 f0bd
000002a0: 06ab d73d 2530 8fbc c9a9 03bc 40a7 1b3d
000002b0: 7e2d ebbd b875 ed3d 288c 73bd a638 b53c
000002c0: 0f9e 453d 6d34 e83d 40eb a33d a45f b7bd
000002d0: 404e d33c 634d b9bd 04bb 823c 1362 e43d
000002e0: 36f9 423c fea4 babd 6b05 ec3c bd86 b8bd
000002f0: 75f7 16bc ee5d 98bd 5af0 70bd f31f 0a3b
00000300: c4ad b13d 5111 a6bd a2bb b63d 4369 e4bd
00000310: 2851 c33d 0ddc c7bc 53a3 db3d bef0 90bc
00000320: fe3a 8abb abde 41bd 56c8 f4bd aac6 c93d
00000330: 5d58 95bd 7454 3fbc 028a a4bd 37ff 81bd
00000340: 8d63 823d 2569 e33d eea2 993a 3c63 1f3c
00000350: c743 593d 4de1 b0bd 91b8 13bd 1388 aabd
00000360: a35d 6e3d c43c fdbd 6225 c3bd 6ac1 a4bd
00000370: 5e9a 4b3d ada2 82bd 1edf 893d 9e54 f038
00000380: 0bb6 ae3d 7423 943c 66b1 f33b 14c5 60bd
00000390: 59ed 773c c7a3 b43c 205d dbbd c203 92bd
000003a0: cda3 77bd aa5b 40bd 1f8d c1bd fed6 913c
000003b0: 662a 27bc f3a8 db3d c6b9 e33d 0401 efbd
000003c0: 67c1 8cbd 4232 3dbc 489a 2fbd b42d 8d3d
000003d0: e53d ddbd 7ca8 fd3d 7665 c93c 0b19 853d
000003e0: 57cd 0b3c f5e7 8a3d a3e2 f1bd 7675 c5bc
000003f0: 77c6 56bd 1181 1abd 0a16 163a bd29 30bc

onnx::GRU_102 f4 [1, 384, 128]
-0.07651288 0.07543893 -0.02347964 0.000102487895 0.079608425 -0.03493183 -0.018904157 -0.040712025
0.01940608 -0.033718754 -0.055922735 -0.016504282 0.044148475 0.008508887 -0.09793562 -0.07206266
0.09518988 0.096198395 -0.0010396875 0.04926299 0.03745714 0.08303999 -0.020380279 -8.422283e-05
-0.0652486 -0.09388275 0.062332712 0.0061617214 -0.08247806 0.053951122 -0.054360982 -0.017409122
-0.055460837 0.053745095 -0.057334922 -0.0050935345 0.09551673 0.044499844 0.015487756 0.055011537
0.049623128 0.038797814 0.096561946 0.039546255 -0.001109467 0.04541619 -0.096525386 0.015541804
0.01759318 -0.096492566 0.0012169639 -0.07426388 -0.0042260224 -0.03590211 0.026945714 0.05828823
0.058613215 0.09666836 0.0856007 -0.010824153 0.021016255 -0.070160255 0.088611126 -0.027905697
-0.06646771 0.0012026223 -0.02374018 0.07169731 0.049782734 -0.07255078 0.07524337 0.07204882
0.09287517 -0.0063732807 -0.064759806 -0.007698701 0.049184456 -0.057802405 -0.017780453 0.08009504
0.030837223 0.076992236 -0.011585355 0.046801522 -0.0067395573 -0.033691525 -0.0022762707 -0.025649428
0.00540101 -0.09725295 0.075695746 -0.042565826 -0.026261605 -0.037864566 0.0007908737 -0.018384658
0.0071278084 -0.06586279 -0.0004400908 -0.09215771 -0.0383207 -0.023411244 -0.0013718358 0.0751701
-0.047396198 0.058296107 0.06273428 -0.027929407 0.023038754 -0.067678526 -0.095138796 -0.09243874
0.027468344 0.053091463 -0.0072364365 -0.031100215 0.027261423 -0.039207723 0.019387396 -0.022674108
-0.056692243 0.06328634 -0.07864702 -1.6756947e-05 -0.03141099 -0.039716944 0.0833318 0.02790177
-0.0012898126 0.06655266 -0.08800115 0.03508414 -0.058967367 0.0021304218 0.027978498 0.015586076
-0.06614148 -0.08687789 0.06373701 0.034130123 0.054768648 -0.055903457 -0.069987744 0.068245694
-0.05348428 -0.05218375 0.07834019 0.072695225 -0.081518404 -0.08702976 0.025406722 0.049999677
0.033488177 0.00087155006 0.08161015 0.0017785467 -0.04278208 -0.031362183 -0.04010489 0.036068764
-0.0042890036 -0.0429294 0.060488664 0.024080025 -0.00051708997 -0.0009202748 0.018394094 -0.08028652
-0.027590228 -0.01098078 0.013726965 -0.06393676 0.0835485 -0.036999334 -0.044075955 -0.0002586341
-0.09147275 0.050924066 0.0024988195 0.00534129 -0.08183825 -0.048419595 0.073656045 -0.015435038
0.06391836 -0.036290143 -0.009910413 0.054696813 0.0080662845 -0.047810882 -0.08718953 -0.0341808
0.072002836 -0.00038309867 -0.09113692 -0.026443461 0.06972749 -0.052346744 -0.09578729 -0.089709535
0.05212498 0.07883552 0.07503318 0.07926453 -0.06498361 -0.07822843 0.0726922 0.0441341
-0.08765841 0.033923298 -0.040331047 0.025469417 -0.05877008 0.050119318 -0.001015689 -0.084913015
-0.015561101 0.045757245 0.06141484 0.054877784 -0.016630258 -0.058295306 -0.017312165 -0.09069552
0.028643765 0.021816399 -0.048183516 -0.019014949 0.081007436 -0.025755975 -0.08793871 -0.029842405
-0.082489006 -0.010987451 -0.09607903 -0.03872744 -0.06987629 -0.06307345 -0.08758997 0.06755508
0.022518098 -0.061744936 0.082336634 0.036265336 0.00064017746 -0.029647512 0.0009482017 -0.081529446
0.023949506 -0.00094484334 -0.06587613 0.08996112 0.031684544 0.03372283 0.03275824 -0.061561245
00000000: c9b2 9cbd ba7f 9a3d 6058 c0bc c5ee d638
00000010: be09 a33d ae14 0fbd e4dc 9abc a7c1 26bd
00000020: 80f9 9e3c ad1c 0abd 3d0f 65bd fd33 87bc
00000030: 08d5 343d dc68 0b3c 7892 c8bd 9695 93bd
00000040: e9f2 c23d aa03 c53d 2046 88ba fdc7 493d
00000050: a86c 193d df10 aa3d 8bf4 a6bc caa0 b0b8
00000060: 0fa1 85bd 9945 c0bd 9650 7f3d 44e8 c93b
00000070: 42ea a8bd dafb 5c3d 9fa9 5ebd 939d 8ebc
00000080: e72a 63bd d123 5c3d 06d8 6abd aae7 a6bb
00000090: 469e c33d 7845 363d 5bc0 7d3c c753 613d
000000a0: 9f41 4b3d 75ea 1e3d 45c2 c53d 41fb 213d
000000b0: 896b 91ba 5406 3a3d 1aaf c5bd 0da3 7e3c
000000c0: 931f 903c e59d c5bd 8882 9f3a a917 98bd
000000d0: 727a 8abb 170e 13bd 42bd dc3c a4bf 6e3d
000000e0: 6914 703d 10fa c53d 6b4f af3d ca57 31bc
000000f0: 482a ac3c 2eb0 8fbd c079 b53d 7d9a e4bc
00000100: 3920 88bd 4fa1 9d3a c47a c2bc 0ad6 923d
00000110: fbe8 4b3d 8195 94bd 3219 9a3d 558e 933d
00000120: 5635 be3d f4d6 d0bb caa0 84bd 6345 fcbb
00000130: a475 493d 37c2 6cbd 50a8 91bc de08 a43d
00000140: 589e fc3c 1bae 9d3d 80d0 3dbc f4b2 3f3d
00000150: 81d7 dcbb 2000 0abd 7c2d 15bb c01e d2bc
00000160: f5fa b03b 8e2c c7bd 5f06 9b3d 8159 2ebd
00000170: 9422 d7bc e017 1bbd a352 4f3a 6c9b 96bc
00000180: 6490 e93b 12e3 86bd fdbb e6b9 2ebd bcbd
00000190: 2bf6 1cbd f0c8 bfbc 2ccf b3ba c8f2 993d
000001a0: 8422 42bd e6c7 6e3d d57a 803d 36cc e4bc
000001b0: c5bb bc3c 0a9b 8abd 21d8 c2bd 8650 bdbd
000001c0: 4b05 e13c 6f76 593d a11f edbb e1c5 febc
000001d0: 5953 df3c 4798 20bd 51d2 9e3c 0dbf b9bc
000001e0: 2036 68bd 459c 813d b011 a1bd 4591 8cb7
000001f0: cfa8 00bd 3cae 22bd dda9 aa3d 4192 e43c
00000200: ee0e a9ba c34c 883d f239 b4bd 63b4 0f3d
00000210: c487 71bd 8c9e 0b3b 2a33 e53c be5c 7f3c
00000220: 2f75 87bd 09ed b1bd 8d88 823d 07cc 0b3d
00000230: 1755 603d 06fb 64bd bc55 8fbd 66c4 8b3d
00000240: 5512 5bbd a1be 55bd d270 a03d 3ce1 943d
00000250: 1ff3 a6bd a93c b2bd c221 d03c 76cc 4c3d
00000260: e62a 093d bc78 643a 3923 a73d 201e e93a
00000270: 433c 2fbd a275 00bd 0645 24bd d7bc 133d
00000280: c58a 8cbb bdd6 2fbd f6c2 773d 7943 c53c
00000290: 528d 07ba 993e 71ba 36af 963c 426d a4bd
000002a0: e704 e2bc bbe8 33bc 10e7 603c 47f1 82bd
000002b0: 7a1b ab3d 9d8c 17bd fd88 34bd 4899 87b9
000002c0: 1156 bbbd c195 503d 3cc3 233b fd05 af3b
000002d0: d09a a7bd a053 46bd fbd8 963d 3ee3 7cbc
000002e0: a1e7 823d f9a4 14bd 495f 22bc c409 603d
000002f0: 7328 043c 58d5 43bd 6d90 b2bd 2b01 0cbd
00000300: 3976 933d a2da c8b9 fea5 babd f59f d8bc
00000310: 49cd 8e3d 8a69 56bd 202c c4bd a2b9 b7bd
00000320: 0181 553d 8474 a13d ffaa 993d 7155 a23d
00000330: 2016 85bd 3a36 a0bd a6df 943d f5c5 343d
00000340: 4186 b3bd 28f3 0a3d 2b32 25bd 3da5 d03c
00000350: e5b8 70bd ea49 4d3d de20 85ba e0e6 adbd
00000360: fdf3 7ebc f36b 3b3d 218e 7b3d 87c7 603d
00000370: 2e3c 88bc 0fc7 6ebd 3ed2 8dbc 93be b9bd
00000380: 54a6 ea3c 4eb8 b23c 145c 45bd 3dc5 9bbc
00000390: 3ae7 a53d 32fe d2bc 3619 b4bd 0f78 f4bc
000003a0: ffef a8bd b604 34bc 15c5 c4bd aaa0 1ebd
000003b0: 4d1b 8fbd a72c 81bd 5f62 b3bd 515a 8a3d
000003c0: e077 b83c 42e8 7cbd 1ca0 a83d f68a 143d
000003d0: 95d1 273a 57df f2bc bd90 783a e9f8 a6bd
000003e0: c131 c43c 5daf 77ba 10ea 86bd 893d b83d
000003f0: a7c7 013d f320 0a3d 812d 063d a527 7cbd

onnx::GRU_103 f4 [1, 768]
0.0070866705 -0.008233677 0.0007567624 -0.004815651 0.00063449255 0.00080019666 0.0018953042 0.0052363854
0.007103298 0.0033337178 -0.005636892 0.00064137153 -0.0012345492 0.004389465 -0.0010009317 -0.007377841
-0.007604252 -0.0061602234 -0.006802213 -0.0048027947 -0.0073802928 0.005501843 -0.0086642215 -0.008693191
-0.0011247635 -0.00897394 0.00010750799 -0.0019322876 -0.006591471 -0.00926001 -0.006356296 -0.0052394024
-0.0036155912 0.0052753254 -0.007863999 0.0032672647 0.0059366925 0.0050629526 0.0016745882 0.0011593064
-0.0070108823 -0.0065968027 0.0006989973 0.008184095 0.006224801 0.0034314906 -0.0076192003 -0.0044392496
0.00814261 0.007376789 -0.0066548064 0.0076231677 0.0063288044 0.0037161817 0.004043805 -0.0022130893
-0.0070431684 0.00585221 0.0044912933 0.0068291943 -0.0016440115 0.005200419 -0.0033484397 0.006371477
-0.002490841 0.0056479583 -0.009235216 -0.009808135 0.0038867015 -0.007095409 -0.0055537526 0.004401784
-0.0073843254 -0.008216509 -0.008388323 0.0039220317 0.0069231368 -0.0058272905 -0.0089011835 0.00042438862
-0.0019793457 0.004330826 -0.009232978 0.0047645583 -0.00578378 0.0007846573 -0.0014213859 -0.001608237
0.0043533575 -0.005610831 -0.0045975843 -0.007764298 -0.0086698765 0.0021576995 0.0055288756 -0.001964626
-0.0038403827 0.006329153 -0.005284002 0.0030774255 -0.0015303253 0.0036959306 0.0021012085 -0.007112263
-0.008446819 -0.0042900774 0.0026762753 -0.0046958975 0.0005784857 -0.008361127 0.004748192 0.0045168316
-0.007356007 -0.009275891 -0.0032217235 0.007827211 -0.00040406323 0.006932222 0.00097399525 0.006813562
-0.009537211 0.008206237 0.007741003 0.006440367 -0.005552285 0.007931652 0.005956708 0.0048095547
-0.00040587332 0.001136754 0.0010737348 6.397716e-05 0.000120383906 0.00020534538 0.00019917727 0.0018504489
0.00033572 -0.00017768264 0.00052780233 0.000102107944 0.0017401214 2.3894601e-05 0.00024087106 0.0003457356
0.00095570093 -0.00033390315 -0.00040700808 0.00029182306 -5.577762e-05 0.0006823874 0.0006581486 -0.00016417557
0.0003597957 0.00029702077 0.00085747 -0.00045718314 -0.00027108757 0.00024168819 0.0003829885 -7.9058205e-05
0.0010928849 0.0004978033 0.001253207 0.00032847654 0.0005808556 0.0009057782 -0.00019344248 0.00066057843
-0.00019131185 0.0026451887 0.00014908946 -0.00015371984 -0.00031051823 0.0012191463 -0.0009228485 0.00025482746
0.00014866018 0.000568506 0.000120600285 0.00036718405 0.00050472794 0.00040373488 0.0021278416 0.0008763329
-0.0003347426 -0.00025651357 4.882578e-05 0.0006104405 4.284607e-05 -0.00046385961 -0.0004068562 -0.000697968
0.001360633 -0.0009224243 0.0022832113 0.00019760807 0.0011644886 0.00042251166 0.0007164714 0.00065068447
0.00019824285 0.000819186 0.0018511724 0.00041080007 -0.0003963564 0.0018027254 0.00011415123 0.00021912201
0.00028846812 -0.0005374203 0.001110479 -0.0003243837 -0.00013603467 -0.00031298219 0.0003724368 0.00040098486
0.0006548002 0.00054117065 0.00038591714 0.00032928996 7.5302916e-05 0.000770136 3.8256825e-05 0.0003632098
-0.00023849438 0.00050047453 -5.289579e-05 -0.00042761606 9.026725e-05 -0.00049376325 -0.00029411347 -0.00012491386
0.0013841984 0.00082025595 0.00058344693 4.9600272e-05 0.00055642036 0.0016765723 0.0003097935 -6.142333e-05
0.00020038834 0.00054616714 0.0002670532 0.00043209156 0.00013317117 0.0006932607 -0.00010754975 0.001380679
0.00019677322 0.00013208599 0.0017274019 0.0005313942 0.00060366635 0.0006193777 0.00080556807 3.3116474e-05
00000000: 4d37 e83b 8be6 06bc 7761 463a 9ccc 9dbb
00000010: 1354 263a 4ac4 513a db6b f83a fc95 ab3b
00000020: c8c2 e83b 817a 5a3b adb5 b8bb b721 283a
00000030: 99d0 a1ba 80d5 8f3b b231 83ba d1c1 f1bb
00000040: 172d f9bb b3db c9bb 19e5 debb c360 9dbb
00000050: 62d6 f1bb ce48 b43b 61f4 0dbc e36d 0ebc
00000060: cd6c 93ba 6f07 13bc ea75 e138 d044 fdba
00000070: 44fd d7bb 4cb7 17bc 7a48 d0bb 4baf abbb
00000080: 8ef3 6cbb a3dc ac3b 01d8 00bc 9b1f 563b
00000090: 9688 c23b 20e7 a53b db7d db3a def3 973a
000000a0: 8bbb e5bb fe29 d8bb ea3c 373a 9516 063c
000000b0: 6af9 cb3b dce2 603b 7caa f9bb 2077 91bb
000000c0: 9568 053c feb8 f13b 9010 dabb c4cb f93b
000000d0: dc61 cf3b 2f8b 733b e581 843b 7a09 11bb
000000e0: 61ca e6bb e5c3 bf3b b32b 933b 6fc7 df3b
000000f0: df7b d7ba 4768 aa3b 7f71 5bbb d3c7 d03b
00000100: 613d 23bb 8212 b93b 4e4f 17bc 4db2 20bc
00000110: 08b8 7e3b 9b80 e8bb 41fc b5bb d73c 903b
00000120: 36f8 f1bb 899e 06bc 2d6f 09bc 6384 803b
00000130: 7bdb e23b dbf2 bebb 45d6 11bc 7a80 de39
00000140: e9b7 01bb 9ae9 8d3b eb45 17bc 0320 9c3b
00000150: dd85 bdbb 76b1 4d3a cc4d baba 7bcb d2ba
00000160: 9ca6 8e3b 10db b7bb 55a7 96bb a76b febb
00000170: 190c 0ebc 3168 0d3b 922b b53b f4c0 00bb
00000180: eeae 7bbb c964 cf3b 6c25 adbb a2ae 493b
00000190: 3295 c8ba 6d37 723b 6eb4 093b fc0d e9bb
000001a0: 8764 0abc c793 8cbb 7364 2f3b 0be0 99bb
000001b0: 85a5 173a 1cfd 08bc b996 9b3b ee01 943b
000001c0: a90a f1bb e8f9 17bc 8d23 53bb b43d 003c
000001d0: 73d8 d3b9 b127 e33b b753 7f3a 4d44 df3b
000001e0: f641 1cbc 7473 063c 3da8 fd3b b709 d33b
000001f0: f1ef b5bb c2f3 013c 7d30 c33b 7899 9d3b
00000200: 65cb d4b9 23ff 943a 90bc 8c3a 7a2b 8638
00000210: 9e76 fc38 fb51 5739 3eda 5039 c38a f23a
00000220: 9303 b039 5250 3ab9 375c 0a3a c922 d638
00000230: c914 e43a 4471 c837 5592 7c39 d943 b539
00000240: 0188 7a3a b90f afb9 b363 d5b9 d4ff 9839
00000250: c3f2 69b8 3ee2 323a 9b87 2c3a 8b26 2cb9
00000260: f6a2 bc39 74b9 9b39 d6c7 603a 15b2 efb9
00000270: c220 8eb9 ae6d 7d39 d9cb c839 0dcc a5b8
00000280: 223f 8f3a 047f 023a a642 a43a 6037 ac39
00000290: 8f44 183a bf71 6d3a d2d6 4ab9 ab2a 2d3a
000002a0: e29a 48b9 e75a 2d3b e654 1c39 db2f 21b9
000002b0: 0dcd a2b9 c3cb 9f3a 51eb 71ba 5d9a 8539
000002c0: aae1 1b39 cb07 153a c9ea fc38 9c82 c039
000002d0: b84f 043a 61ac d339 4273 0b3b b5b9 653a
000002e0: 6480 afb9 ab7c 86b9 48ca 4c38 f805 203a
000002f0: 9eb5 3338 2f32 f3b9 514f d5b9 d7f7 36ba
00000300: 4457 b23a d9ce 71ba eea1 153b 0335 4f39
00000310: c1a1 983a 8e84 dd39 95d1 3b3a b292 2a3a
00000320: 69df 4f39 a4be 563a 0aa3 f23a a760 d739
00000330: 0ece cfb9 6d49 ec3a 7a64 ef38 1ec4 6539
00000340: 893d 9739 aae1 0cba 7e8d 913a 0b12 aab9
00000350: 87a4 0eb9 c217 a4b9 9f43 c339 473b d239
00000360: e6a6 2b3a 59dd 0d3a ec54 ca39 8da4 ac39
00000370: f2eb 9d38 f4e2 493a f475 2038 326d be39
00000380: 5914 7ab9 4732 033a 6cdc 5db8 a831 e0b9
00000390: dc4d bd38 e46f 01ba 3e33 9ab9 4ffb 02b9
000003a0: fe6d b53a 7206 573a 76f2 183a e309 5038
000003b0: bddc 113a 6ec0 db3a c86b a239 66d0 80b8
000003c0: 561f 5239 a82c 0f3a 4603 8c39 598a e239
000003d0: dda3 0b39 f0bb 353a 558c e1b8 e6f7 b43a
000003e0: e954 4e39 9080 0a39 fd69 e23a 434d 0b3a
000003f0: 5d3f 1e3a bc5d 223a c22c 533a 8be6 0a38
