output/model_0.onnx (onnx, 611875 bytes, 8 tensors)

fc.weight f4 [4, 128]
0	0x382255ee	3.8703838e-05
1	0xb8001600	-3.0538067e-05
2	0xb952b19f	-0.0002009333
3	0x3e123c7b	0.14280884
4	0xb812caf4	-3.4998127e-05
5	0xbe9f62d7	-0.31130096
6	0x3a375afe	0.0006994455
7	0x38c3d898	9.338668e-05
8	0xbad9d73e	-0.0016619933
9	0x3904aaca	0.00012652125
10	0x39309f5f	0.00016844038
11	0xb70fe958	-8.577794e-06
12	0xbb6d685e	-0.0036225538
13	0x3d7c943f	0.061664816
14	0x3a0b5934	0.00053157215
15	0x38b59961	8.6593216e-05
16	0x38902102	6.872603e-05
17	0xbbe718f8	-0.007052537
18	0xb873659b	-5.8030342e-05
19	0xb99e04c3	-0.00030139656
20	0x3a23779d	0.00062357803
21	0xb84b2804	-4.843624e-05
22	0xb952bbae	-0.00020097077
23	0x38ed9356	0.00011328484
24	0xbf4d6be4	-0.80242753
25	0xb90f369b	-0.00013657885
26	0x3fba01d6	1.453181
27	0x3a9f4095	0.0012149984
28	0xbad33186	-0.0016112782
29	0xbbe73c64	-0.0070567597
30	0x38727414	5.7805402e-05
31	0xb8fbc7f1	-0.00012005855
32	0x39afba56	0.00033517432
33	0x389a4438	7.355999e-05
34	0x3d1f183b	0.038841467
35	0x398facf4	0.00027403946
36	0xbb8e2456	-0.0043378277
37	0x3aa8b3b3	0.0012870937
38	0xb8e8f584	-0.00011108353
39	0xb899fe49	-7.342973e-05
40	0xb91e5db5	-0.00015102963
41	0xb9a92adf	-0.00032266133
42	0xb89e4ce0	-7.548346e-05
43	0xb869ff61	-5.578937e-05
44	0x3e22b0a2	0.15887693
45	0x3b562446	0.003267543
46	0x39c651a2	0.00037826324
47	0xb894712e	-7.078271e-05
48	0x38ed8899	0.00011326484
49	0x37ff42a6	3.0429404e-05
50	0x3b5fd6b5	0.0034155075
51	0xba54d9eb	-0.00081196305
52	0xb7e9e3d5	-2.7881857e-05
53	0x397da94c	0.00024191028
54	0xbad6a3fd	-0.0016375777
55	0x392d1682	0.0001650695
56	0x3a4be5eb	0.0007778096
57	0xbfdabe02	-1.7089236
58	0xbba7c7ce	-0.005120254
59	0xb858776d	-5.1609637e-05
60	0xbf013af4	-0.5048058
61	0xbaa395e3	-0.0012480583
62	0x3be2f996	0.0069267256
63	0x39974502	0.0002885238
64	0xba24508b	-0.00062681054
65	0x3d9b3a5d	0.07579491
66	0xbb75d31b	-0.0037509862
67	0xb9997430	-0.00029269
68	0x39a431d4	0.00031317642
69	0x37c5e45a	2.3590565e-05
70	0x398c92e0	0.0002681231
71	0x38abac06	8.185957e-05
72	0xbaeab0e9	-0.0017905507
73	0x38d19742	9.9940706e-05
74	0x39447931	0.00018737164
75	0xb88b5c36	-6.645212e-05
76	0x3be3cfb1	0.006952249
77	0x3875bb4b	5.8586982e-05
78	0xb858ddec	-5.1705094e-05
79	0x3f0fb0c2	0.56129086
80	0x3a1a89ed	0.00058951863
81	0x38593334	5.178452e-05
82	0x38e81e43	0.00011068259
83	0x3ad36d03	0.001613051
84	0x3a143847	0.0005654138
85	0x39a01820	0.00030535553
86	0xb823c767	-3.9047936e-05
87	0xba32eeb7	-0.00068257324
88	0xb83234a2	-4.2487525e-05
89	0xbece4a45	-0.40291038
90	0xb91cc6de	-0.00014951403
91	0x3aed8513	0.0018121324
92	0xbb87891f	-0.004136219
93	0x387ae247	5.9815382e-05
94	0x3c03a625	0.008035217
95	0xb8c4ccbd	-9.384144e-05
96	0xb916aa21	-0.00014368493
97	0x39a6ed64	0.00031838857
98	0xb937cf4f	-0.00017529468
99	0x3a292d65	0.00064536027
100	0x3aebb533	0.0017983079
101	0xba004c7a	-0.00048942084
102	0xb8a6766b	-7.937554e-05
103	0xbe362bb9	-0.17790116
104	0xbb122ce9	-0.00223046
105	0x38bbf3a0	8.9622336e-05
106	0x38a0a35b	7.659822e-05
107	0xb8b99bbc	-8.850495e-05
108	0x3905b4bf	0.00012751202
109	0x39012ec4	0.0001231982
110	0x3dee0852	0.11622681
111	0x3760032b	1.3352178e-05
112	0xb8b99d2b	-8.850762e-05
113	0xb9fd40ad	-0.00048304108
114	0x3bf8ff87	0.0075988206
115	0xb9f44f43	-0.0004659836
116	0x3851bfe8	5.000821e-05
117	0xbc1cef21	-0.009578497
118	0xb8f0c4e6	-0.00011480767
119	0x3b29a5ee	0.0025886255
120	0xbf33dd80	-0.7025986
121	0x38893537	6.542581e-05
122	0xb94b6fd5	-0.0001940125
123	0x39857f01	0.00025462362
124	0xb882f9a6	-6.245384e-05
125	0x3f4bac1e	0.79559505
126	0x3a525d95	0.0008024809
127	0x390e06ad	0.00013544662
128	0x36b3c76a	5.3578306e-06
129	0xb82d041c	-4.125024e-05
130	0x3a2bb816	0.0006550563
131	0xbf229ebb	-0.63523453
132	0xb71d5677	-9.378061e-06
133	0x3f93bc11	1.1541768
134	0xba442b87	-0.0007483293
135	0x393609cd	0.00017360524
136	0x3b11dc63	0.0022256605
137	0xb69610aa	-4.4722883e-06
138	0x3988a420	0.00026062224
139	0xb82df394	-4.1473264e-05
140	0xbbb93c95	-0.005652974
141	0x3da1db97	0.079032116
142	0xba1dde1b	-0.0006022171
143	0x386643b3	5.4899323e-05
144	0xb7535efb	-1.2598694e-05
145	0xbbb4c621	-0.005516783
146	0x36acce02	5.149982e-06
147	0xb9c36693	-0.00037269722
148	0xba5b2a9d	-0.0008360537
149	0x3ac12400	0.001473546
150	0x3ae14e9d	0.0017189566
151	0x392afc62	0.00016306483
152	0xbf226dee	-0.6344899
153	0xb9401e20	-0.0001832177
154	0xbebf01a3	-0.37305936
155	0xba2878e1	-0.0006426704
156	0x3b0b7c1e	0.0021283696
157	0x3becfdb0	0.0072323903
158	0x36730747	3.6214058e-06
159	0x37d7b1f5	2.5712865e-05
160	0xba00a044	-0.0004906694
161	0x374f6d99	1.2363679e-05
162	0x3d42d3a3	0.047565114
163	0xb990594f	-0.0002753236
164	0x3ba8a390	0.0051464513
165	0xbad6b13c	-0.0016379724
166	0x37080b71	8.108896e-06
167	0x36e5efec	6.8526624e-06
168	0x39728f78	0.00023132365
169	0xb9ca6775	-0.00038605524
170	0xb64269a4	-2.8969744e-06
171	0x38d9e302	0.0001038965
172	0xbf257018	-0.64624166
173	0x3b8a8929	0.0042277765
174	0xb9caea32	-0.00038702931
175	0xb91eca5f	-0.00015143443
176	0x38eea97e	0.00011380295
177	0xb822d3e3	-3.8821145e-05
178	0x3a3d90ac	0.00072313356
179	0x3a683ceb	0.0008859175
180	0xb82a3877	-4.0583745e-05
181	0x39ae1448	0.00033202977
182	0x3ae69d94	0.0017594569
183	0xb98e0157	-0.0002708535
184	0xbb07ac63	-0.0020702116
185	0x3f0989da	0.5372597
186	0x3bc299db	0.005938751
187	0x37c0d91c	2.2989283e-05
188	0x3fe226b9	1.7668067
189	0x3a9da250	0.0012026522
190	0xbc0e027f	-0.008667587
191	0x39c06561	0.00036696627
192	0x3a32b7e7	0.0006817565
193	0x3e459f6f	0.192991
194	0x3b978df4	0.0046250764
195	0x398280a2	0.0002489137
196	0xb9d42706	-0.00040464866
197	0x389079e6	6.8891604e-05
198	0x39b825fe	0.0003512352
199	0x3853a3e2	5.0458948e-05
200	0x3ab45ed0	0.0013761166
201	0x38a5dc62	7.9088626e-05
202	0x39606b4a	0.00021402273
203	0x3910236c	0.00013746106
204	0xbc056886	-0.008142596
205	0xb7441420	-1.1687196e-05
206	0x370c61e1	8.3674395e-06
207	0x3d8276c0	0.06370306
208	0xba1a162e	-0.0005877939
209	0xb807916b	-3.232194e-05
210	0xb90ff3ec	-0.0001372841
211	0xbb0056ad	-0.0019582913
212	0xba13ad99	-0.0005633473
213	0x39c6bc0d	0.00037905612
214	0xb8ee4197	-0.000113609414
215	0x3a3eaaac	0.0007273357
216	0xb795ef14	-1.7873514e-05
217	0xbe4e0349	-0.2011844
218	0xb961da78	-0.00021539058
219	0xbb38c54b	-0.0028193768
220	0x3b334426	0.0027353852
221	0xb73db60e	-1.1307666e-05
222	0xbc04e2f6	-0.008110752
223	0x39505c5d	0.00019870834
224	0xb948ea48	-0.00019160763
225	0x39c84e3c	0.00038205262
226	0xba95c57e	-0.0011426655
227	0xbb07d224	-0.0020724619
228	0xbae715cc	-0.0017630397
229	0xba16a72f	-0.0005746958
230	0x34df1aa1	4.1556362e-07
231	0xbee6115c	-0.4493512
232	0x3b17bfc8	0.0023155082
233	0x3935f581	0.00017352962
234	0xb78fb1a0	-1.7129641e-05
235	0x3794697f	1.76921e-05
236	0xb968c662	-0.00022199147
237	0x3942c9fe	0.0001857653
238	0xbf3abd80	-0.72945404
239	0x38253829	3.939137e-05
240	0xb6a4c69d	-4.9107025e-06
241	0x3a9f1d51	0.0012139474
242	0xbc0ebbcb	-0.0087117655
243	0x38daa4db	0.00010425757
244	0x36afd135	5.2397613e-06
245	0xbbb6ee6f	-0.0055826227
246	0xb74255e9	-1.1583304e-05
247	0xbb4a6021	-0.0030880051
248	0xbf1af178	-0.605247
249	0xb6f99ba8	-7.438899e-06
250	0x39645607	0.00021775822
251	0xb9b55a55	-0.00034590313
252	0x387e41a7	6.0619463e-05
253	0xbdbb27e1	-0.09138466
254	0xba5fdca7	-0.00085396547
255	0xb90b09a9	-0.00013259672

fc.bias f4 [4]
0	0xbcfbddb8	-0.030745372
1	0x3cfae297	0.030625625
2	0x3d22115b	0.039567333
3	0xbd29684f	-0.041359242

onnx::GRU_172 f4 [1, 384, 7]
0	0x3b1f9469	0.0024349934
1	0x3b8f43af	0.004372082
2	0x3a0f0c1b	0.0005456821
3	0x3abfd40b	0.0014635337
4	0x3bc8029b	0.006103826
5	0xbbb1aeaa	-0.005422433
6	0x3b3c3cba	0.002872272
7	0xbd9bfd4d	-0.07616673
8	0xbe032e50	-0.12810636
9	0xbddd5b60	-0.10808444
10	0xbe490eb7	-0.1963452
11	0x3d47997d	0.048730362
12	0x3dd35960	0.10319781
13	0xbe90ac3f	-0.28256413
14	0x3b422d4f	0.0029629057
15	0x3b383169	0.0028105623
16	0xb9392d8a	-0.0001765994
17	0x3940bd11	0.0001838098
18	0xb94118d7	-0.00018415168
19	0xba327f13	-0.00068090967
20	0x3b07f633	0.0020746111
21	0x3c049366	0.008091783
22	0x3c205538	0.009785943
23	0xb965d5ae	-0.00021918744
24	0x3a9dbd64	0.0012034592
25	0x3ac8c226	0.001531665
26	0xb9d296d8	-0.0004016671
27	0x3bca73c0	0.0061783493
28	0x3b38855e	0.0028155665
29	0x3b8bea53	0.004269877
30	0x39bf4cc3	0.0003648755
31	0x3a903f25	0.0011005147
32	0x3b35d33f	0.002774432
33	0xbb87a7db	-0.004139883
34	0x3b3e95b4	0.002908093
35	0x3c045aef	0.008078321
36	0x3c25c966	0.010118818
37	0xb9797089	-0.00023788413
38	0x3aab4407	0.0013066538
39	0x3b07e2e8	0.0020734612
40	0xb96a83eb	-0.00022365122
41	0x3bcb3425	0.0062012845
42	0x3c12c52a	0.00895814
43	0x3c2fdb01	0.010733367
44	0xba31046b	-0.00067526725
45	0x3a8f2be4	0.0010923115
46	0x3ac9c282	0.0015393051
47	0xb97081f6	-0.00022936598
48	0x3bd3dd71	0.006465607
49	0x3bddeff8	0.0067729913
50	0x3bf85a57	0.0075791287
51	0x38a59771	7.896021e-05
52	0x3a2a829f	0.00065044494
53	0x38e18c13	0.00010754927
54	0xb91c2a45	-0.00014893066
55	0x3bac7ce9	0.005263914
56	0x3be01ba6	0.0068392335
57	0x3c12c448	0.00895793
58	0xb9268f81	-0.00015884453
59	0x3abef850	0.0014569853
60	0x3b644135	0.0034828905
61	0xbaa2f575	-0.0012432771
62	0x3bb39fc5	0.0054816925
63	0xbe2408e3	-0.16019015
64	0xbeb84b39	-0.3599489
65	0xbddd4a4b	-0.10805186
66	0xbe1c445d	-0.15260454
67	0x3d662953	0.056191754
68	0xbab78d9d	-0.0014003996
69	0xbee0d28f	-0.43910643
70	0x3bc4f5df	0.0060107554
71	0x3bc1d499	0.005915236
72	0xb9d6402c	-0.00040865073
73	0x39eca3c5	0.00045135446
74	0x3a44550e	0.0007489481
75	0xbaa2a08c	-0.0012407466
76	0x3b86f778	0.004118856
77	0x3b50cf3c	0.0031861803
78	0x3bb09bbb	0.0053896583
79	0x39f61ffa	0.000469446
80	0x3ad5772d	0.0016286128
81	0x3bc1b6d5	0.005911688
82	0xbb9e435d	-0.0048298077
83	0x3b656463	0.0035002462
84	0x3a9bcb6b	0.0011886185
85	0x3ab1fda5	0.001357962
86	0x354fe1a1	7.744184e-07
87	0x38532364	5.033928e-05
88	0xba8c1792	-0.0010688177
89	0xb978689e	-0.00023690096
90	0x3a4d3150	0.00078274775
91	0x3bb0ef66	0.0053996323
92	0x3bb8ba4e	0.0056374436
93	0xb9f8f8c5	-0.00047487594
94	0x39c887b7	0.00038248088
95	0x39e8faf1	0.00044437454
96	0xbab1a569	-0.0013553324
97	0x3b84d322	0.0040534893
98	0x39a939fd	0.00032277397
99	0x3a64225b	0.0008702629
100	0x39c2a9a3	0.00037128953
101	0x39f51685	0.0004674682
102	0xbbbdc275	-0.0057910034
103	0x3b2ec4f7	0.0026667693
104	0xb9a83fa6	-0.0003209088
105	0xbde8a742	-0.11360027
106	0x3d62362e	0.05522745
107	0xbd776410	-0.06039816
108	0xbd7f97d4	-0.062400654
109	0xbe4a481f	-0.19754075
110	0x3d03cf42	0.03218008
111	0x3d50fa44	0.051019922
112	0x3a5712f0	0.0008204421
113	0x3a6d43f5	0.0009050959
114	0x391e0a95	0.00015071996
115	0x398e8e2a	0.0002719027
116	0xb9d20dbe	-0.0004006456
117	0xba2cfc3c	-0.0006598865
118	0x3a912c82	0.0011075886
119	0xbde4a9c1	-0.111651905
120	0xbd6763a1	-0.056491498
121	0xbd97bf63	-0.07409551
122	0xbc29b93d	-0.010359106
123	0xbe8955a5	-0.26823154
124	0xbe057c66	-0.13035735
125	0xbe0c6a53	-0.13712434
126	0xbdd40eaf	-0.10354363
127	0xbe2732e6	-0.1632801
128	0xbd819b16	-0.063284084
129	0xbd0dc081	-0.034607414
130	0x3f047479	0.51740223
131	0xbea916ef	-0.3302531
132	0x3d0d912a	0.034562267
133	0x3be86ad0	0.007092811
134	0x3c092165	0.008369778
135	0xb9160df1	-0.00014310308
136	0x3a8c7116	0.0010714855
137	0x3a2e1ae7	0.0006641582
138	0xb9da1d1a	-0.00041601883
139	0x3bb43c2d	0.0055003376
140	0x3949429c	0.00019193668
141	0x39ac95dd	0.00032918053
142	0x396c2ba8	0.00022522977
143	0x39af1030	0.00033390662
144	0xba6c3a69	-0.00090113893
145	0xb9bd5f97	-0.0003612011
146	0x3a22a966	0.0006205052
147	0x3bf0a22a	0.00734355
148	0x3c1ae860	0.009454817
149	0xb95fa9a9	-0.0002133014
150	0x3aba8cf1	0.0014232678
151	0x3b490ea4	0.0030678893
152	0xba4ff7cd	-0.00079333485
153	0x3bbbf47c	0.005735932
154	0xbb3ac2d4	-0.0028497474
155	0xbb1e61a8	-0.0024167094
156	0x39f8c9e9	0.0004745268
157	0x3a221ea3	0.0006184375
158	0xbb8607b8	-0.0040902756
159	0x3a89088a	0.0010454815
160	0xba985489	-0.0011621873
161	0xbdff4f8a	-0.12466343
162	0xbe09ec6c	-0.13469094
163	0xbe415a57	-0.18882118
164	0xbe9a93f9	-0.3019102
165	0xbc6674b0	-0.014065906
166	0x3d444329	0.04791561
167	0xbec08fc9	-0.376097
168	0xbb148b7d	-0.002266615
169	0xbaf80451	-0.0018922185
170	0x39d6af9d	0.00040948103
171	0x3a0d274a	0.00053845777
172	0xbb93efc3	-0.004514666
173	0x3aa8001a	0.0012817413
174	0xba89824b	-0.0010491101
175	0xbb4a63fb	-0.0030882347
176	0xbb33da09	-0.0027443192
177	0x3a0a7edd	0.00052831863
178	0x3a388385	0.0007038641
179	0xbb90dafc	-0.004420636
180	0x3a4445b5	0.0007487194
181	0xba97362b	-0.0011536529
182	0x3bc6e95f	0.0060703005
183	0x3be041fc	0.0068438035
184	0xb91b79ad	-0.0001482728
185	0x3a5d10bb	0.0008432974
186	0x3b2aca38	0.0026060473
187	0xba9f38f3	-0.001214771
188	0x3b896136	0.0041924966
189	0x3b2292e1	0.0024806785
190	0x3b90966b	0.0044124625
191	0x3a0bd72f	0.0005334494
192	0x3abf317a	0.0014586889
193	0x3bc682be	0.006058066
194	0xbbaf55fc	-0.0053508263
195	0x3b3d841b	0.0028917852
196	0x3bde0ff9	0.0067768064
197	0x3be7d5fc	0.0070750695
198	0xba18677c	-0.000581376
199	0x3a0dc27c	0.00054077036
200	0x3a867d7d	0.0010260787
201	0xbac9fe14	-0.0015410804
202	0x3b9cb405	0.004782202
203	0xba8e4d2f	-0.0010856743
204	0xba7ec4da	-0.0009718664
205	0x396dca1a	0.0002267737
206	0x39b75380	0.00034966692
207	0xbab63e94	-0.0013904148
208	0x38e94382	0.0001112288
209	0xb94b398f	-0.00019381031
210	0x3bb6912b	0.0055715046
211	0x3bb9ac45	0.005666288
212	0xb9d5eebf	-0.00040804406
213	0x39c49cbf	0.00037500818
214	0x3a0151db	0.0004933157
215	0xbaaec01c	-0.00133324
216	0x3b888cbd	0.004167168
217	0x3b33847e	0.0027392204
218	0x3b56a4bf	0.0032752005
219	0x3832104b	4.245368e-05
220	0x39acd231	0.00032963
221	0xbbb196ef	-0.005419604
222	0x3b251e77	0.002519516
223	0x3aa3956e	0.0012480447
224	0x3c1355e6	0.008992648
225	0x3c33f143	0.010982814
226	0xb9587147	-0.00020641564
227	0x3a960cc5	0.0011447897
228	0x399c28d4	0.00029785058
229	0x3a97768c	0.0011555715
230	0x3bcdbb1a	0.0062784078
231	0x3c0917aa	0.008367458
232	0x3c2368c8	0.009973712
233	0xb83b285e	-4.462187e-05
234	0x3a7981ad	0.00095179194
235	0xba46019a	-0.0007553339
236	0x3adbceda	0.0016770021
237	0x3bbda79e	0.005787804
238	0x3c0ac7fe	0.008470533
239	0x3c2d3307	0.010571248
240	0xb9922225	-0.0002787273
241	0x3aac004a	0.0013122645
242	0x3aee1320	0.0018163659
243	0x398a8663	0.00026421537
244	0x3bcc5e6d	0.0062368424
245	0xbe7afdf9	-0.24510945
246	0xbe3712f1	-0.1787832
247	0xbacb1a1c	-0.0015495452
248	0x3d094852	0.033516236
249	0xbf40658a	-0.75154936
250	0xbe8e7d59	-0.27830008
251	0x3c336bf8	0.010951035
252	0x3b4521a6	0.003007987
253	0x3b9d5f36	0.00480261
254	0x39ca1c21	0.000385494
255	0x3ab1f97b	0.0013578379

onnx::GRU_173 f4 [1, 384, 128]
0	0x00000dd0	4.955e-42
1	0x00000ddb	4.97e-42
2	0x00000db5	4.917e-42
3	0x80000e76	-5.188e-42
4	0x80000e1d	-5.063e-42
5	0x00000e0c	5.039e-42
6	0x80000dcd	-4.951e-42
7	0x80000dd3	-4.959e-42
8	0x80000dbc	-4.927e-42
9	0x80000dc7	-4.942e-42
10	0x80000db0	-4.91e-42
11	0x00000dec	4.994e-42
12	0x80000ded	-4.996e-42
13	0x00000dd3	4.959e-42
14	0x80000dae	-4.907e-42
15	0x27b2572f	4.949945e-15
16	0x80000dbb	-4.926e-42
17	0x80000e69	-5.17e-42
18	0x80000e65	-5.164e-42
19	0x00000e88	5.213e-42
20	0x00000e94	5.23e-42
21	0x80000de1	-4.979e-42
22	0x80000dba	-4.924e-42
23	0x00000f4a	5.485e-42
24	0x00000e0a	5.036e-42
25	0x80000df0	-5e-42
26	0x00000dbb	4.926e-42
27	0x80000f2e	-5.445e-42
28	0x00000dd3	4.959e-42
29	0x80000dda	-4.969e-42
30	0x80000dd7	-4.965e-42
31	0x80000dad	-4.906e-42
32	0x80000e69	-5.17e-42
33	0x80000df3	-5.004e-42
34	0x00000db0	4.91e-42
35	0x80000dc8	-4.944e-42
36	0x80000def	-4.998e-42
37	0x00000dc6	4.941e-42
38	0x00000e1c	5.061e-42
39	0x80000de4	-4.983e-42
40	0x00000e78	5.19e-42
41	0x80000dae	-4.907e-42
42	0x00000daf	4.909e-42
43	0x00000ed9	5.326e-42
44	0x00000dce	4.952e-42
45	0x80000dd3	-4.959e-42
46	0x00000e63	5.161e-42
47	0x80000e19	-5.057e-42
48	0x00000de6	4.986e-42
49	0x80000de0	-4.977e-42
50	0x00000daf	4.909e-42
51	0x00000f03	5.385e-42
52	0x80000e6e	-5.176e-42
53	0x00000dfc	5.017e-42
54	0x00000dd2	4.958e-42
55	0x80000e4b	-5.127e-42
56	0x00000ddc	4.972e-42
57	0x00000e4e	5.132e-42
58	0x00000ded	4.996e-42
59	0x80000dca	-4.947e-42
60	0x00000dd4	4.96e-42
61	0x80000dd7	-4.965e-42
62	0x80000ddb	-4.97e-42
63	0x80000dd6	-4.963e-42
64	0x00000ded	4.996e-42
65	0x00000de2	4.98e-42
66	0x8000108a	-5.933e-42
67	0x00000ddf	4.976e-42
68	0x80000dad	-4.906e-42
69	0x80000de2	-4.98e-42
70	0x80001107	-6.108e-42
71	0x80000dee	-4.997e-42
72	0x80000ddc	-4.972e-42
73	0x00000ded	4.996e-42
74	0x00000dd8	4.966e-42
75	0x80000db1	-4.912e-42
76	0x00000db1	4.912e-42
77	0x00000dc5	4.94e-42
78	0x80000dc5	-4.94e-42
79	0x80000e8d	-5.22e-42
80	0x80000e21	-5.068e-42
81	0x80000e1a	-5.059e-42
82	0x80000dc8	-4.944e-42
83	0xb3bd7fcc	-8.8242444e-08
84	0x80000de7	-4.987e-42
85	0x80000e02	-5.025e-42
86	0x80000deb	-4.993e-42
87	0x80000de6	-4.986e-42
88	0x80000ec9	-5.304e-42
89	0x00000f48	5.482e-42
90	0x00000e48	5.123e-42
91	0x00000dd1	4.956e-42
92	0x00000fb3	5.632e-42
93	0x80000dda	-4.969e-42
94	0x00000de2	4.98e-42
95	0x80000e1f	-5.066e-42
96	0x80000db7	-4.92e-42
97	0x80000f54	-5.499e-42
98	0x2597f343	2.6359165e-16
99	0x00000dd0	4.955e-42
100	0x80000dd4	-4.96e-42
101	0x80000dbb	-4.926e-42
102	0x00000de3	4.982e-42
103	0x80000dac	-4.905e-42
104	0x80000fc9	-5.663e-42
105	0x80000db0	-4.91e-42
106	0x80000ddb	-4.97e-42
107	0x00000ea3	5.25e-42
108	0x251ff232	1.387311e-16
109	0x80000de3	-4.982e-42
110	0x00000dff	5.021e-42
111	0x80000dea	-4.991e-42
112	0x00000df5	5.007e-42
113	0x80000dd4	-4.96e-42
114	0x80000dcf	-4.954e-42
115	0x00000db9	4.923e-42
116	0x80000fb1	-5.629e-42
117	0x80000dd6	-4.963e-42
118	0x00000ded	4.996e-42
119	0x80000dc0	-4.933e-42
120	0x80000dd3	-4.959e-42
121	0x00000e3d	5.108e-42
122	0x00000dac	4.905e-42
123	0x80000db4	-4.916e-42
124	0x00000dfb	5.015e-42
125	0x00000dae	4.907e-42
126	0x80000e03	-5.026e-42
127	0xac8bdc93	-3.9751063e-12
128	0x80000e35	-5.097e-42
129	0x80000dd1	-4.956e-42
130	0x00000ded	4.996e-42
131	0x00000e09	5.035e-42
132	0x80000dad	-4.906e-42
133	0x80000f62	-5.518e-42
134	0x00000dd2	4.958e-42
135	0x80000de8	-4.989e-42
136	0x80000e6e	-5.176e-42
137	0x80000dfd	-5.018e-42
138	0x80000e41	-5.113e-42
139	0x80000f77	-5.548e-42
140	0x80000dbb	-4.926e-42
141	0x00001125	6.15e-42
142	0x80001157	-6.22e-42
143	0x00000dea	4.991e-42
144	0xa3cc2950	-2.2135221e-17
145	0x80000e06	-5.03e-42
146	0x00000dc3	4.937e-42
147	0x00000ef2	5.361e-42
148	0x00001193	6.304e-42
149	0x00000de6	4.986e-42
150	0x00000dea	4.991e-42
151	0x00000de9	4.99e-42
152	0x00000dd9	4.968e-42
153	0x00000dd5	4.962e-42
154	0x00000ddc	4.972e-42
155	0x80000e11	-5.046e-42
156	0x80000ea1	-5.248e-42
157	0x00000de2	4.98e-42
158	0x800010dc	-6.048e-42
159	0x00000df0	5e-42
160	0x00000dbe	4.93e-42
161	0x00001168	6.244e-42
162	0x80000dfb	-5.015e-42
163	0x80000e41	-5.113e-42
164	0x80000de2	-4.98e-42
165	0x00000dc1	4.934e-42
166	0x00000de3	4.982e-42
167	0x00000dcb	4.948e-42
168	0x00000dbb	4.926e-42
169	0x80000dc1	-4.934e-42
170	0x00000dc1	4.934e-42
171	0x80000df1	-5.001e-42
172	0x80000dbb	-4.926e-42
173	0x00000e80	5.202e-42
174	0x00000dc4	4.938e-42
175	0x00000dbd	4.928e-42
176	0x80000dd5	-4.962e-42
177	0x80000dd9	-4.968e-42
178	0x80000ec0	-5.291e-42
179	0x00000dc9	4.945e-42
180	0x80000dff	-5.021e-42
181	0x00000dde	4.975e-42
182	0x0000118b	6.293e-42
183	0x00000de2	4.98e-42
184	0x80000de8	-4.989e-42
185	0x80000e83	-5.206e-42
186	0x80000db9	-4.923e-42
187	0x80001035	-5.814e-42
188	0x80000de0	-4.977e-42
189	0x00000dba	4.924e-42
190	0x00000ec6	5.3e-42
191	0x00000de9	4.99e-42
192	0x80000dd8	-4.966e-42
193	0x80000e05	-5.029e-42
194	0x00000dcb	4.948e-42
195	0x00000dff	5.021e-42
196	0x80000e10	-5.045e-42
197	0x80000df4	-5.005e-42
198	0x80000dd6	-4.963e-42
199	0x80000de9	-4.99e-42
200	0x80000e08	-5.033e-42
201	0x00000dec	4.994e-42
202	0x80000de1	-4.979e-42
203	0x80000eb1	-5.27e-42
204	0x00000f67	5.525e-42
205	0x00000e35	5.097e-42
206	0x00000dfe	5.02e-42
207	0x80000dbd	-4.928e-42
208	0x00000dad	4.906e-42
209	0x8000102f	-5.806e-42
210	0x00000dee	4.997e-42
211	0x00000de6	4.986e-42
212	0x00000f4b	5.486e-42
213	0x00000def	4.998e-42
214	0x800010b6	-5.995e-42
215	0x80000dc9	-4.945e-42
216	0x00000de7	4.987e-42
217	0x80000de8	-4.989e-42
218	0x80000db2	-4.913e-42
219	0x8000106a	-5.888e-42
220	0x00000f3b	5.464e-42
221	0x00000dd3	4.959e-42
222	0x80000eb4	-5.274e-42
223	0x80000db0	-4.91e-42
224	0x00000dc0	4.933e-42
225	0x80000e50	-5.134e-42
226	0x80000db7	-4.92e-42
227	0x00000dd3	4.959e-42
228	0x00000dd8	4.966e-42
229	0x00000db3	4.914e-42
230	0x00000e98	5.235e-42
231	0x80000dee	-4.997e-42
232	0x80000dfb	-5.015e-42
233	0x00000dbf	4.931e-42
234	0x00001015	5.769e-42
235	0x00000e26	5.076e-42
236	0x80000e04	-5.028e-42
237	0x80000e4c	-5.129e-42
238	0x80000ddf	-4.976e-42
239	0x00000db4	4.916e-42
240	0x80000e03	-5.026e-42
241	0x8000101f	-5.783e-42
242	0x00000dbe	4.93e-42
243	0x80000dcd	-4.951e-42
244	0x00000e17	5.054e-42
245	0x00000dcd	4.951e-42
246	0x8000113c	-6.183e-42
247	0x80000dae	-4.907e-42
248	0x80000dc7	-4.942e-42
249	0x00000dbe	4.93e-42
250	0x00000df1	5.001e-42
251	0x80000dbd	-4.928e-42
252	0x80000dcb	-4.948e-42
253	0x00000e07	5.032e-42
254	0x80000dbb	-4.926e-42
255	0x80000ec0	-5.291e-42

onnx::GRU_174 f4 [1, 768]
0	0x3b951f8c	0.00455088
1	0xbe8c2fe5	-0.2738029
2	0x3b29a6d4	0.002588679
3	0x3c0f6839	0.008752876
4	0x3b99eb7c	0.0046972614
5	0x3c11ecb0	0.008906528
6	0x3c17bf8e	0.009261979
7	0x3be0311a	0.006841791
8	0x3c02976e	0.007970674
9	0xbee6f120	-0.4510584
10	0x3bb2638f	0.005443997
11	0x3bb2d174	0.0054570977
12	0x3a8e9ca3	0.0010880422
13	0x3babbbd9	0.005240899
14	0x3a80fa1b	0.0009840162
15	0xbdd8a595	-0.10578457
16	0x3ab1950d	0.0013548449
17	0xbdea9765	-0.114546575
18	0xbe64f063	-0.22357325
19	0x3bf79377	0.007555421
20	0x3a5a5380	0.00083284825
21	0x3c083e41	0.008315624
22	0xba454b76	-0.0007526198
23	0xbec455be	-0.38346666
24	0xba116283	-0.00055459904
25	0xba5abc39	-0.00083440874
26	0x3bc0d593	0.005884835
27	0x3b95caf3	0.0045713126
28	0x3bd3a0f4	0.006458396
29	0xb8c2bcdc	-9.285819e-05
30	0x3bad8284	0.0052950997
31	0x3b2cd99e	0.0026374827
32	0x3c160187	0.009155638
33	0x3c07b9cb	0.008284043
34	0x3c142df5	0.00904416
35	0xbe72299b	-0.23648684
36	0x3b99d320	0.0046943575
37	0x3b976e4f	0.004621304
38	0x3b96fc2c	0.004607698
39	0x3bafef39	0.0053690937
40	0x3c11a421	0.008889229
41	0x3b967ae0	0.0045922846
42	0x3b891473	0.004183346
43	0x3b092537	0.0020926723
44	0x3c141729	0.009038725
45	0x3c15a17b	0.009132738
46	0x3c15161b	0.009099509
47	0x3c141f12	0.009040611
48	0xbda0410b	-0.07824906
49	0x3bea4f11	0.0071505387
50	0x3bca1ef1	0.0061682393
51	0x3bd0f604	0.0063769836
52	0x3babd817	0.005244266
53	0x3bdcd465	0.0067391866
54	0x3bb9d72b	0.005671402
55	0x3bc2b107	0.0059415135
56	0xbe316d0e	-0.17326757
57	0x3c0985fa	0.008393759
58	0x3bfeb422	0.0077729383
59	0x39b659ca	0.00034780643
60	0x3bac3a4c	0.005255973
61	0x3bd63c7d	0.0065379725
62	0xbd53bba2	-0.051692612
63	0xbe13eaf5	-0.14445098
64	0xbe579b93	-0.2105544
65	0x3b9d3d8a	0.004798596
66	0x3c159649	0.009130069
67	0xbdf43377	-0.11923879
68	0xbef92f3e	-0.48668855
69	0xbe3b8db9	-0.18315782
70	0x3bee1937	0.0072661894
71	0x3a3a2da5	0.00071021385
72	0x3bad356a	0.0052859085
73	0x3b8cda9a	0.0042985203
74	0x3c015ce4	0.007895682
75	0x3bc2f925	0.0059501105
76	0x3a13a037	0.0005631479
77	0xb83b6aaa	-4.4683613e-05
78	0x3b94bf3c	0.0045393985
79	0xbe286dcc	-0.16448134
80	0xbde1d9d2	-0.11027874
81	0x3bf80d2f	0.007569931
82	0x3bbf4610	0.0058372095
83	0x3bd74506	0.0065695075
84	0x3b61be18	0.003444558
85	0x3b88be21	0.0041730558
86	0xbe7de463	-0.24794154
87	0x3bd6a28a	0.006550138
88	0x39f271ea	0.0004624271
89	0x3bc29ee1	0.00593935
90	0x3c1462a8	0.009056725
91	0x3ba8abb1	0.0051474203
92	0x3c12fd85	0.008971577
93	0x3bcc2688	0.006230179
94	0x3c0c0d44	0.008548085
95	0xbee7c47f	-0.45267102
96	0x3b0a5990	0.0021110512
97	0x3c17d74a	0.0092676375
98	0x3a46861c	0.00075730844
99	0x3c166075	0.009178271
100	0x3ba7e600	0.0051238537
101	0x3b62dd33	0.0034616708
102	0x3bfc459f	0.007698729
103	0x3b9b25e0	0.0047347397
104	0x3ad67f91	0.0016364922
105	0x3b9a1a0e	0.004702813
106	0x3c09a553	0.008401233
107	0x3c0aabd1	0.008463816
108	0x3b98cc2d	0.0046630115
109	0x3a00c169	0.0004911633
110	0x3b84fa4e	0.004058159
111	0x3b9713d1	0.0046105166
112	0xbe2d8022	-0.1694341
113	0x3c15d52d	0.009145063
114	0x3c02d0cb	0.00798435
115	0x3bcf07fa	0.0063180896
116	0x3bdbc9a7	0.0067073884
117	0x3a58dc47	0.000827257
118	0x3c0c73db	0.008572544
119	0x3c142b3a	0.009043509
120	0x3c10e611	0.008843915
121	0x3aca911c	0.0015454623
122	0x3bc8e821	0.0061311875
123	0xbeaf26ba	-0.34209234
124	0xbebb86ee	-0.3662638
125	0x3ba0bca8	0.004905302
126	0xbe2a1afe	-0.16611859
127	0x3b60ae97	0.003428375
128	0xba18d42e	-0.0005829957
129	0xbb809680	-0.003924191
130	0x37901be1	1.717912e-05
131	0xb8a808a5	-8.0124744e-05
132	0xb9af67df	-0.0003345599
133	0xb956f0ea	-0.00020498378
134	0x3957ac43	0.0002056817
135	0x390ad926	0.000132416
136	0xb9c5b784	-0.00037711498
137	0xbbaea478	-0.005329665
138	0x38502548	4.9625785e-05
139	0xba2936f6	-0.0006455028
140	0x36a10d22	4.7997028e-06
141	0x386acc6c	5.598033e-05
142	0x397c858e	0.00024082346
143	0x3c4f09de	0.01263663
144	0xb7201485	-9.541521e-06
145	0xbaa3dd0f	-0.0012501794
146	0x3b9d6dac	0.0048043337
147	0xb8cc189f	-9.732064e-05
148	0x378884af	1.6274249e-05
149	0xb9a9ab3d	-0.00032361774
150	0xb8ede4b0	-0.00011343637
151	0xbb378d33	-0.0028007745
152	0xb98c7d68	-0.00026796316
153	0xb820f886	-3.8378428e-05
154	0xb8c8c3a6	-9.5731855e-05
155	0xba1788c4	-0.00057805725
156	0xb81f3ed1	-3.7967056e-05
157	0xb8887499	-6.506703e-05
158	0x389068b5	6.885958e-05
159	0x39929460	0.00027957838
160	0x3751c545	1.2503301e-05
161	0x3888abdf	6.516999e-05
162	0xb92a9822	-0.00016269137
163	0x3a67fe4f	0.00088498456
164	0xba01f993	-0.0004958149
165	0xba0d2ebc	-0.0005385687
166	0xba0c8812	-0.0005360852
167	0x3886031d	6.390198e-05
168	0x38d8c7eb	0.0001033692
169	0xba11f102	-0.0005567224
170	0x387e5c44	6.0644248e-05
171	0x399cbef3	0.00029896907
172	0xb92ee4f7	-0.00016679229
173	0x392512fb	0.00015742697
174	0xb8eebf56	-0.000113843635
175	0xb92a2841	-0.00016227459
176	0x3c2ccc1b	0.010546709
177	0xb9ffb383	-0.00048771137
178	0xba1945c5	-0.0005846883
179	0xb7805d03	-1.5302101e-05
180	0x383fe9fe	4.575587e-05
181	0xb8af0639	-8.345809e-05
182	0xb93bd6f1	-0.00017913782
183	0x33327f3b	4.155957e-08
184	0x3a602036	0.00085497217
185	0x392a889e	0.00016263357
186	0xb9d53ec9	-0.00040673304
187	0x369feb38	4.7659523e-06
188	0xb9a10a7d	-0.00030716127
189	0x39190080	0.00014591403
190	0x3bc6c7f5	0.006066317
191	0x3ab641d3	0.0013905115
192	0x3c162e76	0.009166351
193	0xba26f2e6	-0.0006368592
194	0xb64255b1	-2.8958132e-06
195	0xbb6e8f71	-0.0036401416
196	0xbb60b12f	-0.0034285297
197	0xbb2012ba	-0.0024425224
198	0xb7c16556	-2.3054581e-05
199	0x37355a2a	1.0809434e-05
200	0xb99c7268	-0.00029839878
201	0x3864b02c	5.452351e-05
202	0xb9c97a00	-0.00038428605
203	0xb8af46bb	-8.357825e-05
204	0x36e03df5	6.682933e-06
205	0x35879ec4	1.0104491e-06
206	0x388834d3	6.4948246e-05
207	0x3a49fca3	0.00077051873
208	0x3c20ba4e	0.0098100435
209	0x395c426c	0.00021005579
210	0xba21783d	-0.00061595795
211	0x38bde792	9.0553556e-05
212	0x3746e831	1.1855781e-05
213	0x386eae6a	5.6906058e-05
214	0xbb992b3e	-0.0046743443
215	0x38ac672d	8.220817e-05
216	0x3647c32c	2.9766916e-06
217	0xb93ace1d	-0.00017815125
218	0xb85f5a44	-5.325141e-05
219	0x37f94611	2.971574e-05
220	0xb91fc24f	-0.00015235807
221	0xb7a590bd	-1.9736932e-05
222	0x391ba480	0.00014843233
223	0xbbcec518	-0.0063101165
224	0xb64707e5	-2.9657906e-06
225	0xb8903bcf	-6.877595e-05
226	0x379eab62	1.8914874e-05
227	0xb8d89fc3	-0.000103294406
228	0x36a804eb	5.0073627e-06
229	0x39ae9d9b	0.0003330529
230	0x3900c9d1	0.00012282214
231	0xba22dae3	-0.0006212426
232	0x37e72814	2.7556009e-05
233	0x39d2f331	0.00040235513
234	0x3859bcd6	5.19127e-05
235	0xb99c3d1f	-0.00029800177
236	0xba15f1f3	-0.0005719952
237	0x37a451fe	1.9588504e-05
238	0x386dae82	5.6667726e-05
239	0xba13cf58	-0.00056385016
240	0xbb2bb2e7	-0.0026199163
241	0xb82ceb3c	-4.1227075e-05
242	0x39374bb4	0.00017480442
243	0xb84a4339	-4.822316e-05
244	0x3949e9bc	0.00019255927
245	0x39289c00	0.00016079843
246	0x390a49a2	0.00013188136
247	0x39516a83	0.00019971472
248	0x3946d3f4	0.0001896171
249	0x396b1dbc	0.00022422423
250	0xb7c83540	-2.3866654e-05
251	0xbb98f758	-0.0046681575
252	0x3b5733cd	0.0032837272
253	0xb7c41c32	-2.337815e-05
254	0x3b8612a2	0.0040915767
255	0xb82e355a	-4.153452e-05

onnx::GRU_192 f4 [1, 384, 128]
0	0x2ff224b4	4.4045623e-10
1	0xb0cdb693	-1.4967604e-09
2	0xafd6b600	-3.9055692e-10
3	0xb108ee27	-1.9925979e-09
4	0x3000d6c4	4.687133e-10
5	0xb1063a94	-1.9532864e-09
6	0x307044b8	8.7409147e-10
7	0xb0eadbd9	-1.7088225e-09
8	0x30a3fb53	1.1931242e-09
9	0x304f2502	7.535875e-10
10	0x30e46268	1.6617152e-09
11	0xafa049a6	-2.915616e-10
12	0xb07b8b1b	-9.151095e-10
13	0x2fba1e1a	3.385459e-10
14	0x3102b1e9	1.901862e-09
15	0x30f52e0c	1.7839183e-09
16	0x2fd8cfbf	3.9437784e-10
17	0xadd7e3f2	-2.4543898e-11
18	0x2f55ba14	1.9438345e-10
19	0xb1122f8f	-2.127283e-09
20	0x2f609438	2.0425339e-10
21	0xb0b66432	-1.327072e-09
22	0xb074c508	-8.904668e-10
23	0xb11328a2	-2.1414412e-09
24	0x2fe34b91	4.1344753e-10
25	0xb011ba10	-5.3015103e-10
26	0xb0e8283a	-1.6891655e-09
27	0xafffb7ea	-4.6514909e-10
28	0x2f924eec	2.6613323e-10
29	0xafb3205d	-3.2582906e-10
30	0xb0d5e1dc	-1.5561983e-09
31	0xb0411662	-7.02448e-10
32	0x3111fccb	2.1243973e-09
33	0x3115c84e	2.1796214e-09
34	0x30ee6e04	1.7348047e-09
35	0x2fbe0e9c	3.457118e-10
36	0x3042eea7	7.0915934e-10
37	0x3021fbb2	5.892914e-10
38	0x3021f6db	5.892226e-10
39	0x30d8262b	1.5726916e-09
40	0x311d11d8	2.285665e-09
41	0x30125227	5.3231236e-10
42	0x2fc3c53a	3.561043e-10
43	0xb10872cd	-1.9855861e-09
44	0xb0ee100b	-1.7321339e-09
45	0xb0d18230	-1.5243753e-09
46	0xb10d311f	-2.0546123e-09
47	0xb109707e	-2.0000068e-09
48	0xb1474038	-2.8994815e-09
49	0x307166ec	8.782155e-10
50	0x30263dcc	6.0478267e-10
51	0x3011c2a4	5.3027294e-10
52	0xafc5681d	-3.5908068e-10
53	0x305c9592	8.0248086e-10
54	0x30cf915b	1.5102545e-09
55	0xafc5fa15	-3.6011785e-10
56	0x2f8c2cdb	2.5497723e-10
57	0x31224fcb	2.361946e-09
58	0x3097ad25	1.1035907e-09
59	0xaef715f5	-1.123616e-10
60	0x30a6b6f9	1.2130094e-09
61	0x31023523	1.8947695e-09
62	0x30f4e18d	1.7817442e-09
63	0xb146a79e	-2.8908071e-09
64	0xb116476e	-2.1868476e-09
65	0xafb03142	-3.2049213e-10
66	0x30e2f489	1.6513165e-09
67	0xb147a564	-2.9052325e-09
68	0x300427bc	4.8077786e-10
69	0x3189a5cd	4.006074e-09
70	0xb106be4d	-1.960774e-09
71	0xafa12be2	-2.931691e-10
72	0xb0a9b502	-1.2347814e-09
73	0xafdbbfd7	-3.9972178e-10
74	0x309356d3	1.0720335e-09
75	0x30ebe38e	1.7163175e-09
76	0xb009f63e	-5.019024e-10
77	0xaef1aa11	-1.0989621e-10
78	0x306e8f61	8.678765e-10
79	0x303278f8	6.492793e-10
80	0x30b8e1f5	1.3451983e-09
81	0xb0ef5bbc	-1.7415611e-09
82	0x30049f1d	4.8247434e-10
83	0x30c43f57	1.4278879e-09
84	0x308e8648	1.0370025e-09
85	0xb063ea37	-8.291496e-10
86	0xb12416a7	-2.3878017e-09
87	0xb0be1ccb	-1.3832503e-09
88	0x2f9b36c4	2.823325e-10
89	0xb0d20fcf	-1.5284004e-09
90	0x310ff603	2.094908e-09
91	0xb0ee4240	-1.7335609e-09
92	0xb0e89b43	-1.692435e-09
93	0x3100b118	1.8727118e-09
94	0x31214d88	2.3472655e-09
95	0xb08f88da	-1.0443515e-09
96	0xaf904929	-2.624543e-10
97	0x311e18a4	2.3006033e-09
98	0xaf8d3ead	-2.5692284e-10
99	0x310139af	1.880476e-09
100	0x305ab118	7.9559603e-10
101	0xb1094868	-1.9977282e-09
102	0xb0a8d74a	-1.2284798e-09
103	0x2fcc9dbc	3.721946e-10
104	0x306150b2	8.19692e-10
105	0x309e8125	1.1532718e-09
106	0xb11574e0	-2.174879e-09
107	0xb0c0f5bf	-1.4039684e-09
108	0xb00fb29a	-5.2276905e-10
109	0xb0174d61	-5.504344e-10
110	0xafae7903	-3.17364e-10
111	0x300f8b16	5.222075e-10
112	0x30a18b15	1.1753821e-09
113	0xb0d6ee77	-1.5638325e-09
114	0x31217633	2.3495772e-09
115	0x2f9c847f	2.847038e-10
116	0x31182b7b	2.2143627e-09
117	0xb0dd84ab	-1.6117573e-09
118	0x310497f6	1.9294908e-09
119	0xaff1bbda	-4.397112e-10
120	0x306fd57c	8.7251073e-10
121	0x30f30004	1.7680581e-09
122	0xaf867745	-2.4459204e-10
123	0x2ffc5e1c	4.5905402e-10
124	0x312c0769	2.5033506e-09
125	0x2fbcb84b	3.432795e-10
126	0x31d32432	6.145023e-09
127	0x2fe2b66c	4.123878e-10
128	0x2e03414c	2.9843947e-11
129	0xaf82249c	-2.3672875e-10
130	0xae794879	-5.6680414e-11
131	0xae6695e2	-5.2429068e-11
132	0x2e5a7e79	4.967979e-11
133	0xae7d1e83	-5.755264e-11
134	0x2e43d88b	4.4530196e-11
135	0xaf13d43a	-1.344497e-10
136	0x2e69d838	5.3170107e-11
137	0x2dfa2d81	2.8441917e-11
138	0x2eae7bae	7.934574e-11
139	0xae2572d1	-3.7618634e-11
140	0xae5f090e	-5.0712372e-11
141	0x2e95ae89	6.806739e-11
142	0x2f01e5de	1.1814147e-10
143	0x2faf7508	3.191547e-10
144	0x2a924421	2.5982084e-13
145	0xaece0482	-9.368596e-11
146	0x2eea45cb	1.0653486e-10
147	0xae84826f	-6.025835e-11
148	0x2e1b4b2f	3.5309696e-11
149	0xae7d3e71	-5.7581e-11
150	0xae762a24	-5.5971353e-11
151	0xafa96b60	-3.0817215e-10
152	0x2e9c91cb	7.119957e-11
153	0xae75ba36	-5.587194e-11
154	0xae78bf81	-5.655876e-11
155	0xae03dfba	-2.998466e-11
156	0x2eb43634	8.195081e-11
157	0xada83d40	-1.912659e-11
158	0xaddd9040	-2.5188851e-11
159	0xaf09f9f0	-1.2548873e-10
160	0x2ec0b1c5	8.7627273e-11
161	0x2eaab083	7.76206e-11
162	0x2e9ad8e0	7.041634e-11
163	0x2f923cc4	2.6600422e-10
164	0x2e1249b9	3.3262035e-11
165	0x2e09f11c	3.136434e-11
166	0x2e0a1a7c	3.140109e-11
167	0x2dacd1cd	1.9647306e-11
168	0x2ee27384	1.029781e-10
169	0x2e06d7e2	3.0659815e-11
170	0x2ea335ee	7.421962e-11
171	0xaecc4e02	-9.290703e-11
172	0xae96c436	-6.856064e-11
173	0xaeb0bfc3	-8.037617e-11
174	0xae84bb13	-6.035896e-11
175	0xae81104c	-5.869136e-11
176	0xafa23746	-2.9506902e-10
177	0x2e4f4818	4.7130383e-11
178	0x2e2c70d6	3.920849e-11
179	0x2ea01927	7.2804256e-11
180	0xaeb0ef88	-8.046103e-11
181	0x2e18554e	3.4636564e-11
182	0x2e579786	4.901992e-11
183	0xaeb53904	-8.241055e-11
184	0xaf9af45a	-2.818606e-10
185	0x2ef2a942	1.1034952e-10
186	0x2e65899b	5.219079e-11
187	0xad81ade2	-1.4742822e-11
188	0x2e4042f2	4.3715205e-11
189	0x2ebd0fb3	8.597514e-11
190	0xaf2e76c6	-1.5867405e-10
191	0xae3b2eda	-4.256049e-11
192	0x2f7d091b	2.3013451e-10
193	0xae05c538	-3.0415864e-11
194	0x2e833ddc	5.968179e-11
195	0x2e8f38b8	6.5129624e-11
196	0x2f83989c	2.3937197e-10
197	0x2fd81563	3.9305367e-10
198	0xaeb0217b	-8.009501e-11
199	0xad703f1e	-1.3656435e-11
200	0xae42901f	-4.42385e-11
201	0xae928f73	-6.664793e-11
202	0x2e8c1817	6.370742e-11
203	0x2e70a362	5.4714795e-11
204	0xade8847d	-2.6434183e-11
205	0xad36f5b1	-1.0400057e-11
206	0x2e98d629	6.950202e-11
207	0x2f816853	2.353909e-10
208	0xae8d85fa	-6.435737e-11
209	0xaeff2a37	-1.1603556e-10
210	0x2e24affd	3.7445592e-11
211	0x2e8123de	5.872612e-11
212	0x2e03c2ba	2.9958903e-11
213	0xae687703	-5.2856396e-11
214	0x2ee0c9c3	1.0222181e-10
215	0xaee85ed5	-1.0566984e-10
216	0x2d7d6164	1.440301e-11
217	0xae8562c4	-6.065684e-11
218	0x2e8df7a1	6.4559254e-11
219	0xaed06059	-9.47586e-11
220	0xaee4d951	-1.0406843e-10
221	0x2e8916ac	6.234066e-11
222	0x2eee97c9	1.08499494e-10
223	0xada2523f	-1.8453792e-11
224	0x2dc3ae82	2.224643e-11
225	0x2eccc1dc	9.311282e-11
226	0xaddc477f	-2.5042855e-11
227	0x2ea4a395	7.4869146e-11
228	0x2e506c88	4.739012e-11
229	0xaf23e5bb	-1.490638e-10
230	0xaebae8e8	-8.499673e-11
231	0x2e03eeb7	2.9997973e-11
232	0x2debb9da	2.6798942e-11
233	0x2f1a98ed	1.4060549e-10
234	0xaea627e0	-7.555889e-11
235	0xae7fe20b	-5.8181054e-11
236	0xae05c4bd	-3.0415438e-11
237	0xae06483b	-3.0532226e-11
238	0xaea772f9	-7.614704e-11
239	0x2e0620ef	3.0497323e-11
240	0xae35b171	-4.1312235e-11
241	0xaea93d87	-7.69616e-11
242	0x2eefab68	1.08989096e-10
243	0x2eb59b80	8.2585494e-11
244	0x2ee59861	1.0440782e-10
245	0xaee45906	-1.0384053e-10
246	0x2e12a4eb	3.3343033e-11
247	0xae49a485	-4.584823e-11
248	0x2f054558	1.2120915e-10
249	0x2f1a3a0f	1.4026845e-10
250	0xaeb6e358	-8.316786e-11
251	0x2f342e2a	1.6387305e-10
252	0xaf557769	-1.941466e-10
253	0x2e05a1d8	3.0384445e-11
254	0x2f627603	2.0596506e-10
255	0xae0a982e	-3.151273e-11

onnx::GRU_193 f4 [1, 384, 128]
0	0x80000daf	-4.909e-42
1	0x00000ddc	4.972e-42
2	0x0000102a	5.799e-42
3	0x00000dae	4.907e-42
4	0x00000dd5	4.962e-42
5	0x00000df3	5.004e-42
6	0x00000dde	4.975e-42
7	0x80000de9	-4.99e-42
8	0x80000e00	-5.022e-42
9	0x80000e1c	-5.061e-42
10	0x00000df4	5.005e-42
11	0x80000dac	-4.905e-42
12	0x00000e3a	5.104e-42
13	0x00000fb1	5.629e-42
14	0x00000df8	5.011e-42
15	0x00000e01	5.024e-42
16	0x80000efe	-5.378e-42
17	0x00000fc3	5.654e-42
18	0x80000db0	-4.91e-42
19	0x00000dbf	4.931e-42
20	0x00000ddc	4.972e-42
21	0x00000e10	5.045e-42
22	0x80000dcc	-4.95e-42
23	0x00000dc9	4.945e-42
24	0x80000e00	-5.022e-42
25	0x80000daf	-4.909e-42
26	0x80000e07	-5.032e-42
27	0x80000ea0	-5.246e-42
28	0x80000de6	-4.986e-42
29	0x00001098	5.953e-42
30	0x00000dc8	4.944e-42
31	0x80000dec	-4.994e-42
32	0x00000e56	5.143e-42
33	0x00000e12	5.047e-42
34	0x00000dc2	4.935e-42
35	0x80000dda	-4.969e-42
36	0x00000de8	4.989e-42
37	0x00000e37	5.1e-42
38	0xa8bd1cb8	-2.099567e-14
39	0x80000dc3	-4.937e-42
40	0x00001171	6.257e-42
41	0x00000de8	4.989e-42
42	0x80000e2d	-5.085e-42
43	0x00001134	6.171e-42
44	0x80000e47	-5.122e-42
45	0x00000e3f	5.11e-42
46	0x80000dd5	-4.962e-42
47	0x00000dc3	4.937e-42
48	0x00000e3c	5.106e-42
49	0x80000dca	-4.947e-42
50	0x80000e48	-5.123e-42
51	0x00000e57	5.144e-42
52	0x00000dd6	4.963e-42
53	0x00000db9	4.923e-42
54	0x00000e15	5.052e-42
55	0x00000e03	5.026e-42
56	0x00000e85	5.209e-42
57	0x80000e1a	-5.059e-42
58	0x80000de7	-4.987e-42
59	0x00000db8	4.921e-42
60	0x00000dec	4.994e-42
61	0x00000dd7	4.965e-42
62	0x80000daf	-4.909e-42
63	0x80000de9	-4.99e-42
64	0x00000dce	4.952e-42
65	0xb4dd8b72	-4.1265918e-07
66	0x00000db7	4.92e-42
67	0x00000ddb	4.97e-42
68	0x80000e8a	-5.216e-42
69	0x00000dbd	4.928e-42
70	0x00000ef1	5.36e-42
71	0x00000de4	4.983e-42
72	0x80000ddc	-4.972e-42
73	0x00000e14	5.05e-42
74	0x80000dd6	-4.963e-42
75	0x80000dad	-4.906e-42
76	0x00000dda	4.969e-42
77	0x80000dcd	-4.951e-42
78	0x80000db7	-4.92e-42
79	0x80000dbf	-4.931e-42
80	0x80000df0	-5e-42
81	0x00000dee	4.997e-42
82	0x00000e00	5.022e-42
83	0x80000dca	-4.947e-42
84	0x00000de8	4.989e-42
85	0x000010e7	6.063e-42
86	0x00000e23	5.071e-42
87	0x80000de5	-4.984e-42
88	0x00000df1	5.001e-42
89	0x80000e7e	-5.199e-42
90	0x8000101b	-5.778e-42
91	0x00000e20	5.067e-42
92	0x80000ddf	-4.976e-42
93	0x80000dd8	-4.966e-42
94	0x80000dbc	-4.927e-42
95	0x80000db5	-4.917e-42
96	0x80000de9	-4.99e-42
97	0x80000dcb	-4.948e-42
98	0x00000db6	4.919e-42
99	0x00001174	6.261e-42
100	0x00000dcd	4.951e-42
101	0x80000eac	-5.263e-42
102	0x80000e06	-5.03e-42
103	0x800010e0	-6.054e-42
104	0x80000de6	-4.986e-42
105	0x80000dcd	-4.951e-42
106	0x80000de3	-4.982e-42
107	0x80000dc2	-4.935e-42
108	0x00000e1b	5.06e-42
109	0x80000de1	-4.979e-42
110	0x80000f22	-5.429e-42
111	0x80000dd6	-4.963e-42
112	0x80000db7	-4.92e-42
113	0x80000dd6	-4.963e-42
114	0x80000dc6	-4.941e-42
115	0x80000faa	-5.619e-42
116	0x00000e8b	5.217e-42
117	0x34d7931d	4.015391e-07
118	0x00000dbb	4.926e-42
119	0x00000de6	4.986e-42
120	0x80000ddf	-4.976e-42
121	0x00000dd1	4.956e-42
122	0x00000de3	4.982e-42
123	0xb71ca511	-9.336757e-06
124	0x800010de	-6.051e-42
125	0x80000dd6	-4.963e-42
126	0x80000dbc	-4.927e-42
127	0x80000dcb	-4.948e-42
128	0x800010b8	-5.998e-42
129	0x00001124	6.149e-42
130	0x80000e37	-5.1e-42
131	0x000010b4	5.992e-42
132	0x80000ddc	-4.972e-42
133	0x00000ddb	4.97e-42
134	0x00000dc9	4.945e-42
135	0x80000dc3	-4.937e-42
136	0x80000dd5	-4.962e-42
137	0x00000f72	5.541e-42
138	0x80000ddb	-4.97e-42
139	0x80000f12	-5.406e-42
140	0x00000e35	5.097e-42
141	0x00000dbe	4.93e-42
142	0x80000e30	-5.09e-42
143	0x80000dc2	-4.935e-42
144	0x00000de0	4.977e-42
145	0x80000dcf	-4.954e-42
146	0x00000dbf	4.931e-42
147	0x80000dd8	-4.966e-42
148	0x00000db1	4.912e-42
149	0x80000db7	-4.92e-42
150	0x80000de6	-4.986e-42
151	0x00000dcd	4.951e-42
152	0x00000e4c	5.129e-42
153	0x80000dcc	-4.95e-42
154	0x00000dad	4.906e-42
155	0x80000dba	-4.924e-42
156	0x00000dc0	4.933e-42
157	0x00000db4	4.916e-42
158	0x00000e54	5.14e-42
159	0x80000db3	-4.914e-42
160	0x00000dc8	4.944e-42
161	0x00000dbe	4.93e-42
162	0x80000df8	-5.011e-42
163	0x80000ef3	-5.363e-42
164	0x80000dd7	-4.965e-42
165	0xacbed26f	-5.4234876e-12
166	0x80000db1	-4.912e-42
167	0x00001097	5.951e-42
168	0x00000df1	5.001e-42
169	0x80000def	-4.998e-42
170	0x00000dd3	4.959e-42
171	0x80000dc4	-4.938e-42
172	0x00000dae	4.907e-42
173	0x00000e7c	5.196e-42
174	0x00000ded	4.996e-42
175	0x00000e77	5.189e-42
176	0x00000dd8	4.966e-42
177	0x00000dad	4.906e-42
178	0x00000db5	4.917e-42
179	0x80000df3	-5.004e-42
180	0x00000f4f	5.492e-42
181	0x00000e6d	5.175e-42
182	0x80000dad	-4.906e-42
183	0x00000dde	4.975e-42
184	0x80000dba	-4.924e-42
185	0x80000dac	-4.905e-42
186	0x00000dd8	4.966e-42
187	0x80000dde	-4.975e-42
188	0x80000df9	-5.012e-42
189	0x80000de8	-4.989e-42
190	0x00000de7	4.987e-42
191	0x80000e6b	-5.172e-42
192	0x00000ddb	4.97e-42
193	0x80000df6	-5.008e-42
194	0x80000e78	-5.19e-42
195	0x80000dcb	-4.948e-42
196	0x80000df4	-5.005e-42
197	0x00000dba	4.924e-42
198	0x00000dad	4.906e-42
199	0x00000dad	4.906e-42
200	0x00000df1	5.001e-42
201	0x80000ddc	-4.972e-42
202	0x80000e13	-5.049e-42
203	0x00000ddf	4.976e-42
204	0x80000e33	-5.094e-42
205	0x00000e5c	5.151e-42
206	0x80000e0f	-5.043e-42
207	0x00000ed5	5.321e-42
208	0x00000dc5	4.94e-42
209	0x00000dbb	4.926e-42
210	0xa997ad93	-6.7358574e-14
211	0x00000dd0	4.955e-42
212	0x00000dce	4.952e-42
213	0x80001183	-6.282e-42
214	0x80000dc6	-4.941e-42
215	0x80000dd7	-4.965e-42
216	0x800010c9	-6.021e-42
217	0x80000dca	-4.947e-42
218	0x80000de0	-4.977e-42
219	0x2c2db9fd	2.4688023e-12
220	0x00000e67	5.167e-42
221	0x80000dc5	-4.94e-42
222	0x80000ef9	-5.371e-42
223	0x00000dd0	4.955e-42
224	0x80000e31	-5.091e-42
225	0x80000e07	-5.032e-42
226	0x00000dd6	4.963e-42
227	0x80000e16	-5.053e-42
228	0x00000dc6	4.941e-42
229	0x00000db0	4.91e-42
230	0x00000fbd	5.646e-42
231	0x00000de6	4.986e-42
232	0x80000e07	-5.032e-42
233	0x80000e50	-5.134e-42
234	0xa6eb7705	-1.6338661e-15
235	0x80000de2	-4.98e-42
236	0x80000de6	-4.986e-42
237	0x00000e6d	5.175e-42
238	0x80000dd8	-4.966e-42
239	0x00000dd8	4.966e-42
240	0x00000dc2	4.935e-42
241	0x80000def	-4.998e-42
242	0x80000df9	-5.012e-42
243	0x00000e21	5.068e-42
244	0x80000deb	-4.993e-42
245	0x00000f28	5.437e-42
246	0x00000f83	5.565e-42
247	0x00000e00	5.022e-42
248	0x80001133	-6.17e-42
249	0x80000de1	-4.979e-42
250	0x80001184	-6.283e-42
251	0x80000dad	-4.906e-42
252	0x00000ef8	5.37e-42
253	0x80000de8	-4.989e-42
254	0x80000e6a	-5.171e-42
255	0x80000dda	-4.969e-42

onnx::GRU_194 f4 [1, 768]
0	0x3107edd5	1.9780277e-09
1	0xafa46bd1	-2.9908034e-10
2	0x36dbdb64	6.552249e-06
3	0xbea1b17b	-0.3158072
4	0xad8fb6d8	-1.6338417e-11
5	0xbeed73c9	-0.463774
6	0xb62db65b	-2.5885154e-06
7	0x34a33fb9	3.040748e-07
8	0xb81c9c17	-3.733867e-05
9	0x32db4914	2.5528188e-08
10	0x352d6550	6.459495e-07
11	0xb0cca9c7	-1.4891207e-09
12	0x3b6b119a	0.0035868646
13	0xbc3382e6	-0.010956502
14	0xb5c49919	-1.4647695e-06
15	0xb340f2c6	-4.4924285e-08
16	0x31e56100	6.675805e-09
17	0x3b998b68	0.004685808
18	0x3179f949	3.6375971e-09
19	0x35a75a64	1.2468777e-06
20	0xb628a7b2	-2.5131562e-06
21	0x38e2904b	0.000108033964
22	0x38f45fa9	0.00011652645
23	0x3445cef2	1.8422341e-07
24	0xbf3cc4b4	-0.73737645
25	0x350bdef3	5.210597e-07
26	0xbf0fcde8	-0.56173563
27	0x375e831d	1.3262758e-05
28	0xb78fc094	-1.7136605e-05
29	0x3a315826	0.00067651493
30	0x34026990	1.2145597e-07
31	0x3344450c	4.5697604e-08
32	0x35e54723	1.7082533e-06
33	0x3225510c	9.622692e-09
34	0xbacd075c	-0.0015642452
35	0xb4dcb4ff	-4.1109885e-07
36	0xb8ee329d	-0.00011358152
37	0xb72a9d88	-1.0169468e-05
38	0x32144441	8.630253e-09
39	0x322c3d11	1.0025603e-08
40	0x36340e61	2.683046e-06
41	0x35ba20e6	1.3867655e-06
42	0x324dfda7	1.1990244e-08
43	0x35391a1b	6.895586e-07
44	0xbebfb7d1	-0.37444928
45	0x3aff89cb	0.0019496022
46	0xb535f659	-6.778624e-07
47	0x34ab3dff	3.189634e-07
48	0x3407cf39	1.2648242e-07
49	0xb29ccb57	-1.8253258e-08
50	0x3a2c7449	0.0006578607
51	0xb78c71e6	-1.6742339e-05
52	0xafca03f5	-3.6746398e-10
53	0x355ef0ba	8.305175e-07
54	0xb7c69c56	-2.3676239e-05
55	0xb43e313a	-1.7713037e-07
56	0x3883363a	6.256667e-05
57	0xbf1ec637	-0.620212
58	0xb9b489e2	-0.00034435006
59	0x33e8319a	1.0812364e-07
60	0xbf342273	-0.70365065
61	0xb6ee6da5	-7.105717e-06
62	0xb9149029	-0.00014168084
63	0x35c3237f	1.4538963e-06
64	0xb6099327	-2.0500245e-06
65	0xbd60f073	-0.05491681
66	0xb8536cfe	-5.0407827e-05
67	0xb49fda8e	-2.9775077e-07
68	0xb473d8ce	-2.2710012e-07
69	0x351bcf65	5.80438e-07
70	0x35da5aa4	1.6268646e-06
71	0xb349ca03	-4.6982688e-08
72	0xb60097b0	-1.916178e-06
73	0xb2eedaef	-2.7806406e-08
74	0x35d88199	1.6130972e-06
75	0x355de78d	8.2665866e-07
76	0xb99ac877	-0.00029522527
77	0x323e6dd2	1.1084426e-08
78	0x32006e45	7.475653e-09
79	0xbe98f2da	-0.2987278
80	0xb5e1e588	-1.6830609e-06
81	0x34803664	2.3881432e-07
82	0xb39efb93	-7.4032094e-08
83	0xb75b1909	-1.3059246e-05
84	0xb5d90c04	-1.6171257e-06
85	0x35b92b73	1.379622e-06
86	0x34a142bf	3.003715e-07
87	0xb625aedd	-2.46887e-06
88	0x33b4b9cb	8.415699e-08
89	0xbe8810a5	-0.265752
90	0x352bd481	6.40117e-07
91	0xb781e912	-1.548653e-05
92	0x378acf0a	1.6547292e-05
93	0x320b785e	8.118233e-09
94	0xb9c2c185	-0.00037146747
95	0x35d2e9ea	1.5714297e-06
96	0x34e3f4cc	4.2460158e-07
97	0x35d77c2c	1.6054887e-06
98	0x38bbf186	8.961842e-05
99	0x38b26686	8.506798e-05
100	0xb78676b7	-1.6029326e-05
101	0x38bb598f	8.9335364e-05
102	0x32793538	1.4505808e-08
103	0xbe8bfca2	-0.2734118
104	0xb7f1ff85	-2.8848424e-05
105	0x34b5c581	3.385758e-07
106	0x3297c642	1.766887e-08
107	0x32c8b3d4	2.336484e-08
108	0x35871fd6	1.0067549e-06
109	0x3460e757	2.0945787e-07
110	0xbe8e3377	-0.2777364
111	0xb08205a1	-9.460345e-10
112	0x3278413d	1.4450333e-08
113	0x37877e35	1.6152024e-05
114	0xb9c756ad	-0.00038020816
115	0x36ee4934	7.1014747e-06
116	0x307f56b7	9.289169e-10
117	0x3bb7f6a5	0.005614119
118	0x33064278	3.125976e-08
119	0xb82cee73	-4.123007e-05
120	0xbf32842b	-0.6973292
121	0x31bc6801	5.483344e-09
122	0xb4406cba	-1.7920948e-07
123	0x361067dd	2.1518129e-06
124	0x34fd03f4	4.7127799e-07
125	0xbe8a3e3c	-0.27000606
126	0xb6640c0a	-3.3981655e-06
127	0xb3d36ecb	-9.845606e-08
128	0xae9ca72a	-7.123753e-11
129	0xae299650	-3.8559655e-11
130	0x328ef1a5	1.6640863e-08
131	0xbae56146	-0.0017500303
132	0x2eb4dc7c	8.224618e-11
133	0xbaeef176	-0.001822992
134	0x352b315a	6.377428e-07
135	0x317e4294	3.699971e-09
136	0x36cc5481	6.0895113e-06
137	0xb154c89b	-3.0964091e-09
138	0x327f5070	1.4861243e-08
139	0x3005e04c	4.8703863e-10
140	0xb9b4a861	-0.00034457727
141	0x3956f4b4	0.0002049979
142	0x339c6cf5	7.284135e-08
143	0x328488e0	1.5429066e-08
144	0x2fd7fd02	3.9288045e-10
145	0xb9c93830	-0.0003837957
146	0x300f667d	5.216874e-10
147	0xb358db16	-5.0490677e-08
148	0x35647d23	8.5118717e-07
149	0xb6ea7008	-6.9867856e-06
150	0xb7005fdc	-7.6517135e-06
151	0xb1daa1c1	-6.3630243e-09
152	0xbb13e914	-0.0022569345
153	0xb14c525e	-2.9732727e-09
154	0xbb8add6e	-0.0042378223
155	0x354af9e2	7.561449e-07
156	0x37120032	8.702324e-06
157	0x399916c2	0.0002919939
158	0x327ca029	1.4704747e-08
159	0xb17c2b9d	-3.6695618e-09
160	0x355b7a65	8.1761965e-07
161	0xb0a1bdc0	-1.1768222e-09
162	0x385436b6	5.0595692e-05
163	0x334f6a40	4.8292577e-08
164	0x38502e43	4.963415e-05
165	0x36984a07	4.538571e-06
166	0xafb53bd2	-3.2966213e-10
167	0xafb30e49	-3.257006e-10
168	0xb48f1827	-2.66534e-07
169	0xb347f602	-4.655704e-08
170	0xb0adc27a	-1.264268e-09
171	0xb32ad23c	-3.9772416e-08
172	0xbafc09de	-0.0019229015
173	0x39036229	0.00012529701
174	0x3440e394	1.7964186e-07
175	0x31d179e5	6.0965584e-09
176	0x30d6c280	1.562583e-09
177	0x311d1652	2.2859195e-09
178	0x38638313	5.424309e-05
179	0x34d4a3cb	3.9607252e-07
180	0xadca3c15	-2.2991423e-11
181	0x325aee2e	1.2743426e-08
182	0xb73ac50b	-1.1132342e-05
183	0x33348294	4.2028276e-08
184	0x36b23e73	5.3120834e-06
185	0xbb9e5cc6	-0.004832837
186	0xb894832f	-7.081625e-05
187	0x3339f921	4.330025e-08
188	0x3ada797d	0.0016668286
189	0x35d3c8ab	1.5779127e-06
190	0x39d13b9f	0.00039908008
191	0xb3963eae	-6.996321e-08
192	0x34dc12da	4.099191e-07
193	0xb60da931	-2.110912e-06
194	0x36a252d5	4.837619e-06
195	0x2fa5ce37	3.015985e-10
196	0xb523d8f3	-6.1037935e-07
197	0xb2e79888	-2.6961303e-08
198	0xb3dd1e08	-1.0296577e-07
199	0x328168dc	1.5065261e-08
200	0x363e53a0	2.8360882e-06
201	0x3230f8c4	1.0301111e-08
202	0xb448c6d7	-1.8698789e-07
203	0xb3e263bd	-1.05420874e-07
204	0x395309c3	0.00020126165
205	0xb0d49e0d	-1.5469951e-09
206	0xb06f1eeb	-8.699163e-10
207	0xbb5181c1	-0.0031968208
208	0x34c88ceb	3.7355434e-07
209	0x330312f4	3.0518052e-08
210	0x3291d678	1.697775e-08
211	0xb720f948	-9.5947835e-06
212	0x34bec8bc	3.553631e-07
213	0xb36a7bd8	-5.4595006e-08
214	0x305b35e5	7.9748325e-10
215	0x350f535c	5.3392955e-07
216	0x2f97419e	2.7513364e-10
217	0xba293da9	-0.00064560265
218	0xb218a664	-8.885397e-09
219	0xb6c72d44	-5.9359318e-06
220	0x376710b1	1.3772559e-05
221	0xb0803472	-9.328132e-10
222	0x38b0fef0	8.43982e-05
223	0x33d32917	9.8329274e-08
224	0xaf1be0e9	-1.4177072e-10
225	0xb3947222	-6.912548e-08
226	0xb6cfeb9e	-6.19651e-06
227	0x3611a255	2.1701173e-06
228	0x366e73c5	3.553215e-06
229	0x3533450c	6.678317e-07
230	0xb07ee6d6	-9.27327e-10
231	0xba5e1384	-0.0008471536
232	0xb30cc961	-3.2779443e-08
233	0x31c6ba10	5.7837113e-09
234	0xb12cc12a	-2.5139095e-09
235	0xb16bf422	-3.4335774e-09
236	0xb4589826	-2.0171919e-07
237	0xb24b8d33	-1.184826e-08
238	0xbabf0d25	-0.0014576061
239	0xaeab8f5b	-7.801645e-11
240	0xb08f795b	-1.0439111e-09
241	0x3567c83d	8.634559e-07
242	0x38d64fad	0.00010219156
243	0xb3b85101	-8.582902e-08
244	0x2fd12b8b	3.8047818e-10
245	0xb914cb91	-0.00014190214
246	0xb19c08c0	-4.5411923e-09
247	0x36c34d33	5.82044e-06
248	0xb8facd04	-0.00011959116
249	0x2f476f31	1.8138448e-10
250	0x3230cb4f	1.0290775e-08
251	0x318bed0b	4.072381e-09
252	0x33569190	4.9958146e-08
253	0xbaf108e0	-0.0018389486
254	0x3574f17c	9.124849e-07
255	0x32431a9e	1.1356546e-08
