output/model_1.onnx (onnx, 213015 bytes, 8 tensors)

fc.weight f4 [4, 64]
00000000: beda a43a b31a 1cbf db90 b93a 6154 f139
00000010: e0e1 f2b7 5312 8436 2a41 223a 2e6e 3d3a
00000020: bf2f 0e38 5a08 d1b9 9fc8 25ba bf77 9c3a
00000030: 8e18 103a 2647 4b3a 9089 8bb6 8a37 ed3f
00000040: 438e fcba 68cd 61be 8ccd 843a 8aac 343a
00000050: 7a42 1737 548b 61b9 8ba0 0cba eb46 64ba
00000060: b12f a3b8 9aa0 523f 6c26 3039 75d5 73ba
00000070: 1696 8c36 7368 f8b7 5cb0 8f37 9f02 80b9
00000080: 0321 813b 3a50 a033 4cd4 5936 2978 5639
00000090: ce87 d638 9f66 8939 5021 9eba 964b abbe
000000a0: b757 2cba 87ac 7eb8 17d0 cd39 d26d 443a
000000b0: 01f7 a33a 774f 43bf 2206 d539 a5d2 4d37
000000c0: c786 0cb8 4390 26ba d422 a737 eaea 31ba
000000d0: 823a c435 799f fbb9 5531 c2ba 69e9 ebb9
000000e0: 122f 06ba ad5e 18c0 a028 9c39 2c9d 57ba
000000f0: 7f4e 3939 a5b9 b63a d753 8e3a 70bd 3dbf
00000100: 1e1b fa39 e96b 3bbf f902 593b a319 7b39
00000110: 78a1 91ba 79c9 6036 675f 353b 9eff b339
00000120: 3a8a 3e38 c98b b3ba 516e f838 8174 cc39
00000130: 2c4c 153b ee8f fc39 f2c2 cbb7 2b5a dfbe
00000140: 8caa 73ba 407b 803f 3363 0a3a 8d59 003b
00000150: d6e5 dd37 4745 3839 ef05 aeba ebbd bcb9
00000160: 6ac0 4fb7 2149 723f 6d2a af38 a1e9 e5b9
00000170: c8e9 4b36 54a8 c3b8 5a83 4738 2955 1db9
00000180: 849f 433f 54ca f735 d59b 7d36 00a7 293a
00000190: f76b 023a 8575 2939 8be9 19ba f0bb 1dbf
000001a0: 3f09 eeba f12f 0a37 8a05 bf38 fcd9 b339
000001b0: 5548 263a b4fd 14bf 19cc e43a e88b f437
000001c0: 32f4 f5b9 1754 abb9 9376 fdb9 d7b5 eeba
000001d0: 877c 2534 6aa1 8fb9 d912 77bb ea6f f2ba
000001e0: 0229 97b9 6658 2c3f 097d 5d3a 57c6 55bb
000001f0: 95e6 483a 227b ed39 90d8 1c3b da8f 2c40
00000200: caec a8ba 096e f63f 0c8d bcba df67 06ba
00000210: e6bb 833a 32fe ce36 c328 13ba 9c57 60ba
00000220: 8709 05b8 04d6 2f3a 7f9a 3dba 4303 bdba
00000230: 528c 0bba b916 2bba 9b78 d637 c72a cfbe
00000240: c829 0fba 3a46 91be d34f 81ba 4007 86ba
00000250: 6a15 33b7 f96d e1b9 03a6 9f3a af1e 7b3a
00000260: 7122 15b8 e590 463f 0163 86b7 a7fa 803a
00000270: f8b0 af36 5443 9c37 d48f b3b7 420b ff38
00000280: b99c 83bf 4dd0 3db6 ddd9 5436 955a 2bba
00000290: 51e2 08b9 85fd 08b9 8af8 993a 29d2 adbe
000002a0: 9bb9 803a 2982 84b8 11f8 b638 9c75 83ba
000002b0: 9264 9aba 6e3e f53f 7f60 c1b9 837e 38b7
000002c0: f6cd 203a bca4 273a b599 403a 8f30 8f3a
000002d0: 4cfd f435 754b f039 c2ff b53a cd5a c339
000002e0: 663f 033a b186 7a3f 9413 45ba 855b 523a
000002f0: b64b 36b9 062b c8ba f671 c7ba 0add 64bf
00000300: 1998 48ba f463 15bf 9b9d 58bb dcd1 afb9
00000310: c073 87b8 703e 5db7 3c48 2bbb b83d f4b9
00000320: 2a01 27b8 dca3 8f3a aff6 673a c294 65ba
00000330: 3124 1bbb ed8d e8b9 5c62 0037 d375 81bf
00000340: dc68 463b cf07 00bf d822 efb9 9f5f d3ba
00000350: 29af cdb7 79ab ce39 2f11 033a 8d1f 073a
00000360: 3216 1939 88bf 22c0 c782 21b9 4368 053a
00000370: 935e a1b6 ee55 de38 c7be 24b8 f6b6 3d39
00000380: 79c6 873e 2513 07b5 bcf5 54b7 1c58 6bb9
00000390: e177 c4b9 9dca 45b9 2340 1a3a 3ed0 a43f
000003a0: 6978 cc3a 86dd 0739 27ee f6b9 625a 1aba
000003b0: 1d2e 13ba 5d4a 12bf e3f4 f0ba 45fc d6b7
000003c0: bc63 63b9 6551 aa39 f388 5eb9 fdf7 ca3a
000003d0: d16b 1db7 0f1b 7b39 a68b 7c3b 3d3d 053b
000003e0: e9ff 8a39 9d56 3b3f df72 dfb9 2b96 523b
000003f0: c293 1cba 34e2 85ba 7470 04bb 436a 88bf
0.0012577397 -0.6097824 0.001415755 0.0004602997 -2.895383e-05 3.93604e-06 0.000618952 0.0007226196
3.3899905e-05 -0.0003986981 -0.00063241454 0.0011937543 0.0005496823 0.00077544374 -4.158537e-06 1.8532574
-0.0019268472 -0.22051013 0.0010132059 0.00068921654 9.015779e-06 -0.00021509576 -0.0005364499 -0.00087080774
-7.781329e-05 0.8227631 0.00016798981 -0.0009301522 4.1897974e-06 -2.9612542e-05 1.7129052e-05 -0.00024416015
0.003940703 7.465174e-08 3.2459093e-06 0.00020453394 0.00010229611 0.00026207135 -0.0012064371 -0.33456105
-0.000657435 -6.0718998e-05 0.00039255686 0.0007493171 0.0012509526 -0.7629313 0.00040631095 1.2267997e-05
-3.3504122e-05 -0.0006353894 1.992417e-05 -0.0006787019 1.4620166e-06 -0.00047993267 -0.0014815727 -0.00044996597
-0.00051187084 -2.3807786 0.00029784907 -0.00082250196 0.00017672217 0.0013940824 0.0010858726 -0.74117184
0.0004770392 -0.7321153 0.0033113344 0.00023946776 -0.0011110744 3.3495874e-06 0.0027675272 0.0003433199
4.5428264e-05 -0.0013698275 0.000118461096 0.00038996714 0.0022780998 0.00048172422 -2.4290264e-05 -0.4362348
-0.0009295128 1.0037613 0.0005279064 0.0019584626 2.6452279e-05 0.00017573415 -0.0013276915 -0.00035999654
-1.2382961e-05 0.94642836 8.352553e-05 -0.0004385235 3.0385436e-06 -9.329678e-05 4.7567628e-05 -0.00015004411
0.76415277 1.8461819e-06 3.7790644e-06 0.00064717233 0.00049751945 0.00016160875 -0.00058712874 -0.61614895
-0.0018160715 8.236603e-06 9.1086215e-05 0.00034303952 0.0006343176 -0.5819962 0.0017455845 2.9152216e-05
-0.0004691198 -0.00032678313 -0.00048344265 -0.0018212151 1.5412125e-07 -0.00027395348 -0.0037700443 -0.0018496488
-0.00028831518 0.67322385 0.00084491126 -0.003261944 0.0007663754 0.00045295904 0.0023932792 2.69628
-0.0012887951 1.925233 -0.0014385297 -0.00051271723 0.0010050505 6.1688706e-06 -0.0005613679 -0.00085579767
-3.1718544e-05 0.0006707611 -0.00072327995 -0.0014420528 -0.00053233386 -0.0006526518 2.556695e-05 -0.40462324
-0.0005461243 -0.2837389 -0.0009865708 -0.0010225549 -1.0674217e-05 -0.0004299728 0.0012180213 0.00095794623
-3.5556444e-05 0.7756484 -1.6020147e-05 0.0009840325 5.2360083e-06 1.8628001e-05 -2.1405438e-05 0.000121614445
-1.0282203 -2.8284442e-06 3.1717275e-06 -0.000653663 -0.0001305428 -0.00013064414 0.0011747044 -0.33949402
0.000982094 -6.318495e-05 8.724642e-05 -0.0010029557 -0.001177924 1.9159677 -0.00036883724 -1.099671e-05
0.0006134206 0.0006395092 0.0007347123 0.0010924506 1.8253136e-06 0.00045832587 0.0013885426 0.0003726095
0.00050067005 0.9786177 -0.0007517871 0.0008024502 -0.00017385077 -0.0015271611 -0.0015216458 -0.8939978
-0.0007652059 -0.5835564 -0.0033052925 -0.00033534958 -6.458862e-05 -1.3187164e-05 -0.0026135584 -0.0004658529
-3.9816987e-05 0.0010958868 0.00088487094 -0.00087578234 -0.0023672695 -0.0004435623 7.652296e-06 -1.0114082
0.0030274903 -0.50011915 -0.00045611593 -0.001612652 -2.451947e-05 0.0003941914 0.0004999814 0.0005154543
0.00014599485 -2.5429401 -0.00015402875 0.00050890836 -4.809184e-06 0.000106017906 -3.9278322e-05 0.00018092603
0.2651861 -5.031928e-07 -1.2693399e-05 -0.0002244417 -0.0003747335 -0.00018862863 0.0005884191 1.287605
0.001559985 0.00012957127 -0.00047098214 -0.0005888102 -0.00056144764 -0.5714472 -0.0018383529 -2.562826e-05
-0.00021685561 0.0003248557 -0.00021222587 0.0015485283 -9.383032e-06 0.00023947305 0.0038535385 0.002033069
0.0002651208 0.73179036 -0.0004261946 0.0032132964 -0.00059729454 -0.0010214509 -0.002020863 -1.0657429

fc.bias f4 [4]
00000000: ef00 cf3c f875 f9bc 2398 8a3c c327 a8bc
0.025269 -0.03045176 0.016918248 -0.020526772

onnx::LSTM_182 f4 [1, 256, 7]
00000000: 930a 00b6 9149 88b8 211f d237 8340 8a36
00000010: 52b3 f538 fed5 41ba 2b55 69b7 d675 39b6
00000020: 0eba 04b7 85d5 2038 f1a2 f035 9f0b 1fb9
00000030: ab74 c4b9 2921 2137 1f97 2a37 e7da 21b8
00000040: 9819 8db6 c4e1 c537 ca4a 27b9 2f1e 9fb9
00000050: 2209 0337 f4d7 1cb6 6998 e4b6 5512 d836
00000060: b2ef 5335 f9be 0eb8 6474 c4b7 feff c1b4
00000070: 62be 7f3d d7f7 eb3b 3203 263c 37e4 fc3b
00000080: 961d 27be e179 8d3d 635a 663b 1265 6536
00000090: ed3f 82b8 1305 2cb6 a7e8 c3b6 ae72 49b9
000000a0: 592e c4b9 1186 bab7 0dd5 5e3d 8819 5c3d
000000b0: 9cb4 563d 2e39 473d 5e25 143e e7e2 de3d
000000c0: cad7 c8ba 3dec 573e 13ef 9e3e a0a7 1f3e
000000d0: becf 4a3e 0bce 12bd 9d40 9abb fd9e c63e
000000e0: 4651 993d 44a8 b23d cdc9 14bb b23e c13d
000000f0: 0848 483b 75c8 ab3e 1c1b 47bd 03ac 22bd
00000100: 50fc 193e 8559 7a3d da97 533d 3f29 a13e
00000110: bd57 e7ba 1954 97bd 0e29 9ab7 8b6a 85b8
00000120: dc60 3b38 cb6e 86b6 a4b7 f537 1d65 0fba
00000130: 387e 69b7 43fc a33e 7663 4f3e 8a75 073e
00000140: ffa5 073e 4cc3 803d 0844 afbc 9fda ad3e
00000150: 2f44 ce3d 5a92 d53d faae 2b3e 95cd 29bd
00000160: 44d5 efba 35fc b7bd 687e cfbd 77f3 8e3d
00000170: 6b13 9b3d c939 023d 9de0 a23c dfe3 8a3e
00000180: b607 b13d f38d 383d 3339 0136 7706 c6b8
00000190: b8dc 0b38 36c1 36b2 7da3 fdb6 1fae 39ba
000001a0: 084a 1cb8 0a33 b33d 12a5 963d f908 483e
000001b0: fd7c 313e d1ec b93c 422e 12bf 70c8 6a3d
000001c0: 9ac2 f23d 4a49 063e e534 1b3e 1aef 5d3e
000001d0: 5cf3 9a3b 0c1b 52bd 05cd 833e 3596 4f37
000001e0: ab55 c6b8 613a 5437 1ff3 5638 ea92 f8b7
000001f0: 55db 4bba d069 29b8 7d48 a53d 1138 ba3d
00000200: 1d88 963d 068d aa3d 25c1 ea3b 5392 ec3c
00000210: 2660 cf3c 12b6 0737 c8f6 5db6 9aad 39b8
00000220: 8056 16b8 880c 14ba e6ae a2b9 6f05 46b8
00000230: ecb0 753d a37d 933d f70d 5d3d ca8d 813d
00000240: fd42 703b 4177 b9bd e3e2 8a3c e11d a53d
00000250: a708 ba3d a660 963d db61 aa3d d7fb ea3b
00000260: a205 ef3c b4c5 ce3c 480d a53d 05f6 b93d
00000270: c451 963d cd51 aa3d 8719 ea3b f004 f03c
00000280: 1586 ce3c a1da 543e 4359 143e 86ba 443e
00000290: 3ec3 923e 3211 143c 933c 43bd d17e aa3e
000002a0: d830 40b8 4a69 57b8 a33b 9eb6 65b4 03b8
000002b0: 0cc4 2238 d765 50b9 e0ab c5b7 b93e 5736
000002c0: 8c9d f0b7 9ef7 7eb7 86e9 9cb7 f9ea 99b9
000002d0: 1491 6bb9 83d2 16b1 9a5a 1aba 0726 48ba
000002e0: 65ed 8eb9 0ccf 99b9 53d8 6cbb 8384 fabb
000002f0: 0b9b bab7 2061 393e 9a06 0c3e 7257 933e
00000300: fc67 383e 3827 573c 1dbb 243d 8ec7 9a3e
00000310: c094 04b8 44d4 91b8 9558 aa37 38b5 28b7
00000320: aafd ac38 4def a4b9 b743 0c38 e393 e436
00000330: 71a1 0eb7 aba9 0537 cc37 1436 9a34 bab9
00000340: b825 86b9 3d42 1438 a29f d3b5 0286 55b8
00000350: 0df2 5a37 a518 22b8 dd0b 5b39 f0ad 28ba
00000360: 5484 c3b7 dd9d f23d c3ad 313e 44b6 d33d
00000370: f2e4 0e3e a90e 07bf 6501 873e 265c e43c
00000380: 013b 3037 d1c3 5bb8 af6d 2e36 2913 1638
00000390: e4be 04b9 a34b c9b9 409c abb5 8734 0339
000003a0: 8efa 7d37 c532 73b7 6b0c 06b9 bbc6 67ba
000003b0: cff9 baba b09c c0b8 eacd 9c3c c5d4 cd3c
000003c0: c411 e63c f467 623c 2296 28bd d4cb f9bd
000003d0: 6f49 2c3c c5c1 8337 2b56 fd35 b1d6 14b6
000003e0: 4e67 9db6 d031 e7b8 f054 5db9 755e 16b7
000003f0: ed6e 7536 4360 c9b8 049c f537 5724 1435
-1.9079641e-06 -6.498688e-05 2.5048446e-05 4.1202306e-06 0.000117159114 -0.0007394253 -1.3907712e-05 -2.7635738e-06
-7.911132e-06 3.834583e-05 1.7928816e-06 -0.00015167751 -0.00037470958 9.6040685e-06 1.0167975e-05 -3.858926e-05
-4.205107e-06 2.358936e-05 -0.00015954222 -0.00030349332 7.810335e-06 -2.3371513e-06 -6.8126724e-06 6.4394358e-06
7.895243e-07 -3.4033295e-05 -2.341922e-05 -3.613531e-07 0.062437423 0.0072011757 0.010132598 0.007717635
-0.1631988 0.06908012 0.003514909 3.418249e-06 -6.21079e-05 -2.563295e-06 -5.838537e-06 -0.00019211575
-0.00037418565 -2.2235357e-05 0.0544024 0.053735286 0.052418336 0.048638515 0.1446738 0.10883122
-0.0015323099 0.21086212 0.31041774 0.15591288 0.1980581 -0.03584103 -0.0047074095 0.38793173
0.07486205 0.087235 -0.002270329 0.09435786 0.0030560512 0.33551374 -0.048609838 -0.039714824
0.15037656 0.06112053 0.05165849 0.3147678 -0.0017650049 -0.07389087 -1.8377348e-05 -6.3617794e-05
4.467448e-05 -4.006409e-06 2.929179e-05 -0.0005470084 -1.391727e-05 0.32028398 0.20252785 0.13228431
0.13246916 0.0628725 -0.021394745 0.33955857 0.10071599 0.10428305 0.16765967 -0.041455824
-0.0018297811 -0.089836515 -0.10131532 0.06980031 0.07572063 0.03179339 0.019882495 0.27126977
0.08644049 0.04505725 1.9255792e-06 -9.44258e-05 3.3345743e-05 -1.0637725e-08 -7.55902e-06 -0.0007083136
-3.7262245e-05 0.08749969 0.073557034 0.19534673 0.17332835 0.02269593 -0.57101834 0.05732006
0.118535236 0.13113895 0.15156896 0.21673241 0.0047287177 -0.051295325 0.25742355 1.2373134e-05
-9.4573326e-05 1.2649777e-05 5.1248e-05 -2.9632316e-05 -0.00077765185 -4.0391285e-05 0.08070467 0.09092725
0.0735018 0.08327679 0.007164138 0.028878367 0.025314402 8.089019e-06 -3.3075212e-06 -4.4269116e-05
-3.5843346e-05 -0.0005647619 -0.00031029357 -4.721194e-05 0.05998318 0.07201698 0.053968396 0.06325872
0.0036661022 -0.09055949 0.016953891 0.080623396 0.090836816 0.07342653 0.08319446 0.007171135
0.02917749 0.025240757 0.08059174 0.090801276 0.07339814 0.083163835 0.0071441564 0.02929923
0.02521042 0.20786525 0.14487176 0.19211778 0.28664583 0.009037303 -0.04766519 0.33299878
-4.5821856e-05 -5.1358053e-05 -4.7157096e-06 -3.140084e-05 3.8806393e-05 -0.00019874364 -2.3564266e-05 3.2074006e-06
-2.8683593e-05 -1.5197233e-05 -1.8705392e-05 -0.00029357502 -0.00022465392 -2.1947535e-09 -0.00058881345 -0.0007635061
-0.00027261223 -0.00029336696 -0.0036139681 -0.007645191 -2.2245125e-05 0.18103456 0.13674393 0.28777653
0.18008417 0.013131909 0.040217508 0.30230373 -3.1609787e-05 -6.953676e-05 2.0306828e-05 -1.0055774e-05
8.248848e-05 -0.0003145881 3.3441665e-05 6.812146e-06 -8.501448e-06 7.966922e-06 2.2086197e-06 -0.00035515876
-0.00025586574 3.534764e-05 -1.5767184e-06 -5.0907962e-05 1.3050169e-05 -3.8646762e-05 0.00020889887 -0.000643461
-2.3307432e-05 0.11846516 0.17351441 0.10337499 0.13954523 -0.52756745 0.2636825 0.027875971
1.0504155e-05 -5.2396037e-05 2.5991865e-06 3.578063e-05 -0.00012659613 -0.0003839406 -1.2785968e-06 0.00012512702
1.5138312e-05 -1.4495749e-05 -0.00012783862 -0.0008841564 -0.0014265123 -9.184459e-05 0.019141156 0.02512587
0.028084643 0.01381873 -0.041158803 -0.1219708 0.010515555 1.5706648e-05 1.8875047e-06 -2.2178685e-06
-4.690991e-06 -0.00011024217 -0.00021107844 -8.962689e-06 3.6572412e-06 -9.602357e-05 2.9278926e-05 5.518718e-07

onnx::LSTM_183 f4 [1, 256, 64]
00000000: ae0d 0080 bf0d 0000 e60d 0000 ad0d 0080
00000010: 1b0e 0080 a70e 0080 ed0d 0000 bc0d 0000
00000020: 8a0e 0000 d50d 0080 b40d 0080 dc0d 0000
00000030: fa0d 0080 5b0e 0000 ed0d 0000 010e 0000
00000040: da0d 0000 c50d 0080 df0d 0000 c70d 0000
00000050: ae10 0080 dc0d 0000 d50d 0000 ae0d 0000
00000060: 320f 0000 e10d 0000 e310 0000 f90d 0000
00000070: c20d 0000 cc0d 0080 110e 0000 b20d 0000
00000080: d20d 0000 0c0e 0000 5d11 0000 140e 0000
00000090: c50d 0080 020e 0000 ba0d 0080 da0d 0000
000000a0: da0e 0080 1c0e 0000 e10d 0000 cd0d 0080
000000b0: d20d 0080 ba0d 0000 c80d 0000 d70d 0000
000000c0: 0f0e 0080 db0d 0080 990f 0000 330e 0000
000000d0: e10d 0080 c30d 0000 b20d 0000 c20d 0080
000000e0: bb0d 0000 e20d 0000 150e 0000 ee0d 0080
000000f0: ca0d 0080 cf0d 0000 d50d 0080 dc0d 0080
00000100: da0d 0000 6f0e 0080 140e 0080 cf0d 0080
00000110: eb0d 0080 f60d 0000 0b0e 0000 bb0d 0080
00000120: e00d 0000 cb0d 0080 f50d 0000 ea10 0080
00000130: af0d 0000 ce0d 0000 d40d 0000 b60d 0080
00000140: 4810 0000 f20d 0000 c60f 0000 c50d 0000
00000150: e50d 0080 2b0e 0000 b30d 0000 ec0d 0080
00000160: d80d 0080 b30d 0000 6a11 0080 cc0d 0080
00000170: b80d 0080 e00d 0080 d20d 0000 de0d 0000
00000180: 840e 0080 cb0d 0080 b40d 0080 cf05 68b7
00000190: 5c10 0080 3f0e 0000 1e0e 0000 74cd 1230
000001a0: dc0d 0000 ad0d 0000 dd0d 0080 d40d 0080
000001b0: d30d 0080 db0d 0000 cc0d 0000 b20d 0000
000001c0: dc0d 0080 c00d 0000 ac0d 0080 c20d 0000
000001d0: f00d 0080 ae0d 0000 be0d 0080 d00d 0000
000001e0: b40d 0080 cf0d 0080 770f 0000 ba0d 0000
000001f0: c90d 0000 ca0d 0000 fd0d 0080 e60d 0000
00000200: 270e 0000 e80d 0000 c90d 0000 500f 0080
00000210: b20d 0000 fd0f 0080 ef0d 0080 b90d 0080
00000220: ca0d 0000 c90d 0080 d50d 0080 bd0d 0000
00000230: c90d 0080 b90d 0000 b60d 0000 d70d 0000
00000240: b910 0000 d90d 0000 c20d 0080 c20d 0000
00000250: 2c0e 0080 d50d 0000 b50d 0080 c60d 0080
00000260: 3710 0080 dd0d 0080 3f0e 0080 d90d 0000
00000270: c00d 0000 ea0d 0080 470e 0080 c10d 0080
00000280: b60d 0000 5b11 0080 bd0d 0080 b50d 0080
00000290: d80d 0080 b10d 0080 d10d 0080 230f 0000
000002a0: b40d 0080 5c0e 0000 cd0d 0000 ca0d 0000
000002b0: b10d 0000 0b10 0080 f10d 0000 7a0e 0080
000002c0: 8cfc 83a8 df0d 0000 ef0d 0000 e80d 0080
000002d0: 4711 0080 b70d 0080 e70d 0000 de0d 0080
000002e0: bf0d 0000 c50d 0000 360f 0080 bc0d 0000
000002f0: b10d 0080 8f0e 0080 bf0d 0080 610e 0080
00000300: ea0d 0080 dd0d 0000 ec0d 0080 d20d 0080
00000310: c80d 0000 cc0d 0000 1b0e 0000 e00d 0000
00000320: eb0d 0000 cf16 eeaa e20d 0000 3611 0000
00000330: cb0d 0080 e60d 0000 b00d 0000 010e 0000
00000340: e80d 0080 5611 0080 e80d 0000 b90d 0000
00000350: 4011 0080 d40d 0000 b20f 0080 fd0e 0080
00000360: 030e 0000 ac0d 0000 c50d 0000 c20d 0080
00000370: e60f 0080 4c10 0080 5fed 66b7 d30d 0000
00000380: ae0d 0080 ad0d 0000 ed0d 0080 ba0d 0080
00000390: b50d 0080 390e 0000 b30d 0080 dc0d 0080
000003a0: d60d 0000 e80d 0000 340f 0080 bd0d 0000
000003b0: 190f 0080 fc0d 0080 ad0d 0080 f90d 0080
000003c0: 4a0e 0080 2c0e 0000 7311 0000 6a0e 0080
000003d0: b10d 0000 fd0d 0000 f20d 0080 e80d 0000
000003e0: 000e 0080 d90d 0000 bf0d 0080 b00d 0000
000003f0: 5a0e 0000 d80d 0080 e60d 0080 c00d 0000
-4.907e-42 4.931e-42 4.986e-42 -4.906e-42 -5.06e-42 -5.256e-42 4.996e-42 4.927e-42
5.216e-42 -4.962e-42 -4.916e-42 4.972e-42 -5.014e-42 5.15e-42 4.996e-42 5.024e-42
4.969e-42 -4.94e-42 4.976e-42 4.942e-42 -5.984e-42 4.972e-42 4.962e-42 4.907e-42
5.451e-42 4.979e-42 6.058e-42 5.012e-42 4.935e-42 -4.95e-42 5.046e-42 4.913e-42
4.958e-42 5.039e-42 6.229e-42 5.05e-42 -4.94e-42 5.025e-42 -4.924e-42 4.969e-42
-5.328e-42 5.061e-42 4.979e-42 -4.951e-42 -4.958e-42 4.924e-42 4.944e-42 4.965e-42
-5.043e-42 -4.97e-42 5.595e-42 5.094e-42 -4.979e-42 4.937e-42 4.913e-42 -4.935e-42
4.926e-42 4.98e-42 5.052e-42 -4.997e-42 -4.947e-42 4.954e-42 -4.962e-42 -4.972e-42
4.969e-42 -5.178e-42 -5.05e-42 -4.954e-42 -4.993e-42 5.008e-42 5.038e-42 -4.926e-42
4.977e-42 -4.948e-42 5.007e-42 -6.068e-42 4.909e-42 4.952e-42 4.96e-42 -4.919e-42
5.84e-42 5.003e-42 5.658e-42 4.94e-42 -4.984e-42 5.083e-42 4.914e-42 -4.994e-42
-4.966e-42 4.914e-42 -6.247e-42 -4.95e-42 -4.921e-42 -4.977e-42 4.958e-42 4.975e-42
-5.207e-42 -4.948e-42 -4.916e-42 -1.382963e-05 -5.869e-42 5.11e-42 5.064e-42 5.3406457e-10
4.972e-42 4.906e-42 -4.973e-42 -4.96e-42 -4.959e-42 4.97e-42 4.95e-42 4.913e-42
-4.972e-42 4.933e-42 -4.905e-42 4.935e-42 -5e-42 4.907e-42 -4.93e-42 4.955e-42
-4.916e-42 -4.954e-42 5.548e-42 4.924e-42 4.945e-42 4.947e-42 -5.018e-42 4.986e-42
5.077e-42 4.989e-42 4.945e-42 -5.493e-42 4.913e-42 -5.736e-42 -4.998e-42 -4.923e-42
4.947e-42 -4.945e-42 -4.962e-42 4.928e-42 -4.945e-42 4.923e-42 4.919e-42 4.965e-42
5.999e-42 4.968e-42 -4.935e-42 4.935e-42 -5.084e-42 4.962e-42 -4.917e-42 -4.941e-42
-5.817e-42 -4.973e-42 -5.11e-42 4.968e-42 4.933e-42 -4.991e-42 -5.122e-42 -4.934e-42
4.919e-42 -6.226e-42 -4.928e-42 -4.917e-42 -4.966e-42 -4.912e-42 -4.956e-42 5.43e-42
-4.916e-42 5.151e-42 4.951e-42 4.947e-42 4.912e-42 -5.755e-42 5.001e-42 -5.193e-42
-1.4653446e-14 4.976e-42 4.998e-42 -4.989e-42 -6.198e-42 -4.92e-42 4.987e-42 -4.975e-42
4.931e-42 4.94e-42 -5.457e-42 4.927e-42 -4.912e-42 -5.223e-42 -4.931e-42 -5.158e-42
-4.991e-42 4.973e-42 -4.994e-42 -4.958e-42 4.944e-42 4.95e-42 5.06e-42 4.977e-42
4.993e-42 -4.229312e-13 4.98e-42 6.174e-42 -4.948e-42 4.986e-42 4.91e-42 5.024e-42
-4.989e-42 -6.219e-42 4.989e-42 4.923e-42 -6.188e-42 4.96e-42 -5.63e-42 -5.377e-42
5.026e-42 4.905e-42 4.94e-42 -4.935e-42 -5.703e-42 -5.846e-42 -1.3764336e-05 4.959e-42
-4.907e-42 4.906e-42 -4.996e-42 -4.924e-42 -4.917e-42 5.102e-42 -4.914e-42 -4.972e-42
4.963e-42 4.989e-42 -5.454e-42 4.928e-42 -5.416e-42 -5.017e-42 -4.906e-42 -5.012e-42
-5.126e-42 5.084e-42 6.26e-42 -5.171e-42 4.912e-42 5.018e-42 -5.003e-42 4.989e-42
-5.022e-42 4.968e-42 -4.931e-42 4.91e-42 5.148e-42 -4.966e-42 -4.986e-42 4.933e-42

onnx::LSTM_184 f4 [1, 512]
00000000: 5dab a7b8 fe9d aa37 60cb 80b8 20fb a4b6
00000010: cdf5 373d c627 bdb8 4233 c43d 9dd2 f23e
00000020: ec9c 143e 2251 e33d ca19 93b8 6b44 f13e
00000030: 50f1 383e ddd7 d73d f1ea f1b8 7d4c a83e
00000040: 2e89 963e 3cd0 f6b8 429d 233e b2cf 38b8
00000050: 7fd9 f73d 2772 233e 7c61 233e a72d d53e
00000060: 5937 8bb8 1cbd 5db8 2a3c 9dba 548e fd3e
00000070: 3a6d 0237 b653 0437 f9b8 bbb8 2a3e 9b3e
00000080: 61ef 9fb8 5569 0bb9 8db7 323d 37ae 0fb7
00000090: c448 f9b8 a901 523e 2bbb 4c3e cb1c f73e
000000a0: 7c0f 183e 83fb 13b7 bbdc bab6 5496 233e
000000b0: 434a c33d c0f6 34b5 13ce 223e 567d 2bb7
000000c0: b7ae b8b8 b96c 44b8 72ce 3db7 22c8 613e
000000d0: 5119 b5b8 f7ee ebb7 a762 713e 9b13 7cb7
000000e0: 96ab f6b8 b6e0 ccb7 1425 82b8 602b c73d
000000f0: 908b 233e 4d18 b1b7 774c b33e ef19 70b8
00000100: 16c6 a8b8 d0f8 a537 3796 81b8 3709 a7b6
00000110: 9320 493d fe26 beb8 5bd4 d53d 50f6 003f
00000120: 6209 1f3e 642a e53d f425 94b8 2048 003f
00000130: 88cd 2c3e c435 de3d 7c19 f4b8 d692 ad3e
00000140: ca4e 9e3e f06d f8b8 373d 343e faf3 39b8
00000150: 13ff 063e 990b 343e 6df8 333e c589 e23e
00000160: 91b1 8cb8 1b8a 5eb8 fa75 9eba 9d7b 063f
00000170: 51c9 0237 c7cd 0137 fcbf bcb8 f261 9d3e
00000180: e3ea a0b8 8671 0db9 4c5d 423d eab7 11b7
00000190: df59 fbb8 98fa 573e 4f36 533e ff51 013f
000001a0: dfb3 263e 1828 16b7 38bf bcb6 3135 343e
000001b0: a9c7 cf3d 11da 36b5 e24e 333e 36e5 2ab7
000001c0: cbf6 b9b8 be48 46b8 4830 40b7 99f0 883e
000001d0: b412 b6b8 58fb eeb7 66b8 7c3e 0ec6 7cb7
000001e0: e4da f7b8 6fc6 cdb7 8ad2 82b8 fe37 d93d
000001f0: d328 343e 49d0 b2b7 f14e be3e 626f 72b8
00000200: 0000 0000 0000 0000 0000 0000 0000 0000
00000210: 0000 0000 0000 0000 0000 0000 0000 0000
00000220: 0000 0000 0000 0000 0000 0000 0000 0000
00000230: 0000 0000 0000 0000 0000 0000 0000 0000
00000240: 0000 0000 0000 0000 0000 0000 0000 0000
00000250: 0000 0000 0000 0000 0000 0000 0000 0000
00000260: 0000 0000 0000 0000 0000 0000 0000 0000
00000270: 0000 0000 0000 0000 0000 0000 0000 0000
00000280: 0000 0000 0000 0000 0000 0000 0000 0000
00000290: 0000 0000 0000 0000 0000 0000 0000 0000
000002a0: 0000 0000 0000 0000 0000 0000 0000 0000
000002b0: 0000 0000 0000 0000 0000 0000 0000 0000
000002c0: 0000 0000 0000 0000 0000 0000 0000 0000
000002d0: 0000 0000 0000 0000 0000 0000 0000 0000
000002e0: 0000 0000 0000 0000 0000 0000 0000 0000
000002f0: 0000 0000 0000 0000 0000 0000 0000 0000
00000300: 1226 0d3b 29cf 0abb 8537 07bb 49b9 5c39
00000310: efd0 e63d dd1c f33a 39d3 5d3e 4f47 793c
00000320: fef6 cabd d51d ea3d 175e efba bbb5 9e3d
00000330: db8d 4f3e fe75 cabb 7932 143b b599 32be
00000340: ace3 2ebd b0c4 1e3b fcfb 943e 2400 83ba
00000350: e8d9 833e e6ea 943e 43e4 943e e5b2 8c3d
00000360: 0910 46ba f55e ff3a f79f 193b d62e c33c
00000370: 5563 78ba fb37 0ebb e3c4 04bb 52fd 18be
00000380: 5115 08bb 2a5a 55bb 31d4 193e c99c a23a
00000390: 8cf7 14bb 7f61 0fbc 1ba5 5cbc 8752 203c
000003a0: 1637 90be 9cef 163a 5e24 80ba 42f9 943e
000003b0: 5f3a 843d 3980 f239 eca9 943e 1748 0eba
000003c0: a73f 0dbb 2ca3 e03a 126e a6ba 5d3c 28bd
000003d0: c6d9 12bb 7ce7 deba 9665 863c 6bc2 ac39
000003e0: dfa9 153b d70e d53a c8a4 f43a 015b 623e
000003f0: f8f4 94be bc00 45ba a22a 2fbe 2c57 023b
-7.9950994e-05 2.033915e-05 -6.141397e-05 -4.9168157e-06 0.04491215 -9.019631e-05 0.09580089 0.4742631
0.14512986 0.11099459 -7.01431e-05 0.4712251 0.18060803 0.105392195 -0.00011535537 0.32870856
0.29401535 -0.00011768981 0.15977958 -4.406245e-05 0.12102031 0.15961514 0.15955156 0.41636392
-6.638346e-05 -5.2866628e-05 -0.001199608 0.4952265 7.774035e-06 7.887304e-06 -8.951309e-05 0.30320865
-7.6262986e-05 -0.00013295312 0.04363208 -8.564027e-06 -0.00011886799 0.20508446 0.19993274 0.48264155
0.14849657 -8.820442e-06 -5.5689284e-06 0.15975314 0.09535649 -6.7414294e-07 0.15898924 -1.0221576e-05
-8.806347e-05 -4.6831297e-05 -1.1313345e-05 0.22049001 -8.635468e-05 -2.812546e-05 0.23572789 -1.5024935e-05
-0.000117621545 -2.4423334e-05 -6.2057894e-05 0.0972507 0.15971208 -2.111136e-05 0.35019276 -5.724461e-05
-8.047761e-05 1.9785395e-05 -6.179179e-05 -4.9780606e-06 0.04910333 -9.067169e-05 0.10440894 0.50375843
0.15530923 0.11189726 -7.064259e-05 0.50110054 0.16875279 0.10850099 -0.000116395735 0.3390109
0.30919486 -0.00011846039 0.17601477 -4.4334658e-05 0.1318324 0.17582549 0.17575236 0.44245735
-6.7087945e-05 -5.3057545e-05 -0.0012089603 0.5253237 7.795476e-06 7.73691e-06 -9.0002985e-05 0.3073879
-7.6731456e-05 -0.00013489099 0.047452256 -8.685494e-06 -0.000119853525 0.21091688 0.20626186 0.5051574
0.16279553 -8.950032e-06 -5.6250974e-06 0.17598416 0.10145504 -6.811761e-07 0.1751056 -1.0186157e-05
-8.867456e-05 -4.7274625e-05 -1.1455333e-05 0.2674606 -8.68192e-05 -2.8488852e-05 0.24679717 -1.5066484e-05
-0.00011818649 -2.4530307e-05 -6.238099e-05 0.10606383 0.17593698 -2.1316244e-05 0.37169603 -5.780103e-05
0.0 0.0 0.0 0.0 0.0 0.0 0.0 0.0
0.0 0.0 0.0 0.0 0.0 0.0 0.0 0.0
0.0 0.0 0.0 0.0 0.0 0.0 0.0 0.0
0.0 0.0 0.0 0.0 0.0 0.0 0.0 0.0
0.0 0.0 0.0 0.0 0.0 0.0 0.0 0.0
0.0 0.0 0.0 0.0 0.0 0.0 0.0 0.0
0.0 0.0 0.0 0.0 0.0 0.0 0.0 0.0
0.0 0.0 0.0 0.0 0.0 0.0 0.0 0.0
0.0021537584 -0.0021180606 -0.0020632457 0.00021049859 0.1127032 0.0018548031 0.21662606 0.015214755
-0.09910391 0.11431471 -0.0018262294 0.07749506 0.20268957 -0.0061786165 0.0022613092 -0.17441447
-0.042697594 0.0024226122 0.290985 -0.0009994549 0.25752187 0.29085463 0.290804 0.06870059
-0.000755549 0.0019483255 0.0023441294 0.023826044 -0.0009475251 -0.0021700847 -0.0020258955 -0.14940384
-0.0020764659 -0.0032554963 0.15022351 0.0012406345 -0.0022730557 -0.008751272 -0.013467099 0.009785301
-0.28167027 0.00057577505 -0.0009776463 0.2909642 0.06456446 0.0004625337 0.2903589 -0.00054276123
-0.0021552832 0.0017138473 -0.0012697598 -0.041073192 -0.0022407635 -0.0017006244 0.016405862 0.0003295125
0.0022836847 0.0016255033 0.0018664831 0.22105028 -0.29093146 -0.0007515063 -0.17106107 0.0019888384

onnx::LSTM_202 f4 [1, 256, 64]
00000000: 876c 4433 afeb 7434 6a1f 1e35 fce5 b733
00000010: ff2a 26b7 1f8c cfb4 3595 b2b7 47d3 d636
00000020: 868c ffb7 45d6 3537 9431 fcb3 42e4 6737
00000030: 266c 3db7 0c2c 17b6 c2e6 9733 8adf 0f37
00000040: 56d1 8cb6 4e2d a533 7e68 8db7 ce01 0934
00000050: f3ca 95b5 b6ac 8db7 74c4 8db7 8057 6d37
00000060: cd33 c2b3 f695 eeb4 4b03 7735 89b1 20b7
00000070: 2a97 5bb0 2c2e 9634 d05f f2b2 08cc 6837
00000080: d27d ff34 9c18 dfb4 a093 9636 4b89 b133
00000090: a77a d7b3 6c4c 04b7 089b 2137 4f8a 5137
000000a0: 922f f836 9281 e4b1 4e0e f9b3 a172 8db7
000000b0: 1d1b ed36 e0f4 a8b2 19c1 8eb7 750d c6b3
000000c0: 6200 7cb3 e936 4034 9cc1 2ab2 e5bc f3b3
000000d0: 7958 43b4 7da6 56b4 78bd 82b7 5bc2 84b4
000000e0: 310a 9e34 edc4 8bb4 18ef 16b5 e8ad b2b7
000000f0: 1584 8d37 0143 1f34 2ca8 a037 f1f4 9ab2
00000100: e1ee 153b fe9b 0fbb d087 01bb 0303 2c3a
00000110: 00bb a83d 5fa4 f23a 37c7 0c3e 2257 913d
00000120: f5fe 013e c757 75bd e6ab 16bb e5e7 a4bc
00000130: 0941 653d bd06 9e3c 6eb6 103b a816 243d
00000140: c229 3e3d 468b fd3a 43a8 323e 3378 6b3a
00000150: 072d 213e a28a 323e 837e 323e 6e55 7cbd
00000160: 912a 0dbb 1e22 023b 630c b33b 051c 783d
00000170: 9679 05bb 900e 09bb 4456 12bb e19a 36bc
00000180: 1634 00bb 8e46 c7ba 2788 b03d c09d 153a
00000190: def0 0ebb d5cc 69bc 76f7 92bd 0afd 9cbc
000001a0: 6e84 2dbe 1b14 f63a e740 90b9 49a3 323e
000001b0: 25f1 4f3d a50d 1039 ce1c 323e 411a 043a
000001c0: 57e4 0ebb 760f 193b 8772 30ba ea6a dbbc
000001d0: 042c f2ba 95d2 1bbb 599d 2f3d aff6 783a
000001e0: 2c96 ed3a c1f7 da3a 40db f53a ab7d 0e3e
000001f0: fe9b 32be 6736 81ba 03db 53bc 3347 093b
00000200: ff87 0f36 abdc a9b5 6d00 f4b5 a0a3 b634
00000210: f540 9e38 0c5e 4d36 b75a 0739 8d47 3f38
00000220: 7880 cc38 8589 25b9 d77d 58b6 1805 5fb8
00000230: 7815 6d38 6b17 78b7 afe5 3a36 032d 41b9
00000240: 0d60 ab38 4e53 1e36 c502 8539 373c 7036
00000250: 52fa 2f39 6704 8539 4902 8539 8d12 b3b8
00000260: 4bac b7b6 f5bd 3336 15fd 6336 9b6f 08b8
00000270: 4430 35b6 7474 f4b5 6fcd 0cb6 e727 25b9
00000280: cdd0 e7b5 f624 d7b6 1be1 92b7 8e47 1cb6
00000290: 5c5e 48b6 8366 54b8 c7b4 04b9 78a6 b4b7
000002a0: 63f3 64b9 c6e6 2036 2c20 76b5 ed01 8539
000002b0: e2a2 3238 e607 1e34 1a1c 8539 4bf5 2e35
000002c0: 0c93 71b5 52bc c134 955d 6b36 cebc e8b8
000002d0: 20f6 26b6 8a61 a5b6 4675 8c36 3830 6335
000002e0: 5a31 4736 baa1 ba35 8870 0f36 5b3c 0a39
000002f0: 0e03 85b9 819d 8fb5 808a 4eb8 df9c c435
00000300: 6ff3 dc33 b76a 0033 bf8f dbb3 b770 a631
00000310: 1a35 43b6 80d8 9433 efc2 d0b6 4af6 1936
00000320: 87db efb6 9d79 6336 52c7 feb2 7026 2536
00000330: 6cd1 acb6 4662 8fb5 6213 eb33 d83a 0db5
00000340: 9165 61b5 26d0 06b4 e285 7cb6 a1f7 1eb4
00000350: 233d 5936 9360 7db6 10b0 7db6 0735 6735
00000360: 4d07 1134 8db9 8433 136d 2d33 bd38 d5b5
00000370: 4bee 0d33 fbe9 5cb3 3402 60b3 47d8 8236
00000380: df45 b2b3 fe58 ed34 dce2 c436 4fd5 1a32
00000390: 13c3 b0b3 cf4f 9ab6 d860 6336 b1cc aa35
000003a0: 5443 12b5 f8ae aa33 f9db dfb1 f0a7 7cb6
000003b0: 326f 1936 ffb2 8c31 0c5e 80b6 fdf5 4fb3
000003c0: b1c2 b9b3 942d 9a33 ae40 bdaf d53f 20b5
000003d0: 47a1 1233 fa92 adb3 2b2f 65b6 6e77 2cb3
000003e0: ca7a 12b3 72a8 c0b3 d796 aa33 f0a7 d0b6
000003f0: dfde 7c36 83fb b0b2 0864 bd36 13c5 3cb4
4.573351e-08 2.2810012e-07 5.89053e-07 8.5634355e-08 -9.904382e-06 -3.8658706e-07 -2.1288733e-05 6.402293e-06
-3.0463805e-05 1.0838329e-05 -1.1743683e-07 1.3821818e-05 -1.1290458e-05 -2.2526392e-06 7.07346e-08 8.575511e-06
-4.196695e-06 7.691652e-08 -1.6857168e-05 1.2759776e-07 -1.1160431e-06 -1.6888935e-05 -1.689999e-05 1.41466735e-05
-9.0432515e-08 -4.4440065e-07 9.201946e-07 -9.578079e-06 -7.9886553e-10 2.7973272e-07 -2.8216078e-08 1.3875782e-05
4.7588998e-07 -4.1554893e-07 4.487534e-06 8.267178e-08 -1.0034028e-07 -7.8856065e-06 9.632444e-06 1.2489573e-05
7.396514e-06 -6.650404e-09 -1.1597568e-07 -1.6861888e-05 7.066307e-06 -1.966913e-08 -1.7017637e-05 -9.222541e-08
-5.867367e-08 1.790137e-07 -9.939324e-09 -1.1349929e-07 -1.8192976e-07 -1.9990871e-07 -1.5585436e-05 -2.4728328e-07
2.943721e-07 -2.603405e-07 -5.622728e-07 -2.1300235e-05 1.6870015e-05 1.4832405e-07 1.9151797e-05 -1.8039346e-08
0.0022877979 -0.0021913047 -0.0019764788 0.0006561728 0.082387924 0.0018512121 0.1374787 0.070966974
0.12694915 -0.059898164 -0.0022990643 -0.020130107 0.055970225 0.019290322 0.0022081393 0.04006067
0.046426542 0.0019343875 0.17446999 0.00089824497 0.15739833 0.17435697 0.17431073 -0.06160491
-0.0021540264 0.0019856761 0.005464123 0.060573597 -0.002036666 -0.002091322 -0.002232925 -0.011145324
-0.0019562296 -0.0015203522 0.08619719 0.00057074055 -0.0021811049 -0.014270027 -0.07176106 -0.019163627
-0.16945049 0.0018774302 -0.00027514176 0.17445101 0.050767083 0.00013737993 0.173938 0.00050393125
-0.0021803582 0.0023355163 -0.0006730933 -0.026784379 -0.0018476252 -0.002377664 0.042874668 0.0009497208
0.001812642 0.0016705916 0.0018757358 0.13915126 -0.17442319 -0.0009858132 -0.012930634 0.002094698
2.138782e-06 -1.2655704e-06 -1.8179541e-06 3.4019195e-07 7.546126e-05 3.0602123e-06 0.00012908397 4.5604585e-05
9.751407e-05 -0.00015786856 -3.2259757e-06 -5.3172087e-05 5.6525198e-05 -1.4787404e-05 2.7849853e-06 -0.00018422682
8.171806e-05 2.3592324e-06 0.000253698 3.5797837e-06 0.00016782552 0.00025371017 0.0002536944 -8.5388405e-05
-5.4738825e-06 2.6783648e-06 3.397295e-06 -3.2528867e-05 -2.6999196e-06 -1.8213309e-06 -2.0981204e-06 -0.00015750491
-1.727161e-06 -6.411802e-06 -1.750938e-05 -2.3287462e-06 -2.9857247e-06 -5.064021e-05 -0.00012655846 -2.153519e-05
-0.00021834443 2.3976186e-06 -9.168896e-07 0.00025369172 4.2590204e-05 1.471777e-07 0.00025388674 6.5177e-07
-8.999348e-07 3.6086072e-07 3.50722e-06 -0.0001109779 -2.4879191e-06 -4.9287382e-06 4.1859776e-06 8.463426e-07
2.9682037e-06 1.3905149e-06 2.1374162e-06 0.0001318319 -0.00025370013 -1.070017e-06 -4.9243215e-05 1.4648793e-06
1.02888286e-07 2.989938e-08 -1.02241295e-07 4.84405e-09 -2.9088174e-06 6.931168e-08 -6.2215763e-06 2.2942136e-06
-7.1483114e-06 3.3896424e-06 -2.9660132e-08 2.460929e-06 -5.1503794e-06 -1.0682932e-06 1.0946566e-07 -5.261222e-07
-8.396683e-07 -1.2555446e-07 -3.7628856e-06 -1.4804984e-07 3.2371106e-06 -3.7756151e-06 -3.780242e-06 8.613137e-07
1.3506833e-07 6.1804805e-08 4.0378904e-08 -1.588625e-06 3.3045847e-08 -5.1435546e-08 -5.2156068e-08 3.89948e-06
-8.3014804e-08 4.420944e-07 5.867665e-06 9.0124805e-09 -8.2311225e-08 -4.5988486e-06 3.3882006e-06 1.272556e-06
-5.4487214e-07 7.9480685e-08 -6.515162e-09 -3.7648679e-06 2.28635e-06 4.0948858e-09 -3.8256458e-06 -4.841967e-08
-8.650148e-08 7.1794744e-08 -3.4424857e-10 -5.969753e-07 3.4139955e-08 -8.082675e-08 -3.4151115e-06 -4.015549e-08
-3.410495e-08 -8.971337e-08 7.9436795e-08 -6.2184336e-06 3.7680654e-06 -2.0603471e-08 5.644284e-06 -1.758056e-07

onnx::LSTM_203 f4 [1, 256, 64]
00000000: 4811 0000 fa0d 0000 e510 0000 ba0d 0000
00000010: d90d 0080 fe0d 0000 9a3f 15af c20d 0080
00000020: e30f 0080 cd0e 0080 b40d 0080 f50d 0000
00000030: cd0d 0080 090e 0000 2d0e 0080 060f 0000
00000040: e70d 0000 c50d 0080 d10d 0080 120e 0000
00000050: d70d 0000 c00d 0000 bd0d 0000 d70d 0000
00000060: f00d 0000 c80d 0080 250e 0080 d20d 0000
00000070: b90d 0080 cb0d 0000 6c0e 0080 231d a7a4
00000080: c50d 0000 c20d 0000 ff0e 0000 0e0f 0000
00000090: b90d 0000 2210 0000 b90f 0000 de0d 0000
000000a0: f20d 0000 120e 0080 7f0f 0080 6b11 0080
000000b0: 2b0f 0080 ae0d 0080 e90f 0000 800f 0080
000000c0: d00d 0080 b90d 0000 ae0d 0080 c60d 0080
000000d0: af0d 0000 e20d 0000 d20d 0080 540f 0080
000000e0: b20d 0080 df0d 0000 1e0e 0080 be0d 0080
000000f0: c10d 0000 db0d 0080 310e 0080 c90d 0080
00000100: c70d 0000 db0f 0080 c40d 0000 c20d 0000
00000110: 290e 0000 550f 0080 ae0f 0080 2410 0000
00000120: 940e 0000 d00d 0000 090e 0080 ea0d 0000
00000130: 510e 0080 660e 0000 ae0d 0080 be0d 0080
00000140: 5610 0080 900e 0000 dd0d 0080 b70d 0080
00000150: b90d 0080 b60d 0080 cb0d 0000 c10d 0080
00000160: f40f 0000 b80d 0000 da0d 0080 110e 0080
00000170: b30d 0000 c90d 0000 da0d 0000 ac0d 0080
00000180: a10e 0080 7c0e 0080 d10d 0080 b30d 0080
00000190: dd0d 0000 d40d 0000 d90d 0000 bd0d 0000
000001a0: d30d 0000 d00d 0080 d70d 0080 bb0d 0000
000001b0: c00d 0080 b00d 0000 c80d 0080 b20d 0080
000001c0: cc0d 0000 c00d 0000 d70d 0080 d50d 0000
000001d0: 3511 0080 e00d 0080 ba0d 0080 b10d 0000
000001e0: cc0d 0080 db0d 0080 ca0d 0080 af0d 0080
000001f0: 220e 0000 3f0e 0080 bb0d 0080 af0d 0000
00000200: c40d 0080 fc0d 0000 0a0e 0000 270f 0000
00000210: db0d 0000 bd0d 0080 d20d 0080 580e 0080
00000220: d70d 0000 c10d 0000 4c0e 0080 670e 0080
00000230: be0d 0080 c00d 0080 ad0d 0000 ac0d 0080
00000240: f30d 0000 150f 0080 080f 0080 bf0d 0080
00000250: d10d 0080 600e 0000 b40d 0000 e20d 0080
00000260: d70d 0000 e90d 0080 d30d 0080 380e 0000
00000270: db0d 0080 d30d 0080 640f 0000 bd0d 0000
00000280: cd0d 0000 da0d 0080 620f 0080 d50d 0080
00000290: d00d 0080 af0d 0080 fd0d 0000 120e 0000
000002a0: c00d 0000 ad0d 0000 bd0d 0080 250e 0080
000002b0: d10d 0000 c60d 0000 ef0d 0000 b70d 0000
000002c0: bf0d 0000 f90d 0000 c70d 0000 c50d 0000
000002d0: 120e 0000 d00d 0080 c30d 0080 cf0d 0000
000002e0: 3a0e 0080 b50d 0080 c20d 0080 b70d 0080
000002f0: c50d 0080 c60d 0080 060e 0000 c50d 0000
00000300: b40d 0000 da0d 0080 f40d 0000 d90d 0080
00000310: c00d 0080 c50e 0000 d60d 0080 d50d 0080
00000320: 010e 0080 d80d 0000 af0d 0080 260e 0000
00000330: b90d 0000 c30d 0000 e00d 0080 6ece 02a8
00000340: c60d 0000 b30d 0080 b70d 0000 1d0e 0080
00000350: db0f 0000 d70d 0080 d20d 0080 000e 0080
00000360: c00d 0000 ae0d 0080 fb0d 0080 ef0e 0000
00000370: 920e 0000 bc0d 0080 cc0d 0080 d40d 0000
00000380: c10d 0000 b70d 0080 1e10 0000 cf0d 0000
00000390: b00d 0080 b20d 0080 ba0d 0000 c30d 0080
000003a0: ad0d 0000 e60d 0080 e40d 0000 ae0d 0080
000003b0: ca0f 0000 d90d 0080 b70d 0080 ce0d 0000
000003c0: eb0d 0080 d80d 0000 b50d 0000 0f0e 0080
000003d0: ae0d 0000 cc0d 0000 a70f 0000 c90d 0080
000003e0: 5e0f 0000 d10d 0080 dd0d 0000 ba0d 0000
000003f0: b80f 0000 ca0d 0000 ca0d 0080 d00d 0080
6.2e-42 5.014e-42 6.06e-42 4.924e-42 -4.968e-42 5.02e-42 -1.3574067e-10 -4.935e-42
-5.699e-42 -5.31e-42 -4.916e-42 5.007e-42 -4.951e-42 5.035e-42 -5.085e-42 5.39e-42
4.987e-42 -4.94e-42 -4.956e-42 5.047e-42 4.965e-42 4.933e-42 4.928e-42 4.965e-42
5e-42 -4.944e-42 -5.074e-42 4.958e-42 -4.923e-42 4.948e-42 -5.174e-42 -7.2474065e-17
4.94e-42 4.935e-42 5.38e-42 5.4e-42 4.923e-42 5.787e-42 5.64e-42 4.975e-42
5.003e-42 -5.047e-42 -5.559e-42 -6.248e-42 -5.441e-42 -4.907e-42 5.707e-42 -5.56e-42
-4.955e-42 4.923e-42 -4.907e-42 -4.941e-42 4.909e-42 4.98e-42 -4.958e-42 -5.499e-42
-4.913e-42 4.976e-42 -5.064e-42 -4.93e-42 4.934e-42 -4.97e-42 -5.091e-42 -4.945e-42
4.942e-42 -5.688e-42 4.938e-42 4.935e-42 5.08e-42 -5.5e-42 -5.625e-42 5.79e-42
5.23e-42 4.955e-42 -5.035e-42 4.991e-42 -5.136e-42 5.165e-42 -4.907e-42 -4.93e-42
-5.86e-42 5.224e-42 -4.973e-42 -4.92e-42 -4.923e-42 -4.919e-42 4.948e-42 -4.934e-42
5.723e-42 4.921e-42 -4.969e-42 -5.046e-42 4.914e-42 4.945e-42 4.969e-42 -4.905e-42
-5.248e-42 -5.196e-42 -4.956e-42 -4.914e-42 4.973e-42 4.96e-42 4.968e-42 4.928e-42
4.959e-42 -4.955e-42 -4.965e-42 4.926e-42 -4.933e-42 4.91e-42 -4.944e-42 -4.913e-42
4.95e-42 4.933e-42 -4.965e-42 4.962e-42 -6.173e-42 -4.977e-42 -4.924e-42 4.912e-42
-4.95e-42 -4.97e-42 -4.947e-42 -4.909e-42 5.07e-42 -5.11e-42 -4.926e-42 4.909e-42
-4.938e-42 5.017e-42 5.036e-42 5.436e-42 4.97e-42 -4.928e-42 -4.958e-42 -5.146e-42
4.965e-42 4.934e-42 -5.129e-42 -5.167e-42 -4.93e-42 -4.933e-42 4.906e-42 -4.905e-42
5.004e-42 -5.41e-42 -5.392e-42 -4.931e-42 -4.956e-42 5.157e-42 4.916e-42 -4.98e-42
4.965e-42 -4.99e-42 -4.959e-42 5.101e-42 -4.97e-42 -4.959e-42 5.521e-42 4.928e-42
4.951e-42 -4.969e-42 -5.518e-42 -4.962e-42 -4.955e-42 -4.909e-42 5.018e-42 5.047e-42
4.933e-42 4.906e-42 -4.928e-42 -5.074e-42 4.956e-42 4.941e-42 4.998e-42 4.92e-42
4.931e-42 5.012e-42 4.942e-42 4.94e-42 5.047e-42 -4.955e-42 -4.937e-42 4.954e-42
-5.104e-42 -4.917e-42 -4.935e-42 -4.92e-42 -4.94e-42 -4.941e-42 5.03e-42 4.94e-42
4.916e-42 -4.969e-42 5.005e-42 -4.968e-42 -4.933e-42 5.298e-42 -4.963e-42 -4.962e-42
-5.024e-42 4.966e-42 -4.909e-42 5.076e-42 4.923e-42 4.937e-42 -4.977e-42 -7.261212e-15
4.941e-42 -4.914e-42 4.92e-42 -5.063e-42 5.688e-42 -4.965e-42 -4.958e-42 -5.022e-42
4.933e-42 -4.907e-42 -5.015e-42 5.357e-42 5.227e-42 -4.927e-42 -4.95e-42 4.96e-42
4.934e-42 -4.92e-42 5.782e-42 4.954e-42 -4.91e-42 -4.913e-42 4.924e-42 -4.937e-42
4.906e-42 -4.986e-42 4.983e-42 -4.907e-42 5.664e-42 -4.968e-42 -4.92e-42 4.952e-42
-4.993e-42 4.966e-42 4.917e-42 -5.043e-42 4.907e-42 4.95e-42 5.615e-42 -4.945e-42
5.513e-42 -4.956e-42 4.973e-42 4.924e-42 5.639e-42 4.947e-42 -4.947e-42 -4.955e-42

onnx::LSTM_204 f4 [1, 512]
00000000: 4d20 c7b7 2ed7 263f 4818 cfb8 f1a0 28b7
00000010: 7cea ee34 736b 9b30 92fb 5e37 ddb9 aeb7
00000020: ac74 97b3 7dcc 54b7 f8b0 61b7 1159 e7b7
00000030: 41ef 2f37 eda4 b6b7 4d20 29b2 e6ab 213f
00000040: 359c 39b8 41c2 aa3e c0ec 91b7 598f e0b7
00000050: e0a2 99b1 dd0b 1634 c6e0 3fb8 36b2 a1b7
00000060: eb27 5f34 e1c3 483f de43 2ab5 7717 ecb7
00000070: b648 b22f 0056 23b2 b14d c2b2 bc35 07b6
00000080: d8a1 c63e 556e d4ae 239c 6030 ffa9 29b7
00000090: 538b 8033 9b41 1cb6 416d 90b7 4ebe e13e
000000a0: ab37 53b7 09f9 6c34 18b3 20b6 6754 03b8
000000b0: 70d6 e6b7 7827 263f 99cd aa36 509a 17b2
000000c0: 535e 54b6 b775 5eb7 ed91 afb6 2a38 2cb8
000000d0: 1b85 cdad 5066 0eb7 6333 b9b8 cc7e b136
000000e0: 4937 28b7 6e47 413f e024 83b7 5e33 7238
000000f0: 3626 1db5 bc8c b9b7 bcba c8b8 2c23 4e3f
00000100: 9412 c7b7 eb7d 2f3f 3f19 cfb8 369e 28b7
00000110: 56b9 f134 1773 9b30 67cb 5e37 feb3 aeb7
00000120: 5178 97b3 e9ea 54b7 ed04 61b7 ac46 e7b7
00000130: 34b1 2f37 e88a b6b7 0529 29b2 cbec 2b3f
00000140: e218 3ab8 c8bd b33e d9d1 91b7 4cce e0b7
00000150: 10af 99b1 1372 1134 91e8 3fb8 62a9 a1b7
00000160: 542f 5f34 b9fa 533f 1a46 2ab5 1f0c ecb7
00000170: 6f33 b22f 87db 23b2 5856 c2b2 b23b 07b6
00000180: c0ae d03e 8449 d4ae d48b 6030 44ab 29b7
00000190: 31ca 7e33 c843 1cb6 4a5a 90b7 5026 f13e
000001a0: f390 53b7 21f6 6c34 03ed 20b6 aa4f 03b8
000001b0: ada5 e6b7 24d1 2e3f eab8 aa36 7da0 17b2
000001c0: ab6b 54b6 826e 5eb7 13a5 afb6 164a 2cb8
000001d0: 91a9 caad 3b63 0eb7 b23d b9b8 de79 b136
000001e0: 9f33 28b7 07e7 4b3f f625 83b7 eead 7138
000001f0: f089 1db5 7980 b9b7 9bc2 c8b8 dd66 593f
00000200: 0000 0000 0000 0000 0000 0000 0000 0000
00000210: 0000 0000 0000 0000 0000 0000 0000 0000
00000220: 0000 0000 0000 0000 0000 0000 0000 0000
00000230: 0000 0000 0000 0000 0000 0000 0000 0000
00000240: 0000 0000 0000 0000 0000 0000 0000 0000
00000250: 0000 0000 0000 0000 0000 0000 0000 0000
00000260: 0000 0000 0000 0000 0000 0000 0000 0000
00000270: 0000 0000 0000 0000 0000 0000 0000 0000
00000280: 0000 0000 0000 0000 0000 0000 0000 0000
00000290: 0000 0000 0000 0000 0000 0000 0000 0000
000002a0: 0000 0000 0000 0000 0000 0000 0000 0000
000002b0: 0000 0000 0000 0000 0000 0000 0000 0000
000002c0: 0000 0000 0000 0000 0000 0000 0000 0000
000002d0: 0000 0000 0000 0000 0000 0000 0000 0000
000002e0: 0000 0000 0000 0000 0000 0000 0000 0000
000002f0: 0000 0000 0000 0000 0000 0000 0000 0000
00000300: de60 4cba 77e2 c6bd b9d2 e5ba a55a e5b9
00000310: 7683 9bb9 ed81 16b7 f38e 7eba d5a3 1eba
00000320: f6a3 00b8 2db5 073a 2efc 213a 79e6 52ba
00000330: a866 5dba 5304 2bba 191b 0435 00bc cabd
00000340: 292a 003b c742 32bd aaf4 3eba 579e 4cba
00000350: 4717 7eb6 9613 ba39 5e49 b239 3049 1e3a
00000360: d30d e938 68d8 ca3d d993 24b9 d7f1 333a
00000370: 3929 a4b6 5f7e 3138 1369 b4b7 d98f 6039
00000380: a5ed 2b3c bf27 b634 a971 09b7 33ee b4b8
00000390: d214 10b9 80c0 6ab9 9f1c 5b3a ee97 4bbd
000003a0: d60f 393a 86eb cc38 6707 f5b9 9d92 35ba
000003b0: 724d 5aba 07b0 cfbd 3a5d 26ba bb27 81b7
000003c0: 74dd 21b9 ce0b f239 bd73 5ab9 58aa 313a
000003d0: ca07 d2b6 4cc4 bc39 25c4 033b d6be 313a
000003e0: c1f6 cd39 2db8 d53d f7bf 41b9 3c58 a73a
000003f0: e1e6 87b9 314c 5cba 7929 8dba 2d85 04be
-2.373769e-05 0.6517209 -9.875052e-05 -1.0051052e-05 4.4501564e-07 1.1308273e-09 1.3290804e-05 -2.0828966e-05
-7.052708e-08 -1.2683796e-05 -1.3452249e-05 -2.757882e-05 1.04865185e-05 -2.177289e-05 -9.844439e-09 0.6315292
-4.4252916e-05 0.3335133 -1.7395592e-05 -2.6769632e-05 -4.471403e-09 1.3974154e-07 -4.5747285e-05 -1.9275682e-05
2.0783015e-07 0.7842389 -6.3428695e-07 -2.8144319e-05 3.2429676e-10 -9.507403e-09 -2.2619902e-08 -2.0147845e-06
0.38795352 -9.660243e-11 8.171261e-10 -1.0112765e-05 5.9858074e-08 -2.3284e-06 -1.7217013e-05 0.44090503
-1.2589541e-05 2.2069811e-07 -2.3946104e-06 -3.131144e-05 -2.7517992e-05 0.64903975 5.0903295e-06 -8.824443e-09
-3.1645366e-06 -1.3259639e-05 -5.2323944e-06 -4.1060302e-05 -2.3364912e-11 -8.487681e-06 -8.831059e-05 5.289772e-06
-1.0026452e-05 0.7549962 -1.5633588e-05 5.7745136e-05 -5.854266e-07 -2.2119253e-05 -9.571525e-05 0.8052242
-2.37313e-05 0.6855151 -9.8752316e-05 -1.0050417e-05 4.5024598e-07 1.1310445e-09 1.3279589e-05 -2.0826232e-05
-7.053371e-08 -1.2690879e-05 -1.3412192e-05 -2.7570255e-05 1.0472071e-05 -2.1760774e-05 -9.8464215e-09 0.6715819
-4.436903e-05 0.3510573 -1.7383065e-05 -2.6798945e-05 -4.4727884e-09 1.3545677e-07 -4.5754543e-05 -1.927157e-05
2.0785711e-07 0.8280445 -6.3431946e-07 -2.8139037e-05 3.2414557e-10 -9.5377635e-09 -2.2623837e-08 -2.0151315e-06
0.40758324 -9.653703e-11 8.1689433e-10 -1.0113061e-05 5.9322876e-08 -2.3285265e-06 -1.7208182e-05 0.47099543
-1.2610329e-05 2.2068754e-07 -2.3979817e-06 -3.1307027e-05 -2.7495285e-05 0.68287873 5.0879216e-06 -8.825848e-09
-3.1653133e-06 -1.3257961e-05 -5.2346236e-06 -4.1076994e-05 -2.3040044e-11 -8.486963e-06 -8.832979e-05 5.2891983e-06
-1.0025599e-05 0.79649395 -1.5634094e-05 5.7620862e-05 -5.8687783e-07 -2.2113543e-05 -9.572991e-05 0.8492258
0.0 0.0 0.0 0.0 0.0 0.0 0.0 0.0
0.0 0.0 0.0 0.0 0.0 0.0 0.0 0.0
0.0 0.0 0.0 0.0 0.0 0.0 0.0 0.0
0.0 0.0 0.0 0.0 0.0 0.0 0.0 0.0
0.0 0.0 0.0 0.0 0.0 0.0 0.0 0.0
0.0 0.0 0.0 0.0 0.0 0.0 0.0 0.0
0.0 0.0 0.0 0.0 0.0 0.0 0.0 0.0
0.0 0.0 0.0 0.0 0.0 0.0 0.0 0.0
-0.0007796417 -0.097111635 -0.0017534114 -0.0004374582 -0.0002966185 -8.970947e-06 -0.0009710632 -0.00060516346
-3.067028e-05 0.00051768386 0.00061792403 -0.00080452074 -0.0008445778 -0.00065237767 4.9213264e-07 -0.098991394
0.001955638 -0.043520715 -0.00072843826 -0.0007805577 -3.7862499e-06 0.00035491277 0.00034005468 0.00060381275
0.00011112881 0.099045575 -0.00015695336 0.0006864345 -4.89238e-06 4.231778e-05 -2.1506601e-05 0.00021415892
0.010493671 3.392906e-07 -8.1923e-06 -8.627437e-05 -0.00013740666 -0.00022387691 0.0008358452 -0.04970544
0.00070595497 9.771348e-05 -0.00046735557 -0.0006926449 -0.000832758 -0.101409964 -0.00063462893 -1.53965e-05
-0.00015436654 0.00046166632 -0.00020833216 0.00067773974 -6.2593945e-06 0.00036004407 0.0020105925 0.0006780451
0.00039284493 0.10435519 -0.00018477427 0.0012767385 -0.00025921225 -0.00084036874 -0.0010769806 -0.12941428
